Models/Noise_1/toy_stop/internal_o3.pt (torch, 51615 bytes, 23 tensors)

weight f4 [20, 2]
000000 f5 75 bf 39 59 a7 3a 3e d9 a5 30 be d1 0d 5f 3d
       0.00036518244 0.182279 -0.17250766 0.054456536
000010 02 ef 15 bf 37 b9 be be 24 ec 5f 3f 34 cc 99 3e
       -0.5856782 -0.37250683 0.87469697 0.30038607
000020 51 42 9d be f3 1c ba bc 8c e4 0e be 31 d8 4d be
       -0.30714658 -0.022718882 -0.13954371 -0.20102002
000030 e6 18 ba bd 70 2b 1f bc 39 6d 3b be 0e e4 66 be
       -0.0908678 -0.009714946 -0.18303384 -0.22547933
000040 3e 09 7d be 82 af d2 3d 80 3c 1e be 7c d0 19 bd
       -0.24710557 0.10287382 -0.15452766 -0.03755234
000050 50 d2 53 3d 92 7f ce 3d e0 10 2f 3e 4a 22 b7 3d
       0.05171424 0.10082926 0.17096281 0.08942087
000060 9c 29 72 bd 84 e3 40 be 8c 4e 64 be cf e7 b4 bd
       -0.059121713 -0.1883679 -0.22295588 -0.088332765
000070 30 c3 ca bd f2 00 39 be 7a ac 0d 3f 3c 27 aa bd
       -0.0990051 -0.18066767 0.55341303 -0.083082646
000080 81 ab b7 3e f7 ae 26 bf 8e f2 bc bf d8 9e f4 bd
       0.35873035 -0.65110725 -1.4761522 -0.119443595
000090 9c 5d bf 3c 75 28 28 be 29 e1 94 3e 8f 53 c8 3d
       0.023360066 -0.16421683 0.29078034 0.097815625

bias f4 [20]
000000 54 c8 19 3e 22 d3 0d bd 94 81 30 bf 90 a0 9b 3d
       0.15017825 -0.03462518 -0.6894772 0.07598984
000010 f9 5f 5a be 0e 6c 63 be f0 52 3d be 0f 1d 59 be
       -0.21325673 -0.22209188 -0.1848867 -0.21202491
000020 0f 85 1d be 63 ff fc bc f6 19 f7 3d 28 f5 9a bc
       -0.15382789 -0.030883497 0.120654985 -0.018915728
000030 9a 93 cf bd 09 32 05 3d 70 b5 19 be 21 54 01 3e
       -0.10135575 0.03251842 -0.15010619 0.12629749
000040 18 dc 2c bf 34 7b c5 bd 55 d5 e6 bd 45 22 1c 3d
       -0.67523336 -0.0964264 -0.112711586 0.03811862

weight f4 [20, 20]
000000 21 e2 27 3e c7 a6 a6 3d f0 fc dd be bf e8 b7 3e
       0.16394855 0.08137279 -0.43357038 0.3591976
000010 0e 4c 38 3e 09 c8 ae 3d f6 09 45 3e 1c 0f 18 3e
       0.17997763 0.085342474 0.19242081 0.14849514
000020 d6 0d 8f 3e 87 6a a2 3e b2 1d 8e 3e 43 15 bc 3c
       0.27940243 0.317219 0.2775703 0.022959357
000030 e0 d7 a9 3e e2 80 06 3e 43 e7 14 3f 57 b7 19 be
       0.33172512 0.13135102 0.5816538 -0.15011345
000040 06 a2 31 bd af be ec be 3b fd 73 bd 3c 1d 7a 3d
       -0.04336741 -0.4623923 -0.05956767 0.061063036
000050 77 8d 82 3e d2 04 92 3d cf 6d c3 bd 62 a2 18 3e
       0.25498554 0.07129826 -0.09542429 0.14905694
000060 84 5e db bd bd 31 a5 be 1e 31 ef be df 99 7d be
       -0.10711387 -0.3226451 -0.4671716 -0.24765728
000070 e7 ea 3f 3e fb 8f d0 bd b7 32 53 bd 8a a0 1b bd
       0.18741952 -0.10183712 -0.051562037 -0.0379949
000080 90 4d 22 be a8 d4 87 3c cd 4a 17 be 91 59 a0 3e
       -0.158499 0.016580895 -0.14774628 0.31318334
000090 80 2d ba 3e 70 b5 7e bd 1e dc 19 3d 45 e8 ce bb
       0.3636284 -0.06218475 0.037563436 -0.00631431
0000a0 c6 9d a9 3e 80 4d 47 3e a5 e7 25 be 74 bb 1d bf
       0.33128184 0.19463158 -0.16201647 -0.61614156
0000b0 12 83 15 3f 11 ff 0a be 22 49 f9 3a 49 96 4e 3e
       0.5840312 -0.13573863 0.0019018988 0.20174517
0000c0 3e 9d 68 3e ee 4e 44 be 92 af 46 be b7 49 37 3e
       0.22716233 -0.19170734 -0.19402912 0.17899214
0000d0 8f 08 9b be 39 9b 69 3d ab 9c 46 bd 83 d2 ff bd
       -0.30279967 0.057032797 -0.048489254 -0.12491324
0000e0 4c c8 0a bc 33 33 e7 3d 13 61 fa 3c 7c 33 f2 be
       -0.008470606 0.11289062 0.030563867 -0.47304904
0000f0 26 c2 45 3e 07 7c 59 bb 96 d0 3f be 32 21 4f 3e
       0.19312343 -0.0033185498 -0.18731913 0.20227507
000100 3d 11 35 3e 6e b7 9a 3e 5a 6b aa be 8a 9d 44 3e
       0.17682357 0.3021807 -0.33285028 0.19200721
000110 0e 41 45 be 9b dc 6b 3d 95 dc b4 3d e3 4f 35 3e
       -0.19263098 0.057583433 0.08831135 0.17706256
000120 5e e8 be 3e 3a cd 68 bd cc 7a fe 3d f7 a9 0e 3e
       0.37286657 -0.056836344 0.124257654 0.13932024
000130 34 aa 63 bd 8a bb 3c bd d6 36 58 3e dd 6f 7e 3e
       -0.05558224 -0.04607729 0.21114668 0.2484736
000140 39 93 cb 3e 3a 16 43 bc 88 27 7a 3e 2b 3d ac 3d
       0.3976076 -0.011907155 0.24429142 0.08410104
000150 3c 8a a4 be fc 64 7c be 2f ed 71 3d 89 bc a8 3e
       -0.32136714 -0.24647897 0.059064087 0.3295634
000160 81 47 86 bd 05 e9 02 be 15 41 2b 3e bb 68 93 3b
       -0.06556607 -0.12784202 0.16724046 0.004498569
000170 8c f3 ec bd 8b c2 67 be 1c 44 2f be aa 92 8a 3e
       -0.115698904 -0.22632806 -0.17115825 0.2706502
000180 bf ea db be 54 30 71 bc fb 8b 0c bd ee 79 9d 3e
       -0.42952535 -0.014720995 -0.034313183 0.30757087
000190 8a cb 76 bd 1e 59 ef 3d 80 bf ab 3e 59 5d 39 be
       -0.060252704 0.1168692 0.3354454 -0.18102016
0001a0 cf 10 2b 3e 2c 9a 50 3e 17 09 4b be 14 dd eb bd
       0.1670563 0.20371312 -0.19827686 -0.11516777
0001b0 5c 9d fd bc 46 64 60 be 9d a7 c7 3d af 49 a9 bd
       -0.030958824 -0.21913251 0.097487666 -0.08266007
0001c0 98 19 6e be 6d 8d 5d be de 58 13 3f 28 fe 44 3c
       -0.2325195 -0.21635981 0.57557476 0.012023486
0001d0 93 bc 90 be f0 80 fa 3d 30 47 2d 3e 00 d0 95 3e
       -0.2826887 0.12231624 0.16921687 0.29260254
0001e0 b9 12 c8 be cc 09 81 bb db 6d c1 3d 6b 06 e2 bd
       -0.39076784 -0.0039379355 0.094447814 -0.110363804
0001f0 d6 bc 3b be cd fe 13 bf ce da 58 3e 58 19 08 3c
       -0.18333754 -0.5781067 0.21177217 0.008306824
000200 90 b7 9d 3e 09 db 71 be f1 2e 40 3e 4a 13 07 be
       0.3080411 -0.23618712 0.18767907 -0.13190952
000210 96 75 8f bc a7 b7 04 bb 26 e3 3d 3e 34 4d 7d 3d
       -0.017512124 -0.0020251067 0.18543682 0.061841205
000220 af 3b 53 be bf 28 04 be 33 de 22 3d fa 0f 31 be
       -0.20628236 -0.12906168 0.039762687 -0.17291251
000230 b1 00 8a 3e 0d df eb 3e b2 ea dd 3e 7c 54 88 be
       0.26953653 0.46068612 0.4334312 -0.26626956
000240 da 2e 43 3e 0b 30 f7 3d 79 15 de be d9 22 8a 3d
       0.19060841 0.1206971 -0.43375757 0.06744928
000250 dc d8 11 3c a9 f3 5c bd 93 26 29 3e a3 cb 56 3e
       0.008901801 -0.05394331 0.16518621 0.20976119
000260 13 ff 3c 3e 2b a5 af be 98 5f 44 bd 98 b8 28 be
       0.18456678 -0.343057 -0.047942728 -0.16476667
000270 a2 9e de bd 19 6b db 3d b9 86 8e be 8a f8 9a 3e
       -0.108701006 0.10713787 -0.2783716 0.30267745
000280 26 9d 12 3e b0 d6 e0 bd a9 51 4a bc 0f f9 f4 3d
       0.1431776 -0.109784484 -0.012348571 0.11961567
000290 de e3 8a be 08 9d f0 3d c9 c3 74 be bd 66 40 bd
       -0.27126974 0.11748701 -0.23902811 -0.04697298
0002a0 9f 1f 8a be f9 35 d9 bd 25 3b 0e 3e d1 64 c5 3d
       -0.2697725 -0.106059976 0.1388975 0.0963837
0002b0 bc 42 b0 3d ed 2f 15 bd c9 85 8b 3c 15 e0 a7 3e
       0.086064786 -0.03642266 0.017031567 0.3278815
0002c0 93 ca 13 3e 9d 3f 44 3d 85 bc 06 3e a1 74 39 be
       0.14432745 0.04791223 0.13157852 -0.18110897
0002d0 d1 31 d2 3d ae e8 00 3e fa fe 00 3f 3a cd c2 3d
       0.10263408 0.1258876 0.50389063 0.095118
0002e0 f9 d5 dc 3e 0d 75 60 3e b2 58 8f 3e d7 81 9f 3d
       0.43131998 0.21919651 0.27997357 0.07788437
0002f0 2e 49 ff 3e bf 4b 81 3e 84 99 ab 3d 1a d2 8e be
       0.4986052 0.25253102 0.0837889 -0.2789467
000300 6a cf 9c bd 40 30 a7 3e c4 e1 16 be 88 f8 e2 bd
       -0.076567486 0.32654 -0.1473456 -0.1108256
000310 24 ef 41 3e fd 88 98 bd da 73 50 be bf 41 bc 3c
       0.18938881 -0.074480034 -0.20356694 0.022980569
000320 18 30 d8 bc 5f 45 08 3e f5 0f f1 bd 7a da 4a 3e
       -0.02639012 0.13307713 -0.11770622 0.19809905
000330 aa 76 6e be 4f d2 f1 bd 09 fa 83 be 79 4b 81 3d
       -0.23287454 -0.11807691 -0.257767 0.063132234
000340 76 96 b3 3e b1 42 14 bf ed e5 9c bc 6e 1f 15 be
       0.3507573 -0.57914263 -0.019152606 -0.1456277
000350 ed 9a e1 be 2b 65 7f be 52 bc ef bc d8 dc 47 3e
       -0.44063511 -0.24940936 -0.029264603 0.19517839
000360 04 7e 99 be 9d de 45 3e 7f 95 33 3e 5a 13 56 be
       -0.29978955 0.19323201 0.17537497 -0.2090582
000370 f5 c8 d2 be b3 14 0b 3e 3a f5 c7 3e 4c 59 dc 3d
       -0.41168943 0.13582115 0.3905428 0.107592195
000380 74 71 b4 bd bb c2 95 3d 2e fa 5d 3c 86 4c ad bd
       -0.08810702 0.073125325 0.013548417 -0.08461861
000390 df 96 94 be bc f0 aa 3e ce 0d ab 3d 02 23 ec 3e
       -0.29021356 0.3338679 0.083522424 0.4612046
0003a0 5c 69 5d bd 11 2a e5 bd 51 c5 87 3e 5e 98 34 be
       -0.054055557 -0.11189664 0.26517728 -0.17636248
0003b0 7c 8b 40 bd 17 8a 01 3e b2 55 6a 3e 4f 06 20 3d
       -0.047008023 0.12650333 0.22884253 0.039068516
0003c0 63 01 c7 be 53 48 15 3e 83 09 dd 3c 06 4b 01 3e
       -0.38868245 0.14578371 0.026982075 0.12626275
0003d0 97 5d 85 be 0d 1b 91 3e bd 73 a0 3c 82 89 43 be
       -0.26047966 0.2834095 0.019586438 -0.19095424
0003e0 a9 1f 32 3e a8 84 6b 3e e2 ce 20 be 6c ee 75 3e
       0.1739489 0.22999823 -0.1570392 0.24016732
0003f0 90 58 55 3e b9 c3 15 bd 23 68 eb bc 4f 2b b8 bc
       0.20834565 -0.03656361 -0.02873618 -0.022481589

bias f4 [20]
000000 5f ac e5 3c 39 da 26 3e e2 b9 1f bd e3 77 b1 bd
       0.028036295 0.16294183 -0.03899563 -0.08665445
000010 ba 1e 6b 3d 76 01 8b bd 75 cb 65 3c 43 b0 a2 3d
       0.05740235 -0.06787388 0.014025559 0.079437755
000020 7c 35 10 bd 01 ec ec be 7c 57 46 bd 0a 98 0f be
       -0.035207257 -0.46273807 -0.048423275 -0.14022842
000030 40 04 47 bd 91 9e 3e bd 83 a3 4a bd 14 ad 89 be
       -0.048588037 -0.04653794 -0.049472343 -0.2688986
000040 24 af 61 3d 50 16 b1 3c ab 65 5b 3e c9 6d 0d bd
       0.055098668 0.021617085 0.21425502 -0.034528527

weight f4 [20, 20]
000000 00 0b 90 3e 00 86 92 be 4b d4 8d 3d 52 de 68 3e
       0.28133392 -0.2861786 0.06925257 0.22741058
000010 5e 82 81 be 59 4a 29 be 08 15 1e 3e fc d6 a9 3e
       -0.25294775 -0.16532268 0.1543771 0.33171833
000020 6f dc 0b bf 8e 62 f7 3d 1e 52 15 3e 31 9c 8b 3e
       -0.5463323 0.12079345 0.14582106 0.27267602
000030 29 d3 28 3e 23 6e 5a 3e 81 02 ac 3e cc 37 23 be
       0.16486801 0.21331076 0.3359566 -0.15939254
000040 5f 2c cf 3e 2f 5d 17 be 04 a7 24 3e c0 3a 9e be
       0.4046354 -0.1478164 0.16079336 -0.30904198
000050 ac 75 8a 3e 41 d2 26 3d 11 de e2 3d 26 b1 14 bd
       0.27042902 0.040727858 0.11077512 -0.036301754
000060 22 09 f7 3c f5 3a 84 3e f3 e7 4d 3e 89 80 8d be
       0.030155722 0.2582623 0.20108013 -0.27637127
000070 c1 5b 31 bd 62 3c 26 3e 33 20 66 be 62 bb af 3e
       -0.043300394 0.16233972 -0.2247322 0.3432265
000080 c8 90 00 bd ba 69 ab bc 7f c6 c8 bd c3 46 b4 3e
       -0.031388074 -0.020924438 -0.09803485 0.35210237
000090 fd 65 30 bd 5e bd ca 3e c2 67 a5 3e 8a c3 6b bc
       -0.043066014 0.395976 0.32305723 -0.014389882
0000a0 90 fc 85 be a9 87 1a 3c 8d 39 91 bd 52 62 73 be
       -0.26169252 0.009431758 -0.07091055 -0.23767975
0000b0 52 c4 56 3e db 48 9f 3d 48 d5 9e 3e 64 d8 42 3c
       0.20973328 0.07777568 0.31022096 0.011892412
0000c0 41 5a 1d 3e 8f 2e 1e 3e f1 29 f2 bd 30 cb 78 be
       0.1536646 0.15447448 -0.11824406 -0.2429626
0000d0 fb ac db bd 1f 46 ea 3d 65 41 eb 3c 0f cd 9d 3e
       -0.10726353 0.11439156 0.028717706 0.3082051
0000e0 c7 08 3f 3e a6 b4 eb 3b 93 c3 79 be 36 2f 0d 3d
       0.18655692 0.007193166 -0.24391012 0.034468852
0000f0 6c 77 cf 3e 56 31 2b 3b 50 c8 89 be 7f c4 d9 bc
       0.405208 0.0026121936 -0.2691064 -0.026582954
000100 c5 3b e0 be f1 0a b9 be 28 eb fe be f0 37 0e bf
       -0.437956 -0.3614116 -0.49788785 -0.55554104
000110 81 33 99 bd 20 25 c8 be b8 7a 35 3d cc 12 5b bd
       -0.07480527 -0.39090824 0.044306487 -0.053484723
000120 3f 86 f5 bd e7 fb 26 3e cd 43 7c bd c6 4f ac 3e
       -0.11988496 0.1630703 -0.061588097 0.33654612
000130 41 0d 0e be ab 2d 4e be 49 78 e7 3d b3 3d b1 3e
       -0.13872243 -0.20134608 0.113022394 0.34617385
000140 d4 f4 9b 3e 1c 2a 94 bd 83 8d f3 3c b8 d8 b0 bc
       0.30460227 -0.07234594 0.029730564 -0.021587715
000150 c6 e0 4a 3e 93 31 91 be 60 f6 11 be 34 cd 1b be
       0.19812307 -0.28358135 -0.14254141 -0.15214998
000160 e9 aa 32 3e df e4 db 3b 52 cf c9 be 23 50 a4 be
       0.1744801 0.006710633 -0.39415985 -0.3209239
000170 23 2d 60 bd 69 02 16 bf 19 30 f5 3e 59 61 42 3e
       -0.054730546 -0.5859743 0.47888258 0.18982448
000180 40 c9 73 be cf 27 69 be 81 e7 ae 3e 49 75 46 3e
       -0.2380724 -0.22769092 0.34160998 0.19380678
000190 c8 df e6 bd 8e 74 3a bd 25 59 3a 3d 61 f3 4f be
       -0.11273152 -0.04552131 0.04549517 -0.20307685
0001a0 2a 52 8e be 19 f5 da bd 1f f7 06 3e 4b cc d0 be
       -0.2779706 -0.1069128 0.13180207 -0.40780863
0001b0 92 44 db bc 3d ee b5 bd ed fd 1f be df af f2 bd
       -0.026766095 -0.08883331 -0.15624209 -0.11849951
0001c0 b1 ae c1 3e 3a 6d 3a 3e 60 17 d3 3e be 07 26 bd
       0.3782859 0.18205729 0.4122877 -0.040534727
0001d0 c2 5a a3 bd 11 92 f3 3d 3e 2e a2 3e 2c 1a 08 bf
       -0.07976295 0.11893094 0.31675905 -0.53164935
0001e0 5d 3d 63 3e 58 18 2f bd d9 2d 98 3d 4f d2 48 3e
       0.22191377 -0.042747825 0.0743062 0.19611476
0001f0 27 b9 c9 3d 24 03 ec bb bb 3e 53 be 84 90 76 3e
       0.09849768 -0.007202523 -0.20629399 0.24078566
000200 c7 e9 03 ba 69 8b c1 3d f3 01 5e 3e ca 4e 0e 3e
       -0.0005032089 0.094504185 0.21680431 0.13897243
000210 80 4e 15 be 03 5a 8a 3e a6 9f 74 be a6 eb ac 3e
       -0.14580727 0.27021798 -0.23889026 0.33773535
000220 73 d8 37 3e 43 a4 12 bf a3 c5 69 be ee 87 02 3e
       0.17953663 -0.57281893 -0.22829299 0.12747166
000230 e4 68 98 bd a7 0b 45 3e 73 63 d0 bd 9a df 77 3e
       -0.07441881 0.19242726 -0.101752184 0.24206391
000240 b6 fe a2 bd 26 4b d9 bd b8 d1 30 be 63 50 8e 3e
       -0.079587385 -0.106100366 -0.17267501 0.27795705
000250 de 4d cc 3e f0 69 95 3d c9 15 35 3e 28 62 31 be
       0.39903158 0.072955966 0.17684092 -0.173226
000260 e2 2c eb bd a4 df 4f bd fd a3 d9 3d 13 cf fb 3d
       -0.1148317 -0.05075039 0.106269814 0.12295356
000270 fe 9e 38 be 8d 41 a7 3e b9 09 ff bb ac 40 21 3c
       -0.180294 0.326672 -0.0077831415 0.009842079
000280 62 9b 03 be b1 98 d1 bd 27 b2 86 be 93 38 f0 3e
       -0.12852243 -0.10234202 -0.26307794 0.46918163
000290 bc 41 81 3e 16 4d 58 3e 4d 42 c6 bc 61 33 de 3c
       0.25245464 0.21123156 -0.024201537 0.027124109
0002a0 7d f5 83 3e f8 77 d5 3d 52 e6 5e bd 02 99 a0 3e
       0.2577323 0.10423273 -0.05441887 0.31366736
0002b0 2d e4 83 be 14 53 b5 be 6a ac 7d 3e 93 67 97 bd
       -0.25760022 -0.35414946 0.24772802 -0.07392802
0002c0 4a 7a 3f 3a 6e c9 1f be 3a 99 68 3e a5 7d 81 be
       0.0007304294 -0.15604183 0.22714701 -0.25291172
0002d0 37 82 12 3f 2c 33 48 be cb b7 94 be 4f c7 b5 3d
       0.5722994 -0.1955077 -0.29046473 0.08875906
0002e0 5f fa 71 be 9b 68 54 3e ee 85 55 be 9d 0a a9 3d
       -0.23630665 0.20743029 -0.20851871 0.082539774
0002f0 c6 61 59 bd 00 55 16 be 72 88 54 3e 27 8c cd 3d
       -0.05307176 -0.14680862 0.20755175 0.100364976
000300 c0 ba 03 be 16 82 94 3d d7 b0 90 bd de 73 73 3e
       -0.12864208 0.072513744 -0.070649795 0.23774669
000310 c9 13 b0 bd 3a a8 91 3c e3 40 35 3e b7 23 a0 be
       -0.08597524 0.017780412 0.17700534 -0.31277248
000320 9f 9f 3a 3e 6b 54 04 3c f9 99 fc 3d f5 52 ea bb
       0.18224953 0.008076767 0.123340555 -0.0071510025
000330 67 b9 15 3d b8 60 e0 3d bb 21 a9 3d 9b 1e 01 be
       0.036553767 0.10955948 0.08258387 -0.12609331
000340 c3 fc a1 bd c7 78 2d 3e 6b ae 24 be cb db 24 3e
       -0.079095386 0.16940604 -0.1608216 0.1609947
000350 8f 84 d0 3c dc 8e 50 3e 4e 64 c2 be 61 da 95 3e
       0.025453834 0.20366997 -0.3796715 0.29268172
000360 86 44 ba 3d 7d e2 a8 be 21 75 1e be ee 9b 82 be
       0.09095101 -0.32985297 -0.15474369 -0.2550959
000370 8d 63 31 3d f0 12 ec 3d 50 10 07 be 73 90 3b be
       0.04330783 0.115270495 -0.13189816 -0.18316822
000380 1b 39 45 3e 5d 11 8a be 72 b4 78 3d a9 a1 b5 bd
       0.19260065 -0.26966372 0.06071896 -0.08868725
000390 88 f6 c0 be 70 42 07 3e b4 03 27 be 33 d5 a4 bd
       -0.37688088 0.13208938 -0.16310006 -0.08048477
0003a0 20 55 99 3e 50 2a a6 3e 1b bc d0 bb 8d 6e 91 3e
       0.29947758 0.32454157 -0.00637008 0.28404656
0003b0 c4 d7 a1 3b f6 3d 2b 3f 56 dd f5 bd 4f 09 bc 3c
       0.0049390513 0.6689142 -0.12005107 0.022953657
0003c0 27 a0 b0 be 55 28 fa 3d 0f 44 45 be 9d ce fd 3b
       -0.34497187 0.12214724 -0.19264244 0.0077455775
0003d0 7f 8e 3e 3e ed eb 99 be 0e a3 92 bd e6 56 af 3e
       0.18609045 -0.3006281 -0.071600065 0.34245986
0003e0 71 1f cc 3d d2 c8 c7 3d 0f 14 f5 3d 46 2b f0 bd
       0.099669345 0.097551 0.119667165 -0.11727004
0003f0 a4 b4 90 be b3 5e e1 be 30 b2 55 3e 80 f3 2f bf
       -0.28262818 -0.44017562 0.20868754 -0.68730927

bias f4 [20]
000000 02 d6 98 3d b5 e3 e6 3c 53 90 b9 3c f3 2f e0 3d
       0.07462694 0.028184751 0.022651827 0.109466456
000010 5b 02 cf bc 1f 5a b8 3d a5 8c fa 3c 92 11 85 3d
       -0.025269678 0.09001564 0.030584643 0.06497492
000020 7b 93 b3 bd ca 6c af bd 8f f4 14 bc b8 99 66 bc
       -0.08768364 -0.08565672 -0.00909151 -0.014074735
000030 80 bf 59 3e 41 fe 25 be 13 33 cf bd 62 47 c2 3d
       0.21264458 -0.16210271 -0.101171635 0.094862714
000040 ed b1 bf bd 16 ac 21 bd 78 24 c8 bc 7a eb 88 bd
       -0.093601085 -0.039470755 -0.024431452 -0.066855386

weight f4 [20, 20]
000000 9c c3 72 bc 6f 71 36 3e e1 db ab 3e 10 1d 73 be
       -0.014817145 0.17816709 0.33566192 -0.23741555
000010 ea d6 08 3f fa 8d 79 bd d5 21 9b 3e 7f 6c 79 be
       0.5345293 -0.060926415 0.3029925 -0.24357794
000020 d7 06 6a 3e 23 aa 1b 3c af 2e 34 3e 2c 94 5e 3d
       0.22854172 0.009501013 0.17595933 0.054340526
000030 f7 a5 20 3e 34 ee 32 3e 5e 47 25 be ff 82 39 3e
       0.1568831 0.1747368 -0.16140506 0.18116377
000040 8f 4f 61 3e 56 fa f4 3e d9 9c 9f 3e 42 00 5a bd
       0.22003005 0.4784724 0.31174353 -0.053222902
000050 71 2a 19 3d 46 12 c3 3c a2 23 3a be 11 cf df bd
       0.03739399 0.023812424 -0.18177655 -0.10928167
000060 9c ea 45 3e bf 26 94 3e c9 86 86 3e 11 fd 54 bd
       0.19327778 0.2893581 0.26274708 -0.051999155
000070 8f aa da bd 3a 94 44 bd 6b 12 a2 be e3 64 4c be
       -0.10677063 -0.047992922 -0.31654677 -0.1996036
000080 be 2c 37 be ce d9 a2 3e f8 47 d1 be cd 4b 15 bd
       -0.17888162 0.31806797 -0.4087522 -0.036449242
000090 bd 90 85 3e e5 06 cf 3e 5e ee 81 be cc f8 4b 3e
       0.2608699 0.40434948 -0.25377172 0.19919127
0000a0 57 96 a9 be 29 9f b7 be c5 ee 25 3e d8 97 17 be
       -0.33122513 -0.35863617 0.16204365 -0.14804018
0000b0 ec c9 d0 be 94 ba 4a 3e 9a 6d 03 bf cc cd 40 3e
       -0.40779054 0.19797736 -0.51339114 0.18828505
0000c0 31 b1 6e 3e 54 15 f8 3e ef ef 3e be 19 1d ec bd
       0.2330978 0.48453772 -0.18646215 -0.115289874
0000d0 42 57 04 3d c2 2c a8 bd a7 6a 9d bc ea ed b6 bd
       0.032309778 -0.08211662 -0.019215895 -0.08932097
0000e0 c8 8c a6 be 17 95 04 3f a7 89 53 bb bc 1a 98 3e
       -0.32529283 0.51789993 -0.0032278092 0.29707897
0000f0 d8 ec 41 be de cf 86 bd 79 b0 cc bd ba cf 09 3e
       -0.18938005 -0.06582616 -0.09994597 0.13458148
000100 7f 45 94 bd 0c 68 15 be 3c 90 22 3e 73 b3 49 3e
       -0.07239818 -0.14590472 0.15875334 0.1969736
000110 60 31 30 3d 64 65 17 3e e9 4c 84 3e 51 f3 07 bf
       0.043015838 0.14784771 0.25839928 -0.53105646
000120 1b 8e 70 3d f8 3f 94 3e f9 7a 30 3d f4 46 0a bd
       0.058729272 0.28955054 0.043086026 -0.033759072
000130 9c 52 18 be 0f f4 1f 3f 92 e8 71 3d 86 26 e8 be
       -0.14875263 0.6248178 0.059059687 -0.4534189
000140 7e 73 98 3e 79 27 6f be 70 2e 86 be 45 a2 ac bd
       0.29775614 -0.23354901 -0.26207304 -0.08429388
000150 11 82 0f 3e 50 27 a4 3d 47 c1 08 be 6b a1 80 ba
       0.1401446 0.08015311 -0.1335498 -0.0009813731
000160 21 74 3f 3c 9f 17 9d be ae 05 13 3e e6 60 48 3d
       0.011685402 -0.30682084 0.14357635 0.048920535
000170 f8 f5 9b 3d 2e 58 3f 3e a7 6d 6d be 8c f5 4e bd
       0.07615274 0.18685982 -0.2318636 -0.05052714
000180 50 47 31 be 46 64 94 be fd 0e f2 be 73 b1 ca 3a
       -0.1731236 -0.28982753 -0.4727706 0.0015464261
000190 39 48 dc 3d 4c 14 be bd 22 3c 98 bc e5 42 9a 3e
       0.10755963 -0.09281215 -0.018583361 0.3012916
0001a0 e2 32 8a 3e c2 b5 ad 3d 92 d1 40 be 62 90 f7 bc
       0.26991946 0.08481933 -0.18829945 -0.030220214
0001b0 59 dc 7b 3e 76 1e 2e 3e 6f 9f 5c be ed 30 c0 be
       0.24595775 0.17003807 -0.21545194 -0.37537327
0001c0 c8 a8 2a be cb ba a1 3e 53 e4 75 be 61 08 87 bd
       -0.16665947 0.31587824 -0.2401288 -0.06593395
0001d0 4a 92 8e be 64 d8 35 be e7 aa a9 3e 4e 4b 03 3e
       -0.27845985 -0.17758328 0.331382 0.12821695
0001e0 f8 a4 24 be 98 06 cf 3e 9e f0 9d 3d ed c4 72 be
       -0.16078556 0.40434718 0.0771191 -0.23707934
0001f0 91 bd c9 be 6b 10 85 3e 25 33 c3 bc 32 ac b5 bd
       -0.3940244 0.25989088 -0.023828099 -0.08870734
000200 9d 18 61 be e2 b5 31 3e 03 34 3e be f1 39 c2 be
       -0.21982045 0.17354539 -0.18574528 -0.3793483
000210 12 c7 98 3e 42 fd be be 87 a3 32 3e d8 07 09 3e
       0.2983938 -0.37302595 0.17445193 0.13381898
000220 77 66 12 3f 55 ab 34 3e 3b f9 25 bd 68 ff 7d be
       0.571876 0.17643483 -0.040520888 -0.24804461
000230 56 e7 b0 be 3d d4 79 bd a7 39 c4 be 33 b1 38 3e
       -0.34551495 -0.06099342 -0.38325235 0.18036346
000240 21 a7 21 bf 1f 80 c0 3e ed 22 8b 3e 33 03 5c 3e
       -0.63145643 0.3759775 0.27175084 0.21485595
000250 41 35 a8 bd b2 3e 19 be fe b4 d7 3e fb 87 6d be
       -0.082132824 -0.14965323 0.42130274 -0.23196404
000260 28 ff 9d 3e a8 5b bc be 55 cb 63 be 6e ef c9 3d
       0.3085873 -0.36788678 -0.22245534 0.09860121
000270 14 bb f0 bc 02 34 6e be 1f 6c c9 be ea 16 0d be
       -0.02938608 -0.23262027 -0.39340302 -0.13778272
000280 dd ca 70 3e 50 86 e5 bc c7 fc 4c be 34 6a 9e be
       0.23514886 -0.028018147 -0.20018302 -0.30940402
000290 b5 d6 27 3e 7a 3e d7 3d 1c 7b 52 be 4e 38 11 be
       0.16390498 0.10509963 -0.20554775 -0.14181635
0002a0 4b 61 6d bb 6b 52 05 be 3f de b3 3d af e5 e8 bd
       -0.0036221321 -0.13019721 0.087826245 -0.11371934
0002b0 ec 1a 70 3e b8 fe 3b 3e d5 b7 38 3e 9a 8b de bd
       0.2344777 0.18358886 0.18038876 -0.10866471
0002c0 79 51 12 be 60 52 42 be ee f1 34 3e 7d a4 8b bd
       -0.14288892 -0.18976736 0.17670414 -0.06818483
0002d0 be 72 a6 3e ce 94 d0 3d 95 5f 0f 3d 5b 37 41 be
       0.32509416 0.10184632 0.035003264 -0.18868773
0002e0 e1 58 a5 bd 22 6e 70 bd 2b bd 60 be 1f 95 1f 3e
       -0.08073593 -0.05869878 -0.21947162 0.15584229
0002f0 ce d3 15 bd 65 a1 ab 3e ff a1 6a be 23 58 cc bd
       -0.036578946 0.33521572 -0.22913359 -0.09977748
000300 87 cf b8 be 16 36 38 3e cf 44 c9 3e 88 aa 8d be
       -0.3609583 0.17989382 0.3931031 -0.27669168
000310 92 b0 46 be 79 38 f3 be a3 5c e4 bd ae b5 39 3d
       -0.19403294 -0.47504023 -0.111504816 0.04533928
000320 eb 4d ce bc 91 4d 8c 3e 31 9d 21 3e 30 65 ab 3e
       -0.025183639 0.27402928 0.1578262 0.33475637
000330 71 81 cd bd e9 6d 4a 3e 2c 72 d9 3c fc 62 cf 3c
       -0.100344546 0.1976849 0.0265437 0.025315754
000340 ac 94 b2 3e 51 f9 e7 3d 0a b8 84 be a9 7c 11 be
       0.34879053 0.1132685 -0.2592166 -0.1420771
000350 c6 14 17 3e d5 7f d6 3e f6 f7 70 3e 7e 3e 00 bf
       0.14754018 0.41894403 0.2353209 -0.50095356
000360 3f 1e 18 be c7 4b 16 bf d8 ec fd bc 8b 4a e0 bc
       -0.14855288 -0.5870938 -0.030996725 -0.027379295
000370 0f 3c 33 bd 23 54 43 3e 4f db 15 3d bf 53 6b be
       -0.04375845 0.19075064 0.036586102 -0.22981165
000380 d3 e1 2d be 33 47 f5 3d 4d 50 f9 3b 26 71 0b be
       -0.16980676 0.11976471 0.0076084496 -0.13617381
000390 a2 c2 a5 be 3a f3 94 be 7e ba 0e be fc 86 a2 bd
       -0.32375056 -0.29091817 -0.13938329 -0.079359025
0003a0 4e 23 e5 bd 00 60 8b be fe ab 9c bd 98 10 c1 3d
       -0.111883745 -0.2722168 -0.076499924 0.09426993
0003b0 be 3a 38 3e 61 e4 ac 3e b4 20 94 be 58 85 3b 3e
       0.17991158 0.3376799 -0.289312 0.18312585
0003c0 b7 55 1e 3e f9 cb 04 3d d7 c5 0e 3e 71 05 2d bc
       0.15462385 0.032421086 0.13942657 -0.010560379
0003d0 62 04 43 be 62 10 e4 be 90 38 10 3e 85 65 99 be
       -0.1904464 -0.4454375 0.14084077 -0.29960266
0003e0 d4 6b 32 3e b9 f2 ad bd 1d c3 f4 bc a0 39 06 be
       0.17423946 -0.08493561 -0.029878194 -0.1310792
0003f0 ec b5 8b bd c7 47 f3 bd 79 8a 1b 3e 77 3f c2 3e
       -0.06821808 -0.11878925 0.15189542 0.37939045

bias f4 [20]
000000 16 f7 d4 3b 28 b3 64 3c aa 7f 17 bc d6 ff 71 3c
       0.0064991815 0.01395873 -0.009246746 0.014770469
000010 49 16 5e 3d bc ba 1d 3d 63 d2 a8 bb b3 85 75 3c
       0.05422047 0.038508162 -0.005152033 0.01498549
000020 2a dc 28 3d 54 c1 74 bd 1c 2c f0 3a 3b b8 21 3e
       0.04122559 -0.059754685 0.0018323692 0.15792935
000030 f3 54 bb 3c 10 a0 30 bc 3c bb 8a 3d fa 7b ee 3d
       0.022867655 -0.010780349 0.067739934 0.116447404
000040 0f bf 72 3d e4 0f c6 bd e4 98 8a bd a0 cf f8 bd
       0.05926424 -0.09671 -0.06767443 -0.12148976

weight f4 [20, 20]
000000 2a 34 68 3e 06 9a 13 3e 45 ca 7d 3d 8d d6 a1 bd
       0.22676149 0.14414224 0.061960477 -0.079022504
000010 01 6f 15 3e f4 2d fe bc b8 fe 07 3d b5 1e bc bd
       0.14593126 -0.031027772 0.033201903 -0.091855444
000020 bc bf be 3e d0 02 40 3d a0 af ff bd a0 3d 5e 3e
       0.37255657 0.046877682 -0.1248467 0.21703196
000030 6c 04 2f 3e c4 3c 97 be f1 3a 11 3e f6 07 62 be
       0.1709153 -0.29538548 0.1418264 -0.2207335
000040 a2 04 a1 3e 21 d4 35 be 8a a1 63 be ef 56 e7 bd
       0.31448847 -0.17756702 -0.22229591 -0.11295878
000050 3a 6a 96 3c ae 98 50 be 61 1c 38 3e 71 7e e4 bd
       0.0183612 -0.20370743 0.17979576 -0.11156929
000060 eb be 00 be db d5 8e bd 1c 7f b0 bc d5 7f 89 be
       -0.1257283 -0.069743834 -0.021544985 -0.2685534
000070 eb 3f ad 3e ae c6 37 be 14 96 8f bb e1 bd 48 be
       0.33837828 -0.17946884 -0.0043819044 -0.19603683
000080 43 53 24 be d8 ae 26 3d 75 91 a8 be 56 f7 b7 be
       -0.16047387 0.040694088 -0.32923475 -0.3593089
000090 86 e7 cd bd 13 f1 b7 3e cf 07 09 3e 90 00 6f bc
       -0.10053925 0.35926113 0.13381885 -0.014587536
0000a0 8f ac 8c 3e f9 c1 65 3e 50 55 50 be 0f 19 00 3e
       0.27475402 0.22437276 -0.20345044 0.12509559
0000b0 57 46 de be a5 d5 4b be 4a 2f cf 3b 27 21 bf 3d
       -0.4341304 -0.19905718 0.006322776 0.09332495
0000c0 87 64 9f bd f1 a7 72 3d 5b 79 9b 3c 67 df af bd
       -0.07782846 0.059242193 0.018978765 -0.085875325
0000d0 cb f9 0d 3d fd 55 ca 3e 8e a7 63 bc dd 02 a6 bc
       0.03466205 0.3951873 -0.013894929 -0.020265037
0000e0 a4 a2 73 3d e4 85 8c be 89 9e a1 be ec f3 18 bd
       0.059481278 -0.274459 -0.31566265 -0.037341997
0000f0 23 e9 2c bd e2 cd a3 3e 46 4d 3f 3e bb 65 80 3d
       -0.042214524 0.31993014 0.18681821 0.062694035
000100 35 7a c5 3d 65 25 95 be a7 94 ce 3c fe 66 b7 3d
       0.0964245 -0.29130092 0.025217367 0.08955191
000110 fd 24 d6 bd c0 c2 66 be 40 8f 60 be b3 5a 89 bc
       -0.10456274 -0.22535229 -0.21929646 -0.016766882
000120 ea 8d b8 3e 37 29 3f 3e a2 98 05 3e 89 9f 73 3e
       0.36045772 0.18668066 0.13046506 0.23791327
000130 43 29 b3 bd 10 53 7d 3e 1b 41 ca bc 7c 7a 96 3e
       -0.087481044 0.24738717 -0.024689248 0.29390323
000140 ee 95 8c be 72 16 5d 3d 9b 0c f3 3e ae 64 39 3e
       -0.27458137 0.053976484 0.47470555 0.18104813
000150 03 45 3e 3c 9f 36 f3 bd 83 56 2b 3d d6 52 46 be
       0.011613133 -0.118756525 0.04183055 -0.19367537
000160 51 f3 d7 3d 43 21 2b be be fa 56 be 71 cd 59 3d
       0.10544456 -0.16711907 -0.20994088 0.05317444
000170 be 96 8c be 36 bb 3d be a1 93 b3 be 91 a3 fa 3d
       -0.27458757 -0.18528447 -0.3507357 0.12238229
000180 d1 0c df bd 8d 8b cd 3d fa 7b d8 bd 06 6a e2 bd
       -0.108911164 0.10036383 -0.10570522 -0.110553786
000190 3a 97 e2 be 7c db 86 bc df 0c a0 3d a9 df d2 bd
       -0.44256002 -0.01646208 0.07814955 -0.10296566
0001a0 38 23 a4 3e 8e 20 09 3e 9c b6 f0 be 36 ad 69 bc
       0.3205812 0.13391325 -0.4701432 -0.014262488
0001b0 1f 3e e3 3d 72 c5 92 3d 7b 60 09 be 0a 04 00 bf
       0.11095833 0.07166566 -0.1341571 -0.50006163
0001c0 66 4b 2e be f1 12 71 3e 15 a4 84 3c e4 64 1b 3f
       -0.1702095 0.23542382 0.016191522 0.6070082
0001d0 09 b0 fa bd 9f 13 3f bb bd ca 16 be 51 c7 cd be
       -0.12240607 -0.0029155982 -0.14725776 -0.4019113
0001e0 71 3f 85 3e a1 85 34 bc 99 c8 10 3d c7 3d 4b bc
       0.26024964 -0.011018188 0.035347555 -0.012404866
0001f0 9e b7 c8 be 89 30 22 3e 1c 15 01 be 36 14 10 3e
       -0.3920259 0.15838827 -0.12605709 0.1407021
000200 53 a2 56 3d a6 1d 33 3e ec 87 87 be f7 d5 e3 bc
       0.0524009 0.17491779 -0.26470888 -0.027811987
000210 2b 59 c1 3c 7b 87 e2 3d 02 e2 28 3e e0 64 3b bd
       0.023602089 0.11060997 0.16492465 -0.0457505
000220 1b fb e0 3d 20 36 64 3e de 00 02 3b 87 39 19 3e
       0.109853946 0.22286272 0.0019836943 0.14963351
000230 79 3e 2d be 21 bf 45 3d 05 db 7e 3e d6 da 09 3d
       -0.16918363 0.048277978 0.24888237 0.033655964
000240 b0 ed 3b 3d 45 47 68 be c5 b9 20 3e 1c b5 53 bd
       0.045880973 -0.22683437 0.15695865 -0.05168639
000250 6a 7b 7d bd b8 51 8b 3d 47 5e e8 bd 11 18 06 bd
       -0.061885275 0.06802696 -0.11346107 -0.032737795
000260 44 19 6d 3e f3 d8 16 be 85 38 38 be 21 f4 3d be
       0.2315417 -0.14731197 -0.1799031 -0.18550159
000270 25 34 75 be 73 d2 43 bd f4 1a 04 bd d7 76 43 3e
       -0.23945673 -0.047808122 -0.032252267 0.19088303
000280 87 a5 84 be ef 48 3c be 6d 10 49 bc 7d 0f 49 3e
       -0.25907537 -0.18387197 -0.012271983 0.19634815
000290 4a 86 97 bd e5 b4 97 be 6b 57 35 bd b4 66 b1 be
       -0.073986605 -0.296302 -0.04427282 -0.3464867
0002a0 0b fd 07 be 60 60 81 3e cf 1d 38 3e 1a 5e 68 be
       -0.13280122 0.2526884 0.17980121 -0.22692147
0002b0 b5 80 eb bd ef ea 83 3e fb d1 22 3d 6c 84 72 3c
       -0.11499158 0.25765178 0.039751034 0.01480208
0002c0 29 fd 11 be db fb 4b be 2c 85 b8 3c 53 d1 5d 3d
       -0.14256729 -0.19920294 0.022524439 0.054154705
0002d0 3c 8b ca 3a 01 a9 2f 3e 78 af 83 3e a3 f2 2e be
       0.0015452872 0.17154314 0.2571981 -0.17084746
0002e0 53 b3 59 be 80 3d 26 be 4a 7f ba bd 7c 65 66 3e
       -0.21259813 -0.16234398 -0.0910631 0.2249965
0002f0 f3 33 ca bd 94 cc 10 be b9 6b 17 bd ab 74 8d 3c
       -0.0987319 -0.1414054 -0.036967967 0.017267546
000300 4f 8d bb be b4 c8 ad 3e b9 bb 2b be 0d aa 0d be
       -0.36631247 0.33942187 -0.1677083 -0.138344
000310 6a 66 87 bd bd e6 6a 3e e0 4a b2 bc ce a6 2b 3e
       -0.06611331 0.22939582 -0.021764219 0.1676285
000320 4a f1 0c be 1f 7a 4a be a7 7e b6 3e ab 4d 9e 3e
       -0.1376392 -0.19773148 0.35643503 0.3091863
000330 c7 97 9c bd f4 56 af 3e 14 49 e6 bd 1e 1b 32 be
       -0.07646137 0.34246027 -0.11244407 -0.17393157
000340 4d e3 39 3e 46 2f b6 be 29 7c 9c 3e 22 c2 cc 3b
       0.18153115 -0.35582942 0.30563477 0.0062487284
000350 bd 62 bc be 70 29 b7 bd 4e 4f b8 be dd 6e f5 3d
       -0.3679408 -0.089434505 -0.35998005 0.11984036
000360 7d 81 3d 3e 4b 02 f3 bc c6 1d 9e 3e 28 d3 9d be
       0.18506427 -0.02966418 0.3088209 -0.30825162
000370 10 31 d6 be 0d be 14 bd 1e 95 05 bd d3 aa 33 3e
       -0.41834307 -0.03631406 -0.032612912 0.17545633
000380 f8 f6 bd be f6 63 26 3d be eb 20 be 22 75 fa 3e
       -0.37102485 0.040622674 -0.15714929 0.4891749
000390 79 5a 32 be bc a5 4d be f5 fb 20 bd 9c 24 04 3e
       -0.17417325 -0.20082754 -0.039302785 0.1290459
0003a0 ea 0e 81 3e a9 f3 d0 3d c7 79 2d 3d 41 5e 54 bd
       0.2520669 0.102027245 0.042352464 -0.0518477
0003b0 a4 a0 c8 3d a0 fc 18 be 1e d4 a9 bd 83 c0 4a bd
       0.09796265 -0.14940119 -0.08292411 -0.0495
0003c0 40 28 64 be 65 7f a2 bc d2 62 24 bc 03 49 a8 bd
       -0.22280979 -0.019836137 -0.010033326 -0.08217051
0003d0 1a 72 88 be e0 6f 9b 3e 19 17 1c be 2c fd 4d be
       -0.26649553 0.3035879 -0.15243186 -0.20116109
0003e0 75 f3 98 3b 66 a3 13 bd 45 b9 80 3d 9e 96 45 bd
       0.004667694 -0.0360445 0.06285337 -0.048239343
0003f0 c1 53 6b be 5f 1e 6f 3e 9e 04 bc be 54 d9 95 3d
       -0.22981168 0.2335143 -0.36722273 0.07316843

bias f4 [20]
000000 6b 25 a7 3c 35 fa 18 bd fb cb ad 3c 17 7c e8 3b
       0.020403584 -0.03734799 0.02121543 0.007094871
000010 da 17 6a bb 56 15 2c 3c 0a 41 89 bd 2e 5a 92 bd
       -0.0035719783 0.010503134 -0.06701858 -0.07146107
000020 cf 53 11 3c 23 56 bb bd d4 e8 ce 3d 32 0d 93 3c
       0.008870079 -0.09147289 0.10103002 0.017950628
000030 30 bd 94 bd af e1 76 bc a2 76 f1 bd e0 43 87 bd
       -0.07262647 -0.015068456 -0.117902055 -0.06604743
000040 b3 69 07 bb 60 3c bc 3d ed d8 e9 3d bb 66 a2 bd
       -0.0020662367 0.09191203 0.114183284 -0.079297505

weight f4 [20, 20]
000000 70 48 9b 3e 7a fc 45 3c 71 3e 44 3d cc e1 75 3e
       0.30328703 0.012084121 0.04791111 0.24011916
000010 5d b4 f6 bd d3 09 c4 bd a7 0d 15 3e 3e 65 04 3d
       -0.1204612 -0.09572186 0.14555989 0.032323115
000020 44 72 81 bd c8 66 a8 3c 3e 3f 03 3d 09 45 e3 3d
       -0.063206226 0.020556822 0.032042734 0.11097152
000030 4c 8d 4e 3e 2b e2 c7 3e 3c 26 bd bd 7b 70 83 3d
       0.20171088 0.3903974 -0.09235808 0.06417938
000040 f3 65 7a 3d 63 6a 92 3e 0f cc 2a bd 45 70 01 bf
       0.061132383 0.28596792 -0.04169851 -0.50561935
000050 ec 79 4c 3e a1 00 00 3e 37 df 49 be 20 be f8 bd
       0.19968385 0.1250024 -0.19714056 -0.121456385
000060 51 97 8d bb 3a 05 6f 3d 1e 2e ca bd 4f fa 51 3e
       -0.004321017 0.058354594 -0.098720774 0.20505641
000070 90 ff 06 3e 40 aa 58 3d ac 43 3d be 15 d2 35 be
       0.13183427 0.052896738 -0.18482846 -0.17755921
000080 fb ee 43 3e 1b 98 26 3e 33 71 f4 bd e6 8e 8b be
       0.19134133 0.16268961 -0.119356535 -0.2725746
000090 06 74 7f 3e 56 2b 10 be e2 36 8a be b1 d5 bf 3d
       0.24946603 -0.14079031 -0.26994997 0.0936693
0000a0 af 64 de be d2 ff 33 3d 3d c0 25 be c3 20 87 be
       -0.4343619 0.04394514 -0.16186614 -0.26392183
0000b0 56 d3 b4 be 6d 51 2c 3d 5f 2c 88 3d 7b fe cb be
       -0.35317487 0.04206984 0.06649088 -0.3984259
0000c0 a8 1e fe bd 54 61 b2 3d 10 8a be bd cf 39 9e be
       -0.12408191 0.0870997 -0.09303677 -0.3090348
0000d0 4b 0a e3 bd 4b 1f 86 be d3 02 b5 3e fc 91 b7 3e
       -0.110859476 -0.2619575 0.35353717 0.35853565
0000e0 64 7b 09 3e 37 52 20 be 9e c9 66 3e 34 3d a8 3e
       0.13425976 -0.15656362 0.22537848 0.32859194
0000f0 6c a6 a4 be a7 60 ba 3d 02 44 65 be cc 8b 5d be
       -0.3215822 0.09100466 -0.22389224 -0.2163536
000100 5c fd cd bd 9b 66 fe 3c 62 a4 41 be 62 9f 52 be
       -0.1005809 0.031054785 -0.18910363 -0.20568612
000110 84 16 18 be f7 53 95 3e 75 a8 df 3d 8c cf 1f 3e
       -0.14852339 0.29165623 0.109208025 0.15606517
000120 e4 1e 27 3d 59 2a d0 3d df f8 9a 3e 8b 25 84 3e
       0.040800944 0.10164327 0.30268 0.25809893
000130 8c d8 b4 be c2 be 3a 3d 8b 23 1b 3d 76 7b d8 bd
       -0.35321462 0.045592077 0.037875693 -0.10570423
000140 5a 4d 1b be a6 91 67 be af 18 05 be 10 57 27 be
       -0.15166226 -0.22614154 -0.12997697 -0.16341805
000150 3e 9d ed be f7 58 a7 bd a7 76 84 be 03 ca 92 be
       -0.4640903 -0.081712656 -0.25871775 -0.28669748
000160 a7 12 c3 3d e2 21 9b be 80 04 b7 3e 8c d7 8e bc
       0.09525042 -0.30299288 0.3574562 -0.017436765
000170 8f e4 80 be 65 92 06 be 26 98 2c bd 3d 95 0b be
       -0.25174376 -0.13141783 -0.042137288 -0.13631149
000180 70 02 e6 bc 0b b1 16 bd 67 cb d1 3c 98 3a 19 be
       -0.028077334 -0.036789935 0.025609685 -0.14963758
000190 3b 3f e7 bd 2c 80 54 bc 02 eb fb be 13 19 2b 3e
       -0.11291357 -0.012970012 -0.49202734 0.16708784
0001a0 01 5d 15 bf 93 44 8d be 02 bf c0 3c 4c ee 65 be
       -0.5834504 -0.2759138 0.02352858 -0.22454184
0001b0 a0 6b 9d 3e ff ec 0c be f1 b8 b7 bd d3 8c 8d 3e
       0.30746174 -0.13762282 -0.08970822 0.27646503
0001c0 6b 5e 73 be cc 30 30 be 30 6b 72 bc 07 b0 83 3e
       -0.23766486 -0.17206115 -0.014796063 0.25720236
0001d0 cb 35 8f 3e 0a 57 0d bd cd 05 20 be 89 8b de 3e
       0.27970728 -0.034506835 -0.15627213 0.43465832
0001e0 7c 85 f1 bd 2b b1 48 bd c7 37 bb bd 86 70 3a 3e
       -0.11793038 -0.048997086 -0.09141498 0.18206987
0001f0 e7 01 6b 3e fa e1 2f bd 74 87 0c 3e 34 05 68 be
       0.22949944 -0.042940117 0.13723546 -0.22658235
000200 43 a3 43 3e a2 7b 35 bd 3e 20 1e 3e f8 be 12 bd
       0.19105248 -0.04430736 0.15441987 -0.035826653
000210 13 98 36 be 81 f4 7e bd 2f 2b 7a 3e 34 fe 09 bf
       -0.17831449 -0.062244896 0.24430536 -0.5390351
000220 bf ed 53 bd ec 1f 39 be 0c ab af bc a3 88 8a be
       -0.051740404 -0.18078583 -0.021443866 -0.2705737
000230 b6 e5 1b 3e 26 d8 26 bd 39 70 19 be f0 2a bb 3d
       0.15224347 -0.04073348 -0.14984216 0.09139049
000240 bf ba 71 3e 9a c1 a0 bd eb 37 a1 bd 68 49 1e be
       0.23606394 -0.078494266 -0.07871994 -0.1545769
000250 0c 34 f6 3d 82 fb ce bc d9 3d f5 3d 53 93 04 be
       0.12021646 -0.025266413 0.11974687 -0.12946825
000260 99 d9 e2 3d 5f 90 b2 bd 38 69 77 3d 13 21 8f bd
       0.1107666 -0.08718943 0.06040308 -0.0698873
000270 94 97 1e be ac 69 68 3e de 05 9f be d2 1a 09 3e
       -0.1548751 0.2269656 -0.31059164 0.13389137
000280 33 2c 28 be ce a0 8d be f7 4d 66 3d d7 aa 51 3e
       -0.1642311 -0.27661747 0.056226697 0.20475326
000290 62 4c 5f 3e dc 82 38 3e 5a 25 e2 3c c0 fe bb 3e
       0.21806481 0.18018669 0.027605701 0.36717796
0002a0 e8 2b 14 3f 25 2e e9 3d 5d 3e 2c be 6a 81 12 be
       0.57879496 0.113857545 -0.16820665 -0.1430718
0002b0 a1 b2 8b 3d 7e dd 6a bd 0c 64 5f bd 96 31 3e 3e
       0.0682118 -0.057340138 -0.05453877 0.18573603
0002c0 30 56 64 3e 95 a4 c6 be 42 a7 03 3e 93 28 02 be
       0.22298503 -0.3879744 0.12856773 -0.1271079
0002d0 92 83 75 be ac 2e a0 be d8 b2 29 bd be cc 8e 3e
       -0.23975971 -0.31285608 -0.041430324 0.2789058
0002e0 b6 06 88 3d b2 a1 07 3e 66 6c d4 bc 94 c7 68 be
       0.06641905 0.13245276 -0.025930595 -0.22732383
0002f0 96 a0 d4 3c ed e2 d4 bd ac fe b9 3d 5d e8 e5 bd
       0.02595548 -0.10394845 0.09081778 -0.112259604
000300 5e f3 81 be e5 9a 43 be 51 fe 0c be 19 c1 df be
       -0.25380987 -0.19102056 -0.13768889 -0.4370201
000310 00 b9 10 3d e1 e6 ce be 67 4e c4 bd 3e 65 37 3e
       0.03533268 -0.40410522 -0.095852666 0.17909715
000320 3e 31 a4 3e cd fc 7f 3e e4 38 8d 3e 26 c7 e2 3b
       0.3206882 0.2499878 0.27582467 0.006920713
000330 15 6e 9c bd 8f 32 a2 bd ae 64 8a 3e 61 33 63 bd
       -0.07638184 -0.079197995 0.27029938 -0.05546892
000340 4e e6 d0 bd 33 f4 8c 3e d5 59 10 bc c4 a3 a6 be
       -0.10200177 0.2753006 -0.00881048 -0.32546818
000350 b1 9f 92 be b3 14 c3 3d ed c0 b4 bd cf e7 8a 3e
       -0.2863746 0.095254324 -0.0882586 0.2712998
000360 d5 6f 39 bd 08 ab 08 be 14 8a ec bb 8e 1e 78 be
       -0.045272667 -0.13346493 -0.0072186086 -0.24230406
000370 7d f2 c4 3d c1 73 7b 3e 76 0a 85 3e c0 f1 49 3d
       0.096165635 0.24555875 0.25984544 0.049302816
000380 35 55 4a be f6 93 b9 3e c4 73 3a bc 64 3a 8a be
       -0.19759066 0.36245698 -0.01138014 -0.26997674
000390 89 3d 55 3e 91 b7 2b be 5b 15 c1 3e 0d 87 3e 3e
       0.20824255 -0.16769244 0.37711605 0.18606205
0003a0 9d 7f 7d 3e e6 60 9a be 85 b3 93 be 49 63 8b 3e
       0.24755712 -0.30152053 -0.288479 0.27224186
0003b0 5a e6 68 3e 65 89 b8 be 97 1f 1e 3f 78 dd 70 bd
       0.22744122 -0.36042324 0.6176695 -0.05880496
0003c0 b2 ef 2d 3e 1c b7 92 bd f2 7b a3 3e 2c 4f 72 bd
       0.16985968 -0.071638316 0.319305 -0.059157535
0003d0 ba 92 5a be 71 37 d7 3d ca 24 72 be 9d b2 ab be
       -0.21345034 0.105086215 -0.23646846 -0.3353471
0003e0 46 1d e1 3d 3b ec a3 3e c4 83 04 be 93 a1 3e be
       0.109919116 0.32016167 -0.1294089 -0.18616323
0003f0 d7 77 3e 3d 4b 24 0b 3e 31 23 7d 3e 3f c5 38 3e
       0.046501007 0.13588063 0.24720456 0.18043993

bias f4 [20]
000000 20 e1 fa bc 60 cc c6 3c dd ac da 3c f4 4f 41 3c
       -0.030624926 0.024267375 0.026693756 0.0117988475
000010 6a 13 5f 3d 2b 66 82 bd 6c 88 cb 3d dc 10 1a 3d
       0.054461874 -0.06367143 0.0993813 0.037613735
000020 f8 e0 a4 3c 88 91 5d 3d ff 60 25 bd 1b 4f 28 3d
       0.020126805 0.054093868 -0.040375706 0.041091066
000030 8c c6 5e bd 1d ba 5d 3c 15 f9 a2 3d 4d ae 1d be
       -0.054388568 0.013533142 0.07957665 -0.15398522
000040 92 e8 d5 bd a1 46 ab 3d bb a9 57 3d d0 48 e6 bb
       -0.1044475 0.08363081 0.052652102 -0.007027723

weight f4 [20, 20]
000000 95 88 41 bc ca 5e 8d 3d 4a 35 d1 be 62 f7 09 be
       -0.011812349 0.06902845 -0.4086097 -0.13473275
000010 d3 c5 3d bd 69 19 91 bd 5d 3c 7e 3e 7e 5c 7c bd
       -0.046331238 -0.07084925 0.24827714 -0.061611645
000020 c1 6a 85 3e 49 9c 7f 3e 4e 00 c5 3d d8 ef fa bd
       0.2605801 0.24961962 0.09619199 -0.12252778
000030 19 03 ae 3c c3 84 4b 3d 4e e1 6c be 03 7e 43 3e
       0.021241711 0.04968716 -0.23132822 0.19091038
000040 6f f6 d3 be 00 14 da 3e f2 25 86 bd 4d 53 ad bc
       -0.4139895 0.42593384 -0.06550206 -0.021157885
000050 89 5a 35 3e fc 21 01 3f 01 57 05 3e 72 43 28 3e
       0.17710318 0.5044248 0.1302147 0.16431978
000060 22 86 8a be de e9 bb 3d f1 8b 8c be 23 a2 67 be
       -0.2705546 0.09175466 -0.27450517 -0.22620444
000070 6a db 87 3e d7 c4 cd 3d 31 f3 42 3e da 63 41 be
       0.26534587 0.1004731 0.19038083 -0.18885747
000080 87 80 58 be ab 04 cb bd 90 7e 5e bd 03 10 26 3e
       -0.2114278 -0.09913 -0.05431992 0.16217045
000090 3d b2 bb 3e 52 1d 9b 3d e9 3f db 3d 36 40 8c 3c
       0.36659423 0.07573952 0.10705549 0.017120462
0000a0 c6 8c b0 be e6 41 a7 bd 63 62 00 3f 9d e8 47 3e
       -0.34482402 -0.08166866 0.50150126 0.19522329
0000b0 f0 ac 27 bb 82 13 78 3c 79 c3 cc bd 30 56 17 3e
       -0.0025585257 0.01514137 -0.09998221 0.14778972
0000c0 8e ea 22 3e 14 80 6c 3d dc 7f 72 3d bb bc cc 3d
       0.15909788 0.057739332 0.059203967 0.09996935
0000d0 5c 07 be be 61 0f 4d 3d 23 7e 97 3e 25 5c 09 3f
       -0.3711499 0.050063495 0.29588422 0.53656226
0000e0 00 4f cf 3d 11 07 4d 3d d3 27 85 be d4 97 95 3d
       0.1012249 0.050055567 -0.26006946 0.073043495
0000f0 03 c0 ea 3d 14 6a b7 3d 84 a6 96 3e 1e 67 b7 be
       0.114624046 0.0895578 0.29423916 -0.3582086
000100 1c ec 93 bd 94 8a 35 be 33 53 b3 be d0 eb 8a bd
       -0.07222769 -0.17728645 -0.35024413 -0.06783259
000110 95 85 cc 3c 2c 04 8e 3e 4c 53 42 be 01 71 9d 3e
       0.02496604 0.27737558 -0.18977088 0.30750278
000120 60 73 1d bd f1 a4 05 3e 7d ed dc 3d c6 5c d2 3d
       -0.03844011 0.13051201 0.10787485 0.102716014
000130 e4 81 ab 3e 73 af cb bd 64 be 32 be 12 8f e4 be
       0.33497536 -0.09945574 -0.17455441 -0.44640404
000140 06 08 32 3e fc d5 a1 b9 b6 bd 31 3e a5 42 47 3e
       0.17385873 -0.00030867744 0.17357525 0.19459017
000150 19 c5 4a 3f fc fc dd bc 8a e9 9e 3e 7d 14 37 3e
       0.79207 -0.027098171 0.3103755 0.1787891
000160 ba 2d dd 3d 7d e5 ea 3d dd ab 8b be c2 91 fc 3d
       0.10799737 0.11469553 -0.2727956 0.123324886
000170 58 ea 81 be c6 da c0 3d 45 7d 08 3e f5 19 03 bf
       -0.25374103 0.09416728 0.13329037 -0.5121148
000180 f1 81 69 be 16 0e 5f 3d 49 36 43 3e 54 df 92 3e
       -0.22803475 0.054456793 0.19063677 0.2868601
000190 48 cb 29 3e 2e bd 3b be 21 3d 61 be a8 02 47 be
       0.16581452 -0.18333885 -0.21995975 -0.19434607
0001a0 82 71 c6 be 86 cc 38 3e 58 eb 97 3e 35 37 1e 3f
       -0.38758475 0.1804677 0.2967174 0.6180299
0001b0 91 b9 85 be 49 02 83 be a6 83 a6 3e 90 fd 20 3e
       -0.26118138 -0.2558768 0.32522315 0.15721726
0001c0 7a 00 d0 be b2 bf 8c 3e 76 fd 17 bd 5e 78 f0 3d
       -0.40625364 0.27490002 -0.037106954 0.11741708
0001d0 25 af f4 bd 59 6d 75 bd 18 3f a1 bc c9 64 9e 3e
       -0.11947469 -0.059918735 -0.019683406 0.30936268
0001e0 4a 86 ca be 5a d9 19 3e e9 e8 2b be 53 64 34 be
       -0.3955558 0.1502432 -0.16788067 -0.17616396
0001f0 52 bd b3 3c ab 6b 58 3e a6 cc 24 be 7b 6c fe bd
       0.02194086 0.21134822 -0.16093692 -0.12423035
000200 18 d5 91 bd 62 a2 fa be ac ce 04 3e 06 46 39 be
       -0.071207225 -0.48952013 0.12969464 -0.18093118
000210 2c b3 68 bb 39 4b 6c be f0 3b 21 be 2b 5f 93 be
       -0.0035507185 -0.2307557 -0.1574552 -0.28783545
000220 0a 14 8b be b7 f0 34 bd cd 8a 77 3e 3d 1f 90 bd
       -0.27163726 -0.044174876 0.24174042 -0.07037208
000230 a9 fc e8 3e 74 95 a5 be 0c 77 0b bd 70 80 31 3e
       0.45505264 -0.32340586 -0.03404908 0.17334151
000240 4b a6 81 be 8a 4d 54 3d da 9e 81 3d 2c 53 0a be
       -0.25322184 0.05183176 0.06329127 -0.1350829
000250 43 29 4d be b6 d8 02 be 49 ab 6d bc da cd 73 be
       -0.20035271 -0.12777981 -0.01450617 -0.23808995
000260 19 f1 c5 bd 0d 2f 65 3e ae f9 da bd 98 b6 f2 3d
       -0.09665126 0.2238123 -0.10692154 0.11851233
000270 9f b2 84 3d 22 cd 1d 3e 6b 91 1b be 51 ab 01 be
       0.06479382 0.15410283 -0.15192191 -0.12663008
000280 85 6f cc bd 93 33 9d bd f1 cc 61 bd 55 43 36 3d
       -0.09982208 -0.076758526 -0.055127088 0.044497807
000290 e4 51 8c bd 3e a7 68 bd 2a 4c 69 3e 3f 17 3c bd
       -0.06851557 -0.05680012 0.2278296 -0.045920607
0002a0 26 41 86 3d 4e a3 46 3e b0 8b 9d bd f2 b8 b4 3d
       0.06555395 0.19398233 -0.07692659 0.08824338
0002b0 7e a6 02 bd bd 47 50 3e 5e 72 4c 3d f5 86 e6 be
       -0.03189706 0.20339866 0.049913757 -0.4502484
0002c0 5d 82 2a be 39 b5 3b 3d 5d aa bd bd e7 c1 9d be
       -0.16651292 0.045827124 -0.0926101 -0.30811998
0002d0 8d 58 84 3e 8a 89 ac 3e e5 d1 a2 be 26 91 c3 be
       0.2584881 0.33698684 -0.31800762 -0.38196677
0002e0 e0 37 e6 3d e6 2f 35 3e ed 3c 5e 3e 7f 7c 99 3e
       0.11241126 0.17694053 0.21702929 0.29977795
0002f0 fc 1b 2c be 0c 14 2f be 32 b9 58 be 37 75 bc bc
       -0.1680755 -0.17097491 -0.21164396 -0.023005111
000300 21 27 0f 3e cd db 5b bd 56 6c 3b 3e 80 3b 91 3e
       0.1397977 -0.053676415 0.18303046 0.28365707
000310 36 ef ce 3d 56 88 a2 3d 0c 49 0e 3e bf c6 09 be
       0.101042196 0.0793616 0.13895053 -0.13454722
000320 99 a1 e0 3d db d7 95 be 32 9c 4e be fc 5c d8 bd
       0.10968322 -0.29266247 -0.20176771 -0.1056461
000330 89 74 76 3e d0 07 a0 be fe cc cd bc d6 41 09 3e
       0.24067892 -0.3125596 -0.025122162 0.1340402
000340 a7 7d 2b 3e 98 e7 19 3d ba ba 21 be f3 c9 c4 be
       0.16747151 0.03757438 -0.15793887 -0.38435325
000350 90 0e d7 3d 4b 9d 71 be 3f 58 56 3e 09 60 67 bc
       0.105008245 -0.23595159 0.209321 -0.014122018
000360 3e c5 3f ba 95 50 5a be 19 a8 dd 3e 50 6f f5 3d
       -0.0007315463 -0.21319802 0.4329231 0.11984122
000370 ad da f6 3d 99 69 fb bd cc 65 7f 3e 93 ef db bd
       0.12053428 -0.122760005 0.24941176 -0.107390545
000380 64 5d 1a 3e 53 55 f5 bd 5f cd c7 bd 1e 99 f6 bc
       0.15074688 -0.11979165 -0.09755968 -0.030102309
000390 e7 68 1c 3e 55 42 6b 3d 22 43 91 3e 73 6e 58 bd
       0.15274392 0.057436306 0.2837153 -0.052839708
0003a0 f8 60 74 3d 20 6e 34 be 7f 8e 92 bd bb 00 91 be
       0.05966279 -0.17620134 -0.07156085 -0.2832087
0003b0 eb 42 53 be f7 cd 51 3d bd 04 9a 3e 2b 28 1b 3e
       -0.20630996 0.051221814 0.3008174 0.15152042
0003c0 0a dc 86 be bf 04 2d 3d f0 58 a0 3e 95 4a 9f 3d
       -0.2633975 0.042240854 0.31317854 0.07777897
0003d0 c8 17 3d 3e bf 4f 95 3e 65 e8 ef 3d a0 b0 8f ba
       0.18466103 0.29162404 0.117142476 -0.0010962673
0003e0 3a cd da be 25 ba e2 be 2e 9f 88 bc a5 67 3a bc
       -0.427347 -0.44282642 -0.016677465 -0.01137725
0003f0 c8 0f 63 3e c0 5f 36 be 7f 60 60 3d 8e 49 92 3d
       0.22173989 -0.17809963 0.054779526 0.07142936

bias f4 [20]
000000 06 2b 6b 3d 19 d3 06 bd 4d 50 8b bd 21 75 69 bd
       0.057414077 -0.032916162 -0.068024255 -0.05699647
000010 60 58 9e 3d 06 bc c4 3c 19 64 22 3d 60 3b c2 3c
       0.077317 0.024015438 0.03964624 0.023709953
000020 88 4d 0e 3d 4d 07 5f bb ed b2 30 3d 4b 6b 89 3d
       0.03474191 -0.0034031451 0.043139387 0.06709918
000030 54 9b a1 bd d8 ba 3d 3d da 69 e8 bc 50 f2 06 3e
       -0.078909546 0.046320766 -0.028370786 0.13178372
000040 ca 42 88 bd db fb 65 3d 07 1d ce 3c 34 1c 85 bc
       -0.06653364 0.05614839 0.025160326 -0.0162488
