Trained/Models_00/Noise_2/simulation_stop/internal_o3.pt (torch, 51679 bytes, 23 tensors)

weight f4 [20, 2]
0	0xbe02cc85	-0.1277333
1	0x3e9cf078	0.30652213
2	0xbe76d66e	-0.24105236
3	0x3d57cf36	0.052687846
4	0xbef64540	-0.4809971
5	0xbf30c7c9	-0.6905485
6	0xbe5af7eb	-0.21383636
7	0x3f2cd1a1	0.6750737
8	0x3ebc8971	0.3682361
9	0xbed9cef7	-0.42540714
10	0x3f1e42a4	0.61820436
11	0xbd8dc6ea	-0.069227055
12	0xbce76c21	-0.028249802
13	0xbf259a5f	-0.64688677
14	0xbca72de4	-0.020407625
15	0xbf5c7d22	-0.8612844
16	0x3db35ee8	0.08758336
17	0x3ebf2c80	0.37338638
18	0xbd3e6b08	-0.04648879
19	0xbe5cd015	-0.21563752
20	0xbddd2445	-0.107979335
21	0x3dd793e6	0.10526256
22	0x3d1fbc26	0.03899779
23	0xbdc3c04d	-0.09558163
24	0x3e5a1fa2	0.2130113
25	0xbf82f9bc	-1.0232463
26	0xbeb85a16	-0.3600623
27	0x3ea43529	0.32071808
28	0x3db9badf	0.09068846
29	0xbe7b7d6c	-0.24559563
30	0x3ea0fed4	0.31444418
31	0x3db7498f	0.08949577
32	0x3e1c554a	0.1526691
33	0xbf9e2232	-1.2354186
34	0xbf0ff030	-0.5622587
35	0xbdcf86bf	-0.10133123
36	0x3bf609b6	0.007508482
37	0x3e095c17	0.13414036
38	0x3e6f99e4	0.23398548
39	0xbdd077c4	-0.101790935

bias f4 [20]
0	0x3dca3f95	0.098754086
1	0x3dc18cdd	0.09450696
2	0xbe2f8970	-0.17142272
3	0xbe4a75e2	-0.19771531
4	0xbc1bf865	-0.009519671
5	0xbda50f26	-0.0805953
6	0xbc1ac995	-0.009447475
7	0xbe3c3161	-0.18378212
8	0x3eca3b27	0.39498255
9	0xbd44606c	-0.047943518
10	0xbda37ee0	-0.07983184
11	0xbe114ce2	-0.14189485
12	0xbe86afda	-0.2630604
13	0x3e22c7e0	0.15896559
14	0xbe27fb22	-0.16404393
15	0xbedc2b5a	-0.43001825
16	0xbe20e21d	-0.15711255
17	0x3d6c028a	0.05761961
18	0x3cdefb2c	0.027219377
19	0xbe23764b	-0.15963094

weight f4 [20, 20]
0	0x3e77056c	0.24123162
1	0x3e21e4b9	0.15809907
2	0xbea105ae	-0.31449646
3	0x3e1b8d16	0.15190539
4	0x3e197572	0.14986208
5	0xbdd3172b	-0.10307153
6	0x3e5ca89f	0.21548699
7	0x3d5cf14c	0.053941056
8	0x3e8960c5	0.26831642
9	0x3ed81f6e	0.4221148
10	0x3e9ee92a	0.31037265
11	0x3c7db4c5	0.015484993
12	0x3e864343	0.26223192
13	0x3e5a2c6a	0.21306005
14	0x3f077902	0.5291902
15	0xbeb96955	-0.36213174
16	0xbdac208c	-0.08404645
17	0xbe92248f	-0.28543517
18	0xbe162557	-0.14662682
19	0x3d6bb72d	0.057547737
20	0x3e8ae2f2	0.2712627
21	0x3e188602	0.1489487
22	0xbe57c720	-0.21072054
23	0x3e81afa1	0.25329307
24	0xbe852d67	-0.26011202
25	0xbee66e05	-0.45005813
26	0xbee73b26	-0.45162314
27	0xbec6de4c	-0.38841474
28	0x3eac332f	0.336328
29	0xbdbac14a	-0.09118898
30	0xbcfe9677	-0.031077607
31	0x3d02f5df	0.031972762
32	0xbe94ea84	-0.2908517
33	0x3d03e18d	0.032197524
34	0xbea62972	-0.32453495
35	0x3e453ece	0.1926224
36	0xbd151a17	-0.036401834
37	0xbd1acff4	-0.037795976
38	0x3d657a2a	0.056024708
39	0xbca80a27	-0.020512654
40	0x3e9dc65d	0.30815402
41	0x3e14a635	0.14516528
42	0xbe688f72	-0.2271097
43	0xbf093d67	-0.5360932
44	0x3f26cabd	0.65153104
45	0xbdc47219	-0.09592075
46	0xbce5f5a2	-0.028071228
47	0x3e90a55f	0.28251168
48	0x3e14e1dd	0.14539285
49	0xbe6e39f8	-0.23264301
50	0xbe5220c2	-0.20520309
51	0x3e28f543	0.1649981
52	0xbe769c27	-0.24083005
53	0x3c59c4da	0.013291562
54	0x3d16ec59	0.036846492
55	0xbdb33e3b	-0.08752104
56	0x3e0c7dab	0.13719814
57	0x3bcba662	0.0062149027
58	0x3cb97fab	0.022643885
59	0xbef25f6d	-0.4733843
60	0x3e6c2e60	0.23064566
61	0x3da8f181	0.08249188
62	0xbe8587d0	-0.2608018
63	0x3e929574	0.2862965
64	0x3d45fa96	0.04833468
65	0x3e2758a7	0.16342412
66	0xbea1086f	-0.31451747
67	0x3ce8c9f2	0.028416608
68	0xbda25caf	-0.07927834
69	0x3dd09c3f	0.101860516
70	0x3dfdc11f	0.123903506
71	0x3e62a97e	0.22134969
72	0x3e8c9e7b	0.2746466
73	0xbc88aa11	-0.016682656
74	0xbd32cb8a	-0.04365114
75	0x3ca14ea5	0.019690821
76	0xbec1e84b	-0.37872538
77	0xbd1d858b	-0.038457435
78	0x3e4b0572	0.19826296
79	0x3e66009f	0.22461174
80	0x3ebcb2ef	0.36855265
81	0x3d318543	0.04333998
82	0x3e5d9633	0.21639328
83	0xbd5a90dc	-0.053360805
84	0xbeae465d	-0.34038058
85	0xbea274f6	-0.3172986
86	0x3de059f0	0.10954654
87	0x3ecd2dc3	0.40073976
88	0xbcaf043f	-0.02136433
89	0xbdeea1f1	-0.116519816
90	0x3e22114e	0.15826914
91	0xbbb46734	-0.005505467
92	0xbdb6375d	-0.088972785
93	0xbe165fcf	-0.14684986
94	0xbe26f21f	-0.163033
95	0x3e50e792	0.20400837
96	0xbf00eda2	-0.503626
97	0x3e871c80	0.2638893
98	0x3cd86eac	0.02641996
99	0x3e8ed2dd	0.2789525
100	0xbdb95c63	-0.090508245
101	0x3d9f8d53	0.07790627
102	0x3e92a088	0.286381
103	0xbe0133ca	-0.12617412
104	0x3d9fed15	0.07808892
105	0x3eb9e0d8	0.36304355
106	0xbe4f1911	-0.20224406
107	0xbe59d262	-0.21271661
108	0x3de503a7	0.11182337
109	0xbe981c05	-0.29708877
110	0x3dc7167c	0.097210854
111	0x3c37bb4b	0.011214088
112	0xbe9a419a	-0.30128175
113	0xbebe3fe1	-0.3715811
114	0x3ef2878d	0.47369042
115	0x3e1aedc1	0.15129758
116	0xbec4198e	-0.38300747
117	0xbd4bcca9	-0.049755726
118	0x3e55b153	0.20868425
119	0x3ea2ba24	0.3178264
120	0xbed273f3	-0.41104087
121	0xbcfe924a	-0.031075615
122	0x3d5d4661	0.054022197
123	0xbcc4007a	-0.023926008
124	0xbe1af891	-0.15133883
125	0xbf1320b7	-0.57471794
126	0x3e517443	0.20454507
127	0x3d978823	0.07399013
128	0x3e71166c	0.2354371
129	0xbe8385e0	-0.25688076
130	0x3e33e9d7	0.17569672
131	0xbe145221	-0.14484455
132	0x3d1c2ade	0.03812682
133	0x3ab614f4	0.0013891743
134	0x3e767da0	0.2407136
135	0x3da7b910	0.08189595
136	0xbdbe02e1	-0.09277893
137	0xbe42a6a4	-0.19008881
138	0x3d60e124	0.05490221
139	0xbe482cdf	-0.19548367
140	0x3e45ab9a	0.19303742
141	0x3ec82056	0.3908717
142	0x3e5758a6	0.2102991
143	0x3db3fb66	0.08788185
144	0x3e2fb138	0.17157447
145	0x3e7a265d	0.24428697
146	0xbef10176	-0.47071427
147	0xbbba1bfa	-0.0056796046
148	0x3d8640fa	0.06555362
149	0xbe13caaa	-0.14432779
150	0x3de824ae	0.11335121
151	0x3e748a32	0.23880842
152	0x3e24a9ba	0.1608037
153	0xbed708d8	-0.41998935
154	0xbdb3b0e4	-0.087739736
155	0xbda28a79	-0.07936568
156	0xbeb354eb	-0.35025725
157	0xbe50290d	-0.2032816
158	0xbe210790	-0.15725541
159	0x3e8d4658	0.2759273
160	0x3de32154	0.11090341
161	0xbdd0ce39	-0.10195584
162	0xbc2ae87c	-0.010431405
163	0xbc0eb626	-0.00871042
164	0xbebd06fb	-0.36919388
165	0x3e12acc8	0.14323723
166	0xbe599545	-0.21248348
167	0xbe1eed93	-0.15520315
168	0xbe178668	-0.14797366
169	0xbe1a2272	-0.15052202
170	0x3e0d9796	0.13827357
171	0x3e43b4f6	0.19112
172	0x3d7446fc	0.05963801
173	0xbe02dd39	-0.12779702
174	0xbd8d39a1	-0.068957575
175	0x3ed77db0	0.4208808
176	0xbca9878a	-0.020694513
177	0x3eaea9dc	0.34113967
178	0x3e2c1b33	0.1680725
179	0xbe36b45f	-0.17842244
180	0x3da33f67	0.079710774
181	0xbd2b4932	-0.04181785
182	0x3ec002c3	0.37502107
183	0xbd397d0d	-0.045285273
184	0x3f16cb80	0.58904266
185	0x3ec4e22c	0.38453805
186	0x3e12a102	0.14319232
187	0x3ed93993	0.42426738
188	0x3ea0bf58	0.31395984
189	0x3d8d129a	0.068883136
190	0x3da1aeb7	0.07894652
191	0xbe99d432	-0.30044705
192	0x3cfb560a	0.030680675
193	0x3e47457f	0.19460104
194	0x3ce06bdd	0.027395183
195	0x3d7825ea	0.060583033
196	0x3f348009	0.70507866
197	0xbd5f564c	-0.05452566
198	0xbe4f37d8	-0.20236146
199	0x3d75e4b9	0.06003258
200	0x3d804fe1	0.06265236
201	0x3e839694	0.2570082
202	0xbd9c93f6	-0.07645409
203	0x3e2dad67	0.16960679
204	0xbebe1879	-0.37128046
205	0xbe895bfb	-0.26827988
206	0xbe86375e	-0.26214117
207	0xbe850942	-0.25983626
208	0x3f0fbbc4	0.5614588
209	0xbef258de	-0.47333425
210	0x3ca11e4f	0.019667773
211	0xbe1216d0	-0.14266515
212	0xbf21a636	-0.6314424
213	0xbdae8514	-0.085214764
214	0xbe609f74	-0.21935827
215	0x3c9e8968	0.01935263
216	0xbf355a73	-0.7084114
217	0x3ec22651	0.37919858
218	0x3e34bf5d	0.17651124
219	0xbe84fda7	-0.2597477
220	0xbeca6915	-0.39533296
221	0x3e1b323d	0.15155883
222	0x3ed0df5d	0.40795413
223	0x3d40da71	0.047083322
224	0xbdbc386a	-0.09190448
225	0x3da1971c	0.0789015
226	0x3cb1c696	0.021701138
227	0xbdbf70ab	-0.093476616
228	0xbe89e804	-0.26934826
229	0x3eb50e73	0.35362586
230	0x3dc86d8c	0.097865194
231	0x3ee7a23b	0.4524096
232	0xbd8557f8	-0.06510919
233	0xbdc5140f	-0.096229665
234	0x3e7c9216	0.24665102
235	0xbe35730d	-0.1771967
236	0xbd06d13a	-0.032914378
237	0x3e24873d	0.16067214
238	0x3e61d951	0.22055556
239	0x3d0d38f3	0.03447814
240	0xbea770b0	-0.3270316
241	0x3e2851f1	0.16437508
242	0x3e833685	0.25627533
243	0xbdfaf446	-0.12253623
244	0xbe79993e	-0.24374864
245	0x3e759de4	0.23986012
246	0x3c976aba	0.018483508
247	0xbe4663c2	-0.19373992
248	0x3de38941	0.111101635
249	0x3e911ade	0.2834081
250	0xbe04a29d	-0.12952657
251	0x3e4f822f	0.20264505
252	0x3e68a281	0.2271824
253	0x3cd28fa3	0.025703257
254	0xbb078972	-0.002068129
255	0xbd2e1216	-0.042497717

bias f4 [20]
0	0x3e2d1b5f	0.16904972
1	0x3e3937b4	0.18087655
2	0x3d69c180	0.0570693
3	0xbdb8faaa	-0.090321854
4	0xbe3d858d	-0.18507977
5	0x3cc95ea4	0.024581261
6	0xbd448b68	-0.04798451
7	0xbdf23199	-0.11825866
8	0xbe127427	-0.14302121
9	0xbe140ddd	-0.14458413
10	0x3ccb2997	0.024800105
11	0xbe1da877	-0.15396295
12	0x3ce43810	0.027858764
13	0xbdb62337	-0.088934354
14	0xbdff6809	-0.12471015
15	0x3b544088	0.0032387096
16	0xbe4b5d36	-0.19859776
17	0xbe16d45b	-0.14729445
18	0x3e8eb53e	0.27872652
19	0xbcbc1629	-0.022959786

weight f4 [20, 20]
0	0x3e9ff8fd	0.3124465
1	0xbe965fd1	-0.29369977
2	0x3d1278c1	0.03575969
3	0x3e6a38d7	0.22873245
4	0xbe636707	-0.2220727
5	0xbe138787	-0.14407168
6	0x3e181bd3	0.14854364
7	0x3ec7f707	0.39055654
8	0xbf1c8d3d	-0.6115301
9	0x3e1ec621	0.15505268
10	0x3e0f68f3	0.14004879
11	0x3e9ec110	0.3100667
12	0x3da9e69a	0.08295937
13	0x3e3578de	0.17721888
14	0x3eb4f34f	0.3534188
15	0xbe91052d	-0.2832426
16	0x3edd1646	0.43181056
17	0xbe12c3ec	-0.14332551
18	0x3df714f2	0.12064542
19	0xbeb3710e	-0.3504719
20	0x3ea72fd3	0.32653674
21	0xbdd8abce	-0.10579644
22	0x3e0a93b4	0.13532907
23	0x3d71a39a	0.058993913
24	0xbc3960cc	-0.011314582
25	0x3e891f9c	0.2678193
26	0x3e78635a	0.2425665
27	0xbe8b1783	-0.27166376
28	0xbd7d0083	-0.061768066
29	0x3e740763	0.23830943
30	0xbedc4139	-0.4301851
31	0x3e956a1c	0.29182518
32	0xbdaf5522	-0.0856116
33	0x3d94ba66	0.07262115
34	0xbcaf0907	-0.02136661
35	0x3ecf41ae	0.40479797
36	0x3d885789	0.06657321
37	0x3f067dfe	0.52536
38	0x3ebdfe88	0.37108254
39	0x3dc18bc6	0.09450488
40	0xbe83ad07	-0.25717947
41	0xbd98a344	-0.074530154
42	0x3d274d65	0.040845294
43	0xbe9df91d	-0.3085412
44	0x3e4dcad5	0.20096906
45	0x3dc3dcd9	0.09563608
46	0x3e8e2b9a	0.2776764
47	0x3bcdbc82	0.0062785754
48	0x3dec4b72	0.115378276
49	0x3e931161	0.28724197
50	0xbec308ab	-0.3809255
51	0xbe4cf1b6	-0.2001408
52	0xbe0e1cfa	-0.13878241
53	0x3dde085e	0.1084144
54	0x3d5efa4c	0.05443792
55	0x3e9f41db	0.3110493
56	0x3e933477	0.28750965
57	0x3e16e090	0.14734101
58	0xbdf733ba	-0.12070413
59	0x3e2619ee	0.16220829
60	0x3ef9e9a5	0.4881107
61	0x3c21f6d9	0.009885513
62	0xbe688628	-0.22707427
63	0xbd77318f	-0.060349997
64	0xbec3bf3d	-0.3823184
65	0xbebe25b0	-0.37138128
66	0xbf053d87	-0.5204701
67	0xbefad287	-0.48988745
68	0xbe86b4f1	-0.26309922
69	0xbe703b11	-0.23460032
70	0x3bbce592	0.0057646716
71	0xbbac3127	-0.005254883
72	0xbe5eee5b	-0.21770613
73	0x3de10f2b	0.10989221
74	0xbd17aa11	-0.037027422
75	0x3df91653	0.12162461
76	0xbdb03c66	-0.0860527
77	0xbde8aee5	-0.113614835
78	0x3e5290d5	0.20563062
79	0x3ec23531	0.37931207
80	0x3ec5f2b6	0.38661736
81	0xbe3fe4ec	-0.1873967
82	0x3e14ee30	0.14543986
83	0x3ca450c5	0.020058045
84	0x3e1dc740	0.15408039
85	0xbe8e68ca	-0.27814323
86	0xbe193a43	-0.14963631
87	0xbe238508	-0.15968716
88	0x3e1a9b10	0.15098214
89	0x3e0b13a1	0.13581707
90	0xbf2d7d4c	-0.6776931
91	0xbebcebdd	-0.368987
92	0xbde0ad11	-0.1097051
93	0xbf0b9884	-0.54529595
94	0x3ef9f507	0.48819754
95	0x3ea34d38	0.3189485
96	0xbdc8cb1a	-0.098043635
97	0xbd4234f2	-0.047413774
98	0x3ee7aa19	0.45246962
99	0x3e9fd551	0.31217435
100	0xbddc91a4	-0.10769966
101	0xbe0722f7	-0.13196932
102	0x3d678be8	0.05652991
103	0xbe0768f5	-0.13223632
104	0xbeb44e93	-0.35216197
105	0xbc536c7f	-0.012904285
106	0x3dbbf033	0.09176674
107	0xbec287b5	-0.3799416
108	0x3ddb5abd	0.10710666
109	0xbb57d0f5	-0.0032930945
110	0xbe84156e	-0.257976
111	0xbe08518f	-0.13312362
112	0x3eb9f3fc	0.36318958
113	0x3e3e7e1b	0.18602793
114	0x3ed493c4	0.41518986
115	0x3d5264ad	0.051365543
116	0x3daa451b	0.08313962
117	0x3e698f02	0.2280846
118	0x3e240506	0.16017541
119	0xbef63acb	-0.4809173
120	0x3e7cc38e	0.24683973
121	0xbd992396	-0.074774906
122	0xbc657a5c	-0.0140062235
123	0x3e8c417a	0.27393705
124	0x3dfbc5d5	0.12293593
125	0xbd0f088f	-0.03492027
126	0xbe17aafa	-0.14811316
127	0x3e790807	0.24319468
128	0x3ba56828	0.005047817
129	0x3d07c6be	0.03314852
130	0x3e8325e1	0.25614837
131	0x3dfc054a	0.12305696
132	0xbe212cfe	-0.1573982
133	0x3eaae6b6	0.33379143
134	0xbe5ba65e	-0.21450183
135	0x3eaee891	0.3416181
136	0x3e3560ba	0.1771268
137	0xbf17e8cd	-0.593396
138	0xbe8dc3c6	-0.27688426
139	0x3d95c6e5	0.07313327
140	0xbdcbf0b2	-0.09958018
141	0x3e375933	0.1790512
142	0xbd8c58f6	-0.068529055
143	0x3e805780	0.25066757
144	0xbd5c9db7	-0.053861346
145	0xbd6d181b	-0.057884317
146	0xbe35c78f	-0.17751907
147	0x3e997793	0.2997404
148	0x3eb2a1e0	0.34889126
149	0x3dc60bb9	0.09670205
150	0x3e246d3c	0.16057295
151	0xbe1d603e	-0.15368745
152	0xbdd96a47	-0.10615974
153	0xbd5e7eff	-0.05432033
154	0x3dbb80ac	0.091554016
155	0x3e36ef47	0.17864715
156	0xbe308221	-0.1723714
157	0x3eb1c664	0.34721673
158	0x3c7aa66d	0.015298468
159	0x3d3363c6	0.043796323
160	0xbe04ef7d	-0.12981983
161	0xbcd06051	-0.025436552
162	0xbe97af3e	-0.29625887
163	0x3ecdcefc	0.4019698
164	0x3eb160bf	0.34644124
165	0x3dcb962a	0.09940751
166	0x3c12d152	0.008961039
167	0xbc2c5514	-0.010518331
168	0x3e3a5f96	0.18200526
169	0x3cfb1e18	0.030653998
170	0xbca2b252	-0.01986042
171	0x3eaa0a5c	0.3321103
172	0xbe6a344d	-0.22871514
173	0xbeb601cb	-0.35548243
174	0x3e8880c0	0.26660728
175	0xbe46fbd6	-0.19432005
176	0xbde9815d	-0.11401627
177	0xbe5b738f	-0.21430801
178	0x3e9ab5fb	0.30216965
179	0xbea5f994	-0.32416975
180	0x3ef084f0	0.46976423
181	0xbe3ff086	-0.18744096
182	0xbe585d81	-0.21129419
183	0xbd9db552	-0.077006
184	0xbe9ee0db	-0.31030926
185	0x3eaed2ef	0.34145305
186	0xbeaea9e0	-0.3411398
187	0x3e12ce22	0.14336446
188	0xbcb1bec6	-0.021697413
189	0x3d0e6426	0.034763478
190	0x3db78296	0.08960454
191	0x3dfccd73	0.12343874
192	0xbdf2ef35	-0.11862031
193	0xbd167d9c	-0.036740884
194	0xbdfc77e5	-0.123275556
195	0x3e586fb4	0.21136361
196	0x3c8f3cb7	0.017485006
197	0x3dc670dc	0.09689495
198	0x3e087e8b	0.13329522
199	0xbe5e329d	-0.21698995
200	0x3e689bc8	0.22715676
201	0x3c41d0db	0.01182958
202	0x3df2fa9f	0.118642084
203	0x3b9307e9	0.004487027
204	0x3c9b398d	0.01894834
205	0x3c67280f	0.014108672
206	0x3ded5b90	0.1158973
207	0xbe0e7e95	-0.13915475
208	0xbe135f68	-0.14391863
209	0x3e19012a	0.1494185
210	0xbe06ed0a	-0.1317636
211	0x3e0f987a	0.14023009
212	0x3b4e7a83	0.0031506128
213	0x3e83f0e5	0.25769725
214	0xbea1e237	-0.316179
215	0x3e7aaf66	0.24480972
216	0x3d4e5148	0.050370485
217	0xbeaad005	-0.3336183
218	0xbda728b5	-0.08162061
219	0xbe7f4cab	-0.2493159
220	0x3caf7efe	0.02142286
221	0xbc65de72	-0.014030086
222	0xbd1e76aa	-0.038687386
223	0xbe62b4fb	-0.22139351
224	0x3ddf2eb5	0.108975805
225	0xbe5be8aa	-0.21475473
226	0xbbd8c224	-0.0066149402
227	0xbda4c67f	-0.080456726
228	0xbea8eec9	-0.3299468
229	0x3e503fcf	0.20336841
230	0xbebb381d	-0.3656625
231	0xbda91fa3	-0.08257987
232	0x3e8addd3	0.27122363
233	0x3ea92dd6	0.33042783
234	0x3d252e23	0.040327203
235	0x3ec18c45	0.3780233
236	0x3e36a87b	0.17837708
237	0x3f488a9a	0.7833649
238	0xbdbe3533	-0.09287491
239	0x3e4bf7c3	0.19918732
240	0xbe9b2e34	-0.30308688
241	0x3e1dc401	0.15406801
242	0xbe9de73d	-0.30840483
243	0x3d9efac7	0.07762676
244	0x3e829f74	0.25512278
245	0xbeb0297b	-0.34406647
246	0x3c7004a8	0.014649548
247	0x3e9fde7c	0.3122443
248	0x3d2f9d3f	0.04287457
249	0xbcbbb816	-0.022914927
250	0x3e9a78d5	0.30170313
251	0xbdd6f83b	-0.10496565
252	0xbe8b992e	-0.27265304
253	0xbed37bcc	-0.41305387
254	0x3e57a1eb	0.2105786
255	0xbf3efa21	-0.74600416

bias f4 [20]
0	0xbcef8c6f	-0.029241769
1	0x3d83abe8	0.06429273
2	0xbd556c43	-0.0521052
3	0x3e006896	0.12539896
4	0x3cbd0010	0.023071319
5	0x3d286386	0.041110538
6	0xbbfd64be	-0.0077329567
7	0x3cae702d	0.021293724
8	0xbd9e98ac	-0.077439636
9	0xbd781edf	-0.060576316
10	0x3d971d45	0.073786296
11	0xbdb308b6	-0.08741896
12	0x3d23dc93	0.040005278
13	0xbdc1de92	-0.0946628
14	0xbd09e52c	-0.03366582
15	0x3d453655	0.04814752
16	0xbda8cead	-0.08242545
17	0xbdfbf688	-0.123028815
18	0xbc65f15a	-0.0140345935
19	0xbdf5ef68	-0.12008554

weight f4 [20, 20]
0	0xbd6fd091	-0.058548514
1	0x3e8f32a7	0.27968332
2	0x3ee322e4	0.44362557
3	0xbe628353	-0.22120409
4	0x3f185f1c	0.59520125
5	0x3baa2d25	0.00519337
6	0x3e9f0cc5	0.3106443
7	0xbe668f72	-0.22515658
8	0x3e4bd38c	0.19904917
9	0x3d03d64d	0.032186795
10	0x3e29ad1d	0.16569944
11	0x3e1ed641	0.15511419
12	0x3d187d59	0.037228916
13	0x3e94e914	0.29084074
14	0xbe1f4633	-0.15554123
15	0x3d9ffd2c	0.078119606
16	0x3e7047e4	0.23464924
17	0x3ee3bc36	0.4447953
18	0x3ebcd55e	0.36881536
19	0xbb76389b	-0.003757036
20	0xbe0a5637	-0.13509451
21	0x3e34dd76	0.17662606
22	0xbcf89a8f	-0.030347137
23	0xbde3e9ea	-0.111286
24	0x3e5a17a0	0.21298075
25	0x3ea7b538	0.32755446
26	0x3e8f5fe3	0.28002843
27	0x3b9bb379	0.0047516194
28	0xbe009bbb	-0.12559406
29	0xbb2c8d8e	-0.002632949
30	0xbe89163b	-0.26774773
31	0xbdbe1c1e	-0.09282707
32	0xbea16b8d	-0.31527367
33	0x3ee365af	0.44413516
34	0xbe9aa292	-0.30202156
35	0xbea63c24	-0.3246776
36	0x3ec9dca3	0.39426145
37	0x3e9c955a	0.30582696
38	0xbe2d67a8	-0.16934073
39	0x3e6867a1	0.22695781
40	0xbeff2cc5	-0.49838844
41	0xbe843e42	-0.2582875
42	0x3e7720ce	0.24133608
43	0xbe2d903b	-0.16949551
44	0xbecf9f82	-0.40551382
45	0x3e632a1c	0.22184032
46	0xbf0b5e2a	-0.5444056
47	0x3e64493e	0.22293565
48	0x3e45135b	0.19245665
49	0x3efc2e04	0.49253857
50	0xbe29bb6c	-0.16575402
51	0xbd31f99b	-0.043450933
52	0xbdc90ab2	-0.09816493
53	0xbd387348	-0.045031816
54	0x3d8372e3	0.06418397
55	0xbe5bd60f	-0.21468376
56	0xbe887337	-0.26650402
57	0x3ed97bab	0.42477164
58	0x3d5a1e58	0.053251594
59	0x3ebd148e	0.36929744
60	0xbe0602c4	-0.13086993
61	0xbd70f85f	-0.058830615
62	0xbe0601b9	-0.13086595
63	0x3e149d59	0.14513148
64	0xbd68d760	-0.056846023
65	0xbe2baff2	-0.16766337
66	0x3e281ac6	0.16416463
67	0x3e360c3f	0.17778109
68	0x3d85a0ba	0.06524797
69	0x3e27b58d	0.1637785
70	0x3e8a37fb	0.26995835
71	0xbf0aa3f7	-0.5415644
72	0x3da71b5e	0.08159517
73	0x3e8d3eda	0.27587014
74	0x3c14fab2	0.009092974
75	0x3d5d6180	0.05404806
76	0xbe441317	-0.19147907
77	0x3f1658d8	0.58729315
78	0x3d54fa9d	0.051996816
79	0xbefccd4f	-0.49375388
80	0x3e8bc988	0.27302194
81	0xbe8bd51a	-0.2731102
82	0xbe879e58	-0.26487994
83	0xbd1d86e1	-0.03845871
84	0x3db239a7	0.087024026
85	0x3dbdb356	0.09262721
86	0xbd70f5a7	-0.058828022
87	0x3d73fafc	0.05956553
88	0x3ca57ad1	0.020200165
89	0xbe79e27b	-0.24402802
90	0x3e0d6968	0.1380974
91	0xbd1ae7ee	-0.03781884
92	0x3bde4878	0.0067835413
93	0x3e5f22a4	0.21790558
94	0xbe0f39fd	-0.13986965
95	0xbcce4878	-0.02518104
96	0xbd5ebfb1	-0.05438203
97	0xbe9fa8a1	-0.3118334
98	0xbeea0c51	-0.45712522
99	0xbb5679b1	-0.0032726342
100	0x3e355d49	0.17711367
101	0xbe1a020d	-0.15039845
102	0xbda0f643	-0.07859471
103	0x3e60553e	0.21907517
104	0x3e528bf9	0.20561208
105	0x3c1d2eff	0.009593724
106	0xbe5abeda	-0.21361867
107	0xbcf7fd78	-0.03027223
108	0x3e8f641f	0.28006074
109	0x3e0e5307	0.1389886
110	0xbe78c290	-0.2429297
111	0xbedff2de	-0.4373998
112	0x3c1540d1	0.009109692
113	0x3e667dd7	0.22508942
114	0xbe9ba0f9	-0.3039625
115	0xbd6d5359	-0.057940815
116	0xbeb227e0	-0.34796047
117	0xbd0e1288	-0.03468564
118	0x3e922a68	0.28547978
119	0x3d6bc470	0.057560384
120	0xbe6f8768	-0.23391497
121	0x3ebe68a5	0.37189212
122	0x3db1a6ac	0.08674368
123	0xbe5fba5a	-0.21848431
124	0xbef76ee6	-0.48326796
125	0x3e780a75	0.24222739
126	0x3d890197	0.06689756
127	0xbd7eada4	-0.062177315
128	0xbe6a6180	-0.22888756
129	0x3e77c9b8	0.24198043
130	0xbe0bdd14	-0.13658553
131	0xbef37012	-0.4754644
132	0x3e463e5c	0.19359726
133	0xbeb9ef83	-0.36315545
134	0x3e7214bc	0.23640722
135	0x3e4290ee	0.19000599
136	0x3f34003f	0.70312876
137	0x3d1bb5ff	0.038015362
138	0xbd3e96cd	-0.046530534
139	0xbe4fc893	-0.20291357
140	0xbeac11f9	-0.33607462
141	0xbe440b07	-0.19144832
142	0xbeee549b	-0.46548924
143	0x3e801f15	0.25023714
144	0xbf2a63e9	-0.665587
145	0x3ee27395	0.44228807
146	0x3ea23791	0.3168302
147	0x3e66202c	0.2247321
148	0xbc0e765e	-0.008695213
149	0xbe0ea9f7	-0.13932024
150	0x3ece5182	0.4029656
151	0xbeab7ed7	-0.3349521
152	0x3ecaeb51	0.39632657
153	0xbebcce4f	-0.3687615
154	0xbdb6282a	-0.088943794
155	0x3e2d3190	0.16913438
156	0x3c6413ce	0.013920737
157	0xbe9b8290	-0.3037305
158	0xbedabe28	-0.42723203
159	0xbdc461dc	-0.09588978
160	0x3e85cf31	0.26134637
161	0xbda6f28a	-0.081517294
162	0xbe619ead	-0.22033186
163	0xbe9281d7	-0.28614685
164	0x3e266dbb	0.16252796
165	0x3de34ae9	0.11098272
166	0xbe1e96cf	-0.15487216
167	0xbe049646	-0.1294795
168	0x3d350ab8	0.044199675
169	0xbde07fbc	-0.109618634
170	0x3dadac66	0.08480148
171	0xbe11a52c	-0.14223164
172	0x3e6fc1d5	0.23413785
173	0x3e368949	0.17825808
174	0x3e51c4ba	0.20485201
175	0xbd8f9914	-0.07011619
176	0xbd66a201	-0.056306843
177	0xbe4eaed1	-0.20183875
178	0x3e32bf4e	0.1745579
179	0xbd1df870	-0.038567007
180	0x3ea9a62e	0.33134598
181	0x3d966b13	0.073446415
182	0x3cf3ce30	0.029761404
183	0xbe48daee	-0.19614765
184	0xbdd3907d	-0.10330293
185	0xbd87821b	-0.066166125
186	0xbe5b43e6	-0.2141262
187	0x3e1fc045	0.15600689
188	0xbd991a8e	-0.07475768
189	0x3ea3c75d	0.3198804
190	0xbe795a8e	-0.2435095
191	0xbe028e8e	-0.12749693
192	0xbebdc7a4	-0.37066376
193	0x3e360bfd	0.1777801
194	0x3ec9a6ad	0.39384976
195	0xbe913089	-0.28357342
196	0xbe346862	-0.17617944
197	0xbee219eb	-0.441604
198	0xbdf1b667	-0.118023686
199	0x3d360c0b	0.04444508
200	0x3dfd55bf	0.123698704
201	0x3e2c1566	0.16805038
202	0x3d992ca7	0.0747922
203	0x3e8ed573	0.27897224
204	0xbdea4c31	-0.114403136
205	0x3e22d802	0.15902713
206	0xbc8e1e16	-0.01734833
207	0xbca29c45	-0.019849906
208	0x3ed8d24f	0.42347953
209	0x3d56eb7b	0.052470665
210	0xbe9e246e	-0.3088717
211	0xbe21114a	-0.15729252
212	0x3ec7987f	0.38983533
213	0x3ea5cfbb	0.32385048
214	0x3df4e5f1	0.1195792
215	0xbec721d6	-0.38893002
216	0xbe9e842d	-0.30960217
217	0xbede47d3	-0.43414173
218	0xbdebbd50	-0.11510718
219	0xbda6514a	-0.081209734
220	0xbd9b923b	-0.075962506
221	0x3e5d8e32	0.21636274
222	0x3db7cfb4	0.08975163
223	0xbe5b4b77	-0.21415506
224	0xbe299dfb	-0.16564171
225	0x3e016f98	0.12640226
226	0x3ddaecd4	0.10689703
227	0xbdc90691	-0.098157056
228	0xbe6f6d17	-0.23381458
229	0xbe4540c0	-0.19262981
230	0xbdb5fca2	-0.088860765
231	0xbc3cbc3e	-0.01151949
232	0xbe5a25ed	-0.2130353
233	0xbe60ac00	-0.21940613
234	0x3c9fbaa8	0.019498184
235	0x3d6c2a58	0.05765757
236	0x3eb006f1	0.34380296
237	0x3e65b9de	0.22434184
238	0xbe80c5e6	-0.25150985
239	0x3e8b1862	0.2716704
240	0x3e0e4499	0.13893355
241	0xbe0e8916	-0.13919482
242	0x3c88f393	0.016717708
243	0x3d512589	0.051061187
244	0xbe830339	-0.25588396
245	0xbed4416b	-0.4145616
246	0x3e423a51	0.18967558
247	0xbea8fee1	-0.33006957
248	0x3e8f4d32	0.27988583
249	0xbd844ea3	-0.06460311
250	0xbbb7f76c	-0.005614212
251	0xbe89bf5d	-0.2690381
252	0x3c43b8fa	0.011945957
253	0xbe2eac3a	-0.17057887
254	0x3e9fed3c	0.31235683
255	0x3f1b3d6f	0.60640615

bias f4 [20]
0	0xbdba7a9f	-0.09105419
1	0xbd87a42f	-0.066231124
2	0xbdda2b06	-0.10652737
3	0x3d1e5f87	0.03866532
4	0x3c4ebb15	0.012617846
5	0x3dbdd440	0.09268999
6	0x3b5d16a0	0.003373541
7	0x3da4bca5	0.080437936
8	0xbd0b38e0	-0.033989787
9	0xbc8b10b4	-0.016975738
10	0x3d0f7873	0.03502698
11	0xbbe714d6	-0.0070520444
12	0xbc837e9b	-0.016051581
13	0x3b1ad1cd	0.0023623586
14	0xbd0af34c	-0.033923432
15	0x3daf49f9	0.08559031
16	0xbd5321bd	-0.051545847
17	0xbd7cc0d2	-0.061707325
18	0x3d1e81a2	0.038697846
19	0xbc5513ae	-0.01300518

weight f4 [20, 20]
0	0x3ea5eee5	0.32408825
1	0x3d5df850	0.054191887
2	0xbd4734e7	-0.048634436
3	0xbe14d286	-0.14533433
4	0x3dd3887a	0.10328765
5	0x3be7a464	0.0070691574
6	0x3c9d39a7	0.01919253
7	0xbde2a8ad	-0.110673286
8	0x3eaca019	0.33715895
9	0x3d187e5a	0.037229873
10	0xbe1947df	-0.14968823
11	0x3e339c84	0.17540175
12	0x3e7e4b9a	0.24833527
13	0xbe3afcdd	-0.18260522
14	0x3e2f605f	0.17126606
15	0xbe15a764	-0.14614636
16	0x3e82b3b3	0.25527725
17	0xbdea8006	-0.114502
18	0xbe632203	-0.22180943
19	0xbe32f3d1	-0.17475821
20	0x3cb9b1e6	0.022667836
21	0xbe485d12	-0.19566754
22	0x3e34628f	0.17615722
23	0xbdb8e0c3	-0.09027245
24	0xbdc0c636	-0.09412806
25	0xbd44c783	-0.04804183
26	0xbd3b2ac3	-0.045695078
27	0xbe8485bc	-0.2588328
28	0x3eb70f30	0.35753775
29	0xbe49d316	-0.19709429
30	0x39199ce1	0.00014649659
31	0xbe4af1e0	-0.1981883
32	0xbe36bf18	-0.17846334
33	0x3ca1cc71	0.019750806
34	0xbea3058a	-0.31840163
35	0xbeaf901e	-0.3428964
36	0xbde92648	-0.11384255
37	0x3ead07ae	0.33794922
38	0x3def19f8	0.11674875
39	0xbcdfdf6b	-0.027328214
40	0x3ec1fcd7	0.37888214
41	0x3e3c5172	0.18390444
42	0xbe5266f7	-0.2054709
43	0x3cfa4796	0.030551713
44	0xbeea78e3	-0.45795354
45	0xbe53e18e	-0.20691511
46	0xbc36027c	-0.011108991
47	0xbd279e99	-0.040922735
48	0xbd9dc248	-0.07703072
49	0x3c8ccc42	0.017187241
50	0xbc785b7d	-0.015158531
51	0xbd4c13b1	-0.049823467
52	0x3cf1f57c	0.029536001
53	0x3ebdc8dd	0.3706731
54	0xbd541f1b	-0.051787477
55	0xbd7851dc	-0.060624942
56	0x3d5fda5a	0.054651596
57	0xbe813c25	-0.252412
58	0xbea4f937	-0.32221386
59	0xbc1205c2	-0.008912506
60	0xbda8d49a	-0.082436755
61	0x3e663045	0.22479351
62	0x3de77a85	0.113026656
63	0x3cb83991	0.022488387
64	0x3de1be5c	0.11022636
65	0xbe88844d	-0.26663437
66	0x3d0a8d00	0.033825874
67	0x3e5c58c5	0.21518238
68	0xbda80ae3	-0.082052015
69	0xbe68523c	-0.2268762
70	0xbe349e90	-0.17638612
71	0xbd9e6183	-0.07733443
72	0x3ee48079	0.44629267
73	0x3ea67a59	0.3251522
74	0x3e2ba8ee	0.1676366
75	0x3e8630be	0.26209062
76	0xbdd87279	-0.10568709
77	0x3ea6ad34	0.32554018
78	0xbabaf36b	-0.0014263218
79	0x3e79d7e5	0.24398763
80	0xbe8245ad	-0.25443783
81	0xbceb8b72	-0.028753016
82	0x3ebae136	0.36499947
83	0x3d723ccb	0.059140008
84	0xbcf81773	-0.030284619
85	0xbdf7214e	-0.12066899
86	0x3b1c2575	0.0023826037
87	0xbe8ff6f2	-0.28118092
88	0x3d889110	0.066682935
89	0xbe0559d4	-0.13022548
90	0xbe7d2440	-0.2472086
91	0x3d40bb08	0.047053367
92	0xbe739bd7	-0.23789917
93	0xbddcf950	-0.1078974
94	0xbec3f9da	-0.3827656
95	0x3e259751	0.16171004
96	0xbdff0b22	-0.12453295
97	0x3dcd4af4	0.10024062
98	0xbd2ef7c9	-0.042716775
99	0xbe29b201	-0.1657181
100	0xbed5bc50	-0.41745234
101	0x3d429447	0.04750469
102	0x3e0b4ef5	0.13604338
103	0xbc48aea2	-0.012248667
104	0x3e913753	0.28362522
105	0x3e04cdc7	0.12969123
106	0xbeeb8826	-0.4600231
107	0xbd2821b8	-0.04104778
108	0x3de2c499	0.11072654
109	0x3d111d2b	0.035428207
110	0xbe1386c8	-0.14406884
111	0xbeeac262	-0.45851427
112	0xbe8822f0	-0.26589155
113	0x3e0a6c8a	0.13517967
114	0x3ce9e1a4	0.028549977
115	0x3f14c56f	0.5811376
116	0xbe02fbe3	-0.127914
117	0xbd8cd655	-0.06876818
118	0xbe7acffe	-0.24493405
119	0xbeae232a	-0.34011203
120	0x3e575b1b	0.21030848
121	0xbc59932e	-0.013279719
122	0x3d7ec78c	0.06220202
123	0x3c623554	0.01380666
124	0xbe980c40	-0.29696846
125	0x3e3c2d3d	0.18376632
126	0xbe33247a	-0.17494383
127	0x3e505829	0.2034613
128	0x3e049643	0.12947945
129	0x3e045386	0.12922487
130	0xbe6b037c	-0.22950548
131	0xbcec1636	-0.028819185
132	0xbd074445	-0.03302409
133	0x3d962ef6	0.07333176
134	0x3e2f3283	0.17109112
135	0xbd73b823	-0.05950178
136	0x3dd1f6e8	0.10252172
137	0x3e2deaf7	0.16984163
138	0xbd0c794b	-0.03429536
139	0x3e1c9998	0.15292966
140	0xbe527fdd	-0.20556588
141	0xbd5e74de	-0.054310672
142	0x3e08c47d	0.13356204
143	0xbd9f055e	-0.077646956
144	0x3daf570d	0.085615255
145	0xbe2df76b	-0.16988914
146	0x3d9c6944	0.07637265
147	0xbcd176c4	-0.025569327
148	0xbd19d762	-0.03755892
149	0x3d9e90e2	0.07742478
150	0xbd9af70f	-0.07566654
151	0xbdb21e0d	-0.08697138
152	0x3e88d131	0.267221
153	0xbd084cc8	-0.03327635
154	0xbe36170a	-0.17782226
155	0xbe0f9dde	-0.14025065
156	0xbe9d8933	-0.30768737
157	0xbc34e8d7	-0.0110418415
158	0x3cbda8f5	0.023151854
159	0x3dbbf6bc	0.0917792
160	0xbe836e21	-0.2566996
161	0xbe7ee682	-0.24892619
162	0xbd77b261	-0.06047285
163	0x3e4ac712	0.19802502
164	0xbdb52cd4	-0.08846441
165	0xbe9ce4a4	-0.3064319
166	0xbcf17026	-0.029472422
167	0xbe9fb7dc	-0.3119496
168	0xbe038775	-0.12844642
169	0x3e6c4dfd	0.23076625
170	0x3e25d9d9	0.16196384
171	0xbe7024f0	-0.2345159
172	0xbdaaeb1e	-0.08345626
173	0x3e9b2ede	0.30309194
174	0x3d42c672	0.047552533
175	0x3d6a9779	0.05727336
176	0xbe20952f	-0.15681909
177	0xbe59b369	-0.21259846
178	0xbc3b46c9	-0.011430451
179	0x3d7f40a1	0.062317494
180	0x3da9b3d0	0.0828625
181	0x3e34625f	0.1761565
182	0x3e4e74e6	0.2016178
183	0xbe8fa11f	-0.28052613
184	0xbe88c553	-0.26713046
185	0xbe1f1d6b	-0.15538566
186	0xbdbbf733	-0.09178009
187	0x3dbe036f	0.09277999
188	0xbe26f119	-0.16302909
189	0xbdf6aeaf	-0.12045037
190	0xbd1a2d7e	-0.03764104
191	0x3bc19204	0.005907299
192	0xbeb8f238	-0.36122298
193	0x3ece268a	0.40263778
194	0xbe588d85	-0.21147735
195	0xbddf0338	-0.10889286
196	0xbde57408	-0.11203772
197	0x3e93695f	0.2879133
198	0xbcf121d2	-0.029435072
199	0x3d8eec1a	0.069786265
200	0xbd6db554	-0.058034256
201	0xbe358e21	-0.17729999
202	0x3ecdee32	0.4022079
203	0x3eaf28ee	0.34210914
204	0xbdb6fd8e	-0.089350805
205	0x3eb8b75a	0.36077386
206	0xbe345c6b	-0.1761338
207	0xbea68bcf	-0.3252854
208	0x3e436256	0.19080481
209	0xbebb6518	-0.36600566
210	0x3e98e7a6	0.29864234
211	0xbb169946	-0.0022979542
212	0xbed6bce1	-0.41940978
213	0xbe48f70a	-0.19625488
214	0xbebe9d52	-0.372294
215	0x3e075f25	0.13219889
216	0x3e4f708b	0.20257775
217	0xbdbc19b1	-0.09184588
218	0x3e8a9c86	0.27072543
219	0xbe6fa2f4	-0.23402005
220	0xbeeadc5b	-0.45871243
221	0xbdc57d98	-0.09643096
222	0xbd952088	-0.072815955
223	0x3e32a870	0.17447066
224	0xbeaec551	-0.34134915
225	0x3d2ff636	0.042959414
226	0xbdfdac1f	-0.12386345
227	0x3f21594e	0.63026893
228	0xbe0f46e6	-0.1399189
229	0xbe5dd00e	-0.21661398
230	0xbc079b31	-0.008276747
231	0x3dc3171d	0.09525893
232	0x3ea11100	0.31458282
233	0x3e5597d4	0.20858699
234	0x3d956398	0.072943866
235	0xbd37875a	-0.044806816
236	0x3da45f92	0.08026041
237	0xbdbe21fc	-0.09283826
238	0xbdc1bfd6	-0.09460418
239	0xbd9a236d	-0.07526288
240	0xbe4b2ec9	-0.19842066
241	0xbddac6ec	-0.106824726
242	0xbe02745b	-0.12739699
243	0xbdb30572	-0.08741273
244	0xbe65eb68	-0.22453082
245	0x3eaf5bb7	0.3424966
246	0xbe37664a	-0.17910114
247	0xbe20245d	-0.15638871
248	0x3d7326b2	0.059363075
249	0xbdb9212a	-0.09039529
250	0x3db0b2f6	0.08627884
251	0xbda5647b	-0.08075806
252	0xbe626025	-0.22106989
253	0x3e9b91ff	0.30384824
254	0xbeaeecba	-0.34164983
255	0x3e38e047	0.18054305

bias f4 [20]
0	0x3cf082c9	0.029359238
1	0xbc7f05ad	-0.015565318
2	0xbd9d6466	-0.07685165
3	0x3d3c3402	0.045948036
4	0xbb282a91	-0.0025660137
5	0xbd342365	-0.043979067
6	0xbd9ded01	-0.077112205
7	0xbd95bbaf	-0.073111884
8	0x3d87c68e	0.06629668
9	0x3be0aab4	0.006856287
10	0x3b39614d	0.0028286756
11	0x3d9ae989	0.075640745
12	0x3d174cf9	0.03693864
13	0x3cdfc324	0.02731473
14	0x3d6f40a3	0.05841125
15	0x3d0976ea	0.03356067
16	0x3d8f022a	0.06982835
17	0x3ce2d13a	0.027687658
18	0xbc058290	-0.008148804
19	0x3da4df01	0.08050347

weight f4 [20, 20]
0	0x3e3eae7d	0.1862125
1	0x3d4a4492	0.0493818
2	0x3da13941	0.078722484
3	0x3e9c93e8	0.30581594
4	0xbe7b4783	-0.24538998
5	0xbdd781e8	-0.105228245
6	0x3e3a20d9	0.18176593
7	0x3b8f420e	0.004371888
8	0xbd48721f	-0.04893696
9	0x3db015d3	0.08597913
10	0xbdaaf206	-0.083469436
11	0x3e7fd038	0.24981773
12	0x3e64d6f9	0.2234763
13	0x3e1c2ee4	0.15252262
14	0xbe85cd3d	-0.26133147
15	0x3e4c49d5	0.1995004
16	0x3e0825e7	0.13295709
17	0x3e95e084	0.29272854
18	0xbd9b46e2	-0.07581879
19	0xbf0c056c	-0.54695773
20	0x3df3494d	0.118792154
21	0x3e1a8e67	0.15093385
22	0xbe3b0c8b	-0.18266504
23	0xbde1ec68	-0.11031419
24	0xbd376340	-0.044772387
25	0x3da0772d	0.07835231
26	0xbd8fea70	-0.07027137
27	0x3e4d0f21	0.20025302
28	0x3e366231	0.17810895
29	0x3d8fcf4f	0.07021963
30	0xbe6c2667	-0.23061524
31	0xbe183b05	-0.14866264
32	0x3e7347c3	0.23757844
33	0x3d8e28e9	0.06941397
34	0xbdfde352	-0.123968735
35	0xbe592e4b	-0.21209066
36	0x3e7814f8	0.24226749
37	0xbe4d1bef	-0.20030187
38	0xbe6a13ae	-0.2285907
39	0x3dec3629	0.11533768
40	0xbeb515f4	-0.3536831
41	0xbc37450e	-0.0111858975
42	0xbe43a363	-0.19105296
43	0xbe91d279	-0.2848089
44	0xbe60fe24	-0.21971947
45	0x3d1e9e0e	0.03872495
46	0x3d0b5b4d	0.034022618
47	0xbeb5046d	-0.3535494
48	0xbe250789	-0.16116156
49	0x3db0031f	0.08594345
50	0x3cb09774	0.021556593
51	0xbec97f87	-0.39355108
52	0xbe438896	-0.19095072
53	0xbdd2b2ac	-0.10287985
54	0x3ee29624	0.44255173
55	0x3e5dc482	0.21656993
56	0x3dc4b9f7	0.096057825
57	0xbe3238d7	-0.17404495
58	0x3e5e952a	0.21736589
59	0x3eaf1e76	0.34202927
60	0xbe94b095	-0.2904097
61	0x3da87c2c	0.08226809
62	0xbe70a8b3	-0.23501854
63	0xbe6f835a	-0.2338995
64	0xbd5e280b	-0.054237407
65	0x3cf3d631	0.02976522
66	0xbe538c76	-0.2065905
67	0xbe461ec3	-0.19347672
68	0xbe252548	-0.16127503
69	0x3e98530e	0.29750866
70	0x3e16de79	0.14733304
71	0x3de8a841	0.11360217
72	0x3cc4d1f6	0.024025898
73	0x3e34f337	0.17670904
74	0x3eaa0545	0.33207145
75	0x3e613bae	0.21995422
76	0xbebb096c	-0.36530626
77	0x3d3af0aa	0.04563967
78	0x3d18ab08	0.037272483
79	0xbddce148	-0.107851565
80	0xbe15da8a	-0.14634147
81	0xbe74f3a6	-0.2392107
82	0xbe1ab647	-0.15108596
83	0xbe16a6cf	-0.1471207
84	0xbee6fcc5	-0.45114723
85	0xbe29a263	-0.16565852
86	0xbe6faa62	-0.2340484
87	0xbe7d8065	-0.2475601
88	0x3db21dfd	0.08697126
89	0xbe9c1ae3	-0.30489263
90	0x3ebc3869	0.36761788
91	0xbd17770f	-0.036978777
92	0xbe92c3db	-0.2866505
93	0xbdbd1bc4	-0.092338115
94	0xbd4eb53c	-0.050465807
95	0xbe2ba917	-0.16763721
96	0xbcd5b740	-0.026088357
97	0xbd8004a0	-0.06250882
98	0xbc3c9020	-0.011508971
99	0xbe4c4884	-0.19949538
100	0xbe0cfffe	-0.13769528
101	0xbce3636b	-0.027757367
102	0xbf035864	-0.5130675
103	0x3e60058f	0.2187712
104	0xbf181bc5	-0.5941737
105	0xbe8574e2	-0.26065737
106	0x3c98115e	0.018562969
107	0xbe584624	-0.21120507
108	0x3e9060c8	0.28198838
109	0xbdcc43c3	-0.09973862
110	0xbdee88b6	-0.11647169
111	0x3ebc87ee	0.36822456
112	0xbe8d3a01	-0.27583316
113	0xbe810b90	-0.25204134
114	0xbdb7c4ff	-0.08973121
115	0x3e89f518	0.26944804
116	0x3eac1e7d	0.3361701
117	0x3c01cb08	0.007921942
118	0xbe3f7a35	-0.18698962
119	0x3ed8c10d	0.42334786
120	0xbe16ee0c	-0.14739245
121	0xbc04c0af	-0.00810258
122	0xbda76f0b	-0.08175477
123	0x3e226286	0.15857896
124	0x3e692bec	0.22770661
125	0xbdda01a4	-0.10644844
126	0x3e1f2afb	0.1554374
127	0xbe53352c	-0.20625752
128	0x3e5b7947	0.21432982
129	0xbc995cb3	-0.01872096
130	0x3e10a9c0	0.14127254
131	0xbdb72b92	-0.08943857
132	0xbe1f3345	-0.15546902
133	0xbd248145	-0.040162344
134	0x3ea4c61d	0.32182398
135	0xbf060b77	-0.52361244
136	0xbdbba65f	-0.09162592
137	0xbe8e8cf3	-0.2784191
138	0xbae69413	-0.0017591737
139	0xbe9f9803	-0.31170663
140	0x3e32d48c	0.17463893
141	0xbd8b1ef1	-0.06793011
142	0xbd996a88	-0.07491022
143	0x3d926a1c	0.07149145
144	0x3e65d3c2	0.2244406
145	0xbc7afb1d	-0.015318659
146	0xbda703cb	-0.0815502
147	0xbe4649be	-0.19364068
148	0x3e208a6b	0.15677802
149	0xbd74829b	-0.059694868
150	0x3de669cf	0.1125065
151	0xbe217dff	-0.1577072
152	0x3e18e08d	0.1492941
153	0xbd5e44c2	-0.05426479
154	0x3e01d0f6	0.12677369
155	0xbd2ccf32	-0.042189784
156	0xbe39f688	-0.1816045
157	0x3e595b05	0.21226127
158	0xbe8eb727	-0.2787411
159	0x3e6f2ff5	0.23358138
160	0xbe4a9d29	-0.19786514
161	0xbe94a7c9	-0.2903426
162	0x3da529aa	0.080645874
163	0x3e69beb2	0.2282665
164	0x3e3d255a	0.1847128
165	0x3e30ff8a	0.1728498
166	0x3d42d65b	0.047567707
167	0x3eba621c	0.36402977
168	0x3f18ebe5	0.59734946
169	0x3dd69eff	0.10479545
170	0xbe5393d3	-0.20661859
171	0xbdb54925	-0.08851842
172	0x3d9ae0e8	0.07562429
173	0xbdeaf590	-0.114726186
174	0xbdab2e4a	-0.08358438
175	0x3e65d69b	0.22445147
176	0x3e6e443b	0.23268215
177	0xbec96711	-0.39336446
178	0x3dfe09db	0.124042235
179	0xbdd044db	-0.10169383
180	0xbe65365a	-0.22384015
181	0xbea10435	-0.31448522
182	0xbd587eb8	-0.052855223
183	0x3e8da5c9	0.27665547
184	0x3dd873bd	0.1056895
185	0x3dd10e2d	0.10207782
186	0xbcbb2648	-0.022845402
187	0xbe4680f2	-0.19385126
188	0x3ced42ff	0.02896261
189	0xbdb55a77	-0.088551454
190	0x3dfff9f8	0.1249885
191	0xbe07a144	-0.13245112
192	0xbe85a552	-0.26102692
193	0xbe029571	-0.1275232
194	0xbe179161	-0.14801551
195	0xbef5bb0e	-0.47994274
196	0x3cf24f7a	0.029578913
197	0xbed993ac	-0.42495477
198	0xbe04ee5a	-0.12981549
199	0x3e364292	0.17798832
200	0x3ea92d6b	0.33042464
201	0x3e7b46f2	0.24538782
202	0x3e874e4e	0.2642693
203	0x3c8d292e	0.01723155
204	0xbd93c0b1	-0.07214487
205	0xbdbd5026	-0.09243803
206	0x3e8a4ac5	0.2701017
207	0xbd66a92c	-0.05631368
208	0xbe016f5b	-0.12640135
209	0x3e914ccc	0.28378904
210	0xbbbb3e13	-0.005714187
211	0xbea0b78f	-0.31390044
212	0xbe9f8853	-0.31158695
213	0x3db37f07	0.08764463
214	0xbdb84bf1	-0.0899886
215	0x3e831512	0.25602013
216	0xbd28d20b	-0.041215938
217	0xbe0860b1	-0.13318135
218	0xbb7e4734	-0.0038799765
219	0xbe8cb56f	-0.27482173
220	0x3e1b006d	0.15136881
221	0x3e2da80d	0.16958638
222	0x3e84d86b	0.25946364
223	0x3da79595	0.081828274
224	0xbe66aeb7	-0.22527586
225	0x3ea38c73	0.31943092
226	0x3c23a140	0.009987175
227	0xbe839804	-0.25701916
228	0x3e2a561f	0.16634415
229	0xbe582936	-0.2110947
230	0x3ec13466	0.3773529
231	0x3e5b78b9	0.21432771
232	0x3e36e8cf	0.17862247
233	0xbe93d127	-0.28870508
234	0xbed2eb3c	-0.41195095
235	0x3e869811	0.26287892
236	0x3e91e58d	0.28495446
237	0xbe87de2e	-0.26536697
238	0x3f0192b8	0.506145
239	0xbc6ed7e8	-0.014577843
240	0x3e5375eb	0.20650451
241	0xbce48309	-0.027894514
242	0x3eaa9763	0.33318624
243	0xbdb092a8	-0.086217225
244	0xbe1cba50	-0.15305448
245	0x3d8863f8	0.066596925
246	0xbe8a6f25	-0.27037922
247	0xbea873c2	-0.32900816
248	0x3de25561	0.11051441
249	0x3eac1f31	0.33617547
250	0xbdfdb4b4	-0.12387982
251	0xbe80b65b	-0.25139126
252	0x3d84a9e6	0.06477718
253	0x3e94ebb9	0.29086092
254	0x3ea1a1b5	0.31568685
255	0x3dda9d4c	0.10674533

bias f4 [20]
0	0x3cdd16fa	0.026988495
1	0x3bdab7a7	0.006674725
2	0xbc328fb7	-0.010898522
3	0x37ff480d	3.043192e-05
4	0xbb831d5b	-0.004001302
5	0x3ccd0078	0.025024638
6	0xbc18ad7e	-0.0093187075
7	0x3d95155a	0.07279463
8	0x3d261d65	0.040555377
9	0x3cf2f146	0.029656064
10	0xbc9522c9	-0.018205063
11	0x3cf34503	0.029695993
12	0xbc4156b6	-0.011800459
13	0xbbac86eb	-0.005265107
14	0x3d67eefe	0.056624405
15	0xbd1f3a6c	-0.038874075
16	0xbd9e2b83	-0.07723143
17	0xbca98956	-0.02069537
18	0x3d975978	0.07390112
19	0x3d5b7bde	0.053584926

weight f4 [20, 20]
0	0xbcec001a	-0.028808642
1	0x3cc4d3c8	0.024026766
2	0xbea2b542	-0.31778914
3	0xbded710b	-0.11593827
4	0xbd902d7e	-0.07039927
5	0x3cd2cffe	0.025733944
6	0x3e85da0c	0.2614292
7	0xbdfebf13	-0.12438788
8	0x3eb72712	0.35771996
9	0x3e631fa9	0.22180046
10	0x3dcd11f7	0.10013192
11	0xbd16dfdd	-0.036834586
12	0x3d924e17	0.07143801
13	0x3d3b0c0c	0.045665786
14	0xbe41b6ee	-0.18917438
15	0x3e987f55	0.29784647
16	0xbebc025a	-0.36720544
17	0x3ec26333	0.37966308
18	0xbd9e29a8	-0.07722789
19	0xbd6af367	-0.057361033
20	0x3e33902c	0.17535466
21	0x3f027968	0.509665
22	0x3df14a17	0.1178171
23	0x3e2efb21	0.17087986
24	0xbe85a259	-0.26100424
25	0x3d967460	0.073464155
26	0xbe8bc593	-0.27299175
27	0xbe5d75e2	-0.21627
28	0x3e7e3603	0.24825291
29	0x3dd6bfff	0.10485839
30	0x3e3cd5b2	0.18440893
31	0xbe4e1a1c	-0.20127147
32	0xbe6eadce	-0.23308489
33	0xbdcec03b	-0.10095259
34	0xbd5836a9	-0.052786503
35	0x3e16e549	0.14735903
36	0x3eb6e9f4	0.35725367
37	0x3d9a88f2	0.075456515
38	0x3dde2b17	0.108480625
39	0x3cd7cf94	0.026344098
40	0xbebee444	-0.37283528
41	0xbdd531f1	-0.10409916
42	0x3ee16cf5	0.4402844
43	0x3e34bd36	0.17650303
44	0x3d679b93	0.05654485
45	0xbd69c330	-0.05707091
46	0xbdf3fe35	-0.119137205
47	0x3e4ba783	0.1988812
48	0x3dc07e43	0.093990825
49	0x3dd88e8e	0.10574065
50	0x3cf6787f	0.030086754
51	0x3d928f01	0.07156182
52	0xbecdb5e8	-0.40177846
53	0x3d5a86f0	0.053351343
54	0x3ea4f059	0.3221462
55	0x3ede502b	0.43420538
56	0x3d8b6116	0.06805627
57	0x3dc61e5e	0.09673761
58	0xbe94365d	-0.28947726
59	0x3dfc4921	0.12318636
60	0x3e2bbb89	0.16770758
61	0x3dd7c12f	0.10534894
62	0x3e4d32f3	0.20038967
63	0xbec55c95	-0.38547197
64	0xbd438d06	-0.047741912
65	0xbe5da6e6	-0.21645698
66	0xbebf1193	-0.37318096
67	0xbd4188fd	-0.047249783
68	0xbd0436dd	-0.032278884
69	0x3e9d560f	0.3072972
70	0xbe47c122	-0.19507268
71	0x3e75bc79	0.23997678
72	0xbe01d159	-0.12677516
73	0x3e243ad1	0.16038062
74	0x3d729d2c	0.059231922
75	0x3d304ed9	0.043043945
76	0x3e8d2d67	0.27573702
77	0xbd332543	-0.043736707
78	0xbde88a19	-0.11354465
79	0xbed31e28	-0.41233945
80	0x3e199994	0.14999992
81	0xbc0ca55d	-0.008584348
82	0x3e5d31a1	0.21600963
83	0x3e3905af	0.18068574
84	0x3f478877	0.77942604
85	0x3cbb40be	0.02285802
86	0x3e999d74	0.3000294
87	0x3e2079a5	0.15671404
88	0x3e29f939	0.16598977
89	0x3dfba7c2	0.12287857
90	0xbe8e2a39	-0.27766588
91	0x3e316004	0.17321783
92	0xbe7fc6e8	-0.2497822
93	0x3dbe2a6c	0.09285435
94	0x3e0a9478	0.13533199
95	0xbeec5bc2	-0.46163756
96	0xbe41c034	-0.18920976
97	0x3cb8f74b	0.022578856
98	0x3e261674	0.16219503
99	0x3e7b219e	0.24524543
100	0x3e232010	0.159302
101	0xbe49b865	-0.19699247
102	0xbe410c7c	-0.18852419
103	0xbe58e583	-0.21181302
104	0xbec5e652	-0.38652283
105	0x3e5e284d	0.21695061
106	0x3e951527	0.291177
107	0x3f1b07b6	0.6055864
108	0xbe7c2ae2	-0.24625733
109	0xbe858e8b	-0.26085314
110	0x3eaaf49a	0.3338974
111	0x3e46d874	0.19418508
112	0xbebdac97	-0.37045738
113	0x3e8d4638	0.27592635
114	0xbd33fd79	-0.043942902
115	0x3e058428	0.13038695
116	0xbde705f2	-0.11280431
117	0xbd9e0bed	-0.077171184
118	0xbccf7897	-0.025326056
119	0x3e9751e0	0.29554653
120	0xbed07697	-0.40715477
121	0x3dfeb7ff	0.12437438
122	0xbe0827a4	-0.13296372
123	0xbe3d22fa	-0.18470374
124	0x3cad36f8	0.021144375
125	0x3e8a8afc	0.27059162
126	0xbe30eac5	-0.17277057
127	0xbe1d03fe	-0.15333554
128	0xbd06f6f9	-0.032950375
129	0xbefa9607	-0.48942587
130	0x3e03bf16	0.12865862
131	0xbe0d36dd	-0.1379046
132	0x3ca3af09	0.019980924
133	0xbe61616f	-0.22009824
134	0xbdf4e6f9	-0.11958117
135	0xbe7d573f	-0.24740313
136	0xbe841ceb	-0.25803313
137	0xbd804857	-0.06263798
138	0x3e85c0e7	0.26123735
139	0xbdaf1f2d	-0.08550868
140	0x3edcd309	0.43129757
141	0xbeb6b5ad	-0.35685483
142	0x3c4e5597	0.012593648
143	0x3e346c4d	0.17619438
144	0xbe7f3edd	-0.24926324
145	0x3e0f3210	0.13983941
146	0x3d05989c	0.032616243
147	0xbe2c73b1	-0.16841008
148	0xbe2bf322	-0.16791967
149	0xbe0d14d5	-0.13777478
150	0xbc8e62bf	-0.01738107
151	0xbe318176	-0.17334542
152	0xbd9b2896	-0.075761005
153	0x3e74adee	0.23894474
154	0xbd275367	-0.040851023
155	0x3e2d297f	0.16910361
156	0x3d9c4258	0.076298416
157	0x3e006346	0.1253787
158	0xbdf34484	-0.11878303
159	0xbe118eae	-0.14214584
160	0xbdfcdb67	-0.12346535
161	0xbd9cf4f2	-0.07663907
162	0xbcbf2828	-0.023334578
163	0x3d6f8938	0.05848047
164	0xbd8b3115	-0.06796471
165	0xbda2ed3a	-0.079554036
166	0x3e792a01	0.2433243
167	0xbd2dc069	-0.042419825
168	0x3d976b8f	0.07393562
169	0x3e40345e	0.18769976
170	0xbd9867ee	-0.07441698
171	0x3dcb23f3	0.09918966
172	0xbb4857f4	-0.0030570002
173	0x3e3b83da	0.18312016
174	0x3d71e4ec	0.059056208
175	0xbee2f91e	-0.44330686
176	0xbe0f76bf	-0.14010142
177	0x3cbf1cfd	0.023329252
178	0xbe1174cf	-0.14204715
179	0xbea72fa1	-0.32653525
180	0x3e6cf146	0.23138914
181	0x3ea99bfc	0.3312682
182	0xbe946aa2	-0.28987604
183	0xbebd8967	-0.37018892
184	0x3df12088	0.11773783
185	0x3e37b011	0.17938258
186	0x3e556893	0.20840673
187	0x3e9be96b	0.3045152
188	0xbe2c1b5b	-0.1680731
189	0xbe372285	-0.17884262
190	0xbe677173	-0.22601871
191	0xbbaba4e4	-0.0052381624
192	0x3e281f19	0.16418113
193	0xbd61e150	-0.055146515
194	0x3e72dc65	0.23716886
195	0x3e92c578	0.28666282
196	0x3de00ccf	0.10939943
197	0x3d6ea956	0.05826696
198	0x3e0bd297	0.13654552
199	0xbe059dc9	-0.13048472
200	0x3dc83c34	0.09777108
201	0xbe97e2d2	-0.29665238
202	0xbe201c9e	-0.15635917
203	0xbdd7b3b4	-0.105323225
204	0x3e70ec0d	0.23527546
205	0xbe965a8f	-0.29365966
206	0xbc9fa91b	-0.019489815
207	0x3e017dc0	0.12645626
208	0x3e4068c3	0.18789963
209	0x3cad87d5	0.021182934
210	0xbe1a9c8e	-0.15098783
211	0xbeb4a71f	-0.35283753
212	0x3e19266f	0.14956068
213	0xbe775700	-0.24154282
214	0x3e5a2240	0.21302128
215	0x3c41d225	0.0118298875
216	0x3cab713b	0.020928016
217	0xbe76c983	-0.24100308
218	0x3ed17167	0.40906832
219	0x3dcff4d6	0.101541206
220	0x3dbf7b9c	0.093497485
221	0xbe0905ec	-0.13381165
222	0x3ea07d13	0.31345424
223	0xbde0a0b6	-0.10968153
224	0x3e071166	0.1319023
225	0xbd6f685a	-0.058449127
226	0xbdc60100	-0.096681595
227	0xbd6ae0a1	-0.05734313
228	0x3e5f431c	0.21802944
229	0x3d508ed2	0.050917454
230	0x3e90a5fd	0.2825164
231	0x3c867fa6	0.01641829
232	0x3dbc1610	0.091838956
233	0xbe3ded14	-0.1854747
234	0xbd6a801e	-0.05725109
235	0xbe6060cc	-0.21911925
236	0xbe247561	-0.16060401
237	0x3bc46268	0.0059931763
238	0x3e85b538	0.2611482
239	0x3ddcc75b	0.107802115
240	0xbe55adc5	-0.20867069
241	0x3da17361	0.07883335
242	0x3e8138a9	0.2523854
243	0x3de09989	0.109667845
244	0x3e4c0d9c	0.19927067
245	0x3e01f419	0.12690772
246	0x3e3936a1	0.18087246
247	0x3cf9bf68	0.030486777
248	0xbef4c302	-0.4780503
249	0xbeecb351	-0.46230558
250	0x3c9e5059	0.019325422
251	0xbdf698ca	-0.12040861
252	0x3e6c134b	0.23054235
253	0xbe5ca183	-0.21545987
254	0xbc3cc149	-0.011520692
255	0x3c1f8029	0.009735146

bias f4 [20]
0	0x3c63cd15	0.013903876
1	0xbc99a1b8	-0.018753871
2	0xbc81e7ed	-0.015857661
3	0xbd34fb35	-0.044184882
4	0x3d3506af	0.044195827
5	0x3ce50848	0.02795805
6	0x3beda922	0.007252828
7	0xbce33bdf	-0.02773851
8	0x3c228f1b	0.009921814
9	0x3b923917	0.004462372
10	0x3cd1bc3c	0.025602452
11	0x3d4c6fc0	0.04991126
12	0xbd7f68f8	-0.062355965
13	0xbd5cb064	-0.053879157
14	0xbd17b299	-0.03703556
15	0x3d9ef3c0	0.077613354
16	0x3b51b3e6	0.0031998097
17	0xbcb44664	-0.022006221
18	0x3d02c36f	0.03192466
19	0xbba0f40b	-0.0049119047
