Models/Noise_0/simulation_stop/weak_ff_200.pt (torch, 39135 bytes, 23 tensors)

weight f4 [20, 2]
0	0x3e7cf91d	0.24704404
1	0x3e87a932	0.26496273
2	0xbf195e45	-0.5990947
3	0x3e57bc27	0.21067868
4	0xbe860f4a	-0.2618354
5	0xbf666d93	-0.90010947
6	0x3ec378e5	0.38178173
7	0x4027eb68	2.623743
8	0xbe0060d5	-0.12536938
9	0xbef0c8ae	-0.47028106
10	0x3cd9c3db	0.026582649
11	0xbf0f9164	-0.56081223
12	0xbe38eae7	-0.18058358
13	0xbf4c29b0	-0.7975111
14	0x3f3e9668	0.7444825
15	0xbf171809	-0.5902105
16	0xbc1681a6	-0.009186184
17	0x3f8651d6	1.0493724
18	0xbe52eb05	-0.20597465
19	0xbedd8723	-0.43267164
20	0x3e00ce82	0.12578776
21	0x3eacb7e6	0.33734053
22	0xbdecf96f	-0.11571013
23	0xbd5bed29	-0.05369297
24	0xbda13660	-0.07871699
25	0xbf74c452	-0.9561206
26	0xbddd3171	-0.10800446
27	0x3c75086e	0.014955623
28	0xbe0a58b9	-0.13510408
29	0xbd4eb2e0	-0.050463557
30	0x3f378c38	0.7169833
31	0x3f161293	0.5862209
32	0x3e4f5d36	0.20250401
33	0xbfabda1b	-1.3425936
34	0xbf08e118	-0.53468466
35	0xbf16081b	-0.5860612
36	0xbbba80e0	-0.0056916326
37	0xbe50609c	-0.20349354
38	0xbd2ccf94	-0.04219015
39	0xbeca131e	-0.3946771

bias f4 [20]
0	0xbf5117c1	-0.8167687
1	0xbe7d94a8	-0.24763739
2	0x3dd4899e	0.10377811
3	0x3f7494e4	0.9553969
4	0xbe03900d	-0.1284792
5	0x3ed4ddf6	0.41575593
6	0x3e6b0ccc	0.229541
7	0x3f2405a3	0.640711
8	0xbeb47063	-0.35241994
9	0x3de4633a	0.111517385
10	0x3e11643b	0.14198391
11	0x3d4aa1bd	0.049470652
12	0xbe7a07e9	-0.2441708
13	0xbe5a5860	-0.21322775
14	0xbefb4bfa	-0.49081403
15	0x3e92a68a	0.28642684
16	0xbeb08f71	-0.34484437
17	0xbeffe6a9	-0.49980667
18	0xbb0b9e54	-0.0021304088
19	0xbda48d43	-0.08034756

weight f4 [20, 20]
0	0x3dc38803	0.095474266
1	0x3e78cad1	0.24296118
2	0xbe6cc537	-0.23122106
3	0x3d315431	0.04329318
4	0x3d692bf5	0.056926686
5	0x3b7302d9	0.0037080555
6	0x3e6323ba	0.22181597
7	0xbdc2d39c	-0.095130175
8	0x3edb6083	0.4284707
9	0x3eb65407	0.35610983
10	0x3e91698e	0.28400844
11	0x3dd4eb9e	0.10396503
12	0x3e62a4c9	0.22133173
13	0x3db94a2b	0.090473495
14	0x3f06f5eb	0.5271899
15	0xbe9113b6	-0.2833535
16	0xbea83d45	-0.32859245
17	0xbee32466	-0.44363707
18	0xbd88e07b	-0.06683441
19	0x3d5f030c	0.054446265
20	0x3e88bff8	0.2670896
21	0x3dfd65c5	0.123729266
22	0xbe241ac3	-0.16025834
23	0x3eb51288	0.353657
24	0xbe7c7c5f	-0.24656819
25	0xbede6223	-0.43434247
26	0xbeeea34e	-0.46608967
27	0xbe9a5e95	-0.30150285
28	0x3ea10cbc	0.31455028
29	0xbdbe4048	-0.092896044
30	0x3bcabf46	0.0061873524
31	0x3c95814d	0.018250132
32	0xbe6cccd4	-0.2312501
33	0x3bfe3808	0.0077581443
34	0xbeb372e6	-0.35048598
35	0x3e7ebf55	0.24877675
36	0xbcf27702	-0.029597763
37	0xbc868c1b	-0.01642423
38	0x3d027030	0.03184527
39	0xbb9336d9	-0.0044926223
40	0x3e83ae1e	0.25718778
41	0x3da0a7cf	0.07844507
42	0xbe141fcf	-0.14465259
43	0xbf2b8ce9	-0.67011887
44	0x3f261030	0.6486845
45	0x3c768a1c	0.015047576
46	0xbc95ce8a	-0.018286962
47	0x3eaf51b9	0.34242037
48	0x3daa071c	0.08302137
49	0xbe72388c	-0.23654383
50	0xbe5c4a77	-0.21512781
51	0x3e28109b	0.16412584
52	0xbe806281	-0.25075153
53	0xbd042375	-0.032260377
54	0x3cfd6f71	0.030936928
55	0xbb8e03e4	-0.00433396
56	0x3e4b00bd	0.198245
57	0xbd35200f	-0.044220027
58	0x3d80348d	0.06260023
59	0xbeeb3528	-0.45938993
60	0x3e79a224	0.24378258
61	0x3dd6a3aa	0.10480435
62	0xbe5f192b	-0.21786945
63	0x3ebec05b	0.3725613
64	0x3dc002e3	0.093755506
65	0x3df97fac	0.121825546
66	0xbe912822	-0.2835093
67	0x3d85510a	0.065095976
68	0xbdbdb800	-0.09263611
69	0x3e1c0589	0.15236486
70	0x3dd91cf4	0.106012255
71	0x3e436753	0.19082384
72	0x3ea997f0	0.33123732
73	0x3d87837e	0.06616877
74	0x3c807edb	0.01568549
75	0xbd668d2f	-0.056286987
76	0xbedd8fc9	-0.43273762
77	0x3dbe37a6	0.09287958
78	0x3e4b20ce	0.19836733
79	0x3e6a43b9	0.22877397
80	0x3ed73f5d	0.4204053
81	0xbe0a57bf	-0.13510035
82	0x3e3ff671	0.18746354
83	0xbe19442a	-0.14967409
84	0xbe13cd7d	-0.14433856
85	0xbe1afaec	-0.15134782
86	0x3d23d067	0.03999367
87	0x3f29b587	0.66292614
88	0xbe721e86	-0.23644456
89	0xbe115bdc	-0.14195198
90	0x3e1c401d	0.15258832
91	0xbdf33517	-0.118753605
92	0xbbeb4f4c	-0.007181084
93	0xbe0421f1	-0.12903573
94	0xbd13f8f2	-0.036126085
95	0x3eac371e	0.336358
96	0xbe0438fa	-0.1291236
97	0x3e8ce120	0.27515507
98	0xbd1199d6	-0.0355471
99	0x3e9cb484	0.30606472
100	0xbd90b364	-0.07065466
101	0x3e0ac6d1	0.13552405
102	0x3eaf8a4b	0.34285197
103	0xbee9b522	-0.45646006
104	0x3e7f56f1	0.2493551
105	0x3e634bca	0.2219688
106	0xbe3532a8	-0.17695105
107	0xbdbab203	-0.09115984
108	0xbd8535ea	-0.06504424
109	0xbe49a61a	-0.19692269
110	0x3d81b908	0.0633412
111	0xbe07a55a	-0.1324667
112	0xbe3e5b75	-0.18589576
113	0xbe310168	-0.17285693
114	0x3f2484eb	0.64265317
115	0xbaa617fd	-0.0012671944
116	0xbe5ca48a	-0.21547142
117	0x3de79d79	0.113093324
118	0x3e371461	0.17878868
119	0x3e8c981c	0.274598
120	0xbed9e218	-0.42555308
121	0xbdbcb8fa	-0.09214969
122	0xbd160a2b	-0.03663079
123	0x3d16d135	0.03682061
124	0xbe071b44	-0.13193995
125	0xbef60d3d	-0.48056975
126	0x3e377bf5	0.1791838
127	0x3df14e78	0.11782545
128	0x3e7ab9a3	0.24484877
129	0xbe976853	-0.2957178
130	0x3e3c024b	0.1836025
131	0xbe1e8f0e	-0.15484259
132	0x3beb81fd	0.0071871267
133	0xbd818d74	-0.06325808
134	0x3e58bf7a	0.21166793
135	0x3e12d80d	0.1434023
136	0xbd1a1a40	-0.03762269
137	0xbeae0e27	-0.33995172
138	0x3d66bd88	0.056333095
139	0xbe3463d0	-0.176162
140	0x3e9f29d1	0.3108659
141	0x3f118f4f	0.56859297
142	0x3e86262a	0.26200992
143	0x3e4eab5e	0.20182559
144	0x3e51b22d	0.20478125
145	0xbc74b43d	-0.01493555
146	0xbecd1494	-0.40054762
147	0xbdc4d161	-0.09610248
148	0x3d727ce5	0.05920114
149	0x3c9c36d8	0.01906912
150	0x3ddf32f2	0.10898389
151	0x3e44a9e2	0.1920543
152	0x3e90b4bc	0.2826289
153	0xbe2ee75e	-0.17080447
154	0xbd306f08	-0.043074638
155	0xbea88ce6	-0.32919997
156	0xbe91a561	-0.28446487
157	0x3e851d28	0.25998807
158	0xbe61b933	-0.22043304
159	0x3e84ef55	0.25963846
160	0x3e8c92af	0.2745566
161	0xbe49f0ae	-0.19720718
162	0xbda32ade	-0.07967161
163	0x3d33d9eb	0.043908995
164	0xbe9471ec	-0.28993165
165	0x3dd1c5ab	0.1024278
166	0xbe91ea47	-0.28499052
167	0xbb1ce7a6	-0.0023941784
168	0xbe91085e	-0.28326696
169	0xbe15f048	-0.14642441
170	0x3e444d55	0.19170125
171	0x3dcadc6a	0.09905322
172	0x3dafd1a3	0.08584907
173	0xbd1c5189	-0.038163695
174	0xbd6c4b9e	-0.0576893
175	0x3ecbf5db	0.3983601
176	0x3e5129b0	0.20426059
177	0x3ec45411	0.38345388
178	0x3dab146b	0.08353504
179	0xbe23497d	-0.15946002
180	0x3e18bf82	0.14916804
181	0xbd42969c	-0.047506914
182	0x3ee29734	0.44255984
183	0x3d3f79df	0.046747085
184	0x3f061bdd	0.52386266
185	0x3ea37a2d	0.3192915
186	0x3e2add8a	0.16686073
187	0x3ea20a57	0.31648514
188	0x3ea9f4e0	0.33194637
189	0x3e1e8774	0.15481359
190	0x3de2371e	0.11045669
191	0xbe98da8c	-0.29854238
192	0xbcd57264	-0.026055522
193	0x3e8f7b64	0.28023827
194	0xbde31b4f	-0.11089193
195	0x3c951f0a	0.018203277
196	0x3efdd971	0.49579957
197	0x3e2cfd27	0.16893445
198	0xbe688ebd	-0.227107
199	0x3d669a63	0.05629958
200	0x3d748893	0.05970056
201	0x3ecf4721	0.40483955
202	0xbee54b5d	-0.4478406
203	0x3f6ca98a	0.92446196
204	0xbf128db4	-0.5724747
205	0xbeffd2f2	-0.49965626
206	0xbe486efe	-0.1957359
207	0xbeec2970	-0.46125364
208	0x3f5503bf	0.8320884
209	0xbef91940	-0.48652077
210	0x3d87d1d7	0.06631821
211	0xbcb47de0	-0.022032678
212	0xbf2cd404	-0.6751101
213	0xbe1e7229	-0.15473236
214	0xbeb68b70	-0.35653257
215	0xbdca4091	-0.09875596
216	0xbf943ab4	-1.1580415
217	0x3dc41e35	0.09576074
218	0x3e071b0b	0.1319391
219	0xbe97091f	-0.29499146
220	0xbedc1aa8	-0.42989087
221	0x3e3f7217	0.18695866
222	0x3eb70b52	0.35750824
223	0x3d8c2b01	0.0684414
224	0xbd9c03e2	-0.07617928
225	0x3c90fa21	0.017697396
226	0x3d7a7498	0.06114635
227	0xbdf0a396	-0.117499515
228	0xbe8896d7	-0.26677582
229	0x3ec9be57	0.3940303
230	0x3daca766	0.08430366
231	0x3ed29cde	0.41135305
232	0xbdb2bc5b	-0.08727332
233	0xbd019cd9	-0.031643722
234	0x3e821894	0.25409377
235	0xbe8f6449	-0.280062
236	0xbdf79843	-0.120895885
237	0x3e096e0e	0.13420889
238	0x3e5eeb8e	0.21769544
239	0xbb817c28	-0.003951568
240	0xbed654e4	-0.4186164
241	0x3e078dfb	0.13237755
242	0x3d8c23e8	0.06842786
243	0xbe1b4664	-0.1516357
244	0xbe9d77fb	-0.307556
245	0x3e9d3a23	0.30708417
246	0xbc7e916a	-0.015537599
247	0xbe6ca933	-0.2311142
248	0x3e4a337b	0.197462
249	0x3e45cfba	0.19317523
250	0xbdf6203e	-0.120178685
251	0x3e84dcaf	0.25949618
252	0x3e00383d	0.12521453
253	0xbdfef4d4	-0.12449041
254	0xbd1abc38	-0.037777156
255	0x3d86161e	0.06547187

bias f4 [20]
0	0x3d53966e	0.051657133
1	0xbe9a5281	-0.3014107
2	0x3dce78aa	0.100816086
3	0xbe5a573f	-0.21322344
4	0xbe277056	-0.16351447
5	0xbd693750	-0.056937516
6	0x3e61afa3	0.22039656
7	0xbedead10	-0.4349141
8	0x3ccf56c6	0.025309931
9	0xbdca90de	-0.098909125
10	0x3e0645ef	0.13112615
11	0x3e0df01a	0.13861123
12	0x3ea5ba7a	0.32368833
13	0x3ed4ce35	0.41563573
14	0xbea8240c	-0.32840002
15	0xbe244690	-0.16042542
16	0x3f18391d	0.5946215
17	0xbc119e0b	-0.008887778
18	0x3c9169cd	0.017750645
19	0xbd999c43	-0.07500508

weight f4 [20, 20]
0	0x3ea72ea8	0.32652783
1	0xbe8ba1d2	-0.27271897
2	0xbd90f4c7	-0.070779376
3	0x3e2fab55	0.17155202
4	0xbe1c77d5	-0.15280087
5	0xbe0fca8b	-0.14042108
6	0x3e787a60	0.24265432
7	0x3ea99bb5	0.33126608
8	0xbf26ae8e	-0.651101
9	0x3db4fa05	0.0883675
10	0x3eb11c5a	0.34591943
11	0x3ed5dd07	0.41770193
12	0x3e8b1951	0.27167752
13	0x3e6f9ce8	0.23399699
14	0x3e53e695	0.20693429
15	0xbdd61559	-0.104532905
16	0x3e881b67	0.26583406
17	0xbe3fc375	-0.18726905
18	0x3d0c0fbe	0.0341947
19	0xbec2e99d	-0.38068858
20	0x3e5e14a1	0.21687557
21	0xbdab7006	-0.08370976
22	0x3e1a6cc2	0.1508055
23	0xbcd7802a	-0.02630623
24	0xbceee4b2	-0.029161785
25	0x3ea7a6b2	0.32744366
26	0x3e3908d8	0.1806978
27	0xbea10647	-0.31450102
28	0xbccb60bf	-0.024826406
29	0x3e864eb9	0.26231936
30	0xbeea2bdc	-0.45736587
31	0x3e9f69db	0.3113545
32	0xbdb8fdbf	-0.09032773
33	0x3c15a4fe	0.0091335755
34	0xbddff13e	-0.10934685
35	0x3ed913a6	0.42397803
36	0x3e4e914f	0.20172618
37	0x3eefd5f6	0.46842927
38	0x3ea95725	0.33074299
39	0x3d9dd151	0.077059396
40	0xbe9b4690	-0.30327272
41	0xbd80d9c2	-0.06291534
42	0x3db58d85	0.08864883
43	0xbe791d2b	-0.24327533
44	0x3e3b318c	0.1828062
45	0x3e023a0f	0.1271746
46	0x3e8614fe	0.2618789
47	0x3d283360	0.04106462
48	0x3e367917	0.1781963
49	0x3e8354e8	0.25650716
50	0xbeae2a18	-0.3401649
51	0xbe9aa023	-0.302003
52	0xbe30cb78	-0.17265117
53	0x3e17df6a	0.1483132
54	0x3dcf7680	0.10130024
55	0x3ebd4857	0.36969253
56	0x3e4d2b04	0.2003594
57	0x3db86657	0.09003895
58	0xbe3014df	-0.17195462
59	0x3e072cda	0.13200703
60	0x3eb9b07d	0.36267462
61	0x3d1cce3c	0.038282618
62	0xbe8578f3	-0.2606884
63	0xbdb127c8	-0.08650166
64	0xbec9423a	-0.3930834
65	0xbe4878cd	-0.19577332
66	0xbee118bb	-0.4396418
67	0xbf006b82	-0.50164044
68	0xbe114396	-0.14185938
69	0xbeae2b5a	-0.3401745
70	0x3d34e079	0.044159386
71	0x3d25fcb6	0.040524207
72	0xbd4f5c50	-0.050625145
73	0x3dd3db65	0.103445806
74	0xbe59456f	-0.21217893
75	0x3ed1f429	0.41006592
76	0xbd1712c9	-0.03688315
77	0xbe0a43ff	-0.13502501
78	0xbcafe3b9	-0.021470891
79	0x3ec85a39	0.39131334
80	0x3e438b68	0.19096148
81	0xbd102b10	-0.035197318
82	0x3deb4039	0.11486859
83	0x3d43c06b	0.047790926
84	0x3e798c11	0.24369837
85	0xbe812858	-0.25226092
86	0xbe710b65	-0.23539503
87	0xbdd7119d	-0.10501406
88	0x3e9106fa	0.28325635
89	0x3a3f66f4	0.0007301413
90	0xbef54934	-0.47907412
91	0xbed9cc41	-0.42538646
92	0xbdf984e7	-0.12183552
93	0xbf18d057	-0.596929
94	0x3f1f6a1d	0.6227129
95	0x3e2109bd	0.15726371
96	0xbdbf0b9d	-0.09328387
97	0xbe16fc41	-0.14744665
98	0x3ed01290	0.40639162
99	0x3e84808a	0.25879318
100	0xbe730445	-0.23732097
101	0xbe040024	-0.12890679
102	0x3e624dc8	0.22099984
103	0xbe406464	-0.18788296
104	0xbecd68b6	-0.4011895
105	0xba4bfa9c	-0.0007781179
106	0x3d6a741b	0.057239633
107	0xbedee1d0	-0.43531656
108	0x3e70d9d2	0.23520592
109	0x3d0933f8	0.033496827
110	0xbf0d3875	-0.5516427
111	0xbe80ae1d	-0.25132838
112	0x3e9d402a	0.30713016
113	0x3e0f0349	0.13966097
114	0x3ef7dd20	0.48410892
115	0x3da7cf6a	0.08193858
116	0x3e80d488	0.25162148
117	0x3e7f8284	0.24952132
118	0x3e68b068	0.22723544
119	0xbebdd9b7	-0.37080166
120	0x3e815903	0.25263223
121	0xbe1b30c1	-0.15155317
122	0x3d08dc73	0.03341336
123	0x3e5233a0	0.20527506
124	0x3d59f16d	0.053208757
125	0x3c4c2195	0.012459178
126	0xbe508563	-0.20363383
127	0x3e65d9fc	0.22446436
128	0x3b118ac3	0.0022207953
129	0x3e0a2f90	0.13494706
130	0x3e527ab0	0.20554614
131	0x3e36945e	0.17830035
132	0xbe2b2a35	-0.1671532
133	0x3ea3d720	0.32000065
134	0xbe86c770	-0.26324034
135	0x3ed04e41	0.40684703
136	0x3e835edd	0.25658312
137	0xbf0d42b2	-0.55179894
138	0xbe976c26	-0.29574698
139	0x3e104c83	0.14091687
140	0xbe1b8d71	-0.15190674
141	0x3e5abe05	0.21361549
142	0xbd5e9460	-0.05434072
143	0x3e6402ea	0.22266737
144	0xbc1a9a31	-0.009436176
145	0xbbd81d51	-0.0065952917
146	0xbe8222c9	-0.25417164
147	0x3eaa82f7	0.33303043
148	0x3ecb60a0	0.39722157
149	0x3dfb7cd9	0.12279672
150	0x3e22080c	0.15823382
151	0xbd9f1101	-0.07766915
152	0xbd8c10b2	-0.06839122
153	0xbdd3dcf6	-0.10344879
154	0x3e2b18f0	0.16708732
155	0x3e5aa328	0.21351302
156	0xbe74c988	-0.23905003
157	0x3eccd5f5	0.40006986
158	0x3c8b5636	0.017008882
159	0x3d80b805	0.06285099
160	0xbe0d99f8	-0.13828266
161	0xbe0fd322	-0.14045385
162	0xbe6c2580	-0.2306118
163	0x3efca555	0.49344888
164	0x3e92ab6d	0.28646412
165	0x3e2a3764	0.16622692
166	0xbd05423a	-0.03253386
167	0x3d191ea4	0.037382737
168	0x3e7c2c2e	0.24626228
169	0x3dd403f5	0.10352317
170	0x3d19c2a2	0.037539132
171	0x3e819b47	0.2531378
172	0xbeafcf16	-0.34337682
173	0xbeb7d851	-0.35907224
174	0x3e99674d	0.29961625
175	0xbe496912	-0.19668987
176	0x3d92be2a	0.07165177
177	0xbe25936a	-0.16169515
178	0x3e9acd66	0.30234832
179	0xbe8069e3	-0.25080785
180	0x3f259682	0.6468278
181	0xbd7a101f	-0.06105053
182	0xbe3614fd	-0.17781444
183	0xbcbfecaa	-0.02342828
184	0xbea6ee7d	-0.32603827
185	0x3eaafbc1	0.33395198
186	0xbe7667f9	-0.240631
187	0x3e4678dc	0.19382042
188	0xbe6ebad6	-0.2331346
189	0xbdec53b3	-0.11539402
190	0x3d3ff8b2	0.046868034
191	0x3e4af5f7	0.1982039
192	0xbd1f17bd	-0.038840998
193	0x3da1e86e	0.079056606
194	0xbe4ae9fe	-0.19815823
195	0x3eb94872	0.36188084
196	0xbec4df4a	-0.38451606
197	0x3bae6595	0.005322168
198	0x3dc009d5	0.09376875
199	0xbe935434	-0.2877518
200	0x3e65b98f	0.22434066
201	0x3d1edd0f	0.038785037
202	0x3d7b64d3	0.06137545
203	0x3d16414f	0.036683377
204	0x3d86867c	0.065686196
205	0x3d9b9ed2	0.07598652
206	0x3e11b065	0.14227445
207	0xbd6f2130	-0.05838126
208	0xbe296899	-0.16543807
209	0x3da0f90b	0.07860001
210	0xbe1bdb2a	-0.15220323
211	0x3e12697d	0.14298053
212	0x3d5c2ee4	0.053755656
213	0x3e987fc0	0.29784966
214	0xbeaf95ce	-0.3429398
215	0x3e6a89b0	0.22904086
216	0xbd34d5ee	-0.04414933
217	0xbeb592e7	-0.3546364
218	0xbe31a2a3	-0.17347197
219	0xbe9ea188	-0.30982614
220	0x3cad95e8	0.021189645
221	0x3e05ffbb	0.13085835
222	0xbc116337	-0.008873752
223	0xbe50f5d7	-0.2040628
224	0x3e34599b	0.17612307
225	0xbe414c16	-0.1887668
226	0xbb59a48f	-0.0033209657
227	0xbd90da1f	-0.07072853
228	0xbeba5670	-0.36394072
229	0x3e0ffc6c	0.14061135
230	0xbebf962a	-0.37419254
231	0xbe079e04	-0.13243872
232	0x3e8033a0	0.25039387
233	0x3e919b00	0.28438568
234	0x3d01ab9b	0.031657796
235	0x3eb58cd9	0.3545902
236	0x3d597d65	0.0530981
237	0x3f372b27	0.7155022
238	0xbdd651a6	-0.10464792
239	0x3d917b14	0.071035534
240	0xbeb42416	-0.3518378
241	0x3d85fcc3	0.06542351
242	0xbed82176	-0.4221303
243	0x3e045847	0.129243
244	0x3e2ffe72	0.17186907
245	0xbecc3774	-0.39886057
246	0xbaef0574	-0.0018235878
247	0x3ed1b8e1	0.40961364
248	0x3e2b95d5	0.16756375
249	0x3e0f5f4b	0.14001195
250	0x3f1cfee8	0.61326456
251	0xbcca8760	-0.024722755
252	0xbe7d091e	-0.24710509
253	0xbee84184	-0.45362484
254	0x3e93cc7d	0.2886695
255	0xbf5a2ed0	-0.8522768

bias f4 [20]
0	0x3d5013ef	0.05080026
1	0x3d7d0eff	0.06178188
2	0x3e327e82	0.17431071
3	0x3dcbe652	0.099560395
4	0xbe73a882	-0.2379475
5	0x3e8b66c5	0.27226844
6	0x3c51306f	0.012767895
7	0xbe887e38	-0.26658797
8	0xbd3fc375	-0.04681726
9	0x3e4afa74	0.19822103
10	0x3a0fab02	0.0005480499
11	0xbdd6a7b6	-0.10481207
12	0xbd96b7c9	-0.07359273
13	0x3e5211f5	0.20514663
14	0x3c552297	0.013008735
15	0xbea20303	-0.31642923
16	0xbe7f7a8f	-0.24949096
17	0xbf0e89ae	-0.5567883
18	0x3c9e3ccb	0.019316098
19	0x3cd14297	0.025544448

weight f4 [20, 20]
0	0xbcfc7251	-0.030816229
1	0x3d587689	0.05284742
2	0x3e89e33b	0.26931176
3	0xbe644542	-0.22292045
4	0x3f34028c	0.70316386
5	0x3beee764	0.0072907675
6	0x3e7d9f34	0.24767762
7	0xbe3fc29c	-0.18726581
8	0x3eb66001	0.3562012
9	0xbd2a2290	-0.041536868
10	0x3db16a05	0.086628
11	0xbcad0b91	-0.02112368
12	0x3ea67975	0.3251454
13	0x3e046843	0.12930398
14	0xbdddee32	-0.10836448
15	0x3e5dd11a	0.21661797
16	0x3dd69f49	0.104796
17	0x3f0023db	0.5005471
18	0x3ea23eeb	0.31688628
19	0xbda8b364	-0.08237341
20	0xbdbca9db	-0.09212085
21	0x3e3f2a3e	0.18668458
22	0x3caa1312	0.020761047
23	0xbdab583d	-0.083664395
24	0x3e9da220	0.30787754
25	0x3ecfb961	0.4057112
26	0x3e6e451a	0.23268548
27	0x3c3764a1	0.011193425
28	0xbe456542	-0.19276908
29	0xbdf8cdec	-0.121486515
30	0xbea3f043	-0.32019243
31	0xbe24d619	-0.16097297
32	0xbe9c46cf	-0.30522773
33	0x3ef00fc8	0.4688704
34	0xbf14ea4d	-0.58170015
35	0xbf1d5de6	-0.614714
36	0x3ea0e33b	0.31423363
37	0x3edc0d28	0.42978787
38	0xbe5ff81a	-0.21871987
39	0x3c85f33f	0.01635134
40	0xbeb965a7	-0.36210367
41	0xbed31e51	-0.41234067
42	0x3d55f202	0.05223275
43	0xbd9a84d8	-0.07544869
44	0xbe77e6db	-0.24209158
45	0x3e2ef670	0.17086196
46	0xbf14972b	-0.58043164
47	0x3e888a18	0.26667857
48	0x3e7e1d2c	0.24815816
49	0x3f090486	0.5352253
50	0xbe5d2b6a	-0.21598592
51	0xbe368387	-0.17823611
52	0x3e15328e	0.14570066
53	0xbe1a31df	-0.15058087
54	0x3d9b3ea9	0.07580311
55	0x3d4a1cc3	0.049343836
56	0xbec7ffbe	-0.39062303
57	0x3eef2020	0.46704197
58	0x3d6bdbe3	0.057582747
59	0x3e651df0	0.22374701
60	0xbe2da64b	-0.16957967
61	0xbbe2e426	-0.00692417
62	0xbd18cec9	-0.03730658
63	0x3dc63f02	0.096799865
64	0xbd0b9dc8	-0.03408602
65	0xbe1aba87	-0.15110217
66	0x3dd1f9b3	0.102527045
67	0x3e610850	0.21975827
68	0xbc7f8f42	-0.01559812
69	0x3e0f5a65	0.13999327
70	0x3e78484c	0.24246329
71	0xbf034093	-0.5127041
72	0xbcb6fe46	-0.022338044
73	0x3e8f7a85	0.28023162
74	0x3c078ab5	0.008272816
75	0xbe5f957c	-0.21834368
76	0xbe25399f	-0.16135262
77	0x3f2eaafb	0.68229645
78	0x3e056dde	0.13030192
79	0xbf09fa58	-0.5389762
80	0x3ecf6184	0.40504086
81	0xbee231d3	-0.44178638
82	0xbec6f188	-0.3885615
83	0xbcf79628	-0.030222967
84	0xbc13b73b	-0.0090158535
85	0x3da6f49a	0.08152123
86	0xbdb37b3e	-0.08763741
87	0x3cf9a7dd	0.030475551
88	0x3dab8957	0.08375805
89	0xbe485715	-0.19564469
90	0x3deaf8fc	0.11473271
91	0x3c83b57e	0.016077753
92	0x3e3af805	0.18258674
93	0x3e876b2b	0.2644895
94	0xbca1ef01	-0.019767286
95	0x3d9a655d	0.07538865
96	0xbdfe4ec7	-0.12417369
97	0xbe879244	-0.2647878
98	0xbeea421f	-0.4575357
99	0x3dd2467a	0.102673486
100	0x3db45f08	0.08807188
101	0xbcde6fc8	-0.02715291
102	0x3c206049	0.009788581
103	0x3e6f0e75	0.23345359
104	0x3d914202	0.07092668
105	0xbce67671	-0.02813265
106	0xbe07e79e	-0.13271949
107	0xbd69fc87	-0.057125594
108	0x3e500b9f	0.20316933
109	0x3e594c21	0.21220447
110	0xbe13cd5a	-0.14433804
111	0xbe958a8e	-0.2920727
112	0xbe8ac42f	-0.271028
113	0x3e96b8ab	0.29437765
114	0xbdf54097	-0.1197521
115	0xbd487d6f	-0.048947748
116	0xbe0f9776	-0.14022622
117	0xbe2e2e49	-0.17009844
118	0x3eb211c1	0.3477917
119	0x3e97c769	0.29644325
120	0xbe04adae	-0.12956879
121	0x3e9c8dd4	0.30576956
122	0x3c8b174d	0.016978884
123	0xbe296b38	-0.16544807
124	0xbea2c716	-0.31792516
125	0x3e9979f6	0.2997586
126	0xbd798f3d	-0.06092762
127	0xbd7f5b1a	-0.06234274
128	0xbe5172c1	-0.20453931
129	0x3e68371a	0.2267727
130	0xbe642792	-0.2228072
131	0xbee23f4f	-0.44188926
132	0x3eaf1914	0.3419882
133	0xbeab2b95	-0.33431688
134	0x3e7b47cc	0.24539107
135	0x3dc6fffa	0.097167924
136	0x3f00c816	0.50305307
137	0x3e30202b	0.17199771
138	0xbc12c510	-0.008958116
139	0xbea47a4b	-0.32124552
140	0xbe98eddd	-0.29868975
141	0xbe265fff	-0.16247557
142	0xbef2dbc7	-0.47433302
143	0x3e59e701	0.21279527
144	0xbf31198f	-0.69179624
145	0x3eaaf776	0.33391923
146	0x3ea79b3d	0.32735625
147	0x3e681361	0.22663642
148	0xbceb7982	-0.028744463
149	0xbd815214	-0.06314483
150	0x3ed86668	0.4226563
151	0xbe7e31f3	-0.24823742
152	0x3eb53e49	0.35399082
153	0xbeb5ea19	-0.35530165
154	0xbde09feb	-0.10968002
155	0x3e68150e	0.22664282
156	0x3afac95a	0.0019133494
157	0xbe6d2106	-0.23157129
158	0xbec86dd6	-0.39146298
159	0xbd2ea327	-0.042636063
160	0x3e9abca5	0.3022205
161	0xbdd6c677	-0.10487073
162	0xbe596976	-0.21231636
163	0xbeaddd9e	-0.33958143
164	0x3e009658	0.12557352
165	0x3d82e1e0	0.063907385
166	0xbe47a296	-0.19495615
167	0xbda06016	-0.07830827
168	0x3c87981a	0.01655202
169	0xbddcfb49	-0.10790116
170	0x3ce10a97	0.02747087
171	0xbe0e719f	-0.1391053
172	0x3e8f48a8	0.2798512
173	0x3e3c8099	0.18408431
174	0x3e74ea61	0.23917533
175	0xbe3bc5ba	-0.18337145
176	0xbdc0a42d	-0.09406314
177	0xbda72156	-0.08160655
178	0x3e80e287	0.25172827
179	0xbd8d1203	-0.06888201
180	0x3eb61efa	0.35570508
181	0x3da306e9	0.079603024
182	0xbd944746	-0.07240157
183	0xbdc7fb68	-0.09764749
184	0xbe251590	-0.16121507
185	0xbde96678	-0.113964975
186	0xbe2da5c9	-0.16957773
187	0x3d9c878d	0.07643042
188	0xbd97f999	-0.07420654
189	0x3edb9728	0.4288876
190	0xbe11d1ff	-0.14240263
191	0xbdb4ae53	-0.08822312
192	0xbec61d81	-0.38694385
193	0x3e43d582	0.19124416
194	0x3eee1a6b	0.4650453
195	0xbd805006	-0.06265263
196	0xbe4cbe08	-0.19994366
197	0xbf22021d	-0.63284475
198	0xbe314603	-0.17311864
199	0x3df931c0	0.12167692
200	0x3d992890	0.0747844
201	0x3eaf977f	0.3429527
202	0x3e564ac4	0.20926958
203	0x3e913699	0.28361967
204	0xbe884196	-0.26612538
205	0x3dc880a5	0.09790162
206	0x3d4a2696	0.049353205
207	0xbdf56aaf	-0.11983239
208	0x3e627888	0.22116292
209	0x3df5375a	0.11973448
210	0xbe31af74	-0.17352086
211	0xbe14d736	-0.14535221
212	0xbcc9b939	-0.024624454
213	0x3f149ca4	0.58051515
214	0x3de87d0d	0.113519765
215	0xbf036f59	-0.5134178
216	0xbe0dbf1c	-0.13842434
217	0xbf08d2f8	-0.5344691
218	0xbd9d6239	-0.0768475
219	0xbe2dcf23	-0.16973548
220	0xbcf3d010	-0.029762298
221	0x3e0e0a5f	0.13871144
222	0x3dcfef02	0.10153009
223	0xbe805412	-0.2506414
224	0xbdbe3ccf	-0.09288942
225	0x3e507579	0.20357312
226	0xbd5d8792	-0.054084368
227	0xbd33afce	-0.043868832
228	0xbe856aca	-0.26058036
229	0xbea18b26	-0.31551474
230	0xbe7f7be2	-0.24949601
231	0xbe00abba	-0.12565508
232	0xbdda49c8	-0.10658604
233	0xbe403d3e	-0.18773362
234	0xbd30c794	-0.043159083
235	0xbe2f1a6d	-0.17099924
236	0x3e32d004	0.17462164
237	0x3ee23186	0.44178408
238	0xbe3bf9be	-0.18356988
239	0x3da71c07	0.08159643
240	0x3ecd2c82	0.4007302
241	0xbe7bcac2	-0.24589065
242	0xbe00611a	-0.12537041
243	0x3dbfe55e	0.0936992
244	0xbedaaebc	-0.42711437
245	0xbf0f51af	-0.55984014
246	0x3e860d37	0.26181957
247	0xbeba34f8	-0.36368537
248	0x3e7da23a	0.24768916
249	0x3e162985	0.14664276
250	0x3bd4e450	0.0064969435
251	0xbe61e446	-0.22059736
252	0x3d948176	0.07251255
253	0x3dc1e5ee	0.09467684
254	0x3eabaae0	0.33528805
255	0x3f454615	0.7706006

bias f4 [20]
0	0xbd95aeb9	-0.07308716
1	0x3cefcf30	0.0292736
2	0xbd3de2b8	-0.046358794
3	0x3d62f7b6	0.055412017
4	0xbc098936	-0.00839453
5	0x3e01440f	0.12623619
6	0xbd53aaf4	-0.051676705
7	0xbe15ee5d	-0.1464171
8	0x3c849840	0.01618588
9	0xbb95e431	-0.0045743217
10	0x3ecb8d31	0.39756158
11	0x3d8a8198	0.06762999
12	0xbdcde418	-0.10053271
13	0x3cbb2f33	0.022849655
14	0xbdfaf43c	-0.12253615
15	0x3d930ce4	0.07180193
16	0x3ce8b49a	0.02840643
17	0xbd3bbf28	-0.045836598
18	0x3f246f02	0.64231884
19	0xbebdb000	-0.3704834

weight f4 [20, 20]
0	0x3e50792a	0.2035872
1	0xbda24e5c	-0.07925102
2	0x3e79455a	0.24342862
3	0xbca99ff4	-0.020706154
4	0x3dfb689c	0.12275812
5	0x3de1e954	0.11030832
6	0xbc0490b3	-0.00809114
7	0xbd038f9f	-0.03211939
8	0x3eff8186	0.49903506
9	0x3d9ec3cf	0.07752191
10	0xbe4d8af1	-0.20072533
11	0x3d2a2c8b	0.041546386
12	0x3e84e3c3	0.25955018
13	0xbe588c23	-0.21147208
14	0x3ea51752	0.32244354
15	0xbe6713b4	-0.2256611
16	0x3efa7328	0.48915982
17	0xbcb73759	-0.022365259
18	0xbed7537b	-0.42055878
19	0x3c3d9063	0.011570069
20	0x3b168e1b	0.0022972885
21	0xbe2512b7	-0.1612042
22	0x3dcc5f33	0.09979095
23	0xbe494f12	-0.19659069
24	0xbdff3d14	-0.124628216
25	0xbdc07b0e	-0.09398471
26	0xbd2f2778	-0.04276225
27	0xbe8b0dec	-0.2715906
28	0x3e96d1ff	0.2945709
29	0xbe5ffd0a	-0.2187387
30	0x3d6a6911	0.057229105
31	0xbe13b29b	-0.14423601
32	0xbe7689c9	-0.24075998
33	0x3cd70bfa	0.026250828
34	0xbedee47d	-0.43533698
35	0xbec45e95	-0.3835341
36	0xbe3a836a	-0.18214193
37	0x3e98fbab	0.29879507
38	0x3e216a9c	0.15763324
39	0xbda58bf6	-0.08083336
40	0x3ea51547	0.32242796
41	0x3e4e9f00	0.20177841
42	0xbe5cf296	-0.21576914
43	0x3dafb663	0.085797094
44	0xbee725ae	-0.45145935
45	0xbe3138ee	-0.17306873
46	0xbce63f27	-0.028106285
47	0x3ca9c0e2	0.020721857
48	0xbd84ee52	-0.064907685
49	0x3bf95b70	0.007609777
50	0xbbc2137f	-0.0059227343
51	0xbd61afec	-0.055099413
52	0xbd300f28	-0.042983204
53	0x3ecd12cc	0.40053403
54	0xbd8db909	-0.06920058
55	0xbd027833	-0.031852912
56	0x3d4c153b	0.049824934
57	0xbed36f54	-0.41295874
58	0xbee70783	-0.45122918
59	0xbcd6b093	-0.026207244
60	0xbe1d3b0a	-0.15354553
61	0x3e1b70a3	0.15179686
62	0x3e726cc5	0.23674305
63	0x3de9229d	0.11383555
64	0x3e213ec4	0.157466
65	0xbe72ece0	-0.23723173
66	0x3bcaa6ef	0.006184451
67	0x3e961024	0.2930919
68	0x3c621e10	0.013801113
69	0xbe4233e3	-0.18965106
70	0xbe668258	-0.2251066
71	0xbe46f296	-0.19428477
72	0x3f19b2ec	0.6003864
73	0x3e907015	0.28210512
74	0x3ed2235c	0.41042602
75	0x3e8beb14	0.27327788
76	0x3d02ab3b	0.03190158
77	0x3ef84979	0.48493555
78	0x3d4ae722	0.04953683
79	0x3eac0bc3	0.33602723
80	0xbe508c18	-0.20365942
81	0xbe0df841	-0.13864233
82	0x3ee6afe9	0.45056084
83	0x3e0e7149	0.13910402
84	0x3c3c4eb8	0.011493377
85	0xbd3cc5b2	-0.046086974
86	0xbd863849	-0.06553704
87	0xbe4c1b61	-0.19932319
88	0x3e406caa	0.18791452
89	0xbe8ce0d0	-0.27515268
90	0xbea1f02c	-0.3162855
91	0xbd2cc86e	-0.042183332
92	0xbe8efe04	-0.27928174
93	0xbd12ecf5	-0.03587051
94	0xbeab03f6	-0.3340146
95	0x3e647d17	0.22313343
96	0xbe3fbac9	-0.18723597
97	0x3a64649a	0.00087125006
98	0xbea3966e	-0.31950706
99	0xbc6afd92	-0.014342682
100	0xbefff774	-0.4999348
101	0xbd495ca8	-0.04916063
102	0x3e3f227a	0.18665496
103	0xbe004519	-0.12526359
104	0x3e7fa0ff	0.24963759
105	0x3cc8dcd9	0.02451937
106	0xbea189de	-0.31550497
107	0x3d4e2e1c	0.050336942
108	0x3dab6ae9	0.08370001
109	0x3dbd5c8a	0.09246166
110	0xbe39e308	-0.18153012
111	0xbeda08b9	-0.4258478
112	0xbdab38f0	-0.08360469
113	0x3e51d77a	0.20492354
114	0x3d575d76	0.052579366
115	0x3ef14c75	0.47128645
116	0xbcf5a979	-0.029988037
117	0x3e12544a	0.14289966
118	0xbdeae15c	-0.11468765
119	0xbea4bc19	-0.32174757
120	0x3e233f34	0.15942079
121	0xbf1cb1af	-0.61208624
122	0x3d12e19f	0.0358597
123	0xbdcbf51a	-0.09958859
124	0xbeb07214	-0.34462035
125	0x3db7e6e3	0.08979585
126	0xbde4892b	-0.11158975
127	0x3ee12165	0.4397079
128	0x3e19ae35	0.15007861
129	0x3e08593d	0.13315292
130	0xbed57749	-0.4169257
131	0xbe4c86c0	-0.19973278
132	0x3e96deee	0.29466957
133	0x3ec688b7	0.3877618
134	0x3edcedd6	0.43150204
135	0x3d05c187	0.032655265
136	0x3e44d3be	0.19221398
137	0x3f1ac731	0.6046019
138	0x3d3f2f53	0.04667599
139	0x3e9f7e7f	0.31151196
140	0xbde3f087	-0.11129861
141	0xbe21d852	-0.15805176
142	0x3e4bc7ba	0.19900408
143	0xbc09ea34	-0.008417655
144	0x3d955b47	0.072928004
145	0xbe3cba34	-0.18430406
146	0x3d5399f8	0.051660508
147	0x3d068e8f	0.0328508
148	0x3cd92578	0.026507124
149	0xbdd58293	-0.10425296
150	0xbe6feef5	-0.23430999
151	0xbe18addf	-0.14910077
152	0x3e828d7c	0.2549857
153	0x3c3a19e8	0.011358716
154	0xbdc70491	-0.09717668
155	0xbdc95fd1	-0.09832729
156	0xbea7a680	-0.32744217
157	0xbd89075a	-0.06690855
158	0xbe5e04bc	-0.21681494
159	0x3e829c86	0.25510043
160	0xbe905133	-0.2818695
161	0xbe355024	-0.17706352
162	0x3c6c446b	0.014420609
163	0x3e8edbd1	0.27902082
164	0xbd52f98c	-0.051507518
165	0xbea80eb9	-0.32823732
166	0x3d15e834	0.0365984
167	0xbe901436	-0.2814042
168	0xbdb684de	-0.08912061
169	0x3e8454be	0.25845903
170	0x3e2c1ad0	0.16807103
171	0xbe67faa4	-0.22654206
172	0x3c898422	0.016786639
173	0x3e755712	0.23958996
174	0x3e38f795	0.18063195
175	0x3be11437	0.006868865
176	0xbd9e2e12	-0.07723631
177	0xbe070d70	-0.1318872
178	0x3d608796	0.054816805
179	0x3dd72516	0.105051205
180	0x3d97a4dd	0.07404492
181	0x3e872757	0.263972
182	0x3e322741	0.17397787
183	0xbe065f68	-0.13122332
184	0xbe103749	-0.1408359
185	0xbcc60fb6	-0.024177413
186	0xbe5d2915	-0.21597703
187	0x3e13e49a	0.14442673
188	0xbd80d8bf	-0.06291341
189	0xbe797486	-0.24360856
190	0x3cdcd0ad	0.026954973
191	0xbb8a9bc3	-0.004229994
192	0xbf123ac9	-0.5712095
193	0x3eb4448e	0.35208553
194	0xbe7e32e2	-0.24824098
195	0xbd2f582e	-0.042808704
196	0xbe23d45f	-0.15998982
197	0xbd868f8c	-0.06570348
198	0xbe8ef278	-0.27919364
199	0x3da90a4b	0.08253916
200	0xbdfba7fc	-0.122879
201	0xbd2b33d3	-0.04179747
202	0x3ecb5fac	0.3972143
203	0x3ecfce43	0.40587053
204	0xbdb25ee1	-0.08709503
205	0x3e9fcf97	0.31213066
206	0xbc7d0bb2	-0.015444683
207	0xbe83a761	-0.25713637
208	0x3e2f2a9f	0.17106102
209	0xbe8edd1c	-0.27903068
210	0x3eb0243e	0.3440265
211	0x3da72e05	0.081630744
212	0xbeab41d6	-0.33448666
213	0xbe5a338c	-0.21308726
214	0xbea3c812	-0.3198858
215	0x3d511bfa	0.05105207
216	0x3e8127a3	0.25225553
217	0xbd065569	-0.032796297
218	0x3eb678c8	0.35639024
219	0xbe98ae12	-0.29820305
220	0xbee7ccf1	-0.45273545
221	0xbd03084c	-0.031990334
222	0xbc615564	-0.013753269
223	0x3e507f14	0.20360976
224	0xbec8b6ca	-0.39201957
225	0x3d69eeaa	0.057112373
226	0xbe0271f6	-0.12738785
227	0x3f023568	0.5086274
228	0xbe321ba5	-0.17393358
229	0xbe13aaaf	-0.1442058
230	0xbcfb941b	-0.03071027
231	0x3dd24986	0.1026793
232	0x3ea0fe6d	0.3144411
233	0x3d990834	0.07472268
234	0x3e07e9ed	0.1327283
235	0xbdaa06fc	-0.083021134
236	0x3e50ff21	0.20409824
237	0xbd3b1800	-0.045677185
238	0xbccaba17	-0.024746938
239	0xbd8be7c9	-0.06831319
240	0xbe2fbbca	-0.1716148
241	0xbd933149	-0.07187135
242	0x3d1ad169	0.037797365
243	0xbe396c23	-0.18107657
244	0xbea7a5c3	-0.32743654
245	0x3e8a2346	0.26980036
246	0xbdfd59c9	-0.12370641
247	0xbe5b2319	-0.21400107
248	0xba76e4c2	-0.0009418243
249	0xbe3744d0	-0.17897344
250	0x3c45f8f0	0.012083277
251	0x3b92a332	0.004475021
252	0xbeafe574	-0.34354746
253	0x3e81269b	0.25224766
254	0xbee9bb48	-0.45650697
255	0xbcaa0272	-0.02075312

bias f4 [20]
0	0xbe72d530	-0.23714137
1	0xbb18d773	-0.0023321777
2	0x3c57c72f	0.013170048
3	0xbd8c7414	-0.06858078
4	0xbe476c73	-0.19474964
5	0x3da681eb	0.08130249
6	0xbe48045e	-0.19532916
7	0xbea3da60	-0.32002544
8	0x3db32d2b	0.087488495
9	0xbd836ce6	-0.06417255
10	0x3eae9752	0.34099823
11	0xbd8b81e5	-0.06811885
12	0xbe6ed149	-0.23322023
13	0xbec047b8	-0.37554717
14	0x3c13647b	0.008996124
15	0x3b530cb5	0.003220362
16	0x3d097c49	0.033565793
17	0x3ca2a7ee	0.019855466
18	0x3d8fb852	0.07017578
19	0x3dbb10b3	0.091340445

weight f4 [20, 20]
0	0x3eaa91a4	0.3331424
1	0x3d99d59b	0.07511445
2	0xbc9fbbad	-0.01949867
3	0x3eb5728c	0.35438955
4	0xbe24e1b9	-0.16101731
5	0x3d647dbc	0.055783972
6	0x3e80848c	0.25101125
7	0x3be885e4	0.007096039
8	0xbe0bdd54	-0.13658649
9	0x3e05c77c	0.13064378
10	0xbcd79444	-0.026315816
11	0x3e7e4294	0.24830085
12	0x3e4716f7	0.19442354
13	0x3e4545b4	0.19264871
14	0xbeb85191	-0.3599973
15	0x3dc45d4b	0.09588107
16	0x3e1f17cf	0.15536426
17	0x3e2d4404	0.16920477
18	0xbe7635f1	-0.24044015
19	0xbf1be2f2	-0.60893166
20	0x3e85ae43	0.26109514
21	0x3d4483e6	0.04797735
22	0xbe1ab448	-0.15107834
23	0xbe06eadf	-0.13175534
24	0x3c199af9	0.009375327
25	0x3dc9438e	0.09827338
26	0xbe2ed2db	-0.17072622
27	0x3e3b184a	0.18270984
28	0x3e0cff2d	0.13769217
29	0x3d0a8d38	0.033826083
30	0xbe268135	-0.16260226
31	0xbe593931	-0.21213223
32	0x3e456c4d	0.19279595
33	0x3df986aa	0.12183888
34	0xbe053200	-0.13007355
35	0xbea33798	-0.31878352
36	0x3e8b7850	0.2724023
37	0xbce9b8db	-0.028530529
38	0xbeb145a4	-0.34623444
39	0x3df37e3c	0.11889312
40	0xbefaf0e3	-0.49011907
41	0x3c904d3a	0.01761495
42	0xbe80d501	-0.2516251
43	0xbea4064b	-0.3203605
44	0xbea87cdd	-0.32907763
45	0xbd8deb86	-0.06929688
46	0xbcbbb967	-0.022915555
47	0xbec3bab6	-0.38228387
48	0xbd7d90eb	-0.061905783
49	0x3af5689e	0.0018723195
50	0x3d27736f	0.04088157
51	0xbec18dfd	-0.3780364
52	0xbe4f853d	-0.2026567
53	0xbe8bc267	-0.27296755
54	0x3f0c1adf	0.547285
55	0x3e91a991	0.2844968
56	0x3df309a1	0.11867071
57	0xbe29dbf6	-0.16587815
58	0x3eef0b72	0.4668842
59	0x3ecf8763	0.4053298
60	0xbeb913ee	-0.36148018
61	0x3debfe67	0.11523133
62	0xbe7be3f7	-0.2459868
63	0xbe963845	-0.29339805
64	0xbdbc7c68	-0.09203416
65	0xbd4567cf	-0.048194703
66	0xbe964ae1	-0.29354003
67	0xbe5332c2	-0.20624831
68	0xbe1c83c5	-0.15284641
69	0x3e91ab08	0.284508
70	0x3e226949	0.15860476
71	0x3da33c09	0.07970435
72	0x3ceeebd0	0.029165179
73	0x3d2539bd	0.040338267
74	0x3ed727d1	0.42022565
75	0x3e70e079	0.2352313
76	0xbec40db8	-0.38291717
77	0x3dcd4e3e	0.10024689
78	0x3e1ae6e7	0.15127145
79	0xbcdce717	-0.026965661
80	0xbd884581	-0.06653882
81	0xbe528ddb	-0.20561926
82	0xbdf2be21	-0.118526705
83	0xbe4d3c4d	-0.20042534
84	0xbeba457f	-0.36381146
85	0xbe720a1c	-0.23636669
86	0xbe8bfa2d	-0.27339306
87	0xbe7fd2d4	-0.24982768
88	0x3dcd3d9c	0.10021517
89	0xbe8abb33	-0.27095947
90	0x3eb85dfd	0.36009207
91	0xbdb21b32	-0.08696593
92	0xbe8645f9	-0.2622526
93	0xbbb64590	-0.0055624917
94	0x3d840d44	0.06447843
95	0xbe88de30	-0.26732016
96	0xbd284954	-0.041085556
97	0xbcaa7b8b	-0.020810863
98	0xbbc60ee4	-0.0060442556
99	0xbeae005e	-0.33984655
100	0xbe0e4696	-0.13894114
101	0xbd80cba3	-0.062888406
102	0xbf14594a	-0.57948744
103	0x3e6948b7	0.22781645
104	0xbf28dc26	-0.6596092
105	0xbe878983	-0.264721
106	0x3c5caffc	0.013469692
107	0xbe778088	-0.24170125
108	0x3e930ce1	0.28720763
109	0xbe448d21	-0.19194461
110	0xbdd0b49a	-0.10190697
111	0x3ea75721	0.32683662
112	0xbea3235c	-0.31862915
113	0xbec4ddaa	-0.38450366
114	0xbcc5ac85	-0.024130115
115	0x3e9c82ba	0.30568486
116	0x3eaed5fa	0.34147626
117	0xbd808f8c	-0.062773794
118	0xbd6b8375	-0.057498414
119	0x3f068f7c	0.5256269
120	0xbd8d0423	-0.06885555
121	0xbddcf1bf	-0.10788297
122	0xbe01d08f	-0.12677215
123	0x3e7cc7ac	0.24685544
124	0x3e308761	0.17239143
125	0xbdb0fd32	-0.08642043
126	0x3dd004e7	0.10157185
127	0xbe740ddb	-0.2383341
128	0x3e3ff039	0.18743981
129	0xbda75f5d	-0.08172486
130	0x3e1dd96a	0.15414968
131	0xbcd3bda3	-0.025847262
132	0xbe7be068	-0.24597323
133	0xbe82b226	-0.2552654
134	0x3e5d5019	0.21612586
135	0xbf0d4bcd	-0.5519379
136	0x3b9d2b7c	0.0047964435
137	0xbe59176c	-0.21200341
138	0xbccc35a0	-0.024927914
139	0xbe92802f	-0.2861342
140	0x3e8114b5	0.2521111
141	0xbde6d336	-0.11270754
142	0xbe2dd42e	-0.16975471
143	0x3e02e24b	0.12781636
144	0x3e7bf58c	0.24605387
145	0xbdf1c1ef	-0.11804568
146	0xbde2e21f	-0.110782854
147	0xbe0ffbd3	-0.14060907
148	0x3e247034	0.16058427
149	0xbdc5632c	-0.09638056
150	0x3e538e8f	0.2065985
151	0xbe2bc495	-0.16774209
152	0x3d52d776	0.05147501
153	0xbd9e5af0	-0.07732189
154	0x3d0a4433	0.033756446
155	0xbe300505	-0.17189415
156	0xbde1c1e5	-0.110233106
157	0x3e5dc41d	0.21656843
158	0xbec87288	-0.3914988
159	0x3dcb2596	0.09919278
160	0xbde51508	-0.11185652
161	0xbec04cc4	-0.37558568
162	0x3d298d3a	0.04139445
163	0x3e92cdc0	0.286726
164	0x3e0e5cf9	0.13902654
165	0x3e286025	0.16442926
166	0x3d3339ac	0.043756172
167	0x3eb2a0fa	0.3488844
168	0x3f112c81	0.5670853
169	0x3c8df24e	0.017327454
170	0xbe623e67	-0.22094117
171	0xbd9e0fd9	-0.077178665
172	0xbce1d1b6	-0.027565818
173	0xbe609ecb	-0.21935575
174	0xbe03bbe8	-0.1286465
175	0x3e422a83	0.1896153
176	0x3e9421ec	0.2893213
177	0xbecca0fd	-0.39966574
178	0x3dbdd12b	0.09268411
179	0xbdf023f7	-0.1172561
180	0xbe8c7d5a	-0.27439386
181	0xbe9a20f9	-0.3010328
182	0xbe1f315b	-0.15546171
183	0x3eda83c5	0.42678657
184	0xbd10bd66	-0.035336874
185	0x3d463638	0.04839155
186	0x3d61be2e	0.05511301
187	0xbe466d33	-0.19377594
188	0x3c6c984a	0.014440605
189	0xbe1a02a1	-0.15040065
190	0xbb79ce9d	-0.0038117536
191	0xbcee130b	-0.029061815
192	0xbeb9a5c6	-0.36259288
193	0xbedbc59f	-0.4292421
194	0xbe55afd4	-0.20867854
195	0xbecbbbf9	-0.3979185
196	0x3ddba474	0.10724726
197	0xbf0ee651	-0.55820185
198	0xbde78562	-0.11304738
199	0x3dd4c1c4	0.1038852
200	0x3e86d065	0.26330867
201	0x3e724364	0.2365852
202	0x3e874db6	0.26426476
203	0x3d03a1a4	0.032136574
204	0xbdf33819	-0.11875934
205	0x3c3bf23a	0.0114713255
206	0x3e9a92ef	0.30190226
207	0xbdb3794e	-0.087633714
208	0xbdee3806	-0.116317794
209	0x3e8cc12f	0.27491137
210	0xbcee124d	-0.02906146
211	0xbe86e030	-0.26342916
212	0xbe953621	-0.2914286
213	0x3cbeca37	0.023289783
214	0xbe08659c	-0.13320011
215	0x3eb08377	0.344753
216	0xbd40c90e	-0.04706674
217	0xbe2e3b50	-0.17014813
218	0x3d4517b8	0.048118323
219	0xbe2a27ae	-0.16616699
220	0x3deb62c1	0.11493445
221	0x3e80c784	0.25152218
222	0x3e46aaae	0.19401047
223	0x3d88375d	0.06651185
224	0xbe8fa231	-0.2805343
225	0x3e2a6a3f	0.16642092
226	0x3b42368e	0.0029634568
227	0xbe841a4d	-0.25801316
228	0x3e64a82b	0.22329776
229	0xbe886838	-0.26642013
230	0x3eb8ca1e	0.36091703
231	0x3e452437	0.19252096
232	0x3e2dbbd2	0.16966179
233	0xbec8ea19	-0.39241102
234	0xbe820807	-0.2539675
235	0x3e788f3b	0.24273388
236	0x3e80b751	0.2513986
237	0xbede15b1	-0.43375924
238	0x3f242334	0.64116216
239	0xbdd18835	-0.102310576
240	0x3e27acaf	0.16374467
241	0x3cb4a3de	0.022050794
242	0x3edfccdd	0.43710986
243	0xbe5f07a1	-0.21780254
244	0xbd68ed23	-0.056866776
245	0x3dbd0593	0.09229579
246	0xbe943608	-0.28947473
247	0xbea33d9b	-0.3188294
248	0x3de69e97	0.11260717
249	0x3ef38f56	0.47570294
250	0xbd8415fb	-0.06449505
251	0xbe85d914	-0.2614218
252	0x3e538315	0.20655473
253	0x3ee8867f	0.45415112
254	0x3eb08034	0.3447281
255	0x3dcaaad1	0.09895862

bias f4 [20]
0	0xbe6d8de5	-0.2319866
1	0x3c66e677	0.014093033
2	0x3ec6aa92	0.3880201
3	0x3ddac4e8	0.10682088
4	0x3dc11bbf	0.0942912
5	0xbcae40fb	-0.02127122
6	0x3e21452b	0.15749042
7	0x3e2644a2	0.16237119
8	0x3d83ae73	0.06429758
9	0x3d51a149	0.051179204
10	0xbd24e1f5	-0.040254552
11	0x3e1776b2	0.14791372
12	0xbe04d418	-0.12971532
13	0xbd894de4	-0.067043096
14	0x3e5fa23d	0.21839233
15	0xbe8d2266	-0.27565306
16	0x3a7eb7db	0.00097167277
17	0x3dfaf14a	0.122530535
18	0xbd914153	-0.07092538
19	0x3e4e31b1	0.20136143

weight f4 [20, 20]
0	0xbd5b8030	-0.053589046
1	0x3d403d67	0.046933558
2	0xbee371a4	-0.44422638
3	0xbe779478	-0.2417773
4	0x3c09cc5b	0.008410539
5	0xbd78db4a	-0.060756005
6	0x3e4a8ace	0.19779512
7	0xbcecd4f5	-0.02891014
8	0x3ea0a347	0.3137457
9	0x3e9e71c0	0.3094616
10	0x3cfd6c05	0.030935297
11	0xbd7d25ba	-0.061803557
12	0x3c7a33e7	0.015271164
13	0x3e15aa51	0.14615752
14	0xbdf005cd	-0.117198564
15	0x3e4952a8	0.19660437
16	0xbed1d131	-0.40979913
17	0x3eb5563c	0.35417354
18	0xbd9b8b91	-0.075949796
19	0xbd021f0d	-0.031767894
20	0x3e063e94	0.13109809
21	0x3ef34ebf	0.47521016
22	0x3e59c599	0.21266784
23	0x3e3ae281	0.18250467
24	0xbe8f8099	-0.280278
25	0x3e4346d7	0.19069992
26	0xbea60168	-0.32422948
27	0xbe80e13e	-0.25171846
28	0x3e8e47da	0.27789193
29	0x3dce0ad3	0.10060658
30	0x3e2e70ea	0.17035261
31	0xbdc0698a	-0.0939513
32	0xbe4e398a	-0.20139137
33	0xbdce3367	-0.10068398
34	0x3d87a4c8	0.066232264
35	0x3e4b4c68	0.19853365
36	0x3ec7c286	0.39015597
37	0x3d38530c	0.045001075
38	0x3e0f255d	0.13979097
39	0xbd227b84	-0.039668575
40	0xbecdc5bb	-0.4018992
41	0xbdb7ebe6	-0.08980541
42	0x3f06fd0f	0.52729887
43	0x3e694dc1	0.22783567
44	0x3e14eced	0.14543505
45	0x3d3841e9	0.04498473
46	0x3d197693	0.037466597
47	0x3e885386	0.26626223
48	0x3db8c704	0.09022334
49	0x3dd6b7ee	0.104843006
50	0xbd2cf88c	-0.04222922
51	0x3db3101d	0.08743308
52	0xbe8c6a98	-0.27425075
53	0xbd738d65	-0.059461016
54	0x3ede8600	0.4346161
55	0x3e84baa8	0.25923657
56	0x3d6ad17a	0.05732868
57	0x3d9ebbd7	0.07750671
58	0xbe3bf806	-0.18356332
59	0x3e71a9c4	0.23599917
60	0x3e81fc07	0.25387594
61	0x3dea8af9	0.11452288
62	0x3e65d459	0.22444285
63	0xbea55984	-0.32294858
64	0xbe7cb14b	-0.24677007
65	0xbe9817d6	-0.29705685
66	0xbeb2aa96	-0.34895772
67	0xbe5633c3	-0.20918183
68	0x3d7fb441	0.062427763
69	0x3e409dc1	0.18810178
70	0xbd16bc7a	-0.03680084
71	0x3e7c9bf9	0.24668874
72	0xbc1468d6	-0.009058198
73	0x3de4c257	0.1116988
74	0xbdd52193	-0.104067944
75	0x3e6909fe	0.22757718
76	0x3ec4ad9e	0.3841371
77	0xbdb9dbf8	-0.09075159
78	0xbeaf8254	-0.3427912
79	0xbf306b03	-0.68913287
80	0x3e791186	0.24323091
81	0x3d40706f	0.046982225
82	0x3cbca010	0.023025542
83	0x3e4d2762	0.20034555
84	0x3f4ac7d2	0.7921115
85	0xbe3fc3f5	-0.18727095
86	0x3ec1d324	0.378564
87	0x3e6cb9bb	0.23117726
88	0x3d8228a4	0.06355408
89	0x3da190b3	0.07888927
90	0xbe6e485e	-0.23269793
91	0xbd3cea0a	-0.046121635
92	0xbe534139	-0.20630349
93	0x3d2b6a31	0.04184932
94	0xbd600f46	-0.054702066
95	0xbf0ce609	-0.55038506
96	0xbe7752fe	-0.24152753
97	0x3dab30a8	0.0835889
98	0x3dd9bab4	0.10631314
99	0x3eb2e873	0.3494297
100	0x3e11b603	0.14229588
101	0xbe59aabd	-0.21256538
102	0xbe63763e	-0.22213075
103	0xbe897458	-0.26846576
104	0xbea5b647	-0.3236563
105	0x3ea0dc93	0.31418285
106	0x3ea0be31	0.31395105
107	0x3f189015	0.5959485
108	0xbe460d9b	-0.19341128
109	0xbe099426	-0.1343542
110	0x3eaa6db8	0.33286834
111	0x3e7adb6a	0.24497762
112	0xbf0f5a76	-0.5599741
113	0x3ec52548	0.38505006
114	0xbd60c00e	-0.054870658
115	0x3e1ff2ba	0.15619937
116	0xbdd052cd	-0.10172043
117	0xbdd5d622	-0.10441233
118	0xbd58ac64	-0.05289878
119	0x3e762400	0.2403717
120	0xbeae0816	-0.33990544
121	0x3e3b97b8	0.18319595
122	0xbe860824	-0.26178086
123	0xbe549153	-0.20758562
124	0x3cdcbaaf	0.026944486
125	0x3da49f19	0.08038158
126	0xbe0a5b06	-0.13511285
127	0xbd98e822	-0.07466151
128	0xbda8519f	-0.08218693
129	0xbef7e363	-0.4841567
130	0x3e05adb2	0.13054541
131	0xbe89f31e	-0.26943296
132	0x3c87d363	0.01658029
133	0xbe6d7d2d	-0.23192282
134	0xbe53cc77	-0.20683466
135	0xbeafe766	-0.3435623
136	0xbe9507a0	-0.2910738
137	0xbb8d7a10	-0.0043175295
138	0x3e5f013a	0.21777812
139	0xbcea4757	-0.02859847
140	0x3ecb2663	0.39677724
141	0xbeaebf3b	-0.34130272
142	0x3d6c3081	0.057663444
143	0x3e5b010b	0.21387117
144	0xbe9081c7	-0.28224012
145	0x397b5783	0.00023969826
146	0xbcda360b	-0.026637098
147	0xbe230346	-0.15919217
148	0xbe51c07a	-0.2048358
149	0xbe48f915	-0.19626267
150	0xbd0bf736	-0.034171306
151	0xbe3a1028	-0.18170226
152	0x3c4c4586	0.012467748
153	0x3e28faf1	0.16501977
154	0x3b8e6f1a	0.0043467404
155	0x3e2848b0	0.16433978
156	0x3de92ccc	0.113854975
157	0x3db946c2	0.09046699
158	0xbe44f7b2	-0.19235113
159	0xbe46bc6f	-0.19407819
160	0xbdc79d50	-0.09746802
161	0xbda057b0	-0.07829225
162	0xbdbee35c	-0.09320709
163	0xbd364c5d	-0.04450642
164	0x3a242cf2	0.0006262801
165	0x3b4b30aa	0.0031004348
166	0x3e7e1666	0.24813232
167	0xbc0e1612	-0.008672254
168	0x3da67ad8	0.08128899
169	0x3e8d755e	0.27628607
170	0xbdc6f2ef	-0.09714305
171	0x3dc34452	0.095345154
172	0xbe02cc19	-0.1277317
173	0x3e939829	0.28827026
174	0x3d36dbea	0.04464332
175	0xbf02096c	-0.50795627
176	0xbe593846	-0.21212873
177	0x3d9649d0	0.07338297
178	0xbc42b3d0	-0.011883691
179	0xbe819544	-0.25309193
180	0x3e9451f7	0.28968784
181	0x3eb8aa17	0.36067268
182	0xbeaf2c2a	-0.34213382
183	0xbeab1b8b	-0.3341945
184	0x3dd63920	0.104601145
185	0x3d4db339	0.05021975
186	0x3e5338fe	0.2062721
187	0x3eb5eb39	0.35531023
188	0xbe679e6a	-0.22619024
189	0xbe802f1a	-0.25035936
190	0xbe65678c	-0.22402781
191	0xbdd8f1fe	-0.10593031
192	0x3e82c443	0.2554036
193	0xbe070198	-0.13184202
194	0x3e28d478	0.164873
195	0x3e70a698	0.2350105
196	0x3db1fc7b	0.08690735
197	0x3de5bab9	0.11217255
198	0x3e107129	0.14105667
199	0xbd8ba7aa	-0.06819089
200	0x3d98f6e6	0.07468967
201	0xbe9de096	-0.30835408
202	0xbe3932c6	-0.18085775
203	0xbe2d6073	-0.16931324
204	0x3e961949	0.29316166
205	0xbe79b631	-0.24385907
206	0xbc922ee7	-0.01784463
207	0x3e14c6fc	0.14529032
208	0x3e4d9288	0.20075428
209	0x3dd91828	0.106003106
210	0xbe3987b7	-0.18118177
211	0xbeaec9ed	-0.34138432
212	0x3ccc6e75	0.024955014
213	0xbe2699dd	-0.16269632
214	0x3e5efe04	0.21776587
215	0xbc3d52d8	-0.011555396
216	0xbbe2620b	-0.0069086603
217	0xbe71e1b5	-0.23621257
218	0x3ee103cd	0.43948212
219	0x3e0f6b16	0.14005694
220	0x3d82f4c2	0.0639434
221	0xbe10ccc4	-0.14140612
222	0x3e7bb365	0.24580152
223	0xbe78548a	-0.24250999
224	0x3e7a0dea	0.2441937
225	0x3d04f892	0.032463618
226	0xbda6c448	-0.081429064
227	0x3a0d3c5e	0.00053877186
228	0x3e656974	0.22403508
229	0x3e4faf8b	0.20281808
230	0x3e736b79	0.23771466
231	0x3d135d45	0.03597762
232	0xbdaf8761	-0.08570743
233	0xbd2a5235	-0.041582305
234	0xb8ba874e	-8.8943736e-05
235	0xbe9deaea	-0.30843288
236	0xbe6a309f	-0.2287011
237	0x3b7bf796	0.0038447133
238	0x3ebc7753	0.36809787
239	0x3e1818f8	0.14853275
240	0xbe9fa724	-0.31182206
241	0x3d502733	0.050818633
242	0x3eee3112	0.46521813
243	0x3e7db91f	0.2477765
244	0x3e1a1e6c	0.15050668
245	0x3e4e0476	0.20118889
246	0x3df19c63	0.117974065
247	0x3d8fbc14	0.07018295
248	0xbef4d5f9	-0.47819498
249	0xbf12ff61	-0.5742093
250	0xbdbb6ca9	-0.09151585
251	0xbd831a91	-0.064015515
252	0x3ed77955	0.42084756
253	0xbeb2dc2c	-0.34933603
254	0x3e30e2c9	0.17274012
255	0xbcdd95bb	-0.027048936

bias f4 [20]
0	0xbcf34fad	-0.029701078
1	0xbd1be4d2	-0.038060017
2	0x3ebc7970	0.368114
3	0xbe546c18	-0.2074436
4	0xbc155ef9	-0.0091168815
5	0xbc90ce32	-0.017676447
6	0xbc9bc3fe	-0.019014355
7	0xbddfe928	-0.10933143
8	0x3e1f3d79	0.15550794
9	0x3aaa8e60	0.0013012402
10	0x3d3ef4a4	0.046620026
11	0x3e05d424	0.13069206
12	0x3d2805f0	0.041021287
13	0xbc7ef46b	-0.0155612035
14	0xbde1d580	-0.1102705
15	0x3db1328c	0.08652219
16	0xbe60b028	-0.21942198
17	0xbcc4be91	-0.02401665
18	0xbd889e9f	-0.066708796
19	0xbce37fa2	-0.027770821
