Trained/Iter_01/Models_01/Noise_5/simulation_nostop/internal_o3.pt (torch, 46879 bytes, 23 tensors)

weight f4 [20, 2]
-0.057178266 0.04239805 -0.3039094 0.12477606 -0.2542624 -0.14852479 0.03946787 0.12463871
0.002492271 -0.14471142 0.33786458 -0.12602465 -0.14748952 0.17650601 0.082665294 -0.26867995
-0.050455194 0.04941116 -0.28359234 0.23230185 0.04052442 0.15977229 0.0444486 0.17140187
0.012802546 -0.12555039 -0.15933542 0.083853394 0.13524295 -0.28732878 0.30346602 -0.16187944
0.35667747 -0.3980828 -0.29998428 -0.029429173 0.015284185 -0.13744204 0.036580093 0.055252347
00000000: c233 6abd 94a9 2d3d 039a 9bbe 978a ff3d
00000010: ae2e 82be e216 18be 10a9 213d 9442 ff3d
00000020: 5e55 233b 3b2f 14be 96fc ac3e 9b0c 01be
00000030: 7e07 17be febd 343e 6c4c a93d 6b90 89be
00000040: 1baa 4ebd 5b63 4a3d 0433 91be 89e0 6d3e
00000050: effc 253d 599b 233e bc0f 363d f983 2f3e
00000060: c5c1 513c 4890 00be d328 23be 54bb ab3d
00000070: 217d 0a3e c21c 93be e65f 9b3e b9c3 25be
00000080: 6e9e b63e 82d1 cbbe 8a97 99be 7315 f1bc
00000090: 856a 7a3c 9bbd 0cbe 02d5 153d 4950 623d

bias f4 [20]
0.09259124 0.17361856 0.09120379 0.053954344 -0.057045538 -0.28538963 -0.1373115 0.13323268
0.14313751 -0.10939497 0.13849983 -0.15324344 -0.26396865 0.24511746 -0.33777854 -0.43036783
-0.21035878 0.02278606 -0.19819267 0.032504626
00000000: 7aa0 bd3d 10c9 313e 0dc9 ba3d 3bff 5c3d
00000010: 95a8 69bd 971e 92be 639b 0cbe 266e 083e
00000020: a492 123e 780a e0bd e6d2 0d3e d9eb 1cbe
00000030: e626 87be 1200 7b3e 4ff1 acbe 2c59 dcbe
00000040: 4b68 57be d5a9 ba3c 05f3 4abe 9223 053d

weight f4 [20, 20]
0.23926716 0.1668591 -0.17628324 0.099869184 0.0640284 -0.024237012 0.16614893 0.06998088
0.36323932 0.3356528 0.32699463 0.061878063 0.22709388 0.14390217 0.4796097 -0.2833162
-0.04549225 -0.1562822 -0.12144497 0.07647649 0.23949322 0.1601102 0.008323561 -0.08527448
-0.06534314 -0.4090745 -0.43683377 -0.15011688 0.18982908 -0.052933637 -0.06990117 -0.08055735
-0.14518559 0.11476855 -0.15640822 0.12048258 0.2819066 0.10256889 0.05668452 0.0056283656
0.32947138 0.15022032 -0.22659779 -0.51746166 0.58683026 -0.09550078 -0.042861883 0.19811544
0.20037043 -0.24392678 -0.19165175 0.19700173 -0.28901154 -0.0099083 -0.046155613 -0.039154284
-0.035779115 -0.06503901 0.037099846 -0.46431231 0.20900306 0.052842665 -0.19931324 0.12303435
0.17702243 0.21417047 -0.32081884 0.18291925 -0.17402655 0.09965383 0.09325795 0.15104015
0.3512286 0.019767031 0.07589538 -0.0061939005 -0.176135 0.008490551 0.19752902 0.2307622
0.36474863 -0.00553778 0.058420498 -0.02080701 -0.29762593 -0.28564757 0.12712689 0.37068802
-0.013723428 -0.10019113 0.14797108 -0.029942885 -0.08000596 -0.16089898 -0.1790289 0.24759185
-0.5419497 0.0486569 0.013648211 0.29015303 -0.067353316 0.10786295 0.25612372 -0.08402564
0.19101375 0.2331355 -0.1783791 -0.1096014 -0.0070998706 -0.2122328 0.093270354 -0.09008957
-0.22093032 -0.21493879 0.6008327 0.040197898 -0.22894281 0.048407216 0.17583995 0.2774673
-0.42694864 -0.03403948 0.039022435 -0.0435653 -0.12861617 -0.5260394 0.1961785 0.076369494
0.25571457 -0.26841676 0.15926477 -0.1491181 0.030471265 -0.028313207 0.23121434 0.10441409
-0.1970255 -0.22492349 0.07787414 -0.17005858 0.20443705 0.42871022 0.18570504 -0.006836938
0.28659502 0.13947126 -0.41567817 0.12442301 -0.036138784 -0.05436384 0.09907186 0.14027585
0.26512238 -0.29539335 -0.00030000726 -0.21281025 -0.1935984 -0.1714517 -0.20281725 0.24310303
0.11119108 -0.21527368 -0.14030325 0.15135956 -0.26569697 0.24437982 -0.21336499 -0.1378342
-0.2608668 -0.13237455 0.13250697 0.14359953 0.13030735 -0.11428134 0.060974807 0.50234437
0.16122864 0.15933734 0.14740431 -0.18869683 0.12117607 0.01705238 0.35908142 0.0010601355
0.48148128 0.25971028 0.16305445 0.16079183 0.43272367 0.13775884 0.10033862 -0.2799389
-0.071560964 0.25359857 -0.13797778 -0.006506296 0.2495814 0.0033114052 -0.21238454 0.033405982
-0.04712824 0.15164465 -0.08886636 0.041467424 -0.18718973 -0.098289534 -0.25417185 0.10203129
0.320578 -0.55483097 -0.038570073 -0.17635806 -0.4272931 -0.1981627 0.023126809 0.12977791
-0.18831216 0.37157243 0.1761828 -0.22570577 -0.37927595 0.16710557 0.3004568 0.15994292
-0.12958106 0.030111501 0.033849694 -0.16188756 -0.22416349 0.36254933 0.10999409 0.46560654
-0.09422653 -0.0819714 0.20413359 -0.22331008 -0.10392305 0.16363975 0.20369324 0.020855453
-0.35971668 0.139527 0.1534306 0.08638971 -0.29481646 0.3103145 0.007358366 -0.22261111
0.16086526 0.23446645 -0.13162534 0.2696382 0.17540579 -0.061571367 -0.018281665 0.012567163
00000000: 7302 753e 1ddd 2a3e 9883 34be 3788 cc3d
00000010: 5221 833d b38c c6bc f222 2a3e 2352 8f3d
00000020: 81fa b93e afda ab3e d76b a73e da73 7d3d
00000030: 4c8b 683e 175b 133e 678f f53e d20e 91be
00000040: 1556 3abd 7108 20be 24b8 f8bd b59f 9c3d
00000050: b63d 753e eef3 233e 8c5f 083c 63a4 aebd
00000060: a0d2 85bd 3672 d1be ada8 dfbe 3db8 19be
00000070: 8e62 423e f1d0 58bd 5828 8fbd 40fb a4bd
00000080: 88ab 14be c60b eb3d 7a29 20be 92bf f63d
00000090: 1056 903e a30f d23d 072e 683d 276e b83b
000000a0: 79b0 a83e 5bd3 193e 4009 68be 5e78 04bf
000000b0: 823a 163f ea95 c3bd f18f 2fbd c6de 4a3e
000000c0: e82d 4d3e f1c7 79be 5b40 44be d2ba 493e
000000d0: 52f9 93be 6c56 22bc ab0d 3dbd 3e60 20bd
000000e0: 1f8d 12bd 2c33 85bd 02f6 173d 58ba edbe
000000f0: e604 563e 8d71 583d c518 4cbe 6ff9 fb3d
00000100: 5e45 353e 814f 5b3e 5e42 a4be 2f4f 3b3e
00000110: 0434 32be 4f17 cc3d 06fe be3d 45aa 1a3e
00000120: 3cd4 b33e 78ee a13c 096f 9b3d 34f6 cabb
00000130: bc5c 34be f41b 0b3c 0c45 4a3e ed4c 6c3e
00000140: 55c0 ba3e 4476 b5bb 554a 6f3d 7673 aabc
00000150: 6d62 98be 6640 92be 8d2d 023e d2ca bd3e
00000160: 3bd8 60bc 0231 cdbd bb85 173e c84a f5bc
00000170: 2ada a3bd b4c2 24be 5a53 37be b888 7d3e
00000180: 37bd 0abf 754c 473d bf9c 5f3c f08e 943e
00000190: 89f0 89bd 40e7 dc3d a622 833e a215 acbd
000001a0: 1c99 433e 13bb 6e3e 03a9 36be b376 e0bd
000001b0: 08a6 e8bb 8e53 59be 8704 bf3d e180 b8bd
000001c0: 8f3b 62be ea18 5cbe 2cd0 193f 8da6 243d
000001d0: fc6f 6abe a546 463d 630f 343e 3210 8e3e
000001e0: 0399 dabe fb6c 0bbd fdd5 1f3d 8771 32bd
000001f0: f5b3 03be 85aa 06bf 04e3 483e 9c67 9c3d
00000200: 05ed 823e ec6d 89be 4e16 233e 6ab2 18be
00000210: e09e f93c 19f1 e7bc 74c3 6c3e 0ed7 d53d
00000220: 0dc1 49be 5852 66be 7a7c 9f3d d623 2ebe
00000230: f257 513e e87f db3e 7629 3e3e 6508 e0bb
00000240: 95bc 923e 8ed1 0e3e c5d3 d4be 7ed1 fe3d
00000250: 4306 14bd 9eac 5ebd 30e6 ca3d 79a4 0f3e
00000260: 1fbe 873e cc3d 97be 4b4a 9db9 eeea 59be
00000270: a93e 46be 0991 2fbe 53af 4fbe 00f0 783e
00000280: 26b8 e33d b470 5cbe a8ab 0fbe 00fe 1a3e
00000290: 6f09 88be b43e 7a3e 5a7c 5abe 6924 0dbe
000002a0: 5590 85be 328d 07be e8af 073e c10b 133e
000002b0: 4a6f 053e 560c eabd b8c0 793d a499 003f
000002c0: 1f19 253e 5429 233e 28f1 163e be39 41be
000002d0: 292b f83d 6fb1 8b3c 85d9 b73e 3ff4 8a3a
000002e0: b784 f63e bff8 843e bff7 263e 9da6 243e
000002f0: f58d dd3e a710 0d3e 567e cd3d 2754 8fbe
00000300: 8e8e 92bd acd7 813e 0c4a 0dbe c432 d5bb
00000310: 4492 7f3e 2904 593b 557b 59be b6d4 083d
00000320: 8b09 41bd bc48 1b3e 91ff b5bd bfd9 293d
00000330: aaae 3fbe 064c c9bd d022 82be c8f5 d03d
00000340: cd22 a43e 6709 0ebf a7fb 1dbd 3597 34be
00000350: 29c6 dabe 2aeb 4abe 6f74 bd3c 80e4 043e
00000360: e7d4 40be be3e be3e 4469 343e 6a1f 67be
00000370: 7530 c2be b91d 2b3e 79d5 993e 14c8 233e
00000380: e6b0 04be 65ac f63c faa5 0a3d dac5 25be
00000390: 1d8b 65be 11a0 b93e 9544 e13d fb63 ee3e
000003a0: d7f9 c0bd 9fe0 a7bd 6508 513e 66ab 64be
000003b0: 9cd5 d4bd 2e91 273e f694 503e 0ed9 aa3c
000003c0: c92c b8be 2ae0 0e3e e91c 1d3e 17ed b03d
000003d0: 2ff2 96be 8be1 9e3e 731e f13b 2bf4 63be
000003e0: ddb9 243e f917 703e cbc8 06be 050e 8a3e
000003f0: 939d 333e 4232 7cbd 6ec3 95bc 81e6 4d3c

bias f4 [20]
0.08985209 0.10159896 -0.05568917 0.026452564 -0.029386813 -0.03234706 0.003671405 0.031866863
-0.21964052 0.002947743 0.17256208 -0.029105052 -0.009896182 -0.009732356 -0.10770405 -0.32595137
-0.051078998 -0.11243592 0.179357 0.07434161
00000000: 5f04 b83d 1e13 d03d 541a 64bd 0cb3 d83c
00000010: 9dbc f0bc 5a7e 04bd f49b 703b d486 023d
00000020: 72e9 60be ec2e 413b 1db4 303e b86d eebc
00000030: 9923 22bc 7674 1fbc f193 dcbd 19e3 a6be
00000040: 3638 51bd ce44 e6bd 5da9 373e 6a40 983d

weight f4 [20, 20]
0.20776586 -0.21587107 0.045444466 0.16916487 -0.16885322 -0.15796746 0.15683408 0.3767928
-0.6436939 0.20556743 0.20318492 0.31147173 0.17098707 0.1801576 0.3015253 -0.18632084
0.38224977 -0.1413742 0.2077943 -0.30190736 0.2767346 0.026394045 0.059428863 0.0029531652
0.07930383 0.27569723 0.21319145 -0.26555663 -0.09376952 0.17140839 -0.20855695 0.36949605
-0.03397556 0.0011831442 -0.087631285 0.33127585 -0.06748401 0.38992348 0.3470403 -0.041650046
-0.2590186 -0.054968428 -0.041702196 -0.24062246 0.1959676 0.116589226 0.30858022 0.016414654
0.13518119 0.20699239 -0.15724286 -0.2213056 -0.13040382 0.102196544 -0.00010299184 0.36130357
0.2082441 0.042457864 -0.21122505 0.070341304 0.28427485 0.08430371 -0.2756118 -0.101206556
-0.35304758 -0.267403 -0.538253 -0.4724244 -0.18202865 -0.20589857 0.06054183 0.02343596
-0.082775764 0.08989577 -0.1253511 0.3325686 -0.08264435 -0.09843502 0.13500673 0.41622242
0.3099715 -0.063006334 0.07548791 -0.014121888 0.27890313 -0.25620538 -0.13747561 -0.15289332
0.17836532 -0.03329216 -0.3859045 -0.3210802 -0.060158588 -0.5889592 0.49635383 0.12760288
-0.25535187 -0.24992839 0.33675066 0.19882502 -0.16915019 -0.065010704 0.0057807188 -0.16997525
-0.24969324 -0.024192702 0.06013855 -0.41019672 0.1377733 -0.026316073 -0.14136742 -0.04589946
0.4421433 0.14119396 0.3954609 -0.003692211 0.006414252 0.16409415 0.17032014 -0.4873752
0.24676596 -0.023485558 0.0466725 0.22590552 0.082159035 -0.037794024 -0.20367324 0.24176942
-0.040540565 0.07559443 0.20388345 0.13500243 -0.15429612 0.3009497 -0.20986171 0.3192255
0.15981922 -0.5895562 -0.18716268 0.105954 -0.11489933 0.17984968 -0.074307814 0.22489712
-0.04261292 -0.051810913 -0.1951337 0.29308435 0.34520832 0.13062808 0.15980697 -0.12604558
-0.10636096 -0.0833752 0.06924766 0.16243571 -0.16297835 0.36582935 0.03399093 0.057343084
-0.111848034 -0.08382407 -0.2314958 0.44170636 0.2668044 0.1916799 -0.011539898 0.014538426
0.20623258 0.057879083 -0.057729665 0.28150612 -0.2763712 -0.35758045 0.24566703 -0.1073163
-0.03244814 -0.18205197 0.28823185 -0.26297548 0.48346442 -0.1780116 -0.3354304 -0.033306625
-0.3006014 0.2299557 -0.27771094 0.07502882 -0.015599953 0.020349786 0.19858652 0.15562487
-0.081886694 -0.022284608 -0.18671028 0.33814386 -0.021315357 0.067260325 0.119107425 -0.29712474
0.19220087 0.022218315 0.14688097 -0.010333919 0.038323708 0.101577036 0.1000894 -0.10560025
-0.13810423 0.1602059 -0.19434299 0.13039435 0.0048934217 0.22430632 -0.35648197 0.2659786
0.095353134 -0.32012168 -0.09396436 -0.24690206 0.023249794 0.103518285 -0.14306846 -0.19946107
0.17788652 -0.25338975 0.05534525 -0.07580139 -0.381016 0.16735196 -0.15832226 -0.07629674
0.28868997 0.30878305 -0.023414385 0.29978523 0.030382816 0.6812213 -0.11650052 0.041220233
-0.32885832 0.0993877 -0.18502711 0.0046352227 0.17510949 -0.28195462 -0.06297494 0.33067983
0.022382345 0.09714995 0.06046815 -0.09216569 -0.27695444 -0.4214551 0.20567253 -0.67324215
00000000: 93c0 543e 4e0d 5dbe fa23 3a3d 8e39 2d3e
00000010: dce7 2cbe 39c2 21be 1d99 203e fcea c03e
00000020: 20c9 24bf 4580 523e b50f 503e 3979 9f3e
00000030: 3c17 2f3e 3c7b 383e 8661 9a3e e4ca 3ebe
00000040: 3eb6 c33e 66c4 10be 07c8 543e 9a93 9abe
00000050: 28b0 8d3e 5338 d83c ae6b 733d e489 413b
00000060: 0c6a a23d 3028 8d3e dc4e 5a3e 0af7 87be
00000070: 3c0a c0bd ae85 2f3e f48f 55be 962e bd3e
00000080: f529 0bbd bb13 9b3a 0878 b3bd fd9c a93e
00000090: 0e35 8abd 0da4 c73e 44af b13e 3d99 2abd
000000a0: 169e 84be 9326 61bd eccf 2abd bc65 76be
000000b0: bbab 483e 55c6 ee3d 3afe 9d3e 0678 863c
000000c0: f06c 0a3e d0f5 533e 4604 21be ef9d 62be
000000d0: 9488 05be 6c4c d13d 53fd d7b8 c8fc b83e
000000e0: f13d 553e 4ce8 2d3d 614b 58be 1a0f 903d
000000f0: 798c 913e 6ca7 ac3d fd1c 8dbe 6245 cfbd
00000100: a7c2 b4be 0ce9 88be f3ca 09bf 9ce1 f1be
00000110: b865 3abe 13d7 52be b6fa 773d c5fc bf3c
00000120: 5786 a9bd 461b b83d 0a5c 00be 6e46 aa3e
00000130: 7141 a9bd 4d98 c9bd 343f 0a3e 1b1b d53e
00000140: 96b4 9e3e 7709 81bd 6899 9a3d 7e5f 67bc
00000150: 64cc 8e3e 5a2d 83be 68c6 0cbe 1190 1cbe
00000160: 66a5 363e 5c5d 08bd 4695 c5be a064 a4be
00000170: da68 76bd 08c6 16bf 1722 fe3e 54aa 023e
00000180: 7bbd 82be 3aed 7fbe 956a ac3e c998 4b3e
00000190: b535 2dbe 5524 85bd 2f6c bd3b fe0d 2ebe
000001a0: 96af 7fbe c62f c6bc d753 763d 4e05 d2be
000001b0: 7214 0d3e ce94 d7bc 9fc2 10be 1201 3cbd
000001c0: 9b60 e23e 2695 103e da79 ca3e 05f9 71bb
000001d0: a52e d23b 4c08 283e 6768 2e3e 3e89 f9be
000001e0: 37b0 7c3e c964 c0bc aa2b 3f3d c753 673e
000001f0: ff42 a83d e8cd 1abd b88f 50be 6792 773e
00000200: dd0d 26bd 41d1 9a3d d3c6 503e 143e 0a3e
00000210: cdff 1dbe 1416 9a3e fde5 56be 8671 a33e
00000220: a6a7 233e 28ed 16bf 93a7 3fbe 69fe d83d
00000230: 5750 ebbd 842a 383e b22e 98bd 6e4b 663e
00000240: e38a 2ebd ae37 54bd 21d1 47be 270f 963e
00000250: 25bf b03e 5ec3 053e 70a4 233e 1812 01be
00000260: c6d3 d9bd 9ec0 aabd b8d1 8d3d 8c55 263e
00000270: cce3 26be fc4d bb3e 133a 0b3d 95e0 6a3d
00000280: 9510 e5bd f4ab abbd 3c0d 6dbe 5627 e23e
00000290: 969a 883e bc47 443e d711 3dbc 9432 6e3c
000002a0: a22e 533e 9e12 6d3d f175 6cbd 9221 903e
000002b0: 8780 8dbe c914 b7be 2390 7b3e a6c8 dbbd
000002c0: 57e8 04bd d56b 3abe 2093 933e b9a4 86be
000002d0: a688 f73e ac48 36be 89bd abbe 876c 08bd
000002e0: 6de8 99be 8279 6b3e 2130 8ebe b6a8 993d
000002f0: f296 7fbc 98b4 a63c 445a 4b3e 205c 1f3e
00000300: 36b4 a7bd 368e b6bc fb30 3fbe 3121 ad3e
00000310: 8b9d aebc c8bf 893d 98ee f33d bc20 98be
00000320: 4ed0 443e 2f03 b63c f767 163e 994f 29bc
00000330: 52f9 1c3d 9f07 d03d acfb cc3d f244 d8bd
00000340: 326b 0dbe 040d 243e d901 47be 1986 053e
00000350: ff58 a03b 8eb0 653e ce84 b6be 592e 883e
00000360: 8148 c33d fde6 a3be 6370 c0bd e5d3 7cbe
00000370: 5a76 be3c 6501 d43d 8a80 12be 863f 4cbe
00000380: e227 363e 4dbc 81be b3b1 623d c23d 9bbd
00000390: 8714 c3be 505e 2b3e 3b1f 22be 7741 9cbd
000003a0: 2ccf 933e d018 9e3e 86cf bfbc 737d 993e
000003b0: 62e5 f83c 8564 2e3f d397 eebd 8cd6 283d
000003c0: 1e60 a8be c78b cb3d bf77 3dbe 11e3 973b
000003d0: e74f 333e 5b5c 90be 01f9 80bd de4e a93e
000003e0: 2e5b b73c 8ef6 c63d 73ad 773d 5ec1 bcbd
000003f0: f9cc 8dbe f6c8 d7be d29b 523e 9959 2cbf

bias f4 [20]
0.17439707 -0.11810814 -0.057054877 0.103580706 -0.092320256 -0.035214562 0.010489251 -0.0014752442
0.01721054 0.027311392 0.004817165 0.027026426 0.106783174 -0.031029707 -0.01747785 0.12466392
-0.06308365 -0.2044245 -0.049443215 -0.102337204
00000000: 2595 323e aee2 f1bd 60b2 69bd 1f22 d43d
00000010: 6712 bdbd 253d 10bd 1cdb 2b3c fb5c c1ba
00000020: 1efd 8c3c 24bc df3c 4fd9 9d3b 8666 dd3c
00000030: 23b1 da3d 0332 febc b52d 8fbc cc4f ff3d
00000040: 0032 81bd a854 51be f884 4abd 2b96 d1bd

weight f4 [20, 20]
-0.016659364 0.15566163 0.30695155 -0.18238242 0.5907484 0.0006100687 0.32100058 -0.2562937
0.24261011 0.043111328 0.1772433 0.018929662 0.10410051 0.2541871 -0.15805025 0.1481283
0.1662162 0.40754026 0.2617842 -0.06208958 -0.10231887 0.044089023 -0.17505796 -0.057837207
0.24274513 0.3186084 0.2967909 -0.011259154 -0.093273416 -0.010655165 -0.3050541 -0.24213398
-0.25331026 0.4387495 -0.28555322 -0.24384679 0.30427662 0.35508955 -0.2832094 0.23368494
-0.4368744 -0.3647358 0.18598752 -0.12899928 -0.3731059 0.21581009 -0.50659287 0.19133101
0.22706214 0.50049216 -0.17368111 -0.14153954 -0.033324867 0.01847976 0.06104269 -0.21631885
-0.28323227 0.47722492 -0.038094636 0.31752506 -0.13325258 -0.07062122 -0.13179122 0.14161943
-0.05264359 -0.15046121 0.1581547 0.17725153 0.06101038 0.15170331 0.2628325 -0.53074485
0.07161589 0.2666891 0.008083958 0.042938907 -0.1955932 0.5945535 0.056416467 -0.46469408
0.280677 -0.30184075 -0.2769117 -0.08572359 0.1545101 0.13578036 -0.124366716 0.016179087
0.044375733 -0.3385149 0.10783002 0.015345436 0.10356072 0.19316548 -0.18116103 -0.040790245
-0.18449107 -0.26159623 -0.510452 0.028581334 0.09844495 -0.012124844 0.05592494 0.22462118
0.17900753 0.005331222 -0.2087669 -0.0032637562 0.2244003 0.15322511 -0.19908573 -0.29539806
-0.14229223 0.23458582 -0.25908273 -0.09200095 -0.19601785 -0.08886027 0.42464343 0.14042944
-0.1503421 0.32670033 0.03645163 -0.17721702 -0.3654478 0.31976604 0.016255997 -0.09816257
-0.200473 0.20094992 -0.19289765 -0.43177474 0.27381665 -0.29056266 0.20143065 0.081997365
0.55675524 0.1258564 -0.09689204 -0.25280216 -0.33997473 -0.054953553 -0.40265426 0.2025263
-0.6113612 0.41819322 0.2684708 0.21779492 -0.08419924 -0.14754781 0.40859458 -0.23450407
0.29942903 -0.35518524 -0.22789292 0.11636103 -0.069281094 -0.24490243 -0.40012935 -0.14869104
0.25589478 -0.068938166 -0.23292369 -0.31176993 0.18108857 0.118085414 -0.20723742 -0.1493468
0.026428921 -0.14819364 0.06856739 -0.14034146 0.24944285 0.15537755 0.17225096 -0.03371446
-0.18383706 -0.20605208 0.15345694 -0.040329803 0.3259798 0.11811688 0.052967828 -0.18439984
-0.11529333 -0.077366985 -0.2088526 0.1616341 -0.066721074 0.33735058 -0.21675833 -0.076191746
-0.3678779 0.1660958 0.39567235 -0.29925767 -0.14312132 -0.47930828 -0.0812315 0.039758142
0.05657612 0.2511165 0.15613274 0.2847129 -0.15396538 0.14143148 -0.005340021 0.018984484
0.35968012 0.08232884 -0.26922113 -0.1018047 0.243787 0.29275978 0.16953442 -0.3464473
-0.16850406 -0.5073605 -0.0021534134 -0.02936854 -0.04077634 0.15002948 -0.012407519 -0.22908318
-0.108806595 0.15588662 0.039438732 -0.12553845 -0.24298234 -0.27456465 -0.17102002 -0.14064333
-0.15807986 -0.24058709 -0.021888532 0.1293389 0.11325894 0.28820077 -0.324103 0.26715517
0.19408073 -0.0071522375 0.08883993 0.0447251 -0.1387023 -0.39204243 0.13424952 -0.32591245
0.18020737 -0.06697207 -0.036871027 -0.14299186 -0.10949034 -0.10462349 0.15130286 0.4459319
00000000: 3879 88bc c365 1f3e c128 9d3e 75c2 3abe
00000010: 4a3b 173f 04ed 1f3a 305a a43e ee38 83be
00000020: c96e 783e 8195 303d 457f 353e 6112 9b3c
00000030: a632 d53d d024 823e edd7 21be f2ae 173e
00000040: 9434 2a3e 1ea9 d03e 9408 863e a551 7ebd
00000050: 8e8c d1bd b196 343d 6542 33be b5e6 6cbd
00000060: 2e92 783e a420 a33e faf4 973e 5178 38bc
00000070: 2206 bfbd 0093 2ebc 0d30 9cbe f8f1 77be
00000080: e2b1 81be c6a3 e03e 0834 92be f9b2 79be
00000090: 25ca 9b3e 4cce b53e d300 91be 1b4b 6f3e
000000a0: 00ae dfbe a7be babe 8373 3e3e 6318 04be
000000b0: bd07 bfbe 52fd 5c3e 12b0 01bf 47ec 433e
000000c0: fa82 683e 4120 003f 76d9 31be beef 10be
000000d0: a87f 08bd de62 973c e607 7a3d b082 5dbe
000000e0: d203 91be d356 f43e 1f09 1cbd a592 a23e
000000f0: 5d73 08be dca1 90bd 47f4 06be af04 113e
00000100: cea0 57bd 8112 1abe 4ef3 213e 6d81 353e
00000110: 05e6 793d 1d58 1b3e fb91 863e e5de 07bf
00000120: 5aab 923d 798b 883e 9472 043c b5e0 2f3d
00000130: 9549 48be a834 183f f414 673d 62ec edbe
00000140: e5b4 8f3e df8a 9abe 5fc7 8dbe d98f afbd
00000150: e537 1e3e 020a 0b3e fab3 febd 018a 843c
00000160: 54c3 353d d351 adbe fcd5 dc3d 6c6b 7b3c
00000170: a517 d43d 2ccd 453e 4782 39be ac13 27bd
00000180: 3aeb 3cbe f1ef 85be fbac 02bf 6723 ea3c
00000190: 829d c93d 48a7 46bc 8d11 653d 1803 663e
000001a0: c04d 373e 88b1 ae3b fdc6 55be bee4 55bb
000001b0: 31c9 653e 0be7 1c3e 21dd 4bbe 6a3e 97be
000001c0: 0eb5 11be 4437 703e 7ea6 84be fe6a bcbd
000001d0: e7b8 48be 60fc b5bd dd6a d93e bccc 0f3e
000001e0: 48f3 19be 4445 a73e 4e4e 153d 6178 35be
000001f0: f91b bbbe 60b8 a33e 4c2b 853c 7509 c9bd
00000200: cb48 4dbe d1c5 4d3e f686 45be 9411 ddbe
00000210: b231 8c3e a1c4 94be d643 4e3e 3cee a73d
00000220: 8387 0e3f 80e0 003e 556f c6bd 496f 81be
00000230: 2b11 aebe fa16 61bd b328 cebe 0e63 4f3e
00000240: 2b82 1cbf 6c1d d63e 0175 893e a205 5f3e
00000250: a770 acbd c616 17be 4f33 d13e d621 70be
00000260: c34e 993e d7da b5be c35c 69be b14e ee3d
00000270: 3fe3 8dbd b4c7 7abe c1dd ccbe 7742 18be
00000280: a404 833e 742f 8dbd 8c83 6ebe 4fa0 9fbe
00000290: 486f 393e c4d6 f13d 0c36 54be 5eee 18be
000002a0: 7781 d83c 13c0 17be 0f6d 8c3d acb5 0fbe
000002b0: f26d 7f3e 4b1b 1f3e 8e62 303e 2c18 0abd
000002c0: c83f 3cbe 51ff 52be d123 1d3e dd30 25bd
000002d0: d3e6 a63e 43e7 f13d cbf4 583d 50d3 3cbe
000002e0: e91e ecbd 9572 9ebd 75dd 55be 6983 253e
000002f0: 0fa5 88bd 37b9 ac3e e5f5 5dbe 6b0a 9cbd
00000300: 7e5a bcbe 0415 2a3e 9195 ca3e 4d38 99be
00000310: 658e 12be e567 f5be b35c a6bd 6fd9 223d
00000320: 5dbc 673d 5892 803e 43e1 1f3e e4c5 913e
00000330: 1aa9 1dbe 6ad3 103e 58fb aebb 5985 9b3c
00000340: fe27 b83e 069c a83d 5ad7 89be fc7e d0bd
00000350: 4da3 793e 9ce4 953e 6e9a 2d3e 8a61 b1be
00000360: 548c 2cbe 61e2 01bf 4820 0dbb 4b96 f0bc
00000370: 1705 27bd 54a1 193e e848 4bbc c894 6abe
00000380: fed5 debd bea0 1f3e 828a 213d 278d 00be
00000390: 5dd0 78be bd93 8cbe df1f 2fbe ce04 10be
000003a0: b0df 21be 765c 76be 944f b3bc 6b71 043e
000003b0: 4ef4 e73d 0d8f 933e d4f0 a5be 90c8 883e
000003c0: 19bd 463e 515d eabb b6f1 b53d ab31 373d
000003d0: fa07 0ebe c9b9 c8be b578 093e ffdd a6be
000003e0: 4888 383e a728 89bd 1306 17bd 756c 12be
000003f0: 793c e0bd d744 d6bd 23ef 1a3e 3051 e43e

bias f4 [20]
-0.0692016 -0.13934267 -0.052421946 0.0052384753 0.069299355 0.056078143 -0.036620256 0.0017947465
0.063187346 0.013083331 0.10633972 -0.031032788 0.09323524 0.03200744 0.11231649 -0.0004451441
0.08226196 -0.0204851 0.037543256 -0.16037627
00000000: 92b9 8dbd d8af 0ebe 65b8 56bd 84a7 ab3b
00000010: d2ec 8d3d 32b2 653d 1fff 15bd b33d eb3a
00000020: 5e68 813d 785b 563c a4c8 d93d 7938 febc
00000030: 1ef2 be3d 3c1a 033d 3006 e63d 3b62 e9b9
00000040: f578 a83d 5ed0 a7bc f5c6 193d ad39 24be

weight f4 [20, 20]
0.24501476 0.13054708 0.05481247 -0.07253301 0.23630324 0.030491589 -0.024505382 -0.082153656
0.40817422 0.02838569 -0.1204171 0.23531708 0.16899662 -0.23618081 0.13102388 -0.2212796
0.25569826 -0.115366794 -0.20737046 -0.081632994 0.016224531 -0.19314139 0.19046676 -0.09723028
-0.11754251 -0.07341028 -0.008348436 -0.25512117 0.33535907 -0.18969141 -0.010567359 -0.18160218
-0.1648726 0.033842437 -0.32576066 -0.37189898 -0.10136021 0.36937064 0.12367419 -0.00631679
0.30468854 0.16647495 -0.23123313 0.10677757 -0.41815373 -0.1935566 -0.02820146 0.082216755
-0.06213233 0.03504655 -0.007939475 -0.076744795 0.0584636 0.42465457 -0.022839626 -0.006402678
0.059976146 -0.28109306 -0.31124672 -0.0048284796 -0.052377284 0.31613722 0.15322421 0.051743604
0.15458697 -0.23811658 -0.04222302 0.09218822 -0.07606756 -0.21336152 -0.18074737 -0.047911018
0.34561086 0.21341851 0.1300922 0.25690058 -0.122027166 0.27183828 0.0044691004 0.27101132
-0.28017128 0.0038860312 0.40127808 0.15800941 0.07449121 -0.09189475 -0.022368738 -0.16870391
0.14011997 -0.17209877 -0.21901137 0.046636328 -0.25529772 -0.12696928 -0.35191935 0.17314643
-0.14928053 0.11354027 -0.07187196 -0.11552213 -0.400733 -0.02021386 0.13723148 -0.112162754
0.23610131 0.07025477 -0.3686204 -0.043458093 0.08075084 0.030657683 -0.17876768 -0.4365791
-0.15956634 0.20952094 -0.008695263 0.5406389 -0.09006636 -0.016907426 -0.21991612 -0.3342788
0.25030273 0.0018451319 0.018368648 -0.036054097 -0.4495548 0.16086175 -0.12165863 0.10252326
0.01794479 0.22041951 -0.24168426 -0.0663184 0.0020438521 0.0693406 0.17497157 -0.0018363141
0.14015171 0.15148702 0.011678178 0.09695733 -0.21578316 0.033134054 0.17685303 0.027130853
0.15048847 -0.17769611 0.08262885 0.007645114 -0.018045776 0.0789942 -0.08334029 -0.061028138
0.22104515 -0.085882105 -0.17207916 -0.11875925 -0.30492032 -0.021496605 0.008309055 0.13294087
-0.26193574 -0.21411328 -0.019163543 0.17259665 -0.09349234 -0.31182134 -0.024307009 -0.35206312
-0.12983468 0.25042227 0.1734519 -0.22118959 -0.104965284 0.26644638 0.031794462 0.013200634
-0.13852988 -0.20749071 0.010772797 0.05862024 -0.038555607 0.21953219 0.27788943 -0.12315967
-0.08611053 -0.117982976 -0.13057579 0.317968 -0.059584163 -0.16194907 -0.0083991 0.02671256
-0.4093278 0.3819125 -0.17577313 -0.13076048 -0.13227184 0.29905018 -0.014378551 0.1557267
-0.09316433 -0.21741109 0.37712553 0.30007088 -0.13200104 0.3150292 -0.09721009 -0.23511998
0.15575096 -0.36130106 0.26673356 0.020196935 -0.33996692 -0.114679225 -0.37225085 0.08555834
0.22064711 -0.03252758 0.31457406 -0.2590233 -0.41095474 -0.042919964 -0.043463383 0.17363854
-0.35034072 0.05803318 -0.16955815 0.4859094 -0.15981054 -0.20327988 -0.03129777 0.13534506
0.2517032 0.1178267 0.04065912 -0.05327332 0.07618723 -0.13264456 -0.08104979 -0.039650615
-0.2279531 -0.060422238 -0.035760853 -0.11047024 -0.2510857 0.3085345 -0.14052816 -0.19840378
0.01750837 -0.04869465 0.054501787 -0.021936627 -0.24000606 0.25653926 -0.37398294 0.08806312
00000000: 26e5 7a3e 22ae 053e 0a83 603d 308c 94bd
00000010: 7af9 713e 7fc9 f93c 83bf c8bc 2d40 a8bd
00000020: 36fc d03e 1b89 e83c 3e9d f6bd f6f6 703e
00000030: 730d 2d3e 62d9 71be 202b 063e 1f97 62be
00000040: e2ea 823e 6d45 ecbd ec58 54be 332f a7bd
00000050: 4fe9 843c dbc6 45be b809 433e ab20 c7bd
00000060: 21ba f0bd 2158 96bd e1c7 08bc 3e9f 82be
00000070: 2fb4 ab3e 773e 42be b722 2dbc ecf5 39be
00000080: 5dd4 28be 5e9e 0a3d 1aca a6be 8b69 bebe
00000090: f195 cfbd 261e bd3e e548 fd3d 13fd cebb
000000a0: 2300 9c3e 6978 2a3e 61c8 6cbe 33ae da3d
000000b0: 3f18 d6be b433 46be c006 e7bc 4261 a83d
000000c0: 787e 7ebd f98c 0f3d 9214 02bc 602c 9dbd
000000d0: 8777 6f3d 536c d93e 2b1a bbbc 8ecd d1bb
000000e0: 8ca9 753d 6eeb 8fbe bb5b 9fbe 3938 9ebb
000000f0: 9089 56bd bddc a13e cfe6 1c3e 1af1 533d
00000100: 0c4c 1e3e d5d4 73be 0cf2 2cbd 2dcd bc3d
00000110: 4fc9 9bbd 717b 5abe d715 39be 583e 44bd
00000120: e8f3 b03e 628a 5a3e e436 053e 7988 833e
00000130: 61e9 f9bd 632e 8b3e 8871 923b ffc1 8a3e
00000140: 9c72 8fbe c9ac 7e3b 5274 cd3e 38cd 213e
00000150: d98e 983d 5133 bcbd a53e b7bc b8c0 2cbe
00000160: 9c7b 0f3e a93a 30be 8444 60be bc05 3f3d
00000170: 62b6 82be 3c04 02be c62e b4be 4c4d 313e
00000180: ffdc 18be cd87 e83d 9b31 93bd de96 ecbd
00000190: e02c cdbe 8997 a5bc 6986 0c3e 96b5 e5bd
000001a0: 8bc4 713e bce1 8f3d d0bb bcbe 1d01 32bd
000001b0: b260 a53d d225 fb3c e00e 37be 4c87 dfbe
000001c0: 5c65 23be a88c 563e 9476 0ebc 5067 0a3f
000001d0: b674 b8bd 7181 8abc b131 61be 9726 abbe
000001e0: ae27 803e 5ad8 f13a d979 963c 76ad 13bd
000001f0: 0c2c e6be f1b8 243e 2928 f9bd b7f7 d13d
00000200: f400 933c a7b5 613e 147c 77be f1d1 87bd
00000210: 26f2 053b 7202 8e3d bf2b 333e 7ab0 f0ba
00000220: ee83 0f3e 6a1f 1b3e d455 3f3c 9191 c63d
00000230: 43f6 5cbe 93b7 073d f618 353e 8641 de3c
00000240: a619 1a3e f8f5 35be 5139 a93d dd83 fa3b
00000250: bcd4 93bc b6c7 a13d 50ae aabd a4f8 79bd
00000260: a959 623e f5e2 afbd 8535 30be 0d38 f3bd
00000270: 841e 9cbe a619 b0bc b422 083c a721 083e
00000280: 711c 86be 8340 5bbe ddfc 9cbc 2dbd 303e
00000290: e978 bfbd 0ca7 9fbe 7e1f c7bc 9e41 b4be
000002a0: 62f3 04be 5937 803e 609d 313e 867f 62be
000002b0: 0af8 d6bd a96b 883e e93a 023d 7947 583c
000002c0: c7da 0dbe 7278 54be 6380 303c c71b 703d
000002d0: 7cec 1dbd 0ccd 603e 8647 8e3e 233b fcbd
000002e0: b85a b0bd 0fa1 f1bd a9b5 05be b4cc a23e
000002f0: 860e 74bd fad5 25be 619c 09bc 4cd4 da3c
00000300: 6a93 d1be 098a c33e dffd 33be 13e6 05be
00000310: 4572 07be 1b1d 993e 0494 6bbc d276 1f3e
00000320: f1cc bebd 03a1 5ebe 9916 c13e e4a2 993e
00000330: 482b 07be 824b a13e 1516 c7bd 4bc3 70be
00000340: 2e7d 1f3e 74fc b8be 4d91 883e 0b74 a53c
00000350: 2510 aebe f1dc eabd aa97 bebe 3639 af3d
00000360: 51f1 613e a43b 05bd da0f a13e b49e 84be
00000370: a968 d2be d8cc 2fbd a906 32bd 4dce 313e
00000380: dc5f b3be 33b4 6d3d a7a0 2dbe 1ec9 f83e
00000390: 60a5 23be 9a28 50be 1732 00bd e597 0a3e
000003a0: 3edf 803e 204f f13d 2d8a 263d 2035 5abd
000003b0: 0d08 9c3d fad3 07be 6ffd a5bd af68 22bd
000003c0: 8a6c 69be 4f7d 77bd f979 12bd 393e e2bd
000003d0: 4e8e 80be 3cf8 9d3e 9de6 0fbe 5c2a 4bbe
000003e0: b76d 8f3c 0b74 47bd 443d 5f3d 71b4 b3bc
000003f0: 26c4 75be 1d59 833e b17a bfbe 705a b43d

bias f4 [20]
-0.021401715 -0.03364759 -0.009152724 -0.039589785 -0.009553045 0.04918414 -0.04385317 -0.008966673
0.042688105 -0.07855618 0.023437127 -0.0105215525 -0.037483305 -0.1723849 -0.062019717 0.0025142415
0.019042483 0.01955669 0.051949497 0.01803444
00000000: a652 afbc 0ed2 09bd 4ff5 15bc e628 22bd
00000010: 6084 1cbc 4f75 493d 629f 33bd f4e8 12bc
00000020: b9d9 2e3d 10e2 a0bd 38ff bf3c 9762 2cbc
00000030: 1888 19bd ab85 30be 6308 7ebd f9c5 243b
00000040: fbfe 9b3c 5a35 a03c ffc8 543d f6bc 933c

weight f4 [20, 20]
0.2551081 0.059280086 -0.035859033 0.24818005 -0.09127584 0.009511346 0.09977526 0.044614688
-0.07717352 0.12292363 0.055572208 0.05888719 0.23134814 0.4180801 -0.08460199 0.09528831
0.106811665 0.34546715 0.03185418 -0.49261767 0.16036265 0.16690464 -0.24168454 -0.08649452
0.011112218 0.10504648 -0.115319386 0.22286667 0.115106344 0.11881537 -0.1973623 -0.19460423
0.19286679 0.17606358 -0.1347599 -0.24884842 0.29563218 -0.07716402 -0.26610354 0.08586928
-0.3986623 0.019357627 -0.11249753 -0.25746235 -0.31149003 -0.07549057 0.09359375 -0.3791388
-0.121716395 0.05138506 -0.0860535 -0.2906643 -0.16993152 -0.22633792 0.39444223 0.2621121
0.09445857 -0.23502226 0.16395698 0.24328277 -0.3075281 0.09798814 -0.22180782 -0.20731062
-0.08487997 -0.026318187 -0.18373868 -0.19071725 -0.15574415 0.29706568 0.10736667 0.15767463
0.019720087 0.1339853 0.31380817 0.21972863 -0.35554093 0.03131293 0.00793694 -0.16676785
-0.14399073 -0.21781775 -0.1100822 -0.1708096 -0.45923612 -0.13611971 -0.24355255 -0.27554312
0.108963795 -0.3134559 0.35965508 -0.022693459 -0.2526912 -0.12646475 -0.018244542 -0.15104246
-0.05308727 -0.090962484 0.0013974657 -0.18708122 -0.1196981 -0.021183893 -0.5138332 0.15571867
-0.5678468 -0.24932952 0.005243537 -0.22412156 0.30459905 -0.12492211 -0.06887953 0.2832294
-0.24574433 -0.20043077 -0.0045159794 0.2496783 0.28284466 -0.040265378 -0.120558366 0.45321912
-0.15022814 -0.024843112 -0.097632736 0.17002007 0.23159215 -0.056627497 0.15003508 -0.2100769
0.21056448 -0.017523102 0.1575754 -0.07321195 -0.16167763 -0.06778444 0.2984489 -0.5200389
-0.074570306 -0.24239418 0.0011713337 -0.27253824 0.16582868 -0.034970645 -0.1539389 0.10210468
0.22585815 -0.07852304 -0.06936877 -0.15898408 0.106288195 -0.023212694 0.12004632 -0.1326684
0.10827996 -0.07795809 0.048654255 -0.07032224 -0.14823432 0.22851205 -0.32287362 0.13287248
-0.16544868 -0.27023724 0.052900624 0.21985869 0.22195752 0.18988065 0.01985446 0.3693105
0.5691469 0.121602215 -0.17381802 -0.12989944 0.057323456 -0.07620662 -0.0731295 0.19616057
0.24043982 -0.35465574 0.11330321 -0.12549391 -0.21346837 -0.30144542 -0.010050828 0.27384967
0.063353196 0.068910785 -0.0054418086 -0.22096382 0.035919026 -0.11775618 0.088665806 -0.10747196
-0.24594063 -0.16879538 -0.1502712 -0.46274745 0.01562519 -0.44036305 -0.15666948 0.12988631
0.32483906 0.23813157 0.26145643 0.00959868 -0.066878475 -0.058951084 0.26316124 -0.06347899
-0.11915902 0.28063893 0.010815463 -0.31665128 -0.29898232 0.089826256 -0.0874669 0.26750997
-0.044125315 -0.1232714 0.0075680274 -0.22728428 0.14887886 0.22716771 0.32251018 0.013766411
-0.23883455 0.27897993 0.015254922 -0.2835645 0.23873551 -0.2517685 0.3651101 0.19562174
0.26764214 -0.30018222 -0.2949254 0.27428988 0.18415439 -0.42683676 0.5738662 -0.07731241
0.16845018 -0.05959465 0.33483058 -0.064677075 -0.19415481 0.06690608 -0.2356078 -0.32673734
0.11292746 0.34607947 -0.12986219 -0.18787968 0.05337387 0.19683887 0.23876356 0.13491017
00000000: 879d 823e adcf 723d ece0 12bd e922 7e3e
00000010: d4ee babd 7ad5 1b3c f956 cc3d e4bd 363d
00000020: 270d 9ebd 62bf fb3d af9f 633d b233 713d
00000030: 87e6 6c3e 980e d63e cf43 adbd 8426 c33d
00000040: 13c0 da3d 12e1 b03e 8779 023d 6238 fcbe
00000050: 1b36 243e 0de9 2a3e 277c 77be 0a24 b1bd
00000060: 0510 363c 9c22 d73d 922c ecbd 2937 643e
00000070: e0bc eb3d 7955 f33d 5819 4abe 5546 47be
00000080: df7e 453e 034a 343e 80fe 09be 1fd2 7ebe
00000090: 1a5d 973e 2b08 9ebd b93e 88be 3cdc af3d
000000a0: 771d ccbe e393 9e3c 1b65 e6bd 1bd2 83be
000000b0: 9f7b 9fbe cd9a 9abd 14ae bf3d 7b1e c2be
000000c0: 7246 f9bd 2479 523d d13c b0bd f3d1 94be
000000d0: 8702 2ebe 21c5 67be 55f4 c93e 8f33 863e
000000e0: 7f73 c13d ada9 70be 57e4 273e 1e1f 793e
000000f0: 5374 9dbe 02ae c83d 9721 63be 3c49 54be
00000100: 8dd5 adbd 3d99 d7bc fe25 3cbe 624b 43be
00000110: 657b 1fbe fe18 983e 0fe3 db3d 7575 213e
00000120: 058c a13c 7133 093e 77ab a03e 8b00 613e
00000130: 7609 b6be fd41 003d f009 023c 31c5 2abe
00000140: 4e72 13be 9e0b 5fbe c772 e1bd b6e8 2ebe
00000150: ff20 ebbe f762 0bbe d765 79be fd13 8dbe
00000160: 6928 df3d 4b7d a0be b624 b83e a2e7 b9bc
00000170: be60 81be fa7f 01be 9475 95bc e0aa 1abe
00000180: 0a72 59bd 8a4a babd 2b2b b73a 3892 3fbe
00000190: 4724 f5bd d889 adbc 938a 03bf b774 1f3e
000001a0: 685e 11bf 3d50 7fbe fad1 ab3b 1f80 65be
000001b0: 68f4 9b3e 2ad7 ffbd b610 8dbd 7203 913e
000001c0: 67a4 7bbe b93d 4dbe c8fa 93bb abab 7f3e
000001d0: 04d1 903e 4fed 24bd 4ee7 f6bd 560c e83e
000001e0: 68d5 19be c883 cbbc acf3 c7bd be19 2e3e
000001f0: 7e26 6d3e 3cf2 67bd cca2 193e 661e 57be
00000200: 379e 573e 9c8c 8fbc 725b 213e 26f0 95bd
00000210: d28e 25be 92d2 8abd 4bce 983e 4521 05bf
00000220: 51b8 98bd 2e36 78be 7087 993a 228a 8bbe
00000230: fece 293e 613d 0fbd 29a2 1dbe 421c d13d
00000240: 5c47 673e b0d0 a0bd 3711 8ebd b9cc 22be
00000250: a0ad d93d 8c28 bebc d8da f53d 3ada 07be
00000260: e2c1 dd3d 7ea8 9fbd af49 473d 1b05 90bd
00000270: bdca 17be 10ff 693e b14f a5be b90f 083e
00000280: 616b 29be 895c 8abe 53ae 583d a322 613e
00000290: d548 633e 1370 423e d2a5 a23c 4416 bd3e
000002a0: 9cb3 113f 950a f93d 5afd 31be 5c04 05be
000002b0: 00cc 6a3d 3712 9cbd ebc4 95bd 51de 483e
000002c0: db35 763e 7095 b5be 830b e83d 7a81 00be
000002d0: 7497 5abe 0e57 9abe 3aac 24bc 0636 8c3e
000002e0: 52bf 813d 1921 8d3d 3351 b2bb 5744 62be
000002f0: d41f 133d 272a f1bd 6b96 b53d 421a dcbd
00000300: dcd7 7bbe b2d8 2cbe b2e0 19be 3ced ecbe
00000310: 6600 803c 4477 e1be f76d 20be eb00 053e
00000320: 4e51 a63e c3d8 733e 9edd 853e c843 1d3c
00000330: 95f7 88bd b176 71bd 12bd 863e 4601 82bd
00000340: a509 f4bd e8af 8f3e 5733 313c 1e20 a2be
00000350: 3614 99be d4f6 b73d d921 b3bd 11f7 883e
00000360: bfbc 34bd b775 fcbd 37fd f73b 36bd 68be
00000370: b373 183e a79e 683e 0e20 a53e 838c 613c
00000380: 0b91 74be 75d6 8e3e c8ef 793c 5e2f 91be
00000390: 1577 743e cde7 80be b6ef ba3e 1151 483e
000003a0: 6408 893e 7cb1 99be 7600 97be b96f 8c3e
000003b0: f892 3c3e 598a dabe e5e8 123f f855 9ebd
000003c0: 347e 2c3e 8519 74bd ea6e ab3e 6a75 84bd
000003d0: 85d0 46be 0e06 893d 2c43 71be 1e4a a7be
000003e0: 8346 e73d 5431 b13e 98fa 04be 8863 40be
000003f0: 8f9e 5a3d 2190 493e 6f7e 743e e425 0a3e

bias f4 [20]
-0.059093025 0.018000355 0.0211141 -0.009773696 0.045554455 -0.016523018 0.00056010974 -0.008585002
0.06367125 0.035137672 -0.031563383 0.02610508 -0.032314487 -0.024149165 0.060560513 -0.03977524
0.003780397 0.023229225 0.05787113 -0.042634856
00000000: 870b 72bd 7b75 933c 7af7 ac3c da21 20bc
00000010: 4f97 3a3d 485b 87bc 54d4 123a 1ca8 0cbc
00000020: 1366 823d 85ec 0f3d 9b48 01bd 52da d53c
00000030: 325c 04bd 78d4 c5bc 4d0e 783d 5deb 22bd
00000040: 89c0 773b 374b be3c 470a 6d3d e3a1 2ebd

weight f4 [20, 20]
-0.022602158 0.076408505 -0.3709523 -0.08795387 -0.10927417 -0.07558778 0.20424068 -0.06749291
0.27401328 0.21426144 0.10195786 -0.15097319 0.038719922 0.039174546 -0.19110116 0.2178648
-0.4168297 0.44331446 0.0057416777 0.015346853 0.19349618 0.50361025 0.1088149 0.1594478
-0.268164 0.09106575 -0.27421677 -0.22115725 0.2497955 0.100745 0.19239815 -0.20194323
-0.21678035 -0.088346444 -0.069773085 0.14534746 0.34860757 0.09347771 0.13069591 0.033301406
-0.38090593 -0.13024622 0.4631129 0.14545229 0.06425213 0.07656615 -0.095828384 0.15975861
0.12481102 0.11205745 0.03801727 0.1785224 -0.40043664 0.07916767 0.3254199 0.50854015
0.09488505 0.038074426 -0.2635259 0.05478499 0.10194213 0.084806666 0.28733784 -0.37382895
-0.030925445 -0.18660548 -0.31457216 -0.0630799 0.0333131 0.2922949 -0.20799531 0.33238772
-0.038901694 0.120673664 0.11641352 0.09636861 0.3553964 -0.12474147 -0.23467055 -0.47960266
0.1851326 0.010109092 0.17649393 0.2100256 0.7644554 -0.041152537 0.30646792 0.17527299
0.112725645 0.100175865 -0.2522955 0.094422325 -0.24908255 0.086613536 0.0896331 -0.5021799
-0.22793487 0.076859 0.19454561 0.29820573 0.15675479 -0.18027222 -0.19347048 -0.19018008
-0.39718568 0.18611807 0.2765114 0.6209067 -0.26797655 -0.25939158 0.3263528 0.1601651
-0.4002605 0.2745435 -0.043318134 0.12363072 -0.119168244 -0.07250637 -0.017810412 0.30406398
-0.3802514 0.15951915 -0.17020097 -0.16649611 -0.0071164533 0.20955735 -0.19018887 -0.12613556
-0.06997835 -0.505324 0.1335187 -0.20530389 0.0027866915 -0.22019675 -0.12893195 -0.2891845
-0.2900043 -0.022058958 0.28516996 -0.03779123 0.41863018 -0.33036512 0.013861876 0.19161896
-0.26993462 0.08000001 0.021105953 -0.14365873 -0.1757593 -0.1428557 -0.032565307 -0.20734908
-0.0832682 0.22661562 -0.018972492 0.14484051 0.07775311 0.12906602 -0.1227399 -0.122142136
-0.11338265 -0.08125239 -0.040640164 0.042013966 -0.06542006 -0.04657463 0.22511363 -0.049948808
0.07291378 0.19937462 -0.07541381 0.10659688 -0.03061471 0.19922307 0.0533584 -0.4386234
-0.15361722 0.032440014 -0.11094976 -0.32443318 0.24223243 0.32820582 -0.30367112 -0.38431838
0.11942537 0.19498502 0.20070769 0.2970314 -0.16554768 -0.16933608 -0.22260994 -0.00074377574
0.14568469 -0.04845405 0.22595146 0.28647214 0.10397358 0.062328737 0.14758381 -0.13772419
0.13652694 -0.28249592 -0.20627916 -0.10226263 0.21818893 -0.32007897 -0.041980952 0.13499692
0.15513448 0.022906724 -0.14001422 -0.41999388 0.10686956 -0.22402656 0.16942771 -0.020420156
-0.021068014 -0.18798526 0.46336046 0.14184916 0.1521282 -0.10892003 0.2384201 -0.08505169
0.10229453 -0.13504691 -0.11951634 -0.028701054 0.13699079 0.032423977 0.31348944 -0.10357387
0.06331036 -0.1730467 -0.13565743 -0.28786185 -0.23183987 0.09864931 0.35351536 0.1907826
-0.26213452 0.04004382 0.2955029 0.08543442 0.20364064 0.26719585 0.17522846 -0.0049705715
-0.41838554 -0.43484223 -0.012238883 -0.025427315 0.21120042 -0.20307127 0.04353766 0.077002674
00000000: 2928 b9bc 107c 9c3d 76ed bdbe 2921 b4bd
00000010: 23cb dfbd c4cd 9abd 7824 513e b939 8abd
00000020: 784b 8c3e 5a67 5b3e 48cf d03d b798 1abe
00000030: c898 1e3d 7d75 203d 06b0 43be f317 5f3e
00000040: b46a d5be 1dfa e23e af24 bc3b 5e71 7b3c
00000050: dd23 463e 9aec 003f 59da de3d 4946 233e
00000060: cb4c 89be ae80 ba3d 2466 8cbe 0c77 62be
00000070: 64ca 7f3e 6553 ce3d 0504 453e 35ca 4ebe
00000080: abfb 5dbe fbee b4bd 31e5 8ebd f7d5 143e
00000090: b17c b23e 3e71 bf3d 26d5 053e 0e67 083d
000000a0: 1a06 c3be 445f 05be 221d ed3e 72f1 143e
000000b0: 9f96 833d b7ce 9c3d ac41 c4bd c397 233e
000000c0: ec9c ff3d 607e e53d ffb7 1b3d 93ce 363e
000000d0: 0806 cdbe a922 a23d 709d a63e b02f 023f
000000e0: 1853 c23d eef3 1b3d deec 86be 3a66 603d
000000f0: 09c7 d03d 1eaf ad3d f21d 933e 8266 bfbe
00000100: 5c57 fdbc 8215 3fbe 9a0f a1be 0930 81bd
00000110: 5173 083d ada7 953e b9fc 54be b92e aa3e
00000120: 6257 1fbd c123 f73d 366a ee3d e85c c53d
00000130: 84f6 b53e 7578 ffbd 7a4d 70be 7b8e f5be
00000140: 6693 3d3e 9ba0 253c d3ba 343e f310 573e
00000150: 59b3 433f 908f 28bd 5de9 9c3e c37a 333e
00000160: b4dc e63d 0129 cd3d e02c 81be 7e60 c13d
00000170: 7f0f 7fbe 7062 b13d 8f91 b73d dd8e 00bf
00000180: c267 69be 4068 9d3d f736 473e 6cae 983e
00000190: 5484 203e 4899 38be 201d 46be 91be 42be
000001a0: ec5b cbbe bc95 3e3e e792 8d3e bef3 1e3f
000001b0: 3934 89be f9ce 84be b717 a73e 5202 243e
000001c0: f2ee ccbe f790 8c3e 5b6e 31bd 1a32 fd3d
000001d0: 7b0e f4bd 387e 94bd 24e7 91bc 46ae 9b3e
000001e0: 50b0 c2be fd58 233e 2a49 2ebe f57d 2abe
000001f0: 2331 e9bb 3496 563e dfc0 42be ae29 01be
00000200: cf50 8fbd ea5c 01bf 20b9 083e 2f3b 52be
00000210: eda0 363b 427b 61be bd06 04be fe0f 94be
00000220: 727b 94be fdb4 b4bc cc01 923e faca 1abd
00000230: b256 d63e 9e25 a9be ec1c 633c c337 443e
00000240: df34 8abe 0cd7 a33d 64e6 ac3c 461b 13be
00000250: 3ffa 33be c448 12be 3363 05bd 5153 54be
00000260: 8588 aabd ed0d 683e 336c 9bbc 1251 143e
00000270: 063d 9f3d e229 043e 0f5f fbbd a825 fabd
00000280: 2a35 e8bd a767 a6bd 4d76 26bd d616 2c3d
00000290: f4fa 85bd 0ac5 3ebd 3084 663e 1f97 4cbd
000002a0: d253 953d dc28 4c3e 8e72 9abd 774f da3d
000002b0: b3cb fabc 2201 4c3e 568e 5a3d 3f93 e0be
000002c0: d54d 1dbe d2df 043d a139 e3bd 1b1c a6be
000002d0: c70b 783e 980a a83e c87a 9bbe 61c5 c4be
000002e0: 4a95 f43d 27aa 473e 5186 4d3e 8014 983e
000002f0: 5585 29be 7066 2dbe dcf3 63be f2f9 42ba
00000300: 5e2e 153e c177 46bd d25f 673e 7aac 923e
00000310: 1af0 d43d 6b4c 7f3d 3620 173e 9207 0dbe
00000320: b8cd 0b3e 4ea3 90be d83a 53be 126f d1bd
00000330: eb6c 5f3e 64e1 a3be 38f4 2bbd a23c 0a3e
00000340: 93db 1e3e e2a6 bb3c e35f 0fbe 7009 d7be
00000350: 6ede da3d 3867 65be 757e 2d3e 2c48 a7bc
00000360: d496 acbc 357f 40be 953d ed3e e840 113e
00000370: 7fc7 1b3e 7711 dfbd 6624 743e 952f aebd
00000380: cb7f d13d bd49 0abe fcc4 f4bd 791e ebbc
00000390: 5047 0c3e 01cf 043d b081 a03e 8a1e d4bd
000003a0: dda8 813d 2733 31be c8e9 0abe a162 93be
000003b0: 6e67 6dbe a608 ca3d f7ff b43e 845c 433e
000003c0: 7f36 86be fd04 243d 284c 973e 3ef8 ae3d
000003d0: 2c87 503e e5cd 883e 176f 333e 2de0 a2bb
000003e0: a136 d6be a4a3 debe 9985 48bc f24c d0bc
000003f0: ec44 583e eaf1 4fbe 8c54 323d 94b3 9d3d

bias f4 [20]
0.03327631 -0.0029208306 -0.004272388 -0.034178216 0.03793495 -0.0153700225 0.03840466 0.0071251523
0.010944099 0.004429109 0.037155494 0.05318108 -0.056164086 0.031148281 -0.012224384 0.04588563
-0.029436415 -0.0097176 -0.010769054 0.008144969
00000000: bd4c 083d 686b 3fbb 63ff 8bbb 75fe 0bbd
00000010: ae61 1b3d 8cd2 7bbc 344e 1d3d 1c7a e93b
00000020: e14e 333c 0f22 913b 5c30 183d 67d4 593d
00000030: 500c 66bd ae2a ff3c c848 48bc 92f2 3b3d
00000040: a324 f1bc 9236 1fbc b070 30bc 7a72 053c

weight f4 [20, 20]
0.16449331 -0.040892847 -0.09010155 -0.13849516 -0.0064522913 -0.2944856 -0.11208546 0.40373987
-0.28069448 0.28279656 -0.059228323 -0.26019263 0.118017435 0.022750925 0.11438816 0.12010623
-0.2768849 0.15552941 0.0603472 0.039265975 0.10295712 0.15772676 0.3471188 0.19728273
0.013277083 -0.14948437 -0.005899484 0.0128329005 0.23048608 0.13681431 -0.3644054 0.050602704
0.5281666 -0.0457193 -0.058733936 -0.626101 -0.13959892 0.32426706 -0.2625663 0.0027042804
-0.03884239 0.09129637 0.5286284 0.12998863 0.048715763 0.42839608 -0.2570314 -0.21470259
0.08789316 -0.4072666 -0.038341388 0.042086054 0.12670629 -0.0533511 0.07499967 -0.395569
-0.27299544 -0.13762492 -0.28382573 -0.1710631 0.09360405 -0.10623682 -0.04413636 -0.21156226
-0.07039902 0.07506136 0.100893356 -0.08500709 0.28399974 -0.22719958 0.14202085 0.31210312
-0.27965912 0.10477615 -0.3495252 -0.1931013 -0.021065604 0.26469 0.05616382 -0.05435508
0.19828543 -0.12800184 -0.08570013 -0.09417244 0.12585503 0.28441462 0.41675007 0.40179357
-0.10907588 -0.38142443 -0.027072152 0.08396869 0.27203834 0.05755229 -0.4227187 0.122692615
-0.1635814 -0.060699806 0.4947779 0.37318075 -0.15610372 0.20269972 0.10877372 0.089845546
-0.1532513 -0.1652348 -0.14294551 0.14778626 -0.23247477 -0.16491555 0.027442804 0.06727497
0.26578718 -0.31832832 0.12363858 0.08297681 0.1232346 0.46994337 -0.21207163 0.0361916
0.4899977 0.011257942 -0.33242357 0.092602685 0.17150313 0.42607692 0.13142778 0.15701196
-0.17775698 -0.05648156 0.1812681 0.30976087 -0.22900271 0.02240767 -0.15274248 0.22673723
0.014516064 0.24933793 0.14134173 0.21037088 -0.50175184 -0.2773397 0.16759266 0.45833236
-0.21849085 -0.037930608 0.23959142 0.042924177 -0.0028888055 -0.0018693256 0.11168527 -0.64880687
-0.31284007 0.09250983 0.25383502 -0.18051612 -0.12656742 0.034911267 0.31228098 -0.48927927
-0.15638778 0.28571868 0.34892356 0.34858522 0.009421263 0.04268603 0.3309883 -0.23776883
-0.09767524 -0.3151478 -0.24276716 0.2473812 0.3342098 -0.276466 -0.0661086 0.20666726
0.085872635 -0.12735985 -0.1239556 -0.031204632 -0.3494655 0.29757106 -0.061993554 -0.38417846
0.110553 -0.2870347 0.187191 0.15361157 0.037272442 0.16657092 -0.1945678 0.39114073
-0.038133223 -0.09563526 0.05711569 -0.20630705 0.2430255 -0.22737248 -0.28742558 0.0061735176
0.05630472 0.18727194 0.1816203 -0.17770363 -0.43843052 -0.5784077 0.31723034 0.016716097
0.13777357 0.34332743 -0.004702702 -0.10904086 0.1329809 0.07343714 0.3288214 -0.34688583
0.13558422 -0.36397526 0.24599634 0.17583899 0.16888927 -0.0097626895 0.38882378 0.013291231
0.090682924 0.40954408 -0.3476643 -0.5001609 0.23304169 -0.1993275 0.27271986 0.2519781
0.5754223 0.37815693 0.4256519 -0.06995266 -0.49011925 0.24282232 -0.28499418 -0.12639081
0.40720043 0.22338127 -0.13840741 -0.115292035 0.055729646 0.08300563 0.19260904 -0.20617622
0.26218382 0.2208086 0.07191117 0.39987132 0.25255936 -0.051821932 -0.23870431 0.53245616
00000000: ef70 283e 427f 27bd 2987 b8bd add1 0dbe
00000010: be6d d3bb d1c6 96be 108d e5bd feb6 ce3e
00000020: 30b7 8fbe b6ca 903e 6699 72bd f837 85be
00000030: 20b3 f13d 2660 ba3c 5744 ea3d 41fa f53d
00000040: dcc3 8dbe 1a43 1f3e a02e 773d 5cd5 203d
00000050: 2fdb d23d 2083 213e 8eb9 b13e 7c04 4a3e
00000060: 1f88 593c 6e12 19be 7550 c1bb 1641 523c
00000070: 8b04 6c3e 0d19 0c3e 5893 babe c844 4f3d
00000080: ed35 073f 2944 3bbd ff92 70bd 2848 20bf
00000090: 05f3 0ebe 5506 a63e 176f 86be 4c3a 313b
000000a0: 3319 1fbd 97f9 ba3d 3154 073f bd1b 053e
000000b0: 2e8a 473d bb56 db3e 9f99 83be ffda 5bbe
000000c0: 5401 b43d 3f85 d0be dc0b 1dbd 6d62 2c3d
000000d0: 4bbf 013e af86 5abd 6d99 993d 0588 cabe
000000e0: 0fc6 8bbe 8ced 0cbe 9b51 91be 2a2b 2fbe
000000f0: 7bb3 bf3d b192 d9bd 54c8 34bd c7a3 58be
00000100: 5d2d 90bd c5b9 993d 2da1 ce3d 3218 aebd
00000110: 6a68 913e 02a7 68be ea6d 113e fbcb 9f3e
00000120: 7b2f 8fbe e194 d63d f8f4 b2be 59bc 45be
00000130: c691 acbc 7385 873e 090c 663d 6fa3 5ebd
00000140: 560b 4b3e ea12 03be 8d83 afbd 7bdd c0bd
00000150: 24e0 003e cb9e 913e 4460 d53e e3b7 cd3e
00000160: 2d63 dfbd 104a c3be 6bc6 ddbc c7f7 ab3d
00000170: 9c48 8b3e f3bb 6b3d 966e d8be 4446 fb3d
00000180: e281 27be 5ca0 78bd 8753 fd3e 8c11 bf3e
00000190: a7d9 1fbe 8490 4f3e c2c4 de3d f100 b83d
000001a0: e9ed 1cbe 5033 29be 4f60 12be 4855 173e
000001b0: de0d 6ebe 9fdf 28be bbcf e03c 76c7 893d
000001c0: 4215 883e eefb a2be 3936 fd3d bfef a93d
000001d0: 6c62 fc3d 6b9c f03e 4e29 59be a53d 143d
000001e0: fbe0 fa3e 3b73 383c 6c33 aabe 7aa6 bd3d
000001f0: 849e 2f3e c126 da3e 0195 063e bec7 203e
00000200: ed05 36be 3559 67bd 589e 393e fa98 9e3e
00000210: b07f 6abe 4a90 b73c 8668 1cbe ce2d 683e
00000220: c9d4 6d3c 7152 7f3e e3bb 103e 776b 573e
00000230: cf72 00bf 78ff 8dbe 699d 2b3e 8aaa ea3e
00000240: 11bc 5fbe 205d 1bbd 7457 753e 43d1 2f3d
00000250: 1d52 3dbb 2904 f5ba 3fbb e43d 3518 26bf
00000260: 932c a0be cb75 bd3d aaf6 813e 38d9 38be
00000270: e49a 01be 1eff 0e3d 4be3 9f3e d082 fabe
00000280: 1e24 20be b849 923e 1ca6 b23e c379 b23e
00000290: a45b 1a3c 8cd7 2e3d 4c77 a93e ac79 73be
000002a0: f509 c8bd 0d5b a1be f497 78be 7f51 7d3e
000002b0: 8c1d ab3e f48c 8dbe f263 87bd 95a0 533e
000002c0: fedd af3d 9f6a 02be 6fdc fdbd dba0 ffbc
000002d0: 24ed b2be 3c5b 983e f4ec 7dbd 0ab3 c4be
000002e0: 9c69 e23d 36f6 92be ffae 3f3e 5a4c 1d3e
000002f0: fdaa 183d 9191 2a3e c83c 47be 9943 c83e
00000300: 9531 1cbd 6bdc c3bd 24f2 693d 2842 53be
00000310: addb 783e 55d4 68be 7229 93be 384b ca3b
00000320: c79f 663d 37c4 3f3e acfa 393e f1f7 35be
00000330: f779 e0be 8712 14bf 046c a23e 32f0 883c
00000340: 8414 0d3e 9dc8 af3e 2019 9abb d050 dfbd
00000350: 252c 083e 3666 963d 475b a83e 059b b1be
00000360: 97d6 0a3e f75a babe 77e6 7b3e 230f 343e
00000370: 4ff1 2c3e b0f3 1fbc e913 c73e 77c3 593c
00000380: f8b7 b93d c3af d13e 0e01 b2be 8b0a 00bf
00000390: 7ba2 6e3e 821c 4cbe f0a1 8b3e 4603 813e
000003a0: e04e 133f c99d c13e 0cef d93e 5743 8fbd
000003b0: e9f0 fabe 6aa6 783e c2ea 91be 986c 01be
000003c0: 937c d03e 0fbe 643e acba 0dbe 3b1e ecbd
000003d0: c544 643d dbfe a93d 4e3b 453e dc1f 53be
000003e0: f53c 863e a61b 623e 2a46 933d efbb cc3e
000003f0: 764f 813e 3c43 54bd e76e 74be 0c4f 083f

bias f4 [20]
0.007684166 -0.10554507 -0.05279523 0.07213629 0.057644855 -0.030528618 0.059941404 -0.07394071
-0.0649681 0.05205233 -0.026494509 -0.047667876 -0.0027872652 -0.08950717 -0.090208925 -0.024749398
0.007921512 0.09736687 0.04721458 -0.11031941
00000000: 75cb fb3b 0328 d8bd d03f 58bd 31bc 933d
00000010: 031d 6c3d 2717 fabc 1e85 753d 3a6e 97bd
00000020: ff0d 85bd d334 553d 030b d9bc 643f 43bd
00000030: 8daa 36bb 894f b7bd 75bf b8bd 40bf cabc
00000040: 3bc9 013c 4868 c73d 1364 413d 25ef e1bd

weight f4 [1, 20]
-0.03971482 -0.83996457 -0.74139255 0.27980134 0.5837472 -0.12923563 1.1149149 -0.8545907
-0.21817687 0.12011385 -0.24386942 -0.78490424 0.42011312 -1.1297098 -0.61772704 -0.07536317
0.9075854 1.0884203 0.24488392 -0.428446
00000000: 02ac 22bd eb07 57bf e7cb 3dbf 1f42 8f3e
00000010: 7570 153f 5856 04be 88b5 8e3f 75c6 5abf
00000020: c269 5fbe 40fe f53d e8b8 79be 7cef 48bf
00000030: 1119 d73e 559a 90bf 5c23 1ebf 0158 9abd
00000040: 8457 683f 5b51 8b3f dac2 7a3e 465d dbbe

u_b f4 [2]
2.4637163 1.56
00000000: 87ad 1d40 14ae c73f

l_b f4 [2]
1.45981 0.0
00000000: 0edb ba3f 0000 0000
