Trained/Models_01/Noise_1/toy_stop/internal_o3.pt (torch, 60895 bytes, 23 tensors)

weight f4 [20, 2]
-0.17080952 -0.006901699 -0.71840626 0.07996077 -0.43351316 -0.2673485 0.3586119 0.4882374
-0.20919552 -0.39831665 0.50841326 -0.28062016 0.2840069 -0.0049269293 0.06024677 -0.48403287
-0.522355 0.4210739 -0.015792508 -0.24517514 -0.076296575 0.13926509 -0.018601036 0.042992003
-0.31788608 -0.6551524 -0.10044329 -0.14160393 -0.26607066 -0.29751512 0.782752 0.0016165848
0.14327696 -1.4839902 -1.187284 0.017004648 -0.35396817 0.06407421 -0.537518 -0.059981365
00000000: b1e8 2ebe a627 e2bb 79e9 37bf 79c2 a33d
00000010: 70f5 ddbe e7e1 88be fb9b b73e 41fa f93e
00000020: 5a37 56be 29f0 cbbe 5f27 023f 72ad 8fbe
00000030: 5a69 913e 1472 a1bb 51c5 763d 28d3 f7be
00000040: 0fb9 05bf 0097 d73e 4a5f 81bc 310f 7bbe
00000050: 6141 9cbd 829b 0e3e 3361 98bc 6218 303d
00000060: f7c1 a2be 11b8 27bf 36b5 cdbd 9f00 11be
00000070: 6a3a 88be e753 98be 6f62 483f 96e3 d33a
00000080: 32b7 123e 64f3 bdbf ecf8 97bf 554d 8b3c
00000090: 513b b5be 5739 833d c89a 09bf 05af 75bd

bias f4 [20]
-0.2581456 -0.1659775 -0.22145109 -0.34554645 0.020681676 0.07741707 0.47007102 -0.49483505
0.07275342 0.20127988 -0.24845812 0.23083013 0.017477976 0.00242765 0.19587004 -0.038100604
0.028137755 -0.07446676 0.011960788 -0.21847016
00000000: a92b 84be 01f6 29be 13c4 62be 77eb b0be
00000010: 9e6c a93c d78c 9e3d 26ad f03e 055b fdbe
00000020: bfff 943d 501c 4e3e ce6b 7ebe bc5e 6c3e
00000030: f92d 8f3c 3519 1f3b 2892 483e 610f 1cbd
00000040: 2681 e63c 0782 98bd 2ef7 433c a4b6 5fbe

weight f4 [20, 20]
0.20243582 0.11336028 -0.19389723 -0.07740289 0.099658035 -0.031604867 0.27387983 0.08093493
0.27256006 0.43111083 0.29069737 0.045790724 0.19179435 0.23087707 0.4894276 -0.26344934
-0.22468574 -0.17055507 -0.1403027 0.016988318 0.2627687 0.089169964 0.043557886 -0.11256578
-0.09217969 -0.38463187 -0.3711847 -0.19671504 0.10322167 0.027370874 -0.07172842 -0.081909575
-0.16923885 0.17588364 -0.21231952 0.17737766 0.007644701 0.20264597 0.012859992 -0.0485884
0.3150813 0.12769917 -0.24935122 -0.5437735 0.62795794 -0.06869076 -0.058976162 0.23245348
0.20698272 -0.25351775 -0.20741911 0.18599227 -0.27643842 -0.018332805 0.031048473 -0.03941245
0.15433234 -0.09410269 0.047663294 -0.4650601 0.1921866 0.042667605 -0.24417643 0.17812695
0.17174971 0.23798285 -0.30779114 0.12069002 -0.11565888 0.09058329 0.08225996 0.1949075
0.39762038 -0.03191056 0.10696646 0.0006582848 -0.14310057 -0.034105357 0.21213186 0.24557638
0.32153773 0.0022571124 0.059667785 0.15513414 -0.29876283 -0.19946422 0.13942493 0.34859723
-0.08979716 -0.088711716 0.12314463 -0.01256263 -0.076329134 -0.1781418 -0.14492308 0.21260355
-0.44520107 0.1100731 0.028941281 0.27334484 -0.058354758 0.14083637 0.34423956 -0.14562607
0.18961127 0.24344826 -0.18125919 -0.1010052 -0.04251365 -0.19934496 0.08469527 -0.09610963
-0.19188859 -0.19923155 0.60363126 0.03325455 -0.21307757 0.16025072 0.1826684 0.30428576
-0.41879463 -0.05016317 -0.08879867 0.15118806 -0.2205812 -0.5301873 0.19118594 -0.018973827
0.30660474 -0.30956772 0.1845569 -0.116763696 -0.063284 -0.06869091 0.15471432 0.13752884
-0.26352257 -0.3475271 0.051541295 -0.19800062 0.1581725 0.36512005 0.16662621 0.03711619
0.31198344 0.22785634 -0.41720724 0.10139414 -0.05536865 -0.078754656 0.07421884 0.16486813
0.30317774 -0.3492625 0.05099132 -0.12714401 -0.16188274 -0.2321124 -0.19223374 0.22974017
0.109210156 -0.15820573 -0.09530415 0.16212592 -0.24628206 0.30275068 -0.2782869 -0.062647805
-0.29075646 -0.16772418 0.12138768 0.13531333 0.17217751 -0.15075433 0.10261389 0.4255028
0.35743365 0.108100496 0.17450093 -0.15725851 0.10265686 0.0009791467 0.29733756 0.18040188
0.47112396 0.31675404 0.12034138 0.16677478 0.43822482 0.09520836 0.104092486 -0.25268707
-0.08070207 0.19386701 -0.14175618 0.053698998 0.32015812 -0.12745513 -0.19421677 0.044073563
0.0024608783 0.2939238 -0.3104336 0.5342916 -0.4151633 -0.35092035 -0.28267685 -0.2296189
0.70313084 -0.6185199 0.02931998 -0.06148416 -0.55894136 -0.30794334 -0.18600635 0.023357274
-0.79594266 0.07387972 0.21793146 -0.17259754 -0.43428263 0.13661063 0.20430464 0.30674517
-0.13762967 0.09773939 0.016131347 -0.17781064 -0.21619132 0.29186788 0.09111407 0.50571233
-0.094383344 -0.18061653 0.22460109 -0.14939645 0.012959325 0.0025109837 0.23142411 0.026645502
-0.31048435 0.1799986 0.2522379 -0.15633205 -0.29608977 0.23858017 0.04770038 -0.18518844
0.1227724 0.29137385 -0.11520945 0.22436844 0.19797146 0.03253946 -0.05150714 -0.012945891
00000000: 564b 4f3e 6f29 e83d ff8c 46be 6885 9ebd
00000010: 8319 cc3d 1b74 01bd fa39 8c3e 36c1 a53d
00000020: fe8c 8b3e 8fba dc3e 49d6 943e 0e8f 3b3d
00000030: bd65 443e 0a6b 6c3e 4196 fa3e d5e2 86be
00000040: 0514 66be fda5 2ebe 83ab 0fbe 162b 8b3c
00000050: 9e89 863e be9e b63d c169 323d e388 e6bd
00000060: b5c8 bcbd 78ee c4be ec0b bebe ab6f 49be
00000070: e265 d33d e238 e03c 5ae6 92bd 35c0 a7bd
00000080: f34c 2dbe d71a 343e 4a6a 59be 7da2 353e
00000090: 6680 fa3b 6d82 4f3e b7b2 523c a104 47bd
000000a0: 5652 a13e 92c3 023e ed55 7fbe bd34 0bbf
000000b0: dac1 203f bead 8cbd fd90 71bd 4908 6e3e
000000c0: 47f3 533e 14cd 81be ad65 54be c274 3e3e
000000d0: 5689 8dbe ae2e 96bc 5e59 fe3c f36e 21bd
000000e0: 4c09 1e3e e9b8 c0bd 963a 433d 5c1c eebe
000000f0: 90cc 443e 3ac4 2e3d 6309 7abe e966 363e
00000100: 28df 2f3e c7b1 733e cd96 9dbe 542c f73d
00000110: 90de ecbd bb83 b93d e977 a83d d595 473e
00000120: e694 cb3e a6b4 02bd 3b11 db3d bf90 2c3a
00000130: f588 12be 0fb2 0bbd 1839 593e 6078 7b3e
00000140: 98a0 a43e 10ec 133b 3566 743d 7cdb 1e3e
00000150: 71f7 98be 5940 4cbe 69c5 0e3e 567b b23e
00000160: 93e7 b7bd 7dae b5bd 4033 fc3d 7dd3 4dbc
00000170: 7352 9cbd ce6a 36be b766 14be bfb4 593e
00000180: 65f1 e3be 016e e13d 4416 ed3c dbf3 8b3e
00000190: 6605 6fbd 6937 103e 2b40 b03e 001f 15be
000001a0: 7529 423e 804a 793e 029c 39be d0db cebd
000001b0: cb22 2ebd 1621 4cbe b774 ad3d 20d5 c4bd
000001c0: 717e 44be 5b03 4cbe 9487 1a3f ec35 083d
000001d0: 0231 5abe c418 243e 6d0d 3b3e 58cb 9b3e
000001e0: 406c d6be e577 4dbd 14dc b5bd 0bd1 1a3e
000001f0: 0ae0 61be 5bba 07bf 3fc6 433e 006f 9bbc
00000200: 4cfb 9c3e a97f 9ebe 7cfc 3c3e ce21 efbd
00000210: 0b9b 81bd d2ad 8cbd 6e6d 1e3e 5cd4 0c3e
00000220: 6eec 86be 12ef b1be f71c 533d adc0 4abe
00000230: f9f7 213e 04f1 ba3e 10a0 2a3e 2507 183d
00000240: 4bbc 9f3e 2c53 693e 309c d5be bba7 cf3d
00000250: 3dca 62bd 1f4a a1bd 0c00 983d 31d3 283e
00000260: 1d3a 9b3e 89d2 b2be 46dc 503d 0a32 02be
00000270: 97c4 25be dfae 6dbe ecd8 44be 0241 6b3e
00000280: 93a9 df3d af00 22be d22e c3bd 5604 263e
00000290: 5d31 7cbe 2302 9b3e 9f7b 8ebe 7e4d 80bd
000002a0: 08de 94be e3bf 2bbe 1b9a f83d 948f 0a3e
000002b0: 4d4f 303e 585f 1abe 3b27 d23d 81db d93e
000002c0: 8b01 b73e cb63 dd3d 5fb0 323e 6008 21be
000002d0: c33d d23d b656 803a a13c 983e 45bb 383e
000002e0: 2937 f13e 962d a23e 8b75 f63d 02c7 2a3e
000002f0: 015f e03e 9afc c23d 712e d53d 3360 81be
00000300: 2047 a5bd 1385 463e 8828 11be 7bf3 5b3d
00000310: c4eb a33e 9983 02be c3e0 46be 7b86 343d
00000320: b046 213b 2e7d 963e 27f1 9ebe 56c7 083f
00000330: 4990 d4be d5ab b3be 05bb 90be 3821 6bbe
00000340: 6200 343f 5257 1ebf 7430 f03c d1d6 7bbd
00000350: c816 0fbf c0aa 9dbe 7378 3ebe c157 bf3c
00000360: e6c2 4bbf 404e 973d 6d29 5f3e 69bd 30be
00000370: 4b5a debe a8e3 0b3e 3c35 513e b40d 9d3e
00000380: cbee 0cbe 972b c83d e325 843c fe13 36be
00000390: 4261 5dbe b56f 953e 039a ba3d 5d76 013f
000003a0: 0e4c c1bd 8af3 38be d4fd 653e 62fb 18be
000003b0: 5953 543c 518f 243b 71fa 6c3e ab47 da3c
000003c0: cef7 9ebe 8e51 383e 5325 813e 8215 20be
000003d0: 1499 97be 5c4e 743e 7961 433d 0aa2 3dbe
000003e0: 1970 fb3d f42e 953e eff2 ebbd d7c0 653e
000003f0: 08b9 4a3e 1948 053d 27f9 52bd 011b 54bc

bias f4 [20]
0.32904407 -0.0939807 0.14014916 -0.038620654 -0.2148816 -0.13353644 0.019551327 -0.20366172
-0.09451567 -0.1589564 -0.09766727 0.08890467 0.17329592 0.23940663 -0.19910422 0.040759742
-0.3934058 -0.080835216 -0.21821572 -0.15835053
00000000: 7778 a83e f478 c0bd 4383 0f3e b130 1ebd
00000010: ec09 5cbe c7bd 08be 1b2a a03c b38c 50be
00000020: 6e91 c1bd 77c5 22be c705 c8bd a713 b63d
00000030: 7c74 313e 0327 753e fae1 4bbe b0f3 263d
00000040: 7c6c c9be ef8c a5bd f173 5fbe a426 22be

weight f4 [20, 20]
0.25442144 -0.17268372 0.08235162 0.13808231 -0.11485027 -0.16063762 0.1733013 0.31601542
-0.6514277 0.1632644 0.14770482 0.3172377 0.14662501 0.15004116 0.26485837 -0.335822
0.3807115 -0.18563317 0.29801333 -0.34129205 0.2735661 0.12724292 0.0043323473 -0.012253193
0.12363713 0.3237293 0.22474772 -0.24825613 -0.12456206 0.16931184 -0.29713255 0.38482407
0.025826294 0.011641959 -0.11099615 0.43969396 -0.011591892 0.4668488 0.7104792 -0.046148483
-0.34184176 0.023519987 -0.078939594 -0.23888384 0.36399224 0.12987028 0.29054314 0.08442135
0.14045572 0.2100785 -0.055486087 -0.19285464 -0.19374666 0.07257917 0.016809184 0.16446549
0.20400316 0.0044997036 -0.081729755 0.06425239 0.32229218 0.09663059 -0.123279005 -0.15927966
-0.24827062 -0.22797234 -0.61381096 -0.47834465 -0.26374778 -0.13733263 -0.31973803 0.028202869
-0.17176412 -0.016950069 -0.13283072 0.12188527 0.041592 -0.08188136 0.270966 0.44712883
0.33808634 -0.03219673 0.10509646 -0.06762027 0.18970987 -0.26898307 -0.20765795 -0.16709389
0.08120529 0.10503613 -0.66576594 -0.2843806 -0.027488817 -0.60343605 0.43433967 0.2979681
-0.07302818 -0.2764528 0.5260373 0.26154658 -0.24874759 -0.016583296 -0.03773621 -0.18822648
-0.15199429 -0.110433124 0.11361888 -0.41639116 0.12989788 -0.031180993 -0.10626237 -0.12587164
0.31672657 0.12377464 0.46003643 -0.109617844 0.067941286 0.05627842 -0.027553657 -0.51403075
0.26793417 -0.13909885 0.07824002 0.26613262 -0.01591243 -0.07555888 -0.12558752 0.19800976
-0.012689981 0.042834513 0.11800243 0.098662145 -0.22904843 0.28768376 -0.19663413 0.29910865
0.20566584 -0.7090267 -0.639188 0.082787305 -0.12519343 0.14972502 -0.05923609 0.22452162
-0.01850495 -0.0703187 -0.2104642 0.29319993 0.36095786 0.115664564 0.1355917 -0.14369158
-0.12846366 -0.09232116 0.101310104 0.17658678 -0.18901286 0.32632208 -0.12635718 0.0625067
-0.07870743 -0.074353226 -0.28633788 0.45353064 0.25319692 0.19538233 -0.00891674 0.029896861
0.20096841 0.03967335 0.013727219 0.29919273 -0.20047294 -0.30797377 0.24058345 0.009732687
-0.07573287 -0.115669064 0.4850105 -0.27239412 0.45662093 -0.11322057 -0.28429428 -0.06359598
-0.08061485 0.275296 -0.29597467 0.15285227 -0.04376485 0.018513357 0.23953164 0.17690368
-0.15733358 -0.046456657 -0.15990792 0.10900822 -0.054620236 0.029441092 0.14433861 -0.24956915
0.25580573 -0.05592 0.239759 -0.036085125 -0.04149373 0.12596244 0.06400733 -0.15038678
-0.1931919 0.21143213 -0.38951018 0.16304238 -0.0031902473 0.17697062 -0.42032242 0.23462898
0.15999489 -0.31017134 -0.06978771 -0.2235799 0.06733919 0.099237986 -0.08901118 -0.24763475
0.20287791 -0.2339139 -0.005100598 -0.07240695 -0.38276717 0.17993449 -0.18941611 -0.02892284
0.330771 0.28724596 -0.047361646 0.45082274 0.0341123 0.6485078 0.07322539 0.08443576
-0.35917035 0.068881735 -0.23441531 0.06513028 0.20556305 -0.3329788 -0.009217432 0.3188406
0.08679325 0.06183405 0.2050465 -0.117941774 -0.30085635 -0.42701474 0.26608348 -0.6818418
00000000: 8743 823e 00d4 30be f7a7 a83d 7365 0d3e
00000010: 9e36 ebbd 307e 24be e575 313e c6cc a13e
00000020: f7c3 26bf c82e 273e ef3f 173e fb6c a23e
00000030: de24 163e 64a4 193e 849b 873e dcf0 abbe
00000040: 9eec c23e 9f16 3ebe 3495 983e d5bd aebe
00000050: db10 8c3e f84b 023e 5df6 8d3b 9ec1 48bc
00000060: 7735 fd3d d9bf a53e 4424 663e db36 7ebe
00000070: 651a ffbd 1560 2d3e c221 98be a907 c53e
00000080: aa91 d33c eabd 3e3c f351 e3bd 911f e13e
00000090: ebeb 3dbc ce06 ef3e f7e1 353f 3106 3dbd
000000a0: e205 afbe fdac c03c 15ab a1bd f79d 74be
000000b0: 315d ba3e b7fc 043e 12c2 943e 1ae5 ac3d
000000c0: a0d3 0f3e d11e 573e 6145 63bd b07b 45be
000000d0: 8665 46be 63a4 943d 6ab3 893c a469 283e
000000e0: 34e6 503e 4072 933b ee61 a7bd c296 833d
000000f0: 7b03 a53e 42e6 c53d b479 fcbd 351a 23be
00000100: a73a 7ebe 9571 69be b722 1dbf 97e9 f4be
00000110: f309 87be eda0 0cbe b4b4 a3be b409 e73c
00000120: efe2 2fbe dfda 8abc c704 08be fc9e f93d
00000130: 5f5c 2a3d 6ab1 a7bd 0ebc 8a3e 12ee e43e
00000140: a719 ad3e b8e0 03bd d03c d73d 7f7c 8abd
00000150: 4e43 423e 26b8 89be 49a4 54be a91a 2bbe
00000160: f64e a63d 2f1d d73d a36f 2abf 569a 91be
00000170: 3a30 e1bc c97a 1abf c561 de3e 468f 983e
00000180: cc8f 95bd 398b 8dbe 61aa 063f 6fe9 853e
00000190: b0b7 7ebe b1d9 87bc 4991 1abd 71be 40be
000001a0: 64a4 1bbe c32a e2bd 04b1 e83d 3931 d5be
000001b0: f303 053e 486f ffbc 16a0 d9bd 7fe4 00be
000001c0: fc29 a23e 8f7d fd3d e589 eb3e 527f e0bd
000001d0: cd24 8b3d 3384 663d 35b8 e1bc 8597 03bf
000001e0: ab2e 893e ee6f 0ebe 4e3c a03d 8942 883e
000001f0: c95a 82bc 9dbe 9abd 049a 00be 12c3 4a3e
00000200: a3e9 4fbc 3e73 2f3d 42ab f13d 610f ca3d
00000210: ac8b 6abe 494b 933e 755a 49be c524 993e
00000220: 119a 523e c682 35bf d3a1 23bf 648c a93d
00000230: b532 00be 8451 193e 8ba1 72bd ffe8 653e
00000240: b197 97bc 4003 90bd ed83 57be 4d1e 963e
00000250: 78cf b83e 8be1 ec3d 8dd8 0a3e e323 13be
00000260: fa8b 03be e012 bdbd ac7b cf3d 2ad3 343e
00000270: 968c 41be b013 a73e c763 01be 8303 803d
00000280: 5c31 a1bd 8146 98bd e19a 92be 2b35 e83e
00000290: 07a3 813e 4e12 483e 8517 12bc 43ea f43c
000002a0: aaca 4d3e 8680 223d 21e8 603c ca2f 993e
000002b0: c748 4dbe bdae 9dbe 825b 763e d975 1f3c
000002c0: d619 9bbd e7e3 ecbd 4c53 f83e 3e77 8bbe
000002d0: 38ca e93e 30e0 e7bd 058f 91be 9c3e 82bd
000002e0: 6619 a5bd 99f3 8c3e fe89 97be 4e85 1c3e
000002f0: c542 33bd 53a9 973c c847 753e 3d26 353e
00000300: 0e1c 21be 5649 3ebd e7be 23be b43f df3d
00000310: 78b9 5fbd 722e f13c 80cd 133e 0e8f 7fbe
00000320: f8f8 823e 5f0c 65bd 6283 753e ffcd 13bd
00000330: 54f5 29bd 4cfc 003e 4616 833d fefe 19be
00000340: 19d4 45be aa81 583e e16d c7be 95f4 263e
00000350: 7813 51bb c937 353e 8034 d7be 9442 703e
00000360: b3d5 233e c7ce 9ebe dcec 8ebd 21f2 64be
00000370: 21e9 893d 493d cb3d 7e4b b6bd f793 7dbe
00000380: 3abf 4f3e 2087 6fbe eb22 a7bb 184a 94bd
00000390: 0ffa c3be bf40 383e 4cf6 41be 97ef ecbc
000003a0: d15a a93e e711 933e 49fe 41bd 3dd2 e63e
000003b0: 57b9 0b3d 9b04 263f 31f7 953d a8ec ac3d
000003c0: 2de5 b7be de11 8d3d 910a 70be 0663 853d
000003d0: 1f7f 523e 337c aabe b604 17bc 133f a33e
000003e0: a9c0 b13d b345 7d3d b6f7 513e 758b f1bd
000003f0: d809 9abe ada1 dabe 183c 883e 2f8d 2ebf

bias f4 [20]
0.16825593 -0.016474474 -0.14383851 0.13051683 -0.15297471 -0.061712824 -0.06716239 -0.012603799
-0.021319494 -0.024305522 0.072016634 0.095670395 -0.06235082 0.06591295 0.15285532 -0.13616642
-0.14825891 -0.21502769 -0.10664527 -0.06808372
00000000: 484b 2c3e 7af5 86bc 674a 13be 34a6 053e
00000010: 67a5 1cbe 96c6 7cbd 6f8c 89bd 2a80 4ebc
00000020: 38a6 aebc 601c c7bc 757d 933d d7ee c33d
00000030: 9363 7fbd 5efd 863d 1b86 1c3e 366f 0bbe
00000040: 2fd1 17be 3830 5cbe d668 dabd 7a6f 8bbd

weight f4 [20, 20]
0.02917644 0.14716715 0.3706536 -0.21185564 0.41783482 -0.065707125 0.3526415 -0.2131315
0.28210267 0.051670633 0.122320466 -0.007955773 0.049186405 0.21872257 -0.11432444 0.07746901
0.19574596 0.36238325 0.30184618 -0.006378431 -0.088871144 0.0142043885 -0.0051235547 -0.15786026
0.1488802 0.40547767 0.3300413 0.083135985 -0.048437048 -0.011857596 -0.42424998 -0.26086897
-0.21724193 0.43704697 -0.2715107 -0.47797585 0.41214615 0.3546453 -0.26592726 0.23659
-0.45165533 -0.28365046 0.21737023 -0.1717961 -0.5031724 0.25950992 -0.54286504 0.32378504
0.2905287 0.5509395 -0.28232196 -0.09573922 0.006437047 -0.0752579 0.22655836 -0.29016173
-0.19395089 0.46565798 0.11994402 0.4252832 -0.1300944 -0.04941589 -0.1016845 0.12675156
-0.029886397 -0.12606098 0.18932067 0.18141927 0.03250773 0.13924374 0.25575897 -0.5355218
0.06644036 0.31465447 -0.015067881 -0.09356408 -0.14791481 0.63279194 0.03573997 -0.50289005
0.36782238 -0.24692655 -0.32703218 -0.040599294 0.120318845 0.22423962 -0.14538358 -0.021282423
0.01257173 -0.26125124 0.12215099 0.031686544 0.028706562 0.344657 -0.14807047 -0.20828697
-0.1634925 -0.33918604 -0.52975893 -0.023649998 0.10564878 -0.019596938 -0.010415267 0.22948837
0.29751652 -0.07547552 -0.25978136 -0.17650479 0.20638043 0.05463742 -0.11073598 -0.32072622
0.012594986 0.22414939 -0.47801578 0.29604176 -0.34284547 -0.06656284 0.23569758 0.09976893
-0.13046707 0.27070406 0.04940604 -0.23426323 -0.68507546 0.27771294 0.11487141 -0.0064572147
-0.2341339 0.12053851 -0.26890033 -0.5538574 0.26177645 -0.2685425 0.4274888 -0.041255374
0.7873987 0.20400298 -0.029375296 -0.2259389 -0.43834743 -0.26114404 -0.2664192 0.15201257
-0.62988615 0.43380827 0.48836273 0.25866726 -0.11507756 -0.25431415 0.40421325 -0.34175992
0.39224637 -0.31507066 -0.2938337 -0.118931554 0.15742609 -0.1444685 -0.53703576 -0.25908524
0.29144737 0.08450978 -0.21295145 -0.3214041 0.20410046 0.151305 -0.2634294 -0.1336951
0.01922192 -0.0920466 0.027550867 -0.08394457 0.39133915 0.20624852 0.15719904 -0.001317401
-0.15118492 -0.15622321 0.26724452 -0.059077676 0.2722979 0.009246203 0.06959887 -0.21815671
-0.060756642 -0.08974151 -0.17383815 0.15845528 -0.031201422 0.25446197 -0.21852124 -0.17119505
-0.3192786 0.11821968 0.35973272 -0.3322227 -0.15278211 -0.3555401 -0.12120546 0.07941534
0.045709826 0.49752253 0.13718604 0.26352018 0.012327325 0.11200936 -0.076124236 -0.019591378
0.39592677 0.061346743 -0.27368644 -0.06905903 0.35478213 0.25959942 0.04638544 -0.2279149
-0.26751262 -0.36521897 -0.022861829 0.00044238908 -0.05074027 0.12966184 0.047565997 -0.2018476
-0.20045063 0.24085101 0.12556092 -0.118690416 -0.29939064 -0.29018617 -0.17637007 -0.14045997
-0.14682181 -0.065078475 0.03513795 -0.21193899 0.26972294 0.2607572 -0.37249425 0.13283494
0.15010978 -0.03853605 0.0683301 0.012863658 -0.108514726 -0.28668573 0.13603812 -0.1791781
0.20837261 -0.04208343 -0.07808584 -0.1655428 -0.10107001 -0.09393848 0.3128201 0.037406325
00000000: 6e03 ef3c fcb2 163e 4fc6 bd3e aff0 58be
00000010: 72ee d53e 7591 86bd 6d8d b43e 253f 5abe
00000020: c36f 903e 96a4 533d 2783 fa3d ee58 02bc
00000030: af77 493d cff8 5f3e ef22 eabd 13a8 9e3d
00000040: a171 483e 4c8a b93e 958b 9a3e 2802 d1bb
00000050: 1302 b6bd 86b9 683c 7ee3 a7bb 1fa6 21be
00000060: 0d74 183e c59a cf3e 2cfb a83e 3343 aa3d
00000070: ed65 46bd 5d46 42bc 4b37 d9be 9e90 85be
00000080: ab74 5ebe 9fc4 df3e 7303 8bbe 40b9 f4be
00000090: d204 d33e 1294 b53e 9e27 88be a644 723e
000000a0: 5e3f e7be a23a 91be 4d96 5e3e 51eb 2fbe
000000b0: e8cf 00bf 7cde 843e 34f9 0abf 27c7 a53e
000000c0: 2ec0 943e 5f0a 0d3f 818c 90be ed12 c4bd
000000d0: dded d23b d020 9abd eafe 673e 1490 94be
000000e0: 109b 46be b96a ee3e 36a5 f53d b8be d93e
000000f0: 7737 05be 5168 4abd f73f d0bd 29cb 013e
00000100: 51d4 f4bc 2116 01be 47dd 413e f9c5 393e
00000110: d326 053d e995 0e3e d7f2 823e f517 09bf
00000120: e211 883d 641a a13e 46df 76bc 869e bfbd
00000130: fb76 17be a7fe 213f 1364 123d 67bd 00bf
00000140: 3753 bc3e 50da 7cbe c370 a7be 724b 26bd
00000150: ba69 f63d 129f 653e 6fdf 14be 7a58 aebc
00000160: a8f9 4d3c b9c2 85be 4c2a fa3d c0c9 013d
00000170: 062a eb3c e276 b03e c99f 17be 2e49 55be
00000180: 946a 27be cba9 adbe 489e 07bf a4bd c1bc
00000190: 635e d83d c289 a0bc cca4 2abc 00ff 6a3e
000001a0: 1654 983e e992 9abd 1002 85be acbd 34be
000001b0: 6455 533e 7dcb 5f3d 8cc9 e2bd 3a36 a4be
000001c0: 335b 4e3c 6b87 653e 7cbe f4be c992 973e
000001d0: 7189 afbe 1952 88bd b55a 713e a753 cc3d
000001e0: 2999 05be b999 8a3e fd5d 4a3d b3e2 6fbe
000001f0: 1b61 2fbf 6430 8e3e b441 eb3d 0b97 d3bb
00000200: ccc0 6fbe e5dc f63d 4ead 89be 99c9 0dbf
00000210: 9007 863e 677e 89be d0df da3e 65fb 28bd
00000220: f692 493f 28e6 503e 76a4 f0bc 875c 67be
00000230: 136f e0be acb4 85be 1968 88be 2fa9 1b3e
00000240: 3840 21bf 1e1c de3e ae0a fa3e 0970 843e
00000250: c9ad ebbd 7735 82be 0af5 ce3e 28fb aebe
00000260: 84d4 c83e f150 a1be 5f71 96be 6392 f3bd
00000270: 4e34 213e 8def 13be 2d7b 09bf d2a6 84be
00000280: 9738 953e 7713 ad3d f20f 5abe 148f a4be
00000290: b6ff 503e b3ef 1a3e 38e0 86be 5ee7 08be
000002a0: 4a77 9d3c ee82 bcbd 5bb2 e13c 21eb abbd
000002b0: 9b5d c83e d032 533e c9f8 203e a4ac acba
000002c0: 38d0 1abe faf8 1fbe 46d4 883e 6ffb 71bd
000002d0: a16a 8b3e 637d 173c da89 8e3d 7964 5fbe
000002e0: f5db 78bd 66ca b7bd a102 32be 1a42 223e
000002f0: 209a ffbc d748 823e 08c4 5fbe c14d 2fbe
00000300: 7c78 a3be 291d f23d e32e b83e 1819 aabe
00000310: ea72 1cbe 5a09 b6be 913a f8bd 83a4 a23d
00000320: 3a3a 3b3d 46bb fe3e 7f7a 0c3e 1eec 863e
00000330: 8cf8 493c 2a65 e53d 06e7 9bbd 197e a0bc
00000340: eab6 ca3e b946 7b3d a120 8cbe d26e 8dbd
00000350: 01a6 b53e 37ea 843e a9fe 3d3d 8662 69be
00000360: 6af7 88be fbfd babe bb48 bbbc 75f0 e739
00000370: 08d5 4fbd 13c6 043e 90d4 423d 23b1 4ebe
00000380: ee42 4dbe a6a1 763e 0b93 003e f613 f3bd
00000390: bb49 99be 4893 94be 5b9a 34be bdd4 0fbe
000003a0: 7558 16be dd47 85bd d0ec 0f3d 8906 59be
000003b0: 2019 8a3e f881 853e 91b7 bebe e205 083e
000003c0: 61b6 193e fad7 1dbd a7f0 8b3d 18c2 523c
000003d0: f83c debd 79c8 92be 944d 0b3e 777a 37be
000003e0: a15f 553e ad5f 2cbd 78eb 9fbd 0d84 29be
000003f0: cbfd cebd d162 c0bd f529 a03e 6037 193d

bias f4 [20]
-0.29587877 -0.22629172 -0.061346646 0.036634635 0.2580112 0.058841445 0.019848311 -0.15315829
0.044896744 -0.023452338 0.20288187 0.0035177157 0.002874032 0.07994241 -0.06939783 0.12734742
0.06369009 0.07727653 0.01730898 -0.14369968
00000000: 6c7d 97be 04b9 67be 9f46 7bbd 330e 163d
00000010: 0b1a 843e ba03 713d ed98 a23c 87d5 1cbe
00000020: a6e5 373d 1e1f c0bc 44c0 4f3e 7a89 663b
00000030: 415a 3c3b d9b8 a33d 7320 8ebd 5d67 023e
00000040: f36f 823d 2843 9e3d 90cb 8d3c 0226 13be

weight f4 [20, 20]
0.11200416 0.138506 0.03573181 -0.05202783 0.26883906 0.039109007 0.05210041 -0.053940706
0.4743038 0.17507719 0.05659668 0.1628615 0.17308666 -0.2419259 0.17039435 -0.21348545
0.2659924 -0.05899957 -0.11481382 -0.20646769 0.040272698 -0.3614395 0.11039962 -0.20121789
-0.13057357 0.053259823 -0.06632184 -0.4223461 0.3622302 -0.18041296 -0.0037231487 -0.28136894
-0.15648967 0.094178334 -0.2826441 -0.25259045 -0.12902819 0.31788522 0.18580522 -0.05457158
0.2441741 0.25900757 -0.3639406 0.060830344 -0.3423042 -0.27480084 -0.28887337 0.24146734
-0.094370045 0.14794582 0.08216329 -0.015326702 0.06102338 0.35873213 -0.19392528 0.097440064
0.03704002 -0.29431745 -0.24797888 -0.048429806 -0.13167405 0.4378794 0.23399508 0.1012912
0.14059517 -0.3199079 0.07821565 0.15491968 -0.0642146 -0.1405809 -0.084201396 -0.02482309
0.308751 0.15995282 0.12623657 0.15094027 -0.14295548 0.35306516 -0.03837372 0.26230568
-0.29658088 0.16582684 0.6232827 0.20503274 0.0045974054 -0.11894464 0.14475551 -0.22375236
0.13190219 -0.08022174 -0.11930301 0.037227828 -0.29390806 -0.22514728 -0.34147412 0.0012111923
-0.14138271 0.16357918 -0.16405064 -0.073777705 -0.29873326 -0.0988406 -0.044436466 -0.11692905
0.3244171 0.12058612 -0.5212748 -0.014183365 0.15190913 -0.107613444 -0.2513461 -0.4216846
-0.1946777 0.27705362 -0.075216606 0.62821674 -0.10875999 -0.093003534 -0.24374615 -0.3748559
0.25677425 -0.17857291 -0.07631634 -0.09970676 -0.48989347 0.106908806 -0.13255575 0.2340766
-0.031315003 0.09663087 -0.52924204 -0.02753727 0.20150429 0.15095542 0.26740685 0.055525858
0.3310384 0.13666928 0.06923044 0.13570198 -0.23079 0.21222791 0.45532665 0.050696656
-0.040490277 -0.1768898 0.23572552 -0.17072593 -0.07463309 0.20636447 0.008111207 -0.12028231
0.12891023 -0.21617341 -0.17399444 -0.3050242 -0.3300571 0.019854901 -0.10088473 0.18352032
-0.23973686 -0.28482103 0.09542621 0.16862963 -0.13749339 -0.21727239 0.06640751 -0.5364374
-0.039849013 0.23271847 0.1585485 -0.27469623 -0.17139597 0.28017166 0.08617112 -0.09433595
-0.2027104 -0.16867326 -0.06720752 0.13003863 -0.15281741 0.2243769 0.31764108 -0.15093565
-0.1101032 -0.12808596 -0.06880253 0.26711044 -0.12676555 0.06544356 0.15083326 -0.0483828
-0.40376577 0.32757923 -0.15553898 -0.11262156 -0.12141548 0.3734205 0.08414987 0.044154268
-0.029041868 -0.24838337 0.2428352 0.30902377 -0.06873759 0.3350913 -0.114192486 -0.23922065
0.17739624 -0.44595838 0.24088272 0.049962655 -0.2974939 -0.060645685 -0.358515 0.17096406
0.21599658 -0.08803592 0.33308318 -0.27622038 -0.46724808 0.0015054235 -0.0756456 0.19180055
-0.29171738 0.058389854 -0.1380975 0.5276052 -0.13193837 -0.15017933 0.051018868 0.11545347
0.20681407 0.130139 0.033295687 -0.04442329 0.046877254 -0.10002112 -0.034466792 -0.11287274
-0.24518873 -0.07771073 -0.09340566 -0.106118836 -0.2240776 0.31706625 -0.14423385 -0.18822238
0.039730668 -0.08124264 0.083415784 -0.032759782 -0.19302797 0.29345578 -0.36080027 0.15305813
00000000: 7062 e53d 84d4 0d3e 855b 123d 221b 55bd
00000010: 46a5 893e c430 203d 3d67 553d eef0 5cbd
00000020: f3d7 f23e 6f47 333e ecd1 673d 2ac5 263e
00000030: a13d 313e 6cbb 77be db7b 2e3e ee9b 5abe
00000040: 2830 883e 88a9 71bd 8223 ebbd 446c 53be
00000050: fcf4 243d 990e b9be 3219 e23d 100c 4ebe
00000060: 14b5 05be f926 5a3d bfd3 87bd bf3d d8be
00000070: 3d76 b93e 2dbe 38be 1200 74bb 970f 90be
00000080: d43e 20be 92e0 c03d bab6 90be 8953 81be
00000090: f71f 04be dac1 a23e b943 3e3e 7386 5fbd
000000a0: c608 7a3e a49c 843e 6c56 babe 3d29 793d
000000b0: 7f42 afbe b2b2 8cbe 36e7 93be 3743 773e
000000c0: 1545 c1bd 1c7f 173e 3a45 a83d d91c 7bbc
000000d0: a7f3 793d bdab b73e 5994 46be a88e c73d
000000e0: 47b7 173d c7b0 96be 2dee 7dbe 555e 46bd
000000f0: 90d5 06be bb31 e03e 689c 6f3e c371 cf3d
00000100: 2ef8 0f3e f8ca a3be 872f a03d 44a3 1e3e
00000110: f282 83bd 70f4 0fbe c871 acbd cb59 cbbc
00000120: 9c14 9e3e acca 233e 2944 013e 1690 1a3e
00000130: ec62 12be f5c4 b43e c32d 1dbd ee4c 863e
00000140: 73d9 97be 83ce 293e 748f 1f3f 1af4 513e
00000150: d5a5 963b 3f99 f3bd ca3a 143e 571f 65be
00000160: 5e11 073e 4c4b a4bd 2355 f4bd 357c 183d
00000170: 1e7b 96be 028d 66be b2d5 aebe dfc0 9e3a
00000180: a1c6 10be 4d81 273e e4fc 27be c418 97bd
00000190: 91f3 98be f16c cabd 0303 36bd 7f78 efbd
000001a0: 001a a63e dbf5 f63d 4472 05bf 5861 68bc
000001b0: 118e 1b3e 7064 dcbd 70b0 80be 0be7 d7be
000001c0: 9759 47be f9d9 8d3e 2a0b 9abd d0d2 203f
000001d0: 8fbd debd a378 bebd 9798 79be 1ded bfbe
000001e0: ea77 833e d1db 36be be4b 9cbd 0f33 ccbd
000001f0: 51d3 fabe 01f3 da3d b2bc 07be c7b1 6f3e
00000200: 2944 00bd 68e6 c53d 687c 07bf d795 e1bc
00000210: 2457 4e3e 0f94 1a3e 8de9 883e 156f 633d
00000220: dd7d a93e 08f3 0b3e b0c8 8d3d 76f5 0a3e
00000230: 3754 6cbe 4652 593e 9320 e93e 4ca7 4f3d
00000240: 22d9 25bd 9a22 35be 0862 713e c7d2 2ebe
00000250: 3cd9 98bd 3551 533e dee4 043c 9256 f6bd
00000260: 0b01 043e 905c 5dbe 992b 32be 222c 9cbe
00000270: 3ffd a8be bfa6 a23c a79c cebd c0ec 3b3e
00000280: 947d 75be 10d4 91be d16e c33d 3fad 2c3e
00000290: 11cb 0cbe a77c 5ebe a900 883d f653 09bf
000002a0: b838 23bd c04d 6e3e 8a5a 223e fca4 8cbe
000002b0: 6d82 2fbe a972 8f3e 7c7a b03d 3533 c1bd
000002c0: 5193 4fbe afb8 2cbe 19a4 89bd d928 053e
000002d0: 2b7c 1cbe 0fc3 653e daa1 a23e e08e 1abe
000002e0: c97d e1bd f728 03be 57e8 8cbd b3c2 883e
000002f0: d4ce 01be 4607 863d 0974 1a3e 0b2d 46bd
00000300: 63ba cebe 77b8 a73e 9c45 1fbe 22a6 e6bd
00000310: aea8 f8bd f930 bf3e c456 ac3d 1bdb 343d
00000320: 36e9 edbc 3658 7ebe caa9 783e 5d38 9e3e
00000330: 4bc6 8cbd 1691 ab3e c0dd e9bd 42f6 74be
00000340: 5ca7 353e a854 e4be f6a9 763e a4a5 4c3d
00000350: 1f51 98be 9c67 78bd 478f b7be 3411 2f3e
00000360: 352e 5d3e 2d4c b4bd e189 aa3e c26c 8dbe
00000370: 243b efbe a151 c53a 15ec 9abd 5d67 443e
00000380: fb5b 95be 332a 6f3d 6e69 0dbe 2211 073f
00000390: da1a 07be 9cc8 19be 29f9 503d de72 ec3d
000003a0: 11c7 533e 2843 053e 0f61 083d 32f5 35bd
000003b0: 5d02 403d dfd7 ccbd 0d2d 0dbd d329 e7bd
000003c0: c112 7bbe ce26 9fbd 774b bfbd d554 d9bd
000003d0: 9974 65be 8256 a23e 0ab2 13be 5ebd 40be
000003e0: a0bc 223d 8b62 a6bd e5d5 aa3d 1f2f 06bd
000003f0: 20a9 45be d63f 963e d0ba b8be 45bb 1c3e

bias f4 [20]
0.10594403 0.021635307 -0.031352893 -0.018420579 0.011890916 0.0033254868 -0.3171153 -0.109323874
0.13549636 0.1443956 0.0984175 0.093234815 -0.0022126548 -0.1142954 -0.07202482 0.004070304
0.24952923 -0.024845012 0.068696715 -0.0043938067
00000000: 2ff9 d83d 873c b13c e46b 00bd c1e6 96bc
00000010: 1ed2 423c 69f0 593b f05c a2be 32e5 dfbd
00000020: 8fbf 0a3e 71dc 133e 1d8f c93d e5f1 be3d
00000030: 3002 11bb b513 eabd c081 93bd 2f60 853b
00000040: 9784 7f3e c487 cbbc ddb0 8c3d ecf9 8fbb

weight f4 [20, 20]
0.16674036 0.1960232 -0.17073545 0.08612069 -0.12296776 0.043629047 -0.09023451 0.07599952
0.107117265 0.057829324 0.16972023 -0.0348412 0.28603148 0.058009632 -0.014517865 0.16259849
0.18158135 0.19333705 0.19589879 -0.38479775 0.12127979 0.4081051 -0.41578445 -0.2770402
0.038358606 0.018026853 -0.15410882 0.2835841 0.29864386 0.09216139 -0.07988922 -0.34519562
0.2620061 -0.026087029 -0.06872485 -0.28968728 0.33593398 -0.30480614 -0.22189452 -0.001377717
-0.38660678 -0.060315255 -0.012108787 -0.16563305 -0.32918626 0.020542119 0.12165916 -0.44542018
-0.20572382 0.08278354 -0.104184836 -0.22309217 -0.14203395 -0.03213998 0.31536976 0.2798528
0.06778645 -0.035460528 0.08344126 0.25898817 -0.33343852 -0.013344373 -0.13276462 -0.18145482
-0.14692001 0.05065697 -0.18397446 -0.29267982 -0.21037102 0.2406443 0.09624775 0.21185356
0.03138685 0.10654099 0.2926592 0.30977854 -0.37330997 0.100000225 0.06352971 -0.044505943
-0.13760231 -0.18476115 -0.07172655 -0.1835379 -0.43909788 -0.1549421 -0.23520847 -0.28664047
0.088838495 -0.27471313 0.3741093 -0.055225242 -0.21139753 -0.00055398804 -0.0016824863 -0.16622998
-0.05698051 0.011162204 -0.0419192 -0.23912917 -0.15894803 0.052862216 -0.5895869 0.11206116
-0.64795154 -0.35945043 0.11231214 -0.2523305 0.34553003 -0.21636656 -0.071355246 0.2441135
-0.25932667 -0.43033847 -0.061791837 0.26054013 0.29746774 -0.123945825 -0.10232399 0.39038944
-0.13745211 0.041113015 -0.12443657 0.14878182 0.26823702 -0.17663768 0.15083073 -0.14133179
0.22396633 0.0017847485 0.12538211 -0.12347727 -0.18395843 -0.034857325 0.3132415 -0.6038278
-0.04404426 -0.25457278 -0.06697366 -0.40549 0.20929085 0.013939851 -0.1931514 0.09009323
0.19451256 -0.16591385 -0.18109281 -0.16700281 0.116737016 -0.04794192 0.15089062 -0.14970423
0.03546081 -0.17801604 -0.030959867 -0.17425731 -0.022553077 0.30451176 -0.41378057 0.046163402
-0.11804601 -0.12888679 0.025104083 0.17620783 0.34463584 0.0039322176 -0.015294659 0.46633762
0.6078042 0.2065913 -0.12775202 -0.23049755 0.047921974 0.05910563 -0.0009549957 0.013531323
0.27631927 -0.36666694 0.012718757 -0.3581002 -0.16964586 -0.31860176 0.013553632 0.3249309
0.08155503 0.037701253 0.034519345 -0.23084615 -0.0280541 -0.06310519 0.05597333 -0.07995291
-0.2772106 -0.05530364 -0.17104426 -0.4832017 0.026451021 -0.3426337 -0.24267814 0.10501911
0.3082967 0.18422602 0.2776107 0.004331508 -0.10306248 -0.01476402 0.29331383 -0.09302218
-0.1258869 0.24398963 -0.016532034 -0.30044827 -0.2804568 0.03504955 -0.083191715 0.33306494
-0.068512134 -0.15883183 0.07083281 -0.14227557 0.16610491 0.16242565 0.39221963 0.052981168
-0.33150747 0.44971314 0.026574966 -0.45532274 0.15112758 -0.24188477 0.40398118 0.25174057
0.34266847 -0.21865109 -0.4045043 0.42406374 0.20884521 -0.1526073 0.56620705 0.07772769
0.129686 -0.25112 0.35079363 0.022942003 -0.32070562 0.17416224 -0.084323965 -0.39755914
0.0042992895 0.26582864 -0.25327775 -0.037080858 0.022289338 0.11598892 0.18183564 0.3063329
00000000: fcbd 2a3e 4eba 483e 46d5 2ebe 0b60 b03d
00000010: 85d6 fbbd 5fb4 323d dfcc b8bd a3a5 9b3d
00000020: 4c60 db3d 71de 6c3d 24cb 2d3e a5b5 0ebd
00000030: b872 923e 829b 6d3d 57dc 6dbc 3880 263e
00000040: 76f0 393e 26fa 453e b199 483e 3604 c5be
00000050: 8a61 f83d 27f3 d03e b3e1 d4be 37d8 8dbe
00000060: ea1d 1d3d 0dad 933c b4ce 1dbe ef31 913e
00000070: d9e7 983e 1cbf bc3d f69c a3bd 7bbd b0be
00000080: aa25 863e 77b4 d5bc 9dbf 8cbd e451 94be
00000090: 8aff ab3e 8d0f 9cbe 5138 63be 8394 b4ba
000000a0: 53f1 c5be 210d 77bd ef63 46bc b69b 29be
000000b0: 1a8b a8be f247 a83c 7028 f93d 1d0e e4be
000000c0: 44a9 52be 6b8a a93d dc5e d5bd 4672 64be
000000d0: 5971 11be 36a5 03bd 2578 a13e de48 8f3e
000000e0: 9fd3 8a3d 0f3f 11bd 40e3 aa3d 199a 843e
000000f0: 74b8 aabe 5ba2 5abc 73f3 07be 4bcf 39be
00000100: 3372 16be af7d 4f3d cd63 3cbe 21da 95be
00000110: 806b 57be 766b 763e 8a1d c53d 24f0 583e
00000120: 7f8f 003d 2a32 da3d 6dd7 953e 4b9b 9e3e
00000130: 7c22 bfbe ebcc cc3d dd1b 823d dd4b 36bd
00000140: 9fe7 0cbe 0732 3dbe 5fe5 92bd 5cf1 3bbe
00000150: 70d1 e0be 24a9 1ebe 7dda 70be 8ac2 92be
00000160: f5f0 b53d 33a7 8cbe 418b bf3e dd33 62bd
00000170: 9878 58be 8239 11ba df86 dcba 3138 2abe
00000180: 6564 69bd ade1 363c 78b3 2bbd 47de 74be
00000190: 46c3 22be 0d86 583d 2bef 16bf 5280 e53d
000001a0: 27e0 25bf e309 b8be e803 e63d 7731 81be
000001b0: 50e9 b03e 328f 5dbe b322 92bd e4f8 793e
000001c0: 77c6 84be 5355 dcbe 7019 7dbd 8465 853e
000001d0: b14d 983e 4fd7 fdbd 3d8f d1bd 20e1 c73e
000001e0: 3fc0 0cbe 1f66 283d 9ad8 febd 435a 183e
000001f0: 5d56 893e 82e0 34be 5f73 1a3e 48b9 10be
00000200: 6e57 653e 39ee e93a 2b64 003e a7e1 fcbd
00000210: 995f 3cbe 8ec6 0ebd 3161 a03e 7594 1abf
00000220: c167 34bd 5d57 82be 7c29 89bd 639c cfbe
00000230: 5750 563e f963 643c 7bc9 45be cd82 b83d
00000240: 4d2e 473e 52e5 29be 6570 39be c902 2bbe
00000250: d113 ef3d bf5e 44bd 1283 1a3e 114c 19be
00000260: 5b3f 113d d649 36be 8c9f fdbc 8270 32be
00000270: 3bc1 b8bc f7e8 9b3e 0cdb d3be d615 3d3d
00000280: 1bc2 f1bd e6fa 03be 14a7 cd3c d36f 343e
00000290: 1c74 b03e d5d9 803b 7396 7abc cec3 ee3e
000002a0: 0e99 1b3f ab8c 533e 6dd1 02be 8d07 6cbe
000002b0: d549 443d bf18 723d ad58 7aba 7bb2 5d3c
000002c0: b879 8d3e c5bb bbbe 5562 503c e958 b7be
000002d0: a5b7 2dbe c51f a3be 0e10 5e3c 585d a63e
000002e0: 5306 a73d a16c 1a3d 2864 0d3d ef62 6cbe
000002f0: b6d1 e5bc 4b3d 81bd 4a44 653d 5abe a3bd
00000300: 8cee 8dbe 1286 62bd 3a26 2fbe 3766 f7be
00000310: d0af d83c af6d afbe 9e80 78be 4214 d73d
00000320: 11d9 9d3e bfa5 3c3e fd22 8e3e 53ef 8d3b
00000330: 6c12 d3bd cae4 71bc 3b2d 963e 6a82 bebd
00000340: 7fe8 00be 6bd8 793e 306e 87bc 5bd4 99be
00000350: 0998 8fbe 1e90 0f3d 6b60 aabd 7d87 aa3e
00000360: 1750 8cbd d0a4 22be cb10 913d b0b0 11be
00000370: 6817 2a3e e952 263e 03d1 c83e c802 593d
00000380: 59bb a9be cd40 e63e beb3 d93c 1020 e9be
00000390: 30c1 1a3e a4b0 77be 9fd6 ce3e 24e4 803e
000003a0: 3e72 af3e 12e6 5fbe 301b cfbe e21e d93e
000003b0: 85db 553e 1745 1cbe f2f2 103f b22f 9f3d
000003c0: 68cc 043e cd92 80be 399b b33e def0 bb3c
000003d0: 8733 a4be 9657 323e 0bb2 acbd df8c cbbe
000003e0: 0ee1 8c3b b11a 883e 9fad 81be 19e2 17bd
000003f0: 2198 b63c 998b ed3d 1f33 3a3e aad7 9c3e

bias f4 [20]
0.13285623 0.1950324 -0.029260637 -0.03297981 0.06288663 0.02410345 0.026415458 0.23874103
0.11312673 -0.10538387 -0.0459003 0.08776473 -0.09542929 -0.17638673 -0.08841326 -0.17233266
-0.15079974 -0.04151317 0.26450238 0.2483105
00000000: 770b 083e 93b6 473e 01b4 efbc d615 07bd
00000010: b5ca 803d 9974 c53c 3b65 d83c 8778 743e
00000020: fdae e73d 80d3 d7bd f401 3cbd ffbd b33d
00000030: 6e70 c3bd b99e 34be 0312 b5bd f977 30be
00000040: 3f6b 1abe b709 2abd db6c 873e 1c45 7e3e

weight f4 [20, 20]
-0.17711863 0.22282438 -0.3204749 -0.09684737 -0.09204771 -0.14170626 0.4899402 -0.075010315
0.44616568 0.27239794 0.13863127 -0.33671325 -0.07318802 -0.10275883 -0.40502432 0.38831145
-0.24500291 0.3393606 -0.12824418 -0.129861 0.21558794 0.5261666 0.103153475 0.16194063
-0.26349273 0.09139062 -0.27073663 -0.21351199 0.2400685 0.08452587 0.20065168 -0.23805118
-0.20480396 -0.10354342 -0.109174415 0.13196377 0.35950553 0.07244692 0.13256545 0.059624523
-0.24111034 -0.2449039 0.3466851 0.14011075 -0.0017278531 -0.062180314 -0.17697419 0.14089689
-0.017107336 0.10232775 0.115563475 0.1393237 -0.28643215 0.17169021 0.32670859 0.39657873
-0.018174008 0.24581857 -0.31212127 0.050839465 0.18413019 0.02852155 0.15689081 -0.37359864
-0.13127293 -0.28768334 -0.36683533 -0.088024154 0.030014265 0.26813638 -0.15576264 0.25173685
0.009923119 0.1837631 0.08104443 0.058526564 0.27213946 0.0094363205 -0.35860565 -0.54295594
0.21977872 0.12380668 0.1266447 0.21435642 0.80774325 -0.03900783 0.40287542 0.23235527
0.118227676 0.08521563 -0.2695924 0.0072378344 -0.3150818 0.039557297 -0.011674068 -0.5219729
-0.23854735 0.09358504 0.31950232 0.4469808 0.12696236 -0.10549189 -0.20883733 -0.22278784
-0.35406893 0.25491723 0.31908557 0.6695402 -0.22931679 -0.23377989 0.29505223 0.15288675
-0.47468722 0.22517468 -0.062509365 0.1338624 -0.101348564 -0.113906875 0.054505933 0.3693092
-0.37151718 0.26260936 -0.17026304 -0.15213047 0.02815696 0.23509863 -0.09248848 -0.09252069
-0.040254686 -0.516481 0.13477984 -0.23940985 -0.047052875 -0.30286118 -0.21605615 -0.28089473
-0.25191346 -0.082030505 0.343726 0.027631197 0.3303213 -0.33208358 0.106360406 0.21573994
-0.2578759 0.09833532 0.03585138 -0.16020581 -0.08675128 -0.13303332 -0.08261026 -0.103489734
-0.090107635 0.1823071 0.07854446 0.19844626 0.11872763 0.07852633 -0.18018739 -0.17098582
-0.09412309 -0.0896202 -0.05728327 0.053430807 -0.08566771 -0.08253523 0.23613168 -0.061396234
0.045778394 0.19652766 -0.058059234 0.068671316 -0.015028166 0.21778254 0.01832647 -0.43831962
-0.16046052 0.073992305 -0.09334227 -0.31313846 0.28981534 0.37251678 -0.33173802 -0.376752
0.11575409 0.19696802 0.25175807 0.28937426 -0.18441239 -0.18780507 -0.17363259 -0.11959212
0.13109022 -0.047396522 0.10055577 0.2918116 0.12124023 0.052156504 0.1407822 -0.13282885
0.11931439 -0.20451407 -0.20745893 -0.130546 0.26916853 -0.24670102 0.02758815 0.18155909
0.18266295 0.039472107 -0.15712355 -0.4362538 0.032002263 -0.27143613 0.12620507 -0.00036200677
0.011411942 -0.26351792 0.50950944 0.17929898 0.09516141 0.02686519 0.2729722 -0.092435844
0.15600564 -0.05750745 -0.014028137 0.0024045042 0.23677425 0.034486454 0.27066174 -0.13585266
-0.03420976 -0.24157916 -0.19174218 -0.21466425 -0.15336917 -0.020914882 0.41579232 0.23436333
-0.29446602 -0.06815809 0.39760238 0.13874161 0.15860493 0.25420353 0.029241804 -0.098579824
-0.4537901 -0.47890112 -0.0140174 0.07091112 0.34686932 -0.12696397 0.18597338 0.099579886
00000000: 965e 35be 132c 643e 4915 a4be ea57 c6bd
00000010: 8383 bcbd 721b 11be 71d9 fa3e 029f 99bd
00000020: d46f e43e be77 8b3e 5bf5 0d3e ae65 acbe
00000030: 9ae3 95bd 3973 d2bd 595f cfbe c2d0 c63e
00000040: 0be2 7abe acc0 ad3e 7152 03be 48fa 04be
00000050: 16c3 5c3e dbb2 063f 2142 d33d c4d3 253e
00000060: 85e8 86be 012b bb3d fe9d 8abe e3a2 5abe
00000070: 84d4 753e e61b ad3d a277 4d3e b0c3 73be
00000080: 21b8 51be 930e d4bd d696 dfbd 8321 073e
00000090: 1c11 b83e 0d5f 943d 3dbf 073e d838 743d
000000a0: a1e5 76be 17c8 7abe b680 b13e 3179 0f3e
000000b0: 2179 e2ba c9b0 7ebd b938 35be 4647 103e
000000c0: af24 8cbc 3691 d13d 8bac ec3d dfaa 0e3e
000000d0: 3ca7 92be 8fcf 2f3e 5946 a73e 5e0c cb3e
000000e0: a8e1 94bc ddb7 7b3e 5cce 9fbe 0b3d 503d
000000f0: a08c 3c3e 07a6 e93c fca7 203e 5248 bfbe
00000100: 696c 06be 3b4b 93be d7d1 bbbe 0246 b4bd
00000110: 7ae0 f53c 2c49 893e 3e80 1fbe a7e3 803e
00000120: 9494 223c 652c 3c3e 9ffa a53d 8db9 6f3d
00000130: dd55 8b3e cc9a 1a3c 299b b7be 29ff 0abf
00000140: ac0d 613e 5b8e fd3d 26af 013e 4080 5b3e
00000150: 43c8 4e3f adc6 1fbd b045 ce3e 8aee 6d3e
00000160: 5a21 f23d 8885 ae3d 0408 8abe 5b2b ed3b
00000170: 6752 a1be d506 223d 9744 3fbc 04a0 05bf
00000180: c245 74be 83a9 bf3d cf95 a33e abda e43e
00000190: 6c02 023e 220c d8bd 74d9 55be 7f22 64be
000001a0: 8648 b5be 8384 823e 2f5f a33e fd66 2b3f
000001b0: 05d2 6abe ff63 6fbe 1611 973e 588e 1c3e
000001c0: 340a f3be 3194 663e e904 80bd 3a13 093e
000001d0: d68f cfbd 0248 e9bd 9d41 5f3d 1816 bd3e
000001e0: 8037 bebe bc74 863e 6f59 2ebe 17c8 1bbe
000001f0: 6da9 e63c b2bd 703e 9a6a bdbd 7d7b bdbd
00000200: 19e2 24bd 1938 04bf ba03 0a3e db27 75be
00000210: 84ba 40bd 9f10 9bbe d33d 5dbe 6fd1 8fbe
00000220: cdfa 80be 9cff a7bd dbfc af3e d25a e23c
00000230: e01f a93e dc06 aabe 7cd3 d93d eeea 5c3e
00000240: 4f08 84be 0764 c93d e6d8 123d fe0c 24be
00000250: a8aa b1bd e339 08be 912f a9bd 6df2 d3bd
00000260: 5a8a b8bd b6ae 3a3e ebdb a03d 7f35 4b3e
00000270: 7927 f33d 6ad2 a03d 0b83 38be e816 2fbe
00000280: 9bc3 c0bd cc8a b7bd dda1 6abd 43da 5a3d
00000290: 8d72 afbd 3b08 a9bd 81cc 713e 9e7a 7bbd
000002a0: 2082 3b3d 8c3e 493e 85cf 6dbd 8ca3 8c3d
000002b0: b238 76bc 6302 5f3e 6521 963c 6e6b e0be
000002c0: c34f 24be 4789 973d 3b2a bfbd af53 a0be
000002d0: ad62 943e 85ba be3e 91d9 a9be a3e5 c0be
000002e0: 7b10 ed3d fcb1 493e 6fe6 803e dd28 943e
000002f0: 9ad6 3cbe f94f 40be becc 31be b7ec f4bd
00000300: 843c 063e db22 42bd 2ff0 cd3d 5468 953e
00000310: cc4c f83d 0fa2 553d 3629 103e 4904 08be
00000320: 1a5b f43d 236c 51be 1d70 54be daad 05be
00000330: 75d0 893e 319f 7cbe 8b00 e23c a0ea 393e
00000340: ff0b 3b3e 81ad 213d ffe4 20be a85c dfbe
00000350: ce14 033d adf9 8abe e73b 013e bacb bdb9
00000360: 27f9 3a3c d2eb 86be 366f 023f 279a 373e
00000370: fce3 c23d 6314 dc3c 03c3 8b3e 014f bdbd
00000380: f1bf 1f3e ef8c 6bbd 45d6 65bc e394 1d3b
00000390: f374 723e ab41 0d3d 2d94 8a3e f61c 0bbe
000003a0: 891f 0cbd 8760 77be 1058 44be f2d0 5bbe
000003b0: cf0c 1dbe b055 abbc bbe2 d43e f1fc 6f3e
000003c0: 40c4 96be 7896 8bbd 8a92 cb3e 4812 0e3e
000003d0: 5569 223e f726 823e 828c ef3c 38e4 c9bd
000003e0: 2d57 e8be 8732 f5be 3da9 65bc d939 913d
000003f0: db98 b13e d802 02be ce6f 3e3e 8af0 cb3d

bias f4 [20]
0.01409202 0.038139988 -0.06735477 -0.2717979 0.22396265 0.08179985 0.19690336 -0.078184456
0.050708435 0.041795585 0.13307033 0.24555942 -0.11882302 0.11560643 -0.16287808 0.23843451
0.3687357 -0.08436334 0.0028937983 0.10208189
00000000: 37e2 663c ad38 1c3d 4cf1 89bd 1829 8bbe
00000010: 7756 653e ae86 a73d 09a1 493e 2c1f a0bd
00000020: a6b3 4f3d d931 2b3d 9743 083e ee73 7b3e
00000030: 7c59 f3bd 10c3 ec3d 83c9 26be 2d28 743e
00000040: edca bc3e b0c6 acbd e1a5 3d3b 4f10 d13d

weight f4 [20, 20]
0.12635505 -0.04826085 -0.038494226 -0.09832672 -0.034819115 -0.32219636 -0.14513236 0.41805086
-0.28143966 0.2603035 -0.09062005 -0.28705606 0.15547995 0.005624512 0.16069165 0.076021425
-0.3192899 0.16902126 0.03914663 0.0029990089 0.07205309 0.09078446 0.25227296 0.24010137
-0.17136396 -0.2052826 -0.04716079 0.17462802 0.2651595 0.03787874 -0.41196197 0.019437255
0.521217 -0.17337261 0.056000177 -0.7307302 -0.0698463 0.53068805 -0.38433906 0.007689984
-0.12230676 0.0073101744 0.47482595 0.15968525 -0.023623219 0.43476588 -0.30056158 -0.13115084
0.11421625 -0.45319358 -0.071796246 0.0389933 0.07894533 -0.24150084 0.12900396 -0.44140846
-0.28426293 0.03280802 -0.3675271 -0.17634708 0.16368681 -0.04935952 -0.018985806 -0.26327252
0.029537518 0.097025156 0.13803026 -0.17345732 0.2726862 -0.16850486 0.18608442 0.33616173
-0.29068133 0.23307623 -0.40484902 -0.122846924 -0.031982325 0.1307738 0.13318878 -0.038957138
0.23992795 -0.08008574 -0.050315056 -0.14872311 0.27437302 0.30127534 0.45852855 0.27844492
-0.12527518 -0.325969 0.030838681 0.13101655 0.26766038 0.17630161 -0.38997123 0.19205198
-0.16918194 -0.19200535 0.53851664 0.3544945 -0.2716922 0.09987708 0.14987043 0.12539425
-0.1336656 -0.17743169 -0.15633279 0.14566104 -0.18901007 -0.1991223 0.03931715 0.09719974
0.19379556 -0.50089496 0.19309634 0.045215424 0.040123906 0.5584988 -0.28282037 -0.048861474
0.5640168 0.1523532 -0.1381085 0.02709478 0.3992089 0.46899596 0.22355574 -0.04524758
-0.23163445 0.060821664 0.24025616 0.34297442 -0.23138906 0.22743629 -0.31040305 0.35850772
-0.098088376 -0.06899634 0.32550648 0.18736792 -0.58359075 -0.4119812 0.01731676 0.45986155
-0.33945346 -0.0029716394 0.19635735 0.17635746 0.048512336 -0.06660567 0.077547915 -0.6425519
-0.395482 -0.1614777 0.2998101 -0.23861839 -0.080354445 0.306562 0.1986101 -0.4628873
-0.2714124 0.22451977 0.3497996 0.40829504 -0.07327024 0.019258786 0.28616577 -0.16172588
-0.09596549 -0.3756779 -0.2918376 0.22402357 0.35036734 -0.44714904 0.00066118524 0.13556589
0.0752041 0.0065372465 -0.20399898 -0.064571306 -0.31689057 0.317801 -0.03108055 -0.40530485
0.17224947 -0.279566 0.20477127 0.09695076 0.04190794 0.19841748 -0.17039825 0.40539575
-0.054346263 -0.033518508 0.039736364 -0.17411436 0.21541983 -0.30017436 -0.2512252 -0.0043822867
0.013341319 0.16721812 0.1961279 -0.12850419 -0.50480855 -0.6064924 0.28590605 0.064856425
0.1394709 0.3039079 -0.04235152 -0.13580352 0.16806369 0.026235215 0.37083235 -0.400752
0.12975627 -0.3069289 0.20286898 0.1558079 0.08280106 -0.06820807 0.37873945 0.091914706
-0.055602886 0.3639422 -0.41122738 -0.39581457 0.24695252 -0.25900215 0.20535614 0.19876945
0.6158201 0.24081993 0.48619857 -0.15844896 -0.48994038 0.38910872 -0.3712573 -0.15932749
0.45762444 0.260744 -0.21103388 -0.12144359 0.010532176 0.08023163 0.20230849 -0.17655659
0.23817086 0.21734658 0.06603525 0.37419617 0.2856623 0.020121388 -0.2923594 0.53202116
00000000: 3863 013e 2bad 45bd 1fac 1dbd 855f c9bd
00000010: 7d9e 0ebd ecf6 a4be 949d 14be c30a d63e
00000020: dc18 90be 8046 853e 0197 b9bd 03f9 92be
00000030: 2336 1f3e d44d b83b 5a8c 243e 1fb1 9b3d
00000040: f779 a3be e913 2d3e 3758 203d 058b 443b
00000050: 9290 933d 34ed b93d ec29 813e 22dd 753e
00000060: 097a 2fbe 9a35 52be ac2b 41bd b0d1 323e
00000070: fcc2 873e bd26 1b3d aeec d2be e13a 9f3c
00000080: 7a6e 053f 9788 31be 7160 653d 2211 3bbf
00000090: 940b 8fbd 2cdb 073f 17c8 c4be 43fc fb3b
000000a0: f77b fabd 308a ef3b 631c f33e 8884 233e
000000b0: 7b85 c1bc a299 de3e 35e3 99be 684c 06be
000000c0: 36ea e93d fd08 e8be e909 93bd 70b7 1f3d
000000d0: 17ae a13d ff4b 77be 9d19 043e 4a00 e2be
000000e0: e98a 91be b461 063d 832c bcbe 5494 34be
000000f0: 849d 273e 352d 4abd 1f88 9bbc a8cb 86be
00000100: aaf8 f13c 20b5 c63d ce57 0d3e cc9e 31be
00000110: 879d 8b3e 8a8c 2cbe ea8c 3e3e 641d ac3e
00000120: 2fd4 94be 89ab 6e3e 5f48 cfbe 2b97 fbbd
00000130: e6ff 02bd 91e9 053e a462 083e 8591 1fbd
00000140: acaf 753e fe03 a4bd 2917 4ebd df4a 18be
00000150: 9f7a 8c3e c340 9a3e 41c4 ea3e 5590 8e3e
00000160: 2348 00be 69e5 a6be 67a1 fc3c 3429 063e
00000170: c80a 893e 6988 343e 4faa c7be 46a9 443e
00000180: 083e 2dbe 0d9d 44be 3adc 093f 4e80 b53e
00000190: 3d1b 8bbe 5b8c cc3d a277 193e 5a67 003e
000001a0: a3df 08be a7b0 35be b415 20be 2b28 153e
000001b0: db8b 41be b7e6 4bbe 050b 213d a810 c73d
000001c0: 5872 463e a73a 00bf 0cbb 453e cf33 393d
000001d0: f758 243d c7f9 0e3f d5cd 90be f822 48bd
000001e0: 6863 103f 7a02 1c3e 516c 0dbe dff5 dd3c
000001f0: 1c65 cc3e 3d20 f03e cceb 643e 8755 39bd
00000200: 9531 6dbe 2320 793d b605 763e 589a af3e
00000210: 41f1 6cbe 0fe5 683e 26ed 9ebe 538e b73e
00000220: 8fe2 c8bd f44d 8dbd c9a8 a63e 60dd 3f3e
00000230: 3466 15bf 33ef d2be e1db 8d3c f972 eb3e
00000240: d8cc adbe d6bf 42bb e711 493e 0d97 343e
00000250: dfb4 463d 8e68 88bd 71d1 9e3d 487e 24bf
00000260: 9e7c cabe 695a 25be b680 993e 6158 74be
00000270: df90 a4bd b2f5 9c3e 7260 4b3e 90ff ecbe
00000280: 91f6 8abe 83e8 653e ef18 b33e 0c0c d13e
00000290: b50e 96bd 9ac4 9d3c 5284 923e 789b 25be
000002a0: 8e89 c4bd db58 c0be bd6b 95be 6f66 653e
000002b0: 5963 b33e b8f0 e4be 6453 2d3a c9d1 0a3e
000002c0: 9b04 9a3d 6636 d63b 1ce5 50be f63d 84bd
000002d0: 7b3f a2be d0b6 a23e a39c febc 1e84 cfbe
000002e0: 2a62 303e 4623 8fbe 8faf 513e 1f8e c63d
000002f0: a9a7 2b3d f42d 4b3e e17c 2ebe 0890 cf3e
00000300: 309a 5ebd b44a 09bd 99c2 223d 094b 32be
00000310: 0497 5c3e 74b0 99be 97a0 80be 4999 8fbb
00000320: 8c95 5a3c 3a3b 2b3e c1d5 483e 9a96 03be
00000330: 223b 01bf 1643 1bbf 4762 923e 72d3 843d
00000340: 76d1 0e3e d199 9b3e ca78 2dbd 1410 0bbe
00000350: e318 2c3e 3ceb d63c bddd bd3e 5e2f cdbe
00000360: d4de 043e c925 9dbe e3bc 4f3e 1b8c 1f3e
00000370: 9a93 a93d acb0 8bbd 23ea c13e c73d bc3d
00000380: dabf 63bd a256 ba3e 658c d2be 35a8 cabe
00000390: 1fe1 7c3e ee9b 84be e148 523e 388a 4b3e
000003a0: 63a6 1d3f 8099 763e 05ef f83e 7240 22be
000003b0: 77d9 fabe 4239 c73e 7015 bebe bf26 23be
000003c0: c04d ea3e 3d80 853e 4419 58be 6bb7 f8bd
000003d0: 268f 2c3c 7b50 a43d f529 4f3e 40cb 34be
000003e0: 10e3 733e 1a90 5e3e 7d3d 873d a496 bf3e
000003f0: 5442 923e 9cd5 a43c 22b0 95be 8a32 083f

bias f4 [20]
-0.032415494 -0.2308339 -0.112214126 0.17926681 0.19741154 -0.05646768 0.22695914 -0.21555932
-0.14257324 0.115092546 -0.10021498 -0.16383165 0.009020703 -0.31891322 -0.31828046 -0.072949275
0.09266838 0.38942233 0.15904778 -0.24023685
00000000: 1cc6 04bd b95f 6cbe 85d0 e5bd b891 373e
00000010: 4026 4a3e a74a 67bd fa67 683e 95bb 5cbe
00000020: b8fe 11be a4b5 eb3d 833d cdbd 7cc3 27be
00000030: 92cb 133c 9848 a3be a8f5 a2be 6e66 95bd
00000040: ebc8 bd3d 5d62 c73e 6cdd 223e a600 76be

weight f4 [1, 20]
-0.3195553 -1.4702294 -0.9710958 0.55042785 1.0647404 -1.1253756 1.4959013 -1.3825849
-0.5476067 0.16807477 -0.3496721 -0.818586 0.9638722 -1.6226393 -1.1036648 -0.13506016
0.99176604 1.3783666 0.55886143 -1.0025728
00000000: c19c a3be 7a30 bcbf bc99 78bf d7e8 0c3f
00000010: 6a49 883f 4f0c 90bf b279 bf3f 8bf8 b0bf
00000020: f42f 0cbf cb1b 2c3e 3908 b3be da8e 51bf
00000030: 54c0 763f a5b2 cfbf e344 8dbf 364d 0abe
00000040: 61e4 7d3f 516e b03f 8b11 0f3f 4e54 80bf

u_b f4 [2]
1.0 39.96
00000000: 0000 803f 0ad7 1f42

l_b f4 [2]
0.0 0.0
00000000: 0000 0000 0000 0000
