Trained/Models_01/Noise_1/toy_nostop/weak_ff.pt (torch, 39007 bytes, 23 tensors)

weight f4 [20, 2]
000000 50 e7 68 3e 4c b0 b7 3d 75 fb 63 be b9 85 b8 be
       0.22744489 0.08969173 -0.22263892 -0.36039522
000010 95 21 c4 be 10 6c cd be c6 e8 cf 3e b4 04 0b 3f
       -0.3830687 -0.40121508 0.4060728 0.5430405
000020 6a d7 9e be 86 42 26 bf a2 0e 92 3d 97 34 a6 be
       -0.31023723 -0.64945257 0.07131697 -0.32461998
000030 3a b0 70 be 70 db f5 3d 74 55 0d be c4 bc e0 be
       -0.23504725 0.12004745 -0.13802129 -0.43894017
000040 8f 27 ad be a1 83 18 3e af 2b 8d be 54 1f 45 be
       -0.33819243 0.14893962 -0.2757239 -0.19250232
000050 1c 07 cf bd 0a 67 06 3e 85 0a 37 3e d1 68 cc 3d
       -0.10108778 0.13125244 0.17875107 0.0998093
000060 36 75 33 bd c0 f7 02 bf 22 d3 36 be 65 5a 2d 3b
       -0.043812953 -0.51159286 -0.17853978 0.0026451584
000070 b0 9c 03 bf c9 d8 db be 41 1f 8a 3f 84 c9 78 3e
       -0.5141096 -0.4293883 1.0790788 0.24295622
000080 e3 3a db 3e 80 4e 95 bf 0e ce 39 bf b9 5b 8b be
       0.42818365 -1.1664581 -0.7258004 -0.27218416
000090 5b eb 48 3e 87 f2 86 3d d0 99 83 be 84 fd 83 be
       0.19621031 0.06589227 -0.25703287 -0.25779355

bias f4 [20]
000000 61 83 bb bc c3 20 7f be 9f c9 2e 3f 5b 26 b8 bf
       -0.022889795 -0.24914841 0.682764 -1.4386705
000010 88 ed d5 3e 2a b1 ca 3e ca 16 6b 3f b2 16 73 3e
       0.41782784 0.3958829 0.9183165 0.23739126
000020 40 99 6d be 34 2c 0a 3f 71 e0 29 bd 42 e7 4b 3d
       -0.23202991 0.539737 -0.04147381 0.04978109
000030 bd 2a aa 3e 67 06 0e 3e 3c a6 46 3f a4 d1 8b 3e
       0.33235732 0.1386963 0.77597404 0.2730838
000040 92 68 f5 be eb e1 b9 be 03 00 0a be a3 b8 fb 3c
       -0.47931343 -0.36305174 -0.13476567 0.03072769

weight f4 [20, 20]
000000 5b 88 92 3e 4d 6f 3e 3e a2 32 f3 bc 63 98 75 be
       0.28619656 0.18597145 -0.02968723 -0.23983912
000010 14 5f 4d 3e 0b 75 97 bd 89 60 27 3e f7 33 0b 3e
       0.200558 -0.07395371 0.16345419 0.13594042
000020 e3 4f 81 3e 9c 11 e1 3e 7f 31 8d 3e f5 70 92 3c
       0.2525626 0.43958747 0.27576825 0.017876128
000030 24 37 9e 3e b7 6c a4 3e 3f 09 ee 3e 6c 70 8a be
       0.30901444 0.32114193 0.4649143 -0.27038896
000040 12 b9 2e 3e 7d bd 57 3d 46 0e 16 be 87 ce 8c 3c
       0.17062786 0.052670944 -0.14653882 0.017188324
000050 93 5b 85 3e e3 ef 09 3e 3c d0 5d 3b 97 56 9f bd
       0.26046428 0.13470416 0.0033846041 -0.077801876
000060 f4 79 17 be 5d ca f5 be 64 bf cf be 3a b5 8c be
       -0.14792615 -0.48005953 -0.40575707 -0.27482015
000070 bf 43 81 3e 64 87 62 bc b8 a2 fe bc 45 2a 27 bd
       0.25247 -0.013826225 -0.03108345 -0.040811796
000080 68 e7 51 be 17 9a 06 3e 16 d1 54 be 6b 9a 86 3d
       -0.2049843 0.13144718 -0.20782885 0.06572422
000090 54 b1 1e 3e f3 42 4b 3e c0 15 da 3c 3a 53 d0 bc
       0.15497333 0.19849758 0.0266217 -0.02543031
0000a0 05 5f bd 3e 82 3e 1b 3e f9 39 4e be d0 7d 1a bf
       0.36986557 0.15160564 -0.20139302 -0.60348225
0000b0 f1 f1 23 3f c8 0e d5 bd 7f ab ad bd ff 7c 64 3e
       0.6404105 -0.1040321 -0.08479976 0.22313307
0000c0 f2 55 17 3e 97 bc 61 be ca ef 6c be e6 55 34 3e
       0.1477888 -0.22044598 -0.23138347 0.17610893
0000d0 88 4d 87 be a8 f2 9a 3d e0 57 97 bd bf 2c 36 bd
       -0.2642634 0.07565814 -0.07389808 -0.044476267
0000e0 e1 d8 5f 3e aa 8d 40 3d b4 94 eb 3c 97 94 05 bf
       0.21860076 0.0470101 0.02875743 -0.52179855
0000f0 36 fd 25 3e dc 5c 1a 3d a2 22 c5 be bc fa d8 3e
       0.16209874 0.037686214 -0.38502985 0.42378795
000100 9e ea 45 3d 22 da 7b 3e d4 1c b9 be 83 d5 c5 3d
       0.04831945 0.2459493 -0.36154807 0.09659865
000110 51 c3 76 bd 42 72 b4 bc f1 46 0e 3e 51 f4 63 3e
       -0.060244862 -0.022027139 0.1389425 0.22261168
000120 05 81 a8 3e 5a d1 33 be f8 5d a2 3d 2b 5d 52 3d
       0.32910934 -0.1756033 0.07928079 0.051358383
000130 78 99 8f be 46 b9 41 be 76 28 78 3e 1b 4f a0 3e
       -0.28046775 -0.18918332 0.24234185 0.31310353
000140 d4 6c a1 3e b3 02 a1 3c 00 6a f3 3d f6 e6 23 3e
       0.31528342 0.019654607 0.11885452 0.16006073
000150 5d b1 69 be 59 70 35 be 76 f7 80 3e 76 26 ce 3e
       -0.22821565 -0.17718638 0.25188798 0.40263718
000160 ec 2d b0 3c 9f 23 ca bc 02 66 1e 3e d7 c0 e4 bc
       0.021506272 -0.024675189 0.154686 -0.027923984
000170 f8 c6 44 bd 55 03 43 be a2 18 1a bd bc 98 30 3e
       -0.048041314 -0.1904424 -0.037621148 0.17245764
000180 40 9c 20 bf 23 5b e8 bd 30 f9 b6 bc 2d 01 af 3e
       -0.6273842 -0.11345508 -0.022335619 0.34180585
000190 71 5c b1 bd 22 2a f5 3d 0e 9b 78 3e df b8 c1 3b
       -0.0866021 0.11970927 0.24277899 0.005911931
0001a0 71 2d 3f 3e e6 ef 91 3e 30 5b 37 be 57 2c 85 bd
       0.18669678 0.2850334 -0.17905879 -0.06502598
0001b0 4d dc 5d b8 70 a0 80 be e0 f1 d3 3d f7 f1 d9 bd
       -5.2895677e-05 -0.25122404 0.10348868 -0.10641854
0001c0 da d1 73 be 24 91 86 be 83 8a 1a 3f 3e f4 f0 3c
       -0.23810521 -0.26282609 0.603676 0.029413339
0001d0 97 0d 9f be a0 2f 01 3d 5c 96 32 3e 04 85 9d 3e
       -0.31065056 0.03153956 0.1744017 0.30765545
0001e0 b6 bb db be 4e 7d 5a bc bf 5b ce 3c 2e 85 4e 3d
       -0.4291665 -0.013335539 0.025190232 0.05041998
0001f0 1b c8 07 be 01 9d 08 bf 1e 2f 68 3e db ba 4d 3d
       -0.13259928 -0.5336457 0.22674224 0.050227027
000200 56 88 99 3e 53 59 73 be 9d a1 39 3e f8 fd 2a be
       0.2998683 -0.23764543 0.18128057 -0.16698444
000210 7a d8 7b ba 6f 8a 6b b8 8f 24 73 3e 74 76 f4 3c
       -0.00096071477 -5.6157292e-05 0.23744415 0.02984164
000220 58 b0 7f be 8f 52 51 be 8c b0 3a 3d 4f 4f 2a be
       -0.24969614 -0.2044165 0.045578524 -0.16631816
000230 46 f5 31 3e d0 af f3 3e 66 c8 52 3e 1d 79 83 bc
       0.1737872 0.47595072 0.20584258 -0.016048962
000240 46 fd b8 3e 48 8d 25 3e 07 88 ec be 49 c4 24 3e
       0.36130732 0.16167176 -0.4619753 0.16090502
000250 7e 40 0a bd a4 ba 8f bd 83 cf 2c 3d 27 dc 05 3e
       -0.03375291 -0.07018021 0.042190086 0.13072263
000260 96 d2 be 3e d3 64 99 be 1b 13 5c 3d 7e 38 83 be
       0.3727004 -0.29959735 0.053729158 -0.25629038
000270 df 15 48 3d 57 04 7f 3c 02 ea 1d be 1e da 8b 3e
       0.048848983 0.015565 -0.15421298 0.27314848
000280 5b c6 77 3d d6 e9 9e be 59 35 2d be 54 92 a0 3e
       0.0604919 -0.31037778 -0.16914882 0.3136164
000290 53 2d b1 be ec 98 b8 3e 35 89 9f bd 84 c0 e4 bd
       -0.34604892 0.3605417 -0.07789842 -0.11169532
0002a0 5b 90 80 be a5 65 34 be 8d a5 3a 3e 40 8a 51 3e
       -0.25110134 -0.176169 0.18227215 0.20462894
0002b0 93 8b 7f 3d 48 e8 97 be e8 68 39 3e 0a 22 21 3f
       0.062388968 -0.29669404 0.18106425 0.62942564
0002c0 6b 82 58 bd 02 9f b4 be 8c 1f 1a 3e 22 fb 08 be
       -0.05285875 -0.35277563 0.15051097 -0.1337705
0002d0 0f 91 20 3e b8 dc 99 3d 6c 76 bb 3e 24 b0 2c 3d
       0.15680335 0.07512802 0.36613786 0.04216017
0002e0 1b a3 06 3f 4e 6b 61 3e c5 0c 19 3e 6f 84 0e 3e
       0.5259263 0.2201359 0.14946277 0.13917707
0002f0 86 05 ef 3e b2 85 4b 3e f5 96 91 3d 16 d8 8a be
       0.46683902 0.1987522 0.07108871 -0.27117985
000300 c0 5b eb bc af 11 ac 3e 4f 1e 3a be 29 ed ca bd
       -0.028730273 0.33607242 -0.18175624 -0.09908516
000310 07 80 ce 3e c8 87 13 3d de 9f 65 be 21 bc 0f 3b
       0.40332052 0.036018163 -0.22424266 0.0021932202
000320 75 d7 99 bd 37 73 f3 3d f3 d6 c4 be f4 3a c4 3e
       -0.07511798 0.1188721 -0.38445243 0.38326228
000330 21 47 b1 be 5e 00 a1 bd 67 92 98 be 5a cd 6c bd
       -0.3462458 -0.07861398 -0.29799196 -0.057813026
000340 f1 13 eb 3e da 30 34 bf ae 2c fd bc 44 e9 f9 bc
       0.45913652 -0.7038704 -0.030905094 -0.030506738
000350 1e eb ba be 6d 37 f2 be 07 50 89 bc fc 1b 92 3e
       -0.36507505 -0.47307912 -0.016761793 0.28536975
000360 c1 7e 8b be 1d 86 51 ba 2c 5a 8f 3e e2 d1 10 be
       -0.27245143 -0.0007992702 0.27998483 -0.14142564
000370 08 a0 cf be a4 30 09 3e 95 5e 38 3e 8d 42 b8 3e
       -0.40551782 0.13397461 0.1800483 0.35988274
000380 b6 f6 0a be 28 47 f1 3d b2 62 73 3c 2c 70 16 be
       -0.13570675 0.1178115 0.014855074 -0.14691228
000390 47 f8 4f be 66 6f 91 3e eb 13 c3 3d 8b 9a 03 3f
       -0.20309554 0.28405303 0.095252834 0.5140769
0003a0 c8 35 56 bd 09 9f 5a be 86 78 60 3e 06 de ac bd
       -0.052297384 -0.2134973 0.21920976 -0.08440785
0003b0 16 a1 71 bd b3 c8 0e be ab e3 74 3e 93 94 78 3d
       -0.058991514 -0.13943748 0.23914973 0.060688566
0003c0 c7 c7 bc be 59 7c ba 3d 79 a4 43 3e b3 14 d4 bc
       -0.36871168 0.09105749 0.1910571 -0.025888776
0003d0 f1 dc 88 be 5b aa bf 3e 49 8d cf 3a c8 e6 e1 bd
       -0.26731065 0.37434658 0.0015834953 -0.11030346
0003e0 6f 4c 94 3d 5b c9 3f 3e 14 99 ef bd 3d 04 62 3e
       0.07241141 0.18729155 -0.11699119 0.2207193
0003f0 a5 3c 10 3e e1 78 b5 bd cd 57 87 3a cd 34 08 3e
       0.14085634 -0.088609464 0.0010325849 0.13301392

bias f4 [20]
000000 be cf 9a 3e d9 19 65 3d 2e 50 97 3e 4c 75 1f bf
       0.3023662 0.055932853 0.2955336 -0.62288356
000010 10 76 f4 3e fe 4d a5 3c 76 32 92 3d 08 b8 11 be
       0.47746325 0.020178791 0.07138531 -0.14230359
000020 5d 00 81 bd 9c 2e 06 3f 36 df 7a bf 32 4e 68 3d
       -0.062988974 0.5241487 -0.9799684 0.056715198
000030 5d 3e ab be 38 a9 81 3d 43 a4 56 3e 09 ae 1b 3f
       -0.33446017 0.06331104 0.20961098 0.6081243
000040 15 9a d2 3e b5 fa c3 bd 09 0a 01 bf b0 41 14 3f
       0.4113318 -0.09569303 -0.5040594 0.5791273

weight f4 [20, 20]
000000 be 78 6c 3e e2 4a 41 be e1 2c 29 3e 8b 3d ff 3d
       0.23092934 -0.18876222 0.16521026 0.1246291
000010 c2 e4 6a be bd f6 11 be 5a ca a3 3c 8b ca c0 3e
       -0.22938827 -0.1425428 0.01999395 0.37654528
000020 42 e3 31 bf 21 ae 7e 3e a8 01 d4 3d 6e 57 9f 3e
       -0.6948739 0.24871112 0.103518784 0.3112139
000030 75 6d 3c 3e 21 8f fe 3d 2c 15 54 3e 2f 9c 6f be
       0.1840113 0.124296434 0.20711201 -0.23399423
000040 b7 ea be 3e 9e 8a a2 bd 76 88 80 3e 9c f4 8e be
       0.37288448 -0.079365954 0.2510411 -0.27920997
000050 c1 85 9c 3e 0a c1 6f 3d 9d 7d f4 3d c0 8d 23 bd
       0.30570796 0.058533706 0.11938021 -0.039930105
000060 94 32 4c 3d 73 5d 30 3e cd 1f 24 3e 82 d4 84 be
       0.049852923 0.17223148 0.16027756 -0.2594338
000070 21 a3 24 be 9d a6 a2 3e 89 12 66 be 28 1e ad 3e
       -0.16077854 0.3176774 -0.22468008 0.3381207
000080 31 85 1f be 02 87 a1 bd a7 e5 b5 bd 82 a8 1b 3e
       -0.15578152 -0.07887079 -0.08881693 0.15201
000090 f2 6e 4a bd 28 16 b8 3e 4c ae 40 3e 2c d6 ec bc
       -0.049422212 0.35954404 0.18816489 -0.028910719
0000a0 73 57 5c be 5e df 37 bc 41 7b 27 3e fd b2 d0 be
       -0.21517734 -0.0112226885 0.16355611 -0.40761557
0000b0 3f 3a 07 3e b9 2f 15 3e 76 5d ff 3d b1 a1 7a 3d
       0.13205813 0.14568986 0.12468998 0.061189357
0000c0 28 8e cc bd 52 c6 ef 3e 3b 01 bc be 92 ea 35 be
       -0.09988052 0.46830994 -0.3671969 -0.17765263
0000d0 37 22 5f be 45 c0 d0 bb 41 f3 5b be e1 fa 42 3e
       -0.21790396 -0.0063705766 -0.21479513 0.19041015
0000e0 47 66 a6 3e 19 c9 8f 3d 17 09 0c be af 26 28 3e
       0.32499906 0.07020778 -0.13675343 0.16421007
0000f0 a5 f9 af 3e 21 74 e9 3d 8f 3a 4e bd ea 20 97 be
       0.3437015 0.11399103 -0.050348815 -0.295173
000100 a5 20 8f be f9 6a 8e be 41 3a 21 bf e6 ca 02 bf
       -0.27954593 -0.2781599 -0.62979513 -0.5109085
000110 a3 38 59 be 56 11 6d bc c7 ba 6a be 9e 12 95 3d
       -0.21213011 -0.014469465 -0.22922812 0.072789416
000120 d5 3a 78 be 1d 8f 75 bd ee 91 26 be 94 5f 31 3e
       -0.24241193 -0.059950937 -0.16266605 0.17321616
000130 af 3a c7 3c d7 f4 19 be f4 6e 93 bd b5 2f f6 3e
       0.024319975 -0.15034805 -0.07198897 0.48083273
000140 51 9b b0 3e 7e fd 84 bd 0d d4 72 3d 03 7c 40 bd
       0.34493497 -0.06493662 0.05928426 -0.046993267
000150 8c fa 76 3e b8 32 98 be b4 48 17 be 27 c9 fd bd
       0.24119014 -0.29726195 -0.14773828 -0.123918824
000160 d1 f0 b3 3d 2b 47 ab 3d cd 62 bf be 09 90 a6 be
       0.087861665 0.083631836 -0.37380067 -0.32531765
000170 03 78 ff bd 0e 4e 1d bf b5 3f df 3e ff 11 85 3d
       -0.12474062 -0.61447227 0.43603292 0.06497573
000180 8f d1 4b be 78 13 82 be d4 25 9c 3e bd 1b 4e 3e
       -0.19904159 -0.25405478 0.3049761 0.20127769
000190 38 41 40 be ff e7 11 be ea 47 85 bd 89 c4 0c be
       -0.18774879 -0.14248656 -0.06507857 -0.13746847
0001a0 a2 e4 e4 bd 8c c3 1e 3c fe 3e 55 3e 40 2e d2 be
       -0.11176421 0.009690177 0.20824811 -0.4105091
0001b0 5d fb f4 3d ba 6e b3 bd ae b6 b6 bd a4 b1 3c bd
       0.11962006 -0.08761354 -0.08921562 -0.04606785
0001c0 a0 37 a7 3e 53 90 03 3e f4 e5 d3 3e ad 35 d2 bd
       0.32659626 0.12848024 0.41386378 -0.10264144
0001d0 67 54 75 3d 7f cd 6c 3d cf 8c 11 3d 48 d8 04 bf
       0.059894945 0.057813164 0.035534676 -0.5189252
0001e0 ed c8 a6 3e d8 df f7 bc 84 ec fd 3d ba ed 35 3e
       0.3257517 -0.030258104 0.123986274 0.17766467
0001f0 e1 61 c2 3c c3 8a c8 bd 24 50 89 be 60 2b 77 3e
       0.023728313 -0.09792092 -0.26818955 0.2413764
000200 98 4e f0 bd 3e 4f 15 3e 08 de dd 3d 9f a1 cb 3d
       -0.117337406 0.1458101 0.10833365 0.09942936
000210 0d 79 31 be da 0e 98 3e fd e7 64 be d2 20 9a 3e
       -0.17331333 0.2969883 -0.22354122 0.30103165
000220 5c fd 38 3e b0 2c 07 bf bd 7f 6c be e7 4d e0 3d
       0.18065399 -0.5280256 -0.23095603 0.10952359
000230 36 9f 16 be 2c ce 2d 3e 01 ad 12 bd e3 c2 88 3e
       -0.14709172 0.1697318 -0.03580952 0.26711187
000240 5f f5 2e be da e1 3e bc 7e d3 6d be 71 b4 9f 3e
       -0.17085789 -0.011650527 -0.23225209 0.31192353
000250 1b 0f ee 3e a1 d6 0f 3e 89 cd 05 3e e2 b3 1e be
       0.464959 0.14046718 0.13066687 -0.15498307
000260 6d e8 cf bd 09 15 a4 bd 44 5b 09 3e 84 51 71 3e
       -0.101517536 -0.08011825 0.13413721 0.23566252
000270 48 1b e7 bd 7a 88 d9 3e 15 38 e7 3c 9e 03 cf 3d
       -0.112845 0.42486936 0.028224984 0.10108112
000280 19 09 c7 bd cc 56 03 be 2f 0b ba be 20 46 04 3f
       -0.09718532 -0.12826079 -0.36336657 0.516695
000290 9e 2f 8e 3e 7b cf 6d 3e 36 62 cb 3d 5e 8d b5 3c
       0.27770704 0.23223679 0.099308416 0.022162136
0002a0 07 6b 8a 3e c9 78 b6 bd e8 62 b5 3c 61 86 8e 3e
       0.2703478 -0.08909757 0.022141889 0.27836898
0002b0 2f 06 24 be 21 3b 6a be 0c d2 9e 3e db 57 7d 3d
       -0.16017984 -0.22874118 0.31019628 0.061851364
0002c0 5b 2e 6c bd 32 7a 26 be 94 14 c1 3e ba a6 94 be
       -0.057661396 -0.16257551 0.37711012 -0.29033452
0002d0 e9 3b e2 3e d9 08 46 be 87 c9 42 be 70 84 93 bd
       0.44186333 -0.19339313 -0.19022189 -0.07202995
0002e0 2e 32 60 be ee a8 b3 3e 09 9b a6 be 45 4d 02 3e
       -0.21894142 0.3508982 -0.32540157 0.12724788
0002f0 c6 4e 81 bd a4 8d 88 3d 78 16 82 3d 68 2c 4e 3e
       -0.06313853 0.06667641 0.06351942 0.20134127
000300 b5 8f 16 be b5 96 74 bd 4a f3 83 be dc bb 39 3e
       -0.14703257 -0.059714038 -0.25771552 0.18138069
000310 5f e8 70 3d 38 c4 db 3c 08 69 29 3e 8e c8 51 be
       0.058815356 0.026826963 0.16543972 -0.20486662
000320 2b f8 53 3e 5d 73 68 3d 74 52 49 3e 29 d2 11 bd
       0.20700137 0.056750644 0.1966036 -0.035600815
000330 09 30 ee 3c 98 ea 3f 3d 3d 66 d9 3c 9c 42 b5 bd
       0.02907564 0.046854585 0.026538009 -0.08850595
000340 09 cb 1b be 52 63 6d 3e 03 23 37 be 40 99 e7 3d
       -0.1521417 0.23182419 -0.1788445 0.11308527
000350 da 79 d1 bc 05 87 46 3e 32 b6 af be c9 69 49 3e
       -0.025570799 0.19387443 -0.34318691 0.1966926
000360 54 31 d8 3d aa 89 9f be 9c 70 f9 bd d9 44 83 be
       0.105562836 -0.31159717 -0.12179682 -0.25638464
000370 fd 8c f6 3b 4d 9c b1 3d 84 ac 4e bc 45 e1 81 be
       0.0075241313 0.0867239 -0.012614373 -0.2536718
000380 4e b1 4a 3e 46 dc 7d be b9 03 f1 bc 77 36 91 bd
       0.19794199 -0.24791059 -0.02942072 -0.070904665
000390 71 d7 d3 be bc d4 91 3e 43 0e 90 be b8 11 8b bd
       -0.41375306 0.28482616 -0.2813588 -0.06790489
0003a0 7e d4 4c 3e 45 7c 73 3e 8d 44 4d bd e7 8a 47 3e
       0.20002934 0.23777874 -0.050114203 0.19486581
0003b0 99 13 01 3e ce 27 2d 3f 5f e7 3e be 7a 39 ad 3d
       0.12605132 0.6763886 -0.18642949 0.084582284
0003c0 7c 97 90 be c1 60 07 3e 9c f4 8f be a4 03 63 3d
       -0.28240573 0.13220502 -0.2811631 0.055423394
0003d0 02 98 1a 3e 93 33 a3 be 73 a2 3c bc 97 42 9f 3e
       0.15097049 -0.31875286 -0.01151334 0.31105492
0003e0 01 0b 8d 3d 99 79 ad bc a7 c7 24 3e fe 1c fb bd
       0.068868645 -0.021176146 0.16091786 -0.12261389
0003f0 df 00 23 be b6 3e b7 be 5b 02 76 3e 60 33 06 bf
       -0.15918301 -0.35790032 0.24024336 -0.5242214

bias f4 [20]
000000 e6 e4 77 be e0 d9 27 3f 1a c0 77 3e 24 93 b2 3d
       -0.24208412 0.65566826 0.24194375 0.08719471
000010 3b 1a f6 3e d5 21 0a 3e 02 7f cf 3e 0d d9 3b be
       0.48066887 0.13489468 0.40526587 -0.18344517
000020 6b d0 c7 be 02 60 a9 be f2 a4 40 3e e4 3c 5a 3e
       -0.39026198 -0.3308106 0.18812922 0.2131229
000030 3e 32 a7 be 50 7d b2 bd 03 5e 06 bf f2 7b 12 3d
       -0.3265552 -0.08715308 -0.524872 0.035762735
000040 df 08 ee 3e 69 c7 4a 3f 42 eb 92 be ff 2e 07 bd
       0.46491143 0.79210526 -0.28695112 -0.033003803

weight f4 [20, 20]
000000 69 e4 dc 3d 43 6a 24 3e a4 6f 98 3e 98 7a 20 be
       0.10785753 0.1605616 0.29772675 -0.15671766
000010 b0 6f 02 3f ef aa 9f bd 88 92 b3 3e cd ea 9e be
       0.5095167 -0.07796275 0.35072732 -0.31038514
000020 9d ff 57 3e 59 97 ca 3d 88 1b 5f 3e fe 53 3e 3d
       0.21093602 0.098921485 0.21787846 0.04646682
000030 ab 7b 1a 3e de 76 9c 3e f5 32 84 be 49 ae 5c 3e
       0.15086238 0.30559438 -0.25820127 0.2155086
000040 ea f9 24 3e 82 d5 de 3e 3a b3 7e 3e 71 3a 0f be
       0.1611096 0.4352227 0.24873057 -0.13987137
000050 b5 9a 3f 3d 1f df 7d bc 7a ee 25 be 89 2f d3 3c
       0.0467784 -0.015495091 -0.16204253 0.025779502
000060 44 32 22 3e 44 53 b8 3e 16 48 b4 3e 65 fc f4 ba
       0.15839487 0.36001027 0.35211247 -0.0018690942
000070 d4 8d 04 be 5e 94 e1 3d a9 f1 95 be 69 63 2c be
       -0.12944728 0.11014627 -0.29285935 -0.16834797
000080 0b f7 97 be 27 4b f7 3e 8d fd 7c be ed dc 8e be
       -0.29680666 0.48299524 -0.24706097 -0.27902928
000090 c2 8e 9d 3e 56 9d 98 3e c5 c9 3f be 69 26 2d 3e
       0.30772978 0.29807538 -0.18729313 0.16909184
0000a0 a5 47 d7 be 81 d8 d3 be 3d e3 14 3e 19 86 43 be
       -0.42046848 -0.41376117 0.1453981 -0.19094123
0000b0 f0 db f1 be cc ea 9e 3e fe 31 ef be b4 68 71 3e
       -0.47238111 0.3103851 -0.4671783 0.23575097
0000c0 6f 1a c5 3e ae 84 14 3f 8e 7d 5d be 5f 8c 2b be
       0.3849673 0.58014953 -0.21629927 -0.16752766
0000d0 51 43 0b be 4c 87 bd bd 67 52 e3 3e 5f eb 97 be
       -0.13599898 -0.092543215 0.44398805 -0.2967176
0000e0 ec 4f 6e be b6 d9 85 3e 4b ab 8b 3d 9c ae 28 3f
       -0.23272675 0.26142663 0.06819781 0.6589143
0000f0 3a b0 16 be a2 a5 29 bd ad 0e 0f be 4f 74 5e 3e
       -0.14715663 -0.041417725 -0.13970442 0.21724056
000100 dc 40 6b bb fd 7d b2 bd 44 71 ee 3d b0 2d 89 3e
       -0.0035896813 -0.087154366 0.116426975 0.2679267
000110 90 63 00 bd ae 8c 23 3e a2 77 74 3e 31 23 e9 be
       -0.03134495 0.15971634 0.23873761 -0.4553466
000120 5a 7a 6e 3c 81 c9 8e 3e dd 22 28 3d 7d a1 6c 3e
       0.014555538 0.2788811 0.041048873 0.23108478
000130 36 66 87 be 97 d2 0a 3f 7e 2f b5 3d b6 32 05 bf
       -0.26445168 0.54227585 0.08846949 -0.52030504
000140 69 17 66 3e 7e cb a1 be 81 9a 91 be f5 b7 fd bb
       0.22469868 -0.31600565 -0.2843819 -0.0077428767
000150 4d 3b 43 3e 10 46 8c 3e f4 6f d8 bd 0a 22 d3 3d
       0.1906559 0.27397203 -0.10568228 0.10309227
000160 64 e4 d7 3d bb 77 79 be 3b e3 95 3d 93 61 7f 3d
       0.10541609 -0.2436208 0.073187314 0.062348913
000170 e1 60 9c bc 01 51 2f 3e 60 6d fc 3d 7d 26 a5 bd
       -0.019089164 0.17120744 0.12325549 -0.08063982
000180 a0 30 2e be 1b e8 d5 be 67 bb c8 be ca 5f 49 3e
       -0.17010736 -0.41778645 -0.39205477 0.19665447
000190 d3 08 fa 3c a3 63 b9 bc e3 95 1d 39 47 e6 c7 3d
       0.030521786 -0.022630518 0.00015028524 0.09760719
0001a0 ed 5f 81 3e cf 28 ba bd cc 43 84 be 4e dc 77 bd
       0.25268498 -0.09089815 -0.25832975 -0.060512833
0001b0 ed f8 63 3e 8d c7 94 bd 73 64 4c be 69 e4 d2 be
       0.22262926 -0.07264624 -0.19960193 -0.41189888
0001c0 da 76 36 3d b9 b6 60 3e 77 ff e1 be 9c af 04 3e
       0.04454694 0.21944703 -0.44140217 0.12957615
0001d0 1a 3c 58 be ea 2d ec 3d 94 7e 43 3e 9c 89 c3 3d
       -0.21116677 0.11532195 0.19091254 0.09547731
0001e0 89 3e 3b be e8 40 b4 3e af d7 7f 3d f3 03 f0 bd
       -0.18285574 0.3520577 0.06246155 -0.11719503
0001f0 58 82 af be 72 49 db 3e c2 4f 27 3c 48 0c 82 bd
       -0.34279132 0.42829472 0.010211887 -0.06349999
000200 5b 78 3a be 31 ff 8f 3e c9 bb 55 be d9 c7 ca be
       -0.18209974 0.28124383 -0.20872416 -0.39605597
000210 0a 53 20 3e 50 87 96 be 9f be c2 3e 4e 28 b9 3c
       0.15656677 -0.2940011 0.38036057 0.022602227
000220 d9 57 0d 3f 7e 84 13 3c 30 be b9 3a 0e 00 27 be
       0.5521217 0.009003757 0.001417106 -0.16308615
000230 d4 66 c4 be 13 97 fb bd 82 e3 c4 be 60 72 4c 3e
       -0.38359702 -0.122846745 -0.38454825 0.19965506
000240 74 e7 1c bf f1 de 01 3f 7e ee 91 3e 69 86 7e 3e
       -0.6129067 0.50730807 0.28502268 0.24855961
000250 e2 96 05 bc 84 4a 04 be 84 02 bb 3e 4d 5c 84 be
       -0.008153649 -0.1291905 0.36525357 -0.2585167
000260 d7 97 91 3e 11 10 c4 be 60 d9 d2 bd eb ec 64 3a
       0.28436157 -0.38293508 -0.10295367 0.00087328133
000270 e5 0f 15 bd 92 76 94 be 28 90 c1 be 92 6d bc bc
       -0.03639211 -0.28996712 -0.37805295 -0.023001466
000280 6a 9a 57 3e e0 45 2d be 0a b3 81 be 07 be bb be
       0.21054998 -0.16921186 -0.25331908 -0.36668417
000290 b1 11 1d 3e ed dc 58 3e 0f 3e 29 be d5 52 b5 bd
       0.1533878 0.21178026 -0.1652758 -0.088536896
0002a0 3a d6 41 3e 1c c1 fa bd 92 41 b6 b9 79 3a 38 be
       0.18929377 -0.12243864 -0.000347626 -0.17991056
0002b0 93 6b 7d 3e d7 ca b1 3d f3 82 f1 3e 65 ea 31 be
       0.24748068 0.08681267 0.4717022 -0.1737457
0002c0 95 c9 e1 bd 20 2b 90 be 40 78 50 3e ad 54 5c 3e
       -0.11024777 -0.28157902 0.20358372 0.21516676
0002d0 7f cf 9d 3e 86 a1 c3 3d 70 de 47 3d 56 84 77 be
       0.3082237 0.095522925 0.048796117 -0.24171576
0002e0 11 cc e2 bd 29 d7 ce bd 3d f6 51 be c0 51 06 3e
       -0.11074079 -0.10099632 -0.20504089 0.13117123
0002f0 9c 2d f2 bc bf 0d 98 3e 1b fd 62 be d7 95 13 be
       -0.029562764 0.29697987 -0.22166865 -0.14412628
000300 dc 6c b0 be 5d b7 1b 3e 03 a4 d0 3e a7 25 aa be
       -0.34458053 0.15206666 0.4075013 -0.3323185
000310 d5 22 f4 bd bb 09 de be d1 ce 05 be ef 02 9d 3d
       -0.11920706 -0.433668 -0.13067175 0.07666575
000320 54 2e bb bd 48 55 94 3e 24 e0 d2 3d c7 5b 76 3e
       -0.09139696 0.28971314 0.10296658 0.24058448
000330 a1 59 27 bd b9 01 48 3e 43 f2 07 be b7 8d 16 3c
       -0.04085696 0.19531907 -0.1327601 0.009189061
000340 a3 96 b5 3e a4 da 3b bd 19 d6 92 be e4 3e 27 be
       0.3546649 -0.04586281 -0.2867897 -0.16332585
000350 dd ae 99 3e 3b c0 8e 3e 24 ac be 3d 30 e2 66 be
       0.30016223 0.27881035 0.09310177 -0.22547221
000360 06 0c 80 be b8 4e f7 be 2f 48 a7 bd 8a 8f 6b bd
       -0.25009173 -0.48302245 -0.08168065 -0.057509936
000370 6b 72 16 3d 3e ba 1c 3e b6 8f a3 bb 82 4b ac bd
       0.03673021 0.15305421 -0.004991497 -0.084128395
000380 ec 8a f6 bd be b0 53 3e 1e cf 7e 3d 33 4c 0a be
       -0.12038216 0.2067289 0.06220924 -0.1350563
000390 38 a9 94 be b9 91 16 be c1 a7 fe bd 04 61 00 bd
       -0.29035354 -0.14704026 -0.1243434 -0.03134252
0003a0 78 02 50 be 19 7b 0e be d0 ee bf 3c dc af 4c 3e
       -0.20313442 -0.13914146 0.023429304 0.1998896
0003b0 51 6e c0 3d 91 c0 4f 3e d9 9f 82 be 26 81 4d 3e
       0.09396041 0.20288302 -0.2551258 0.20068797
0003c0 7a d0 19 3e a3 94 24 bc d8 0c c4 3d 79 1c 52 3e
       0.15020934 -0.010045203 0.09572762 0.20518674
0003d0 62 23 a4 bd 63 68 22 be 11 5f f8 3d 86 2e 2d be
       -0.08014561 -0.15860133 0.121275075 -0.16912279
0003e0 76 21 3e 3e ac a9 a9 3d d7 e3 d6 bd 68 d2 0f bc
       0.18567452 0.082843155 -0.10492676 -0.008778192
0003f0 b3 85 a1 be f5 be 1d be 0b bb 06 3f 5e e5 d6 3e
       -0.31547317 -0.15404876 0.52629155 0.41971868

bias f4 [20]
000000 51 25 b1 3e e3 a5 fa 3e 14 8a 91 be 71 6d 25 bd
       0.34598783 0.48954687 -0.28425658 -0.040387575
000010 4e d3 5b be 7d b1 7a be 39 fa 3c ba 13 92 1f 3d
       -0.21467325 -0.24481769 -0.0007208917 0.038957667
000020 76 62 2a be 36 6d 01 be b4 b1 bb be b3 a0 b7 3e
       -0.16639122 -0.12639317 -0.36659014 0.3586479
000030 7c 4a 4a be 9c 29 b6 3d b3 19 5d be 21 b4 de bc
       -0.19754976 0.08894655 -0.21591835 -0.027185502
000040 6f ff 8d be 02 31 56 be 4a 44 5c be 4c 5b 83 3e
       -0.27733943 -0.20917132 -0.21510425 0.2565559

weight f4 [20, 20]
000000 c6 3e 08 3e af f3 f1 3c 5c 07 f5 3d ae a6 1d be
       0.13305196 0.029535143 0.11964294 -0.15395615
000010 95 31 cc 3d c5 74 d3 3d d0 a3 8d bd 42 1f a5 bd
       0.099703945 0.103250064 -0.069160104 -0.080626026
000020 a1 bf e4 3e 5a e0 81 3e fe 79 9e 3c ff f1 63 3d
       0.4467745 0.2536648 0.01934528 0.055650707
000030 ef e9 3e 3e 04 38 61 be b2 12 25 3e 1f 7d 8b be
       0.18643926 -0.21994025 0.16120413 -0.27243897
000040 08 1e 9c 3e 73 b6 08 3d e8 7b 74 bd d0 ef 44 be
       0.30491662 0.033377122 -0.05968848 -0.19232106
000050 80 47 2b 3c 71 73 0a be 52 6e 68 3e f4 a0 99 bd
       0.010454059 -0.135206 0.22698334 -0.075014025
000060 24 db 99 bd 7f 9b ee bd 54 5b 19 3d d4 31 58 be
       -0.07512501 -0.11650752 0.037440613 -0.21112758
000070 8d 17 b3 3e 94 9c 6c be 84 68 6c bc 53 97 d1 bd
       0.34978905 -0.23106605 -0.014429215 -0.10233941
000080 62 eb f8 bd f6 f2 53 bd db 03 c8 be 35 8b 1f bf
       -0.12154271 -0.051745377 -0.3906544 -0.6232179
000090 a3 53 27 be 28 9f ce 3e 68 d0 26 3e 69 c0 cb 3d
       -0.16340499 0.40355802 0.16290438 0.09948809
0000a0 47 d6 ac 3e b2 c5 71 3e 11 21 64 be ca d4 8a 3e
       0.3375723 0.23610571 -0.22278239 0.2711547
0000b0 99 5a b6 be 50 b6 8b be 9b 0c 89 3d e6 19 16 3e
       -0.35615996 -0.2728753 0.066918574 0.14658317
0000c0 25 ac 33 bd 79 8e 43 bd c8 a3 63 bd b9 4a ab bc
       -0.04386534 -0.047743294 -0.055576116 -0.020909654
0000d0 15 6c 4a 3e ab 9d b9 3e 7e 71 26 3d 4e 3c 9b bd
       0.19767793 0.36253104 0.04063558 -0.075798616
0000e0 86 e9 a9 3d 40 f0 9b be 18 4c dd be 4c 61 ec 3d
       0.08296494 -0.30456734 -0.43222117 0.115419954
0000f0 6a 71 0c be 72 d1 6f 3e c8 d9 54 3e 81 14 b9 bd
       -0.13715139 0.23419741 0.20786202 -0.09037114
000100 37 d9 9a 3c 41 85 23 be e8 93 ab bd cf c0 06 3d
       0.018902404 -0.15968801 -0.0837782 0.03289872
000110 6d fb b9 bd 6a 9f 38 bd 16 1d 9d bd 20 5e 22 be
       -0.09081159 -0.045073904 -0.07671563 -0.15856218
000120 fc c2 81 3e 6a d8 6d 3e c8 d2 ee 3d 70 9a 8c 3e
       0.25344074 0.23227087 0.11661297 0.27461576
000130 05 c2 b7 bd 48 1e b3 3e 01 be bf 3d c7 e6 05 3e
       -0.08972553 0.3498404 0.09362412 0.13076316
000140 5c 03 e8 be f1 57 7e bd 54 ba 31 3f 6d 47 92 bd
       -0.45315063 -0.062095586 0.6942494 -0.0714253
000150 6c 9b 03 bd ce fd 35 bd 3d 18 e2 3c 65 4d 26 be
       -0.032130644 -0.0444315 0.027599448 -0.16240461
000160 3a b3 85 3e 12 7e ac 3d 72 94 aa bd 94 1f 0c bd
       0.26113302 0.084224835 -0.08329095 -0.034209803
000170 e0 bd b4 be 0c b7 59 bd 3c f1 f0 be 6e a6 d9 bd
       -0.35301113 -0.053153083 -0.47059047 -0.10627447
000180 e3 7a 81 be 1f 8f ea 3e e6 07 bc 3d 31 48 33 be
       -0.25289068 0.45812318 0.09181194 -0.17508008
000190 32 76 ae be 18 7f 87 3d 92 81 20 3e d1 d0 48 bd
       -0.3407455 0.06616038 0.15674427 -0.049027268
0001a0 e8 ac 8d 3e ce 99 d0 bc ac 59 a2 be bc 52 95 bc
       0.2767098 -0.025463965 -0.3170904 -0.018227927
0001b0 64 91 89 3d 2a 92 e7 bd 33 6a 8f be 66 17 a5 be
       0.06717184 -0.113071755 -0.2801071 -0.32244414
0001c0 b8 96 1d be 8a fb 35 3e 9a a6 6d bc 26 0b 07 3f
       -0.15389526 0.17771736 -0.014505053 0.52751386
0001d0 e4 5f c7 bd c8 c3 38 bd 56 00 c4 be 48 ef 7e be
       -0.097350866 -0.045108587 -0.38281506 -0.24895966
0001e0 25 e2 6c 3e b0 ed 48 3d ea 9f 1e 3e 97 f6 c9 3c
       0.23133142 0.0490548 0.1549069 0.024653716
0001f0 b0 a1 ab be ff b7 ca 3d fb 31 1d 3b 89 7b 5d 3e
       -0.33521795 0.09898376 0.002398609 0.21629156
000200 a4 2a e5 3d c1 2f f0 3d a8 be 88 be 9e c3 a6 3d
       0.11189774 0.11727858 -0.2670796 0.0814278
000210 a6 76 f4 3c 07 b8 c7 3d d4 13 ea 3d 25 0e 6e be
       0.029841732 0.09751897 0.11429563 -0.23247583
000220 4b c3 8d 3d 16 76 8b 3e 74 2b 81 bd dc c8 7f 3e
       0.06922015 0.2723853 -0.06307116 0.24978966
000230 bd a2 ca be 38 39 76 bc 90 b5 12 3f ec 9e 7e be
       -0.39577284 -0.01502829 0.5730829 -0.24865311
000240 8b e7 31 bb a9 51 c7 bd 8b ff 2d 3e bd 33 1f bc
       -0.0027146067 -0.09732372 0.16992013 -0.009716925
000250 31 b7 05 3e 93 17 b8 3e 85 3a be 3d 5e bc 02 be
       0.13058163 0.35955486 0.092885055 -0.12767169
000260 8b f2 fb 3b 5a 3a a9 3d c7 86 b0 be f8 9c db be
       0.0076888255 0.08263083 -0.34477827 -0.42893195
000270 ca ec e9 be a9 24 d7 3e 27 73 ed 3d b1 e6 4e 3d
       -0.45688468 0.42020157 0.11594229 0.050512973
000280 47 6e 8f be 03 3c 7d be f0 43 06 3d 64 ec b3 3d
       -0.28013822 -0.24729924 0.032779634 0.08785322
000290 24 e4 a6 bd 99 27 93 be 34 78 20 bd 0f 99 a6 be
       -0.08148983 -0.28741148 -0.039177135 -0.3253865
0002a0 e6 17 a5 bd 0b 75 80 3e 9a 74 2b 3e 69 38 81 be
       -0.08061199 0.25089297 0.16743699 -0.2523835
0002b0 6a 29 45 be f3 83 c9 3e 4c 0c 32 bc e1 1e da 3d
       -0.1925408 0.39358482 -0.01086719 0.10650421
0002c0 66 bf 80 be 42 d7 ed bd ec cb a1 bd ce 14 5f bc
       -0.25146025 -0.11613323 -0.07900223 -0.0136158
0002d0 63 4e 1d be 29 f8 13 3e c1 6f b3 3e bd 25 1e be
       -0.15361933 0.14450134 0.350462 -0.15444084
0002e0 bc f3 2d be 4e a0 69 bc 64 f4 02 be cd 2d b1 3e
       -0.16987509 -0.014259411 -0.1278854 0.34605256
0002f0 1a 58 b4 3c 42 43 85 3d 68 be 2f 3e 29 f3 15 be
       0.022014666 0.06506969 0.17162478 -0.1464354
000300 7d 06 b0 be 14 42 b6 3e 9d bd 25 be c5 fa bd be
       -0.3437995 0.3559729 -0.16185613 -0.37105384
000310 09 2a 43 be 50 f5 e1 3e 01 58 f3 3d a9 c3 f2 3d
       -0.19059004 0.4413247 0.1188202 0.118537255
000320 27 6c 9e 3d a5 50 e7 bd 2a 43 40 3e f2 bf da 3e
       0.07735472 -0.112946786 0.18775621 0.42724568
000330 b8 1c 93 bd d6 02 83 3e 26 a9 14 be 2f e3 81 be
       -0.07183212 0.255881 -0.1451765 -0.2536864
000340 4f a0 a5 3d ca e5 10 bf a2 65 04 3e bf ad dd 3d
       0.08087217 -0.5660063 0.12929395 0.10824155
000350 38 84 a5 be e9 0b 02 be 4a e1 b8 be 3c 22 88 3e
       -0.32327437 -0.12699856 -0.36109382 0.2658862
000360 40 3c 4a 3e 84 2a 6b be 70 8a 38 3e 27 16 4e be
       0.19749546 -0.22965437 0.1802156 -0.20125638
000370 94 4c e5 be 4e a5 ba bd 26 d5 71 bd e2 93 b7 3d
       -0.44784987 -0.091135606 -0.059041165 0.08963753
000380 94 30 cd be 29 c7 d7 3d 01 fb 58 be 60 8b e8 3e
       -0.40076125 0.10536034 -0.211895 0.45418835
000390 ea c2 44 be 59 3c 20 be 21 f4 29 3c 24 9a 9d 3d
       -0.19214979 -0.15648021 0.010373146 0.076954156
0003a0 32 56 43 3e 97 76 15 3e 11 1c 22 3d 4e 2e d2 3c
       0.1907585 0.1459602 0.039577547 0.025656845
0003b0 21 11 a7 3d 59 e0 0a be e5 8a 6f bd 7d 60 15 be
       0.08157564 -0.13562144 -0.05848207 -0.14587589
0003c0 d9 0c 93 be 02 05 b6 bd 77 4d b0 3b ec 4f 0f be
       -0.2872074 -0.08887674 0.0053803283 -0.13995332
0003d0 64 90 6c be 09 78 8b 3e 56 1f e5 bd e1 9a 2e be
       -0.23101956 0.27240017 -0.111876175 -0.17051269
0003e0 04 c1 03 3d 4c 0d a1 bd 7a 88 83 3d 44 cc cc 3b
       0.032166496 -0.07863864 0.06422515 0.0062499363
0003f0 be d8 68 be c7 1a 5f 3e bb 46 b3 be b3 8d 72 3d
       -0.2273893 0.21787558 -0.350149 0.059217166

bias f4 [20]
000000 36 3a 10 3e 49 0f b1 3d d9 30 85 3e a3 05 72 3d
       0.14084706 0.086454935 0.2601383 0.059087407
000010 05 1f b8 bd ce 9e 11 be 76 0c 12 be 6d 6e ba bb
       -0.089902915 -0.14220735 -0.14262566 -0.0056894333
000020 da ef 8b be 73 b4 d0 3e cf d6 fe bb 65 c9 b8 3c
       -0.2733143 0.40762672 -0.007777072 0.02255697
000030 2d 4c 16 3d d1 b7 de 3e 08 a2 6b 3e 63 62 58 bd
       0.03669374 0.43499616 0.23011029 -0.052828204
000040 40 87 2e be 15 7c 95 3e 1e de 2f be 32 10 91 be
       -0.17043781 0.2919623 -0.17174575 -0.2833267

weight f4 [20, 20]
000000 93 95 70 3e 00 25 06 3e 55 68 a9 bc 88 4a 4f 3e
       0.23494558 0.13100052 -0.020679632 0.20243275
000010 82 56 1d be cf a7 9e bc bf 96 1f 3e 35 6c f9 bb
       -0.15365031 -0.019367127 0.15584849 -0.0076117762
000020 b6 05 aa bd 8d 70 bc 3d e6 51 d5 3d eb fc be 3d
       -0.083018705 0.09201155 0.104160115 0.09325584
000030 fa e8 87 3e 9b d0 86 3e ed d9 15 bd 76 cc 27 3e
       0.26544935 0.26331028 -0.036584783 0.1638659
000040 7c c6 35 3d 99 b4 3f 3e d4 bb c4 3d ff c0 bb be
       0.044378743 0.18721236 0.09606138 -0.36670682
000050 9c c0 a6 3d 52 1c 09 3f 30 d4 9b be f3 7a 42 be
       0.08142206 0.5355884 -0.30435324 -0.18992214
000060 bf e2 11 3e 06 7e 31 3e 00 33 2d 3d 69 0b a8 3e
       0.14246653 0.1733323 0.042284966 0.32821205
000070 27 7c dd 3d bb e2 b1 3e a6 f0 07 be 67 9f 92 be
       0.10814696 0.34743294 -0.13275394 -0.2863724
000080 2a c9 9c 3e db f9 74 bb 48 69 51 be 3f 87 18 be
       0.30622226 -0.003738037 -0.20450318 -0.14895342
000090 2f 44 8e 3e b1 d7 b8 be 09 62 b8 bd cb 46 99 3e
       0.27786395 -0.3610206 -0.09003074 0.29936823
0000a0 0f 44 94 be 69 79 33 be ea c9 a2 bd 75 1d 9d bd
       -0.28958175 -0.17526783 -0.07948668 -0.07671634
0000b0 c3 4b 9d be a8 37 3a be 44 01 16 3c e8 56 ad be
       -0.30721864 -0.18185294 0.009155575 -0.33855367
0000c0 bf 0e 3a be d3 ab e9 3b 53 2b 6b be df db 75 be
       -0.18169688 0.0071310787 -0.22965746 -0.24009655
0000d0 6d 5b a7 be dc 84 f9 3c b4 02 ac 3e 21 fa 09 3e
       -0.3268694 0.03045886 0.33595812 0.13474323
0000e0 51 ce 60 3e 12 de aa 3d 25 26 75 bd e2 29 46 bc
       0.21953703 0.08343138 -0.05985083 -0.012094947
0000f0 54 31 45 be df 35 07 be 69 cb 53 be e5 74 b2 bd
       -0.19257098 -0.13204144 -0.20683064 -0.08713702
000100 93 08 29 be 5b ae 32 be a1 32 88 be 47 43 42 be
       -0.16507177 -0.17449324 -0.26601127 -0.18970977
000110 4a 10 2e be cb 45 25 3e 3b d2 6b 3c 33 06 77 3e
       -0.16998401 0.16139905 0.014393385 0.24123459
000120 bb 2b f1 bd c0 5a 88 3e 70 fb 9a 3e 82 f3 e7 3d
       -0.11775919 0.26631737 0.30269957 0.11325742
000130 e8 ce 8c be c9 7e 5c 3e 5a 92 42 be a3 d6 c7 be
       -0.27501607 0.2153274 -0.19001141 -0.39030942
000140 f1 70 44 be 2c 68 e3 be 84 58 ed 3d ee 2c d0 bd
       -0.19183709 -0.44415414 0.11589149 -0.1016482
000150 79 de f2 be af 1a 40 3c fd e8 88 be 78 5b d8 be
       -0.47435358 0.011725112 -0.26740256 -0.42257285
000160 63 63 e6 3d bc 7f db be 62 c0 a3 3e ac 46 aa bd
       0.11249425 -0.4287089 0.31982714 -0.08314261
000170 41 7a 5e be a2 e7 03 3d a0 ec d2 3d 03 77 be bd
       -0.21726324 0.032203324 0.10299039 -0.093000434
000180 f7 4c 10 be 71 99 fa 3d ec 08 04 bd 88 a6 81 be
       -0.1409186 0.12236298 -0.03223507 -0.25322366
000190 cc 36 6b be 2b 1d c0 bd 88 2d 0a bf 20 42 0a 3d
       -0.22970122 -0.09380563 -0.53975725 0.033754468
0001a0 38 d2 2b bf 01 99 41 bd 3a 1b 5a bc 9f dc b0 be
       -0.67117643 -0.047265057 -0.013312155 -0.3454332
0001b0 b8 ae c3 3e 67 e8 66 be 09 32 21 3d 0a 1f 91 3e
       0.38219237 -0.22549592 0.039354358 0.28343993
0001c0 0c 1d eb bd bd d2 c7 be a1 07 59 3d 3f 67 c2 3e
       -0.114801496 -0.39027968 0.05298579 0.37969396
0001d0 1c 5c 2c 3e 33 c3 29 be 42 d5 4d 3d c9 c6 21 3f
       0.16832012 -0.16578369 0.050252207 0.6319395
0001e0 44 87 52 be 75 28 2e bb f2 cc 5e bc 7f 69 08 3e
       -0.20559412 -0.0026574407 -0.013598667 0.13321494
0001f0 44 b9 7b 3e 50 7c e6 3c 47 f0 36 3e 66 b8 89 be
       0.24582392 0.028135449 0.17865096 -0.26898497
000200 4f 04 3c 3e ad 45 0d 3c 94 25 3b 3e 4a 7d 12 be
       0.18361019 0.008622569 0.18276054 -0.14305606
000210 14 8c d1 bd a4 d8 58 bd 04 52 b5 3e c7 87 e3 be
       -0.10231796 -0.05294098 0.35414135 -0.44439527
000220 36 6a 19 be 8c bc 7d be b7 02 9e 3d 81 e2 54 be
       -0.14981923 -0.24778956 0.077153616 -0.2078953
000230 0e 9d b9 3b aa 68 c4 bc 3a 69 c0 bd ff c4 a1 bd
       0.0056644743 -0.023975689 -0.093950704 -0.07898902
000240 e7 18 40 3e 84 08 39 3e b2 4e e4 bc 6e 38 99 be
       0.187595 0.18069655 -0.027869556 -0.29925865
000250 17 1d 23 3e 09 05 86 bd 50 f3 7f 3e 5e 2d 64 be
       0.15929066 -0.06543929 0.2499516 -0.22282931
000260 59 65 96 3e 44 9c 75 be 16 98 2e 3e 4a 66 cf 3d
       0.29374197 -0.23985392 0.17050204 0.10126932
000270 7b 29 ae be 21 c4 2d 3d 7b 49 9b bd e4 85 c1 3e
       -0.34016022 0.04242337 -0.07582375 0.37797463
000280 fe 63 0a be a9 e3 02 3e 26 4d 41 3d 6d f0 b0 3e
       -0.13514706 0.12782158 0.047192715 0.3455843
000290 96 36 03 3f 75 80 da 3d e2 8b 2e 3e ed b3 1c 3f
       0.51255167 0.106690325 0.17045549 0.61212045
0002a0 aa e5 e2 3e 18 2d 02 3f cf c7 8e be c6 47 6e be
       0.44315845 0.5085006 -0.27886817 -0.23269567
0002b0 49 aa da ba 4d 34 5e 3d f0 20 76 be de 9d f9 3d
       -0.0016682829 0.054249097 -0.24036002 0.12188314
0002c0 6d f7 cc 3e b8 a4 a0 be a1 9c 04 3d f0 16 59 be
       0.4003252 -0.3137567 0.032375935 -0.21200156
0002d0 0b d0 46 be 3a 53 df be ca 4d e5 3b 51 91 94 3e
       -0.194153 -0.43618184 0.0069977986 0.29017118
0002e0 4e 2f bd 3c 6f 48 61 3d 87 95 47 bd 24 5f 88 be
       0.023093846 0.05500072 -0.048726585 -0.26635087
0002f0 e3 98 b7 3c 5f d6 36 be fb c3 88 3d fe 84 c6 bd
       0.02241177 -0.17855214 0.06678005 -0.09693335
000300 f4 cb 8c be 8e 54 aa bd bb 7c e2 bd e5 bf 06 bf
       -0.27499354 -0.08316909 -0.11058947 -0.5263656
000310 c1 f6 44 3b a8 44 a9 be 98 dd 60 be 2a 67 42 3c
       0.0030054303 -0.33060193 -0.21959531 0.011865417
000320 d5 56 cc 3e c7 7f b4 3e 1c 87 5c 3e d7 74 9f 3d
       0.39909998 0.35253736 0.21535915 0.07785957
000330 9d 64 28 bd 07 09 81 be 0b 54 95 3e 7c 11 4d 3d
       -0.041111577 -0.252022 0.29165682 0.050065503
000340 85 ff 10 be 5a 6d af 3e b1 bf 33 bd 27 43 80 be
       -0.14159973 0.34263116 -0.043883983 -0.25051233
000350 b7 dd c6 be ca 8e 01 3e ee d3 2e be 9f 75 55 3e
       -0.3884103 0.12652126 -0.17073032 0.2084565
000360 74 94 89 3d 6c f0 16 be df ca e3 bd 49 f2 89 be
       0.06717768 -0.14740151 -0.11122679 -0.2694266
000370 62 30 45 3e 3c 27 8f 3d 8a 34 b4 3e 58 5b 0f 3e
       0.19256738 0.06989905 0.35196334 0.13999689
000380 91 6e 7e be 95 de 82 3e 50 d1 70 bd 7f 48 8a be
       -0.24846865 0.25560442 -0.058793366 -0.27008435
000390 8f 22 48 3e 28 a9 90 be 7a 1a 8d 3e 10 ba 71 3e
       0.19544433 -0.28254056 0.27559263 0.23606133
0003a0 21 08 2d 3e bb 17 e9 bd 83 7e b6 be 51 4d 33 3e
       0.16897632 -0.11381479 -0.35643396 0.17509963
0003b0 90 c8 89 3e b9 ca 13 be e0 e6 d4 3e c0 3c 8e be
       0.2691083 -0.14432801 0.41582394 -0.27780724
0003c0 01 ab 72 3e 7f 78 23 bf 8e 10 ae 3e 01 c5 cd bd
       0.23698045 -0.6385574 0.33997005 -0.10047341
0003d0 e6 62 08 bf 7f 93 c4 3d 21 eb d0 be 5d 68 07 bf
       -0.5327591 0.09598445 -0.4080439 -0.5289362
0003e0 1f f8 7a 3e 17 1e 26 be 37 9a fb bd 29 87 25 bd
       0.24508713 -0.16222416 -0.122852735 -0.040412102
0003f0 ea 81 cc 38 7b 38 a8 3d 5c 4f c5 3e e7 cd 4e 3e
       9.7516764e-05 0.08213898 0.3853711 0.20195733

bias f4 [20]
000000 a6 1e 1a 3f 23 c9 aa 3d cd 13 68 be b0 30 00 3e
       0.60203016 0.08339145 -0.22663803 0.12518573
000010 8d f0 e5 bd dd 8e 29 be 0f ac d9 bc 1d a8 70 be
       -0.11227522 -0.16558404 -0.026571302 -0.2350163
000020 eb 84 d2 3d 74 bf 53 bd 06 aa 24 3e d8 86 b6 be
       0.10279258 -0.051696256 0.16080484 -0.35649753
000030 8b de 8a 3d d8 b1 50 be 7c d9 bb be eb ce 9f bd
       0.06780728 -0.20380342 -0.36689365 -0.07803138
000040 37 1e b9 bd 29 00 c4 bd 96 42 97 3d 65 d7 c1 3e
       -0.09038966 -0.09570343 0.07385747 0.37859645

weight f4 [20, 20]
000000 82 df 32 be 55 b9 84 3d b3 9f 29 be 68 5e 2e 3d
       -0.17468074 0.06480662 -0.16564827 0.0425705
000010 9e c1 98 be 36 37 4f be 0f 4b 2f 3e 6e 18 6d be
       -0.29835218 -0.20235905 0.17118476 -0.2315385
000020 a0 5a cc 3e e1 9b 17 3e b6 fa 81 3e 23 49 8f 3d
       0.3991289 0.14805557 0.2538659 0.069963716
000030 23 41 13 3c 20 c1 33 be 59 5a 5a bd 8d ff d0 3e
       0.008987698 -0.1755414 -0.05330882 0.4081997
000040 c1 95 58 be ae 0b 59 3e 11 78 89 be fe 76 29 be
       -0.21150877 0.21195862 -0.26849416 -0.16549298
000050 fb e5 8a 3e 5f 5d 2e 3f 1c 68 ef bc e9 43 21 bc
       0.27128586 0.68111223 -0.029224448 -0.009842851
000060 ee 0f c7 be 3c 2c 89 3d 3c 61 6f be 9c 1f 43 be
       -0.3887934 0.0669789 -0.23376936 -0.19055027
000070 e3 e6 ac 3e d5 ff bc 3d ad b4 9a 3e e1 5c 98 be
       0.33769903 0.092284836 0.3021597 -0.2975836
000080 c8 80 f0 be 6f 30 04 bd 4c b2 55 be 31 f2 b6 3d
       -0.46973252 -0.032272752 -0.20868796 0.08932913
000090 14 21 8f 3e b9 13 42 3e 05 62 78 3e 41 3c ba 3d
       0.27954924 0.18952836 0.24256141 0.09093524
0000a0 5a 59 b9 be 02 51 09 be 39 de d8 3e f8 ee ff 3d
       -0.36200982 -0.13409808 0.42357042 0.124967515
0000b0 4a ff 57 3e bc fc 1a 3e d0 20 ba bd 86 7b 5e 3e
       0.21093479 0.15135473 -0.0908829 0.21726808
0000c0 5c 11 e7 3d 0a 7b 15 3e a5 3e 8c bd 9e cd 0d 3e
       0.11282608 0.14597717 -0.06847886 0.13847968
0000d0 35 5c bc be 5c 5c 15 3e bf 22 a1 3e 7c b3 e9 3e
       -0.36789098 0.14586014 0.31471822 0.45644748
0000e0 01 7a 35 3d cd f6 80 3d 0f 73 61 be 6b ad 82 3d
       0.044305805 0.062970735 -0.22016548 0.06380733
0000f0 3c 94 3d 3d cb e8 e7 3c b3 68 97 3e 73 cc c2 be
       0.046283945 0.028309247 0.29572067 -0.38046607
000100 12 eb 84 3e c4 a8 84 3d 09 58 ac be 17 eb 05 3d
       0.25960594 0.06477502 -0.33660915 0.032694902
000110 a4 c4 4c bd a9 05 bd 3e fb b1 e6 be fb 15 bc 3e
       -0.04999222 0.3691838 -0.45057663 0.3673552
000120 4a 47 3d 3d 36 cc 41 3e b2 aa 4d 3e 3a ec c0 3d
       0.046210565 0.18925557 0.20084646 0.09420057
000130 67 16 a9 3e fc 1f 23 be c4 38 35 be a6 d5 f8 be
       0.33024904 -0.1593017 -0.17697436 -0.486005
000140 da 36 98 3e f7 40 25 3e 2d 15 fc 3d 71 42 1f 3e
       0.29729348 0.16138063 0.123087265 0.15552689
000150 b9 80 82 3e 64 cc 02 bf 4b 5b 9b 3e 32 5e 92 3d
       0.25488833 -0.51093125 0.30343089 0.071468726
000160 6f 4b a3 3e ac 54 4a bd 08 95 e5 3d d5 a5 b6 3c
       0.3189349 -0.049397156 0.11210066 0.022295872
000170 d1 15 d4 be 73 e4 33 3d ec 56 8d 3b 6b d3 28 bf
       -0.41422895 0.043919038 0.0043133404 -0.659476
000180 fa 34 93 be 52 b8 2b 3e 0f 7e 72 3e b9 cb c5 3e
       -0.28751355 0.16769531 0.236809 0.3863199
000190 b8 3f 88 3d 8c 16 05 be 93 15 98 bd 6c 09 e3 bd
       0.066527784 -0.12996882 -0.0742599 -0.110857815
0001a0 e0 99 10 bf 23 a2 b4 3d 29 41 83 3e 78 f4 03 3f
       -0.56484795 0.088199876 0.2563565 0.51544905
0001b0 c5 a7 23 be e3 16 a9 be 32 2d de 3e d6 7e 98 3e
       -0.15981968 -0.33025274 0.43393856 0.29784268
0001c0 88 5a f5 be c4 62 c9 3d 77 71 19 3d 87 b6 61 3e
       -0.47920632 0.09833291 0.037461724 0.22042285
0001d0 8c fd 67 3b ec 5b 5e be f4 3c 3a be 7e 78 59 3e
       0.0035398928 -0.21714753 -0.18187314 0.2123737
0001e0 10 43 0a bf 0a 08 9f 3e ad 0c 5f 3c 46 34 15 be
       -0.5400858 0.3106082 0.013613862 -0.14570722
0001f0 bf 5e e2 be 80 fa 9c bd c9 4b 88 be 68 75 95 be
       -0.4421291 -0.076649666 -0.2662032 -0.29191136
000200 ea ef 72 3e 36 be 23 bf f1 57 c5 3e 8c 07 36 3d
       0.23724332 -0.63962114 0.38543656 0.04444079
000210 d2 9e 58 be ea e2 d4 be 92 a1 62 3d 48 0a 56 be
       -0.21154335 -0.41579372 0.055329867 -0.2090236
000220 11 56 fc bd da d3 84 be e3 a5 ca 3d db 67 45 be
       -0.12321103 -0.2594288 0.09894922 -0.19277899
000230 7d e5 2a 3f f0 9c c2 bd c6 61 9e be 67 c1 16 bd
       0.6675642 -0.0950259 -0.3093397 -0.036805537
000240 8d 31 07 bf ec 41 3a bd bb 68 20 3e 4f 8f bb bd
       -0.52809983 -0.045473024 0.15664952 -0.09158193
000250 05 b8 fc bd d3 a2 24 be 01 a7 54 3e 68 92 05 bf
       -0.123397864 -0.16077738 0.20766832 -0.52176523
000260 80 f0 b4 be 96 f8 a5 3e df f0 c3 be d7 c1 0f bd
       -0.35339737 0.3241622 -0.38269708 -0.03509697
000270 8b 95 fd bd 04 12 dd 3e 21 8f 1c 3e d4 5d a2 3d
       -0.12382039 0.43177807 0.15288974 0.079280525
000280 04 c2 01 bd fe ed 0b 3e af 77 9a bd 10 0b d0 bc
       -0.03167917 0.13665006 -0.07542359 -0.0253959
000290 69 91 14 bf c5 ce f9 be b7 11 64 3e 36 86 0c be
       -0.5803438 -0.48790565 0.22272383 -0.13723072
0002a0 58 f4 9b 3e a8 d8 9c 3c 9f ab 94 3e b1 99 76 3d
       0.30459857 0.019146279 0.29037187 0.060205165
0002b0 44 11 88 be 60 1e b6 3d 19 bf 47 bd 12 8c 16 bf
       -0.26575673 0.08892512 -0.04876623 -0.5880748
0002c0 fa 8e 45 be ec f4 a3 3d 66 12 cb bd 35 5a 81 be
       -0.19292822 0.080056995 -0.099156186 -0.25264135
0002d0 1b 22 8f 3d 05 fb ef 3d 60 2e d0 bc 73 52 47 be
       0.06988927 0.117178 -0.025412738 -0.19465046
0002e0 e3 23 ab 3e 4d f8 93 3e 8e d5 e2 3d 74 6b 80 3e
       0.33425817 0.28900376 0.110758886 0.2508198
0002f0 7b 04 63 be ab 4e 19 be 4d 46 d0 be 2a 7a 86 3e
       -0.22169678 -0.14971416 -0.40678635 0.2626508
000300 c4 d2 b8 3e 7a 61 f3 bd 14 a5 04 3f 30 7d d9 3e
       0.360983 -0.118838266 0.5181439 0.42478323
000310 50 5a 80 3e 31 84 31 be fb 4c d4 bd 78 44 91 be
       0.25068903 -0.17335583 -0.10366245 -0.2837255
000320 77 81 4f 3d 24 03 ab be 4f 2b c8 bd 1d 7c 09 bd
       0.050660577 -0.33400834 -0.097738855 -0.03356563
000330 fa 91 34 3e 71 41 bf be 15 ac 79 bd 63 88 96 3d
       0.1763381 -0.37354615 -0.060955126 0.073502325
000340 1a f9 3a 3e 58 02 42 3c 9b b3 de bd 64 df a2 be
       0.18259087 0.011841379 -0.10874101 -0.3181106
000350 05 55 20 3e dc b5 95 be 03 45 81 3e 48 a2 8c 3d
       0.15657432 -0.2924031 0.25247964 0.0686689
000360 e8 c2 a4 3d a6 25 97 be 2b 93 ac 3e ec 5f 3e 3d
       0.08044988 -0.2952091 0.3370603 0.046478197
000370 85 26 33 3e da a5 38 bd 2a 0a 95 3e b8 cd 82 bd
       0.17495163 -0.045080043 0.29109317 -0.06386894
000380 2b 92 70 be 71 33 d7 be 2a 20 eb bd 59 0c 07 be
       -0.23493259 -0.42031434 -0.11480744 -0.13188304
000390 e7 49 7c 3e 62 2d ad bd 23 35 12 3f 7c 28 b0 bd
       0.24637567 -0.08455922 0.5711233 -0.08601472
0003a0 cf fc bc bc d8 f7 98 be ab cb 37 be 28 fb 99 be
       -0.023069767 -0.2987659 -0.17948787 -0.3007443
0003b0 25 53 3e be 48 96 b1 3d 9e ae 7a 3e b6 a9 43 3e
       -0.18586405 0.08671242 0.24480674 0.19107708
0003c0 ef a1 a9 bd 99 63 df 3c b0 04 92 3d 66 11 31 bd
       -0.082828395 0.027269172 0.071298 -0.043229483
0003d0 5b 2a e9 3e 74 91 cb 3e 6b fd 78 3e e1 ff 28 3e
       0.45540127 0.3975941 0.24315421 0.1650386
0003e0 5e a0 0d bf a8 92 b4 be 83 cb 20 be fa 8e 8e be
       -0.55322826 -0.3526814 -0.15702634 -0.27843457
0003f0 c3 64 89 3e 4b fb 2a 3c b8 58 13 be 66 77 f6 bd
       0.26834688 0.0104358895 -0.14389312 -0.12034492

bias f4 [20]
000000 37 4d c3 3e b0 19 6f 3d 9f 4c eb be 50 13 ff be
       0.38144848 0.058374107 -0.45956895 -0.49819422
000010 bf 6d 76 3e c7 32 12 3d d1 6f db bd d7 17 0c 3f
       0.24065302 0.035692956 -0.10714687 0.54723877
000020 b3 49 54 3a e4 83 93 be 17 f2 c3 3d c8 10 dd 3e
       0.000809814 -0.28811562 0.09567659 0.43176866
000030 67 7b 43 3c ee 97 cd 3d bb 32 ab be 03 15 1a 3f
       0.011931277 0.10038744 -0.33437142 0.6018831
000040 eb ff ea 3e 13 f0 42 be 7c 81 a2 be 35 ad a8 3e
       0.45898375 -0.19036894 -0.31739414 0.32944646
