Trained/Iter_00/Models_00/Noise_5/simulation_nostop/weak_ff.pt (torch, 31199 bytes, 23 tensors)

weight f4 [20, 2]
00000000: 4982 65be 4162 a9bb 0f33 34be 9713 c33d
00000010: d49a f6be e875 f4be 9e06 973e 87c0 e93e
00000020: f866 61b7 370c a1be 22a8 af3e 4a7f 11be
00000030: 1cfc d7bd 4bc2 0c3d a8b0 0c3d 09ed b4be
00000040: 94ae adbd 827f 0c3e 69e1 68be 95b7 093d
00000050: 8a18 a5bc d2aa d83d 3b90 253e b6e7 f03d
00000060: 7cfe e8bb e070 72be ad5a a8be 42a2 9d3c
00000070: 38d6 c83d 2acb d7be 1332 9c3e 06a8 b6bd
00000080: 6c66 cc3e 9676 4abf c3ac 42bf 0b2a c9be
00000090: 1b6a 8e3d ce98 84bd c2b9 bf3d 395e 6c3c
-0.22412981 -0.0051691835 -0.17597602 0.09525221 -0.48165 -0.47746205 0.29497236 0.456547
-1.3435019e-05 -0.31454632 0.34307963 -0.14208713 -0.10546133 0.03436498 0.03434816 -0.35337093
-0.08480564 0.13720515 -0.22742237 0.033622343 -0.020153303 0.105794564 0.16168301 0.11762945
-0.007110415 -0.23675871 -0.3288168 0.01924241 0.09806484 -0.4214719 0.30506954 -0.08918767
0.39921892 -0.790872 -0.76044863 -0.3928989 0.06953832 -0.06474458 0.09361602 0.014426761

bias f4 [20]
00000000: 2cee 843d d580 d2bc 8dbf 86bd ee59 1a3c
00000010: d66a c03d 42f8 ae3d e8be f23c 89d4 b33d
00000020: 39d2 b6bc a0c2 803d e782 203d 501b 00bd
00000030: 464f 623d c07d b33d ab41 f63a e5c8 413d
00000040: 8a42 e0bd 6932 aebd 7d7d a1bd cfbf e1bc
0.0649074 -0.025696198 -0.06579504 0.009420855 0.09395377 0.08543445 0.029632047 0.08780772
-0.022317039 0.06287122 0.03918734 -0.031276047 0.055251382 0.08764219 0.0018787881 0.04731073
-0.10950191 -0.08505709 -0.07885263 -0.027557282

weight f4 [20, 20]
00000000: 7953 823e 6403 083e de80 5fbe bb77 253d
00000010: aad3 163e 0cf4 5cbc 9117 423e b598 0f3e
00000020: 68a4 a33e cd69 b83e daec a23e 6260 183d
00000030: 2b30 933e a8f2 2f3e d334 0d3f 3af4 7ebe
00000040: 1197 2bbd 9c6f 90be 20e8 02be 3d04 9d3d
00000050: 9a7b 8b3e 21d8 0f3e e171 6bbc 82f6 f8bc
00000060: b8f8 c8bd 8ebf e3be dd35 d6be 29df 53be
00000070: 953a 673e cb47 10bd 3f71 63bd 8f3f 8bbd
00000080: 9c61 25be 39a4 e43d c5c3 3cbe d357 063e
00000090: 36ff 413e 0837 173e 28e4 153d 9953 86bc
000000a0: be1b a63e fa64 033e 1879 83be 1481 00bf
000000b0: c5fc 1b3f fb11 6ebd 44ea 62bd 5d2c 623e
000000c0: 53f8 343e fea8 82be 5508 4abe 2f07 423e
000000d0: dbde 8fbe fad3 23bc 60c2 e7bb 0d83 04bd
000000e0: f1d9 9b3d 2b66 b9bd e699 093d 3648 f0be
000000f0: 86b0 573e 68dd 413d ea88 4cbe 15f3 273e
00000100: df59 2b3e cb07 5d3e 458b a1be baab 2f3e
00000110: 184c 26be ca2d c93d c5ed c43d 865f 233e
00000120: 562b b43e cdd8 253c 01cd 953d 667e a63b
00000130: ccb7 50be 041c ad3c c756 4a3e 9706 713e
00000140: f367 ab3e 9094 ac3c 80b8 0b3e 4142 9c3d
00000150: 2d4d 9abe 1943 82be 3ec3 083e 93ff ba3e
00000160: e032 34bd 3a93 a5bd 6d85 083e 0f23 f3bc
00000170: a56e acbd 3f85 18be 60bc 1bbe deaf 393e
00000180: 9162 f7be 7d32 283e 9ee6 ba3c e44e 973e
00000190: 0e3a a8bd 1979 f33d ad57 993e 7ba6 f9bd
000001a0: 3eb1 2e3e b563 7f3e 3920 46be ae73 e6bd
000001b0: 1edc 03bc 86f1 6dbe a4ad c03d 8985 a1bd
000001c0: e9c3 70be 7f86 74be ec23 153f c62d 0d3d
000001d0: 4480 4dbe a88c 0a3e b99f 3c3e f40e 933e
000001e0: 52f3 d9be 4ab1 55bd 1cbd 34bc fe52 053d
000001f0: 3c60 16be 7c5a 01bf a5c0 433e f065 2b3d
00000200: a502 8a3e 02aa 8ebe 3457 2a3e 46a1 07be
00000210: cd52 963c 4648 3fbd 54b5 6e3e a04b f63d
00000220: 0fb6 f4bd eb89 90be df5d 8f3d 07c9 32be
00000230: d765 373e 740c db3e fb50 653e ee0c 243c
00000240: b558 973e b527 283e 6e0f d2be 7e8a 023e
00000250: 7043 60bd 5c46 55bd e1f3 bc3d 13ae 123e
00000260: d7d9 8b3e 12cf 94be 7551 733c 28b3 60be
00000270: a286 4cbe 6344 98bd 3aa7 48be 1c4c 833e
00000280: 9cab e03d 2d52 0abe 4629 81bc a47c cd3d
00000290: c23a 94be 88af 3c3e 5e69 63be ded0 e2bd
000002a0: 8d80 87be 3476 f0bd 1a1a 003e e62c e83d
000002b0: 7bde b53d 8e93 8dbd b654 bd3c 0baf c83e
000002c0: 562d 133e 84fb 8c3e d0f9 1f3e 6cf2 48be
000002d0: f9ad ee3d 176f 0a3d d357 c83e 512f 523d
000002e0: 9276 fc3e 0c77 863e 3b69 323e 641c 343e
000002f0: 41fb d73e 800b 243e 14b1 c33d d8e5 93be
00000300: d98a 81bd 65d1 8f3e 9850 01be b3d4 32bd
00000310: e963 913e a9e4 153d 98b7 58be c5d4 173d
00000320: f683 eebc 4a62 2a3e 12a4 03be 635b 3c3e
00000330: eb88 80be 35e6 19be 3459 6cbe 3b4f b53c
00000340: 9b29 c43e e58a 0abf df62 8fbc af06 16be
00000350: 2a41 e8be 64de 58be a9d8 70bd c6da 103e
00000360: 3a60 c4be c861 913e de03 2e3e fc0b 65be
00000370: 59ee dabe f9f7 0d3e b331 a73e a96c 203e
00000380: 7758 debd 64b9 c93d f66e 393c aefd fcbd
00000390: 9ec9 89be 79e3 a43e 2ae7 bc3d f317 f53e
000003a0: e8ae 94bd 25ee 09be 571e 733e 667a 25be
000003b0: 285d 49bd 55b0 f53d 160e 6a3e 1154 2d3d
000003c0: 2edb afbe c367 0c3e 46ac b53d b6ba 3b3d
000003d0: 4d52 a6be 57fc 9c3e f067 8bbc 4104 75be
000003e0: 7aba 523e 6ee7 473e 7443 f3bd 425c 953e
000003f0: 4f0d 293e fbda efbd 21c9 5ebd f7f5 8e3d
0.2545431 0.13282543 -0.21826503 0.040397387 0.14729181 -0.01348592 0.18954302 0.14023097
0.3196137 0.3601822 0.31821328 0.037201293 0.28747687 0.1718241 0.5515873 -0.24897853
-0.041892115 -0.2821015 -0.12783861 0.07666824 0.27242738 0.1404729 -0.014370413 -0.030390982
-0.09813064 -0.44482082 -0.4183797 -0.20690598 0.22580941 -0.035224717 -0.05552792 -0.06799232
-0.16150516 0.111641355 -0.18434055 0.1311944 0.18945011 0.14767087 0.03659454 -0.016397284
0.3244304 0.12831488 -0.25678325 -0.5019696 0.6093257 -0.058122616 -0.055399194 0.22087236
0.17672853 -0.25519556 -0.19729741 0.18948053 -0.28099713 -0.00999927 -0.007072732 -0.032351542
0.076099284 -0.0905269 0.033594035 -0.46930093 0.21063432 0.04733029 -0.19974104 0.16401322
0.16733502 0.21585004 -0.31551567 0.17155352 -0.16239965 0.09823187 0.096156634 0.15954408
0.35189313 0.01012249 0.07314492 0.005080986 -0.20382613 0.021131523 0.19759665 0.2353767
0.33477744 0.021066934 0.136446 0.076298244 -0.30137005 -0.25441816 0.13355729 0.36523113
-0.04399383 -0.08084722 0.13332148 -0.029679803 -0.08419541 -0.1489458 -0.15208578 0.18133494
-0.48317388 0.1642551 0.022815045 0.29552376 -0.08214198 0.11888332 0.29949704 -0.12189957
0.170598 0.24940379 -0.1934823 -0.11252533 -0.0080480855 -0.23236665 0.09408119 -0.07886798
-0.23512234 -0.23879431 0.5825794 0.03446748 -0.2006846 0.13530219 0.18420304 0.28722346
-0.4256845 -0.05217103 -0.011031415 0.03254985 -0.14685148 -0.50528693 0.19116457 0.041845262
0.26955143 -0.2786408 0.16634828 -0.13245115 0.01835003 -0.046699785 0.23311359 0.12026143
-0.119487874 -0.28230223 0.07000326 -0.17459498 0.17909943 0.42782938 0.22394173 0.010012848
0.29559866 0.16421397 -0.41027397 0.12748143 -0.054751813 -0.052069053 0.09226204 0.14324217
0.27314636 -0.29064232 0.014850964 -0.21943343 -0.19973233 -0.07434919 -0.19595042 0.25644004
0.10970232 -0.1350791 -0.015766751 0.10033539 -0.2895108 0.18426335 -0.22208163 -0.110749945
-0.26465264 -0.117412955 0.12509957 0.11336689 0.088803254 -0.069129094 0.023111682 0.39196047
0.14372763 0.2753564 0.1562264 -0.19623727 0.116542764 0.03379735 0.39129505 0.051314656
0.49309212 0.262627 0.17422955 0.17588955 0.4218388 0.16020012 0.09555259 -0.28886294
-0.06325311 0.28089443 -0.126284 -0.043659877 0.28396538 0.03659502 -0.21163785 0.037068147
-0.029115658 0.16639057 -0.12855557 0.18394236 -0.2510446 -0.15029223 -0.23080903 0.022132507
0.38312992 -0.54118186 -0.0175032 -0.14650987 -0.45362216 -0.21178585 -0.058800373 0.14145955
-0.38354665 0.28394914 0.16993663 -0.22367853 -0.4275997 0.13864125 0.32655105 0.1566645
-0.10856717 0.098498136 0.011317959 -0.12353073 -0.26911634 0.32204798 0.092237785 0.47869834
-0.07259923 -0.13469751 0.23742042 -0.16159973 -0.049161106 0.11996523 0.22856936 0.0423165
-0.34346908 0.13711457 0.08870749 0.04583236 -0.32484666 0.3066127 -0.017017335 -0.23927404
0.20578948 0.19521877 -0.118781 0.2917195 0.16508983 -0.11711689 -0.05439103 0.06980508

bias f4 [20]
00000000: 16ec 8f3d 9428 3dbd 452c 5b3d 0b75 f2bc
00000010: f283 12ba 023a 89bd 683a 64bb 4856 283d
00000020: 1fb2 98bc bfa7 da3c fcc3 d7bc 20ba 15bd
00000030: ab7b 36bd 4583 b3bc e55f 8e3d 891a b7bc
00000040: 98fa 873d de33 553c 02fe 28bd d043 db3c
0.07027452 -0.046181276 0.053509016 -0.029596826 -0.00055891194 -0.06700517 -0.0034824852 0.04109791
-0.018639622 0.026691316 -0.02633857 -0.036554456 -0.044551533 -0.02191318 0.06951884 -0.02235152
0.06639594 0.013012854 -0.041257866 0.026765734

weight f4 [20, 20]
00000000: 5d93 913e 8ce9 80be a0d3 a83d e81c 4e3e
00000010: cb24 34be 484d 19be e032 273e 50c3 ba3e
00000020: d244 1bbf 58a1 2c3e 84a7 1f3e 9e16 8d3e
00000030: 1ac2 123e 3e7a 413e 7a38 ab3e ec7a 2fbe
00000040: 0330 c83e f488 05be e80e 213e 5800 a2be
00000050: c521 8b3e 5eb5 653c e0c5 5e3d 0a89 493c
00000060: d5a5 3d3d 1b52 8c3e 568d 643e 1d80 84be
00000070: a7bd a9bd 62dc 3e3e 77fe 6bbe ce90 ae3e
00000080: 3912 4abd f02a 243c c3f8 84bd c02c ba3e
00000090: f9fe 0dbd e7ad d43e 90fc a73e ee29 b2bc
000000a0: 81d7 78be 8929 7f3b 3393 c1bc dd7d 86be
000000b0: 16f5 543e 39aa c03d 14e9 9d3e 6db3 083c
000000c0: 7d51 e53d 1ee0 483e 08a3 0ebe c76e 6ebe
000000d0: 08a9 f2bd ec73 cf3d 76fd 84bb 6dc3 b13e
000000e0: 56b8 213e 13a8 8a3c 2733 2bbe 79c2 6a3d
000000f0: 99ce c13e f762 dd3d 8257 72be 5498 a3bd
00000100: 32ac 86be 6ee8 a4be d832 f8be c9da f5be
00000110: 155c 49be 58cf 95be 7984 8e3d 0c79 49bd
00000120: 28f2 17be e914 b83d 7a5a 5ebd ae90 6d3e
00000130: badb 0fbe 99a8 28be 356c e23d 1f0a b13e
00000140: 0024 aa3e 976a 32bd 60bd 563d e20d 3abd
00000150: 5d6e 673e 2bc3 91be ce1f 1bbe fd23 26be
00000160: e0eb f63d 9d7b f33c bb6b d3be bff9 a3be
00000170: 0ce2 9abd 9408 1abf 7274 eb3e c560 463e
00000180: 4f71 81be 248d 69be 4555 cb3e 974a 453e
00000190: 9628 17be 2e48 3ebd 2c59 813c e840 45be
000001a0: 50cf 8cbe d11d 8bbd a599 dd3d 95aa d7be
000001b0: 41cc b83d 9c47 7cbd 8d19 32be 4f2b c1bd
000001c0: 41ef d23e 1b6f 203e 08b7 d33e f989 a0bc
000001d0: dc45 24bc 2354 1e3e 3f19 2e3e 58c8 05bf
000001e0: cbca 853e f557 4bbd d958 0d3d e427 6e3e
000001f0: b720 c03d 6038 04bd 33c4 49be b959 7b3e
00000200: c02a 35bd 534c ae3d d9e2 513e a708 063e
00000210: 9462 40be 9464 943e fe9f 5bbe c82b 9a3e
00000220: 9c8b 343e e8ce 15bf 38c2 61be fd7b ca3d
00000230: 391f b3bd d259 4d3e c8b7 9ebd c494 6d3e
00000240: 8283 aabc 07bf b1bd 6748 2cbe f718 933e
00000250: 9cc4 ac3e 72ae bd3d 2013 3f3e 23cb 1fbe
00000260: f773 f8bd 69a2 96bd 0472 cd3d 28f4 003e
00000270: e9bd 4abe 5572 aa3e 2f25 063d f4ed bc3c
00000280: 1ef0 e5bd bb81 91bd 24d7 89be 718b e13e
00000290: 3999 923e ee91 333e 619b 19bc c527 b33c
000002a0: 4eb4 443e ee12 8f3d 291a 8dbc 24b9 9c3e
000002b0: a85a 86be 80e5 b4be 7c47 723e dbb5 eabd
000002c0: e44f 70bd 6d50 45be d40b 973e 688c 8fbe
000002d0: 9590 013f 9175 14be 5d9f 65be 7eea d8bc
000002e0: ce36 86be 360a 883e 77e6 8abe 3014 bd3d
000002f0: 2b7c d0bb c37b 8cbc 6e82 253e 4a7f f93d
00000300: 60e8 b4bd 4bd9 9cbc 8056 22be 67b6 923e
00000310: 87e3 59bd 6da9 5b3d 5ddf 203e dde8 83be
00000320: 6c63 513e e5d1 c53c f5d2 fe3d add4 363a
00000330: 7a4b 703d c6a6 ad3d f587 d13d d9d7 d7bd
00000340: bc2c 0abe 9931 1d3e b9fd 21be 5744 073e
00000350: 6616 25bb b85d 613e 3756 b3be 108d 813e
00000360: 36fd a73d 09e2 acbe 8b47 bfbd bfa2 89be
00000370: 7a2f 233d 9f80 033e db0d eebd 7309 54be
00000380: 0372 3b3e 10ab 85be 0b28 593d 12bc a7bd
00000390: ef6d bebe 23c8 1d3e 9f3d 30be 1174 acbd
000003a0: 14c8 9a3e ca23 9f3e bfb3 8bbc 26c0 9c3e
000003b0: 4a45 003c 6280 2c3f c749 e5bd fe6a 173d
000003c0: fab2 a4be 97bf b83d 8665 89be ec14 133d
000003d0: 1584 833e 6708 a8be 4e34 98bc 12f1 a83e
000003e0: 60f4 223d 4509 7e3d c55a 303e a3d8 bdbd
000003f0: 76e1 90be 5d1c d7be 0663 723e 04c2 3abf
0.28432742 -0.25178182 0.08243489 0.20128214 -0.1759216 -0.14970887 0.16328001 0.36477137
-0.60651886 0.16858423 0.15591246 0.27556318 0.14331856 0.18894288 0.33441526 -0.17136735
0.3909913 -0.13040525 0.15728343 -0.31640887 0.27174202 0.014020292 0.054387927 0.012300739
0.046300728 0.27406392 0.2231954 -0.25878993 -0.082881264 0.18638757 -0.2304629 0.34094852
-0.049333785 0.010020003 -0.0649276 0.36362267 -0.03466699 0.41538927 0.32809877 -0.02174851
-0.24300958 0.003893467 -0.02362976 -0.262679 0.20796618 0.094074674 0.30841887 0.00834356
0.11197183 0.19616744 -0.13929379 -0.23284446 -0.118486464 0.10129532 -0.004058535 0.3471941
0.15792975 0.016925847 -0.16718732 0.05731437 0.37852934 0.10809892 -0.23666194 -0.07988039
-0.2630325 -0.3220858 -0.4847629 -0.48018482 -0.19664033 -0.29259753 0.06958861 -0.049187705
-0.14838469 0.08988363 -0.054285504 0.23199722 -0.14048663 -0.16470565 0.11055795 0.34578034
0.3323059 -0.043558683 0.052426696 -0.045423396 0.22600694 -0.28469214 -0.15148851 -0.16224666
0.12056708 0.02972203 -0.4129313 -0.3202648 -0.07562646 -0.6016934 0.45987278 0.19372852
-0.2528176 -0.22807747 0.39713493 0.19266735 -0.14761576 -0.046455555 0.01578959 -0.19263041
-0.27501917 -0.067927964 0.10820321 -0.4212233 0.09023333 -0.06159173 -0.1739256 -0.094320886
0.4119816 0.15667383 0.4135058 -0.01959704 -0.010026421 0.15461783 0.17001818 -0.52258825
0.2613128 -0.04964443 0.03450856 0.23257405 0.0938124 -0.032280326 -0.1970375 0.24545945
-0.044230223 0.085106514 0.20496692 0.13089238 -0.18787605 0.28982985 -0.21447751 0.30111527
0.17631382 -0.5851884 -0.22046745 0.0988693 -0.087461896 0.20053795 -0.07749897 0.23201281
-0.020814661 -0.08679014 -0.16824494 0.28729984 0.3374375 0.092617884 0.1865964 -0.15604834
-0.121314935 -0.07355196 0.100315124 0.12593138 -0.19799007 0.33290353 0.032750305 0.023062684
-0.11227439 -0.07104822 -0.26921952 0.44051698 0.28632525 0.17536137 -0.009375424 0.02186955
0.19209406 0.069860324 -0.017224388 0.3061 -0.2624104 -0.35331345 0.23660082 -0.114604674
-0.05866994 -0.19268961 0.29501212 -0.2803681 0.5061124 -0.14497973 -0.22424074 -0.026479002
-0.26213688 0.2657029 -0.27128956 0.09232366 -0.006362458 -0.017148858 0.16163036 0.121824816
-0.088333845 -0.019146582 -0.1585331 0.28654787 -0.053195503 0.053628374 0.15710206 -0.25763598
0.20448083 0.024147937 0.124425806 0.000697444 0.05866573 0.08479075 0.1023101 -0.105392165
-0.13493627 0.15350951 -0.15819444 0.13209663 -0.0025190352 0.22008407 -0.35026714 0.25302935
0.08202593 -0.337662 -0.093398176 -0.26881978 0.0398402 0.12842034 -0.116237365 -0.2070673
0.18305211 -0.26107073 0.053016704 -0.081901684 -0.37193248 0.15408377 -0.17211007 -0.084205754
0.30230772 0.31081992 -0.017053483 0.30615348 0.00782902 0.67383397 -0.111957125 0.03696727
-0.32167798 0.09020918 -0.2683527 0.035908625 0.25686708 -0.3281891 -0.018579628 0.32996422
0.039783835 0.06202056 0.17222126 -0.09269836 -0.28297013 -0.42013827 0.23670587 -0.72952294

bias f4 [20]
00000000: f132 dc3b 0240 34bb a1d1 afba 2669 613d
00000010: c59d 2f3b 07cf caba 27af 0b3d 4492 f03c
00000020: f351 dabc a99b 8ebb 83fe 2b3c b01d b5bb
00000030: ed90 31bb 11c5 48bc 8baf b5bd 19db 7abd
00000040: a380 6dbc 10ae 933d bda3 11bc 0f0f d7bd
0.00671994 -0.0027503972 -0.0013413915 0.055031918 0.0026796919 -0.0015473076 0.034102585 0.02936662
-0.026650405 -0.004352052 0.010497692 -0.0055272207 -0.002709444 -0.012254016 -0.08871373 -0.061244104
-0.014496001 0.07210934 -0.008889136 -0.10500919

weight f4 [20, 20]
00000000: 26e9 7ebb 425d 3f3e 3cb4 a03e 5e99 2bbe
00000010: 2d99 0f3f 33ae ffbc 688d a53e 3a94 83be
00000020: fbfc 713e 893f a33d fb44 463e 25aa 383d
00000030: b8a1 dd3d 60ce 843e 2b7b 28be bc3f 4c3e
00000040: 8a86 413e 10a3 cb3e e38b 9a3e b7b3 87bd
00000050: 161e 6dbd b4bd f63c cf3d 1dbe 6901 21bd
00000060: 5f21 1f3e 2e1f a93e db7b 903e 7d17 0fbd
00000070: 5faa 07be fce5 c53c 9e63 93be 3511 4cbe
00000080: 01bc 84be 6500 ec3e 5755 a6be 1fa3 8ebe
00000090: 5869 ab3e 19cc a83e 7ba1 71be 004e 543e
000000a0: dbd9 d3be e2db a9be 5a56 373e a44f eabd
000000b0: 5610 d9be c094 5d3e b792 05bf 8c9f 3f3e
000000c0: bd2b 553e 5c4b 053f 2094 28be 8648 e7bd
000000d0: 5f9f 25bd bd82 abbb 43e7 723d b871 56be
000000e0: 5295 8ebe 54cb dd3e d6f9 373c 7574 ae3e
000000f0: 7344 08be 4ef6 97bd 339b f9bd aec5 0b3e
00000100: eddc 71bd 8afb 22be 0e7b 223e 3e7e 343e
00000110: 180c 733d 3e83 1b3e 1a84 843e 46c6 08bf
00000120: 1151 9e3d d77b 8c3e 528f 01bb 37b2 d63c
00000130: eef9 3fbe 5b97 1c3f a6b3 543d af33 f3be
00000140: c55f 953e a723 8dbe 7446 77be 7a44 9cbd
00000150: 5c52 d53d 49da f73d ccc3 f5bd 3074 a03c
00000160: 6e72 d53c 697b 9abe 2e78 f23d 241a 293d
00000170: ff89 973d ce06 643e 15bd 4abe 6d3e 10be
00000180: 681d 19be 9172 81be 2a2c f5be 7494 e03c
00000190: ce91 c73d 34b6 2fbd 651f 9d3c 2445 513e
000001a0: 91ef 8e3e 3a7b b23c 679b 55be eeac 55bc
000001b0: b34a 803e ed86 c33d 505d 5dbe ce52 b4be
000001c0: d237 dbbd 5fa5 5a3e 5e76 90be 522d 34bd
000001d0: 7365 8bbe aaea 87bd 6bbd af3e 82bf dc3d
000001e0: e1ba 31be 20b5 b23e ed1e 8a3d 34ff 3cbe
000001f0: fd2f dcbe d4b0 9e3e fb9e 233c 0808 a6bd
00000200: e886 62be a5af 613e b33f 4bbe eb2f d2be
00000210: be4b 833e 4cfe 96be c919 673e 7b8c 1d3d
00000220: 070c 1d3f f047 fc3d 60a9 39bd c488 5dbe
00000230: 804d a7be a2c8 d5bd 7882 ccbe bb63 473e
00000240: a17f 24bf 43fe cd3e 94c1 913e 76f4 613e
00000250: 6528 6bbd 62d0 10be c496 ce3e 18ce 80be
00000260: 3f32 b03e f6de b4be ddf4 5fbe 3a1c da3d
00000270: b511 05bd 822c 60be 3771 d0be 8be1 09be
00000280: 8d5c 8a3e 2f21 a2bd bcb2 5bbe e4d9 9fbe
00000290: 79be 223e c002 e93d db72 47be 2ced 0fbe
000002a0: c5fd 1b3d c452 0abe d47e 8b3d 14f8 02be
000002b0: b36d 873e 3811 343e 83ba 3e3e daf5 bcbd
000002c0: ea5b 1ebe 499f 39be 8ffa 293e 1714 18bd
000002d0: 0bbf 983e 5ca7 ed3d 8067 403d c565 4fbe
000002e0: d9ed b6bd 909a 92bd eaa1 55be 0cee 263e
000002f0: 4321 86bd 895e a63e a4d1 63be be4c babd
00000300: dbfc c3be db1c 243e 6ff4 d03e bafd 8bbe
00000310: 69c9 1bbe 3841 f3be d9fd cbbd 29f7 5e3d
00000320: 9564 2f3d 6ec1 773e 4a64 113e 17f5 863e
00000330: 41e1 b8bd d2c4 1a3e cbf5 9dbb bfb7 173c
00000340: 9489 bf3e af4e 1a3d dc08 8fbe c3f4 06be
00000350: 66cf 813e 1ac3 933e 8a50 203e da88 acbe
00000360: c637 58be cd4d f5be 9b10 83bd 35be 18bd
00000370: 7e3c d0bb cd38 103e 97ea ce3c 182a 49be
00000380: 2e11 44be 5146 1b3e 8cbb 1c3d 7ef7 0ebe
00000390: bc1f 85be e1b9 6dbe 580f 1cbe a0fe cabd
000003a0: 53ce 0dbe 6e8d 41be cf7b 19bd bbce 1d3d
000003b0: 5b44 343e de6e 943e a61c 93be 29f4 733e
000003c0: 0b13 503e 274f a2bc 7d9b d03d b85a dd3c
000003d0: 5bdd 49be 2dda dcbe 3ceb 1e3e ebb5 a3be
000003e0: e8d4 4d3e f743 3bbd 42c6 11bd 8401 0ebe
000003f0: dca3 a7bd f288 a8bd 36ab 273e 3b57 ce3e
-0.0038896292 0.18687919 0.31387508 -0.16757724 0.560931 -0.031210994 0.32334447 -0.25699025
0.2363166 0.07971103 0.19362251 0.045084137 0.10821861 0.25938702 -0.16453235 0.19946188
0.18898979 0.39772844 0.3018485 -0.06626075 -0.05789002 0.030119754 -0.1535561 -0.039307985
0.15540074 0.330316 0.28219494 -0.03493451 -0.13248585 0.024157517 -0.2878694 -0.19928439
-0.25924686 0.4609405 -0.32486984 -0.27858827 0.33478808 0.32968214 -0.23596756 0.2073288
-0.41377148 -0.3317557 0.17904034 -0.114409715 -0.42395276 0.21638775 -0.52176994 0.18713206
0.20817466 0.52068114 -0.16462755 -0.112931296 -0.04043519 -0.005234091 0.05930258 -0.20941818
-0.27848297 0.4331919 0.011228999 0.34073225 -0.13307361 -0.07420026 -0.12187805 0.13649628
-0.059048582 -0.15916267 0.15867254 0.17626283 0.059337705 0.15186784 0.25882035 -0.5342754
0.07730306 0.27438232 -0.0019769263 0.026208026 -0.18747684 0.6116845 0.05192914 -0.4750037
0.2917463 -0.27566263 -0.2414797 -0.07630248 0.104160994 0.121021815 -0.12000236 0.019586653
0.02605554 -0.3017228 0.11839329 0.041284695 0.073993675 0.22268221 -0.19798692 -0.14086314
-0.14952624 -0.2528272 -0.47885257 0.027414538 0.09744607 -0.04289837 0.01918001 0.20436531
0.2791715 0.021787275 -0.20860063 -0.013041718 0.2505699 0.095472194 -0.21617627 -0.35219425
-0.10704006 0.21352147 -0.28215307 -0.043988533 -0.27225837 -0.066365555 0.34324202 0.10778715
-0.17356445 0.34903812 0.0674418 -0.18456727 -0.43005362 0.30994284 0.009986634 -0.081070006
-0.22121775 0.2203966 -0.19848518 -0.41052184 0.25643724 -0.29490888 0.2256843 0.03846405
0.6134648 0.123184085 -0.045327544 -0.21634203 -0.32676315 -0.10438658 -0.3994329 0.19471638
-0.64257246 0.4023305 0.28468 0.2206591 -0.05741157 -0.14141992 0.403494 -0.25157237
0.34413335 -0.35326356 -0.21870752 0.10649915 -0.03248759 -0.21891978 -0.40711376 -0.13464944
0.27023736 -0.079164855 -0.214549 -0.31220925 0.15892972 0.11377478 -0.19477408 -0.14055318
0.03808381 -0.13508135 0.068113 -0.12789947 0.2645088 0.17584693 0.18625836 -0.0922658
-0.1546475 -0.18127169 0.16599487 -0.037128534 0.29833254 0.11604187 0.046973705 -0.20253666
-0.089320846 -0.07158387 -0.20862547 0.16301745 -0.06549313 0.32494 -0.2224794 -0.09096669
-0.3827885 0.16026632 0.40811488 -0.27342016 -0.1521355 -0.47510695 -0.09960527 0.05443493
0.042820532 0.24194881 0.14198413 0.26358864 -0.09027339 0.15114143 -0.0048205606 0.009260117
0.3740965 0.037672695 -0.27936447 -0.13179307 0.25353545 0.28859788 0.15655723 -0.3369816
-0.21115026 -0.4791092 -0.063996516 -0.03729077 -0.0063548675 0.14084168 0.025258346 -0.19644964
-0.19147179 0.15163542 0.038264796 -0.13961598 -0.26000774 -0.23215438 -0.15240228 -0.09911847
-0.13848238 -0.18901607 -0.03747159 0.03852723 0.176042 0.28990835 -0.28732795 0.23823608
0.20319764 -0.019813133 0.10185907 0.027020797 -0.19713347 -0.43135205 0.15519422 -0.3197473
0.20100749 -0.045719113 -0.035589464 -0.13867766 -0.081855506 -0.08229245 0.16373906 0.40300927

bias f4 [20]
00000000: ca6b 4aba 9ab9 973c 0877 31bc 6163 c53c
00000010: dc79 6f3c 608b 403c 5a04 85bb 052b 73bb
00000020: 6649 12bc f467 2bbd 93c3 5c3b 329e a63c
00000030: 42b9 1c3c a2ef 11bc 3454 4d3d 94c1 743d
00000040: da7e 013d 7950 2abd b4f2 eabc 8b01 92bc
-0.00077217503 0.018521119 -0.010831602 0.02409524 0.014616456 0.01175198 -0.0040593566 -0.00371045
-0.008928632 -0.041847184 0.0033685907 0.020339105 0.009565653 -0.008907231 0.05012913 0.059754923
0.031615116 -0.04158065 -0.028680183 -0.017823001

weight f4 [20, 20]
00000000: b67e 523e 31a6 f73d 9365 6b3d 0857 aabd
00000010: c0e7 503e deeb 113d acac 04bd 3112 c6bd
00000020: 2dea ce3e 971a 8c3d a6b1 82bd e0ad 383e
00000030: 1913 393e 5dda 94be c625 1e3e 07dd 59be
00000040: 2a17 9e3e 9606 0abe f0d2 3abe 87bb f1bd
00000050: 09dc 333c 55b1 4dbe 22ea 433e 484c eabd
00000060: de26 fdbd d860 9cbd fdce 0dbc c090 81be
00000070: 8cad ad3e 0d4e 3abe 01e4 04bc 9f1a 40be
00000080: 7c42 28be e4e5 363d 5b96 a8be 5637 c1be
00000090: 11f6 d2bd 41fd c13e 28f0 033e 622c 6fbc
000000a0: 46f7 a43e d9c0 063e cfa3 8cbe 2e2d b63d
000000b0: 43b7 e6be 4bce 3cbe 66f6 46bd aed0 5b3d
000000c0: 6809 a9bd 2b9c 4f3d a21f aebc 6df8 c1bd
000000d0: 2b22 ba3d e2ea e93e 0263 0bbc fa24 153d
000000e0: b054 853d 36b8 95be f340 91be 5f58 c8bc
000000f0: 89a7 99bd 80a4 a33e bb11 2f3e fadf 603d
00000100: 143c 113e c638 75be acc7 d0bc 1ad7 c63d
00000110: 5146 9dbd 942a 52be d078 1dbe a114 7ebd
00000120: 5fec b13e 2699 3c3e 60c1 0f3e 3414 7d3e
00000130: ea16 c6bd 64c1 883e b959 9aba d2eb 863e
00000140: 9faa 99be 5ba3 44bc 47b4 d53e 6817 e03d
00000150: f7d5 483c 953d d7bd 92b9 c339 a60b 50be
00000160: 8bdd da3d 5473 03be 9ed8 59be aa3e 093d
00000170: 2e79 77be 4543 1bbe 9c34 b3be 1d7c 123e
00000180: 7b0f f5bd d178 0b3e 4267 bbbc b150 00be
00000190: bceb c6be 9763 e6bb 9cd3 df3d fd57 a0bd
000001a0: c192 923e d88b d33d ed85 d9be c256 25bd
000001b0: 0568 d33d 68c0 8d3c be32 2ebe dcc3 e4be
000001c0: ff9a 3bbe 3203 663e fcae 4dbc c715 163f
000001d0: be2c e9bd 77e9 6ebd 3327 77be 2543 b0be
000001e0: c8fe 8b3e aab4 0cbd b6cb 883b ca9c 63bb
000001f0: f531 bfbe 7d57 163e 1e6b edbd 13b7 333e
00000200: 7af4 8a3d 8d7d 0e3e 8b20 96be b34e 9bbc
00000210: caf5 323d fc16 133e 002b 3c3e 8a3e a6bc
00000220: adb7 ed3d 8358 443e 3f0a f8bc c855 143e
00000230: a635 6dbe 719d 2b3c bf9d 543e 4950 0cbd
00000240: 5ac5 973d d126 56be a18c 013e 06d9 acbc
00000250: 81b8 5dbd b9c4 f43d 39a7 aebd a92b 91bd
00000260: 1617 803e 9a51 f4bd f255 29be 6bc7 31be
00000270: ca43 84be ed5e e43c b06c 7b3d 0090 0f3e
00000280: 5e6e 86be bae7 4abe 0514 8abc 7214 513e
00000290: 0aba 75bd 4468 9bbe f6f0 1dbd 2029 afbe
000002a0: f784 e6bd 8abc 6b3e cd4e 373e 7ab8 57be
000002b0: 32f4 f7bd c4a7 7e3e 7e9f fa3c d398 883c
000002c0: 8f73 15be 3b10 69be 00a1 85bc 623b 923d
000002d0: 3c79 58bd 7813 353e c665 863e e076 38be
000002e0: 5c81 2abe 4809 02be ac71 fdbd a091 8a3e
000002f0: e958 b9bd 19d9 f3bd 27ad 343c 5276 adbc
00000300: 1667 c3be a9db b03e cd6f 1dbe 6298 f2bd
00000310: e25b 93bd 75d1 8c3e 2e9f 033d 518e e93d
00000320: 6613 c2bd d075 55be 66ff b53e 3bc1 a83e
00000330: e030 c0bd d083 ac3e 980b 00be 1372 5cbe
00000340: c2a5 393e a08d c1be 940f 903e 3c9f a63c
00000350: 8d66 b9be 0287 d4bd 51c8 bebe 8fff f63d
00000360: b5cd 473e b009 8bbd 25fa 8c3e d58c 88be
00000370: a664 ddbe 823e b5bc 5908 60bc 70c6 403e
00000380: 8549 b2be 2a94 6a3d 91aa 1ebe 5f01 fe3e
00000390: bba3 1fbe b88d 4abe 43c2 51bb 4207 fe3d
000003a0: e0aa 753e 3798 b43d 9362 2a3d c2d4 92bd
000003b0: f08d bc3d 3de7 08be deee bcbd 5a82 36bd
000003c0: 279e 7bbe c81b 6dbd a379 afbc c5fa e4bd
000003d0: aad7 74be adad 9a3e 22b8 10be 5d20 32be
000003e0: 8e5c 153d 3704 40bd b1f5 933d d929 00bd
000003f0: 2d22 70be 0f09 843e eda3 c0be 4be1 803d
0.20556149 0.12092245 0.057469916 -0.08317381 0.20400906 0.03562533 -0.032391235 -0.096714385
0.40413037 0.06841009 -0.0638154 0.18035078 0.18073691 -0.29072848 0.15444097 -0.21275721
0.30877048 -0.13479075 -0.18244529 -0.11803346 0.010977753 -0.20087178 0.19132283 -0.11440331
-0.12360929 -0.07635659 -0.008655307 -0.25305748 0.33921468 -0.18193837 -0.008111001 -0.18760155
-0.16431612 0.044652835 -0.32927212 -0.3773753 -0.1030084 0.3788853 0.12884581 -0.014597984
0.32219905 0.13159503 -0.27468726 0.08895336 -0.45061693 -0.1843807 -0.048574828 0.05366581
-0.08253747 0.050686043 -0.021255318 -0.094712116 0.09088548 0.45687014 -0.008507492 0.036412217
0.065102935 -0.29242104 -0.28369865 -0.024456201 -0.07502658 0.3196144 0.17096607 0.0549011
0.14183074 -0.23947439 -0.025485836 0.09708996 -0.076794274 -0.20524055 -0.15378118 -0.062031392
0.3475065 0.18417796 0.1403861 0.24714738 -0.09672339 0.26710045 -0.0011776007 0.26351792
-0.30012986 -0.012001838 0.41739103 0.109419644 0.012258044 -0.10509793 0.0003733156 -0.20316944
0.10686787 -0.12836963 -0.21274039 0.033507027 -0.2416732 -0.1516238 -0.35001075 0.14305158
-0.11965843 0.13620307 -0.022876386 -0.12530781 -0.38851726 -0.007030915 0.10929033 -0.078292824
0.2862759 0.103294075 -0.4248499 -0.04036594 0.103225745 0.01730366 -0.17011544 -0.4468068
-0.18320845 0.22462156 -0.012553927 0.5862698 -0.11385487 -0.05832812 -0.24136047 -0.34426227
0.2734282 -0.034351982 0.004174675 -0.0034730905 -0.37342802 0.14681812 -0.115926966 0.17550306
0.067849115 0.13915081 -0.29321703 -0.018958425 0.043691434 0.14364237 0.18375778 -0.020293493
0.11607299 0.1917439 -0.030278323 0.14485848 -0.23164997 0.010474549 0.207633 -0.034256253
0.07410689 -0.20913245 0.12651302 -0.021099579 -0.054131035 0.11951584 -0.08527989 -0.07088406
0.25017613 -0.11929627 -0.16536692 -0.17361228 -0.2583297 0.027877295 0.06138295 0.14019775
-0.26256078 -0.19814959 -0.01685525 0.20417956 -0.059991874 -0.30352986 -0.038559876 -0.34211063
-0.1125583 0.2302114 0.17901154 -0.21066466 -0.121071234 0.24868685 0.03059363 0.016674435
-0.14594863 -0.22760098 -0.016312122 0.071402326 -0.052849993 0.17683208 0.26249522 -0.18014097
-0.16650909 -0.12698853 -0.12375197 0.27064228 -0.090501614 -0.119066425 0.011027611 -0.021174584
-0.38164586 0.34542587 -0.1537468 -0.11845471 -0.0719526 0.27503553 0.032134227 0.11404098
-0.09476356 -0.20845723 0.35546416 0.32959923 -0.09384322 0.33694315 -0.12504423 -0.21527891
0.18129638 -0.37803364 0.28136885 0.0203396 -0.36211053 -0.10377313 -0.37262204 0.12060463
0.19512065 -0.06788957 0.27534595 -0.26669946 -0.4324085 -0.022124533 -0.013673865 0.18825698
-0.34821716 0.057270207 -0.15494753 0.4961042 -0.15589802 -0.19780624 -0.0032006658 0.12403728
0.23990965 0.08818095 0.041597914 -0.071694866 0.0920676 -0.1336946 -0.09225248 -0.044557907
-0.24572049 -0.057887822 -0.021420306 -0.11180643 -0.23910394 0.3021063 -0.14132741 -0.17395158
0.03646522 -0.04687902 0.07224596 -0.03128991 -0.23450537 0.2578816 -0.37625065 0.06292971

bias f4 [20]
00000000: 0956 3e3c b39b 03bd 9408 82bc f9ce df3c
00000010: bd2e 4fbd ecf0 f43c 406a 00bd 309d 96bd
00000020: 6b19 5a3d 6e74 28bd 2793 883d 1254 e83c
00000030: 0059 28bd 8146 26b9 906c 09bd d543 e0ba
00000040: 3410 853c cef8 8e3c 5c7f ee3c d9a2 83bd
0.011617192 -0.03213091 -0.015873231 0.027320372 -0.050581682 0.029900037 -0.031351328 -0.073542
0.053246897 -0.04112666 0.06668692 0.0283604 -0.041100502 -0.00015857258 -0.0335508 -0.0017110059
0.016243078 0.017452624 0.029113464 -0.06427545

weight f4 [20, 20]
00000000: 931d 8f3e 359d 4e3d 0ff7 a9bd 189a 4f3e
00000010: a81c 9dbd c85b 73bc 621c 8d3d 3131 683d
00000020: cf46 81bd dffd b63d b77a db3d 267c a43d
00000030: c814 683e fc48 b53e 8ac2 a0bd 8b61 9d3d
00000040: 70b0 c93d 7577 813e 9527 493d 893c f4be
00000050: 2824 253e 8f80 263e a5fb 88be fa34 16be
00000060: c2e3 a53c 7807 a53d 1218 00be 6355 6d3e
00000070: c448 163e 3457 b73d 9961 23be f385 53be
00000080: d974 5b3e 4d83 133e a98c a7bd dc58 81be
00000090: d5b9 813e b331 44be ee91 5abe f390 e23d
000000a0: e40e cfbe 4cc5 ec3b 529a b3bd 499c 6fbe
000000b0: 6fd5 9fbe bb96 e3bc ebce bf3d cd77 cbbe
000000c0: 9df4 08be 47ef 8b3d f8a0 d6bd 59bd 9abe
000000d0: f4ad 27be aa1a 2ebe 51c7 c03e b19a 8c3e
000000e0: 2cbf db3d abf4 0dbe 81b3 293e 96c1 873e
000000f0: 4af4 9cbe 34ed b33d ef77 5fbe 8a73 58be
00000100: a24a a4bd 55b1 023c 5668 45be 75b2 4ebe
00000110: b853 1fbe 6f30 983e 8c1c ec3d 601e 1f3e
00000120: e513 de3c 57f7 0f3e 37d7 9b3e d346 693e
00000130: bac3 b4be 1369 823d 64f8 953c 5213 0abe
00000140: 1d1a 10be 4ef0 71be bbd0 cdbd 8640 23be
00000150: 6454 e9be f261 e5bd f174 81be 4eb3 92be
00000160: 6e7a cf3d 742f 9fbe db9c b53e 2fef afbc
00000170: 4597 82be 5164 b6bd 7182 0bbd ecfa 1fbe
00000180: 29f9 18bd be86 bdbc 6752 dcba 0619 2fbe
00000190: c353 cbbd d6d3 d0bc 66b2 04bf a590 2d3e
000001a0: cd41 0fbf c772 82be 3114 d0bb aa0b 67be
000001b0: e236 943e d4e4 00be fc28 81bd dfa4 953e
000001c0: 9df6 86be 2115 3abe f22f e0bc f547 6b3e
000001d0: 441a 9b3e e84d ddba 9a9e 19be 40ef dd3e
000001e0: f1e9 0dbe a987 17bd 6940 dabd f6ca 263e
000001f0: 5b7d 783e 5d85 40bd fc20 083e 1488 5abe
00000200: 873e 573e 2829 c5bc 4562 323e 31f2 86bd
00000210: 34a8 28be 2f0b 74bd 3d57 943e 9e14 09bf
00000220: 43ef 87bd 7128 65be 7500 d43a 833e 85be
00000230: 1fad 273e 96ad 0cbd 1481 2cbe 73a0 a33d
00000240: 0d44 773e 76cc 8fbd b166 a9bd 9408 1dbe
00000250: ab7d fc3d 90d2 cdbc adaf 133e c595 0cbe
00000260: 0b76 f23d 181b afbd 2b71 8e3d cffb 9dbd
00000270: 02f1 1fbe 188b 4e3e 8f64 9abe d337 1c3e
00000280: f0c3 28be b765 90be 44cf 3e3d 9135 473e
00000290: 2c83 683e 486e 3c3e 8b4d 6c3c 2588 bc3e
000002a0: f4c9 153f 38ca d63d 0845 20be a39e 0ebe
000002b0: 33cc 8b3d 6099 82bd e590 38bd 7c8f 3c3e
000002c0: b277 643e de58 c7be 3f06 103e 6d59 ddbd
000002d0: ec95 56be 458b a7be 0ba9 81b9 4593 903e
000002e0: 1d7c 963d e2cc e13d 496e adbc 2b0f 71be
000002f0: 0ea4 093d d3be f3bd 0dd1 c63d 0630 eabd
00000300: d9cf 77be 8909 ffbd 7f18 1bbe 5b86 edbe
00000310: 7d9b d03c 78d8 c0be f988 17be cad2 2f3e
00000320: d4e2 a43e c30c 683e aafe 8e3e 32d7 453c
00000330: 8153 acbd 5b2f 37bd 13da 893e d6eb 98bd
00000340: 6c85 e5bd 7c43 873e 2690 493b 850f 9fbe
00000350: dbb1 97be 9b54 783d 921c cbbd d2a3 903e
00000360: bfbf 3abd 3d29 04be 15e5 393c 5422 57be
00000370: 26e5 1c3e 9313 5d3e 5cc1 b53e 0fb0 6d3d
00000380: 4c17 78be 973a a53e a4ad 8a3c 1063 9abe
00000390: 5c23 623e 331c 6dbe d5b7 ad3e 3cf8 4d3e
000003a0: 6752 853e 9ff7 79be e03f adbe 8353 873e
000003b0: 439a 623e 1042 94be 350d 083f be03 84bd
000003c0: f60c 283e 3fbf 8cbd e5b8 b23e 499f 3ebd
000003d0: 429b 55be 0dc5 c23d 76b4 6fbe 3aff abbe
000003e0: a89c db3d c37d ae3e ca2c 12be 3991 37be
000003f0: 9625 543d c292 2b3e 47a0 5f3e de9c 283e
0.2795225 0.050442893 -0.08299076 0.20273626 -0.07671481 -0.014853425 0.06890179 0.056687538
-0.06312334 0.08935141 0.107167654 0.08031492 0.22664177 0.35407245 -0.078496054 0.076846205
0.09848106 0.2528645 0.049110014 -0.47702435 0.16127074 0.16259979 -0.2675449 -0.14668646
0.020250205 0.08058065 -0.12509182 0.23177104 0.14676195 0.089521796 -0.159552 -0.20656566
0.21431293 0.14405556 -0.08181126 -0.25263107 0.2533709 -0.19159584 -0.2134473 0.11062803
-0.40441048 0.007225668 -0.08769669 -0.23399462 -0.31217524 -0.027781835 0.09365638 -0.39739838
-0.13374563 0.06832748 -0.10479921 -0.30222586 -0.16374952 -0.17002359 0.37652066 0.2746177
0.107298225 -0.13862865 0.16572382 0.26514882 -0.30655128 0.08785477 -0.21823095 -0.21137825
-0.080220476 0.00797685 -0.19278082 -0.20185263 -0.1555928 0.29724452 0.115288824 0.15538931
0.027109096 0.14059196 0.30437633 0.22780924 -0.35305578 0.063676976 0.018306918 -0.13483933
-0.14072461 -0.23626825 -0.10049578 -0.15942582 -0.45572197 -0.11200322 -0.25284532 -0.28652424
0.101307735 -0.3109089 0.35471234 -0.021476356 -0.25506034 -0.089058526 -0.034059945 -0.15623063
-0.037346993 -0.02313554 -0.0016809226 -0.1709939 -0.09928086 -0.025491636 -0.51834714 0.16949709
-0.5595978 -0.25478193 -0.0063500633 -0.22563043 0.28948122 -0.12587291 -0.06306645 0.2922735
-0.26360026 -0.18172123 -0.027366612 0.22976668 0.30293477 -0.001688418 -0.15001908 0.43346596
-0.13858773 -0.03699461 -0.106568165 0.16288361 0.2426657 -0.047002185 0.13293833 -0.21340972
0.21019946 -0.024067476 0.174203 -0.06589163 -0.16470414 -0.059580978 0.28972808 -0.53547084
-0.066374324 -0.22378708 0.0016174453 -0.26024255 0.16374634 -0.034345232 -0.16846114 0.07989588
0.24147053 -0.0702142 -0.0827154 -0.15335304 0.12328657 -0.025124818 0.14422484 -0.13729008
0.11838921 -0.085500896 0.06955179 -0.07714044 -0.15619281 0.20170248 -0.30154845 0.1525567
-0.16480994 -0.28202602 0.046584383 0.19454028 0.22706288 0.18401444 0.014422785 0.3682262
0.5851128 0.10487789 -0.15651333 -0.13927703 0.06826057 -0.0637691 -0.045060057 0.1841411
0.22311285 -0.38934988 0.14064883 -0.10808072 -0.20955628 -0.32723442 -0.00024730744 0.28237358
0.073478915 0.110254064 -0.021170752 -0.23540942 0.03360372 -0.11901631 0.09707842 -0.11434941
-0.24200381 -0.124529906 -0.15146063 -0.46391568 0.025464768 -0.37665153 -0.14798345 0.17170253
0.32204306 0.22661118 0.27928668 0.012075232 -0.084143646 -0.044722896 0.2692419 -0.07466857
-0.11207089 0.26418674 0.0030756085 -0.31066528 -0.2962788 0.06062756 -0.09917559 0.28249985
-0.04559302 -0.12906356 0.011346121 -0.21009189 0.15321788 0.21589498 0.35499084 0.05802923
-0.24227637 0.32271263 0.016928501 -0.30153704 0.22083801 -0.23155288 0.33929315 0.20114225
0.2603943 -0.24410866 -0.33837795 0.26430902 0.22129159 -0.28956652 0.5314515 -0.06446026
0.16411194 -0.06872415 0.34906688 -0.046538625 -0.20860007 0.09510241 -0.23408684 -0.3359316
0.10723239 0.34080324 -0.14274898 -0.17926492 0.051793657 0.16755202 0.21838485 0.1646609

bias f4 [20]
00000000: 9145 ab3c ef9a 733c 52fb 4c3c 7b41 263c
00000010: 64e8 563d cad2 863c 7e3e 533d 6ae9 8a3c
00000020: 8edb 453d 0b54 023d c30c 2a3a afb7 f23c
00000030: 2b19 cfbc d32c 2bbc ab32 4e3d 4792 85bd
00000040: 0a14 a1bd 0629 bf3c c9dc 993c b530 113c
0.020907195 0.014868482 0.012511091 0.010147448 0.05246772 0.016457934 0.05157327 0.016957004
0.048305087 0.03181843 0.0006486887 0.029628603 -0.025280556 -0.010447699 0.05034129 -0.06522041
-0.0786515 0.023334991 0.018782036 0.00886171

weight f4 [20, 20]
00000000: c43e d3bd 4166 913d c0c9 9cbe 5669 b5bd
00000010: b763 54bd 3602 3fbd 1f55 803e d7d8 aabd
00000020: f257 ab3e 5f78 7a3e a630 883d be17 9abd
00000030: fa24 313c 8ceb 69bc 6951 30be 456b 8f3e
00000040: 6780 adbe aa15 b53e 8649 efbd 56e1 89bd
00000050: 9597 443e 34e9 003f 3f57 e33d 8de9 243e
00000060: 426b 8abe 07ac b53d 5b66 8dbe b6df 62be
00000070: 9e4b 803e a346 c83d 1b9c 433e 8ec6 4bbe
00000080: 3560 5bbe 7935 b7bd 1457 8bbd 3cc5 153e
00000090: adb0 b23e fd42 bb3d df8b 033e 8d96 0d3d
000000a0: 3059 b0be 8181 13be def7 ea3e 03f2 1e3e
000000b0: a453 e33c 7071 4d3d 002c 02be e07e 1c3e
000000c0: 6b4c d83d e8a6 b63d 1f25 913d a14c 1e3e
000000d0: bde9 b7be 1d2e d93d 10f0 9a3e c10d f63e
000000e0: 1c5c 793d ae4a 993d f673 65be 2f0f b03d
000000f0: 68ca 363e 53e0 a53d bd26 6a3e 92b5 c5be
00000100: 6dde 99bd c871 4abe 7abe b4be ad6e 76bd
00000110: 6e9d a4bc ede1 8b3e 55cd 27be 14c4 893e
00000120: d24e cfbc 89cc 353e c2ff 863d 739f 4e3d
00000130: 29e3 923e 9d24 31bd 76c9 10be ab0e d6be
00000140: 52f0 133e c677 693c 9594 4c3e e709 563e
00000150: ab03 4b3f 33d8 f5bc d562 a33e a242 3a3e
00000160: 73be 083e 2888 ee3d 4b11 95be c1b1 083e
00000170: 2d31 83be 88e1 803d 5ddf 113e 8946 fbbe
00000180: ba14 4cbe 2908 e03c c958 283e 6c65 8c3e
00000190: e005 0d3e 693e 34be 5a51 3ebe e1ff 45be
000001a0: 35fd c3be af14 453e 83fb 963e 88b5 1e3f
000001b0: 7289 7ebe 03a1 7bbe 7295 a03e afae 383e
000001c0: 2fce d4be 7658 843e 6483 f8bc c310 0d3e
000001d0: d1ab d2bd 9e8a c1bd 751d 29bd 3af0 933e
000001e0: 202b d6be 6b71 2b3e 27e2 13be fdbf 1fbe
000001f0: 89fb 9d3c dfdf 533e d8fc 15be 6a7c 07be
00000200: 8d26 2ebd 75b5 fcbe b372 f63d 47a1 37be
00000210: b8e3 8ebc 4c7b 86be 5dff 07be bb69 81be
00000220: a292 7abe b899 89bd cb7d 673e 6277 a6bd
00000230: 0652 cc3e d90d acbe d826 073d 4a91 423e
00000240: 5d19 80be 6ed9 bf3d edf8 303d 60c5 20be
00000250: 1b0e 26be 7512 06be 253e c9bc ddcd 3fbe
00000260: 5e2e cdbd ed36 593e 9d18 24bd 96dc 323e
00000270: efa4 d83d c078 db3d d7c6 2fbe 1247 25be
00000280: 4720 f1bd 08c0 a4bd 731d 15bd 9614 353d
00000290: 8d03 84bd 7787 4dbd fe86 653e 2903 40bd
000002a0: dd48 9c3d b8bb 4a3e ab7a a8bd ff01 dd3d
000002b0: 3f66 c5bc a3ab 483e 628d 7d3d 2f23 e2be
000002c0: a762 1bbe 729f de3c 221a e5bd 7f79 a5be
000002d0: 2919 803e 16c2 aa3e abe9 9ebe 3adb c1be
000002e0: a39d eb3d 1128 3c3e 2a5a 583e 11d7 973e
000002f0: 56e5 29be 1916 33be 03ef 5dbe 0164 77bc
00000300: 2d99 113e 2687 5dbd faa3 4c3e 7808 943e
00000310: e779 d23d bcae 923d 728d 173e 90a9 07be
00000320: 7386 b03d 1f5f 90be 2a52 28be 62b8 c1bd
00000330: 3a98 753e 3742 9fbe 5499 96bc bc27 043e
00000340: 4415 423e b69d 103d 81a3 25be 8ece c1be
00000350: 992d ca3d dec0 84be 8526 4c3e d77f 7d3c
00000360: ec4f d93c 905a 78be bb73 cc3e 34ae c43d
00000370: ccf5 8b3d 916b e4bd 588c 993e 2ce2 b2bd
00000380: f65d 1d3e ba21 d7bd 1086 cbbd cf30 dfbc
00000390: 8c80 403e 403f 7e3d 1171 813e 9a8b 92bc
000003a0: 999b 5d3d 48f2 5bbe 8ad5 3bbd 1a3a 80be
000003b0: c1bd 2cbe 11ad 503b f823 8b3e e7cd 053e
000003c0: c68e 5cbe 873c d03c 8669 8b3e 1ddf a23d
000003d0: 7d43 2b3e 6096 883e f1f2 093e d287 54bc
000003e0: c050 e4be 479a ebbe db88 d43c f68c 75bd
000003f0: 7c37 6d3e 3fe8 21be 9778 81bb 2081 603d
-0.10314706 0.070995815 -0.30622673 -0.08857982 -0.051852908 -0.046632968 0.25064942 -0.0834214
0.33465534 0.2445998 0.06649904 -0.0752406 0.010812039 -0.01427735 -0.17218556 0.28011528
-0.33887026 0.3536809 -0.11683945 -0.067324325 0.19198449 0.5035584 0.11100625 0.16104718
-0.27034956 0.08870702 -0.27617154 -0.22155651 0.2505769 0.09779098 0.19102518 -0.19899961
-0.21423419 -0.08945746 -0.06803718 0.1462602 0.34900418 0.091436364 0.12846325 0.034567405
-0.34443045 -0.1440487 0.45892233 0.15522008 0.027749844 0.05015701 -0.12712097 0.15282774
0.105614506 0.089185536 0.070871584 0.15458919 -0.35920516 0.106044985 0.30261278 0.48057368
0.060878858 0.07484947 -0.22407517 0.08596646 0.1785065 0.08099427 0.2286634 -0.3861509
-0.075131275 -0.19769967 -0.35301572 -0.060164142 -0.0200946 0.27320805 -0.16386922 0.26907408
-0.02530614 0.17753805 0.06591751 0.05044503 0.28688934 -0.043247808 -0.14139351 -0.41808066
0.14447144 0.014249748 0.19978555 0.20902215 0.7930247 -0.030010318 0.3191134 0.18189481
0.133539 0.116470635 -0.29114756 0.13349058 -0.25623456 0.06293017 0.14245363 -0.49077252
-0.19929782 0.027347641 0.16440119 0.2742113 0.13771772 -0.17601933 -0.1858572 -0.19335891
-0.3827912 0.19246171 0.29488763 0.61995745 -0.24857119 -0.2457314 0.31364018 0.18035387
-0.41563556 0.2584874 -0.03033609 0.13775925 -0.10286678 -0.09450267 -0.041287858 0.28894216
-0.41829777 0.16742484 -0.14441739 -0.15600581 0.01928498 0.20690869 -0.14647233 -0.13231054
-0.042517234 -0.4935719 0.12033596 -0.17932616 -0.01744257 -0.26265943 -0.13281007 -0.25275978
-0.24469998 -0.06718773 0.2260658 -0.08128239 0.3990633 -0.33604315 0.03299603 0.19000736
-0.2501935 0.09367643 0.043206144 -0.15700293 -0.16216318 -0.13092978 -0.024565766 -0.18730874
-0.100186095 0.21212359 -0.040062536 0.1746696 0.105783336 0.107163906 -0.17165695 -0.16140392
-0.117737345 -0.080444396 -0.036405038 0.044209085 -0.0644599 -0.050178017 0.22414777 -0.046878014
0.07631085 0.19798172 -0.08226522 0.10791396 -0.024096606 0.19596724 0.06190241 -0.44167468
-0.15174352 0.027175639 -0.11186625 -0.32319257 0.25019196 0.333512 -0.3103765 -0.3786257
0.11504676 0.18374659 0.21128145 0.2965627 -0.16591391 -0.17488898 -0.21673207 -0.015099526
0.14218588 -0.054083966 0.19984427 0.2891271 0.10277157 0.07162234 0.14800051 -0.13248277
0.08619394 -0.28197572 -0.16437593 -0.09458996 0.23983851 -0.31105205 -0.01838366 0.12905782
0.18953425 0.035306655 -0.16175653 -0.378529 0.09871978 -0.25928396 0.19936569 0.015472374
0.026527368 -0.24253297 0.39932045 0.09603539 0.068339914 -0.11153329 0.29989886 -0.08734545
0.15367875 -0.1050448 -0.0993768 -0.027244953 0.18799037 0.06207204 0.25281575 -0.017888833
0.054103468 -0.21479142 -0.045857944 -0.25044328 -0.1686926 0.0031841437 0.2717588 0.13066827
-0.21538839 0.025419487 0.27228945 0.07952712 0.16724963 0.26677227 0.13471581 -0.012971835
-0.44592857 -0.46016142 0.025944164 -0.059948884 0.23165697 -0.15811251 -0.003951143 0.054810643

bias f4 [20]
00000000: e1ca 103d 3698 9d3b 7b68 b2bc d370 29bd
00000010: bf40 6a3d 99fb 623c 9d19 723c c5eb c8bc
00000020: 1105 933c 3ed4 a03b 8c6f 083c 5571 913d
00000030: a12b 38bd d97f 97bc ac6a abbc 379a a53c
00000040: 5506 a4bc 7581 973c 13b8 053c 5ce0 b0bb
0.03534973 0.0048094047 -0.021778336 -0.041367363 0.057190653 0.013853931 0.0147766145 -0.024526486
0.017946752 0.0049081137 0.008327376 0.071016945 -0.044963483 -0.01849358 -0.020924889 0.020215137
-0.02002255 0.018494347 0.0081615625 -0.0053978395

weight f4 [20, 20]
00000000: 2a6f 263e 8fc8 31bd 0aba a8bd b6a3 07be
00000010: 91e1 7abb 0eb9 99be 64c5 ecbd 0cef cc3e
00000020: e038 8ebe 48a3 903e 3b8c 7dbd 47e3 86be
00000030: e0cb fb3d 18d3 d43c 39e1 f33d 6bf6 ec3d
00000040: 5ac3 91be 9002 1d3e 1bca 6e3d ba3c 083d
00000050: 5789 0d3e 687e 383e 6e7d 673e 0377 e03d
00000060: 2ffb c3b9 f381 7abd 69b6 583d d3a7 7f3d
00000070: 2534 493e d89a 1b3e f9c1 a3be 8b9b de3d
00000080: 25c0 e23e f182 d5bd 165a 10be b611 0ebf
00000090: 79b5 06bd dbb6 bb3e 33b5 6fbe e205 c83d
000000a0: 529e 3fbc ada8 dd3d 402d ed3e 04ee a13d
000000b0: c375 0e3d 8ddf f23e f7a5 67be e5ad 38be
000000c0: ba8c 8c3d 5ce7 d0be f597 8cbc df8f a13d
000000d0: d35c a53d 1873 a8bd 50ee e63c e395 b7be
000000e0: 109b 53be 6920 dcbd 6214 8abe 57f5 e5bd
000000f0: d08c 7b3d 2d34 01be f191 033d 3850 1abe
00000100: dcd8 73bd 639b 9f3c 327f 863d 22b9 f4bd
00000110: ccf5 9c3e f670 6fbe ef9f ee3d 23f2 8c3e
00000120: 6b1e 68be f6f3 083e b403 95be a83e 77be
00000130: 95aa bbbd 238b 763e 1f3b 133d 639e fabd
00000140: 334e 2d3e af35 17be 329c 9ebc 6c43 20bd
00000150: 8db3 103e 6c8a 723e c8bb c43e 4260 bb3e
00000160: 4800 b3bd 4a89 c3be e56d 4bbd 77ab 433d
00000170: d1b5 a23e da22 b13d f1f7 bdbe c378 a33d
00000180: 628d 6fbe 935f b4bd 3f84 f53e bee2 a03e
00000190: d94e 18be c448 543e dab9 b83d 6924 9e3d
000001a0: a346 28be 2535 18be 342e 08be 3677 263e
000001b0: e503 74be 9ec7 2bbe b4ec f93c c70f a53d
000001c0: 2a0c 7f3e 9de0 abbe 6a40 e13d 9ea0 b63d
000001d0: 94c9 113e 3a39 f73e f73f 56be 9e9b 593d
000001e0: dc90 f13e 105b 8ebc 30ac 76be 6e96 263e
000001f0: 6d88 643e fd8a bf3e d4b5 b23d 0711 cc3d
00000200: 0601 13be 3c44 30bd 86ce 1d3e e647 853e
00000210: 862a 3dbe 8fd0 823d 931d e2bd fa97 3e3e
00000220: b95a cabd b1b0 4c3e e934 093e 5b9a 0f3e
00000230: 816f ebbe 9247 75be f3c1 703d 782e c13e
00000240: 1ed9 85be 3cfc 263d 44d2 923e 7610 d43d
00000250: c2e5 21bd 0e11 15bb bd5b 0f3e 78e1 19bf
00000260: 4385 c2be 7fac 693d a205 333e 24b8 fabd
00000270: 50eb 44bc cca3 933d f146 ad3e fa75 c9be
00000280: 9fe7 03be 36ad 9a3e 8e57 913e a245 983e
00000290: a39c 86b9 76d3 b93d 9823 b93e 4db9 54be
000002a0: 6d17 efbd 45aa 9ebe 535b 62be a053 8f3e
000002b0: ca43 933e 6664 9bbe 8d95 edbd aa01 7d3e
000002c0: d467 153e 994a d8bd 0e53 dbbd 2f12 d93c
000002d0: dbbf bdbe 2ce3 913e 1bfc 5abc 90e3 b0be
000002e0: f730 f13d 03c9 a4be 9488 293e 07e0 063e
000002f0: e2db 513d 621c 273e 5353 57be 966f bc3e
00000300: 180a a5bb a7f7 9fbd addb bf3d 8168 72be
00000310: d789 4a3e e623 79be 2b88 99be e0cc 18bd
00000320: ad1d 913d 6f04 483e 055f 193e fc4b 51be
00000330: 1bf8 e1be ac75 0ebf 182c aa3e a795 fc3c
00000340: 8db9 033e 6f5f b13e c544 d63b a38d bebd
00000350: 6332 e53d df97 7f3d d996 9b3e 2b52 a6be
00000360: 1225 2a3e 01f9 b4be 01e6 813e 2eac 513e
00000370: 1095 363e 1ac5 923b 2378 b93e 883e 41bc
00000380: 84ef 883d 718e dd3e 6441 a6be 9917 f2be
00000390: a08f 5e3e 6c82 54be a170 903e 7d5f 8e3e
000003a0: 797a 0c3f a744 b23e c6c8 cf3e 09f5 70bd
000003b0: 6655 e4be 02ae 873e 8798 90be ad3f cabd
000003c0: f2c2 cc3e cd5e 663e a99b 0abe 6e35 e8bd
000003d0: 0736 4e3d fd46 a63d 2b19 433e 0e31 56be
000003e0: ec2e 853e 66b8 613e c0b6 923d e40e ca3e
000003f0: f4ea 833e 3b65 4dbd 3d4d 6cbe d68e 073f
0.16253343 -0.04340416 -0.08238609 -0.13246045 -0.003828142 -0.30023998 -0.11561087 0.40026128
-0.27777767 0.28249574 -0.061901312 -0.26345274 0.122947454 0.025979564 0.11908192 0.11570438
-0.28469354 0.15333009 0.05829821 0.03326104 0.13821922 0.1801697 0.22606441 0.109602
-0.00037380445 -0.061159085 0.052908335 0.06241591 0.19648798 0.15195787 -0.31983927 0.10869511
0.4428722 -0.10425366 -0.14096865 -0.55495775 -0.03288791 0.36662945 -0.23408966 0.09766747
-0.011695461 0.10823188 0.46323586 0.07906726 0.034780275 0.4743618 -0.22621904 -0.18035085
0.06862779 -0.40801513 -0.017162303 0.07888769 0.080743454 -0.082250774 0.028189808 -0.35856542
-0.2066462 -0.10748369 -0.26968676 -0.112284355 0.061413586 -0.1261756 0.032121602 -0.15069664
-0.059532985 0.019483274 0.06567229 -0.11949374 0.30656278 -0.23382935 0.11651599 0.27528486
-0.22667854 0.13374314 -0.29104388 -0.24144995 -0.09163395 0.24076514 0.035945054 -0.12237241
0.16924362 -0.14766572 -0.01936159 -0.0391268 0.14130993 0.23685616 0.38424516 0.36596876
-0.08740288 -0.3819068 -0.04966535 0.047770943 0.3177934 0.086492255 -0.37103227 0.07982018
-0.23393777 -0.08807292 0.47952458 0.3142299 -0.14873828 0.20730883 0.09019823 0.077217884
-0.16433196 -0.14864023 -0.13298875 0.16256413 -0.2382961 -0.16775367 0.030508377 0.0805965
0.24906984 -0.33569804 0.10998614 0.08917354 0.14237052 0.48285848 -0.20922838 0.053126924
0.4718083 -0.017377406 -0.24089122 0.16268322 0.22317667 0.37410727 0.08726087 0.09964185
-0.14355859 -0.043033823 0.15410814 0.26031417 -0.18473253 0.06387436 -0.11040797 0.18612662
-0.09880585 0.19989277 0.1339909 0.14023726 -0.45983508 -0.23953083 0.058778714 0.37730765
-0.2614221 0.040767893 0.28676045 0.10354702 -0.039525755 -0.002274576 0.13999839 -0.60109663
-0.37992296 0.05704927 0.17482617 -0.12242153 -0.0120189935 0.07208976 0.33843186 -0.3934782
-0.12881325 0.30210274 0.2838711 0.29740626 -0.00025675175 0.09073536 0.36159968 -0.20773812
-0.1167439 -0.3098928 -0.2210515 0.27993488 0.28762656 -0.30350035 -0.1160079 0.24707666
0.14590389 -0.105611034 -0.10709201 0.026497928 -0.37060437 0.2849363 -0.013365771 -0.34548616
0.117769174 -0.3218461 0.16556007 0.13171397 0.051235087 0.16319421 -0.2102788 0.36803883
-0.0050366037 -0.07810908 0.09368072 -0.23672678 0.19779144 -0.243301 -0.299867 -0.03730476
0.07085738 0.19532941 0.14977653 -0.20439142 -0.44134602 -0.55648303 0.33236766 0.030833079
0.12863751 0.34643123 0.0065389597 -0.09304359 0.11191251 0.062400695 0.30388525 -0.32484564
0.16615704 -0.35346225 0.25370792 0.20475838 0.178303 0.0044790627 0.3622447 -0.011794694
0.06686309 0.43272737 -0.32471764 -0.4728363 0.21734476 -0.20752877 0.2821093 0.27807227
0.5487438 0.34818003 0.40582865 -0.058827434 -0.44596404 0.26499945 -0.2824137 -0.098754264
0.3999248 0.22497101 -0.13535942 -0.11338316 0.050344493 0.08119009 0.1905257 -0.2091715
0.2601236 0.22042999 0.07163763 0.39464486 0.25765193 -0.05014537 -0.23076339 0.52952325

bias f4 [20]
00000000: 73dd 373b 8ebf dbbc 8368 ecbc 577c 0a3d
00000010: 2679 1f3d affe e8bc 6a99 6d3d 198e 96bd
00000020: 45f2 08bd 50ae c13c 2b25 7bbc 6a0b 0ebd
00000030: 69f7 d43b 389e 0b3d 33f4 47bd 5d4b 2ebc
00000040: 3048 733c 0281 833d 92cd d23c 3c6e 6ebd
0.0028055578 -0.026824739 -0.028858429 0.033809986 0.038933896 -0.028441755 0.058007635 -0.07351322
-0.03343417 0.023642689 -0.015328686 -0.034678854 0.00649922 0.034086436 -0.04881687 -0.010638085
0.014848754 0.06421091 0.02573279 -0.058210596

weight f4 [1, 20]
00000000: d720 d13c e5af 09bf 632e c8be 6e04 2d3e
00000010: d161 983e ecc6 44be 3e86 423f 47ee 0dbf
00000020: c8de 45be 6cde db3d 517a bdbd 51a3 b3be
00000030: 0911 a73d 0d14 50bf b202 c3be 0c49 81bd
00000040: 29ff ef3e 25da 373f a035 093e 488a afbe
0.025528355 -0.5378402 -0.3909789 0.16896221 0.29762128 -0.19216508 0.7598609 -0.5544171
-0.19323266 0.10735783 -0.09251846 -0.35085538 0.08157546 -0.81280595 -0.38087994 -0.06312761
0.4687436 0.7181724 0.13399363 -0.34285188

u_b f4 [2]
00000000: 0000 2040 77be 1f3e
2.5 0.156

l_b f4 [2]
00000000: 0000 c03f 0000 0000
1.5 0.0
