Models/Noise_0/toy_stop/internal_o3.pt (torch, 51615 bytes, 23 tensors)

weight f4 [20, 2]
0	0xbd0f9174	-0.035050824
1	0x3dacb63c	0.08433196
2	0xbe69a879	-0.22818173
3	0x3db1676f	0.086623065
4	0xbec5a965	-0.386058
5	0xbeec9a05	-0.46211258
6	0x3f1d7904	0.6151278
7	0x3f1b498e	0.6065911
8	0xbd698bc6	-0.057018064
9	0xbe85667d	-0.26054755
10	0x3e46faee	0.1943166
11	0xbe8dcc1f	-0.27694795
12	0xbe23b44b	-0.15986745
13	0xbcca1cf7	-0.024672015
14	0xbddbf7e7	-0.10740643
15	0xbebb54bd	-0.36588088
16	0xbde9b8a6	-0.11412172
17	0x3e0e5574	0.13899785
18	0xbe57d0f6	-0.21075806
19	0x3d5c9d50	0.053860962
20	0xbc364bae	-0.011126442
21	0x3e01ee23	0.12688498
22	0x3df93123	0.12167575
23	0x3e0ef023	0.13958792
24	0x3d52b228	0.051439434
25	0xbe377892	-0.17917088
26	0xbe9f75fc	-0.31144702
27	0xbcd6a453	-0.026201403
28	0x3de0b858	0.10972661
29	0xbece7f63	-0.40331563
30	0x3eea0066	0.4570343
31	0xbd422a2e	-0.047403507
32	0x3ed17e1c	0.40916526
33	0xbf10ab27	-0.5651116
34	0xbf38f3b9	-0.7224689
35	0xbeff539e	-0.49868482
36	0x3cf31409	0.02967264
37	0xbe10b81e	-0.14132735
38	0x3d9a1aeb	0.075246654
39	0x3d2a9650	0.041647255

bias f4 [20]
0	0x3e317a18	0.17331731
1	0x3d3ce59d	0.046117414
2	0xbeba988e	-0.36444515
3	0x3d07aa86	0.03312161
4	0xbdc3ace0	-0.09554458
5	0xbe92fc46	-0.28708094
6	0xbe40f060	-0.18841696
7	0x3c164e32	0.009173917
8	0xbccc173e	-0.024913426
9	0xbda69d7b	-0.08135506
10	0x3dc91867	0.098191075
11	0xbd96b705	-0.07359127
12	0xbe1e60d9	-0.15466632
13	0x3ddb4332	0.10706176
14	0xbe80b778	-0.25139976
15	0xbe24053d	-0.16017623
16	0xbe6ece81	-0.23320962
17	0xbc8dc11c	-0.017303996
18	0xbdf928f9	-0.12166018
19	0x3c13f7d7	0.009031258

weight f4 [20, 20]
0	0x3e512920	0.20425844
1	0x3df670e6	0.120332524
2	0xbeaa4598	-0.3325622
3	0x3dfcc3c1	0.123420246
4	0x3e026357	0.12733208
5	0x3d281d4f	0.041043576
6	0x3e35b1a0	0.1774354
7	0x3df59cd5	0.11992804
8	0x3e985f91	0.2976041
9	0x3ea6e295	0.32594743
10	0x3e9cb4d7	0.3060672
11	0x3d6dc05d	0.05804478
12	0x3e94a093	0.29028758
13	0x3e0d11a4	0.1377626
14	0x3f0ffbe1	0.5624371
15	0xbe790fb5	-0.24322398
16	0xbd5d25bc	-0.053991064
17	0xbe7855aa	-0.24251428
18	0xbdc4737f	-0.09592342
19	0x3db4ac2f	0.08821904
20	0x3e8a687d	0.27032843
21	0x3e0233c3	0.12715058
22	0xbd8ac983	-0.067767166
23	0x3bc7c236	0.00609615
24	0xbe064f95	-0.13116296
25	0xbedf53cc	-0.4361862
26	0xbee0bf95	-0.43896165
27	0xbe7e0a07	-0.24808513
28	0x3e744f66	0.23858413
29	0xbd7f37c2	-0.062309034
30	0xbd32f32e	-0.043688945
31	0xbd43ac9c	-0.047772035
32	0xbe3e0415	-0.18556245
33	0x3da551a5	0.08072213
34	0xbe61d49f	-0.22053765
35	0x3e2c0f44	0.16802698
36	0x3e27fb78	0.16404521
37	0x3db81734	0.08988801
38	0x3cfd4eec	0.030921422
39	0xbc4253d8	-0.01186081
40	0x3ea35382	0.3189965
41	0x3e13c35c	0.14429992
42	0xbe445f42	-0.19176963
43	0xbf15900b	-0.5842292
44	0x3f1e1096	0.6174406
45	0xbd92b105	-0.0716267
46	0xbd23ee49	-0.04002217
47	0x3e683d3d	0.2267961
48	0x3e310446	0.17286786
49	0xbe71b089	-0.23602499
50	0xbe515c7b	-0.20445435
51	0x3e377a6e	0.17917797
52	0xbe8de3ce	-0.27712864
53	0x3c3eb8b4	0.011640716
54	0x3a2f17bf	0.00066792587
55	0xbd78a13b	-0.060700636
56	0x3d94714d	0.07248173
57	0x3cf13a5d	0.029446775
58	0x3d1b2a0e	0.037881903
59	0xbef02dcc	-0.4690994
60	0x3e54aa66	0.20768127
61	0x3d043e7b	0.03228615
62	0xbe50db42	-0.2039614
63	0x3e3df22f	0.18549417
64	0x3e2caf4d	0.16863747
65	0x3e76ebb4	0.24113351
66	0xbea4818a	-0.3213008
67	0x3e363d59	0.1779684
68	0xbe1f7e0c	-0.15575427
69	0x3da7218f	0.08160698
70	0x3dcd3143	0.100191616
71	0x3e2be348	0.1678592
72	0x3eb481c1	0.35255244
73	0xbc82c47b	-0.01596283
74	0x3d959c62	0.07305218
75	0x3d41b709	0.047293697
76	0xbe3a5c3b	-0.18199246
77	0xbd4b4b11	-0.049632136
78	0x3e4a9c91	0.19786288
79	0x3e73e95b	0.23819487
80	0x3ebe11fb	0.37123093
81	0x3c177e9c	0.009246495
82	0x3e835457	0.25650284
83	0x3d3584a4	0.04431595
84	0xbe8d864c	-0.27641523
85	0xbe8346be	-0.2563991
86	0x3df6d649	0.120525904
87	0x3ec910f6	0.39270753
88	0xbcfc7171	-0.030815812
89	0xbdb46e41	-0.08810092
90	0x3e0fd393	0.14045553
91	0xbd42b7a2	-0.047538407
92	0xbdb340e4	-0.08752611
93	0xbe213eac	-0.15746564
94	0xbe1b368f	-0.15157531
95	0x3e6f4da9	0.23369469
96	0xbeda97b0	-0.42693853
97	0x3dbebe3e	0.093136296
98	0x3c00f395	0.0078705745
99	0x3e91ee67	0.285022
100	0xbd89c662	-0.06727292
101	0x3dfb09e8	0.12257749
102	0x3ea88ce1	0.32919982
103	0xbe02641c	-0.12733501
104	0x3e4c6dc3	0.19963746
105	0x3e6d768a	0.2318975
106	0xbe3a750e	-0.18208715
107	0xbdb4f43c	-0.088356465
108	0xbc81d7ed	-0.015850032
109	0xbe54eddc	-0.20793861
110	0x3db779ce	0.08958779
111	0xbdcef60c	-0.101055235
112	0xbe64a309	-0.22327818
113	0xbe551e38	-0.20812309
114	0x3f191576	0.5979837
115	0x3cd8e8c3	0.026478177
116	0xbe313e3f	-0.17308901
117	0x3d88c836	0.06678812
118	0x3e31d381	0.17365839
119	0x3e8e84e2	0.27835757
120	0xbed085be	-0.40727037
121	0xbd03d5bf	-0.032186266
122	0x3d6a3332	0.05717773
123	0xbcd76e9f	-0.026297865
124	0xbe1cdaf9	-0.15317906
125	0xbf0c3e14	-0.54782224
126	0x3e4f550a	0.20247284
127	0x3ce122a1	0.027482333
128	0x3e9257ca	0.28582603
129	0xbe81f26b	-0.25380263
130	0x3e2ff64d	0.171838
131	0xbe11f462	-0.14253381
132	0x3ba323e4	0.0049786437
133	0xbc8d495f	-0.0172469
134	0x3e551922	0.20810369
135	0x3dc5fba9	0.09667141
136	0xbe1d6c33	-0.15373306
137	0xbe6746d8	-0.22585618
138	0x3d68401d	0.05670177
139	0xbe384fa0	-0.17999125
140	0x3e58dec4	0.21178728
141	0x3ed5d2bc	0.4176234
142	0x3ea6f0c9	0.3260558
143	0xbd501190	-0.050798
144	0x3e8801e9	0.26563957
145	0x3e1347c4	0.14382845
146	0xbed63fd7	-0.4184558
147	0x3dd920c2	0.10601951
148	0xbc6e770e	-0.014554752
149	0xbd83f11e	-0.06442474
150	0x3deb8f10	0.115018964
151	0x3e28addd	0.16472574
152	0x3e7fb9f2	0.24973276
153	0xbea92da9	-0.33042648
154	0xbd076409	-0.033054385
155	0xbe1a52a5	-0.15070589
156	0xbe5bd7bf	-0.2146902
157	0xbdc5ea48	-0.09663826
158	0xbe600adc	-0.21879143
159	0x3e84b130	0.25916433
160	0x3df05a57	0.11735981
161	0xbe19648d	-0.14979763
162	0x3b432443	0.0029776252
163	0x3e1cee2c	0.1532523
164	0xbe865225	-0.26234546
165	0x3e5202e4	0.20508915
166	0xbe679aaf	-0.22617601
167	0xbd96ca53	-0.07362809
168	0xbe8a584e	-0.27020496
169	0xbdfb6f2b	-0.12277063
170	0x3e0264ba	0.12733737
171	0x3de745d6	0.11292617
172	0x3dd7e8bf	0.1054244
173	0xbdaf0939	-0.08546681
174	0x3d4b4eba	0.049635626
175	0x3ed63ab9	0.41841677
176	0x3e691064	0.22760159
177	0x3e07cf82	0.13262752
178	0x3e1a8c5e	0.15092608
179	0xbe478621	-0.1948476
180	0x3dc26b5b	0.09493133
181	0x3d1b2b07	0.03788283
182	0x3ef015a6	0.46891516
183	0x3d357556	0.044301353
184	0x3f00f57e	0.5037459
185	0x3e91f408	0.28506494
186	0x3e4f7d10	0.20262551
187	0x3e311d20	0.17296267
188	0x3ed21ec2	0.4103909
189	0x3e36bc45	0.17845257
190	0x3da2a322	0.07941271
191	0xbe9686cf	-0.29399726
192	0xbd25cf54	-0.040480927
193	0x3e8bd381	0.27309802
194	0xbdd068c7	-0.10176235
195	0xbc744f81	-0.014911533
196	0x3eaf6451	0.34256223
197	0xbdc41006	-0.09573369
198	0xbe4e3fc7	-0.20141517
199	0x3d26ecf2	0.040753312
200	0xbcba1590	-0.02271536
201	0x3e28e1df	0.16492413
202	0xbdf674d6	-0.120340034
203	0x3e48b409	0.19599928
204	0xbe7a46d7	-0.24441086
205	0xbe13e017	-0.14440952
206	0xbe6d28fa	-0.23160163
207	0x3d1c679f	0.03818476
208	0x3eca15e3	0.39469823
209	0xbf0c6d7f	-0.5485458
210	0xbc5785fc	-0.013154503
211	0xbe1afc46	-0.15135297
212	0xbee92ab4	-0.45540392
213	0xbe600f3a	-0.21880808
214	0xbd755c20	-0.05990231
215	0x3e1e7fa6	0.15478382
216	0xbebd164a	-0.36931068
217	0x3e58d111	0.21173503
218	0x3e2bbab8	0.16770446
219	0xbe6606be	-0.2246351
220	0xbecd78d8	-0.4013126
221	0x3e1b91d8	0.15192354
222	0x3eb46a6d	0.35237446
223	0x3e21adce	0.15788957
224	0xbdba4034	-0.09094277
225	0x3d7ac1e0	0.06122005
226	0x3cba57fe	0.022747036
227	0xbdd4fcf2	-0.10399808
228	0xbe89ce5a	-0.26915246
229	0x3eb343ce	0.35012668
230	0x3dbc2304	0.09186366
231	0x3ee8d168	0.45472264
232	0xbd8aa78e	-0.0677024
233	0xbdc37e24	-0.09545544
234	0x3e793d43	0.24339776
235	0xbe3fc401	-0.18727113
236	0xbd56b97e	-0.052422993
237	0x3dcba4e6	0.09943561
238	0x3e5d662d	0.21621008
239	0x3cff5025	0.031166146
240	0xbeb9c05e	-0.36279577
241	0x3e2307c2	0.15920928
242	0x3d7498e7	0.05971613
243	0x3d73e472	0.059544034
244	0xbe9a2813	-0.301087
245	0x3e97a88a	0.29620773
246	0x3bb2baf8	0.0054544173
247	0xbe696c0a	-0.2279512
248	0x3e3eba9c	0.18625873
249	0x3e66f2bf	0.22553538
250	0xbe0a31e3	-0.13495593
251	0x3e8a0063	0.2695342
252	0x3e36acfc	0.17839426
253	0xbd7cd3d7	-0.061725464
254	0xbcf57112	-0.029961143
255	0xbba54141	-0.0050431793

bias f4 [20]
0	0x3b8b0842	0.004242928
1	0x3e2074b2	0.15669516
2	0xbcd976ff	-0.026546
3	0xbc867e5c	-0.016417675
4	0x3d006c6b	0.031353395
5	0xbd49d356	-0.04927381
6	0xbc32afd4	-0.0109061785
7	0x3c7347ae	0.014848633
8	0xbda7207b	-0.08160492
9	0xbe787b25	-0.24265726
10	0xbcb1f63d	-0.02172386
11	0xbdbb156c	-0.09134945
12	0xbd2e7805	-0.04259493
13	0xbd84890d	-0.06471453
14	0xbd09676a	-0.03354589
15	0xbe81b29f	-0.2533159
16	0xbb5c10e6	-0.0033579408
17	0xbd6981ee	-0.057008676
18	0x3e527bb8	0.20555007
19	0xbc998cdb	-0.018743923

weight f4 [20, 20]
0	0x3e87e1ed	0.26539555
1	0xbe85c064	-0.26123345
2	0x3da6ebc6	0.08150439
3	0x3e4fe021	0.20300342
4	0xbe4caeeb	-0.19988601
5	0xbe14d05f	-0.14532612
6	0x3e12f634	0.14351732
7	0x3eaf21b5	0.34205404
8	0xbf1a8da7	-0.60372394
9	0x3df31ae4	0.11870363
10	0x3e2ba44b	0.16761892
11	0x3e949671	0.29021028
12	0x3e330d59	0.1748556
13	0x3e4469a6	0.19180927
14	0x3e9e5979	0.30927637
15	0xbe2479c0	-0.16062069
16	0x3ec5edf5	0.3865811
17	0xbe165366	-0.14680251
18	0x3e3cb94e	0.18430063
19	0xbe98e212	-0.29859978
20	0x3e89ff70	0.26952696
21	0x3d0a50b1	0.03376836
22	0x3d6ebf44	0.058287874
23	0xbae517dc	-0.0017478424
24	0x3d26835a	0.04065261
25	0x3e83e2f8	0.257591
26	0x3e587f17	0.21142231
27	0xbe86e7a7	-0.26348612
28	0xbdab9360	-0.08377719
29	0x3e249346	0.16071805
30	0xbe696ac6	-0.22794637
31	0x3eae51ce	0.34046787
32	0xbd59939f	-0.053119298
33	0x3969feaf	0.00022315489
34	0xbd952622	-0.07282664
35	0x3eaa32cb	0.33241877
36	0xbd2ab238	-0.04167387
37	0x3ecaa89a	0.39581758
38	0x3ea93bc9	0.33053425
39	0xbd106854	-0.035255745
40	0xbe863fb3	-0.26220474
41	0xbb0ee745	-0.0021805328
42	0xbd1bf287	-0.03807309
43	0xbe82ff90	-0.25585604
44	0x3e5364ff	0.20643996
45	0x3db94eea	0.09048255
46	0x3e9fc116	0.31202
47	0x3c3fb860	0.011701673
48	0x3e034065	0.12817533
49	0x3e40903f	0.18805026
50	0xbe061763	-0.13094859
51	0xbe6f3e90	-0.2336371
52	0xbde53bcd	-0.11193047
53	0x3ddc2a1f	0.107502215
54	0x3c21fb63	0.009886595
55	0x3ea68db7	0.32529995
56	0x3e284159	0.16431178
57	0x3cb6ecb3	0.022329664
58	0xbe41c307	-0.18922053
59	0x3d573bf2	0.052547403
60	0x3ebcd72a	0.36882907
61	0x3d5ece2e	0.054395847
62	0xbe719a7d	-0.23594089
63	0xbd57fa6c	-0.052729055
64	0xbeb012f4	-0.3438946
65	0xbe939b9d	-0.2882966
66	0xbf08de8f	-0.534646
67	0xbf0572fc	-0.5212858
68	0xbe2c68c8	-0.16836846
69	0xbecb8d0d	-0.3975605
70	0x3d766cfe	0.060162537
71	0xbc8f7a9d	-0.017514521
72	0xbdbc0833	-0.091812514
73	0x3df2b12c	0.11850199
74	0xbdd63861	-0.10459972
75	0x3ea54c6e	0.32284874
76	0xbde6f385	-0.112769164
77	0xbe32a7b2	-0.17446783
78	0x3e1f02f3	0.15528469
79	0x3ecb1777	0.3966634
80	0x3e9ca7de	0.30596823
81	0xbd5635d7	-0.05229744
82	0x3d44377f	0.047904488
83	0xbd0bb6e5	-0.03410997
84	0x3e6d5182	0.23175624
85	0xbe8e8990	-0.27839327
86	0xbe0fff5f	-0.1406226
87	0xbe2076e2	-0.1567035
88	0x3e1678b9	0.1469449
89	0x3caff2c4	0.021478064
90	0xbec96ae9	-0.39339378
91	0xbea440c3	-0.3208066
92	0xbd6ffe2d	-0.05859201
93	0xbf175ad1	-0.5912295
94	0x3ef189b7	0.4717538
95	0x3e38df67	0.18053971
96	0xbe7fb63d	-0.24971862
97	0xbe675994	-0.22592765
98	0x3ebddd26	0.37082785
99	0x3e4c182d	0.19931097
100	0xbe00fe48	-0.12597
101	0xbd326909	-0.0435572
102	0x3c1304e3	0.008973333
103	0xbe3ca2a0	-0.18421412
104	0xbe93c9d6	-0.28864926
105	0xbdab02ce	-0.08350144
106	0x3de25c01	0.110527046
107	0xbedccb49	-0.43123844
108	0x3d883029	0.06649811
109	0xbdcecaa4	-0.100972444
110	0xbe26c958	-0.16287744
111	0xbdcbc08b	-0.09948834
112	0x3ed22426	0.41043204
113	0x3e30d936	0.1727036
114	0x3ed416f0	0.4142375
115	0xbc82ec50	-0.015981823
116	0xbcd7d5ce	-0.026347067
117	0x3e07d4c9	0.13264765
118	0x3e56cbf0	0.20976233
119	0xbf078447	-0.52936214
120	0x3e7b3f13	0.2453578
121	0xbd80fefc	-0.062986344
122	0x3d088775	0.033332307
123	0x3e799fd5	0.24377377
124	0x3db6d47b	0.08927246
125	0xbcabcb31	-0.020970913
126	0xbe412549	-0.1886188
127	0x3e7dfcea	0.2480351
128	0x3aee273b	0.001816965
129	0x3d98e119	0.07464809
130	0x3e56ad43	0.20964532
131	0x3e051589	0.12996496
132	0xbe2cf68f	-0.1689093
133	0x3e9ac68f	0.30229613
134	0xbe517b3a	-0.20457163
135	0x3ea580cc	0.32324827
136	0x3e41451c	0.1887402
137	0xbf13ad91	-0.57686716
138	0xbe84446b	-0.2583345
139	0x3ddc2779	0.10749716
140	0xbdcff25c	-0.10153648
141	0x3e4b41bb	0.19849293
142	0xbda8faa9	-0.08250935
143	0x3e6ed13a	0.23322001
144	0xbce944e8	-0.02847524
145	0xbda11c29	-0.07866699
146	0xbe307730	-0.17232966
147	0x3e8fcda0	0.28086567
148	0x3eb57dd4	0.35447562
149	0x3d9fd803	0.07804873
150	0x3e47195f	0.19443272
151	0xbe16d74a	-0.14730564
152	0xbdcff91d	-0.101549365
153	0xbd8bd4d4	-0.06827703
154	0x3dbba78c	0.091628164
155	0x3e0a040f	0.1347811
156	0xbe4ae048	-0.19812119
157	0x3eab240f	0.33425948
158	0x3cb036ac	0.021510445
159	0x3cebe8d6	0.028797548
160	0xbde6cef5	-0.11269943
161	0xbda7f81a	-0.082016185
162	0xbe870a7b	-0.26375183
163	0x3ee32960	0.44367504
164	0x3e947405	0.28994766
165	0x3e3a282e	0.1817939
166	0x395b17ee	0.00020894382
167	0x3d03cb0e	0.03217607
168	0x3e4d0d7a	0.20024672
169	0x3dcb6133	0.09930649
170	0xbcc60ca5	-0.024175951
171	0x3e9a154e	0.3009438
172	0xbe89d4af	-0.26920077
173	0xbeb3d558	-0.35123706
174	0x3e7f85eb	0.2495343
175	0xbdf24236	-0.11829035
176	0xbd4615ae	-0.04836052
177	0xbe33ad3a	-0.1754655
178	0x3e8ba3d5	0.2727343
179	0xbe8c1b53	-0.27364597
180	0x3f076bf6	0.5289911
181	0xbe39d002	-0.18145755
182	0xbe8ddb4e	-0.2770638
183	0x3c4dca95	0.012560506
184	0xbe891ff6	-0.26782197
185	0x3e6cfded	0.2314374
186	0xbe7a5561	-0.24446632
187	0x3da310a4	0.07962158
188	0xbcc01d63	-0.023451513
189	0xbde77e26	-0.11303358
190	0x3e4b2d6f	0.1984155
191	0x3df4529b	0.11929818
192	0xbda1e268	-0.07904512
193	0x3cdbc1eb	0.026825866
194	0xbdf388d8	-0.11891335
195	0x3e9a03d6	0.30081052
196	0xbd944593	-0.07239833
197	0x3cf2ae45	0.029624114
198	0x3e2b8854	0.16751224
199	0xbe8e1f98	-0.2775848
200	0x3e413a20	0.18869829
201	0x3cff66b6	0.031176906
202	0x3e0963ed	0.13417025
203	0xbc782d9b	-0.015147592
204	0x3d6444dd	0.055729736
205	0x3dca931c	0.0989134
206	0x3daa0de2	0.08303429
207	0xbdde037d	-0.10840509
208	0xbe0fe061	-0.14050438
209	0x3e29cce3	0.16582064
210	0xbe26eae8	-0.16300547
211	0x3e15fb9f	0.14646767
212	0x3bcdb6b0	0.0062778816
213	0x3e4fe61b	0.20302622
214	0xbec17767	-0.3778641
215	0x3e80faec	0.25191438
216	0x3da917f6	0.08256523
217	0xbeac2949	-0.33625248
218	0xbdb95490	-0.09049332
219	0xbe83158c	-0.25602376
220	0x3d1e8dc2	0.03870941
221	0x3df62906	0.12019543
222	0xbe0483c1	-0.12940885
223	0xbe4e5149	-0.20148195
224	0x3e3a35f6	0.18184647
225	0xbe8a88c7	-0.27057478
226	0x3d63e348	0.055636674
227	0xbdb096ec	-0.08622536
228	0xbec22e2b	-0.37925848
229	0x3e0b6c60	0.1361556
230	0xbe2aca95	-0.16678841
231	0xbda69453	-0.08133759
232	0x3e9d30f2	0.30701405
233	0x3ea2c2a3	0.3178912
234	0xbc2d4ca4	-0.010577355
235	0x3e9bf2ee	0.30458778
236	0x3b996dbb	0.0046822703
237	0x3f2bc638	0.6709933
238	0xbde22e51	-0.110439904
239	0x3cfae539	0.03062688
240	0xbeab4f73	-0.33459052
241	0x3dfdb6f1	0.12388409
242	0xbe83c257	-0.25734207
243	0x3c63dad0	0.013907149
244	0x3e838974	0.25690806
245	0xbea8e00c	-0.32983434
246	0xbd00110b	-0.031266253
247	0x3ea6fcf0	0.3261485
248	0x3d32cffd	0.043655384
249	0x3d93e9ff	0.072223656
250	0x3e39accd	0.18132325
251	0xbdc7df26	-0.09759359
252	0xbe8e42d7	-0.2778537
253	0xbedeb91f	-0.4350061
254	0x3e64e7c7	0.22354041
255	0xbf3da205	-0.7407535

bias f4 [20]
0	0x3cc8757e	0.024470087
1	0x3b727470	0.0036995672
2	0xbc8a9cb8	-0.016920432
3	0x3d428926	0.047494076
4	0x3b86382b	0.004096051
5	0x3d91efd9	0.071258254
6	0x3c18e273	0.009331333
7	0x3d174e22	0.036939748
8	0xbd37c51a	-0.044865705
9	0xbda84650	-0.08216536
10	0xba3513a1	-0.0006907527
11	0xbd031358	-0.03200087
12	0x3dce2c19	0.10067005
13	0xbd793ef9	-0.06085107
14	0xbd42e4bf	-0.04758143
15	0x3e064d9c	0.13115543
16	0xbb76e73c	-0.0037674448
17	0xbc412476	-0.011788478
18	0xbd364467	-0.044498827
19	0xbd185737	-0.03719255

weight f4 [20, 20]
0	0xbbdfc3a5	-0.0068287426
1	0x3e298e82	0.16558269
2	0x3ea943cd	0.3305954
3	0xbe6f149e	-0.23347709
4	0x3f0b6496	0.54450357
5	0xbceefba1	-0.02917272
6	0x3ea110ee	0.3145823
7	0xbe70e02c	-0.23523015
8	0x3e8202f8	0.2539289
9	0x3d266337	0.040621962
10	0x3e316a29	0.17325653
11	0x3d422b87	0.047404792
12	0x3e222cec	0.15837449
13	0x3e680ccb	0.2266113
14	0xbe174d90	-0.14775681
15	0x3dfc51e4	0.12320307
16	0x3e53bc58	0.20677316
17	0x3ef0ee25	0.4705669
18	0x3e987099	0.29773405
19	0xbd6c7aac	-0.057734177
20	0xbd56453c	-0.05231212
21	0x3cd3e600	0.025866508
22	0xbe0756e9	-0.13216747
23	0xbddef3c5	-0.10886339
24	0x3e243cf2	0.16038874
25	0x3ea86102	0.3288651
26	0x3e95613d	0.2917575
27	0xbbda8119	-0.0066682217
28	0xbdce7bad	-0.10082183
29	0x38bf85a2	9.132481e-05
30	0xbe9cae88	-0.30601907
31	0xbe50a867	-0.2037674
32	0xbe74cca2	-0.23906186
33	0x3edd3644	0.43205464
34	0xbea1479b	-0.31499943
35	0xbe9ea6bf	-0.30986592
36	0x3eafc41e	0.34329313
37	0x3ece1d3f	0.40256688
38	0xbe752271	-0.2393892
39	0x3e60a7c1	0.21938993
40	0xbec7577d	-0.38933936
41	0xbeaadb77	-0.33370563
42	0x3e3d5315	0.18488725
43	0xbe1b9f9c	-0.15197605
44	0xbed35623	-0.41276655
45	0x3e5fd58c	0.21858805
46	0xbf05594c	-0.5208938
47	0x3e548ec5	0.20757587
48	0x3e72f951	0.23727919
49	0x3f0029cd	0.5006378
50	0xbe38c86e	-0.18045208
51	0xbde9dcf1	-0.11419094
52	0x3be18440	0.0068822205
53	0xbd0d8f00	-0.034560204
54	0x3d44959b	0.047994237
55	0xbe5b0054	-0.21386844
56	0xbe95cee4	-0.29259408
57	0x3efda3fc	0.49539173
58	0x3b523b84	0.003207893
59	0x3ea45c0c	0.32101476
60	0xbe1a7557	-0.15083824
61	0xbda423d4	-0.08014646
62	0xbdf3491d	-0.118791796
63	0x3dfe6ed1	0.1242348
64	0xbd8b35fe	-0.067974076
65	0xbe229c0b	-0.15879838
66	0x3e27693f	0.16348742
67	0x3e3c2469	0.18373264
68	0x3d6adf4d	0.057341862
69	0x3e158af0	0.14603782
70	0x3e82ef00	0.25572968
71	0xbf0a6a9b	-0.5406892
72	0x3da59301	0.080846794
73	0x3e8afcc0	0.27145958
74	0x3c600f01	0.013675452
75	0x3b178ccb	0.002312469
76	0xbe2e71b4	-0.17035562
77	0x3f1e0801	0.61730963
78	0x3d599b48	0.053126603
79	0xbeec0033	-0.46093902
80	0x3e94e2ce	0.29079288
81	0xbe868002	-0.26269537
82	0xbe8776a8	-0.26457715
83	0xbda02b10	-0.078207135
84	0x3e07f6fc	0.13277811
85	0x3dbe9d3f	0.09307336
86	0xbe031918	-0.12802541
87	0x3c051c34	0.0081244
88	0x3d056263	0.032564532
89	0xbea28ed5	-0.31749597
90	0x3e06e6cb	0.13173978
91	0x3d08fa19	0.033441637
92	0x3de6bf35	0.112669386
93	0x3e4416d3	0.19149332
94	0xbe67438b	-0.2258436
95	0xbd5f8eaf	-0.054579433
96	0xbe3259c8	-0.17417061
97	0xbe846861	-0.25860885
98	0xbefaf115	-0.49012056
99	0x3c229d25	0.0099251615
100	0x3db78708	0.08961302
101	0xbd828af4	-0.063741595
102	0xbbca0d9b	-0.0061661727
103	0x3e937abe	0.28804582
104	0x3e83a474	0.25711405
105	0x3d2daefb	0.042403203
106	0xbe506b0b	-0.20353334
107	0xbd14607d	-0.03622483
108	0x3e653db2	0.22386816
109	0x3e0bade9	0.1364056
110	0xbe56de92	-0.20983341
111	0xbeb6c723	-0.35698804
112	0xbe2c36bc	-0.16817755
113	0x3e82ab7e	0.25521463
114	0xbe801eba	-0.25023443
115	0x3c331ec7	0.010932631
116	0xbe871e0b	-0.26390108
117	0xbe272545	-0.16322811
118	0x3eb4c818	0.3530891
119	0x3e1387de	0.14407298
120	0xbe23e793	-0.16006307
121	0x3ebfaf16	0.37438267
122	0x3d9ad20a	0.07559593
123	0xbe67e2eb	-0.22645156
124	0xbecde80a	-0.40216094
125	0x3e96d9d4	0.29463065
126	0xb996b761	-0.00028746857
127	0xbd9b4b23	-0.075826906
128	0xbe53cc27	-0.20683347
129	0x3e4b4ee5	0.19854315
130	0xbe45b14b	-0.19305913
131	0xbecd7c37	-0.4013383
132	0x3e96ec7a	0.29477292
133	0xbea3fad6	-0.3202731
134	0x3e42d406	0.19026193
135	0x3d27d26c	0.04097216
136	0x3f163abf	0.5868339
137	0x3e3137c3	0.17306428
138	0xbd640262	-0.055666335
139	0xbe82dd9b	-0.25559697
140	0xbeab5b60	-0.3346815
141	0xbdc6add5	-0.097011246
142	0xbec992d8	-0.39369845
143	0x3e3ad947	0.18246947
144	0xbf240090	-0.6406336
145	0x3ec8838a	0.39162856
146	0x3e924599	0.28568724
147	0x3e60b32f	0.21943353
148	0xbd810461	-0.06299663
149	0xbe116e65	-0.14202268
150	0x3ed24e6f	0.41075465
151	0xbe78bfa8	-0.24291861
152	0x3ea94b98	0.33065486
153	0xbeb3d6ea	-0.35124904
154	0xbe5d9b41	-0.21641256
155	0x3dac0c2f	0.08400761
156	0xbcd21c57	-0.02564828
157	0xbe58fe80	-0.21190834
158	0xbed06cac	-0.4070791
159	0xbe0a31e8	-0.134956
160	0x3e833687	0.2562754
161	0xbd707e8a	-0.058714427
162	0xbe5e8288	-0.21729481
163	0xbea4b8fa	-0.32172376
164	0x3e29beb5	0.16576655
165	0x3dc7cea6	0.09756212
166	0xbe4ed8bf	-0.2019987
167	0xbe0f7d25	-0.14012583
168	0x3cd7c61c	0.026339583
169	0xbe1255a5	-0.14290483
170	0x3d984c08	0.07436377
171	0xbe07fe87	-0.13280688
172	0x3e90e6bc	0.28301036
173	0x3e2516fd	0.1612205
174	0x3e2e0c37	0.16996847
175	0xbdad53f0	-0.084632754
176	0xbe22069f	-0.15822838
177	0xbe37cbd3	-0.17948847
178	0x3e29a92a	0.16568437
179	0xbd7572da	-0.059923984
180	0x3ea0783c	0.31341732
181	0x3de87e69	0.11352236
182	0x3d22f2c0	0.039782286
183	0xbe36ccd4	-0.17851573
184	0xbda512b5	-0.08060209
185	0xbd894a38	-0.06703609
186	0xbe5b872c	-0.21438283
187	0x3e18b010	0.14910913
188	0xbd87b4c7	-0.066262774
189	0x3ea9b2ac	0.33144128
190	0xbe5fbd41	-0.21849538
191	0xbdbaaf79	-0.091155
192	0xbec94d0c	-0.39316595
193	0x3e343e53	0.176019
194	0x3ecbe6f7	0.3982465
195	0xbe818e0b	-0.25303683
196	0xbe2e7657	-0.1703733
197	0xbefd8d1f	-0.4952173
198	0xbdd45dcf	-0.10369455
199	0x3d3446ed	0.044012953
200	0x3d1091f7	0.035295453
201	0x3e6cd8a9	0.23129524
202	0x3e02e796	0.12783656
203	0x3eab11e5	0.3341209
204	0xbdc8751f	-0.09787964
205	0x3e2d7d71	0.16942383
206	0x3c1fcded	0.009753686
207	0xbbff6325	-0.0077938014
208	0x3eb22b32	0.3479858
209	0x3d9ba0e7	0.07599049
210	0xbe8aa999	-0.27082518
211	0xbe0dc665	-0.13845213
212	0x3e45cfa2	0.19317487
213	0x3eac3a5e	0.3363828
214	0x3e2eb92a	0.17062822
215	0xbea5208b	-0.3225139
216	0xbe4f7d12	-0.20262554
217	0xbf0e3fe3	-0.55566233
218	0xbd7076bb	-0.05870698
219	0xbcc00f6a	-0.02344485
220	0xbd0c1f23	-0.03420938
221	0x3e334ea3	0.17510466
222	0x3cf717bf	0.03016269
223	0xbe856d94	-0.26060164
224	0xbe32a927	-0.17447339
225	0x3df135f5	0.117778696
226	0x3cdc47d4	0.02688972
227	0xbdfc2641	-0.12311984
228	0xbe850b3b	-0.2598513
229	0xbe88d9c9	-0.26728657
230	0xbe178501	-0.1479683
231	0xbdd71268	-0.105015576
232	0xbda85608	-0.08219534
233	0xbe75a335	-0.2398804
234	0xbd69db56	-0.05709394
235	0x3d11c101	0.035584453
236	0x3e32f724	0.17477089
237	0x3eae5034	0.34045565
238	0xbe94e85e	-0.29083532
239	0x3e525a61	0.2054229
240	0x3e357b17	0.17722736
241	0x3ba27125	0.0049573355
242	0x3e00b1d3	0.12567835
243	0xbcda8967	-0.026676847
244	0xbe49bda6	-0.19701251
245	0xbee63841	-0.44964793
246	0x3e207ff2	0.15673807
247	0xbe9a4661	-0.3013182
248	0x3e4b5a8d	0.19858761
249	0xbd834ade	-0.06410764
250	0xbd162aaf	-0.0366618
251	0xbe0ec27a	-0.13941374
252	0xbd883f29	-0.06652672
253	0xbdc865e1	-0.09785057
254	0x3e2597fa	0.16171256
255	0x3eb38d26	0.35068625

bias f4 [20]
0	0xbc101043	-0.00879294
1	0xbcf26f42	-0.029594067
2	0xbc6b6cbc	-0.014369186
3	0x3cd45a1a	0.02592187
4	0x3d941767	0.07231026
5	0x3d0a3697	0.033743467
6	0x39e6070c	0.0004387427
7	0x3baa58ca	0.0051985728
8	0x3d815bc3	0.0631633
9	0xbd503b18	-0.050837606
10	0x3ccda435	0.025102714
11	0x3e09d15d	0.13458772
12	0xbcb05525	-0.021524975
13	0x3c7881d4	0.015167672
14	0x3d09cfeb	0.03364555
15	0x3d7afd74	0.061276868
16	0x3cd4f869	0.025997357
17	0xbd14f8f1	-0.03637022
18	0xbd2d9bb5	-0.042384822
19	0xbd8681dc	-0.065677375

weight f4 [20, 20]
0	0x3e84b1f1	0.2591701
1	0x3ddac366	0.106818005
2	0x3d9218a4	0.07133606
3	0xbd6fa574	-0.058507398
4	0x3e3d2393	0.18470602
5	0xbbfd3062	-0.007726715
6	0x3cf35b39	0.029706584
7	0xbd9831f7	-0.07431405
8	0x3ecf7637	0.40519878
9	0x3b813c5b	0.0039439625
10	0xbdf8ecf5	-0.12154571
11	0x3e5a358c	0.21309489
12	0x3e47b7d8	0.19503725
13	0xbe8bb2f7	-0.27284977
14	0x3e1f8c4a	0.1558086
15	0xbe5f02f4	-0.2177847
16	0x3eaa65e6	0.33280867
17	0xbe43a06c	-0.19104165
18	0xbe81599f	-0.25263688
19	0xbd95b464	-0.073097974
20	0x3c5cd971	0.013479576
21	0xbe58a7ab	-0.2115771
22	0x3e31f367	0.17378007
23	0xbde5077e	-0.1118307
24	0xbdfb567e	-0.122723565
25	0xbd9195bc	-0.07108638
26	0xbca9b89b	-0.02071791
27	0xbe85411f	-0.26026246
28	0x3eadd308	0.33950067
29	0xbe3c68fb	-0.18399422
30	0xbbbe742f	-0.00581219
31	0xbe478fb5	-0.19488414
32	0xbe22ce2c	-0.15898961
33	0x3d36221d	0.044466127
34	0xbea6bf2f	-0.32567737
35	0xbeb5db48	-0.3551886
36	0xbdcaafe4	-0.0989683
37	0x3eb7a1e7	0.3586571
38	0x3e04423d	0.12915893
39	0xbcad47c8	-0.021152392
40	0x3e928901	0.2862015
41	0x3e319a39	0.17343988
42	0xbe64ccdb	-0.22343771
43	0x3de17753	0.110090874
44	0xbedac40c	-0.42727697
45	0xbe411441	-0.18855383
46	0xbc7f8cc2	-0.015597524
47	0x3db45406	0.08805089
48	0xbd8568a9	-0.06514103
49	0x3d3ff0d8	0.046860546
50	0x3c3a76e1	0.011380882
51	0xbdb49e6d	-0.0881928
52	0x3d4dbeca	0.05023078
53	0x3ed630e6	0.41834182
54	0xbc5e06c5	-0.013551419
55	0xba3a6ef0	-0.0007111868
56	0x3d801117	0.0625326
57	0xbe8fc2d5	-0.28078333
58	0xbea1fac6	-0.31636637
59	0xbcd58b60	-0.026067436
60	0xbd18c0bc	-0.03729318
61	0x3e9f3c34	0.3110062
62	0x3e3dca7b	0.18534271
63	0x3d72954d	0.059224416
64	0x3df5dd7e	0.12005137
65	0xbe8abc2f	-0.27096698
66	0x3c546394	0.012963194
67	0x3dc83dfa	0.09777446
68	0xbda9d156	-0.08291881
69	0xbe6d9652	-0.23201874
70	0xbe49052b	-0.19630878
71	0xbd13f3e9	-0.036121283
72	0x3eb84ea3	0.35997495
73	0x3e4a6821	0.19766285
74	0x3e082221	0.13294269
75	0x3e6f983a	0.23397914
76	0xbdb6e734	-0.08930817
77	0x3e7de5ee	0.24794742
78	0xbcfced8a	-0.030874986
79	0x3e9a81a7	0.30177042
80	0xbe90c541	-0.28275493
81	0x3d0c61ff	0.034273144
82	0x3ee6d9fa	0.45088178
83	0x3e23580a	0.15951553
84	0x3d117ef2	0.035521455
85	0xbde31b55	-0.110891975
86	0x3cb78057	0.022400064
87	0xbe453286	-0.19257554
88	0x3e0130b5	0.12616237
89	0xbe1ec2df	-0.15504025
90	0xbe4f6e1b	-0.20256846
91	0x3d38ebe4	0.045146838
92	0xbe8b15ff	-0.2716522
93	0xbe32fcb9	-0.17479219
94	0xbeb5a70c	-0.3547901
95	0x3e063b07	0.13108455
96	0xbdec5a57	-0.115406685
97	0x3dc4e764	0.09614447
98	0xbdb5cb77	-0.088766985
99	0xbddf99db	-0.109180175
100	0xbedde28f	-0.43336913
101	0xbd6112d6	-0.054949604
102	0x3da83b44	0.08214429
103	0xbdddd322	-0.10831286
104	0x3e95acea	0.29233485
105	0x3def0bd9	0.11672182
106	0xbed90d6a	-0.42393047
107	0x3b374158	0.0027962532
108	0x3dce3a1e	0.10069679
109	0x3cc3abf4	0.023885705
110	0xbe1eb31f	-0.15498017
111	0xbeec65e6	-0.46171492
112	0xbe216bb3	-0.1576374
113	0x3e859c3f	0.2609577
114	0x3c36ef18	0.011165403
115	0x3f1aa884	0.60413384
116	0xbdec2bb3	-0.115317725
117	0xbc10408f	-0.0088044545
118	0xbe4d6367	-0.2005745
119	0xbec49b86	-0.38399905
120	0x3e7d9d6b	0.24767081
121	0xbc77fa8b	-0.015135418
122	0x3cd32861	0.02577609
123	0xbc9fa784	-0.019489057
124	0xbec6205b	-0.3869656
125	0x3e1cc90a	0.15311065
126	0xbdf99f82	-0.12188627
127	0x3e175613	0.14778928
128	0x3d7283aa	0.059207596
129	0x3e346a19	0.17618598
130	0xbe8813eb	-0.26577696
131	0xbcd15d27	-0.025557114
132	0x3c9319a7	0.017956568
133	0x3dde2e66	0.108486935
134	0x3e2bfa1b	0.16794626
135	0xbd2342d6	-0.03985866
136	0x3ddd0a37	0.10792964
137	0x3e549179	0.20758618
138	0xbb96b7a9	-0.0045995307
139	0x3e0e54f8	0.138996
140	0xbe3ca430	-0.18422008
141	0x3d673294	0.05644472
142	0x3e701d7c	0.23448747
143	0x3cc40493	0.023927962
144	0x3da704a7	0.08155184
145	0xbe5ddcec	-0.21666306
146	0x3e0a637b	0.13514511
147	0xbd34ad08	-0.044110328
148	0xbd24ab49	-0.040202413
149	0x3db4808c	0.08813581
150	0xbdbe2713	-0.092847966
151	0xbd68850d	-0.056767512
152	0x3e6182f2	0.22022608
153	0xbe19bb2f	-0.15012811
154	0xbe37799d	-0.17917486
155	0xbe364476	-0.17799553
156	0xbe7e2c95	-0.24821694
157	0xbd4fef70	-0.050765455
158	0xbc5f1063	-0.013614747
159	0x3e336f32	0.17522886
160	0xbe839e02	-0.25706488
161	0xbe5a2289	-0.21302237
162	0xbd03e957	-0.032204952
163	0x3e414524	0.18874031
164	0xbd9a4720	-0.07533097
165	0xbe9a38b0	-0.30121374
166	0xbd1c3d9c	-0.038144693
167	0xbeaf05d8	-0.34184146
168	0xbe026a77	-0.12735926
169	0x3e70b341	0.2350588
170	0x3e2ba83b	0.16763394
171	0xbe5a3991	-0.21311022
172	0xbdd2b6bc	-0.1028876
173	0x3e8aa0f5	0.27075925
174	0x3d249400	0.040180206
175	0x3cbe5963	0.023235982
176	0xbe12669e	-0.14296958
177	0xbe56e9dc	-0.20987648
178	0x3c18b1d5	0.009319742
179	0x3d8069b5	0.06270162
180	0xba422669	-0.0007406236
181	0x3e5b4e3d	0.21416564
182	0x3e8f57a9	0.27996567
183	0xbe16433b	-0.14674084
184	0xbe354eb7	-0.17705809
185	0xbe10ef1e	-0.14153716
186	0xbdf7bf62	-0.1209705
187	0x3e6e52a0	0.23273706
188	0xbdb7af1f	-0.089689486
189	0xbe063ff2	-0.1311033
190	0xbc430599	-0.01190319
191	0xbbab5ad6	-0.0052293343
192	0xbec9178c	-0.39275777
193	0x3ea3c2de	0.3198461
194	0xbe2cee07	-0.16887675
195	0xbe05e385	-0.13075073
196	0xbd81276b	-0.063063465
197	0x3e5e8079	0.21728696
198	0xbc59be82	-0.0132900495
199	0x3e1b9db7	0.15196882
200	0xbdeec01b	-0.11657735
201	0xbe72c5b7	-0.23708235
202	0x3eb0b0b9	0.3450983
203	0x3e9bd7ed	0.30438176
204	0xbdc72a28	-0.097248375
205	0x3eaca9b2	0.33723217
206	0xbde7c76d	-0.11317334
207	0xbe41976e	-0.18905422
208	0x3e31cca2	0.17363217
209	0xbec0633f	-0.3757572
210	0x3e8ea89b	0.2786301
211	0x3ca7df99	0.020492362
212	0xbeb094a2	-0.34488398
213	0xbda134a4	-0.078713685
214	0xbeb78078	-0.358402
215	0x3e015582	0.12630275
216	0x3e485b0a	0.19565979
217	0xbd0c479b	-0.034247976
218	0x3e9996a3	0.2999774
219	0xbe934a24	-0.28767502
220	0xbecfeef4	-0.40611994
221	0xbd36b39c	-0.044604883
222	0xbceb33a7	-0.028711153
223	0x3e397f17	0.18114887
224	0xbeba30db	-0.363654
225	0x3d32a213	0.043611597
226	0xbe1727b8	-0.14761245
227	0x3efc3820	0.4926157
228	0xbe28891e	-0.16458556
229	0xbe5ab972	-0.21359804
230	0xbd182e0a	-0.03715328
231	0x3e054c4a	0.13017383
232	0x3e85d792	0.2614103
233	0x3ddf163a	0.10892911
234	0x3d3cc8db	0.04608999
235	0xbd791bec	-0.060817644
236	0x3dcbf4b2	0.09958781
237	0xbe16441d	-0.1467442
238	0xbdbdd612	-0.09269346
239	0xbd047931	-0.03234214
240	0xbe66ad82	-0.22527125
241	0xbd9b505b	-0.07583686
242	0xbd4e12d0	-0.05031091
243	0xbdda1826	-0.10649137
244	0xbe812f12	-0.25231224
245	0x3e9cfc34	0.30661166
246	0xbe19e40f	-0.15028404
247	0xbe42737b	-0.18989365
248	0x3cdb3961	0.026760759
249	0xbd6e9458	-0.05824694
250	0x3d7a6add	0.06113707
251	0xbd26faec	-0.04076664
252	0xbe625071	-0.22100998
253	0x3e87323a	0.26405507
254	0xbebb37c2	-0.36565977
255	0x3dc5618b	0.096377455

bias f4 [20]
0	0x3d53d749	0.051718984
1	0xbca08912	-0.01959661
2	0x3c8c4268	0.017121509
3	0x3cab8ee4	0.020942159
4	0x3bc2a337	0.005939867
5	0x3d180921	0.03711808
6	0xbd5eaa49	-0.054361615
7	0xbd45c460	-0.04828298
8	0x3c98cda7	0.01865275
9	0xbd441325	-0.04786982
10	0x3db491e0	0.08816886
11	0x3c8b392b	0.016995033
12	0xbd189f41	-0.03726125
13	0xbc8c8ecf	-0.01715794
14	0xbd9ed373	-0.077551745
15	0xbd58bbb1	-0.05291337
16	0x3b04c50f	0.0020259058
17	0x3dd05cd2	0.10173954
18	0x3dac1185	0.08401779
19	0xbd909d34	-0.07061234

weight f4 [20, 20]
0	0x3e9d0ee7	0.30675432
1	0x3c8d62f8	0.017259106
2	0x3d3582e0	0.044314265
3	0x3e6f2f6e	0.23357937
4	0xbe077b92	-0.13230732
5	0xbd82aeaa	-0.06380971
6	0x3e10d214	0.14142638
7	0x3d02339e	0.031787507
8	0xbd84313a	-0.06454702
9	0x3d30b95f	0.043145534
10	0x3d0cb1c2	0.03434921
11	0x3db6b8ed	0.089219905
12	0x3e5cf529	0.21577896
13	0x3ecc032f	0.3984618
14	0xbde7f150	-0.113253236
15	0x3d997501	0.0749302
16	0x3d8b05fc	0.06788251
17	0x3e93e136	0.2888276
18	0xbd5109e0	-0.05103481
19	0xbf054882	-0.52063763
20	0x3e403145	0.18768795
21	0x3e0ab012	0.13543728
22	0xbe51ba0c	-0.20481128
23	0xbe0092fd	-0.12556072
24	0xbb8679e7	-0.0041038874
25	0x3d8bb884	0.06822303
26	0xbdcccc61	-0.0999992
27	0x3e583cb2	0.21116903
28	0x3e0d9637	0.13826834
29	0x3d899f25	0.067198075
30	0xbe3ce63a	-0.184472
31	0xbe490c17	-0.19633518
32	0x3e4e0fe8	0.20123255
33	0x3e2be9d8	0.16788423
34	0xbde97109	-0.11398513
35	0xbe867d5d	-0.2626752
36	0x3e7e7505	0.24849327
37	0xbe1adfe3	-0.15124469
38	0xbe87247a	-0.26395017
39	0x3dbaa9cf	0.0911442
40	0xbee69bb0	-0.45040655
41	0x3d2692d1	0.04066736
42	0xbe22def8	-0.15905368
43	0xbe82df9c	-0.25561225
44	0xbe9fe82c	-0.3123182
45	0xbb685fe4	-0.0035457546
46	0x3d9aab17	0.07552164
47	0xbec48d49	-0.38389042
48	0xbdfaf766	-0.12254219
49	0x3dba54cd	0.09098206
50	0xbdafb600	-0.085796356
51	0xbe9fc66c	-0.3120607
52	0xbe097ef2	-0.13427332
53	0xbe6ff3c9	-0.2343284
54	0x3ed1cf3f	0.4097843
55	0x3ea7389d	0.3266038
56	0x3de15a7b	0.11003586
57	0xbe4527a5	-0.19253404
58	0x3e7a0ec8	0.24419701
59	0x3e9ebd79	0.3100393
60	0xbea75ea2	-0.32689387
61	0x3dbef57f	0.093241684
62	0xbe6387f3	-0.2221983
63	0xbe5befaa	-0.21478143
64	0xbdc3563a	-0.09537931
65	0x3c75f909	0.015012988
66	0xbe3e53dd	-0.18586679
67	0xbe4f3833	-0.20236282
68	0xbe17361a	-0.14766732
69	0x3e96f39b	0.2948273
70	0x3ddc1224	0.107456475
71	0x3e1fc4d2	0.15602425
72	0x3d1e028d	0.03857665
73	0x3ddd1157	0.10794323
74	0x3ea03ba9	0.31295517
75	0x3e81dbf8	0.25363135
76	0xbeb7bdad	-0.358869
77	0x3d211a2b	0.039331596
78	0x3d26c0f2	0.04071135
79	0xbded53db	-0.1158826
80	0xbe22ebcb	-0.1591026
81	0xbe60a303	-0.21937184
82	0xbe027825	-0.12741144
83	0xbe23075d	-0.15920778
84	0xbee97ed3	-0.45604572
85	0xbdd3bd6c	-0.10338864
86	0xbe810021	-0.2519541
87	0xbe8f908e	-0.28039974
88	0x3dc7c916	0.09755151
89	0xbe975837	-0.2955949
90	0x3eb6a61b	0.35673603
91	0xbc9b8486	-0.01898409
92	0xbe813061	-0.25232223
93	0xbdf3adb2	-0.11898364
94	0xbce2d2e0	-0.027688444
95	0xbe131ffa	-0.14367667
96	0xbd0ddfbd	-0.0346372
97	0xbd4836d9	-0.04888043
98	0x3cc240c9	0.023712533
99	0xbe2d1e5f	-0.16906117
100	0xbde574e1	-0.112039335
101	0xbc96ea21	-0.018422188
102	0xbefe26c4	-0.4963895
103	0x3e2cfb76	0.168928
104	0xbf146be2	-0.57977116
105	0xbe8c187f	-0.2736244
106	0x3cade338	0.02122651
107	0xbe64d18d	-0.22345562
108	0x3e9a9500	0.30191803
109	0xbe0b0004	-0.13574225
110	0xbdb36108	-0.087587416
111	0x3e8e77a1	0.27825645
112	0xbe7e4c42	-0.24833778
113	0xbe34f6e6	-0.1767231
114	0xbc03e0b0	-0.008049175
115	0x3e819a70	0.2531314
116	0x3e8ffe8a	0.28123885
117	0xbd07e541	-0.033177618
118	0xbe1d0542	-0.15334037
119	0x3edc953d	0.4308261
120	0xbe0752ba	-0.13215151
121	0xbcd88c07	-0.026433958
122	0xbdcefe83	-0.10107138
123	0x3e3bac85	0.1832753
124	0x3e79f486	0.24409685
125	0xbd85f93f	-0.065416805
126	0x3e11d334	0.14240724
127	0xbe519534	-0.20467073
128	0x3e4714b6	0.19441494
129	0xbc0afff2	-0.008483874
130	0x3e1e7c28	0.1547705
131	0xbd645da3	-0.05575336
132	0xbe3840d7	-0.17993484
133	0xbd3a25d6	-0.04544624
134	0x3e8ad18e	0.27113003
135	0xbf0cd0c9	-0.5500608
136	0xbd647e29	-0.05578438
137	0xbe52947f	-0.2056446
138	0xbceb63a0	-0.028734028
139	0xbe9ca4c5	-0.3059446
140	0x3e2c08f7	0.16800295
141	0xbd39a76a	-0.045325674
142	0xbe15b255	-0.1461881
143	0x3dc41af3	0.09575453
144	0x3e6a421c	0.22876781
145	0xbd89fa67	-0.067372136
146	0xbd996833	-0.074905775
147	0xbe2361d1	-0.15955283
148	0x3deb8223	0.11499431
149	0xbcf92f4a	-0.030418057
150	0x3dfe9f50	0.1243273
151	0xbe00c274	-0.12574178
152	0x3de1ab99	0.11019058
153	0xbdb46d83	-0.0880995
154	0x3d39ddcb	0.045377534
155	0xbd977800	-0.07395935
156	0xbe197b4f	-0.14988445
157	0x3e6d1e9e	0.23156211
158	0xbea56131	-0.32300714
159	0x3e15a713	0.14614515
160	0xbe2a4854	-0.16629153
161	0xbe8f1c94	-0.2795149
162	0x3d5cc111	0.05389506
163	0x3e51a740	0.20473957
164	0x3e60cc7a	0.21953002
165	0x3e3646e1	0.17800476
166	0x3cd44a0c	0.025914215
167	0x3ebbfa1c	0.36714256
168	0x3f13f819	0.5780044
169	0x3de27d94	0.110591084
170	0xbe2b76de	-0.16744563
171	0xbe108d07	-0.14116298
172	0x3d8666a5	0.06562547
173	0xbd7f450a	-0.0623217
174	0xbd42e328	-0.047579914
175	0x3e41a6be	0.18911263
176	0x3e631f9b	0.22180025
177	0xbec6050b	-0.38675722
178	0x3e0ac7fb	0.13552849
179	0xbdf98d99	-0.12185211
180	0xbe71fc20	-0.23631334
181	0xbe9dcee5	-0.3082191
182	0xbcebc225	-0.028779099
183	0x3e920691	0.28520635
184	0x3d8e1c99	0.06939048
185	0x3de94c78	0.113915384
186	0xbcb1732d	-0.021661365
187	0xbe68d693	-0.22738104
188	0x3cd947d8	0.026523516
189	0xbdca1d33	-0.098688506
190	0x3dbe5f6c	0.09295544
191	0xbdd750d9	-0.10513467
192	0xbe7c09b1	-0.24613072
193	0xbe2da5be	-0.16957757
194	0xbe195041	-0.1497202
195	0xbee6c42f	-0.4507155
196	0x3d0dc685	0.03461315
197	0xbec9cf8a	-0.39416152
198	0xbdef1494	-0.11673847
199	0x3e2aac07	0.16667186
200	0x3ea81f07	0.32836172
201	0x3e7631e1	0.24042465
202	0x3e88248e	0.2659039
203	0x3c5c8d03	0.013461354
204	0xbd87d8aa	-0.06633122
205	0xbd8121cf	-0.063052766
206	0x3e876c92	0.2645002
207	0xbd6d23d1	-0.057895485
208	0xbdebf692	-0.11521639
209	0x3e8e61f4	0.27809107
210	0x3b34f828	0.0027613733
211	0xbea16894	-0.315251
212	0xbe994ff3	-0.2994381
213	0x3db97f6d	0.09057508
214	0xbdbb3780	-0.09141445
215	0x3e879e91	0.26488164
216	0xbd2bc572	-0.041936345
217	0xbe06cbee	-0.1316373
218	0xbb8375ab	-0.00401183
219	0xbe7613a4	-0.2403093
220	0x3ddd92bb	0.10819002
221	0x3e768350	0.24073529
222	0x3e91f4be	0.28507036
223	0x3d408415	0.047000963
224	0xbe69e264	-0.22840267
225	0x3eb36ae3	0.35042486
226	0xbb7243c8	-0.003696667
227	0xbe923a9a	-0.28560334
228	0x3e608db4	0.21929055
229	0xbe4ea442	-0.20179847
230	0x3eb829f3	0.35969505
231	0x3e50897a	0.20364943
232	0x3e87969f	0.26482102
233	0xbe9edcd1	-0.31027845
234	0xbea09b80	-0.31368637
235	0x3e92ab47	0.286463
236	0x3e6cf7cc	0.23141402
237	0xbea9378e	-0.33050197
238	0x3f1ab0f7	0.60426277
239	0xbd11b011	-0.0355683
240	0x3e2288e6	0.15872535
241	0xbd840a3c	-0.064472646
242	0x3ea8d920	0.32978153
243	0xbd81a893	-0.06330981
244	0xbe4f34c0	-0.20234966
245	0x3dccf068	0.10006791
246	0xbe798378	-0.24366558
247	0xbeabfa60	-0.33589458
248	0x3decf60b	0.115703665
249	0x3ead590a	0.33856994
250	0xbdfc346d	-0.12314687
251	0xbe3c6c52	-0.18400696
252	0x3d6a450a	0.057194747
253	0x3e1a6664	0.15078121
254	0x3e7116fd	0.23543926
255	0x3e299471	0.16560532

bias f4 [20]
0	0xbc034878	-0.008012883
1	0x3cdb9339	0.0268036
2	0xbc61a25b	-0.013771619
3	0x3af094b3	0.0018354863
4	0x3d017d00	0.03161335
5	0xbd63fb3c	-0.055659518
6	0x3d9ab692	0.07554354
7	0x3d2393b0	0.039935768
8	0x3caa6b53	0.02080313
9	0x3d441d93	0.047879767
10	0xbc772738	-0.015085034
11	0x3cd0f5b4	0.025507785
12	0xbd2015fa	-0.03908346
13	0x3bb5e406	0.005550864
14	0x3d8196b7	0.06327575
15	0xbdd941aa	-0.106082276
16	0xbdb54cc4	-0.088525325
17	0x3d4663b9	0.048434947
18	0x3d1d3035	0.038376052
19	0x3c109f9d	0.008827117

weight f4 [20, 20]
0	0xbcbc77d5	-0.02300636
1	0x3d9d9071	0.07693566
2	0xbecb4858	-0.3970363
3	0xbdea8603	-0.11451342
4	0xbd70bd9c	-0.058774576
5	0xbdb51e13	-0.08843627
6	0x3e8bc984	0.27302182
7	0xbd899286	-0.067174
8	0x3e8fb037	0.2806413
9	0x3e80d1e9	0.2516015
10	0x3dd252b4	0.102696806
11	0xbe10996b	-0.14121024
12	0x3cb515f1	0.022105189
13	0x3c958796	0.018253129
14	0xbe6ff05d	-0.23431535
15	0x3e541e01	0.2071457
16	0xbecc0f8d	-0.39855614
17	0x3ed8fea5	0.42381778
18	0xbdae3d53	-0.085077904
19	0xbce1b980	-0.027554274
20	0x3e368cf2	0.17827204
21	0x3f00a0bf	0.5024528
22	0x3e045f40	0.1292696
23	0x3e28d509	0.16487516
24	0xbe89ef9e	-0.26940626
25	0x3dbf8619	0.09351749
26	0xbe8de121	-0.27710822
27	0xbe664bf0	-0.22489905
28	0x3e8691fc	0.26283252
29	0x3dcb8724	0.099378854
30	0x3e3fba07	0.18723308
31	0xbe404992	-0.18778065
32	0xbe59f654	-0.21285373
33	0xbdc43934	-0.09581223
34	0xbd58fcf6	-0.052975617
35	0x3e22b35f	0.15888737
36	0x3eb9756d	0.362224
37	0x3d9fae69	0.07796938
38	0x3de77c14	0.11302963
39	0x3cb88439	0.022523986
40	0xbebe24dd	-0.371375
41	0xbddecab1	-0.10878504
42	0x3f0264e1	0.5093518
43	0x3e48a258	0.19593179
44	0x3c7f715e	0.015590994
45	0x3d242e10	0.04008299
46	0xbdf5890f	-0.119890325
47	0x3e1b967e	0.15194127
48	0x3e1a52e8	0.15070689
49	0x3d875a37	0.06609004
50	0x3d272086	0.0408025
51	0x3e152371	0.14564301
52	0xbec356dc	-0.38152206
53	0x3d7b9391	0.061420027
54	0x3ead480f	0.3384404
55	0x3f08afe8	0.5339341
56	0x3dd1b29d	0.10239146
57	0x3d3ba218	0.04580888
58	0xbe821fd2	-0.25414902
59	0x3da51c67	0.08062058
60	0x3dfed91e	0.124437556
61	0x3db0679c	0.08613512
62	0x3e8ef1f2	0.27918965
63	0xbeba33a9	-0.3636754
64	0xbd81718c	-0.063204855
65	0xbe3d1a8d	-0.1846716
66	0xbeb7ec5c	-0.35922515
67	0xbd7577ff	-0.05992889
68	0x3c255791	0.010091678
69	0x3e8b599e	0.2721681
70	0xbe4db1f1	-0.2008741
71	0x3e9ed335	0.31020513
72	0xbd1495b7	-0.03627559
73	0x3e14e662	0.14541009
74	0x3de8ac2b	0.113609634
75	0x3dab2d16	0.08358209
76	0x3ea3dfda	0.32006723
77	0xbdc0975e	-0.09403871
78	0xbe201221	-0.15631916
79	0xbedc56f6	-0.43035096
80	0x3e2ee261	0.17078544
81	0x3b23fb1b	0.0025021497
82	0x3e3683cf	0.17823718
83	0x3e4bcae3	0.19901614
84	0x3f498623	0.787203
85	0xbd0177d7	-0.03160843
86	0x3ea2a713	0.31768093
87	0x3e34394c	0.17599982
88	0x3deb97a3	0.11503532
89	0x3decaad5	0.11556021
90	0xbe89304a	-0.26794654
91	0x3df5e4c5	0.12006525
92	0xbe811e07	-0.25218222
93	0x3dad14fb	0.08451267
94	0x3dfcaf51	0.123381265
95	0xbf016c60	-0.5055599
96	0xbe61d754	-0.22054797
97	0x3d58e80f	0.052955683
98	0x3e384865	0.17996366
99	0x3e8f45c3	0.2798291
100	0x3e33e31d	0.17567106
101	0xbe34542f	-0.17610238
102	0xbe745962	-0.23862222
103	0xbe590221	-0.21192218
104	0xbec6961c	-0.387864
105	0x3e3b2a17	0.18277775
106	0x3e96de8a	0.2946666
107	0x3f204f34	0.62620854
108	0xbe8b5177	-0.2721059
109	0xbe7b5a20	-0.24546099
110	0x3ea5bf60	0.3237257
111	0x3e229660	0.15877676
112	0xbed35623	-0.41276655
113	0x3e90d6ec	0.28288972
114	0xbd24523b	-0.040117484
115	0x3dd98be6	0.10622387
116	0xbe0a1cad	-0.13487501
117	0xbd6a2f7e	-0.0571742
118	0xbbc624c4	-0.0060468633
119	0x3ea00d0f	0.31259963
120	0xbecdd8f5	-0.40204588
121	0x3e1e3547	0.15450011
122	0xbe263b24	-0.16233498
123	0xbe32842f	-0.17433237
124	0x3c9f4de5	0.019446323
125	0x3e5724cb	0.21010129
126	0xbe2243bc	-0.15846151
127	0xbe0341ac	-0.1281802
128	0xbd82d115	-0.063875355
129	0xbef9fac8	-0.48824143
130	0x3e085311	0.13312937
131	0xbe39ea73	-0.18155842
132	0xb93d0c50	-0.00018029031
133	0xbe72df12	-0.23717907
134	0xbe10c8e2	-0.1413913
135	0xbe8edef1	-0.27904466
136	0xbe8678d9	-0.26264074
137	0xbd4f86d3	-0.050665688
138	0x3e71cfe6	0.23614463
139	0xbda1dff2	-0.07904042
140	0x3edeccb9	0.43515566
141	0xbea70fad	-0.32629147
142	0xbbeea693	-0.007283041
143	0x3e3a1086	0.18170366
144	0xbe8287d8	-0.25494266
145	0x3d887cec	0.06664452
146	0x3d6858ae	0.056725197
147	0xbe14edde	-0.14543864
148	0xbe3e1362	-0.18562081
149	0xbe07ceed	-0.1326253
150	0xbc312818	-0.010812782
151	0xbe6b7b08	-0.22996151
152	0xbdbee144	-0.0932031
153	0x3e60f81c	0.21969646
154	0xbdb1639f	-0.08661579
155	0x3e123f61	0.1428199
156	0x3daefb5e	0.08544038
157	0x3e0f5a83	0.13999371
158	0xbe270cb8	-0.16313446
159	0xbe13ce9b	-0.14434282
160	0xbdcf876e	-0.10133253
161	0xbd9acf53	-0.07559075
162	0xbd62951e	-0.05531799
163	0x3d32b067	0.04362526
164	0xbd8ebf32	-0.06970061
165	0xbd683d8e	-0.056699328
166	0x3e6aeea5	0.22942598
167	0xbd39eb59	-0.04539046
168	0x3d8a2a3e	0.06746338
169	0x3e49b1b5	0.19696696
170	0xbd9ddfce	-0.07708703
171	0x3dbc4069	0.09191973
172	0xbd05c4d3	-0.03265841
173	0x3e4cd263	0.20002131
174	0x3d547623	0.051870476
175	0xbee63ac7	-0.4496672
176	0xbe29ba44	-0.16574961
177	0x3d3306bd	0.043707598
178	0xbdc478c5	-0.095933475
179	0xbe9e4767	-0.3091385
180	0x3e8049ad	0.2505621
181	0x3eac1c67	0.3361542
182	0xbe9f49bc	-0.31110942
183	0xbec27235	-0.37977758
184	0x3de7eecc	0.11324844
185	0x3e398ef7	0.18120943
186	0x3e58db39	0.21177377
187	0x3e99392e	0.29926437
188	0xbe2afe84	-0.16698653
189	0xbe30fab5	-0.17283137
190	0xbe5cc3dc	-0.2155909
191	0xbc8e8c26	-0.017400812
192	0x3e11e6d1	0.14248206
193	0xbd5cfeeb	-0.053954046
194	0x3e487dcf	0.19579242
195	0x3e92bdb9	0.28660372
196	0x3dd2e671	0.102978595
197	0x3d941db5	0.07232229
198	0x3e11e783	0.14248471
199	0xbe08bd49	-0.13353457
200	0x3de4f2cc	0.11179122
201	0xbe9380d4	-0.28809226
202	0xbe4ff049	-0.20306505
203	0xbde9414f	-0.1138941
204	0x3e759815	0.23983796
205	0xbe9dbfdb	-0.30810437
206	0xbce39d8f	-0.02778509
207	0x3e0bb764	0.13644177
208	0x3e2991d3	0.16559534
209	0x3d28d942	0.04122282
210	0xbe20a35f	-0.15687321
211	0xbec42200	-0.3830719
212	0x3dd43b67	0.103628926
213	0xbe6e5001	-0.23272707
214	0x3e50fda0	0.2040925
215	0xbc7d1d62	-0.0154489
216	0xbb7f37fc	-0.0038943281
217	0xbe5ef719	-0.21773948
218	0x3eded6ca	0.43523246
219	0x3ded652c	0.11591563
220	0x3decec5e	0.11568521
221	0xbdf197b5	-0.11796514
222	0x3e844db2	0.25840527
223	0xbdcd77a9	-0.10032589
224	0x3e10a287	0.141245
225	0xbdfb3e18	-0.12267703
226	0xbdb124b0	-0.08649576
227	0xbd0ad8fb	-0.033898335
228	0x3e28e61f	0.16494034
229	0x3d79dd7d	0.061002243
230	0x3e949c10	0.29025316
231	0xbd61d9c8	-0.055139333
232	0x3d6dc306	0.058047317
233	0xbe449134	-0.19196016
234	0xbdb25a77	-0.08708661
235	0xbe8ba73d	-0.2727603
236	0xbe495c4b	-0.19664113
237	0x3d44299c	0.047891244
238	0x3e9093d2	0.28237778
239	0x3e0f7728	0.14010298
240	0xbe852c96	-0.2601058
241	0x3d1c72f1	0.038195554
242	0x3ea1033c	0.3144778
243	0x3dc0a578	0.09406561
244	0x3e3b4ff8	0.18292224
245	0x3e8d9abd	0.27657118
246	0x3e07b533	0.13252716
247	0xbba3af9d	-0.0049953
248	0xbed655b9	-0.41862276
249	0xbee74f77	-0.45177814
250	0xbc70591a	-0.014669681
251	0xbcd225d9	-0.025652813
252	0x3e634eb6	0.22197995
253	0xbe40ba72	-0.18821123
254	0x3d529bcc	0.05141811
255	0x3d9a639a	0.07538529

bias f4 [20]
0	0x3d74904d	0.05970793
1	0xbcafd667	-0.02146454
2	0xbd69c7dd	-0.05707537
3	0xbd22009b	-0.03955136
4	0x3d76e014	0.06027229
5	0x3d1efda3	0.038816106
6	0x3cd7a133	0.026321983
7	0x39836795	0.00025063442
8	0x3d0277e9	0.031852636
9	0xbb11af78	-0.0022229832
10	0x3d33a45a	0.04385791
11	0x3d56fef3	0.052489232
12	0xbd8dff13	-0.06933417
13	0x3d0a3099	0.033737753
14	0xbc70ccda	-0.014697278
15	0x3dd1f665	0.10252074
16	0xbcba3e51	-0.022734793
17	0x3d509109	0.050919566
18	0x3c50a641	0.0127349505
19	0xbbb5ceb7	-0.005548324
