Models/Noise_0/toy_stop/internal_o3_400.pt (torch, 63327 bytes, 23 tensors)

weight f4 [20, 2]
-0.1536181 -0.0031700367 -0.500542 0.24557865 -0.44381833 -0.32013205 0.17767584 0.6062171
-0.10101514 -0.3170156 0.6161166 -0.25261375 0.2606796 -0.114582784 0.037598852 -0.32667926
-0.3726409 0.26825503 -0.08461345 -0.14547685 -0.05298569 0.14692481 0.032812223 0.14588174
-0.18473732 -0.48460808 -0.08928081 -0.13063657 -0.15811048 -0.51673925 0.68211424 -0.20836411
0.17054103 -1.2214447 -0.8168198 -0.25333026 -0.16087912 -0.11097406 -0.36222753 0.11299378
00000000: 104e 1dbe 64c0 4fbb 8523 00bf f878 7b3e
00000010: 283c e3be 59e8 a3be a8f0 353e 0b31 1b3f
00000020: 07e1 cebd de4f a2be d1b9 1d3f 9756 81be
00000030: cc77 853e 61aa eabd 4101 1a3d 8142 a7be
00000040: caca bebe b958 893e d149 adbd e2f7 14be
00000050: 8607 59bd 7573 163e 1c66 063d 0662 153e
00000060: c82b 3dbe 8d1e f8be dbd8 b6bd 98c5 05be
00000070: b7e7 21be 0649 04bf 0a9f 2e3f 675d 55be
00000080: 4fa2 2e3e 4d58 9cbf 1a1b 51bf 81b4 81be
00000090: 7fbd 24be 5e46 e3bd e375 b9be 4869 e73d

bias f4 [20]
-0.20573124 -0.13461667 -0.21499616 -0.19504426 0.14211996 0.18533157 0.34040192 -0.113477424
0.014468988 0.0931503 -0.078149736 0.07892918 -0.10506586 0.044552445 0.12482909 -0.043873426
-0.21711364 -0.25217456 -0.08531005 -0.3021018
00000000: 36ab 52be f4d8 09be f427 5cbe afb9 47be
00000010: e587 113e 8fc7 3d3e 2949 ae3e da66 e8bd
00000020: 560f 6d3c 96c5 be3d f80c a0bd 9fa5 a13d
00000030: c52c d7bd a07c 363d 65a6 ff3d 9fb4 33bd
00000040: 0a53 5ebe 061d 81be 09b7 aebd 16ad 9abe

weight f4 [20, 20]
0.21012302 0.14538783 -0.1741131 -0.1247344 0.16692749 -0.047096226 0.23808423 0.13850042
0.24892305 0.42426804 0.31360215 0.0383063 0.25189757 0.24023432 0.50947696 -0.33391693
-0.17417511 -0.15024422 -0.13838868 0.052133467 0.2835202 0.16265868 0.06819707 -0.10088491
-0.111033134 -0.48895922 -0.38891977 -0.20713757 0.15388459 0.03667773 -0.058406934 -0.08575861
-0.15778984 0.18542038 -0.21624814 0.09741183 -0.013756322 0.25976366 0.043695904 0.0053934716
0.304717 0.114437684 -0.2353741 -0.5886175 0.67169696 -0.044393953 -0.046605118 0.27549994
0.15448362 -0.23855728 -0.21347162 0.17714684 -0.23930167 -0.0008711353 0.05395124 -0.04859846
0.20500113 -0.06533167 0.038436685 -0.48021087 0.21435654 0.06629064 -0.24255635 0.23950197
0.12305966 0.2002321 -0.31811514 0.09457155 -0.0765337 0.07046022 0.099516705 0.18651094
0.32746303 -0.028871836 0.055481482 -0.0039747823 -0.29124594 -0.010034228 0.20575595 0.2406659
0.33833098 0.018364081 0.05058467 0.1803136 -0.32335648 -0.25681397 0.12366552 0.32602564
-0.017406194 -0.09314082 0.13429789 -0.019765139 -0.10928114 -0.16914737 -0.17629866 0.20322564
-0.49679998 0.04683696 0.026459225 0.27671337 -0.060254138 0.12643914 0.3792569 -0.15898055
0.1888978 0.2583499 -0.1748843 -0.09166173 -0.018394832 -0.20148575 0.081242256 -0.09716817
-0.17270923 -0.21522805 0.6404313 0.043474216 -0.1850635 0.19281568 0.19388694 0.30956924
-0.42507282 -0.0620159 -0.015991086 0.028453121 -0.13830826 -0.49493173 0.19376332 0.04778868
0.27511582 -0.28195462 0.16225728 -0.13401984 0.03003439 -0.052378416 0.24745554 0.12937135
-0.09245906 -0.28406385 0.068354055 -0.18192787 0.18782903 0.4811775 0.16926846 0.11453796
0.24451521 0.09118889 -0.43979624 0.023569271 0.07665312 -0.07793321 0.10184098 0.17051163
0.23957549 -0.32823643 -0.0069994475 -0.25667152 -0.25911778 -0.10882777 -0.17494895 0.26569036
0.11340038 -0.2318539 -0.10064099 0.24902047 -0.27080742 0.34213912 -0.27015436 -0.048753858
-0.27794704 -0.20527002 0.12578432 0.13204706 0.14099652 -0.18695816 0.08702962 0.54434377
0.438209 0.07875891 0.162033 -0.18029065 0.09527021 0.012924717 0.28293145 0.14584403
0.48010528 0.2885051 0.14690484 0.15179127 0.44354966 0.121683694 0.09849398 -0.2589489
-0.08275195 0.22464296 -0.14484568 -0.0013478958 0.33558849 -0.11221834 -0.20388332 0.028030379
-0.004413143 0.2510679 -0.3008014 0.410939 -0.34172732 -0.280041 -0.23763111 -0.18971558
0.6424953 -0.5552787 -0.0034395864 -0.098009944 -0.51971734 -0.2460318 -0.10383753 0.053997204
-0.6020512 0.07871354 0.19914027 -0.2243336 -0.426494 0.13737382 0.23598638 0.25000414
-0.112893805 0.09796353 0.01343883 -0.15755138 -0.20122448 0.294598 0.09202961 0.49018562
-0.084729835 -0.16321951 0.24500574 -0.16456392 0.009456834 0.013015158 0.22188124 0.011104195
-0.3129474 0.16899046 0.27436608 -0.121818356 -0.29598293 0.28253105 0.0145660965 -0.17837343
0.14240016 0.2608417 -0.123710155 0.2452122 0.2206375 -0.0280891 -0.015358794 0.013701654
00000000: 7d2a 573e 8ce0 143e b44a 32be c074 ffbd
00000010: 0aef 2a3e f9e7 40bd 5acc 733e 0ed3 0d3e
00000020: afe5 7e3e a939 d93e 7690 a03e 11e7 1c3d
00000030: b8f8 803e fcff 753e 156d 023f 29f7 aabe
00000040: f65a 32be 9fd9 19be c3b5 0dbe e789 553d
00000050: 8f29 913e ff8f 263e e8aa 8b3d bf9c cebd
00000060: 5765 e3bd dd58 fabe 7e20 c7be df1b 54be
00000070: ec93 1d3e 633b 163d 1c3c 6fbd 36a2 afbd
00000080: a993 21be d7de 3d3e 2770 5dbe db7f c73d
00000090: 3262 61bc beff 843e 7afa 323d b8bb b03b
000000a0: de03 9c3e 4e5e ea3d e805 71be a3af 16bf
000000b0: 55f4 2b3f 6fd6 35bd 02e5 3ebd 540e 8d3e
000000c0: f430 1e3e 5c48 74be 4e98 5abe fb65 353e
000000d0: 7f0b 75be e65c 64ba fafb 5c3d 2e0f 47bd
000000e0: d1eb 513e 9ccc 85bd c96f 1d3d 33de f5be
000000f0: 4880 5b3e 63c3 873d b160 78be 0140 753e
00000100: b406 fc3d a509 4d3e fddf a2be bbae c13d
00000110: b3bd 9cbd 734d 903d 6acf cb3d b9fc 3e3e
00000120: 3ca9 a73e a184 ecbc 8d40 633d e43e 82bb
00000130: 301e 95be 9a66 24bc b0b1 523e 1f71 763e
00000140: b839 ad3e 4570 963c df31 4f3d 21a4 383e
00000150: fb8e a5be 1f7d 83be 5944 fd3d d5ec a63e
00000160: 6f97 8ebc 9dc0 bebd 6385 093e 80ea a1bc
00000170: cace dfbd f834 2dbe a387 34be 621a 503e
00000180: 915c febe 1dd8 3f3d 04c1 d83c 60ad 8d3e
00000190: 0bcd 76bd 4379 013e f62d c23e cccb 22be
000001a0: 6d6e 413e 7046 843e df14 33be 25b9 bbbd
000001b0: c2b0 96bc 4852 4ebe 5762 a63d 1b00 c7bd
000001c0: b0da 30be be64 5cbe 4ef3 233f 0512 323d
000001d0: 4981 3dbe 7971 453e 4c8a 463e dc7f 9e3e
000001e0: 25a3 d9be 6204 7ebd bdff 82bc 8516 e93c
000001f0: aea0 0dbe b167 fdbe e469 463e 10be 433d
00000200: fbdb 8c3e 5b5c 90be c626 263e 7f3c 09be
00000210: ae0a f63c c08a 56bd fc64 7d3e ec79 043e
00000220: 2d5b bdbd d170 91be 36fd 8b3d 4d4b 3abe
00000230: 4156 403e e65c f63e b654 2d3e e192 ea3d
00000240: 3262 7a3e 3ec1 ba3d f92c e1be 5814 c13c
00000250: 50fc 9c3d 729b 9fbd 0192 d03d 9a9a 2e3e
00000260: 4753 753e 9b0e a8be 9f5b e5bb 736a 83be
00000270: 16ab 84be 18e1 debd d125 33be 9108 883e
00000280: 753e e83d 1c6b 6dbe dd1c cebd 39ff 7e3e
00000290: 45a7 8abe dc2c af3e ac51 8abe 20b2 47bd
000002a0: 134f 8ebe 4e32 52be 9bcd 003e 5837 073e
000002b0: 6461 103e f671 3fbe 963c b23d 1d5a 0b3f
000002c0: ee5c e03e 5a4c a13d fbeb 253e 1d9e 38be
000002d0: 071d c33d 31c2 533c 64dc 903e 2358 153e
000002e0: 5cd0 f53e f1b6 933e 396e 163e 2c6f 1b3e
000002f0: f118 e33e 4d35 f93d 36b7 c93d f394 84be
00000300: db79 a9bd ce08 663e 6d52 14be e1ab b0ba
00000310: 41d2 ab3e bbd2 e5bd cac6 50be f79f e53c
00000320: 209c 90bb f98b 803e a402 9abe 9966 d23e
00000330: e2f6 aebe 8961 8fbe 9255 73be cd44 42be
00000340: 927a 243f bf26 0ebf af6a 61bb 70b9 c8bd
00000350: 320c 05bf c3ef 7bbe c5a8 d4bd 2c2c 5d3d
00000360: 0720 1abf 9134 a13d 6deb 4b3e b5b7 65be
00000370: 6c5d dabe b9ab 0c3e 6aa6 713e 8b00 803e
00000380: de34 e7bd 1aa1 c83d 8a2e 5c3c 2655 21be
00000390: ca0d 4ebe 8dd5 963e 057a bc3d 9cf9 fa3e
000003a0: d686 adbd 0423 27be c9e2 7a3e 7283 28be
000003b0: d6f0 1a3c 873d 553c d634 633e 5fee 353c
000003c0: a43a a0be d60b 2d3e b679 8c3e e77b f9bd
000003d0: 138b 97be e9a7 903e a3a6 6e3c 86a7 36be
000003e0: 59d1 113e 0b8d 853e c05b fdbd e818 7b3e
000003f0: ccee 613e 1d1b e6bc 73a3 7bbc e77c 603c

bias f4 [20]
0.266251 -0.24312784 0.19618809 -0.06177196 -0.18596314 -0.19616438 0.025192773 -0.046639297
-0.117322534 0.020826612 0.15715271 0.11331433 -0.04984815 0.11365197 -0.11831903 -0.014075649
-0.027889956 -0.11415718 -0.21669978 -0.018337455
00000000: 0d52 883e 81f6 78be 88e5 483e 9804 7dbd
00000010: 1f6d 3ebe 51df 48be 1361 ce3c d908 3fbd
00000020: cc46 f0bd 929c aa3c a4ec 203e 5811 e83d
00000030: 932d 4cbd 5dc2 e83d 3f51 f2bd 8d9d 66bc
00000040: 7a79 e4bc 3dcb e9bd 8ce6 5dbe 6e38 96bc

weight f4 [20, 20]
0.30568328 -0.21150205 0.13866049 0.14709795 -0.16761903 -0.117759444 0.13018055 0.33788145
-0.7149089 0.19072117 0.10282236 0.3183541 0.16744088 0.14711428 0.25013524 -0.22939542
0.37449884 -0.12596968 0.22288875 -0.30228567 0.28650495 0.02081141 0.08520623 -0.018752372
0.047375288 0.25041583 0.21718456 -0.2735504 -0.12785876 0.1828505 -0.25028604 0.3443098
-0.057564847 0.0017721421 -0.09907569 0.32387766 -0.035331927 0.38373548 0.36659503 -0.010802864
-0.29150173 -0.045130633 -0.029147528 -0.25434688 0.24560489 0.11256643 0.2679291 0.014981102
0.18023928 0.2204309 -0.12870517 -0.2081191 -0.14800933 0.08783745 0.049447544 0.28572246
0.24972488 0.01480525 -0.2932931 0.09052219 0.36658764 0.089576215 -0.12146345 -0.16217142
-0.27053574 -0.28648308 -0.5739818 -0.5083338 -0.29518625 -0.20473142 -0.08913669 0.0344931
-0.16705264 0.026986647 -0.14151704 0.10799112 -0.037003096 -0.19568035 0.13651672 0.42110437
0.2919611 -0.106747285 0.09941611 -0.02176015 0.16765462 -0.30239725 -0.20422314 -0.19194004
0.14372922 0.06113339 -0.57322955 -0.31371304 -0.09702033 -0.58893555 0.5164953 0.0952906
-0.100807115 -0.23669475 0.3380751 0.24293563 -0.22698879 -0.12573989 0.035004273 -0.1762107
-0.29724154 -0.037605792 0.0042686146 -0.39893186 0.15601926 0.047836848 -0.5209682 -0.09480102
0.38878205 0.13875522 0.48979035 -0.0012871558 0.17396034 0.22558196 0.20259415 -0.41987702
0.26237032 -0.056781046 0.045641027 0.2509617 0.050557584 -0.05961181 -0.18599132 0.23035628
-0.05523464 0.05679521 0.21436775 0.12357338 -0.18794894 0.32165983 -0.20997344 0.24440892
0.2054436 -0.6221558 -0.26095766 0.08452246 -0.12918517 0.221674 -0.09664693 0.22081049
0.0161076 -0.049958196 -0.18175851 0.31069845 0.36062816 0.098844506 0.19531362 -0.13618903
-0.10088801 -0.089370154 0.090282746 0.1619443 -0.19969648 0.35387233 0.028837742 0.03550089
-0.096646324 -0.13983604 -0.25319076 0.44566706 0.2319767 0.15723142 0.008558584 -0.01180271
0.23590332 0.05231339 0.012259161 0.2865881 -0.260743 -0.33475095 0.2528442 -0.0654388
-0.06049212 -0.19096318 0.2738304 -0.2711665 0.4484037 -0.14662734 -0.29483938 -0.024166293
-0.14546719 0.30479535 -0.30205834 0.1670445 0.02324217 0.008712022 0.16951506 0.16721904
-0.09304973 -0.021154493 -0.118448935 0.27976254 -0.013785258 0.09275853 0.08962428 -0.2320348
0.25576264 0.018294377 0.22784251 -0.055590358 -0.01581117 0.07075313 0.06806673 -0.161421
-0.23684132 0.18373765 -0.2385315 0.16476172 -0.016562467 0.20614105 -0.4208984 0.19006094
0.11734054 -0.36800632 -0.07467755 -0.2442153 -0.035561517 0.15546644 -0.19618534 -0.19135001
0.2889825 -0.27643505 0.059528597 -0.054656632 -0.30607492 0.12585263 -0.079345025 -0.068375304
0.2776002 0.31011418 0.032772448 0.22758809 0.0046528564 0.631555 -0.18211609 0.010302908
-0.3300477 0.19580011 -0.3003168 0.06307027 0.31177986 -0.34353843 0.026035221 0.35794324
0.00017262275 0.0073273606 0.23809035 -0.11010499 -0.29960063 -0.41226295 0.20494683 -0.8213874
00000000: 8582 9c3e fe93 58be 04fd 0d3e d8a0 163e
00000010: 53a4 2bbe dd2b f1bd 0d4e 053e ccfe ac3e
00000020: 4504 37bf 694c 433e 8894 d23d 4fff a23e
00000030: 9f75 2b3e 20a5 163e ba11 803e a2e6 6abe
00000040: 50be bf3e 32fe 00be f33c 643e 30c5 9abe
00000050: c7b0 923e b17c aa3c 9b80 ae3d 939e 99bc
00000060: 970c 423d 8136 803e a165 5e3e cc0e 8cbe
00000070: 68ed 02be 293d 3b3e 7e25 80be 6049 b03e
00000080: 1ec9 6bbd 3947 e83a 32e8 cabd 4bd3 a53e
00000090: 36b8 10bd fa78 c43e 58b2 bb3e 7ffe 30bc
000000a0: b73f 95be e6da 38bd ccc6 eebc c139 82be
000000b0: d97f 7b3e 3a89 e63d 012e 893e 4c73 753c
000000c0: a590 383e a3b8 613e 4acb 03be 2c1d 55be
000000d0: c28f 17be 1fe4 b33d 8289 4a3d 374a 923e
000000e0: e1b7 7f3e b891 723c 832a 96be b363 b93d
000000f0: 60b1 bb3e bc73 b73d d4c1 f8bd 4410 26be
00000100: a983 8abe e9ad 92be 79f0 12bf 2a22 02bf
00000110: a722 97be 1da5 51be 4c8d b6bd a348 0d3d
00000120: d90f 2bbe 1a13 dd3c d8e9 10be 732a dd3d
00000130: 8f90 17bd 6e60 48be 0acb 0b3e fe9a d73e
00000140: ed7b 953e 529e dabd ac9a cb3d 5842 b2bc
00000150: a7ad 2b3e d0d3 9abe df1f 51be ee8b 44be
00000160: c12d 133e 0167 7a3d 2cbf 12bf ff9e a0be
00000170: 98b2 c6bd 7bc4 16bf 0939 043f b827 c33d
00000180: f673 cebd 1c60 72be 2e18 ad3e 1ec4 783e
00000190: c06f 68be f5c1 00be a460 0f3d 9470 34be
000001a0: 0b30 98be 8808 1abd bcdf 8b3b cc40 ccbe
000001b0: 83c3 1f3e 92f0 433d 2c5e 05bf 0a27 c2bd
000001c0: 710e c73e d915 0e3e cdc5 fa3e c8b5 a8ba
000001d0: a922 323e f5fe 663e d774 4f3e 1ffa d6be
000001e0: 6755 863e 3e93 68bd 16f2 3a3d 0d7e 803e
000001f0: 7815 4f3d 832b 74bd 8274 3ebe 84e2 6b3e
00000200: b83d 62bd 18a2 683d 3883 5b3e 0a14 fd3d
00000210: b075 40be 99b0 a43e 4703 57be 5546 7a3e
00000220: cf5f 523e 9a45 1fbf 3e9c 85be 1d1a ad3d
00000230: 1e49 04be 82fe 623e d3ee c5bd 251c 623e
00000240: 16f4 833c f7a0 4cbd e71e 3abe de13 9f3e
00000250: 41a4 b83e fd6e ca3d 4b00 483e 2375 0bbe
00000260: 5f9e cebd b307 b7bd 29e6 b83d bad4 253e
00000270: 3c7d 4cbe c12e b53e 213d ec3c 6269 113d
00000280: 82ee c5bd 2e31 0fbe 38a2 81be 792e e43e
00000290: 4d8b 6d3e 4601 213e 4e39 0c3c 2760 41bc
000002a0: a490 713e 9146 563d a6da 483c adbb 923e
000002b0: 1b80 85be 7a64 abbe cc74 813e c704 86bd
000002c0: 96c6 77bd da8b 43be 8033 8c3e 56d6 8abe
000002d0: 2b95 e53e 7a25 16be 30f5 96be 64f8 c5bc
000002e0: 5af5 14be 230e 9c3e 64a7 9abe b70d 2b3e
000002f0: 5d66 be3c debc 0e3c 5b95 2d3e 783b 2b3e
00000300: db90 bebd 304c adbc 5b95 f2bd 093d 8f3e
00000310: 90db 61bc 2ff8 bd3d ef8c b73d 889a 6dbe
00000320: 52f3 823e 17de 953c 8c4f 693e b7b2 63bd
00000330: 6d86 81bc 04e7 903d 9266 8b3d 8c4b 25be
00000340: 8886 72be b925 3c3e 9a41 74be 4cb7 283e
00000350: 03ae 87bc a416 533e ff7f d7be 569f 423e
00000360: 3d50 f03d 536b bcbe 8bf0 98bd 9313 7abe
00000370: f4a8 11bd 9832 1f3e cfe4 48be 42f1 43be
00000380: 84f5 933e e588 8dbe 42d4 733d a2df 5fbd
00000390: dab5 9cbe 83df 003e a57f a2bd 5a08 8cbd
000003a0: 9d21 8e3e 49c7 9e3e 673c 063d da0c 693e
000003b0: fd76 983b 97ad 213f a47c 3abe 87cd 283c
000003c0: 03fc a8be d37f 483e 20c3 99be fc2a 813d
000003d0: 9ca1 9f3e 45e4 afbe d147 d53c 5644 b73e
000003e0: 1102 3539 5b1a f03b f5cd 733e ba7e e1bd
000003f0: 4165 99be 2114 d3be 95dd 513e 7246 52bf

bias f4 [20]
0.14356738 0.06846633 -0.061042123 0.18195221 -0.15371832 -0.21732675 0.00083432253 -0.040573753
-0.0060453517 -0.09075536 0.15746377 -0.013065813 -0.0016355166 0.042085193 -0.08655627 -0.1974143
-0.0990263 0.016843075 -0.11469087 -0.19232526
00000000: 5403 133e 1338 8c3d 4e07 7abd ae51 3a3e
00000010: 5668 1dbe e78a 5ebe 70b6 5a3a aa30 26bd
00000020: 1618 c6bb f2dd b9bd 2f3e 213e fe11 56bc
00000030: d55e d6ba 8661 2c3d 6a44 b1bd f926 4abe
00000040: 4dce cabd 7dfa 893c 0ce3 eabd eaf0 44be

weight f4 [20, 20]
-0.023140416 0.119088285 0.36472753 -0.16844945 0.52258843 0.0035566408 0.3397527 -0.2382158
0.23103572 0.03495879 0.14547819 0.02414425 0.063621566 0.28139356 -0.13414869 0.15686731
0.1973363 0.38194868 0.27880752 -0.047215898 -0.04284733 0.0655119 -0.12252118 0.013144416
0.2279156 0.47915614 0.27870733 -0.0076767 -0.17283191 0.04454246 -0.28488943 -0.19589086
-0.38190398 0.53436553 -0.3128815 -0.39852142 0.2898886 0.18862367 -0.2229814 0.11309861
-0.48469305 -0.30159128 0.24610636 -0.13631296 -0.41895798 0.2556163 -0.4946707 0.28440747
0.20467588 0.5451263 -0.20613076 -0.08904406 -0.15244569 0.0034718076 0.18595164 -0.39276317
-0.1914526 0.46839473 0.07715322 0.3712418 -0.09574179 -0.02743393 -0.13848725 0.19239184
-0.003430466 -0.1024111 0.15077953 0.14697042 0.00553393 0.19146305 0.3035905 -0.5221
0.053224508 0.31253687 -0.05258048 0.038052656 -0.24424668 0.5267551 0.05583079 -0.5557182
0.2787531 -0.30859488 -0.23331974 -0.04152534 0.221107 0.24227227 -0.099495634 -0.012218397
-0.016605247 -0.31831253 0.1381672 0.0007956142 0.16577528 0.28487942 -0.24223275 -0.15989685
-0.1602663 -0.28988472 -0.54865324 -0.07746224 0.11766135 -0.02127456 -0.0056830356 0.22607628
0.30670547 -0.08366619 -0.24013883 -0.1379478 0.21501271 0.055991594 -0.13932186 -0.3407826
0.015034924 0.18897007 -0.47511035 0.17239822 -0.33430526 -0.03697256 0.2767573 0.09637063
-0.22111824 0.3257039 0.106632054 -0.26759127 -0.4525753 0.33059072 0.032583114 0.055138957
-0.16547614 0.26606542 -0.279744 -0.38723868 0.2920028 -0.38962203 0.38573775 -0.12607601
0.70510876 0.17216039 0.041745916 -0.13590229 -0.31384367 -0.065543815 -0.41355276 0.2563454
-0.6247884 0.42030635 0.2756596 0.18623312 -0.104355656 -0.097751856 0.43859556 -0.20115975
0.28915608 -0.29217765 -0.2522687 0.15689217 -0.06584996 -0.3266326 -0.40238044 -0.18115543
0.2947495 -0.0074189743 -0.25521845 -0.27520272 0.24624541 0.18239047 -0.24897882 -0.1581702
-0.0015649076 -0.057911333 0.09889564 -0.060623806 0.33381197 0.13064788 0.12690622 8.094793e-05
-0.22302806 -0.27139217 0.22280578 -0.10493743 0.29904556 0.1543888 0.041027676 -0.22149453
-0.107972965 -0.1160787 -0.20973584 0.18198442 -0.03907611 0.346957 -0.23212528 -0.050921287
-0.36701277 0.104014665 0.43095815 -0.2926876 -0.13340893 -0.4446012 -0.070534125 0.1190568
0.059388507 0.33330533 0.14564267 0.28010666 0.027338784 0.14701954 -0.024192799 -0.0548135
0.35460013 0.06065714 -0.2301034 -0.0826585 0.29446623 0.2934248 0.013580477 -0.3058179
-0.238654 -0.44290888 -0.056234628 -0.045388576 -0.03682884 0.091716476 0.03473823 -0.18754503
-0.13849342 0.25613487 0.040656462 -0.123881444 -0.26681846 -0.2493555 -0.17160454 -0.14349137
-0.092963606 -0.15725236 -0.017155986 0.022578418 0.1711119 0.22272058 -0.31505898 0.14832507
0.25641376 -0.088155225 0.0027583183 0.10252136 -0.30760032 -0.42663833 0.19805948 -0.3201208
0.15258023 0.025322508 -0.0075087487 -0.15561296 -0.13498788 0.040982723 0.28906423 0.32526746
00000000: f890 bdbc 8fe4 f33d 91bd ba3e 037e 2cbe
00000010: 5bc8 053f 8816 693b 11f4 ad3e d8ee 73be
00000020: a194 6c3e f330 0f3d 3cf8 143e 2aca c53c
00000030: 064c 823d d112 903e 465e 09be d3a1 203e
00000040: 8712 4a3e c78e c33e dcbf 8e3e 7565 41bd
00000050: af80 2fbd 1a2b 863d 62ec fabd ad5b 573c
00000060: b562 693e f453 f53e bab2 8e3e d48c fbbb
00000070: d9fa 30be 2872 363d 07dd 91be 9d97 48be
00000080: eb88 c3be 2ecc 083f 0132 a0be 000b ccbe
00000090: 476c 943e 9026 413e 3c55 64be 3ea0 e73d
000000a0: b029 f8be 2c6a 9abe 4e03 7c3e a095 0bbe
000000b0: a981 d6be 24e0 823e 7a45 fdbe db9d 913e
000000c0: 8e96 513e 668d 0b3f f113 53be bb5c b6bd
000000d0: b91a 1cbe 4487 633b 1b6a 3e3e 4118 c9be
000000e0: 260c 44be 6fd1 ef3e 8202 9e3d 6813 be3e
000000f0: 4614 c4bd 1fbd e0bc 9acf 0dbe 5e02 453e
00000100: abd1 60bb e9bc d1bd f365 1a3e 6a7f 163e
00000110: f855 b53b e40e 443e 3770 9b3e 58a8 05bf
00000120: f101 5a3d d504 a03e a15e 57bd 1add 1b3d
00000130: cd1b 7abe 6cd9 063f d4ae 643d 8c43 0ebf
00000140: bab8 8e3e 2600 9ebe 5feb 6ebe 7a16 2abd
00000150: e069 623e 3916 783e 5ec4 cbbd ac2f 48bc
00000160: ba07 88bc dcf9 a2be b47b 0d3e c490 503a
00000170: ffc0 293e b7db 913e dd0b 78be 00bc 23be
00000180: d91c 24be c56b 94be 8a74 0cbf 86a4 9ebd
00000190: 6ff8 f03d fc47 aebc c238 babb 8a80 673e
000001a0: 8008 9d3e 2e59 abbd f4e6 75be 3042 0dbe
000001b0: 4b2c 5c3e 7157 653d 64aa 0ebe 0f7b aebe
000001c0: 0b55 763c 5f81 413e aa41 f3be 2989 303e
000001d0: 0f2a abbe 8a70 17bd 22b3 8d3e f75d c53d
000001e0: d26c 62be a9c2 a63e e861 da3d b901 89be
000001f0: f3b7 e7be 3043 a93e df75 053d 63d9 613d
00000200: 9472 29be ba39 883e 9b3a 8fbe 2644 c6be
00000210: 6481 953e 8a7c c7be 6b7f c53e 121a 01be
00000220: 0282 343f d04a 303e c4fd 2a3d f829 0bbe
00000230: 1eb0 a0be d63b 86bd 30bd d3be b43f 833e
00000240: 22f2 1fbf 6532 d73e 4123 8d3e e5b3 3e3e
00000250: 6bb8 d5bd 2032 c8bd 998f e03e d2fc 4dbe
00000260: 440c 943e 4f98 95be 5d29 81be 57a8 203e
00000270: 58dc 86bd 633c a7be cf04 cebe cf80 39be
00000280: 68e9 963e de1a f3bb feab 82be 5fe7 8cbe
00000290: c227 7c3e 91c4 3a3e 4ef4 7ebe 5ef7 21be
000002a0: 961d cdba 6f34 6dbd cc89 ca3d ab50 78bd
000002b0: 67e9 aa3e 8fc8 053e b4f3 013e 97c2 a938
000002c0: 7861 64be eaf3 8abe 3327 643e 6fe9 d6bd
000002d0: 801c 993e 1918 1e3e a30c 283d 76cf 62be
000002e0: ee20 ddbd abba edbd fec4 56be 205a 3a3e
000002f0: 450e 20bd 59a4 b13e 40b2 6dbe d792 50bd
00000300: 19e9 bbbe a405 d53d 8ca6 dc3e 26db 95be
00000310: 5a9c 08be c5a2 e3be 3274 90bd 0dd4 f33d
00000320: 5d41 733d ffa6 aa3e 5a23 153e 246a 8f3e
00000330: 96f5 df3c 4a8c 163e fa2f c6bc 1f84 60bd
00000340: 268e b53e 9f73 783d 3aa0 6bbe dc48 a9bd
00000350: 47c4 963e c63b 963e a680 5e3c 2a94 9cbe
00000360: b761 74be f4c4 e2be 4856 66bd 5fe9 39bd
00000370: d6d9 16bd d9d5 bb3d ad49 0e3d ce0b 40be
00000380: 38d1 0dbe 1c24 833e 6487 263d 8eb5 fdbd
00000390: 6e9c 88be 0c57 7fbe 1ab9 2fbe 67ef 12be
000003a0: b463 bebd c306 21be b68a 8cbc 60f6 b83c
000003b0: f537 2f3e dd10 643e 694f a1be 87e2 173e
000003c0: aa48 833e ba8a b4bd e7c4 343b b8f6 d13d
000003d0: ca7d 9dbe 5770 dabe 1bd0 4a3e e0e6 a3be
000003e0: fe3d 1c3e 2671 cf3c f30b f6bb 0159 1fbe
000003f0: 433a 0abe 80dd 273d 3a00 943e 7589 a63e

bias f4 [20]
-0.17862284 -0.026187578 -0.04999534 0.08705355 0.1295663 0.03448421 -0.13418594 0.0033149777
-0.0030431582 -0.04483133 0.079066806 -0.012802578 0.26612625 0.077748865 0.03956092 0.032669652
0.06751591 -0.12639788 -0.013878043 -0.03773492
00000000: e8e8 36be 5587 d6bc eac7 4cbd 2249 b23d
00000010: 07ad 043e 513f 0d3d 0a68 09be 1940 593b
00000020: b96f 47bb 0fa1 37bd c7ed a13d e7c1 51bc
00000030: b341 883e cc3a 9f3d a20a 223d 9dd0 053d
00000040: c845 8a3d 726e 01be bb60 63bc ee8f 1abd

weight f4 [20, 20]
0.11525636 0.03328504 -0.0021705958 -0.11919413 0.2308614 0.11328304 -0.031524383 -0.02490665
0.49712843 0.22664528 0.027422305 0.055930704 0.24991973 -0.19912095 0.2580204 -0.15692686
0.3073334 -0.18215461 -0.07872262 -0.27102295 0.060497228 -0.18589741 0.1615756 -0.10267856
-0.110734984 -0.055892397 -0.050246637 -0.27550346 0.32965285 -0.21253888 -0.017166331 -0.17823486
-0.20012537 0.047021702 -0.35867628 -0.33792815 -0.12802102 0.32907546 0.120919906 -0.025775276
0.35631695 0.17336543 -0.34435272 0.12961699 -0.37509462 -0.14565946 -0.13069719 0.037183985
-0.07931244 -0.058943715 -0.005407889 -0.059165318 0.022440927 0.4080151 -0.019768052 0.13258222
0.06928043 -0.37768763 -0.31189537 -0.06484172 -0.16157758 0.3125904 0.15556368 0.03023323
0.1501626 -0.23192568 0.0023946138 0.1410351 -0.039693855 -0.06938501 -0.091529034 -0.12978461
0.4014348 0.22526763 0.19099772 0.24384752 -0.10467248 0.29935956 0.08050409 0.20856339
-0.33443072 0.10747282 0.61322 0.17233749 -0.0014446416 -0.15087916 0.13473973 -0.22403301
0.103846245 -0.10026206 -0.18453339 0.05858124 -0.33543828 -0.2584377 -0.36523998 0.0068961163
-0.13817382 0.21558227 -0.17438598 -0.06883706 -0.30372834 -0.0026485133 0.010088057 -0.023193175
0.3310335 0.10198107 -0.4597266 0.03434499 0.1070953 -0.16521126 -0.2552505 -0.36741075
-0.11827808 0.26775637 -0.0011638971 0.6232693 -0.095956706 -0.13237754 -0.2625431 -0.31235164
0.19845065 -0.09802429 -0.046761896 -0.08005551 -0.47101384 0.0495787 -0.14403704 0.15685491
-0.021553926 0.09684503 -0.38224044 -0.00096856867 0.13426813 0.050949104 0.23061177 0.029043764
0.2190215 0.25969997 -0.02299865 0.21622165 -0.28428212 0.245918 0.31800893 0.009314496
0.07168703 -0.2263183 0.16664663 -0.09472546 -0.07704976 0.33032835 0.023601646 -0.105095014
0.14292401 -0.24335334 -0.24960059 -0.23764484 -0.35120365 0.06789355 0.021687074 0.1439697
-0.29127547 -0.22238034 0.030322013 0.16711709 -0.12582585 -0.3109667 0.030728329 -0.3206202
-0.08110845 0.33898923 0.1833003 -0.264043 -0.077684134 0.274622 0.066834494 -0.05629404
-0.1506445 -0.22164951 0.013991335 0.069977224 -0.12256662 0.19721329 0.42167652 -0.20840631
-0.19026415 -0.107531354 -0.041686855 0.214958 -0.06775457 0.030946957 0.10778835 -0.06950797
-0.47870207 0.31196126 -0.15831427 -0.20347437 -0.11615153 0.35323462 0.009790208 0.07719106
-0.018412676 -0.23281056 0.26290008 0.33589947 -0.06889901 0.38537487 -0.16198474 -0.19222198
0.20181239 -0.44212583 0.24500982 0.019716369 -0.33269644 -0.034494136 -0.36076328 0.18877876
0.1978802 -0.19513765 0.30676815 -0.3097466 -0.4704426 -0.04237939 -0.09436055 0.18074094
-0.2989644 0.09390238 -0.19589034 0.55039406 -0.11176884 -0.10773685 0.05635444 0.04547906
0.3229506 0.16305242 0.083190165 -0.03493811 0.064122215 -0.13523552 -0.0046530375 -0.12066431
-0.20625536 -0.009825898 -0.11149344 -0.07046575 -0.20773484 0.33444232 -0.20425755 -0.17400436
0.03283619 -0.037968416 0.082674496 -0.04391073 -0.22306411 0.26964542 -0.38614386 0.16169862
00000000: 870b ec3d e555 083d 8e40 0ebb 0d1c f4bd
00000010: ee66 6c3e f000 e83d b61f 01bd 0809 ccbc
00000020: 9e87 fe3e b315 683e bea4 e03c 9817 653d
00000030: f5ea 7f3e 5de6 4bbe 401b 843e 6fb1 20be
00000040: ce5a 9d3e bd86 3abe 5339 a1bd 85c3 8abe
00000050: f1cb 773d e45b 3ebe 1374 253e 2349 d2bd
00000060: 06c9 e2bd 6def 64bd 6bcf 4dbd ca0e 8dbe
00000070: 42c8 a83e cba3 59be 68a0 8cbc 3383 36be
00000080: aaed 4cbe d499 403d 6ba4 b7be eb04 adbe
00000090: f117 03be 947c a83e dba4 f73d ac26 d3bc
000000a0: 2d6f b63e b586 313e 004f b0be 51ba 043e
000000b0: 670c c0be c127 15be 7cd5 05be 3c4e 183d
000000c0: 8f6e a2bd f76e 71bd a934 b1bb 5557 72bd
000000d0: 09d6 b73c 5be7 d03e 9cf0 a1bc a2c3 073e
000000e0: e6e2 8d3d 4660 c1be c0b0 9fbe bccb 84bd
000000f0: 9874 25be d90b a03e 164c 1f3e aeab f73c
00000100: 3ac4 193e ed7d 6dbe f4ee 1c3b 816b 103e
00000110: 0696 22bd ba19 8ebd 9373 bbbd 42e6 04be
00000120: dd88 cd3e 8fac 663e e894 433e 2ab3 793e
00000130: 865e d6bd a845 993e 54df a43d a491 553e
00000140: 813a abbe b61a dc3d fcfb 1c3f 3d79 303e
00000150: 215a bdba 1180 1abe 36f9 093e e968 65be
00000160: 57ad d43d 3256 cdbd 52f6 3cbe e2f2 6f3d
00000170: 91be abbe f251 84be bc00 bbbe d1f8 e13b
00000180: 707d 0dbe 99c1 5c3e 3d92 32be 72fa 8cbd
00000190: 4882 9bbe ae92 2dbb 6148 253c 9dff bdbc
000001a0: 397d a93e 74db d03d 4961 ebbe 55ad 0c3d
000001b0: c854 db3d 242d 29be 32b0 82be 431d bcbe
000001c0: c73b f2bd 5d17 893e e88d 98ba 948e 1f3f
000001d0: f384 c4bd fa8d 07be 0d6c 86be 8eec 9fbe
000001e0: a636 4b3e f5c0 c8bd 6789 3fbd 25f4 a3bd
000001f0: ba28 f1be 0913 4b3d 727e 13be 939e 203e
00000200: dc91 b0bc b056 c63d 05b5 c3be 8be7 7dba
00000210: 967d 093e 02b0 503d 7e25 6c3e 30ed ed3c
00000220: 2c47 603e 65f7 843e aa67 bcbc 3569 5d3e
00000230: 6d8d 91be eed1 7b3e 11d2 a23e d49b 183c
00000240: a6d0 923d fcbf 67be 6aa5 2a3e 6cff c1bd
00000250: 44cc 9dbd cc20 a93e 3d58 c13c 0e3c d7bd
00000260: ac5a 123e 9e31 79be 4c97 7fbe 2b59 73be
00000270: f7d0 b3be c60b 8b3d 17a9 b13c cb6c 133e
00000280: 0f22 95be acb7 63be df65 f83c be20 2b3e
00000290: 7ed8 00be 0737 9fbe fab9 fb3c 5528 a4be
000002a0: 301c a6bd ff8f ad3e 13b3 3b3e a530 87be
000002b0: dc18 9fbd 419b 8c3e 86e0 883d 9494 66bd
000002c0: 8d42 1abe 17f8 62be ea3b 653c 3850 8f3d
000002d0: 3504 fbbd 48f2 493e fce5 d73e 7768 55be
000002e0: 9bd4 42be 6639 dcbd d6bf 2abd f31d 5c3e
000002f0: e8c2 8abd 7984 fd3c 23c0 dc3d 325a 8ebd
00000300: 7018 f5be 63b9 9f3e 231d 22be 965b 50be
00000310: dae0 edbd 2bdb b43e 1c67 203c 5916 9e3d
00000320: 2ed6 96bc e465 6ebe d79a 863e 04fb ab3e
00000330: ed1a 8dbd db4f c53e 54df 25be d7d5 44be
00000340: e8a7 4e3e 515e e2be dbe3 7a3e 3984 a13c
00000350: 3057 aabe b949 0dbd f7b5 b8be 384f 413e
00000360: 1ba1 4a3e 2ad2 47be b710 9d3e 1b97 9ebe
00000370: dadd f0be 0396 2dbd 1b40 c1bd 2714 393e
00000380: dd11 99be e44f c03d 7a97 48be a0e6 0c3f
00000390: 10e7 e4bd 23a5 dcbd ead3 663d 4048 3a3d
000003a0: c859 a53e 37f7 263e 9b5f aa3d 431b 0fbd
000003b0: 8252 833d 2e7b 0abe 8278 98bb da1e f7bd
000003c0: 9b34 53be cefc 20bc ac56 e4bd 5950 90bd
000003d0: 71b8 54be 063c ab3e e428 51be 332e 32be
000003e0: 3e7f 063d c584 1bbd 3f51 a93d bddb 33bd
000003f0: eb6a 64be f70e 8a3e a6b4 c5be 5394 253e

bias f4 [20]
0.11243954 -0.024981454 0.030146152 0.033190276 -0.022866549 0.026823917 -0.15709458 -0.008304134
0.112856336 -0.043981507 0.0642433 0.15393716 0.01984428 -0.03921611 -0.06970817 0.04513259
0.12653232 0.02956579 0.026217723 -0.05964359
00000000: b446 e63d e8a5 ccbc 10f5 f63c 87f2 073d
00000010: a152 bbbc d5bd db3c 67dd 20be 100e 08bc
00000020: 3921 e73d f425 34bd fe91 833d b4a1 1d3e
00000030: 7990 a23c 12a1 20bd 28c3 8ebd f3dc 383d
00000040: b091 013e f533 f23c 8dc6 d63c d64c 74bd

weight f4 [20, 20]
0.25851727 0.013006565 -0.11667593 0.16848235 -0.1771329 0.080928214 0.043806825 0.071378805
0.08683287 0.04139361 0.09702248 0.15806687 0.27680576 0.022612855 -0.12928158 0.18473089
0.13890779 0.25081113 0.18228714 -0.36281422 0.14948109 0.27385807 -0.31307697 -0.14292307
0.1266751 -0.08989556 -0.097934075 0.36886656 0.16645072 0.18501633 -0.22211434 -0.27471557
0.16165246 0.1682647 0.0025680473 -0.390968 0.26568592 -0.22574945 -0.27222428 -0.10469328
-0.40763062 0.0039006441 -0.038848143 -0.17697805 -0.3582036 -0.08715374 0.1688507 -0.4594434
-0.2582706 0.07461035 -0.12770267 -0.2994006 -0.1801443 -0.027186336 0.35519075 0.31192416
0.052443895 -0.16373128 0.06790031 0.25851554 -0.33947474 0.08513821 -0.17770547 -0.22321787
-0.10883308 0.0016813602 -0.1484194 -0.23438215 -0.1890785 0.2882754 0.11231536 0.13900128
0.048768558 0.16522689 0.29552737 0.26115927 -0.40548646 0.028812187 0.005230506 -0.09091602
-0.11877832 -0.213687 -0.09111305 -0.16469744 -0.46474558 -0.18170911 -0.22340898 -0.27992886
0.09065659 -0.29308024 0.34877264 -0.029546777 -0.24872547 -0.058489256 -0.045187894 -0.1840389
-0.041774657 -0.023800004 -0.04713522 -0.25393844 -0.14673363 0.014434998 -0.568185 0.17213786
-0.573242 -0.25517008 0.017266084 -0.1501649 0.3635851 -0.0919142 -0.105100796 0.30291143
-0.24904448 -0.29694054 -0.037647165 0.27559045 0.30568317 -0.045158137 -0.1465971 0.48554373
-0.1586653 0.029328141 -0.15813792 0.1728238 0.26580587 -0.15389435 0.19088717 -0.12595555
0.23744184 0.028318208 0.111245364 -0.061583348 -0.19658443 -0.11221634 0.28569916 -0.582053
-0.054036357 -0.30032805 -0.06983217 -0.36432776 0.22767861 -0.03516087 -0.14592543 0.08815676
0.20457482 -0.119522244 -0.10121874 -0.14796476 0.15609157 -0.031902768 0.16087407 -0.066471994
0.11407281 -0.14485525 -0.01819671 -0.12985562 -0.11568459 0.30492145 -0.34061098 0.02658408
-0.1349818 -0.23127335 0.039683864 0.20456289 0.29216743 0.079760596 -0.025070837 0.4479937
0.5837646 0.16091706 -0.16400127 -0.17075123 0.043753996 0.027220035 -0.010042671 0.069516055
0.25597507 -0.32772684 0.093461104 -0.31871828 -0.20270322 -0.29013556 0.02392906 0.31523216
0.047875218 -0.007943704 0.07313619 -0.25666076 -0.065398976 -0.101847485 0.02327177 -0.11234094
-0.2907355 -0.11140766 -0.17615677 -0.51480615 0.017850164 -0.40976968 -0.24973209 0.057322394
0.30383185 0.21113206 0.26507115 -0.0038204524 -0.11256828 -0.0042051836 0.2865963 -0.09550515
-0.111192755 0.23911688 -0.013655913 -0.3096631 -0.28739575 0.006217727 -0.09817759 0.33149877
-0.060159367 -0.17643145 0.051140826 -0.1377 0.19061598 0.13476284 0.47806492 0.04088307
-0.33816195 0.34536666 0.036719408 -0.4282423 0.15230641 -0.29332963 0.36989054 0.21186468
0.30823812 -0.15810445 -0.36961454 0.3334702 0.1567811 -0.17308985 0.5393852 -0.052226417
0.14026362 -0.07364728 0.33315605 -0.05841737 -0.23881875 0.13721576 -0.15733624 -0.3990972
0.07553189 0.29573882 -0.16965654 -0.17421743 0.02743745 0.079065405 0.19712068 0.19729924
00000000: 605c 843e 7d19 553c caf3 eebd a386 2c3e
00000010: 5462 35be b1bd a53d c96e 333d 0d2f 923d
00000020: 6fd5 b13d 598c 293d b9b3 c63d 48dc 213e
00000030: 7cb9 8d3e 983e b93c 6462 04be 182a 3d3e
00000040: d83d 0e3e 516a 803e 7ba9 3a3e c9c2 b9be
00000050: 9211 193e 2037 8c3e a04b a0be 6d5a 12be
00000060: 1eb7 013e 2a1b b8bd a991 c8bd 14dc bc3e
00000070: 0f72 2a3e ec74 3d3e f171 63be 85a7 8cbe
00000080: 3988 253e 954d 2c3e af4c 283b f52c c8be
00000090: fc07 883e dd2a 67be fb60 8bbe 6e69 d6bd
000000a0: f6b4 d0be f3a1 7f3b 3b1f 1fbd bc39 35be
000000b0: 7666 b7be a97d b2bd 33e7 2c3e 2a3c ebbe
000000c0: 0b3c 84be 50cd 983d 7dc4 02be 094b 99be
000000d0: bf77 38be e1b5 debc 90db b53e 86b4 9f3e
000000e0: 69cf 563d 2ca9 27be 510f 8b3d 265c 843e
000000f0: a2cf adbe f15c ae3d 6cf8 35be 3a93 64be
00000100: e1e3 debd 1661 dc3a 41fb 17be e001 70be
00000110: cb9d 41be d598 933e 9805 e63d 5a56 0e3e
00000120: 8ac1 473d 3d31 293e 5d4f 973e abb6 853e
00000130: ec9b cfbe 8907 ec3c aa64 ab3b 2e32 babd
00000140: 0c42 f3bd c4d0 5abe 7b99 babd 72a6 28be
00000150: 22f3 edbe f411 3abe 53c5 64be d652 8fbe
00000160: 2aaa b93d 9d0e 96be 5492 b23e 150c f2bc
00000170: e4b1 7ebe 6e92 6fbd f116 39bd b274 3cbe
00000180: e71b 2bbd 3af8 c2bc dc10 41bd 3804 82be
00000190: 5741 16be c580 6c3c 9274 11bf e844 303e
000001a0: fdbf 12bf a7a5 82be 9a71 8d3c d4c4 19be
000001b0: d427 ba3e 833d bcbd 163f d7bd 3517 9b3e
000001c0: 8405 7fbe 9708 98be ea33 1abd 311a 8d3e
000001d0: 8182 9c3e bdf7 38bd 8d1d 16be 3099 f83e
000001e0: 2879 22be 9241 f03c e8ee 21be b9f8 303e
000001f0: b517 883e 7b96 1dbe ed77 433e 7efa 00be
00000200: f423 733e 96fb e73c 9cd4 e33d d23e 7cbd
00000210: 6e4d 49be aed1 e5bd 2947 923e 6d01 15bf
00000220: 3a55 5dbd 99c4 99be 2b04 8fbd 2b89 babe
00000230: 9524 693e d804 10bd 7a6d 15be 888b b43d
00000240: 107c 513e 14c8 f4bd c54b cfbd 1384 17be
00000250: 78d6 1f3e 7aac 02bd 2cbc 243e 7822 88bd
00000260: 019f e93d ef54 14be 4411 95bc dff8 04be
00000270: 0bec ecbd aa1e 9c3e 9064 aebe dbc6 d93c
00000280: ab38 0abe ecd2 6cbe 8c8b 223d ef78 513e
00000290: f896 953e 8659 a33d 5b61 cdbc 6e5f e53e
000002a0: 9971 153f 71c7 243e f3ef 27be 69d9 2ebe
000002b0: 6437 333d 8dfc de3c 048a 24bc 6f5e 8e3d
000002c0: 2a0f 833e d0cb a7be 8968 bf3d 0b2f a3be
000002d0: 6f91 4fbe a68c 94be e006 c43c 1c66 a13e
000002e0: ce18 443d 4f26 02bc 6dc8 953d 0a69 83be
000002f0: e6ef 85bd 6a95 d0bd 70a4 be3c 0213 e6bd
00000300: 49db 94be b329 e4bd 7162 34be 56ca 03bf
00000310: 823a 923c 55cd d1be c5b9 7fbe e3ca 6a3d
00000320: d98f 9b3e 0133 583e 68b7 873e 8e60 7abb
00000330: 338a e6bd a3cb 89bb c0bc 923e 3498 c3bd
00000340: 07b9 e3bd 0edb 743e 0dbd 5fbc 298c 9ebe
00000350: 8925 93be 13be cb3b 5511 c9bd 35ba a93e
00000360: ab69 76bd 72aa 34be 0b79 513d 3b01 0dbe
00000370: d630 433e 45ff 093e edc4 f43e 0275 273d
00000380: 9023 adbe e6d3 b03e 1767 163d 9342 dbbe
00000390: 36f6 1b3e 4d2f 96be 4b62 bd3e 0ef3 583e
000003a0: 63d1 9d3e 22e6 21be 1e3e bdbe 9bbc aa3e
000003b0: 3a8b 203e 773e 31be 2615 0a3f 5eeb 55bd
000003c0: 44a1 0f3e 63d4 96bd 6e93 aa3e 0d47 6fbd
000003d0: e78c 74be 4a82 0c3e c01c 21be 7856 ccbe
000003e0: 77b0 9a3d 146b 973e 72ba 2dbe 0e66 32be
000003f0: 81c4 e03c 0bed a13d 01da 493e d008 4a3e

bias f4 [20]
0.07425924 -0.048516396 -0.12092517 -0.11779233 0.03319472 0.039198037 -0.025290875 0.11152928
0.1048293 -0.16600601 -0.026880855 0.021597266 -0.09598901 -0.063909315 -0.054381285 -0.11217818
-0.064364955 -0.059774857 0.088709086 0.13338707
00000000: 3a15 983d 21b9 46bd 9ea7 f7bd 1b3d f1bd
00000010: 30f7 073d 1f8e 203d cf2e cfbc 7769 e43d
00000020: beb0 d63d 7bfd 29be 3d35 dcbc c0ec b03c
00000030: e395 c4bd e3e2 82bd e9be 5ebd acbd e5bd
00000040: c6d1 83bd 7bd6 74bd 1cad b53d 9f96 083e

weight f4 [20, 20]
-0.18927646 0.23826171 -0.2868787 -0.06507405 -0.12648393 -0.16348368 0.3838212 -0.06436678
0.42544314 0.23792702 0.07287956 -0.28791392 -0.016253052 -0.112422235 -0.3062302 0.36474198
-0.273068 0.39725265 -0.07211714 -0.02869657 0.19906187 0.53111684 0.09380922 0.1641288
-0.28300837 0.046943255 -0.22999215 -0.22424155 0.24787848 0.10082704 0.21547063 -0.28758973
-0.20749058 -0.10946479 -0.15068331 0.15487325 0.3604633 0.11625578 0.10612843 0.020357177
-0.26080874 -0.16965279 0.4171719 0.19168401 -0.011485244 -0.13405567 -0.1514632 0.13611549
0.0069767362 0.08857536 0.13768178 0.09351456 -0.32317135 0.07738456 0.24721469 0.4454023
0.06992464 0.18202424 -0.36467114 0.033005357 0.13620919 0.0393063 0.30857 -0.34768754
-0.11988503 -0.3374674 -0.3994508 -0.098005146 -0.040128216 0.31553093 -0.13298872 0.31052873
-0.010865681 0.13407321 0.103546396 0.095984936 0.36179513 0.026779799 -0.3333545 -0.5522628
0.21141987 0.07815185 0.107998274 0.1835073 0.8036256 0.011153969 0.43076023 0.20847312
0.1379386 0.10891891 -0.2594301 -0.0073975218 -0.30908424 0.0764123 -0.01882661 -0.5106788
-0.25177625 0.07427984 0.26774633 0.37280646 0.14671315 -0.17192781 -0.21452998 -0.23753168
-0.34993985 0.2917121 0.31171444 0.6271129 -0.24008943 -0.24274294 0.2890311 0.15192947
-0.4494413 0.31277174 -0.052611377 0.12558842 -0.1429892 -0.109264314 0.080709524 0.35173264
-0.38412988 0.22107865 -0.20805979 -0.18334015 0.033837494 0.289325 -0.052944057 -0.10563298
-0.010367898 -0.51512754 0.1214149 -0.2739196 -0.04150532 -0.23650208 -0.24172674 -0.26723012
-0.2869256 -0.0745191 0.3316253 -0.008839237 0.30712247 -0.3063022 0.115343705 0.19228275
-0.2699838 0.10350843 0.024632974 -0.15565775 -0.08105661 -0.099542156 -0.06784521 -0.113106556
-0.1312789 0.18447204 0.06617095 0.23060068 0.1508297 0.061519936 -0.17728773 -0.21322899
-0.09517405 -0.05300771 -0.057616327 0.041649945 -0.07287477 -0.045756474 0.25594544 -0.04754836
0.06918442 0.1943591 -0.06273378 0.047497414 -0.035986025 0.19947879 -0.008471431 -0.43705714
-0.15569563 0.047079023 -0.09278592 -0.3126227 0.2877224 0.3497521 -0.34040034 -0.38570964
0.10957444 0.20565271 0.23990366 0.2992792 -0.1802727 -0.20147525 -0.188435 -0.061870888
0.16410346 -0.04135264 0.14354862 0.27909923 0.092062525 0.0675138 0.15473324 -0.11998326
0.13811374 -0.27600753 -0.2564409 -0.13256274 0.2831137 -0.29482642 0.028261807 0.16866922
0.17362045 0.024555331 -0.17927483 -0.430498 0.08705455 -0.24513257 0.15723877 -0.04781857
-0.046096053 -0.22988552 0.52933747 0.2064299 0.11144384 -0.059850626 0.25296602 -0.13928863
0.17270386 0.036652822 -0.029130256 -0.015537993 0.22430512 0.03941104 0.2573791 -0.10510982
-0.00037383867 -0.15364546 -0.15239267 -0.24019273 -0.2158155 -0.013081763 0.42049098 0.2195392
-0.2841512 -0.0077435947 0.39452833 0.14077374 0.13181688 0.17608991 0.040361643 -0.04347135
-0.48358905 -0.46361417 0.01775419 0.014997602 0.31818113 -0.20372532 0.12286642 0.06841602
00000000: b0d1 41be e1fa 733e c4e1 92be 8b45 85bd
00000010: 0185 01be 4468 27be 3684 c43e bbd2 83bd
00000020: afd3 d93e 24a3 733e e141 953d 7469 93be
00000030: 1f25 85bc a13d e6bd 34ca 9cbe 76bf ba3e
00000040: 92cf 8bbe b364 cb3e 27b2 93bd 1215 ebbc
00000050: e0d6 4b3e 46f7 073f 0c1f c03d 6111 283e
00000060: 79e6 90be 9247 403d 1083 6bbe 949f 65be
00000070: dbd3 7d3e 687e ce3d 55a4 5c3e f63e 93be
00000080: 6978 54be 132f e0bd ba4c 1abe 1897 1e3e
00000090: a58e b83e 8317 ee3d dd59 d93d 18c4 a63c
000000a0: b988 85be 76b9 2dbe 8e97 d53e d048 443e
000000b0: 9b2c 3cbc e445 09be 2b19 1bbe dc61 0b3e
000000c0: 1b9d e43b 0067 b53d 74fc 0c3e 9084 bf3d
000000d0: b776 a5be cc7b 9e3d d925 7d3e c50b e43e
000000e0: a634 8f3d 9064 3a3e 2db6 babe a030 073d
000000f0: 6c7a 0b3e a5ff 203d e3fc 9d3e 1a04 b2be
00000100: 4886 f5bd 87c8 acbe d184 ccbe ecb6 c8bd
00000110: 7c5d 24bd 458d a13e 322e 08be 9ffd 9e3e
00000120: f805 32bc 7d4a 093e 2210 d43d c093 c43d
00000130: 363d b93e 4f61 db3c 71ad aabe 1861 0dbf
00000140: 737e 583e 140e a03d 332e dd3d 56e9 3b3e
00000150: 68ba 4d3f 23bf 363c 9b8c dc3e fa79 553e
00000160: c73f 0d3e e110 df3d 06d4 84be e966 f2bb
00000170: 4a40 9ebe 0d7e 9c3d 433a 9abc d9bb 02bf
00000180: d1e8 80be 0720 983d 0c16 893e 7de0 be3e
00000190: f93b 163e d80d 30be bfad 5bbe 813b 73be
000001a0: 512b b3be 4a5b 953e 0999 9f3e 798a 203f
000001b0: 01da 75be 9b91 78be e2fb 933e 6693 1b3e
000001c0: 2c1d e6be 9e23 a03e 077f 57bd 409a 003e
000001d0: c36b 12be f8c5 dfbd 094b a53d 4d16 b43e
000001e0: acac c4be 7162 623e a00d 55be 85bd 3bbe
000001f0: 2f99 0a3d 6822 943e dedb 58bd 1b56 d8bd
00000200: 1ede 29bc 66df 03bf 60a8 f83d 313f 8cbe
00000210: 7c01 2abd 9a2d 72be 3787 77be 63d2 88be
00000220: eae7 92be 789d 98bd cbca a93e 72d2 10bc
00000230: 283f 9d3e a4d3 9cbe 5239 ec3d c5e5 443e
00000240: 513b 8abe 3afc d33d 17cb c93c bf64 1fbe
00000250: 0201 a6bd c2dc cbbd 6ef2 8abd 69a4 e7bd
00000260: fa6d 06be 3de6 3c3e a384 873d 9622 6c3e
00000270: 1a73 1a3e 54fc 7b3d ea8a 35be b358 5abe
00000280: 9dea c2bd 9d1e 59bd 19ff 6bbd 2299 2a3d
00000290: 5e3f 95bd 246b 3bbd 480b 833e 12c2 42bd
000002a0: 90b0 8d3d 1206 473e 917a 80bd a68c 423d
000002b0: 1566 13bd 2b44 4c3e c2cb 0abc f4c5 dfbe
000002c0: ad6e 1fbe efd5 403d 8b06 bebd 1510 a0be
000002d0: 5a50 933e b512 b33e f448 aebe bc7b c5be
000002e0: 9068 e03d a096 523e 4ea9 753e 203b 993e
000002f0: 6899 38be 874f 4ebe 1bf5 40be 546c 7dbd
00000300: bd0a 283e 6361 29bd 69fe 123e 18e6 8e3e
00000310: 478b bc3d ad44 8a3d 6472 1e3e c9b9 f5bd
00000320: b06d 0d3e dc50 8dbe 394c 83be 87be 07be
00000330: 47f4 903e 7df3 96be 4e85 e73c a0b7 2c3e
00000340: 8fc9 313e 4328 c93c d293 37be 3c6a dcbe
00000350: a849 b23d 0804 7bbe 3303 213e 68dd 43bd
00000360: 37cf 3cbd 1c67 6bbe a982 073f 5c62 533e
00000370: ab3c e43d ee25 75bd c384 813e aea1 0ebe
00000380: 48d9 303e 4521 163d 93a2 eebc 1193 7ebc
00000390: 3eb0 653e 786d 213d 32c7 833e d143 d7bd
000003a0: c7ff c3b9 3c55 1dbe d30c 1cbe 15f5 75be
000003b0: bdfe 5cbe e454 56bc 984a d73e e2ce 603e
000003c0: 447c 91be fbbd fdbb 9eff c93e fe26 103e
000003d0: 01fb 063e ea50 343e 4052 253d 040f 32bd
000003e0: fc98 f7be d65e edbe 3c71 913c 81b8 753c
000003f0: a3e8 a23e 5f9d 50be 64a1 fb3d b31d 8c3d

bias f4 [20]
0.019847345 -0.022663616 -0.07376446 -0.1899066 0.11940378 0.072317 0.1200866 -0.033602323
0.028628614 0.018009193 0.11350822 0.17704481 -0.073618546 0.16037278 -0.23078364 0.032110363
0.28691047 -0.07840081 -0.0056521297 0.08410525
00000000: e696 a23c 0ca9 b9bc d211 97bd e076 42be
00000010: f889 f43d ef1a 943d f7ef f53d 97a2 09bd
00000020: 8e86 ea3c 0488 933c ff76 e83d 3c4b 353e
00000030: 52c5 96bd c338 243e 8c52 6cbe 2886 033d
00000040: eee5 923e 9b90 a0bd 8035 b9bb 603f ac3d

weight f4 [20, 20]
0.11251734 -0.050133 -0.023160668 -0.077765405 -0.050777998 -0.34288988 -0.15547529 0.41772467
-0.28405502 0.24480735 -0.09848708 -0.29675397 0.1680409 -0.007947115 0.18742995 0.07433632
-0.32142627 0.17917922 0.009607233 -0.019732187 0.17259401 0.23603524 0.3090307 0.30705056
-0.22525603 -0.19322655 -0.039987627 0.15087025 0.21944581 0.06191381 -0.48381248 -0.007915368
0.5062029 -0.07460803 -0.056426547 -0.5724027 -0.08516259 0.3655948 -0.36346355 0.059997912
-0.09427342 0.046468932 0.46916544 0.14755781 -0.031409666 0.40984 -0.29407662 -0.14022051
0.0855213 -0.4622211 -0.054801706 0.038770393 0.10267058 -0.22243285 0.119217426 -0.38583282
-0.23657681 -0.021624275 -0.37070087 -0.15045562 0.16979897 -0.06655828 -0.021272393 -0.26009533
0.031367674 0.10830284 0.14160025 -0.16781084 0.29729435 -0.16065843 0.18480308 0.3378468
-0.30532163 0.24032104 -0.41820607 -0.14717792 -0.048948456 0.13951267 0.15121834 -0.041557558
0.27626252 -0.090011746 -0.05578754 -0.15248647 0.23967662 0.3099382 0.47432682 0.31787398
-0.101283945 -0.3152996 0.022237519 0.11099763 0.24186902 0.20995647 -0.4959056 0.16569585
-0.18015681 -0.2036334 0.5951504 0.37420458 -0.23429693 0.17832026 0.16761132 0.17814751
-0.21425883 -0.22443473 -0.19662444 0.16373192 -0.2220543 -0.21704075 -0.0041420944 0.04426437
0.2755001 -0.4486218 0.22871432 0.05405997 0.06617422 0.5365997 -0.3138418 -0.034458734
0.5484972 0.07612499 -0.1535354 0.06175735 0.3564218 0.47358775 0.19190226 0.012366722
-0.17919372 0.041665573 0.20935446 0.31931862 -0.22998407 0.21561597 -0.24408619 0.22083165
-0.14498474 0.025805214 0.31430447 0.13906707 -0.55894464 -0.34217125 0.034288634 0.4788863
-0.3427304 -0.05967256 0.19063051 0.15148649 0.003961652 -0.08921265 0.09106216 -0.6464465
-0.35355523 -0.14971823 0.3297047 -0.18694973 -0.048370454 0.22246532 0.1693159 -0.4439124
-0.23765695 0.2491944 0.3490753 0.40816718 -0.0926806 0.0037402788 0.28306556 -0.1588977
-0.111165114 -0.38571292 -0.29307282 0.21356706 0.36803326 -0.41289398 0.008633982 0.15480602
0.09292222 -0.0104787825 -0.21911457 -0.057379678 -0.31494874 0.30877337 -0.043575894 -0.41210848
0.18457069 -0.27301902 0.2121952 0.09403534 0.051104456 0.20605849 -0.1636887 0.41407093
-0.05830018 -0.031448305 0.031129258 -0.17967942 0.21830153 -0.29916102 -0.23842576 0.0017330585
0.00063704577 0.1717801 0.20977052 -0.122848876 -0.5177926 -0.62137574 0.27756244 0.06684939
0.12728299 0.2924273 -0.049909554 -0.14546321 0.18449694 0.015955696 0.3934334 -0.39842775
0.1337373 -0.29779837 0.18154523 0.1416576 0.08122673 -0.058090806 0.36636096 0.07118769
-0.014841514 0.34815344 -0.3959604 -0.43167335 0.22288315 -0.26786152 0.2475542 0.22707686
0.60831475 0.2377625 0.52905846 -0.10329955 -0.44498608 0.36980283 -0.40420038 -0.15273824
0.4452826 0.24149878 -0.21379538 -0.1497069 0.03560057 0.13285898 0.22026302 -0.17442282
0.24302994 0.24436551 0.069422044 0.39322504 0.26857692 0.028848272 -0.32059008 0.52035236
00000000: 7e6f e63d 4358 4dbd 71bb bdbc 7843 9fbd
00000010: 97fc 4fbd 438f afbe ea34 1fbe 02e0 d53e
00000020: a96f 91be c7ae 7a3e 98b3 c9bd 23f0 97be
00000030: ea12 2c3e 9e34 02bc a3ed 3f3e a43d 983d
00000040: fc91 a4be c27a 373e a867 1d3c 65a5 a1bc
00000050: 7cbc 303e 39b3 713e 4639 9e3e bb35 9d3e
00000060: 84a9 66be 2edd 45be 11ca 23bd bb7d 1a3e
00000070: 67b6 603e 5699 7d3d 45b6 f7be 76af 01bc
00000080: 8396 013f 18cc 98bd 861f 67bd fc88 12bf
00000090: b969 aebd 3e2f bb3e e517 babe 5fc0 753d
000000a0: 6c12 c1bd 3556 3e3d 7436 f03e 6519 173e
000000b0: 6ca7 00bd 8cd6 d13e 3691 96be f795 0fbe
000000c0: cb25 af3d 3ea8 ecbe c177 60bd b4cd 1e3d
000000d0: f444 d23d 70c5 63be 4428 f43d e18b c5be
000000e0: 3141 72be 6425 b1bc 81cc bdbe 0a11 1abe
000000f0: c8df 2d3e b54f 88bd 7143 aebc 372b 85be
00000100: 647b 003d e1cd dd3d a8ff 103e 9bd6 2bbe
00000110: f736 983e a583 24be 053d 3d3e 41fa ac3e
00000120: 1e53 9cbe b816 763e 1b1f d6be cfb5 16be
00000130: 2d7e 48bd 69dc 0e3e fbd8 1a3e 4238 2abd
00000140: 4872 8d3e 1458 b8bd 7a81 64bd 6a25 1cbe
00000150: ca6d 753e 38b0 9e3e f7da f23e 61c0 a23e
00000160: f56d cfbd f36e a1be 752b b63c ba52 e33d
00000170: 83ac 773e d4fe 563e 57e7 fdbe 2cac 293e
00000180: 077b 38be 4685 50be c75b 183f be97 bf3e
00000190: 89eb 6fbe 9699 363e 4da2 2b3e 4d6c 363e
000001a0: ab66 5bbe 38d2 65be eb57 49be 57a9 273e
000001b0: 3462 63be ee3f 5ebe 68ba 87bb 8e4e 353d
000001c0: 590e 8d3e c2b1 e5be 1634 6a3e fd6d 5d3d
000001d0: 5986 873d 995e 093f dfaf a0be 9a24 0dbd
000001e0: 506a 0c3f 6be7 9b3d 6238 1dbe 46f5 7c3d
000001f0: eb7c b63e 187a f23e 0782 443e cb9d 4a3c
00000200: 8f7e 37be 85a9 2a3d 0461 563e bb7d a33e
00000210: f280 6bbe 6fca 5c3e bbf1 79be b121 623e
00000220: e176 14be 7565 d33c 84ec a03e 9967 0e3e
00000230: ff16 0fbf 1231 afbe 3d72 0c3d 9630 f53e
00000240: 5c7a afbe 376b 74bd a534 433e 461f 1b3e
00000250: bfd0 813b 1fb5 b6bd cc7e ba3d 857d 25bf
00000260: 3105 b5be bc4f 19be 0ecf a83e c06f 3fbe
00000270: 1920 46bd f3cd 633e 2661 2d3e 7c48 e3be
00000280: 585c 73be d12c 7f3e ffb9 b23e 4afb d03e
00000290: 54cf bdbd 771f 753b f8ed 903e 14b6 22be
000002a0: 89aa e3bd 2a7c c5be a40d 96be 53b1 5a3e
000002b0: db6e bc3e d766 d3be 8c75 0d3c 7885 1e3e
000002c0: 014e be3d 33af 2bbc 925f 60be f406 6bbd
000002d0: f640 a1be 8b17 9e3e a37c 32bd e2ff d2be
000002e0: 1900 3d3e 26c9 8bbe b349 593e 9a95 c03d
000002f0: e852 513d ff00 533e 039e 27be 1b01 d43e
00000300: 2bcc 6ebd f0cf 00bd c902 ff3c e2fd 37be
00000310: 708a 5f3e a22b 99be e225 74be cb27 e33a
00000320: 6bff 263a 1fe7 2f3e 15ce 563e 3198 fbbd
00000330: 0e8e 04bf 7b12 1fbf aa1c 8e3e 55e8 883d
00000340: 7956 023e 08b9 953e f66d 4cbd 4ff4 14be
00000350: c4ec 3c3e 85b5 823c 1a70 c93e b9fe cbbe
00000360: 6ef2 083e 0779 98be fee6 393e b10e 113e
00000370: 335a a63d a0f0 6dbd aa93 bb3e daca 913d
00000380: d229 73bc 2b41 b23e 52bb cabe 4a04 ddbe
00000390: 7b3b 643e 2525 89be d97e 7d3e d686 683e
000003a0: 84ba 1b3f 0378 733e 6070 073f b78e d3bd
000003b0: 37d5 e3be cc56 bd3e 5af3 cebe 6a67 1cbe
000003c0: 15fc e33e 754b 773e 2ded 5abe c44c 19be
000003d0: e7d1 113d 2f0c 083e a18c 613e e59b 32be
000003e0: d7dc 783e f43a 7a3e 252d 8e3d cb54 c93e
000003f0: ea82 893e 3653 ec3c 6224 a4be d035 053f

bias f4 [20]
-0.052162223 -0.23604064 -0.08687564 0.15081996 0.1525606 -0.09880138 0.14833827 -0.158797
-0.14208205 0.11595303 -0.10911006 -0.119120836 0.011156216 -0.26773006 -0.2061956 -0.05790292
0.09522881 0.24102895 0.13869186 -0.17274706
00000000: 0ea8 55bd a3b4 71be dbeb b1bd 8c70 1a3e
00000010: d938 1c3e 6158 cabd fde5 173e ae9b 22be
00000020: f57d 11be c878 ed3d 1875 dfbd a0f5 f3bd
00000030: 90c8 363c ea13 89be f024 53be 9d2b 6dbd
00000040: 5307 c33d 4bd0 763e 3d05 0e3e 9be4 30be

weight f4 [1, 20]
-0.35644603 -1.317812 -0.89918125 0.64740735 1.0298327 -1.0664219 1.4229639 -1.2357038
-0.6118667 0.21116765 -0.3870082 -0.7858506 0.82691306 -1.5080695 -1.0757995 -0.08736314
0.9123221 1.3303244 0.542639 -0.93331134
00000000: 1880 b6be 10ae a8bf be30 66bf 7dbc 253f
00000010: 8fd1 833f 8380 88bf ae23 b63f 8b2b 9ebf
00000020: 4ca3 1cbf 553c 583e f025 c6be 812d 49bf
00000030: 93b0 533f 6c08 c1bf ccb3 89bf 72eb b2bd
00000040: f18d 693f 1248 aa3f 64ea 0a3f 7eed 6ebf

u_b f4 [2]
1.0 39.96
00000000: 0000 803f 0ad7 1f42

l_b f4 [2]
0.0 0.0
00000000: 0000 0000 0000 0000
