Models/Noise_0/toy_stop/weak_ff_100.pt (torch, 36639 bytes, 23 tensors)

weight f4 [20, 2]
-0.07097634 0.11683415 -0.5391287 0.14284036 -0.2706749 -0.4442143 0.41847664 0.7298606
-0.13110363 -0.59839106 0.57052994 -0.7749929 -0.045957334 -0.0021597545 0.21180682 -0.6476759
-0.75959164 0.5513796 -0.17918211 -0.101463206 0.1276709 -0.027465494 -0.0067959656 0.056597397
-0.16999036 -0.5554375 -0.22736132 0.06342451 -0.23382759 -0.61989844 0.79902583 -0.13095805
0.18666196 -1.3331188 -0.9641288 -0.065929525 -0.17417416 0.059907798 -0.32731768 -0.1864343
00000000: 0b5c 91bd be46 ef3d 5704 0abf be44 123e
00000010: e795 8abe 0f70 e3be 9242 d63e 25d8 3a3f
00000020: 0840 06be 2830 19bf 400e 123f ef65 46bf
00000030: c23d 3cbd ab8a 0dbb e3e3 583e 16ce 25bf
00000040: 9974 42bf 3727 0d3f 847b 37be f1cb cfbd
00000050: 29bc 023e 51ff e0bc b1b0 debb acd2 673d
00000060: f411 2ebe 2731 0ebf 68d1 68be b6e4 813d
00000070: 8070 6fbe aab1 1ebf f58c 4c3f de19 06be
00000080: 5024 3f3e a3a3 aabf 25d1 76bf 0f06 87bd
00000090: b65a 32be e161 753d 2f96 a7be a2e8 3ebe

bias f4 [20]
-0.27554178 -0.03579763 -0.40927726 -0.44518846 -0.072360225 -0.24548832 0.4868715 -0.39665407
0.21527393 0.25246963 -0.1790785 0.112550795 -0.10316445 0.059212945 0.17663196 -0.35922533
0.06702334 -0.13258913 0.08824823 -0.3797483
00000000: d013 8dbe 89a0 12bd ca8c d1be beef e3be
00000010: 9931 94bd 4a61 7bbe 3947 f93e 3e16 cbbe
00000020: c570 5c3e b343 813e 5b60 37be 0881 e63d
00000030: e247 d3bd 4689 723d 02df 343e 62ec b7be
00000040: 8843 893d 72c5 07be 7dbb b43d 5f6e c2be

weight f4 [20, 20]
0.20121062 0.16633901 -0.13811119 -0.23210493 0.15990502 -0.08826544 0.3101471 0.08068842
0.3499002 0.46675918 0.28859717 0.044089805 0.27582034 0.25664356 0.5705274 -0.3705643
-0.13244814 -0.08862246 -0.1309415 0.033246566 0.29037023 0.22439009 -0.0547751 0.075601555
-0.26635465 -0.6690097 -0.35484678 -0.4157774 0.3863155 -0.00073464075 -0.036907677 -0.052066714
-0.32151705 0.18842983 -0.38310176 0.011220156 -0.34285516 0.22781214 0.01467031 -0.09766608
0.27781868 0.071149856 -0.24321501 -0.6343491 0.6797171 -0.0036665373 -0.021072378 0.2716644
0.13733481 -0.23338585 -0.22184485 0.1881526 -0.23199247 -0.026458256 0.08722285 -0.015202879
0.2507841 -0.12796415 0.040650617 -0.48647416 0.2202697 0.059154354 -0.2994139 0.3288378
0.096131764 0.21305715 -0.35700145 0.096546054 -0.10331505 0.046631712 0.11437684 0.20040444
0.31537375 -0.052979182 0.00643977 0.027955454 -0.2752703 -0.079833455 0.20639695 0.24689357
0.32071373 -0.0038328622 0.05484229 0.19301264 -0.30799302 -0.24564433 0.12852566 0.34538263
-0.032661278 -0.11001491 0.12545322 -0.029342882 -0.10014482 -0.18302052 -0.16394766 0.21898167
-0.48506972 0.05445704 0.024963643 0.25512367 -0.071132585 0.10141224 0.29377058 -0.026344625
0.16098282 0.25971955 -0.20188725 -0.10115527 -0.034388274 -0.24128814 0.10199772 -0.09884891
-0.2437334 -0.23643713 0.57080406 0.07634824 -0.25989798 0.04827783 0.17370275 0.27147126
-0.440327 -0.09420226 -0.050759126 0.046876542 -0.13160627 -0.4615696 0.18871057 0.05928743
0.25165987 -0.29647824 0.16580918 -0.12781535 0.023664434 -0.07348725 0.24780416 0.16278608
-0.045732766 -0.3464408 0.06806136 -0.19145814 0.13942203 0.31393868 0.21520609 0.09872342
0.3265451 0.29323986 -0.44548854 0.19093385 -0.13710259 -0.110564046 0.09391765 0.14338079
0.31364405 -0.39495054 0.06820198 -0.055218186 -0.115732804 -0.26445952 -0.19862886 0.24851468
0.1047255 -0.23542893 -0.14175554 0.3046767 -0.28775054 0.37034222 -0.3045487 -0.04585101
-0.34904024 -0.22020772 0.14573868 0.14450325 0.11802988 -0.19506611 0.036917884 0.5704122
0.4004078 0.027948946 0.16731921 -0.17343906 0.0855315 -0.04594452 0.35455176 0.12561513
0.52382547 0.3912542 0.12958415 0.24886219 0.35820064 0.0871957 0.090984255 -0.2741079
-0.03145777 0.1794347 -0.08589342 0.10098456 0.4451746 -0.11216647 -0.20384972 0.042322133
-0.046207033 0.25274226 -0.34393463 0.34789133 -0.339675 -0.26338232 -0.22723766 -0.19252436
0.6231456 -0.5490979 -0.02136439 -0.04741733 -0.4673661 -0.2888368 -0.08486946 -0.00842577
-0.49771246 0.1374274 0.21394686 -0.21355596 -0.4474004 0.10378899 0.18335886 0.2746195
-0.10458775 0.13021925 0.0026211534 -0.14399324 -0.23395257 0.28451487 0.08654654 0.5022699
-0.07218064 -0.19485813 0.25512704 -0.12704724 0.057745714 -0.07686202 0.23895071 0.009646222
-0.3040035 0.18730691 0.20921838 -0.11459816 -0.31548107 0.24209756 0.0251848 -0.21588545
0.12921368 0.28596345 -0.10627696 0.23588568 0.14863029 0.030684335 -0.076460764 -0.01931777
00000000: 280a 4e3e c654 2a3e 056d 0dbe eaac 6dbe
00000010: 24be 233e 83c4 b4bd 9acb 9e3e f83f a53d
00000020: 1e26 b33e 0ffb ee3e 02c3 933e 8397 343d
00000030: 5338 8d3e c966 833e 150e 123f 9bba bdbe
00000040: 7ca0 07be b17f b5bd 8715 06be 8d2d 083d
00000050: 68ab 943e 84c6 653e db5b 60bd fdd4 9a3d
00000060: a35f 88be 3844 2bbf 7aae b5be c6e0 d4be
00000070: 25cb c53e e894 40ba 812c 17bd e843 55bd
00000080: e29d a4be c0f3 403e ea25 c4be bfd4 373c
00000090: b68a afbe 9647 693e bd5b 703c 2705 c8bd
000000a0: 403e 8e3e 04b7 913d 5b0d 79be b464 22bf
000000b0: f101 2e3f 4a4a 70bb fb9f acbc 9917 8b3e
000000c0: 7fa1 0c3e b3fc 6ebe 4c2b 63be 13ab 403e
000000d0: 6f8f 6dbe fcbe d8bc e5a1 b23d 7f15 79bc
000000e0: c666 803e 0909 03be 4381 263d 2413 f9be
000000f0: 618e 613e d64b 723d c74c 99be 6e5d a83e
00000100: bbe0 c43d a72b 5a3e e5c8 b6be f0b9 c53d
00000110: d796 d3bd e500 3f3d 683e ea3d d236 4d3e
00000120: ab78 a13e b300 59bd b504 d33b d602 e53c
00000130: 3bf0 8cbe b97f a3bd b959 533e abd1 7c3e
00000140: 9734 a43e c230 7bbb 4fa2 603d 1ba5 453e
00000150: 43b1 9dbe 308a 7bbe 3b9c 033e fed5 b03e
00000160: d5c7 05bd 7f4f e1bd cf76 003e 7c60 f0bc
00000170: ba18 cdbd bb69 3bbe e5e1 27be bb3c 603e
00000180: 0f5b f8be 580e 5f3d 8e80 cc3c 929f 823e
00000190: f6ad 91bd 38b1 cf3d 1969 963e afd0 d7bc
000001a0: aed8 243e f6f9 843e 88bb 4ebe 7f2a cfbd
000001b0: b8da 0cbd 3d14 77be 2ee4 d03d 4c71 cabd
000001c0: 4095 79be 931c 72be 3720 123f 775c 9c3d
000001d0: 5911 85be f9be 453d 22df 313e 48fe 8a3e
000001e0: 8a72 e1be 1ded c0bd cde8 4fbd 9e01 403d
000001f0: cbc3 06be da52 ecbe 583d 413e 60d7 723d
00000200: 90d9 803e ffcb 97be e2c9 293e 07e2 02be
00000210: eadb c13c 7c80 96bd 60c0 7d3e 65b1 263e
00000220: 4852 3bbd b060 b1be c163 8b3d 9a0d 44be
00000230: a6c4 0e3e 92bc a03e fc5e 5c3e 812f ca3d
00000240: eb30 a73e 8923 963e 1317 e4be 2a84 433e
00000250: 9f64 0cbe 676f e2bd e657 c03d 6ad2 123e
00000260: f495 a03e f536 cabe 7bad 8b3d 772c 62bd
00000270: 5205 edbd 3d67 87be 5d65 4bbe a27a 7e3e
00000280: 537a d63d 4814 71be 5d28 11be 96fe 9b3e
00000290: 0a54 93be 7f9d bd3e cfed 9bbe 45ce 3bbd
000002a0: 67b5 b2be 227e 61be 853c 153e a9f8 133e
000002b0: a6b9 f13d 69bf 47be 3537 173d 8906 123f
000002c0: 4002 cd3e 30f5 e43c ba55 2b3e 029a 31be
000002d0: 242b af3d 5230 3cbd cf87 b53e 41a1 003e
000002e0: 6d19 063f 7852 c83e b5b1 043e bbd5 7e3e
000002f0: 1366 b73e a993 b23d f455 ba3d df57 8cbe
00000300: ddd9 00bd bbbd 373e e4e8 afbd fed0 ce3d
00000310: eded e33e 89b7 e5bd fbbd 50be f959 2d3d
00000320: 9643 3dbd 6f67 813e 3318 b0be d01e b23e
00000330: e2e9 adbe 0cda 86be fdb0 68be 1b25 45be
00000340: 7886 1f3f ae91 0cbf 6004 afbc ad38 42bd
00000350: 9c4a efbe 6be2 93be 0ad0 adbd 3e0c 0abc
00000360: 2bd4 febe c5b9 0c3e e314 5b3e 6aae 5abe
00000370: aa11 e5be 528f d43d 6dc2 3b3e ed9a 8c3e
00000380: 1a32 d6bd 3258 053e a8c7 2b3b f772 13be
00000390: 4391 6fbe efab 913e 503f b13d c394 003f
000003a0: 72d3 93bd e488 47be 03a0 823e ac18 02be
000003b0: c586 6c3d d669 9dbd 7faf 743e 300b 1e3c
000003c0: 59a6 9bbe 62cd 3f3e 583d 563e 71b2 eabd
000003d0: bc86 a1be 6ce8 773e 5b50 ce3c 1311 5dbe
000003e0: 9750 043e cd69 923e bca7 d9bd 048c 713e
000003f0: 8a32 183e b75d fb3c 7697 9cbd 4d40 9ebc

bias f4 [20]
0.5142155 -0.0029970014 0.2640244 -0.22309358 -0.3366157 -0.17374401 0.06900639 -0.49332583
-0.28002965 -0.27874595 -0.13402408 0.043753766 0.32874817 0.30118304 -0.2595798 0.10659278
-0.032126196 -0.23820099 0.15358236 -0.36644444
00000000: a1a3 033f 5769 44bb 352e 873e a572 64be
00000010: e558 acbe f3e9 31be 3953 8d3d 3495 fcbe
00000020: 0c60 8fbe cab7 8ebe 9c3d 09be 2637 333d
00000030: ae51 a83e aa34 9a3e a5e7 84be 514d da3d
00000040: c296 03bd f6ea 73be b244 1d3e 9b9e bbbe

weight f4 [20, 20]
0.39125356 -0.084463045 0.14285551 0.11505853 -0.14470354 -0.12572563 0.14090799 0.36126596
-0.80869806 0.18712686 0.21017802 0.30017772 0.19662954 0.14741904 0.23036368 -0.18665686
0.32269347 -0.14115255 0.4018149 -0.296171 0.2584105 0.017535416 0.08351723 -0.006566648
0.043040317 0.26916286 0.20878306 -0.28194016 -0.09215114 0.20559062 -0.24706946 0.33687332
-0.051717147 -0.0031896543 -0.06649172 0.31717163 0.004035861 0.41358635 0.36329675 -0.009302179
-0.35307884 -0.081738405 0.00929312 -0.25176433 0.28175038 0.22370885 0.1770509 0.122340515
0.15473528 0.4000729 -0.3541594 -0.18527915 -0.19721568 0.045048647 0.050519917 0.3803458
0.36511883 0.16915692 -0.13275307 0.2479246 0.422928 0.13244693 -0.08283767 -0.23527257
-0.25439575 -0.26249996 -0.5827433 -0.5126825 -0.34340915 -0.14768656 -0.12546074 0.023785254
-0.13353829 0.0032020044 -0.1626938 0.2379054 -0.04881388 -0.13418765 0.18647571 0.46727026
0.36469436 0.048090473 0.0799327 -0.10128503 0.2489055 -0.24052045 -0.22680046 -0.17116937
0.023043588 0.05570205 -0.55014324 -0.32683906 0.017860215 -0.61997 0.39366475 0.20667368
-0.16703224 -0.16558048 0.68963635 0.22899763 -0.19334283 -0.14068192 0.0110868 -0.19976975
-0.2409188 -0.08998478 0.061047707 -0.45281124 0.14949901 -0.068884954 -0.26832947 -0.1041466
0.42881912 0.13387077 0.41967675 -0.026059644 0.02727501 0.14879104 0.087037 -0.51656365
0.2727299 -0.13656361 0.103231676 0.22087283 0.0009296559 -0.05151528 -0.14998785 0.20300514
-0.0009651961 0.111943476 0.18293598 0.14458832 -0.19014618 0.32397398 -0.17375268 0.38628104
0.27234685 -0.5910336 -0.28193474 0.14987826 -0.13701692 0.21832809 -0.10034512 0.23149225
0.027105967 -0.06621602 -0.18288615 0.3004478 0.34157926 0.084716976 0.22440687 -0.13145582
-0.12898469 -0.096411526 0.079950064 0.08959831 -0.217088 0.32237113 0.027220277 0.020162188
-0.149458 -0.124778435 -0.30142382 0.48933703 0.26716453 0.16572495 -0.00064945465 0.02599253
0.2816405 0.024802245 -0.016108911 0.27639025 -0.24413845 -0.31610435 0.28620476 -0.098493494
-0.02133195 -0.18401384 0.27836728 -0.2971072 0.46609873 -0.13677034 -0.27753097 -0.033789277
-0.1128012 0.31298798 -0.3152339 0.16808356 -0.05822138 0.039980326 0.12085224 0.17729959
-0.15703097 -0.07019033 -0.18649709 0.15886606 -0.04666804 0.05501711 0.10650623 -0.2350846
0.25548404 -0.046997808 0.31662375 -0.12280532 -0.11692633 0.06446248 0.12632273 -0.22271802
-0.17196567 0.22950485 -0.2647014 0.17384191 -0.037527267 0.20664 -0.3866188 0.31136382
0.17458336 -0.3577447 -0.1670252 -0.21384859 -0.043942656 0.1165516 -0.13108723 -0.19371973
0.26322353 -0.19420664 -0.011383836 -0.0014337972 -0.3347034 0.26121277 -0.28790376 -0.058943637
0.21651137 0.27366427 0.030939177 0.20479394 0.14080514 0.719633 -0.11770682 0.09290026
-0.32499215 0.12404509 -0.27924564 0.07368611 0.25319868 -0.31177187 -0.027860068 0.35695633
0.03619276 0.048789635 0.27736738 -0.113593586 -0.26304856 -0.41164747 0.26057553 -0.6764324
00000000: 6352 c83e f6fa acbd b748 123e cea3 eb3d
00000010: 2a2d 14be 38be 00be 2f4a 103e daf7 b83e
00000020: d606 4fbf 2f9e 3f3e e838 573e e5b0 993e
00000030: 4159 493e 04f5 163e 75e4 6b3e fa22 3fbe
00000040: 1438 a53e 4b8a 10be afba cd3e baa3 97be
00000050: 624e 843e 6fa6 8f3c 150b ab3d 092d d7bb
00000060: 0b4b 303d b7cf 893e 3acb 553e 765a 90be
00000070: bdb9 bcbd 5986 523e c7ff 7cbe a97a ac3e
00000080: 5cd5 53bd 8509 51bb d02c 88bd 5264 a23e
00000090: 423f 843b 97c1 d33e 0802 ba3e 2b68 18bc
000000a0: c0c6 b4be 7766 a7bd 2c42 183c 41e7 80be
000000b0: 9641 903e ef13 653e d54c 353e aa8d fa3d
000000c0: ed72 1e3e 5bd6 cc3e 6254 b5be d1b9 3dbe
000000d0: e8f2 49be ee84 383d f9ed 4e3d afbc c23e
000000e0: dbf0 ba3e 7937 2d3e 6cf0 07be f2df 7d3e
000000f0: 058a d83e 2ba0 073e cca6 a9bd 4beb 70be
00000100: 2940 82be 6566 86be aa2e 15bf 293f 03bf
00000110: 53d3 afbe 253b 17be c878 00be 4bd9 c23c
00000120: 43be 08be b8d8 513b 3499 26be 799d 733e
00000130: 10f1 47bd 7d68 09be 7df3 3e3e 0c3e ef3e
00000140: 38b9 ba3e 84fa 443d c1b3 a33d 876e cfbd
00000150: 15e1 7e3e fe4a 76be 613e 68be 0647 2fbe
00000160: e8c5 bc3c d527 643d 30d6 0cbf 7357 a7be
00000170: 964f 923c 5bb6 1ebf 6d8e c93e 44a2 533e
00000180: 800a 2bbe ee8d 29be 028c 303f 5b7e 6a3e
00000190: aafb 45be ec0e 10be 69a5 353c 7190 4cbe
000001a0: 6bb3 76be f149 b8bd 290d 7a3d e0d6 e7be
000001b0: 4516 193e 8e13 8dbd 7b62 89be d04a d5bd
000001c0: 2e8e db3e 6b15 093e dfdf d63e 097b d5bc
000001d0: d76f df3c ae5c 183e 7440 b23d 843d 04bf
000001e0: 41a3 8b3e 55d7 0bbe 216b d33d 7d2c 623e
000001f0: 27b4 733a b001 53bd 6a96 19be 94e0 4f3e
00000200: 3705 7dba 9f42 e53d 9253 3b3e f60e 143e
00000210: aeb5 42be ebdf a53e 39ec 31be a1c6 c53e
00000220: 0c71 8b3e fa4d 17bf c059 90be b079 193e
00000230: 2a4e 0cbe 6691 5f3e be81 cdbd 4e0c 6d3e
00000240: 550d de3c 449c 87bd 8246 3bbe 4bd4 993e
00000250: 7ae3 ae3e 1880 ad3d eaca 653e 5b9c 06be
00000260: 9014 04be 6873 c5bd dcbc a33d 527f b73d
00000270: 514c 5ebe d40d a53e 0ffd de3c 2c2b a53c
00000280: 850b 19be d68b ffbd 3954 9abe 628a fa3e
00000290: cac9 883e cdb3 293e 2a40 2aba 49ee d43c
000002a0: 2f33 903e 142e cb3c d6f6 83bc 0683 8d3e
000002b0: 6eff 79be 6ed8 a1be 6e89 923e f5b6 c9bd
000002c0: 57c0 aebc 206e 3cbe 2886 8e3e 6f1e 98be
000002d0: 7ea4 ee3e 860d 0cbe 8a18 8ebe a066 0abd
000002e0: 5104 e7bd f63f a03e 5666 a1be 191e 2c3e
000002f0: 8b79 6ebd 69c2 233d 6181 f73d 068e 353e
00000300: bacc 20be f3bf 8fbd 18f9 3ebe c9ad 223e
00000310: fd26 3fbd 9f59 613d f01f da3d 04ba 70be
00000320: cece 823e c680 40bd 821c a23e 5b81 fbbd
00000330: 1277 efbd e804 843d bf5a 013e 3110 64be
00000340: c517 30be 5203 6b3e f186 87be 9d03 323e
00000350: 31b6 19bd 7099 533e e6f2 c5be 146b 9f3e
00000360: fbc5 323e 502a b7be a708 2bbe 20fb 5abe
00000370: 37fd 33bd 9bb2 ee3d bb3b 06be 775e 46be
00000380: 3cc5 863e 1bde 46be 4583 3abc 40ee bbba
00000390: 3e5e abbe aebd 853e 1f68 93be e26e 71bd
000003a0: 28b5 5d3e b91d 8c3e 2874 fd3c 81b5 513e
000003b0: 392f 103e de39 383f 4610 f1bd 7e42 be3d
000003c0: 5f65 a6be 5a0b fe3d 49f9 8ebe bee8 963d
000003d0: 42a3 813e 90a0 9fbe cc3a e4bc fbc2 b63e
000003e0: dc3e 143d a4d7 473d 1903 8e3e c1a3 e8bd
000003f0: 4dae 86be 75c3 d2be 286a 853e ac2a 2dbf

bias f4 [20]
0.14574042 0.061247457 -0.1679302 0.31768382 -0.12561628 0.07825029 -0.09299156 -0.0074346107
-0.06519451 0.023099074 0.20241372 0.023413992 -0.13199474 0.069503635 -0.07841232 -0.30084208
-0.48175958 -0.5070658 -0.1584533 -0.11835211
00000000: fa3c 153e 9dde 7a3d e5f5 2bbe 74a7 a23e
00000010: 8ea1 00be b041 a03d 5c72 bebd 099e f3bb
00000020: b384 85bd 453a bd3c 8b45 4f3e b3ce bf3c
00000030: a129 07be ec57 8e3d a396 a0bd f907 9abe
00000040: 31a9 f6be 10cf 01bf 9541 22be 9762 f2bd

weight f4 [20, 20]
-0.042591345 0.21999702 0.5647841 -0.2670176 0.5480426 -0.022841806 0.38863054 -0.19919801
0.2560046 0.02533807 0.12902391 0.083098784 0.045307644 0.24664782 -0.21902376 -0.11659832
0.23504351 0.51572 0.30145118 -0.022022279 -0.08585906 0.0013213372 -0.15546995 -0.018009143
0.11246188 0.4390378 0.31242812 0.032821853 -0.1406285 0.058486212 -0.30771628 -0.20074724
-0.40277705 0.5334155 -0.18289354 -0.48770118 0.3828065 0.24915127 -0.1845442 0.17378639
-0.49243528 -0.4585785 0.1587004 -0.24682645 -0.55252576 0.24578953 -0.46265003 0.30197433
0.35709128 0.49668318 -0.28140396 -0.19167657 0.059669837 -0.045772888 0.24341224 -0.23839718
-0.10216081 0.4524613 0.06688012 0.37918946 -0.13378693 -0.076337986 -0.1531885 0.14438793
-0.022290261 -0.10513068 0.14765568 0.18023519 0.055801973 0.1679081 0.253014 -0.5118689
0.071387544 0.29698524 0.04409218 0.0047368994 -0.17084038 0.58538723 0.060101967 -0.47230062
0.32630995 -0.31718618 -0.39190772 0.0054923366 0.1457552 0.25209495 -0.1514262 0.007807718
-0.013456186 -0.26635164 0.13223226 0.028815059 0.025322467 0.33426204 -0.05555765 -0.106498875
-0.17646557 -0.36656594 -0.50108 -0.054188475 0.16981408 0.16652352 0.00039594687 0.30617827
0.41388288 -0.09405922 -0.32145476 -0.14123972 0.14258538 0.17308807 -0.11555376 -0.23607336
-0.10072245 0.1886841 -0.47351813 0.14615346 -0.46106926 -0.098962195 0.29227638 0.09293103
-0.2233338 0.23260917 -0.020909417 -0.27791408 -0.5207548 0.30982038 0.070351705 0.06103649
-0.10905774 0.2619098 -0.3150965 -0.4262561 0.3106372 -0.36736208 0.424102 0.09300763
0.74532497 0.09960286 0.057880804 -0.1358184 -0.30964413 -0.08551217 -0.3852424 0.28649065
-0.69957197 0.4713584 0.3794856 0.15331362 -0.1823033 -0.170473 0.48024058 -0.27553263
0.13439581 -0.1359735 -0.16899247 -0.1059571 -0.05014834 -0.32706794 -0.5618043 -0.26322144
0.26960295 -0.10119096 -0.394327 -0.23454785 0.16971943 0.17443183 -0.26295984 -0.13854611
-0.00019621443 -0.07838787 0.06542225 -0.121185526 0.2401506 0.22242713 0.2905205 0.05338627
-0.15920615 -0.33629283 0.20673953 -0.07635362 0.32561105 0.08400946 -0.0005530431 -0.16290393
-0.12027651 -0.099374115 -0.19682363 0.121959925 -0.06958719 0.31811565 -0.18503918 -0.11890613
-0.359724 0.15393515 0.37699834 -0.17965434 -0.19660102 -0.51393485 -0.13541538 0.047040347
0.06345731 0.22893566 0.011661478 0.26005694 -0.014311118 0.099979706 -0.054649044 -0.03624758
0.38530838 0.035065774 -0.27700567 -0.12937719 0.3739053 0.26472062 0.1408803 -0.07824205
-0.22322208 -0.44550267 -0.08780014 -0.015751554 -0.037139628 0.0990331 -0.028099438 -0.26035565
-0.2126159 0.21490376 0.017031502 -0.01385965 -0.18828239 -0.17008887 -0.2726427 -0.11347413
-0.123610616 -0.20697097 0.17015788 0.018236281 0.27208996 0.2787336 -0.2050815 0.26703218
0.23155528 -0.146187 0.068741985 0.026363762 -0.3201441 -0.35645348 0.2521018 -0.23662497
0.21420182 -0.033460695 -0.08488061 -0.22296841 -0.124874 -0.017319275 0.37779164 0.18217061
00000000: 4374 2ebd e646 613e b195 103f 88b6 88be
00000010: 854c 0c3f bd1e bbbc 95fa c63e 90fa 4bbe
00000020: 0913 833e c991 cf3c d81e 043e b22f aa3d
00000030: 8294 393d 3f91 7c3e c447 60be 1acb eebd
00000040: 3faf 703e 3a06 043f cf57 9a3e 1168 b4bc
00000050: e0d6 afbd b830 ad3a 8433 1fbe e987 93bc
00000060: 6a52 e63d 90c9 e03e 94f6 9f3e 3570 063d
00000070: eb00 10be 3d8f 6f3d fd8c 9dbe af90 4dbe
00000080: cb38 cebe eb8d 083f 7248 3bbe f8b3 f9be
00000090: 37ff c33e 8321 7f3e 28f9 3cbe 0ff5 313e
000000a0: 7a20 fcbe cdca eabe 5c82 223e 13c0 7cbe
000000b0: 5472 0dbf 40b0 7b3e 77e0 ecbe 619c 9a3e
000000c0: abd4 b63e 424d fe3e 2e14 90be dd46 44be
000000d0: 5c68 743d 5a7c 3bbd 0f41 793e 641e 74be
000000e0: b039 d1bd 02a9 e73e 72f8 883d 1f25 c23e
000000f0: 71ff 08be 1757 9cbd 72dd 1cbe 6eda 133e
00000100: 119a b6bc c14e d7bd 0d33 173e 938f 383e
00000110: 9c90 643d 1af0 2b3e 0d8b 813e d709 03bf
00000120: a233 923d 730e 983e 009a 343d fe37 9b3b
00000130: c8f0 2ebe f0db 153f 7b2d 763d 63d1 f1be
00000140: 1912 a73e 3a66 a2be 21a8 c8be 0ff9 b33b
00000150: da40 153e 9712 813e 780f 1bbe e3d7 ff3b
00000160: 5677 5cbc 3e5f 88be e567 073e 8f0d ec3c
00000170: 1071 cf3c 6524 ab3e 6b90 63bd 151c dabd
00000180: 64b3 34be 88ae bbbe c746 00bf bcf4 5dbd
00000190: bee3 2d3e 2485 2a3e 1797 cf39 66c3 9c3e
000001a0: 75e8 d33e 1fa2 c0bd b895 a4be 25a1 10be
000001b0: e701 123e 003e 313e 73a7 ecbd 37bd 71be
000001c0: 9247 cebd 6836 413e f870 f2be 41a9 153e
000001d0: 4511 ecbe b1ac cabd 40a5 953e a052 be3d
000001e0: 9eb1 64be 1931 6e3e 3a4a abbc c14a 8ebe
000001f0: 3050 05bf c7a0 9e3e 8e14 903d 6601 7a3d
00000200: aa59 dfbd 0b19 863e 5454 a1be 3d3e dabe
00000210: d70b 9f3e e216 bcbe e623 d93e c97a be3d
00000220: 9ecd 3e3f 96fc cb3d 6c14 6d3d fb13 0bbe
00000230: ad89 9ebe 0121 afbd 7e3e c5be e7ae 923e
00000240: 2617 33bf e355 f13e f04b c23e 3ffe 1c3e
00000250: b7ad 3abe 7990 2ebe 18e2 f53e 9d12 8dbe
00000260: 0e9f 093e a33c 0bbe 5d0c 2dbe 0900 d9bd
00000270: 5968 4dbd 7375 a7be 68d2 0fbf f6c4 86be
00000280: 6609 8a3e 353d cfbd 3be5 c9be 502d 70be
00000290: eeca 2d3e 429e 323e aca2 86be 08df 0dbe
000002a0: e9be 4db9 d289 a0bd 1afc 853d 1e30 f8bd
000002b0: 0aea 753e f0c3 633e 1abf 943e 90ab 5a3d
000002c0: f006 23be 932e acbe 87b3 533e 495f 9cbd
000002d0: 7eb6 a63e 270d ac3d 18fa 10ba 4ad0 26be
000002e0: 8853 f6bd a884 cbbd 228c 49be 20c6 f93d
000002f0: bb83 8ebd 0ee0 a23e e97a 3dbe 0f85 f3bd
00000300: be2d b8be 2da1 1d3e ed05 c13e 4ff7 37be
00000310: c751 49be 3c91 03bf 54aa 0abe 61ad 403d
00000320: e8f5 813d 1c6e 6a3e c90f 3f3c 2f26 853e
00000330: 2e79 6abc 29c2 cc3d add7 5fbd 5878 14bd
00000340: 2447 c53e 21a1 0f3d b0d3 8dbe 747b 04be
00000350: 8470 bf3e 7689 873e ed42 103e 5e3d a0bd
00000360: 5494 64be ed18 e4be 8fd0 b3bd 6709 81bc
00000370: b91f 18bd ded1 ca3d cb30 e6bc 564d 85be
00000380: fcb7 59be bb0f 5c3e a685 8b3c 9613 63bc
00000390: 19cd 40be c72b 2ebe d397 8bbe 2065 e8bd
000003a0: 9027 fdbd 33f0 53be de3d 2e3e 4164 953c
000003b0: 604f 8b3e 2cb6 8e3e e200 52be 71b8 883e
000003c0: d41c 6d3e 0cb2 15be 99c8 8c3d d1f8 d73c
000003d0: ede9 a3be 1281 b6be 7d13 813e d14d 72be
000003e0: b957 5b3e 150e 09bd e3d5 adbd d551 64be
000003f0: f1bd ffbd 27e1 8dbc e86d c13e ef8a 3a3e

bias f4 [20]
-0.34410277 -0.16423751 -0.10468783 0.04926678 0.2529552 0.12124881 -0.170532 0.047057476
0.06797487 0.047166426 0.27270553 -0.18644288 -0.011179728 0.040876754 -0.069783576 0.28889066
0.021416232 -0.12134988 0.25177133 -0.21433334
00000000: 3d2e b0be e12d 28be 9366 d6bd f7cb 493d
00000010: 5883 813e 4c51 f83d f19f 2ebe 57bf 403d
00000020: 6936 8b3d 9531 413d 0fa0 8b3e e2ea 3ebe
00000030: 2e2b 37bc 626e 273d b1ea 8ebd 7ae9 933e
00000040: 1871 af3c 4986 f8bd 2ce8 803e 337a 5bbe

weight f4 [20, 20]
0.1005138 0.17631243 0.09348042 -0.081733376 0.23155133 0.0192878 0.02951515 -0.080975726
0.42812887 0.19631752 0.036682695 0.14861289 0.14835812 -0.28571305 0.1442013 -0.24369246
0.2587617 -0.032713138 -0.14355844 -0.1668755 0.031970605 -0.24154103 0.15642828 -0.19420868
-0.16217564 -0.056654915 -0.014781988 -0.3739827 0.33060238 -0.24519466 -0.061087083 -0.16297655
-0.19799359 0.09379849 -0.28856868 -0.3454315 -0.110054314 0.36257213 0.11937757 -0.041668642
0.4320477 0.1703148 -0.23231599 0.09969962 -0.41384712 -0.09701914 -0.060103785 -0.0018301462
-0.0946765 0.023207912 0.007323992 -0.080807135 0.036507215 0.28439742 -0.07194995 -0.018699266
0.088471755 -0.4081787 -0.37815514 0.0032086135 -0.10497356 0.51944065 0.226077 0.12627591
0.17509837 -0.3700248 0.06404804 0.18069704 -0.08881053 -0.19260378 -0.09094154 -0.006991852
0.29642192 0.16931506 0.016845942 0.16191162 -0.15719776 0.36998513 -0.009474998 0.29780287
-0.3962788 0.16959612 0.56595445 0.16352525 -0.0062076095 -0.2198683 0.110655114 -0.19287689
0.13528861 -0.07558135 -0.1472219 0.06334077 -0.28909147 -0.15424283 -0.38877392 0.017504089
-0.1664437 0.28706264 -0.079637654 -0.07862612 -0.28186682 -0.027370136 -0.07507221 -0.07707351
0.3477155 0.1363863 -0.55504084 -0.024099048 0.0846015 -0.10404986 -0.25550514 -0.4283791
-0.19650133 0.2488437 -0.07220991 0.7355203 -0.11298581 -0.15032008 -0.18943748 -0.36560744
0.41867533 0.0010124744 -0.0737396 0.06079395 -0.39092883 0.17173196 -0.26602218 0.25865325
-0.03522879 0.09280222 -0.25924352 -0.05342899 0.07440833 0.051952597 0.0128112165 0.1211866
0.24633533 -0.07040481 0.04189083 0.16261517 -0.21206635 0.17830798 0.43167236 -0.007605636
-0.08622385 -0.39418104 0.25522113 -0.067067124 -0.15056117 0.13346101 -0.073957 -0.00555622
0.18312994 -0.105738275 -0.19443001 -0.31644467 -0.2106668 0.15614568 0.024488457 0.18771343
-0.25184417 -0.114560254 0.07528828 0.19109733 -0.102227256 -0.39686775 0.08779663 -0.31504813
-0.12186395 0.15285958 0.14367439 -0.14208654 -0.13553424 0.32323393 -0.014794863 -0.09997135
-0.14790241 -0.15971814 -0.054699168 0.12725239 -0.29908496 0.19116724 0.3647901 -0.19386895
-0.16915955 -0.14981472 -0.022171557 0.2624946 -0.011915112 0.048356317 0.1388754 -0.039953187
-0.38502452 0.40044487 -0.070113964 -0.19230787 -0.14308776 0.46990612 0.04609306 0.048657965
-0.013274402 -0.2223549 0.29977104 0.30373323 -0.06499421 0.31408975 -0.075423606 -0.24150373
0.17534302 -0.48213965 0.22821894 0.072595604 -0.3601285 -0.08936794 -0.37687892 0.12337992
0.17241856 -0.08794708 0.24103753 -0.24336284 -0.5018485 -0.03033577 -0.00096691196 0.17721158
-0.32545537 0.06441452 -0.121920235 0.50407106 -0.11795686 -0.12960236 0.035351355 0.10030943
0.24122018 0.09871285 0.06034187 -0.10411086 0.053983837 -0.06629353 -0.07576352 -0.064797066
-0.1397383 0.06314102 -0.0152827175 -0.14859937 -0.2968624 0.24218509 -0.09839774 -0.25380102
-0.048662227 -0.14279225 0.019098764 0.038122863 -0.29481968 0.25100324 -0.45147976 0.052065775
00000000: 2eda cd3d 3f8b 343e aa72 bf3d d463 a7bd
00000010: cb1b 6d3e 7301 9e3c c1c9 f13c 9ad6 a5bd
00000020: b533 db3e 7607 493e 9840 163d fa2d 183e
00000030: 31eb 173e fb48 92be 81a9 133e 848a 79be
00000040: 6a7c 843e 36fe 05bd fc00 13be 69e1 2abe
00000050: 9cf3 023d 8856 77be bc2e 203e a4de 46be
00000060: 5f11 26be fc0e 68bd 2730 72bc a97a bfbe
00000070: b744 a93e 4f14 7bbe 7336 7abd 53e3 26be
00000080: d5be 4abe 6c19 c03d 46bf 93be 66dc b0be
00000090: 2864 e1bd 0ea3 b93e 3a7c f43d bdac 2abd
000000a0: 5b35 dd3e 0167 2e3e 3ee4 6dbe 502f cc3d
000000b0: c5e3 d3be f9b1 c6bd 632f 76bd 84e1 efba
000000c0: c1e5 c1bd 851e be3c 19fe ef3b 367e a5bd
000000d0: 9788 153d 8a9c 913e 7f5a 93bd 342f 99bc
000000e0: ae30 b53d ccfc d0be 8d9d c1be 9a47 523b
000000f0: 61fc d6bd 10fa 043f bb80 673e 794e 013e
00000100: fd4c 333e e473 bdbe 9e2b 833d a508 393e
00000110: 4ce2 b5bd ed39 45be 8f3f babd e81b e5bb
00000120: 9dc4 973e ed60 2d3e 8000 8a3c 29cc 253e
00000130: 73f8 20be b16e bd3e 063d 1bbc 9e79 983e
00000140: 0ee5 cabe 9baa 2d3e 64e2 103f 2a73 273e
00000150: 3469 cbbb 2825 61be 269f e23d 8581 45be
00000160: 1989 0a3e 65ca 9abd 56c1 16be ceb8 813d
00000170: cc03 94be d5f1 1dbe 600d c7be bc64 8f3c
00000180: 3870 2abe e0f9 923e 1119 a3bd bb06 a1bd
00000190: d950 90be 5637 e0bc 75bf 99bd b7d8 9dbd
000001a0: c407 b23e daa8 0b3e 2817 0ebf 5e6b c5bc
000001b0: 8d43 ad3d 1818 d5bd 92d1 82be 8154 dbbe
000001c0: a537 49be e2d0 7e3e cae2 93bd 0f4b 3c3f
000001d0: 1b65 e7bd 82ed 19be e6fb 41be e630 bbbe
000001e0: 9d5c d63e 01b5 843a ca04 97bd 1403 793d
000001f0: d327 c8be 81da 2f3e 0f34 88be 336e 843e
00000200: 104c 10bd 170f be3d 91bb 84be 5bd8 5abd
00000210: 6563 983d 3fcc 543d 23e6 513c ae30 f83d
00000220: 543f 7c3e 6630 90bd b895 2b3d 9784 263e
00000230: ec27 59be 5e96 363e 2904 dd3e b338 f9bb
00000240: 2196 b0bd 19d2 c9be 58ac 823e 7d5a 89bd
00000250: b52c 1abe 01aa 083e c576 97bd f410 b6bb
00000260: 6a86 3b3e 4f8d d8bd a918 47be 0905 a2be
00000270: 0ab9 57be a7e4 1f3e 049c c83c f337 403e
00000280: b8f1 80be 919e eabd be30 9a3d 05af 433e
00000290: 865c d1bd 4032 cbbe b8ce b33d fd4d a1be
000002a0: ce93 f9bd 3987 1c3e 611f 133e 227f 11be
000002b0: 7dc9 0abe eb7e a53e 2766 72bc c7bd ccbd
000002c0: bb73 17be 278d 23be 3c0c 60bd 734e 023e
000002d0: aa21 99be 58c1 433e c5c5 ba3e 9585 46be
000002e0: 2938 2dbe 0869 19be 20a1 b5bc b165 863e
000002f0: 9a37 43bc 4611 463d 5a35 0e3e f4a5 23bd
00000300: ef21 c5be 1c07 cd3e e997 8fbd 5bec 44be
00000310: 9985 12be 8997 f03e 14cc 3c3d 934d 473d
00000320: e17c 59bc 01b1 63be 977b 993e ec82 9b3e
00000330: af1b 85bd 5fd0 a03e b177 9abd c14c 77be
00000340: 1f8d 333e 02db f6be 3ab2 693e 01ad 943d
00000350: c362 b8be 8a06 b7bd 46f6 c0be 9dae fc3d
00000360: 7e8e 303e 991d b4bd 8bd2 763e 1c34 79be
00000370: 2579 00bf b982 f8bc 5d78 7dba f476 353e
00000380: 16a2 a6be c3eb 833d 51b1 f9bd cd0a 013f
00000390: 5e93 f1bd 7bb6 04be 95cc 103d 086f cd3d
000003a0: 6c02 773e f629 ca3d 0929 773d 1338 d5bd
000003b0: 281e 5d3d e7c4 87bd e829 9bbd 53b4 84bd
000003c0: 8f17 0fbe 1450 813d 5d64 7abc 6f2a 18be
000003d0: 59fe 97be 5eff 773e c184 c9bd 35f2 81be
000003e0: 0b52 47bd 2238 12be 0375 9c3c b826 1c3d
000003f0: 9bf2 96be 7f83 803e 5b28 e7be ec42 553d

bias f4 [20]
0.009306687 -0.039167754 -0.06712034 -0.0022198712 0.010483286 0.09732086 -0.22274633 -0.20900288
0.13591176 0.022586567 0.1013559 0.032125633 -0.09863962 -0.1057844 -0.07238575 0.1295184
0.22183502 0.038073834 0.13982356 0.06565899
00000000: 137b 183c 5e6e 20bd 6476 89bd 427b 11bb
00000010: 17c2 2b3c 2950 c73d 9d17 64be da04 56be
00000020: 742c 0b3e 7707 b93c af93 cf3d 2b96 033d
00000030: 9203 cabd 7ea5 d8bd fb3e 94bd 79a0 043e
00000040: b828 633e 4ff3 1b3d e82d 0f3e 3878 863d

weight f4 [20, 20]
0.10444277 0.14180249 -0.20007165 0.31816766 -0.04497886 0.11130189 -0.067081645 0.1311491
0.11065924 0.1950599 0.08727481 0.060965396 0.24685645 0.008224608 0.01534888 0.26608232
0.18436486 0.15361956 0.17316097 -0.33531898 0.08284377 0.3177828 -0.34710553 -0.03091024
0.09745616 0.06396311 -0.18804014 0.3249693 0.26411235 0.20732853 -0.15909307 -0.26006296
0.24125867 -0.050734136 -0.0063685207 -0.25765228 0.29899347 -0.26943007 -0.20718892 0.025742853
-0.38769794 -0.106056325 -0.015097583 -0.24289656 -0.38019213 0.12098094 0.068906166 -0.52690476
-0.21346436 -0.003397866 -0.098555945 -0.27145007 -0.1533337 -0.08734167 0.36061707 0.42537177
0.1463231 0.059167348 0.17589347 0.4652267 -0.31416774 0.025946883 -0.16660073 -0.21493906
-0.122026786 0.07509232 -0.18934886 -0.26088712 -0.16731572 0.24727105 0.109821536 0.17811121
0.043790203 0.15751997 0.2849066 0.3052464 -0.35780767 0.108802095 0.039742477 -0.019363
-0.10637709 -0.2214835 -0.09688049 -0.18233968 -0.4842391 -0.16322577 -0.20870663 -0.31011203
0.0624714 -0.3176434 0.33028683 -0.018842926 -0.27277702 -0.05447565 -0.07512926 -0.18557778
-0.036338806 -0.010201876 -0.057152312 -0.2317258 -0.16437425 -0.0013397866 -0.53143203 0.18478934
-0.59823316 -0.2161058 -0.0018680715 -0.24363995 0.3346643 -0.12031408 -0.058389947 0.33337504
-0.22763292 -0.32489848 -0.042515576 0.31174916 0.31641316 -0.07548372 -0.099098384 0.46111572
-0.16731778 0.039102163 -0.15395267 0.22666986 0.2467848 -0.12768023 0.14127286 -0.16784655
0.239462 0.04267874 0.12575066 -0.063916445 -0.18937519 -0.14515638 0.27558124 -0.5649661
-0.029874047 -0.24779403 -0.062560745 -0.3966369 0.1175253 0.0139784645 -0.2526716 0.254509
0.3018509 -0.05013616 -0.17835256 -0.055425618 0.173677 0.08422178 0.04057001 -0.12148024
0.038050093 -0.10956703 0.11304434 -0.03412988 0.0014706078 0.33891967 -0.3825183 0.12932117
-0.17954408 -0.19232936 0.053999595 0.345029 0.291095 0.066477 -0.0133733675 0.46449125
0.5801979 0.2202233 -0.18039612 -0.13278872 0.005311035 -0.07311971 -0.03638148 0.13030905
0.26418447 -0.3629189 0.016270654 -0.29602867 -0.19340944 -0.38297987 -0.004962507 0.29998165
0.021652848 0.12758605 -0.009157151 -0.26656088 -0.033454273 -0.15531722 0.04949874 -0.076595925
-0.3163604 -0.024649732 -0.18894348 -0.4221933 0.08892329 -0.23988682 -0.18149272 0.20955488
0.3196699 0.21319176 0.29709032 -0.02879932 -0.09417745 -0.029740263 0.28949475 -0.092528366
-0.120260246 0.24140829 0.03084396 -0.31502464 -0.27402762 0.07487921 -0.09704458 0.2911133
-0.08989132 -0.17027739 0.050278008 -0.1820508 0.24207096 0.12610774 0.42887878 0.0028035303
-0.25192317 0.32636216 -0.028749656 -0.3736489 0.11036382 -0.2726434 0.342864 0.18781415
0.23595522 -0.012199669 -0.36999792 0.28361073 0.2657509 -0.06909156 0.4429527 -0.00014353686
0.220638 -0.16088516 0.31453854 -0.21388617 -0.2818117 0.13857079 -0.17666875 -0.42612657
0.07492714 0.21882413 -0.11267455 -0.10229086 0.06796128 0.13142747 0.14677742 0.15077248
00000000: 17e6 d53d ac34 113e 95df 4cbe dfe6 a23e
00000010: c13b 38bd 3ff2 e33d 1a62 89bd f34b 063e
00000020: 50a1 e23d c8bd 473e 23bd b23d dab6 793d
00000030: f0c7 7c3e 82c0 063c de79 7b3c f13b 883e
00000040: 24ca 3c3e 724e 1d3e 1c51 313e eeae abbe
00000050: ffa9 a93d 6db4 a23e d1b7 b1be 7937 fdbc
00000060: 1897 c73d 17ff 823d 988d 40be 6062 a63e
00000070: bc39 873e ee4d 543e 4be9 22be f926 85be
00000080: 830c 773e 99ce 4fbd 06af d0bb 00eb 83be
00000090: ac15 993e bdf2 89be 5529 54be ade2 d23c
000000a0: 5880 c6be 0f34 d9bd da5b 77bc e0b9 78be
000000b0: 8ba8 c2be dbc4 f73d ad1e 8d3d 3be3 06bf
000000c0: 6796 5abe bbae 5ebb b3d7 c9bd 81fb 8abe
000000d0: 8203 1dbe 31e0 b2bd cda2 b83e 54ca d93e
000000e0: b9d5 153e 7659 723d 6b1d 343e 3232 ee3e
000000f0: 98da a0be 8f8e d43c 6299 2abe fc18 5cbe
00000100: 2ee9 f9bd 01ca 993d abe4 41be ff92 85be
00000110: d054 2bbe 9f34 7d3e 1dea e03d c962 363e
00000120: 5b5d 333d ea4c 213e 47df 913e 4249 9c3e
00000130: 9132 b7be a2d3 de3d 02c9 223d 279f 9ebc
00000140: 3bdc d9bd 92cc 62be 4769 c6bd 41b7 3abe
00000150: 30ee f7be a824 27be 31b7 55be 01c7 9ebe
00000160: 03e2 7f3d 28a2 a2be 5b1b a93e 7b5c 9abc
00000170: 6ea9 8bbe dc21 5fbd 5fdd 99bd 1a08 3ebe
00000180: 00d8 14bd c525 27bc 8b18 6abd 8749 6dbe
00000190: b951 28be c79b afba ee0b 08bf 6b39 3d3e
000001a0: cf25 19bf d74a 5dbe 14da f4ba c07c 79be
000001b0: 1e59 ab3e 3a67 f6bd 4c2a 6fbd 22b0 aa3e
000001c0: 9b18 69be 1859 a6be d024 2ebd 969d 9f3e
000001d0: e800 a23e 3597 9abd 18f4 cabd 5c17 ec3e
000001e0: 5a55 2bbe 9729 203d c5a5 1dbe 251c 683e
000001f0: 28b5 7c3e 9bbe 02be d5a9 103e f7df 2bbe
00000200: 8735 753e e7cf 2e3d c8c4 003e a0e6 82bd
00000210: 92eb 41be e0a3 14be fc18 8d3e 9ea1 10bf
00000220: 6bba f4bc b8bd 7dbe d91f 80bd fe13 cbbe
00000230: 1bb1 f03d ee05 653c 2c5e 81be 014f 823e
00000240: 338c 9a3e 935b 4dbd 0ea2 36be f905 63bd
00000250: 62d8 313e 787c ac3d bd2c 263d a2ca f8bd
00000260: 6ada 1b3d ae64 e0bd ca83 e73d c6cb 0bbd
00000270: 69c1 c03a e186 ad3e 70d9 c3be c56c 043e
00000280: 67da 37be fdf1 44be ae2e 5d3d a4a7 b03e
00000290: 670a 953e 1825 883d f81b 5bbc ccd1 ed3e
000002a0: d987 143f 3782 613e c3b9 38be c4f9 07be
000002b0: 3108 ae3b c9bf 95bd bf04 15bd bc6f 053e
000002c0: 3043 873e 82d0 b9be 094a 853c 1291 97be
000002d0: 200d 46be f015 c4be 879c a2bb 3297 993e
000002e0: 5061 b13c eba5 023e e007 16bc ab7a 88be
000002f0: 5907 09bd 7a0b 1fbe 31bf 4a3d 53de 9cbd
00000300: fef9 a1be 3cee c9bc 667a 41be b829 d8be
00000310: 6a1d b63d e4a4 75be 3ad9 39be 8e95 563e
00000320: c6ab a33e f14e 5a3e 391c 983e 8dec ebbc
00000330: 1be0 c0bd daa1 f3bc a838 943e 837f bdbd
00000340: 014b f6bd bc33 773e 79ac fc3c e94a a1be
00000350: 594d 8cbe 455a 993d 4fbf c6bd cd0c 953e
00000360: f118 b8bd 325d 2ebe 50f0 4d3d 866b 3abe
00000370: 73e1 773e 6322 013e 0096 db3e 6fbb 373b
00000380: 13fc 80be f118 a73e 6684 ebbc e94e bfbe
00000390: 6d06 e23d ea97 8bbe df8b af3e 5a52 403e
000003a0: 3f9e 713e 1fe1 47bc 5e70 bdbe 6d35 913e
000003b0: 8110 883e e07f 8dbd b2ca e23e 6282 16b9
000003c0: eeee 613e 14bf 24be 320b a13e fa04 5bbe
000003d0: a049 90be 80e5 0d3e a7e8 34be 432d dabe
000003e0: 6673 993d 6f13 603e eac1 e6bd df7d d1bd
000003f0: 492f 8b3d ec94 063e d24c 163e 1a64 1a3e

bias f4 [20]
0.07442625 0.15983984 0.11395968 -0.034373768 0.07931962 0.032529615 0.046769835 0.21120077
0.16626328 0.040635787 -0.08483876 0.15560184 -0.094683506 -0.1331501 -0.016510215 -0.19921084
-0.16272491 0.041119825 0.16426246 0.11865238
00000000: ca6c 983d 0ead 233e b163 e93d 82cb 0cbd
00000010: 5372 a23d c63d 053d ba91 3f3d 0445 583e
00000020: ec40 2a3e b671 263d f2bf adbd 1756 1f3e
00000030: 6de9 c1bd 8058 08be 6e40 87bc edfd 4bbe
00000040: 5ca1 26be 436d 283d 6b34 283e 0500 f33d

weight f4 [20, 20]
-0.1119266 0.13785666 -0.35890397 -0.07332185 -0.06266794 -0.062994346 0.44881186 -0.11182999
0.43520066 0.26975244 0.110158786 -0.05801423 -0.11436988 -0.05876927 -0.32446262 0.4000785
-0.30347523 0.32150814 -0.087931044 -0.070544 0.20372692 0.48867548 0.10420899 0.16892685
-0.28359687 0.10776678 -0.27459273 -0.22742261 0.26175994 0.09120925 0.19919933 -0.17735277
-0.19756314 -0.08606734 -0.08038077 0.16502006 0.35607305 0.10216238 0.12932438 0.031683084
-0.23773472 -0.1947374 0.3740377 0.15698376 0.019127855 -0.10373566 -0.17907855 0.12561269
-0.07838725 0.053869992 0.13139513 0.034646038 -0.2552039 0.12817204 0.28515783 0.35465533
0.028737377 0.15905885 -0.32457238 0.061596047 0.1745766 -0.018900272 0.24782194 -0.3780787
-0.021778176 -0.26964688 -0.44910425 -0.09873838 -0.13445085 0.2787818 -0.1567666 0.27625918
0.060358666 0.21222964 0.15326127 -0.051232047 0.28199923 -0.073227584 -0.30252817 -0.50758314
0.18791619 0.075538605 0.18469498 0.20528106 0.7643973 0.047754623 0.35547194 0.21005964
0.17523615 0.104485005 -0.28175786 0.07693511 -0.31332514 0.08101879 0.052893206 -0.4564467
-0.23080504 0.1136837 0.31921682 0.38562635 0.132432 -0.1630996 -0.12876305 -0.18748741
-0.43705565 0.29742715 0.27713862 0.62640065 -0.1493479 -0.25699154 0.276426 0.2216016
-0.43186444 0.29472238 0.0006470562 0.18042178 -0.12103419 -0.018795593 0.090741076 0.3585463
-0.39495832 0.21787475 -0.18351682 -0.16315888 -0.0053001945 0.26211697 -0.08108993 -0.102409825
0.016753992 -0.49150744 0.13086294 -0.19733982 -0.07035827 -0.26964095 -0.2116015 -0.20405003
-0.26014894 -0.014400105 0.323187 -0.011277006 0.33189708 -0.3245925 0.049687732 0.20173492
-0.21341263 0.10085293 0.06937114 -0.15332231 -0.12177945 -0.11259526 -0.052851886 -0.1341872
-0.1285711 0.17314059 -0.00578441 0.19734694 0.13792978 0.0108537525 -0.2197715 -0.20041187
-0.09336228 -0.072324686 -0.046953157 0.04120171 -0.06554893 -0.07559893 0.23026949 -0.05203015
0.038279098 0.19102073 -0.06545733 0.08159378 -0.026640838 0.20350678 0.038967066 -0.4532064
-0.16221067 0.045482025 -0.07732406 -0.29735136 0.28904158 0.35600019 -0.378424 -0.38119692
0.11458474 0.15459688 0.2692509 0.29882902 -0.1792586 -0.17596674 -0.17724904 -0.055230234
0.12473096 -0.0677853 0.10660038 0.3085568 0.10299605 0.07380186 0.13219562 -0.12864919
0.112394184 -0.22119981 -0.19155622 -0.111892164 0.2011542 -0.23860897 0.01254596 0.16522004
0.26074666 0.031334866 -0.18248133 -0.42213967 0.048504185 -0.24292812 0.14895111 0.046626516
-0.006656762 -0.17417958 0.53730094 0.18554561 0.08483891 -0.040472496 0.3048681 -0.09364035
0.107896894 -0.017756125 -0.045964517 -0.0011662539 0.28116384 0.054536216 0.25019512 -0.049096208
-0.02469264 -0.20591573 -0.121009275 -0.1785943 -0.18754919 0.07638324 0.44511837 0.23488493
-0.27955642 -0.018390462 0.32257992 0.115706004 0.2168185 0.1742147 0.08943187 -0.07635209
-0.5303426 -0.47240394 0.018187324 0.080384694 0.31171528 -0.21220475 0.122842826 0.070051104
00000000: c639 e5bd 4c2a 0d3e 43c2 b7be c429 96bd
00000010: 0d58 80bd 2e03 81bd abca e53e 1f07 e5bd
00000020: 9fd2 de3e fe1c 8a3e ee9a e13d 54a0 6dbd
00000030: c13a eabd 0cb8 70bd f71f a6be 17d7 cc3e
00000040: 1b61 9bbe b79c a43e 3115 b4bd 5f79 90bd
00000050: ca9d 503e ac33 fa3e 866b d53d 29fb 2c3e
00000060: 9c33 91be d4b4 dc3d 6b97 8cbe 79e1 68be
00000070: 6605 863e eacb ba3d e9fa 4b3e f79b 35be
00000080: fe4d 4abe 1344 b0bd ac9e a4bd 05fb 283e
00000090: 354f b63e 833a d13d 9c6d 043e 1fc6 013d
000000a0: bb70 73be 3e69 47be df81 bf3e 5ac0 203e
000000b0: 05b2 9c3c 5d73 d4bd 5e60 37be 9da0 003e
000000c0: 7f89 a0bd c8a6 5c3d 728c 063e 01e9 0d3d
000000d0: 16aa 82be 883f 033e 3500 923e 6295 b53e
000000e0: a66a eb3c 53e0 223e 5a2e a6be 234c 7c3d
000000f0: 35c4 323e bed4 9abc 09c5 7d3e 8893 c1be
00000100: 2568 b2bc 280f 8abe fef0 e5be 5937 cabd
00000110: 7cad 09be 7dbc 8e3e 6c87 20be d871 8d3e
00000120: a63a 773d ba52 593e 86f0 1c3e b2d8 51bd
00000130: 3462 903e 58f8 95bd f9e4 9abe f8f0 01bf
00000140: 1a6d 403e fcb3 9a3d ae20 3d3e 3335 523e
00000150: 8baf 433f 5a9a 433d 6b00 b63e e019 573e
00000160: 1b71 333e 3cfc d53d 9142 90be 2890 9d3d
00000170: 276c a0be 2eed a53d 8ca6 583d 62b3 e9be
00000180: 2858 6cbe 00d3 e83d 6370 a33e d170 c53e
00000190: 419c 073e 9503 27be 76da 03be b3fc 3fbe
000001a0: c2c5 dfbe 5f48 983e 1de5 8d3e cb5b 203f
000001b0: a8ee 18be 6594 83be b587 8d3e 88eb 623e
000001c0: 561d ddbe dae5 963e 359f 293a 7dc0 383e
000001d0: c6e0 f7bd 37f9 99bc 75d6 b93d 6193 b73e
000001e0: fa37 cabe 8f1a 5f3e d5eb 3bbe 1f13 27be
000001f0: 41ad adbb 3234 863e 7a12 a6bd 3ebc d1bd
00000200: ab3f 893c dda6 fbbe ef00 063e 7313 4abe
00000210: ff17 90bd 610e 8abe 10ae 58be 7ef2 50be
00000220: 3e32 85be 6bee 6bbc c478 a53e 31c3 38bc
00000230: 6aee a93e fd30 a6be 5d85 4b3d 9993 4e3e
00000240: d788 5abe fb8b ce3d 7512 8e3d 8600 1dbe
00000250: 8167 f9bd 5898 e6bd 387b 58bd 5f68 09be
00000260: 24a8 03be c44b 313e 268b bdbb 5115 4a3e
00000270: 773d 0d3e f0d3 313c c80b 61be c538 4dbe
00000280: b934 bfbd f71e 94bd f451 40bd 20c3 283d
00000290: 843e 86bd 9dd3 9abd c4cb 6b3e 911d 55bd
000002a0: 8bca 1c3d f09a 433e 7e0e 86bd a41a a73d
000002b0: e33d dabc 1564 503e ee9b 1f3d ab0a e8be
000002c0: 8e1a 26be 5c4b 3a3d 145c 9ebd 703e 98be
000002d0: 42fd 933e a845 b63e cac0 c1be 3e2c c3be
000002e0: 67ab ea3d a54e 1e3e 41db 893e 1e00 993e
000002f0: 918f 37be a030 34be c680 35be 1939 62bd
00000300: f272 ff3d 05d3 8abd 4d51 da3d 28fb 9d3e
00000310: 98ef d23d 6e25 973d 4a5e 073e 9dbc 03be
00000320: ec2e e63d 3482 62be 5027 44be b827 e5bd
00000330: 5efb 4d3e e955 74be 928d 4d3c 712f 293e
00000340: 9680 853e fd58 003d 63dc 3abe b122 d8be
00000350: 53ac 463d 26c2 78be a486 183e 72fb 3e3d
00000360: f820 dabb 225c 32be 8e8c 093f abff 3d3e
00000370: 06c0 ad3d 7dc6 25bd ac17 9c3e 83c6 bfbd
00000380: 0cf9 dc3d 4b75 91bc 4a45 3cbd fddc 98ba
00000390: b5f4 8f3e 5e61 5f3d 9319 803e 1b19 49bd
000003a0: 3848 cabc 93db 52be b6d3 f7bd 6de1 36be
000003b0: e50c 40be d16e 9c3d 8ee6 e33e ad85 703e
000003c0: 0522 8fbe 98a7 96bc 3229 a53e 45f7 ec3d
000003d0: ab05 5e3e 5765 323e 0e28 b73d 7c5e 9cbd
000003e0: 88c4 07bf eede f1be 95fd 943c bba0 a43d
000003f0: 2599 9f3e 344c 59be 0595 fb3d f476 8f3d

bias f4 [20]
0.07485245 0.033529196 -0.057332054 -0.17760566 0.24469647 0.0884506 0.17123747 -0.09777062
0.06942926 0.03559816 0.13501684 0.2625028 -0.17124328 0.1054197 -0.087419644 0.34017012
0.20018476 -0.05551114 0.036767427 0.029657496
00000000: 3e4c 993d e955 093d 04d5 6abd 42de 35be
00000010: b691 7a3e 9725 b53d e058 2f3e f63b c8bd
00000020: ee30 8e3d 60cf 113d db41 0a3e c466 863e
00000030: 665a 2fbe 49e6 d73d 1209 b3bd c72a ae3e
00000040: 3cfd 4c3e a65f 63bd 7199 163d 47f4 f23c

weight f4 [20, 20]
0.138347 -0.048097447 -0.063870616 -0.11323924 -0.01963461 -0.31833467 -0.13175113 0.40661198
-0.27941617 0.26585516 -0.07477482 -0.2763388 0.15174967 0.018679662 0.14737709 0.094961405
-0.2985489 0.16265516 0.042125102 0.016167218 0.044360865 0.044893734 0.19156942 0.26343817
-0.13150164 -0.1918445 -0.039914668 0.14491367 0.26888424 0.053442374 -0.40245897 0.023038823
0.59297985 -0.16655944 -0.0030835639 -0.7491984 -0.046347577 0.569286 -0.41961053 0.053667787
-0.084745154 0.04392644 0.43825194 0.16437642 -0.038969 0.39534917 -0.27465817 -0.12093774
0.1069613 -0.45822668 -0.061201606 0.029287074 0.14286284 -0.1666711 0.087019384 -0.4376856
-0.2259172 0.007669372 -0.3814117 -0.1488345 0.16847879 -0.05178388 0.008325497 -0.26032364
0.011678558 0.11234416 0.12327144 -0.15663064 0.27831888 -0.16882628 0.16829875 0.3280121
-0.3336866 0.20986375 -0.39830068 -0.13880637 -0.065054886 0.13728648 0.14307547 -0.0489131
0.25886673 -0.077095285 -0.006053269 -0.12648985 0.21322273 0.31925038 0.43308598 0.32265183
-0.118641034 -0.33007282 -0.013725472 0.099997915 0.21249114 0.15724465 -0.45100185 0.1643797
-0.22791266 -0.19622925 0.59529674 0.36564934 -0.21448226 0.16381466 0.10799732 0.1380802
-0.18331361 -0.22037315 -0.13810235 0.16029575 -0.21147095 -0.19278145 0.027191432 0.058945384
0.3131627 -0.38753298 0.17295456 0.04332533 0.12208514 0.5208229 -0.2849745 -0.018129716
0.55613583 0.13054618 -0.03168515 0.076657854 0.36090922 0.4508687 0.14887767 0.0016583754
-0.19081016 -0.0029325753 0.1837422 0.35237443 -0.3319935 0.1501463 -0.16734819 0.2903008
-0.21686332 -0.018682025 0.3153916 0.087189324 -0.5334947 -0.3592551 -0.03775069 0.46514452
-0.34167683 -0.04589308 0.2420671 0.17208369 0.02898744 -0.05209177 0.102643654 -0.6532802
-0.27957156 -0.046362218 0.24165803 -0.21998069 0.0014678412 0.26041314 0.18259835 -0.4149202
-0.253185 0.23374864 0.325028 0.41988575 -0.093221754 -0.013446263 0.29065448 -0.15782869
-0.09560174 -0.38504028 -0.28843915 0.21170335 0.40780628 -0.39173672 0.0050671264 0.13120276
0.10971249 -0.0026764274 -0.21669738 -0.05712076 -0.32473636 0.32063568 -0.012873069 -0.39546815
0.15969028 -0.2817606 0.19645733 0.104527935 0.038749058 0.19363742 -0.18228382 0.3980647
-0.05135834 -0.04364198 0.049214393 -0.18588908 0.2041085 -0.2976457 -0.2530427 -0.013621025
0.023298807 0.16544034 0.16965677 -0.15121828 -0.4790635 -0.59822774 0.30101085 0.04952771
0.14068565 0.31451613 -0.021857254 -0.1209159 0.16048843 0.034665644 0.35844633 -0.37794372
0.1459997 -0.3104762 0.20762248 0.16927564 0.09842106 -0.05167654 0.31821385 0.062193703
-0.018179804 0.35960647 -0.37506297 -0.410092 0.23653054 -0.25068736 0.24209785 0.21642588
0.64651 0.28386748 0.4647385 -0.12957205 -0.42112726 0.36900872 -0.38196915 -0.122398406
0.40708172 0.22704822 -0.18989249 -0.14175905 0.04288216 0.11924429 0.19502209 -0.18777576
0.2442526 0.23331344 0.07480129 0.40110332 0.21982588 -0.061576664 -0.2668434 0.5530338
00000000: d6aa 0d3e d401 45bd 99ce 82bd fae9 e7bd
00000010: c3d8 a0bc c3fc a2be c5e9 06be 722f d03e
00000020: a30f 8fbe 2b1e 883e 8a23 99bd 477c 8dbe
00000030: 4464 1b3e 1706 993c 05ea 163e 207b c23d
00000040: 67db 98be 138f 263e 5f8b 2c3d 1d71 843c
00000050: bdb3 353d 7ee2 373d c62a 443e 5ee1 863e
00000060: 5ea8 06be e272 44be 907d 23bd 4064 143e
00000070: 32ab 893e 64e6 5a3d 1a0f cebe eabb bc3c
00000080: 87cd 173f 8f8e 2abe 9e15 4abb 77cb 3fbf
00000090: f5d6 3dbd babc 113f 31d7 d6be c1d2 5b3d
000000a0: de8e adbd 36ec 333d 8f62 e03e 4b52 283e
000000b0: f59d 1fbd 356b ca3e ff9f 8cbe 35ae f7bd
000000c0: 870e db3d b09c eabe 89ae 7abd 72eb ef3c
000000d0: a34a 123e d4ab 2abe 3837 b23d 5418 e0be
000000e0: d756 67be 5b4f fb3b 6548 c3be 1268 18be
000000f0: b485 2c3e 551b 54bd aa67 083c 2449 85be
00000100: 6c57 3f3c b214 e63d bd75 fc3d c863 20be
00000110: d07f 8e3e cce0 2cbe 8256 2c3e 34f1 a73e
00000120: f8d8 aabe 86e6 563e 11ee cbbe 4223 0ebe
00000130: 7f3b 85bd d494 0c3e 6082 123e 1a59 48bd
00000140: 2e8a 843e 22e4 9dbd 805a c6bb 8e86 01be
00000150: 0f57 5a3e c974 a33e 72bd dd3e 9f32 a53e
00000160: 12fa f2bd 4eff a8be cde0 60bc b5cb cc3d
00000170: 4797 593e be04 213e b7e9 e6be 2753 283e
00000180: f061 69be 52f0 48be 5e65 183f 6436 bb3e
00000190: 3da1 5bbe 08bf 273e b32d dd3d e564 0d3e
000001a0: 90b6 3bbe 80a9 61be b46a 0dbe 9224 243e
000001b0: d78b 58be 8068 45be 91c0 de3c b770 713d
000001c0: dd56 a03e b96a c6be 001b 313e e775 313d
000001d0: c607 fa3d a654 053f 2de8 91be c584 94bc
000001e0: eb5e 0e3f e6ad 053e 4ac8 01bd cbfe 9c3d
000001f0: 18c9 b83e 43d8 e63e 6373 183e d85d d93a
00000200: bd63 43be 7330 40bb ea26 3c3e 6c6a b43e
00000210: 0dfb a9be f4bf 193e 535d 2bbe 4ea2 943e
00000220: 6b11 5ebe 0c0b 99bc 027b a13e 5190 b23d
00000230: 1c93 08bf 49f0 b7be 78a0 1abd 6c27 ee3e
00000240: 44f0 aebe 62fa 3bbd 70e0 773e b536 303e
00000250: 1177 ed3c 2e5e 55bd d636 d23d 5f3d 27bf
00000260: 0124 8fbe 4fe6 3dbd 3475 773e 9e42 61be
00000270: 9464 c03a df54 853e 10fb 3a3e 6c70 d4be
00000280: 77a1 81be ce5b 6f3e 126a a63e 44fb d63e
00000290: 0ceb bebd b74d 5cbc aad0 943e d89d 21be
000002a0: d8ca c3bd 0024 c5be 4cae 93be c3c8 583e
000002b0: fccb d03e b791 c8be 230a a63b 045a 063e
000002c0: f1b0 e03d 0067 2fbb ebe5 5dbe 75f7 69bd
000002d0: d843 a6be 5c2a a43e 91e9 52bc cd7a cabe
000002e0: d985 233e ed42 90be 1c2c 493e be12 d63d
000002f0: 55b7 1e3d e348 463e 9ca8 3abe 23cf cb3e
00000300: 1f5d 52bd efc1 32bd 0895 493d b559 3ebe
00000310: d201 513e 0465 98be d08e 81be b82a 5fbc
00000320: 24dd be3c 3169 293e 81ba 2d3e f7d8 1abe
00000330: d047 f5be 7425 19bf 181e 9a3e 91dd 4a3d
00000340: e60f 103e 4208 a13e fc0d b3bc c1a2 f7bd
00000350: 1457 243e 90fd 0d3d 4786 b73e d781 c1be
00000360: f280 153e bdf6 9ebe fd9a 543e 9856 2d3e
00000370: fb90 c93d c8aa 53bd edec a23e d3be 7e3d
00000380: d0ed 94bc 571e b83e 4108 c0be 94f7 d1be
00000390: 1035 723e 185a 80be 80e8 773e bf9e 5d3e
000003a0: ae81 253f 1457 913e 34f2 ed3e 89ae 04be
000003b0: fe9d d7be b6ee bc3e 7691 c3be 04ac fabd
000003c0: 046d d03e 547f 683e 2d73 42be 4929 11be
000003d0: 34a5 2f3d 5a36 f43d dfb3 473e 4a48 40be
000003e0: 5b1d 7a3e b8e9 6e3e 6b31 993d 6a5d cd3e
000003f0: 091a 613e d037 7cbd b39f 88be a093 0d3f

bias f4 [20]
-0.022676302 -0.24380115 -0.14666998 0.1795281 0.17595422 -0.12965994 0.24454583 -0.24614403
-0.18184508 0.1119787 -0.0814457 -0.1666719 0.060647268 -0.1447474 -0.29194203 -0.06617505
0.117913 0.35739097 0.16297753 -0.28827992
00000000: a7c3 b9bc 02a7 79be a830 16be 37d6 373e
00000010: 582d 343e 93c5 04be 396a 7a3e 2e0d 7cbe
00000020: 9935 3abe 1755 e53d 01cd a6bd 0aac 2abe
00000030: 4569 783d aa38 14be 6d79 95be c986 87bd
00000040: 5f7c f13d f3fb b63e 95e3 263e 6d99 93be

weight f4 [1, 20]
-0.24359663 -1.4643335 -0.83760303 0.50610906 1.0047733 -1.0781517 1.4419547 -1.2435353
-0.48569047 0.11900542 -0.23108962 -0.75510085 0.8281215 -1.5942726 -0.9924892 -0.10227907
0.8850095 1.3081855 0.5241463 -0.935191
00000000: 6571 79be 486f bbbf 276d 56bf 5d90 013f
00000010: 699c 803f e000 8abf f991 b83f 2a2c 9fbf
00000020: 6cac f8be 1db9 f33d c2a2 6cbe 4a4e 41bf
00000030: c5ff 533f 2011 ccbf c613 7ebf b077 d1bd
00000040: fc8f 623f 9f72 a73f 742e 063f ad68 6fbf

u_b f4 [2]
1.0 39.96
00000000: 0000 803f 0ad7 1f42

l_b f4 [2]
0.0 0.0
00000000: 0000 0000 0000 0000
