Trained/Models_00/Noise_2/toy_stop/border_o1.pt (torch, 51615 bytes, 23 tensors)

weight f4 [20, 2]
0.26748747 -0.26794943 -0.11668238 0.21156318 -0.5231523 -1.7239842 -0.13425882 0.23816846
0.35271353 -0.81825817 0.546152 -0.2674891 -0.72094053 -0.07648966 0.21354823 -0.68888044
-0.13642596 -0.13970968 -0.2391174 0.042657334 0.11209861 0.1903305 0.2693419 -0.15515865
0.22585991 -0.40272194 -0.5525698 0.050692182 0.26021266 -0.6913538 0.83562875 -0.7179155
0.42257914 0.20612629 -1.132143 -0.38936958 -0.24850582 -0.086495325 0.5096494 0.35334298
00000000: 1ef4 883e ab30 89be 2cf7 eebd 05a4 583e
00000010: 4fed 05bf 84ab dcbf 257b 09be 6fe2 733e
00000020: de96 b43e 5e79 51bf 9ed0 0b3f 55f4 88be
00000030: 8f8f 38bf 9ca6 9cbd 63ac 5a3e 785a 30bf
00000040: 3fb3 0bbe 0e10 0fbe 31db 74be 75b9 2e3d
00000050: f593 e53d 00e6 423e 2ee7 893e e9e1 1ebe
00000060: d247 673e 9231 cebe 3775 0dbf 9ba2 4f3d
00000070: 983a 853e 90fc 30bf c4eb 553f 4fc9 37bf
00000080: 4b5c d83e c512 533e 10ea 90bf 735b c7be
00000090: 4f78 7ebe 7624 b1bd 6278 023f 5fe9 b43e

bias f4 [20]
0.36205974 0.1344079 -1.1554921 -0.6077798 0.59876907 -0.102901444 -0.55678666 0.17639819
0.27456868 -0.14313728 0.21851014 -0.03700701 -0.23553677 0.02271575 0.2035463 -0.17229387
-1.0512342 0.09614374 -0.12402319 0.28019568
00000000: e55f b93e 39a2 093e 2ae7 93bf 7597 1bbf
00000010: ee48 193f febd d2bd 9289 0ebf baa1 343e
00000020: 4494 8c3e 9492 12be 1fc1 5f3e aa94 17bd
00000030: 8d30 71be 6116 ba3c 716e 503e ce6d 30be
00000040: d88e 86bf 02e7 c43d dfff fdbd cf75 8f3e

weight f4 [20, 20]
0.14277571 0.14256135 -0.14963123 0.07249415 0.4619959 -0.011253069 0.28454724 0.28243065
0.2576478 0.3952555 0.19568543 0.09224409 0.4906636 0.15720612 0.78484976 -0.33171064
0.01903799 -0.5087717 -0.041743908 0.039804015 0.3071816 0.060814217 -0.41263807 0.11163419
-0.21252069 -0.2619785 -0.50641185 -0.268417 0.2632002 -0.07274822 0.04339486 0.012633412
-0.22346948 -0.01196303 -0.27636462 0.31494597 0.21787396 -0.32049042 -0.04590787 0.04536205
0.28876612 0.09421939 -0.039533816 -0.6123635 0.8052889 -0.007331183 -0.08778573 0.38170174
0.098007075 -0.28431135 -0.27941388 0.18087527 -0.1748433 -0.04143019 0.15843579 -0.020990081
0.049253847 -0.037941303 0.08050162 -0.47731084 0.209046 -0.006399202 -0.36736307 0.10266797
0.090567775 0.31777123 -0.3811138 0.18074027 -0.17419462 0.03865477 0.09502472 0.17695267
0.3592684 -0.080090724 0.052584708 0.11974792 -0.15943678 0.015355176 0.20119788 0.24804093
0.37221482 -0.042588472 0.18766852 -0.13518262 -0.2673523 -0.13685025 -0.012339573 0.3902053
-0.013805465 -0.17686045 0.1443069 -0.006366603 -0.08502541 -0.291655 -0.17896698 0.38033003
-0.2856384 0.35511845 0.014083504 0.32030198 0.034481928 0.09282654 0.089847855 0.07180937
-0.107201375 0.28735745 -0.29395476 -0.32780644 0.10645794 -0.26045543 0.26623532 -0.01375385
-0.42981777 -0.3123361 0.33453572 0.13347052 -0.23738408 -0.032771125 0.0531252 0.36961997
-0.41618994 -0.065484285 0.040540136 0.009343478 -0.088867046 -0.48076314 0.15514088 0.06693971
0.25662506 -0.29326904 0.17562398 -0.1303644 0.017845424 -0.06430848 0.25030953 0.13905177
-0.16502556 -0.34883508 0.053855762 -0.15250282 0.22446792 0.2217548 0.19010256 -0.015749509
0.34403148 0.54541945 -0.7579884 0.20765646 -0.11737194 -0.31653047 0.14099395 0.26251686
0.30529714 -0.6960194 0.044335093 0.23605548 -0.04355906 -0.36243236 -0.2581763 0.4192009
0.12898824 -0.12742671 -0.03268922 0.032718718 -0.47392094 0.15008979 -0.22125249 -0.17255764
-0.2529993 -0.117117584 0.12891258 0.054576285 -0.0075416467 -0.029352445 -0.10476524 0.41244027
0.031673588 0.59920937 0.16193396 -0.2400382 0.11352069 -0.0020091485 0.50154775 -0.17185234
0.5107079 0.31852278 0.11775751 0.20328379 0.38653257 0.106225036 0.08998728 -0.29497576
-0.06591154 0.23384209 -0.115755565 0.036853418 0.22608446 0.14741668 -0.20783527 0.04847559
-0.062252562 0.295037 0.6012444 -0.21380273 -0.22247721 -0.47204274 -0.07610801 0.03032334
0.3386241 -0.43687204 -0.16398746 -0.2678137 -0.39953724 0.031165749 -0.05245097 -0.16227798
-0.46674767 1.2481889 0.28583133 -0.3559425 -0.39519224 0.15420179 0.34119734 0.06713006
-0.1308352 0.054445054 -0.008284305 -0.14507343 -0.23565316 0.30627066 0.108624816 0.46854952
-0.10000755 -0.13273834 0.20648667 -0.18055966 -0.1345325 0.22289222 0.21926159 0.044455968
-0.36702448 0.21881388 0.2977661 0.20562105 -0.24754189 0.13608526 0.11591368 -0.23828802
0.1487697 0.32821462 -0.14672014 0.21746176 0.17388159 0.093202434 -0.025048492 -0.16721566
00000000: cc33 123e 9afb 113e ee38 19be d077 943d
00000010: ba8a ec3e cb5e 38bc 2db0 913e c09a 903e
00000020: 6aea 833e ee5e ca3e c361 483e 78ea bc3d
00000030: 4238 fb3e a4fa 203e eaeb 483f fad5 a9be
00000040: 8ff5 9b3c dd3e 02bf a9fb 2abd 8909 233d
00000050: e846 9d3e 5418 793d 4c45 d3be 77a0 e43d
00000060: 069f 59be 0c22 86be 35a4 01bf f46d 89be
00000070: 2dc2 863e 05fd 94bd cfbe 313d 5ffc 4e3c
00000080: 2fd5 64be 9600 44bc aa7f 8dbe 9940 a13e
00000090: 5a1a 5f3e 5217 a4be e409 3cbd 8fcd 393d
000000a0: 27d9 933e 18f6 c03d 36ee 21bd dbc3 1cbf
000000b0: 6a27 4e3f 6c3a f0bb 01c9 b3bd 696e c33e
000000c0: efb7 c83d 4291 91be 560f 8fbe 5e37 393e
000000d0: 1f0a 33be b4b2 29bd fe3c 223e 64f3 abbc
000000e0: 67be 493d 5768 1bbd 09de a43d 1662 f4be
000000f0: 2810 563e 66b0 d1bb 0317 bcbe 9643 d23d
00000100: 997b b93d e9b2 a23e 5921 c3be fa13 393e
00000110: 1360 32be 7754 1e3d 529c c23d 1533 353e
00000120: 07f2 b73e 9b06 a4bd 1063 573d 663e f53d
00000130: 6543 23be 4794 7b3c d106 4e3e 71fe 7d3e
00000140: f192 be3e 4071 2ebd 2d2c 403e 506d 0abe
00000150: 67e2 88be 7922 0cbe ec2b 4abc fdc8 c73e
00000160: 5130 62bc e81a 35be 30c5 133e f09e d0bb
00000170: cd21 aebd ce53 95be 1f43 37be 9eba c23e
00000180: 323f 92be 16d2 b53e 7fbe 663c 9ffe a33e
00000190: ec3c 0d3d d71b be3d 2702 b83d ca10 933d
000001a0: 658c dbbd 8420 933e 3d81 96be 3fd6 a7be
000001b0: 9f06 da3d 6a5a 85be ff4f 883e d457 61bc
000001c0: 1311 dcbe 84ea 9fbe 4448 ab3e 7fac 083e
000001d0: d014 73be 043b 06bd cf99 593d d43e bd3e
000001e0: d916 d5be a01c 86bd 6a0d 263d 6315 193c
000001f0: edff b5bd 9626 f6be 40dd 1e3e b017 893d
00000200: 5c64 833e 5c27 96be c6d6 333e 3f7e 05be
00000210: 9130 923c 2ab4 83bd 9228 803e 9663 0e3e
00000220: 76fc 28be 839a b2be dc97 5c3d b329 1cbe
00000230: ebda 653e b113 633e 3faa 423e 1d05 81bc
00000240: e524 b03e 9ca0 0b3f 870b 42bf e5a3 543e
00000250: b360 f0bd 4810 a2be b860 103e 9c68 863e
00000260: e84f 9c3e 542e 32bf b798 353d 87b8 713e
00000270: fc6a 32bd bc90 b9be af2f 84be 80a1 d63e
00000280: 7e15 043e 267c 02be 22e5 05bd 1004 063d
00000290: c4a5 f2be 23b1 193e 0390 62be f3b2 30be
000002a0: 2089 81be 58db efbd a901 043e 628b 5f3d
000002b0: eb1f f7bb 8a74 f0bc 288f d6bd 5f2b d33e
000002c0: 2abc 013d c965 193f 04d2 253e 93cc 75be
000002d0: 897d e83d ebab 03bb 6f65 003f 0ffa 2fbe
000002e0: c1bd 023f 6b15 a33e d92a f13d a029 503e
000002f0: 99e7 c53e 838c d93d 404b b83d 1007 97be
00000300: a1fc 86bd 4d74 6f3e 4111 edbd 9cf3 163d
00000310: af82 673e 66f4 163e c5d2 54be 578e 463d
00000320: 8bfc 7ebd 170f 973e 27eb 193f 1aef 5abe
00000330: 11d1 63be 96af f1be 84de 9bbd a768 f83c
00000340: 2360 ad3e b1ad dfbe 54ec 27be e11e 89be
00000350: 2590 ccbe 504f ff3c d4d6 56bd 332c 26be
00000360: 8df9 eebe a7c4 9f3f 7c58 923e 183e b6be
00000370: a356 cabe 13e7 1d3e 6bb1 ae3e 7c7b 893d
00000380: aaf9 05be c701 5f3d e5ba 07bc 218e 14be
00000390: 104f 71be 82cf 9c3e b076 de3d b9e5 ef3e
000003a0: c2d0 ccbd 8fec 07be 3e71 533e a2e4 38be
000003b0: e3c2 09be dc3d 643e 1c86 603e 7617 363d
000003c0: a2ea bbbe bf10 603e cc74 983e 538e 523e
000003d0: 9f7b 7dbe ef59 0b3e 2764 ed3d c601 74be
000003e0: 1657 183e bf0b a83e ce3d 16be 4cae 5e3e
000003f0: 040e 323e ebe0 be3d 7f32 cdbc 953a 2bbe

bias f4 [20]
0.055944655 0.5765904 0.00023398249 0.0942364 0.16314165 0.18267697 -0.0480785 0.124626145
-0.2492002 -0.22660068 -0.5921389 -0.22331798 -0.09668992 -0.16811728 -0.56008416 -0.0663456
0.118099675 -0.22016099 0.72538614 -0.012924414
00000000: 3926 653d 6e9b 133f 3259 7539 04ff c03d
00000010: 9b0e 273e ac0f 3b3e f6ed 44bd fe3b ff3d
00000020: 562e 7fbe 020a 68be 6a96 17bf 78ad 64be
00000030: 5d05 c6bd f026 2cbe ad61 0fbf 34e0 87bd
00000040: 3ede f13d e271 61be e8b2 393f ecc0 53bc

weight f4 [20, 20]
0.35406664 -0.36524647 0.119416974 0.20525952 -0.22861332 -0.15163091 0.23226558 0.30931813
-0.6980917 0.16030766 0.09815151 0.31737238 0.13077722 0.24511574 0.32144624 -0.14365011
0.3407318 -0.14069025 0.16153742 -0.31445676 0.2994679 0.010335956 0.100568585 0.026879886
0.12548456 0.28746477 0.23364425 -0.26112047 -0.1272581 0.15110968 -0.14656998 0.33717576
-0.08136787 -0.015247078 -0.09293786 0.30285168 -0.053063996 0.34974152 0.35343748 -0.0383757
-0.24257879 0.001803844 -0.016191952 -0.24479558 0.23903981 0.0966492 0.2973326 -0.023876978
0.13105936 0.16102657 -0.08939618 -0.2508033 -0.15940136 0.08411462 -0.008754473 0.22468054
0.19656332 -0.066019684 -0.15170787 0.08313549 0.4594874 -0.0595399 -0.3116702 -0.19675463
-0.38005117 -0.36816567 -0.41143158 -0.6808703 -0.3269565 -0.2625261 -0.1305592 0.089713596
-0.11796875 0.11866434 -0.10070302 0.32421735 -0.24287657 -0.18573634 0.114307895 0.40376163
0.25764388 -0.15028945 0.17747039 -0.055466175 0.15362824 -0.23738852 -0.19108064 -0.15644847
0.18018422 0.10183279 -0.4369201 -0.27629495 -0.016488006 -0.61983556 0.44191456 0.34398964
-0.17266555 -0.08060491 0.38563353 0.22782604 -0.13495083 -0.06234992 -0.0175014 -0.26262993
-0.29417288 -0.05991126 0.11022972 -0.45276687 0.008479431 0.035980653 -0.18478356 -0.0064791627
0.42357036 0.19157392 0.34381816 0.03588376 -0.019885885 0.20708022 0.1766776 -0.58326584
0.23804604 -0.010568257 0.0018452333 0.28136104 0.08784158 -0.021365251 -0.1989759 0.31621152
0.033798456 0.079862505 0.19372514 0.07254644 -0.16494885 0.29445928 -0.16889675 0.32278684
0.21700335 -0.52241564 -0.21658441 0.10419351 -0.12256787 0.18393888 -0.08096842 0.22513762
-0.064036354 -0.090224795 -0.19232991 0.27496088 0.35764703 0.11844834 0.15145108 -0.13268389
-0.10168488 -0.08097501 0.093042985 0.12245368 -0.15876983 0.36545092 0.04712018 0.050813574
-0.1178205 -0.05687003 -0.2936491 0.45300764 0.26688072 0.13077497 0.008308232 0.043842375
0.2308859 0.021072812 -0.065414995 0.2632142 -0.24669224 -0.35017934 0.30489722 -0.12674874
-0.07689947 -0.20141752 0.25796592 -0.2679387 0.58387375 -0.15183143 -0.20664969 -0.025972735
-0.24988987 0.27017304 -0.25220057 0.065900765 -0.08885673 -0.009008077 0.1808375 0.15870786
-0.13597104 0.009598718 -0.19226055 0.21809737 -0.07736936 -0.005217795 0.16842054 -0.3110494
0.2568371 -0.021319538 0.12396013 0.03010816 0.045086533 0.11224702 0.15534087 -0.050907895
-0.1596753 0.1414619 -0.25607675 0.11953984 -0.008533556 0.25380743 -0.32273093 0.2716756
0.093633145 -0.33737698 -0.1446586 -0.26054597 0.011924988 0.12017788 -0.20086055 -0.26890588
0.17473383 -0.27370876 0.059023865 -0.1811977 -0.39209607 0.17535305 -0.085014276 -0.013636616
0.33028704 0.34932253 -0.053616527 0.31366655 -0.03461717 0.67580926 -0.12074772 0.00726208
-0.34320343 0.061918397 -0.3256794 0.043461207 0.24034734 -0.3393147 0.01661796 0.44084078
0.04169793 0.09444808 0.065046884 -0.08285835 -0.2355887 -0.4010166 0.27689868 -0.702248
00000000: 3948 b53e 9601 bbbe e390 f43d 8d2f 523e
00000010: 9c19 6abe 2245 1bbe 07d7 6d3e f25e 9e3e
00000020: 23b6 32bf b127 243e a903 c93d a27e a23e
00000030: 77ea 053e 9fff 7a3e 9a94 a43e 0419 13be
00000040: 6674 ae3e 1b11 10be 116a 253e 7a00 a1be
00000050: db53 993e 2458 293c e7f6 cd3d 3533 dc3c
00000060: 067f 003e 952e 933e 7040 6f3e 95b1 85be
00000070: f34f 02be 7fbc 1a3e 7116 16be 4da2 ac3e
00000080: 33a4 a6bd e1ce 79bc 3456 bebd 600f 9b3e
00000090: a259 59bd 5211 b33e c2f5 b43e d72f 1dbd
000000a0: 9366 78be f66e ec3a fca4 84bc b1ab 7abe
000000b0: dac6 743e 04f0 c53d fb3b 983e a799 c3bc
000000c0: 6d34 063e 26e4 243e 5815 b7bd 4a69 80be
000000d0: 1c3a 23be 4944 ac3d ec6e 0fbc a812 663e
000000e0: e547 493e 5435 87bd 4f59 1bbe f142 aa3d
000000f0: ef41 eb3e 1ce0 73bd 3d93 9fbe 0c7a 49be
00000100: 1196 c2be 3680 bcbe 29a7 d2be 844d 2ebf
00000110: d866 a7be d269 86be 50b1 05be c3bb b73d
00000120: 9a99 f1bd 4a06 f33d 633d cebd d1ff a53e
00000130: a3b4 78be ab31 3ebe 421a ea3d d8b9 ce3e
00000140: e6e9 833e 7ae5 19be ccba 353e 8030 63bd
00000150: b950 1d3e fa15 73be a5aa 43be 0734 20be
00000160: 3682 383e b68d d03d feb3 dfbe 8876 8dbe
00000170: db11 87bc 8bad 1ebf a042 e23e 691f b03e
00000180: 3dcf 30be 3014 a5bd c271 c53e 3b4b 693e
00000190: 8d30 0abe a162 7fbd 195f 8fbc 6e77 86be
000001a0: d49d 96be 8265 75bd 1fc0 e13d 0fd1 e7be
000001b0: 50ed 0a3c 7360 133d e737 3dbe 284f d4bb
000001c0: 37de d83e f42b 443e ef08 b03e d9fa 123d
000001d0: b9e7 a2bc d60c 543e f9ea 343e e950 15bf
000001e0: 57c2 733e 7c26 2dbc c1db f13a 8e0e 903e
000001f0: 49e6 b33d 2e06 afbc 57c0 4bbe 7ae6 a13e
00000200: 4070 0a3d f48e a33d e25f 463e 3a93 943d
00000210: 5ae8 28be 5ec3 963e 45f3 2cbe 5144 a53e
00000220: 2036 5e3e 08bd 05bf 4ec8 5dbe 6863 d53d
00000230: dd04 fbbd 795a 3c3e c5d2 a5bd 7a8a 663e
00000240: 7e25 83bd c7c7 b8bd 22f2 44be acc7 8c3e
00000250: 831d b73e 0b95 f23d fe15 1b3e 49de 07be
00000260: 2a40 d0bd 3ad6 a5bd 528d be3d ffc8 fa3d
00000270: 8f94 22be 621c bb3e 1701 413d e521 503d
00000280: e04b f1bd 8cf0 68bd 2d59 96be 9ef0 e73e
00000290: 97a4 883e e0e9 053e 401f 083c 1094 333d
000002a0: 5a6d 6c3e e4a0 ac3c 4cf8 85bd 03c4 863e
000002b0: e49c 7cbe b54a b3be 7d1b 9c3e 6cca 01be
000002c0: 787d 9dbd 6540 4ebe 1c14 843e 432f 89be
000002d0: c078 153f b379 1bbe fa9b 53be c6c4 d4bc
000002e0: 21e3 7fbe 1f54 8a3e 6f20 81be fbf6 863d
000002f0: 84fa b5bd 9d96 13bc 772d 393e 5084 223e
00000300: fe3b 0bbe f143 1d3c f3df 44be eb54 5f3e
00000310: d473 9ebd 09fa aabb 6f76 2c3e de41 9fbe
00000320: 2780 833e 50a6 aebc cfde fd3d 63a5 f63c
00000330: a8ac 383d c4e1 e53d ad11 1f3e cc84 50bd
00000340: ec81 23be 63db 103e 7e1c 83be 4ed1 f43d
00000350: 54d0 0bbc 0cf3 813e fd3c a5be 1019 8b3e
00000360: bcc2 bf3d adbc acbe 6221 14be 4866 85be
00000370: 0661 433c d21f f63d 63ae 4dbe 08ae 89be
00000380: 6ded 323e 8e23 8cbe 02c3 713d e48b 39be
00000390: d1c0 c8be c08f 333e f71b aebd 1d6c 5fbc
000003a0: 621b a93e 67da b23e 019d 5bbd e798 a03e
000003b0: bcca 0dbd d601 2d3f 954a f7bd bef6 ed3b
000003c0: 5cb8 afbe 259e 7d3d 73bf a6be 6104 323d
000003d0: 9d1d 763e a8ba adbe 6322 883c e2b5 e13e
000003e0: 73cb 2a3d ff6d c13d 4d37 853d a3b1 a9bd
000003f0: 2a3e 71be 0c52 cdbe aac5 8d3e 86c6 33bf

bias f4 [20]
0.17469124 0.05720245 0.021825694 0.1818147 -0.2530861 -0.09698264 0.15938556 0.02679355
-0.018731372 0.036955625 0.18964975 -0.18405856 0.09899523 -0.32583162 -0.21330778 0.614678
-0.17089625 -0.34638986 0.24539158 -0.32408604
00000000: 43e2 323e 1e4d 6a3d cccb b23c a22d 3a3e
00000010: 8094 81be d69e c6bd f835 233e 267e db3c
00000020: 8972 99bc c85e 173d 8b33 423e d979 3cbe
00000030: 03be ca3d 67d3 a6be 5b6d 5abe 8a5b 1d3f
00000040: 6dff 2ebe 035a b1be ee47 7b3e 9bee a5be

weight f4 [20, 20]
-0.07087532 0.11213322 0.29513574 -0.26199946 0.54437584 -0.084759064 0.31900242 -0.14832106
0.31054693 -0.004039904 0.10621641 -0.09776176 0.27074897 0.05653687 -0.10456428 0.19198112
0.24456112 0.43405533 0.28129008 -0.06864898 -0.1791546 -0.05138593 -0.1533214 -0.089219786
0.190167 0.2804606 0.26652297 0.07171208 -0.073470004 -0.05065326 -0.3760105 -0.2902507
-0.14655483 0.2872706 -0.2546128 -0.25430626 0.37006596 0.36738718 -0.21581912 0.23102799
-0.5012168 -0.43710902 0.12520188 -0.11178528 -0.34712762 0.13002332 -0.50985914 0.21530803
0.29653606 0.41322863 -0.23372737 -0.25377184 0.09297663 -0.11242114 0.07860294 -0.16093616
-0.29868415 0.46527627 -0.062924035 0.30599543 -0.11007011 -0.06937629 -0.1031254 0.09993885
-0.049311105 -0.16801086 0.1731884 0.16946039 0.041914176 0.16261545 0.27592805 -0.5135929
0.05249304 0.26937017 -0.03968912 0.007082606 -0.20145576 0.627744 0.06358525 -0.4758501
0.2892202 -0.24156635 -0.19464022 -0.11854166 0.15144677 0.106870204 -0.11948904 0.023356518
-0.017070305 -0.289109 0.13665234 0.090057194 0.015017994 0.18512575 -0.24870698 -0.15432087
-0.17531188 -0.23990498 -0.42878428 0.02255013 0.21105789 0.026592353 0.017766314 0.28926584
0.28170085 0.09522993 -0.2123857 -0.14943565 0.18485138 0.16661385 -0.13236672 -0.25076783
-0.2416811 0.41339362 -0.36256745 -0.08774113 -0.34419644 -0.12191219 0.30657256 0.08952361
-0.20553361 0.26500744 0.0056149364 -0.22973283 -0.4634417 0.18317775 0.06595137 -0.03762002
-0.10213164 0.14924884 -0.22289793 -0.5608786 0.43985122 -0.45096463 0.21554075 0.2255624
0.63946986 0.13531172 -0.11244938 -0.21854852 -0.33446103 -0.16804503 -0.38304502 0.15597263
-0.5861239 0.40797853 0.28454676 0.25977817 -0.035988316 -0.17973211 0.37017933 -0.2674649
0.3907517 -0.4346838 -0.2115351 0.022995785 -0.08929605 -0.17435943 -0.3985349 -0.12398995
0.25280076 -0.07174966 -0.17426492 -0.33893245 0.20376962 0.15857084 -0.23430805 -0.13290517
0.0022470418 -0.12370587 0.047935374 -0.05846138 0.21891202 0.19980615 0.2168854 -0.19623962
-0.17306358 -0.15216868 0.20592566 -0.01648228 0.3311894 0.15352747 0.050174024 -0.19340988
-0.12770201 -0.046608873 -0.20690826 0.1579952 -0.095083036 0.35102814 -0.19843443 -0.071000695
-0.4152146 0.18288006 0.39475247 -0.25524816 -0.14076212 -0.48853704 -0.08130999 0.032420002
0.14450653 0.3469113 0.17499253 0.3073716 -0.032778315 0.25103632 -0.038659204 -0.09120776
0.27299112 0.1351086 -0.19258751 0.037172627 0.07582748 0.50666636 0.0871314 -0.37546575
-0.30272081 -0.50419813 -0.026961686 -0.069492586 -0.10540248 0.1058588 0.039310504 -0.29415807
-0.13450608 0.0462512 0.021668872 -0.04659485 -0.2076983 -0.30459845 -0.2349216 -0.20284417
-0.03570742 -0.38249868 -0.020813359 0.05877819 0.19352834 0.32672128 -0.27398285 0.20182246
0.16390198 -0.15572408 0.093908116 -0.022628538 -0.033388972 -0.48347017 0.15762986 -0.2559749
0.24730912 -0.13317609 -0.12096359 -0.23209679 0.03543587 -0.24167982 0.15146615 0.3220453
00000000: 1427 91bd 1aa6 e53d 081c 973e cb24 86be
00000010: 375c 0b3f 2996 adbd 4954 a33e 7ae1 17be
00000020: 0200 9f3e 2c61 84bb fd87 d93d 5137 c8bd
00000030: 9c9f 8a3e 3493 673d cc25 d6bd b396 443e
00000040: 3b6e 7a3e 803c de3e 4105 903e d697 8cbd
00000050: 4e74 37be 0e7a 52bd 4900 1dbe ddb8 b6bd
00000060: 23bb 423e 8898 8f3e b375 883e c8dd 923d
00000070: 7177 96bd cb79 4fbd 7384 c0be bd9b 94be
00000080: 7812 16be 2215 933e 9c5c 82be 6e34 82be
00000090: 4979 bd3e 2c1a bc3e b0ff 5cbe 9a92 6c3e
000000a0: bf4f 00bf c1cc dfbe ec34 003e aeef e4bd
000000b0: b6ba b1be d524 053e 2186 02bf b579 5c3e
000000c0: 93d3 973e b492 d33e 3a56 6fbe 62ee 81be
000000d0: 886a be3d 0e3d e6bd 94fa a03d 73cc 24be
000000e0: 21ed 98be b138 ee3e 51de 80bd 6fab 9c3e
000000f0: 706c e1bd 2815 8ebd 6933 d3bd bdac cc3d
00000100: 71fa 49bd 0a0b 2cbe 4d58 313e 0687 2d3e
00000110: 33ae 2b3d aa84 263e 7146 8d3e d37a 03bf
00000120: f102 573d e3ea 893e 0f91 22bd 3515 e83b
00000130: 6b4a 4ebe d5b3 203f fc38 823d a0a2 f3be
00000140: ac14 943e 2b5d 77be c44f 47be f8c5 f2bd
00000150: dd14 1b3e c4de da3d abb6 f4bd 2b56 bf3c
00000160: 06d7 8bbc 1806 94be 97ee 0b3e e86f b83d
00000170: 080e 763c 9b91 3d3e 0bad 7ebe 4a06 1ebe
00000180: f584 33be a7a9 75be 9d89 dbbe 0dbb b83c
00000190: 8f1f 583e 35d8 d93c a98a 913c a71a 943e
000001a0: 183b 903e e907 c33d a37b 59be a905 19be
000001b0: ae49 3d3e d29c 2a3e 248b 07be a464 80be
000001c0: 407b 77be 54a8 d33e 71a2 b9be 9fb1 b3bd
000001d0: 843a b0be 19ad f9bd 14f7 9c3e 2858 b73d
000001e0: 6777 52be 0eaf 873e 80fd b73b 153f 6bbe
000001f0: 3b48 edbe f392 3b3e 8311 873d 7317 1abd
00000200: 652a d1bd b0d4 183e 5b3f 64be bd95 0fbf
00000210: 2e34 e13e d6e4 e6be b7b6 5c3e d4f9 663e
00000220: 4cb4 233f 288f 0a3e dc4b e6bd 2fcb 5fbe
00000230: 7a3e abbe ff13 2cbe 7a1e c4be 4ab7 1f3e
00000240: 370c 16bf 90e2 d03e 1db0 913e a501 853e
00000250: 7c68 13bd b20b 38be 2588 bd3e 29f1 88be
00000260: 9b10 c83e e08e debe a89c 58be a861 bc3c
00000270: d9e0 b6bd 478b 32be c40c ccbe 71ee fdbd
00000280: 1a6f 813e 7cf1 92bd 8172 32be 8e88 adbe
00000290: fca8 503e 6560 223e 73ee 6fbe 4b18 08be
000002a0: 1b43 133b 8159 fdbd e257 443d 3375 6fbd
000002b0: 792a 603e fc99 4c3e 3517 5e3e 0af3 48be
000002c0: 9437 31be 1bd2 1bbe 2dde 523e d905 87bc
000002d0: a891 a93e 4e36 1d3e 4783 4d3d 3d0d 46be
000002e0: 51c4 02be f2e8 3ebd c2df 53be 7ec9 213e
000002f0: e5ba c2bd f6b9 b33e 6532 4bbe d068 91bd
00000300: 0297 d4be e944 3b3e ff1c ca3e e3af 82be
00000310: f223 10be 8721 fabe da85 a6bd d6ca 043d
00000320: 85f9 133e 5c9e b13e 3e31 333e cf5f 9d3e
00000330: 8e42 06bd d587 803e 1d59 1ebd 22cb babd
00000340: 7ec5 8b3e e959 0a3e a935 45be 5342 183d
00000350: 704b 9b3d e3b4 013f f371 b23d 0c3d c0be
00000360: 39fe 9abe 2113 01bf c1de dcbc 2152 8ebd
00000370: 41dd d7bd 80cc d83d 0d04 213d e39b 96be
00000380: f6bb 09be e671 3d3d eb82 b13c 3eda 3ebd
00000390: ddae 54be 54f4 9bbe 4a8f 70be 62b6 4fbe
000003a0: f241 12bd ded6 c3be c780 aabc 66c1 703d
000003b0: 4b2c 463e 0348 a73e 7b47 8cbe 8caa 4e3e
000003c0: ecd5 273e 2276 1fbe e652 c03d 7c5f b9bc
000003d0: e0c2 08bd 6789 f7be b969 213e 240f 83be
000003e0: 9a3e 7d3e 505f 08be c2bb f7bd c8aa 6dbe
000003f0: 3425 113d ea7a 77be f119 1b3e 1fe3 a43e

bias f4 [20]
-0.04805906 -0.20096858 -0.14025424 0.0021189088 -0.034913838 0.22362095 -0.03783059 0.19051333
-0.005770175 -0.052480366 0.060333498 -0.09040236 0.24519952 0.23187783 0.21406254 0.18442284
0.18223703 -0.17535985 0.27657464 -0.18189646
00000000: 94d9 44bd b5ca 4dbe cf9e 0fbe 64dd 0a3b
00000010: d001 0fbd e4fc 643e 40f4 1abd ed15 433e
00000020: bc13 bdbb a7f5 56bd 4220 773d df24 b9bd
00000030: 9515 7b3e 6271 6d3e 3633 5b3e 57d9 3c3e
00000040: 589c 3a3e 8891 33be 319b 8d3e 1143 3abe

weight f4 [20, 20]
0.1995405 0.074293 0.14571363 -0.07551489 0.19876571 0.056101117 0.0041796803 -0.056328107
0.4394856 0.022750586 -0.106537364 0.16541754 0.14267318 -0.28974053 0.13516344 -0.26742974
0.26548377 -0.16718069 -0.35648978 -0.010711336 -0.015348524 -0.17873038 0.20324394 -0.10513861
-0.09982288 -0.077646464 -0.016098626 -0.24476723 0.35177112 -0.18294501 0.027297096 -0.19341218
-0.17224926 0.03441211 -0.33565038 -0.37210172 -0.13215908 0.42757937 0.116027385 -0.014342083
0.30503783 0.15020122 -0.21026367 0.11187415 -0.44585717 -0.20546809 0.026383607 0.094441876
-0.06760146 0.03852028 -0.023922866 -0.07290523 0.058833003 0.4214873 -0.013659503 0.007398936
0.062304925 -0.33671668 -0.35438532 0.013138204 -0.0630083 0.29086325 0.17738229 0.09488479
0.17763506 -0.20933188 -0.09241962 0.09376276 -0.030925233 -0.25393835 -0.189419 -0.075603284
0.32768777 0.18695542 0.13887632 0.22259656 -0.08015042 0.2563137 -0.09200247 0.32242247
-0.29960233 0.012875707 0.45509195 0.09640427 -0.01398304 -0.1305141 0.023936333 -0.20318785
0.083638124 -0.14822605 -0.22858456 0.05551037 -0.25212452 -0.15269065 -0.3492797 0.12199281
-0.13268042 0.19080766 -0.06042281 -0.11508724 -0.35579142 0.047818307 0.07535093 -0.1172461
0.27557644 0.1761449 -0.5353287 -0.18077038 0.09028892 0.11421576 -0.1357703 -0.48221532
-0.2552811 0.14627482 -0.057919454 0.59802645 -0.15057524 -0.07238311 -0.11238182 -0.43146983
0.21744311 -0.000446656 0.048908833 -0.0012026554 -0.361632 0.14812404 -0.11220704 0.16453335
0.09074143 0.1707589 -0.22895668 -0.033270065 -0.006747684 0.09976208 0.17218837 -0.042808924
0.08809573 0.25559273 -0.04923158 0.1326176 -0.27682307 0.0021713683 0.27351442 -0.017635208
0.07814128 -0.21926521 0.15095799 0.05302422 -0.02508289 0.051348776 -0.06294279 -0.07495146
0.25345436 -0.078293316 -0.14632356 -0.19988966 -0.3185315 0.15047137 -0.09949384 0.20950173
-0.20897572 -0.21290642 -0.050674986 0.17849487 -0.108252026 -0.29048976 -0.065296836 -0.41115052
-0.15397917 0.26084837 0.12226324 -0.20589045 -0.121804506 0.24289623 0.03115519 0.023542147
-0.09528432 -0.29579014 0.06988985 0.03130598 -0.079528876 0.1329711 0.3326933 -0.14505762
-0.18337242 -0.17745084 -0.0006808586 0.4119426 -0.06462543 -0.21168135 -0.025113475 0.0076415953
-0.32684863 0.42476985 -0.1055877 -0.15259661 -0.0842529 0.3002644 -0.17272983 0.21355474
-0.047793645 -0.21307251 0.28195122 0.35231403 -0.057215136 0.3690638 -0.18442322 -0.24322519
0.18729405 -0.372398 0.24548149 0.010887294 -0.33537903 -0.10866664 -0.37494716 0.15459436
0.22415513 -0.17692906 0.34021902 -0.2692238 -0.43678024 -0.08831673 -0.034682106 0.22798955
-0.31926537 0.12242748 -0.217466 0.5079835 -0.10997112 -0.238087 0.0017899196 0.07158561
0.25489712 0.12848988 0.057780832 -0.03753554 0.076836325 -0.15781258 -0.17131901 -0.009676523
-0.27452546 -0.0035539928 -0.0054730373 -0.16548853 -0.2534439 0.31603023 -0.19866084 -0.26343802
0.02463716 0.013467206 0.1274631 -0.056984626 -0.30398217 0.20402771 -0.41052184 0.04126114
00000000: 5854 4c3e ee26 983d f435 153e 8da7 9abd
00000010: 3d89 4b3e 49ca 653d b3f5 883b 4db8 66bd
00000020: 4204 e13e 705f ba3c 4330 dabd 3763 293e
00000030: eb18 123e df58 94be 4968 0a3e 8dec 88be
00000040: 7ded 873e 6a31 2bbe d485 b6be 997e 2fbc
00000050: 6078 7bbc 1905 37be 2e1f 503e e952 d7bd
00000060: f06f ccbd 1c05 9fbd 44e1 83bc 43a4 7abe
00000070: 581b b43e f055 3bbe 299e df3c d80d 46be
00000080: 1c62 30be b6f3 0c3d 5eda abbe 1e84 bebe
00000090: b654 07be afeb da3e c49f ed3d 0efb 6abc
000000a0: eb2d 9c3e 59ce 193e 5c4f 57be 461e e53d
000000b0: 6447 e4be 3a66 52be 6f22 d83c be6a c13d
000000c0: a272 8abd 71c7 1d3d e3f9 c3bc 564f 95bd
000000d0: e0fa 703d 2fcd d73e 1ccc 5fbc c672 f23b
000000e0: 7333 7f3d 2166 acbe fe71 b5be 9f41 573c
000000f0: 7f0a 81bd 07ec 943e b4a3 353e f552 c23d
00000100: f7e5 353e 195b 56be 7f46 bdbd b106 c03d
00000110: ea56 fdbc 3504 82be 0ef7 41be e5d5 9abd
00000120: b1c6 a73e 3e71 3f3e 9835 0e3e 5af0 633e
00000130: e725 a4bd 8d3b 833e ca6b bcbd 8f14 a53e
00000140: 7a65 99be a1f4 523c d001 e93e 9a6f c53d
00000150: 1f19 65bc 7da5 05be 2116 c43c 7a10 50be
00000160: 774a ab3d 92c8 17be 1212 6abe d75e 633d
00000170: 7716 81be f05a 1cbe cad4 b2be 5ed7 f93d
00000180: 60dd 07be 1563 433e e97d 77bd dcb2 ebbd
00000190: 4b2a b6be 21dd 433d 9751 9a3d b91e f0bd
000001a0: 5b18 8d3e 545f 343e 4d0b 09bf df1b 39be
000001b0: 66e9 b83d f4e9 e93d 5f07 0bbe ede4 f6be
000001c0: 34b4 82be 11c9 153e f33c 6dbd 4318 193f
000001d0: 6530 1abe 993d 94bd 7128 e6bd 9de9 dcbe
000001e0: 68a9 5e3e 272d eab9 a154 483d 6ba2 9dba
000001f0: d427 b9be d4ad 173e cecc e5bd 6e7b 283e
00000200: a5d6 b93d 6cdb 2e3e 9f73 6abe 3146 08bd
00000210: ad1b ddbb 1050 cc3d 2652 303e 6958 2fbd
00000220: 896b b43d 0ddd 823e 0ea7 49bd e8cc 073e
00000230: c1bb 8dbe 844d 0e3b 150a 8c3e b677 90bc
00000240: 8908 a03d 0f87 60be bb94 1a3e ed2f 593d
00000250: a27a cdbc 1853 523d 26e8 80bd 2780 99bd
00000260: c5c4 813e 3f58 a0bd d8d5 15be e0af 4cbe
00000270: 9016 a3be 2b15 1a3e 6dc3 cbbd 9f87 563e
00000280: bbfd 55be 2404 5abe 9390 4fbd 5cc7 363e
00000290: 3db3 ddbd 13bb 94be 59ba 85bd 5282 d2be
000002a0: b7ac 1dbe eb8d 853e 2665 fa3d f2d4 52be
000002b0: a474 f9bd cab9 783e 2b39 ff3c 76db c03c
000002c0: 6d24 c3bd ce71 97be 6922 8f3d b33a 003d
000002d0: 09e0 a2bd 9329 083e c756 aa3e fc89 14be
000002e0: fbc5 3bbe acb5 35be a67b 32ba 24ea d23e
000002f0: 565a 84bd ffc2 58be c6ba cdbc 5966 fa3b
00000300: b458 a7be 6f7b d93e 5d3e d8bd 4942 1cbe
00000310: c98c acbd 41bc 993e 17e0 30be 18ae 5a3e
00000320: 45c3 43bd ae2f 5abe e95b 903e 8162 b43e
00000330: 6b5a 6abd eef5 bc3e 71d9 3cbe 0610 79be
00000340: 03ca 3f3e f3aa bebe 805f 7b3e 9f60 323c
00000350: cdb6 abbe 9e8c debd 13f9 bfbe fc4d 1e3e
00000360: ec88 653e e42c 35be 3031 ae3e b4d7 89be
00000370: a9a1 dfbe 67df b4bd d30e 0ebd 1876 693e
00000380: c076 a3be 42bb fa3d 68af 5ebe 350b 023f
00000390: 8a38 e1bd 14cd 73be bc9b ea3a 7a9b 923d
000003a0: e081 823e da92 033e 98ab 6c3d debe 19bd
000003b0: 5d5c 9d3d 9f99 21be 406e 2fbe 478a 1ebc
000003c0: 9a8e 8cbe 1bea 68bb 2a57 b3bb d375 29be
000003d0: 66c3 81be b7ce a13e bf6d 4bbe 59e1 86be
000003e0: dfd3 c93c 8ea5 5c3c b085 023e b668 69bd
000003f0: 8da3 9bbe a4ec 503e eb2f d2be 7101 293d

bias f4 [20]
-0.0887175 0.040007018 -0.081441015 0.096521534 -0.28145522 0.15083371 0.1475801 -0.26973855
0.048896715 -0.31415108 0.18771029 0.16485631 -0.03268262 -0.13121034 -0.19359319 0.2145827
0.00967787 0.020926878 0.19700135 0.047442783
00000000: 85b1 b5bd 66de 233d 8cca a6bd 15ad c53d
00000010: e61a 90be 2774 1a3e 3d1f 173e 2c1b 8abe
00000020: ec47 483d 69d8 a0be 2037 403e 18d0 283e
00000030: 36de 05bd 015c 06be 4b3d 46be 91bb 5b3e
00000040: ee8f 1e3c d86e ab3c b9ba 493e 5d53 423d

weight f4 [20, 20]
0.26611915 0.0883749 -0.028748093 0.21468695 -0.09720332 -0.025080247 0.118871786 0.06124651
-0.05533102 0.1148461 0.07764538 0.14950807 0.2738599 0.38469195 -0.2084724 0.04048205
0.10343454 0.25439847 -0.05229214 -0.53057826 0.15825062 0.16427863 -0.21748112 -0.118702464
-0.0037599313 0.028110774 -0.078488365 0.23295881 0.1273545 0.114175394 -0.20813952 -0.17846708
0.20557576 0.17312616 -0.11900733 -0.2703473 0.23939614 -0.20792842 -0.25067225 0.03228158
-0.41504478 -0.03750622 -0.1284402 -0.23182106 -0.34298363 0.06718131 0.055505615 -0.42899194
-0.13295422 0.014592618 -0.07237901 -0.32554907 -0.17291547 -0.28629827 0.43333215 0.35898805
0.11021926 -0.13588622 0.2324763 0.434614 -0.31511894 0.08277168 -0.22377989 -0.22439793
-0.08105307 0.027504735 -0.21277861 -0.19905138 -0.14282925 0.27742085 0.11561025 0.13148053
0.032245103 0.11164547 0.3415904 0.25715753 -0.35698053 0.04501612 0.053516142 -0.08143486
-0.13825807 -0.29050577 -0.060815755 -0.17492898 -0.48287228 -0.09238533 -0.2691344 -0.31317917
0.12722865 -0.38435575 0.38411778 -0.029603522 -0.23574018 -0.105398454 -0.013090456 -0.1061657
-0.06787723 -0.046183538 0.023402283 -0.048425656 -0.09289786 -0.024497118 -0.5055393 0.18697861
-0.58744687 -0.2431167 0.01571546 -0.23542802 0.28564808 -0.1285614 -0.068375826 0.33040085
-0.25865158 -0.21883266 -0.094424754 0.23386872 0.31109476 0.012212485 -0.19725226 0.4334668
-0.12479338 -0.06832321 -0.0639275 0.20316803 0.20142262 -0.056764867 0.15473798 -0.22489244
0.20153624 -0.050711457 0.15157044 -0.025134284 -0.16810796 -0.057566974 0.22921866 -0.5217576
-0.05499422 -0.19345324 -0.06213615 -0.24600439 0.15767808 -0.018606996 -0.17872919 0.06394869
0.2302635 -0.018329198 -0.08045242 -0.16884165 0.12196947 -0.040228505 0.14056025 -0.16964479
0.1483751 -0.12940837 0.08965392 -0.044766292 -0.16681656 0.19044268 -0.26994124 0.18784775
-0.16239734 -0.3111956 0.08814095 0.20948613 0.17907387 0.20235793 0.047969654 0.32701945
0.585894 0.06912485 -0.15493566 -0.11400477 0.07773558 -0.1006798 -0.08181589 0.2164991
0.20326035 -0.3895409 0.12252759 -0.07356224 -0.21427473 -0.33140513 -0.0077246823 0.25605324
0.061736293 0.13265187 -0.041874576 -0.25294536 0.039982427 -0.16191904 0.11895598 -0.15355453
-0.22892885 -0.15020925 -0.112514995 -0.41406077 0.005763773 -0.3957699 -0.10063109 0.24428833
0.34686178 0.22749127 0.27288312 0.05521497 -0.07341534 -0.05085129 0.27250716 -0.05167138
-0.12311029 0.28359032 -0.01407607 -0.2627172 -0.30880943 0.06666976 -0.15070641 0.24003962
0.0034614205 -0.051693246 -0.074760556 -0.258611 0.13130467 0.21446283 0.30180404 -0.021305824
-0.231194 0.38228792 -0.031442218 -0.33677244 0.2445093 -0.2879902 0.42772067 0.11997057
0.27670464 -0.28241816 -0.25061423 0.34234104 0.17980506 -0.34635276 0.65383655 0.09086988
0.16998217 -0.06959195 0.35184112 -0.02903822 -0.18829933 0.018152555 -0.24103087 -0.29853213
0.10262652 0.3677644 -0.17780866 -0.17926274 0.01084189 0.20779198 0.25079092 0.12756357
00000000: c540 883e e6fd b43d 1f81 ebbc e5d6 5b3e
00000010: 8912 c7bd 1775 cdbc 0d73 f33d 9fdd 7a3d
00000020: c8a2 62bd 6f34 eb3d 8a04 9f3d a518 193e
00000030: 5d37 8c3e 58f6 c43e ca79 55be 82d0 253d
00000040: 7dd5 d33d 8440 823e 4830 56bd fad3 07bf
00000050: 730c 223e a838 283e 5fb3 5ebe 471a f3bd
00000060: 2e69 76bb 9148 e63c 82be a0bd c18c 6e3e
00000070: 3869 023e cad4 e93d 8722 55be 13c0 36be
00000080: 7482 523e fc47 313e 1dba f3bd f66a 8abe
00000090: 4324 753e 30eb 54be 1d58 80be b139 043d
000000a0: c080 d4be 1fa0 19bd d485 03be 8062 6dbe
000000b0: 8d9b afbe 5b96 893d db59 633d d5a4 dbbe
000000c0: 2725 08be e015 6f3c 723b 94bd 5eae a6be
000000d0: c110 31be b095 92be b6dd dd3e 48cd b73e
000000e0: a3ba e13d c225 0bbe 440e 6e3e ba85 de3e
000000f0: 4557 a1be 3384 a93d 8e26 65be 92c8 65be
00000100: 27ff a5bd 9c51 e13c a3e2 59be 20d4 4bbe
00000110: d541 12be 1b0a 8e3e 11c5 ec3d d5a2 063e
00000120: 7113 043d 61a6 e43d f0e4 ae3e 27aa 833e
00000130: 27c6 b6be d362 383d be33 5b3d 52c7 a6bd
00000140: 8693 0dbe 2cbd 94be f119 79bd 9520 33be
00000150: 093b f7be 8534 bdbd fccb 89be 0559 a0be
00000160: 3a48 023e 47ca c4be 16ab c43e 1683 f2bc
00000170: e065 71be 25db d7bd 5a79 56bc 676d d9bd
00000180: 3803 8bbd f32a 3dbd 25b6 bf3c fb59 46bd
00000190: 3c41 bebd 2eae c8bc 066b 01bf 5277 3f3e
000001a0: eb62 16bf 96f3 78be b5bd 803c 0b14 71be
000001b0: 7740 923e 9aa5 03be a008 8cbd 4d2a a93e
000001c0: fb6d 84be ab15 60be c461 c1bd 487b 6f3e
000001d0: d047 9f3e e016 483c 7ffc 49be 5cef dd3e
000001e0: ac93 ffbd 0aed 8bbd 6cec 82bd 480b 503e
000001f0: bb41 4e3e 4782 68bd a273 1e3e 344a 66be
00000200: 845f 4e3e d1b6 4fbd 4835 1b3e 6ae6 cdbc
00000210: 7e24 2cbe 59cb 6bbd 4cb8 6a3e e891 05bf
00000220: 9f41 61bd 9b18 46be 7a82 7ebd 93e8 7bbe
00000230: 5d76 213e b36d 98bc c904 37be 88f7 823d
00000240: 32ca 6b3e 1d27 96bc 3dc4 a4bd d3e4 2cbe
00000250: 21cb f93d a5c6 24bd 07ef 0f3e 5db7 2dbe
00000260: a4ef 173e a183 04be 799c b73d dc5c 37bd
00000270: f6d1 2abe 6803 433e bd35 8abe 295b 403e
00000280: 7d4b 26be 0855 9fbe 3e83 b43d 8883 563e
00000290: 245f 373e eb36 4f3e d47b 443d 186f a73e
000002a0: 26fd 153f 5491 8d3d 74a7 1ebe 557b e9bd
000002b0: d533 9f3d 3631 cebd 178f a7bd f1b1 5d3e
000002c0: 7b23 503e e871 c7be bfef fa3d cda7 96bd
000002d0: d66a 5bbe efad a9be 551f fdbb 6919 833e
000002e0: 32df 7c3d e4d5 073e ad84 2bbd 0e82 81be
000002f0: 9dc4 233d 1bce 25be 319f f33d 663d 1dbe
00000300: 536c 6abe 74d0 19be 436e e6bd c6ff d3be
00000310: 08de bc3b 5aa2 cabe ac17 cebd b826 7a3e
00000320: de97 b13e 79f3 683e 56b7 8b3e 1829 623d
00000330: c85a 96bd 7149 50bd 0f86 8b3e 5ea5 53bd
00000340: 3f21 fcbd c032 913e 519f 66bc de82 86be
00000350: 451c 9ebe 288a 883d c852 1abe f2cc 753e
00000360: 00d9 623b 4cbc 53bd 101c 99bd a968 84be
00000370: bb74 063e 259c 5b3e 0f86 9a3e 8d89 aebc
00000380: 1fbe 6cbe 3ebb c33e 8ec9 00bd 706d acbe
00000390: a560 7a3e 7473 93be 34fe da3e 21b3 f53d
000003a0: 3bac 8d3e 1d99 90be 8250 80be 5347 af3e
000003b0: d11e 383e 2655 b1be d561 273f fd19 ba3d
000003c0: ce0f 2e3e 3986 8ebd 8524 b43e 90e1 edbc
000003d0: 8ad1 40be abb4 943c ccd0 76be 34d9 98be
000003e0: da2d d23d 9e4b bc3e 7913 36be a790 37be
000003f0: 2fa2 313c 6cc7 543e ab67 803e 06a0 023e

bias f4 [20]
-0.027189666 -0.22407606 0.22032446 0.09314373 0.09506401 0.12202508 0.059441708 -0.034454104
-0.028357228 0.09693876 0.014605131 0.31632176 -0.076241136 0.24393754 0.34212053 -0.06698497
-0.060660113 0.11660957 0.0055113467 -0.17829302
00000000: ddbc debc 3274 65be bc9c 613e 24c2 be3d
00000010: ebb0 c23d 49e8 f93d 2679 733d bf1f 0dbd
00000020: 6b4d e8bc d487 c63d 5c4a 6f3c edf4 a13e
00000030: 5024 9cbd c3ca 793e 6c2a af3e 6a2f 89bd
00000040: bd76 78bd 00d1 ee3d 8798 b43b 7292 36be

weight f4 [20, 20]
0.042413693 0.06447679 -0.4728586 -0.13294785 -0.09782475 -0.03732939 0.25887415 -0.09963916
0.268885 0.25214344 0.14180563 -0.15808861 0.00803336 0.06575577 -0.32152572 0.23662275
-0.42051625 0.43736148 -0.09490903 -0.026980327 0.1825345 0.49995628 0.12595044 0.16637814
-0.26135343 0.082820624 -0.26939955 -0.21898268 0.25696394 0.09632978 0.18765886 -0.1920641
-0.21253976 -0.09810715 -0.051603366 0.15061928 0.3557618 0.08102435 0.11991131 0.028499458
-0.48163894 -0.082024366 0.6553357 0.25241378 0.015962698 -0.042029697 -0.09753103 0.196822
0.1788008 0.038376514 -0.02632487 0.24865659 -0.3738078 0.010947572 0.5004077 0.6277486
0.16760695 -0.063520305 -0.24513423 0.05718726 0.0640967 0.11922078 0.35572597 -0.3096525
-0.05422517 -0.27771637 -0.31069967 -0.051741347 0.033154875 0.23693302 -0.20193088 0.3101421
-0.0002197392 0.0696681 0.13585208 0.100551955 0.37508902 -0.14948577 -0.20016678 -0.45298207
0.14198947 -0.012956363 0.20144099 0.19015864 0.79941726 0.00044619635 0.28861216 0.17941001
0.123651356 0.13218555 -0.2874176 0.18223163 -0.24684334 0.088837214 0.17221402 -0.49942023
-0.19821548 0.02442196 0.14586072 0.24241017 0.1721196 -0.18572985 -0.2293451 -0.22565603
-0.39207962 0.23958689 0.25748086 0.630707 -0.28731695 -0.2355887 0.31181318 0.19334714
-0.41979477 0.31859004 -0.02699016 0.121165074 -0.13429499 -0.08393023 -0.0010342667 0.2955184
-0.43246323 0.16818547 -0.13863674 -0.14658926 0.00015074619 0.20470276 -0.14655247 -0.15744683
-0.035707988 -0.49493414 0.1441223 -0.17423718 -0.0013678904 -0.2639134 -0.16191196 -0.23801166
-0.22881968 -0.09387067 0.19153894 -0.103056796 0.43632662 -0.31040198 -0.02654436 0.18676947
-0.28540125 0.091685206 0.05480322 -0.16796182 -0.17877623 -0.13535875 0.00021327384 -0.23531798
-0.10734137 0.23179603 -0.11345655 0.17383093 0.08424806 0.11228417 -0.15864809 -0.13929106
-0.090085596 -0.08923482 -0.06584814 0.02149885 -0.06503251 -0.027151776 0.20720908 -0.03938535
0.0613659 0.20752108 -0.08595972 0.09876291 -0.03591183 0.22504738 0.06643421 -0.4545449
-0.17398845 0.06475387 -0.08683568 -0.30854142 0.2459652 0.33514506 -0.30218112 -0.37762144
0.112378076 0.18133952 0.21551736 0.29211402 -0.15713121 -0.17650291 -0.21437146 -0.022821119
0.14256229 -0.056863084 0.20364955 0.2982551 0.10803149 0.07124445 0.14515737 -0.13116625
0.092340626 -0.29682016 -0.17114492 -0.098126136 0.2408596 -0.31080702 -0.021326007 0.117176816
0.18413977 0.03839305 -0.14664769 -0.3704041 0.114004046 -0.25082955 0.18391375 0.0062476983
0.022144658 -0.24293986 0.38751206 0.08826784 0.15514922 -0.15250786 0.21290898 -0.14587791
0.14567815 -0.038423788 -0.13810717 -0.025884397 0.1347926 0.09178614 0.28323105 -0.023588352
0.039669294 -0.12696289 -0.079225406 -0.2863297 -0.23171276 0.07081532 0.30124265 0.1371108
-0.21616432 0.06984183 0.27535993 0.12857851 0.1578502 0.15645565 0.20976815 -0.0118994415
-0.40897992 -0.4944278 0.029229183 -0.14002882 0.24124265 -0.2522719 -0.0439657 0.07083224
00000000: fbb9 2d3d 680c 843d 861a f2be 7b23 08be
00000010: 5858 c8bd b4e6 18bd 278b 843e 9e0f ccbd
00000020: 4bab 893e f218 813e 7f35 113e fbe1 21be
00000030: 5b9e 033c f6aa 863d 059f a4be 3c4d 723e
00000040: e84d d7be d8ed df3e aa5f c2bd d905 ddbc
00000050: 53ea 3a3e 45fa ff3e 27f9 003e 085f 2a3e
00000060: 1ed0 85be dc9d a93d bdee 89be ff3c 60be
00000070: c790 833e 8c48 c53d a529 403e 74ac 44be
00000080: 06a4 59be 67ec c8bd 0d5e 53bd f13b 1a3e
00000090: 6926 b63e 18f0 a53d 1094 f53d b277 e93c
000000a0: 6199 f6be 64fc a7bd 15c4 273f 613c 813e
000000b0: 34c4 823c 5527 2cbd 59be c7bd b58b 493e
000000c0: 8f17 373e b130 1d3d 41a7 d7bc d59f 7e3e
000000d0: bc63 bfbe 725d 333c b81a 003f 22b4 203f
000000e0: 28a1 2b3e ef16 82bd 7804 7bbe 303d 6a3d
000000f0: 2145 833d 062a f43d b721 b63e c68a 9ebe
00000100: 361b 5ebd d730 8ebe 0714 9fbe bcee 53bd
00000110: 68cd 073d 929e 723e f8c6 4ebe f2ca 9e3e
00000120: cb69 66b9 26ae 8e3d cf1c 0b3e 2fee cd3d
00000130: ab0b c03e cc12 19be 85f8 4cbe 44ed e7be
00000140: b065 113e ed46 54bc 8c46 4e3e f2b8 423e
00000150: 9ca6 4c3f 76ef e939 f9c4 933e 42b7 373e
00000160: ec3c fd3d a65b 073e 6628 93be ee9a 3a3e
00000170: 80c4 7cbe 49f0 b53d df58 303e 02b4 ffbe
00000180: 00f9 4abe 9010 c83c 835c 153e 5f3a 783e
00000190: 1f40 303e f72f 3ebe 71d9 6abe 6012 67be
000001a0: a9be c8be 4456 753e 88d4 833e 0476 213f
000001b0: 351b 93be 2a3e 71be faa5 9f3e cbfc 453e
000001c0: 57ef d6be 3c1e a33e 781a ddbc 6525 f83d
000001d0: a084 09be 9de3 abbd 3b90 87ba 304e 973e
000001e0: d26b ddbe d038 2c3e caf6 0dbe 7f1b 16be
000001f0: 9f11 1e39 9a9d 513e da11 16be be39 21be
00000200: 8a42 12bd 0268 fdbe cc94 133e 3b6b 32be
00000210: c94a b3ba a81f 87be 40cc 25be 54b9 73be
00000220: b54f 6abe 443f c0bd c922 443e 710f d3bd
00000230: 3466 df3e 02ed 9ebe 8f73 d9bc 7f40 3f3e
00000240: 1d20 92be 74c5 bb3d 5779 603d 2ffe 2bbe
00000250: 1e11 37be 7c9b 0abe 43a2 5f39 32f7 70be
00000260: cbd5 dbbd f05b 6d3e e85b e8bd bc00 323e
00000270: 3f8a ac3d 3ef5 e53d a574 22be 51a2 0ebe
00000280: cc7e b8bd bfc0 b6bd 64db 86bd 5b1e b03c
00000290: c42f 85bd 676d debc 9e2e 543e 8852 21bd
000002a0: cf5a 7b3d 6880 543e a60b b0bd 3544 ca3d
000002b0: 4818 13bd d272 663e a90e 883d 1cba e8be
000002c0: 072a 32be ad9d 843d e8d6 b1bd 24f9 9dbe
000002d0: 4dde 7b3e 2298 ab3e 7cb7 9abe 9957 c1be
000002e0: 7a26 e63d 11b1 393e 95b0 5c3e f88f 953e
000002f0: 01e7 20be 2ebd 34be 3184 5bbe 5bf3 babc
00000300: d9fb 113e 44e9 68bd 8289 503e e4b4 983e
00000310: 9d3f dd3d 9ce8 913d 22a4 143e 7250 06be
00000320: 151d bd3d d0f8 97be 9d40 2fbe 5bf6 c8bd
00000330: e6a3 763e 1922 9fbe e1b3 aebc 66fa ef3d
00000340: 238f 3c3e 0842 1d3d d02a 16be 9ba5 bdbe
00000350: f47a e93d bb6c 80be e353 3c3e 7eb9 cc3b
00000360: b768 b53c 3ac5 78be fb67 c63e c5c5 b43d
00000370: 70df 1e3e 052b 1cbe d004 5a3e 0561 15be
00000380: a72c 153e 4362 1dbd f76b 0dbe 840b d4bc
00000390: 1207 0a3e 5ffa bb3d a903 913e 5c3c c1bc
000003a0: 457c 223d 8f02 02be ee40 a2bd ce99 92be
000003b0: 1c46 6dbe 9f07 913d 7a3c 9a3e c666 0c3e
000003c0: 2e5a 5dbe 3c09 8f3d fafb 8c3e 16aa 033e
000003d0: 7ca3 213e e935 203e 76cd 563e e0f5 42bc
000003e0: d165 d1be a425 fdbe 0a72 ef3c b763 0fbe
000003f0: 5008 773e c829 81be 6115 34bd 7e10 913d

bias f4 [20]
-0.30021366 0.010427358 0.052693646 0.124985054 -0.040525824 -0.020882986 -0.06827496 -0.024373235
-0.007835037 0.013077785 -0.114755325 -0.11225608 -0.09334095 -0.17607175 0.11634309 -0.26338467
-0.44438392 0.092257604 0.13821165 -0.16407171
00000000: 9bb5 99be 82d7 2a3c 4bd5 573d 2af8 ff3d
00000010: 68fe 25bd cc12 abbc bed3 8bbd 61aa c7bc
00000020: 875e 00bc 3544 563c d704 ebbd 84e6 e5bd
00000030: 8a29 bfbd 274c 34be 4945 ee3d 5bda 86be
00000040: 4a86 e3be 8ef1 bc3d 5b87 0d3e 6a02 28be

weight f4 [20, 20]
0.17377786 -0.04374473 -0.10247859 -0.14030504 -0.008129258 -0.28488415 -0.11291752 0.412221
-0.2777147 0.28743356 -0.06539578 -0.2638886 0.10922494 0.01620047 0.10009314 0.12079351
-0.27368006 0.16043796 0.065590985 0.050042503 0.079071455 0.19003801 0.34970766 0.14038193
0.049598575 -0.14165874 0.043428898 -0.014533525 0.18831311 0.14380272 -0.28202868 0.11427364
0.51361555 -0.036680523 -0.05115246 -0.546723 -0.10413805 0.3030106 -0.26255226 -0.0012685582
-0.069668315 0.11404325 0.56964624 0.100308314 0.06500808 0.42605707 -0.23567101 -0.23231468
0.056896843 -0.41598293 0.010424427 0.08125864 0.14002302 -0.03491507 0.09409908 -0.3562871
-0.23296994 -0.14958443 -0.2837749 -0.18772203 0.09703257 -0.13383147 -0.03819245 -0.16532262
-0.086340725 0.076090984 0.067710064 -0.07085653 0.31255212 -0.22059084 0.09124919 0.267894
-0.27690196 0.08540329 -0.35538965 -0.2396574 -0.06472309 0.27671576 0.05869736 -0.066373564
0.20163602 -0.14942378 -0.09794963 -0.045328926 0.10132257 0.288448 0.3871307 0.41412282
-0.08394457 -0.36648387 -0.082159415 0.029208349 0.27700666 0.033751987 -0.4282567 0.07485779
-0.20869993 -0.055412125 0.49116492 0.36657563 -0.16021249 0.2154387 0.111006275 0.074389905
-0.14749256 -0.1678702 -0.13109998 0.13903062 -0.24439028 -0.16787457 0.04807773 0.084208846
0.26568207 -0.30857727 0.13028003 0.100648105 0.1349247 0.46191347 -0.21397582 0.03644089
0.4999176 -0.027384238 -0.37208307 0.17635448 0.13548416 0.45340136 0.07832005 0.17116775
-0.12723711 -0.047060687 0.07930705 0.21670252 -0.23573235 -0.010936942 -0.17717734 0.12442153
-0.044813402 0.27275607 0.14642914 0.22903468 -0.58024895 -0.2033371 0.28526258 0.4554373
-0.2353092 -0.11908681 0.2792745 -0.023691596 -0.067311645 -0.040424466 0.18527822 -0.6067281
-0.23508602 0.16368218 0.36883888 -0.15899976 -0.053042237 -0.029453246 0.2619611 -0.56996155
-0.1661454 0.30729103 0.35478097 0.31379935 0.027376188 0.04089566 0.35625187 -0.25421408
-0.121329784 -0.3224058 -0.1974361 0.28544074 0.3310373 -0.2600598 -0.0555677 0.24524863
0.11545651 -0.13770366 -0.12524693 -0.030579088 -0.36133286 0.27940547 -0.028459042 -0.3436443
0.0992724 -0.31342876 0.15901648 0.14955288 0.057994913 0.15205295 -0.2267308 0.36647862
-0.01236273 -0.08914545 0.085615836 -0.2544143 0.20250751 -0.22278963 -0.29947487 -0.02120014
0.057734717 0.19760123 0.17102122 -0.19936919 -0.4315283 -0.57314575 0.33042136 0.014141036
0.12566708 0.34363198 0.016295033 -0.09278522 0.12749323 0.0782309 0.32428923 -0.32314545
0.15541005 -0.36466816 0.24669707 0.18656136 0.17155007 -0.017381718 0.3786149 -0.04157369
0.12712172 0.42432714 -0.32218078 -0.49798146 0.21833259 -0.19264594 0.32807806 0.30387485
0.55257565 0.36808226 0.41355827 -0.016168388 -0.4507227 0.2540941 -0.27032706 -0.11803961
0.38077196 0.2265416 -0.09617354 -0.093096144 0.054729104 0.059406705 0.18888922 -0.22504474
0.25782162 0.22146823 0.07449385 0.39125216 0.2775385 -0.046575334 -0.20429844 0.5250883
00000000: d3f2 313e ad2d 33bd 4ce0 d1bd 20ac 0fbe
00000010: 9430 05bc 56dc 91be 4d41 e7bd a20e d33e
00000020: 9f30 8ebe 7e2a 933e 39ee 85bd 681c 87be
00000030: 53b1 df3d d9b6 843c a2fd cc3d 9662 f73d
00000040: cb1f 8cbe d949 243e 9154 863d 5ef9 4c3d
00000050: 37f0 a13d 5399 423e e20c b33e 48c0 0f3e
00000060: e027 4b3d fd0e 11be 80e2 313d 061e 6ebc
00000070: 27d5 403e 0541 133e 1066 90be 4c08 ea3d
00000080: 4f7c 033f 513e 16bd 3e85 51bd 0af6 0bbf
00000090: 5446 d5bd 3524 9b3e 406d 86be c045 a6ba
000000a0: 43ae 8ebd 828f e93d 56d4 113f 726e cd3d
000000b0: f522 853d 2724 da3e be53 71be e6e3 6dbe
000000c0: aa0c 693d b7fb d4be 37cb 2a3c ee6a a63d
000000d0: 3262 0f3e 1b03 0fbd 05b7 c03d 436b b6be
000000e0: ac8f 6ebe a92c 19be f24a 91be 343a 40be
000000f0: 03b9 c63d 1e0b 09be b06f 1cbd 554a 29be
00000100: 68d3 b0bd 97d5 9b3d 93ab 8a3d 3a1d 91bd
00000110: d506 a03e 91e2 61be dbe0 ba3d 6729 893e
00000120: 18c6 8dbe ece7 ae3d a2f5 b5be c068 75be
00000130: 8a8d 84bd b0ad 8d3e a56c 703d ddee 87bd
00000140: ac79 4e3e 8c02 19be d199 c8bd d3aa 39bd
00000150: 3582 cf3d 75af 933e ff35 c63e e807 d43e
00000160: 21eb abbd c6a3 bbbe 3243 a8bd 5946 ef3c
00000170: d1d3 8d3e 863f 0a3d 7644 dbbe 0a4f 993d
00000180: 6fb5 55be d3f7 62bd f879 fb3e cdaf bb3e
00000190: be0e 24be f69b 5c3e 4257 e33d bc59 983d
000001a0: 4a08 17be 2ae6 2bbe 133f 06be 0b5e 0e3e
000001b0: 7241 7abe 50e7 2bbe 27ed 443d b075 ac3d
000001c0: 7b07 883e d7fd 9dbe 2168 053e 9820 ce3d
000001d0: b329 0a3e ec7f ec3e 7a1c 5bbe 0b43 153d
000001e0: 33f5 ff3e e954 e0bc ac81 bebe 4596 343e
000001f0: 5cbc 0a3e 3924 e83e 4366 a03d 9946 2f3e
00000200: 724a 02be b5c2 40bd bc6b a23d 44e7 5d3e
00000210: d263 71be dc30 33bc fa6d 35be b7d0 fe3d
00000220: 428e 37bd afa6 8b3e 85f1 153e 1188 6a3e
00000230: 328b 14bf 9a37 50be f00d 923e 142f e93e
00000240: e5f4 70be c9e3 f3bd 11fd 8e3e e114 c2bc
00000250: b0da 89bd 2094 25bd 93b9 3d3e 8852 1bbf
00000260: 64ba 70be 4d9c 273e 73d8 bc3e d5d0 22be
00000270: d142 59bd ef47 f1bc c41f 863e 00e9 11bf
00000280: 0522 2abe 4055 9d3e daa5 b53e 4faa a03e
00000290: 0744 e03c 3582 273d a566 b63e 5928 82be
000002a0: c07b f8bd 5f12 a5be b02c 4abe 4a25 923e
000002b0: b97d a93e 8f26 85be f59a 63bd 7522 7b3e
000002c0: 7674 ec3d 3002 0dbe bb40 00be ff80 fabc
000002d0: 9f00 b9be 3c0e 8f3e f022 e9bc 25f2 afbe
000002e0: 544f cb3d bc79 a0be 37d5 223e 6424 193e
000002f0: 138c 6d3d c5b3 1b3e 1e2c 68be 16a3 bb3e
00000300: 0c8d 4abc e491 b6bd 5b57 af3d 9742 82be
00000310: 215e 4f3e f722 64be c554 99be eaab adbc
00000320: 3d7b 6c3d fa57 4a3e 3020 2f3e 7027 4cbe
00000330: 47f1 dcbe aeb9 12bf fd2c a93e ceaf 673c
00000340: dfae 003e 88f0 af3e 297d 853c 2d06 bebd
00000350: 968d 023e 8637 a03d 3d09 a63e 5273 a5be
00000360: d023 1f3e c9b5 babe 289e 7c3e f109 3f3e
00000370: d2aa 2f3e 1b64 8ebc d0d9 c13e 2c49 2abd
00000380: 322c 023e 6841 d93e e1f4 a4be 6df7 febe
00000390: 9492 5f3e fa44 45be d9f9 a73e 7c95 9b3e
000003a0: 9975 0d3f 4775 bc3e e9bd d33e 9173 84bc
000003b0: 20c5 e6be 9f18 823e 4f68 8abe c0be f1bd
000003c0: 8bf4 c23e 85fa 673e a2f6 c4bd 31a9 bebd
000003d0: a02b 603d 7254 733d 2d6c 413e 2172 66be
000003e0: 3201 843e 91c8 623e 3b90 983d 3452 c83e
000003f0: 8719 8e3e c7c5 3ebd 9c33 51be 306c 063f

bias f4 [20]
-0.013617296 0.20859136 0.08628048 -0.07907001 -0.068264335 0.037308104 -0.29673958 0.18202737
0.052679073 -0.085020155 0.007966453 0.009527905 0.087689094 0.48701024 0.1428809 0.028800841
-0.12357117 -0.30500773 -0.03781909 0.14584778
00000000: 141b 5fbc f998 553e d2b3 b03d 75ef a1bd
00000010: 2cce 8bbd 62d0 183d 40ee 97be 6265 3a3e
00000020: 03c6 573d 0c1f aebd ba85 023c ee1a 1c3c
00000030: 5796 b33d 6859 f93e 5f4f 123e beef eb3c
00000040: e212 fdbd f929 9cbe 31e8 1abd 1f59 153e

weight f4 [1, 20]
0.07441494 -0.5295857 -0.62026256 0.26734886 0.52845865 -0.13866816 1.0080732 -0.71667254
-0.33562377 -0.061701965 -0.22671066 -0.7401027 0.16065475 -1.0954927 -0.22890365 0.04441437
0.7468413 0.87837225 0.1948777 -0.23691335
00000000: dc66 983d ee92 07bf 87c9 1ebf f3e1 883e
00000010: 1149 073f 07ff 0dbe 8b08 813f da77 37bf
00000020: e1d6 abbe 33bb 7cbd d726 68be 5f77 3dbf
00000030: ae82 243e 1b39 8cbf b865 6abe d8eb 353d
00000040: fe30 3f3f 01dd 603f 058e 473e 6a99 72be

u_b f4 [2]
1.0 3.996
00000000: 0000 803f 77be 7f40

l_b f4 [2]
0.0 0.0
00000000: 0000 0000 0000 0000
