Trained/Iter_01/Models_01/Noise_2/simulation_nostop/internal_o3.pt (torch, 46879 bytes, 23 tensors)

weight f4 [20, 2]
000000 a4 2d ba bd dd a6 85 3b 60 b6 8b be 7e 2a b8 3d
       -0.090907365 0.0040787295 -0.2728758 0.0899248
000010 57 2e 70 be dc c8 03 be 47 e6 3c 3d f9 8a 39 3e
       -0.23455177 -0.1286959 0.046118047 0.1811942
000020 48 2f e5 3c ee e7 58 be 93 b4 a2 3e 3c 4f 40 be
       0.027976647 -0.21182224 0.31778392 -0.18780226
000030 30 15 38 be 7d 98 15 3e b2 0f 2a 3d 30 9d ba be
       -0.17976832 0.14608951 0.041518874 -0.3644805
000040 f3 6a c7 3c 44 8c 26 3e 7b 8a a4 be fa 5d 26 3e
       0.02434299 0.16264445 -0.32136902 0.16246787
000050 82 24 2e 3c 36 f3 e3 3d 0c c2 70 3d 3c 7e 19 3e
       0.010628821 0.11130373 0.058778808 0.14989561
000060 07 60 af bc bd fc 3b be ed 74 3d be d8 aa 86 3d
       -0.021408094 -0.18358131 -0.18501635 0.065755546
000070 c0 e7 01 3e 9a b4 9e be 27 9f 98 3e d8 ea d9 bd
       0.12686062 -0.30997163 0.29808924 -0.10640496
000080 8b da d7 3e fb 10 f2 be 9f dc cd be 63 57 15 be
       0.42158923 -0.4727858 -0.40207383 -0.14584117
000090 59 8a fd 3c 05 a3 dc bd 07 d7 8d 3c 09 d3 fc bc
       0.030949758 -0.10773281 0.017314447 -0.030862348

bias f4 [20]
000000 8c ad db 3d bb c4 01 3e 0b 13 0f 3d c0 01 9e bd
       0.10726461 0.12672703 0.03493027 -0.077151775
000010 23 d9 27 bd ab 64 95 be db 55 9b bd cb f9 c4 3d
       -0.040978562 -0.29178366 -0.07584735 0.09617957
000020 ee 4e 0e 3e 14 01 8f bd d2 eb e5 3d b7 ad 00 be
       0.13897297 -0.069826275 0.1122662 -0.12566267
000030 96 7f 53 be 94 57 76 3e 99 74 8f be a0 8c be be
       -0.20654139 0.24056846 -0.28018644 -0.37216663
000040 8d 2c 40 be ed 8b 55 3d dd 83 17 be ba 98 33 3b
       -0.18766995 0.052135397 -0.14796396 0.0027404265

weight f4 [20, 20]
000000 7f 2b 6f 3e 1a be 2b 3e ad 2c 2d be 6a 53 ec 3c
       0.23356436 0.16771737 -0.16911574 0.028848369
000010 a0 e5 a7 3d c1 3e 8e bc d1 de 37 3e d9 dc aa 3d
       0.08198094 -0.017363908 0.17956091 0.083429046
000020 dc b4 b4 3e aa 1c b2 3e b5 58 a8 3e 9a c7 87 3d
       0.35294235 0.34787494 0.32880178 0.06629868
000030 fc 5b 81 3e 49 30 1a 3e 57 25 ff 3e c1 76 8e be
       0.2526549 0.15057482 0.49833176 -0.27824977
000040 8c 63 ab bd 17 d4 de bd b2 c1 f3 bd f0 89 be 3d
       -0.083685964 -0.10880297 -0.11902179 0.09303653
000050 37 45 7b 3e be d5 10 3e cb ca 8c bc 39 5e 94 bd
       0.24538122 0.14144036 -0.017186543 -0.07244534
000060 bc 5f a7 bd 32 74 d2 be a4 09 e0 be e0 f3 2e be
       -0.08172557 -0.41104275 -0.43757355 -0.17085218
000070 ac 3a 50 3e 0f 05 7c bd d1 75 81 bd 9a cd 8c bd
       0.20334882 -0.06152826 -0.063213 -0.06875153
000080 d7 d3 1b be 18 a2 c7 3d d6 7d 29 be 3d e2 14 3e
       -0.15217529 0.09747714 -0.16551909 0.14539428
000090 26 bc 7b 3e 87 e5 c0 3d a0 ac 51 3d ad 65 d6 3a
       0.24583492 0.09418779 0.05119002 0.0016357206
0000a0 25 af a7 3e 6b be 10 3e 7e e2 6b be 3b e0 03 bf
       0.32750812 0.14135139 -0.23035619 -0.51514024
0000b0 39 4d 17 3f 43 5c af bd 54 77 45 bd 22 de 4d 3e
       0.5910221 -0.085625194 -0.048209503 0.20104268
0000c0 01 05 48 3e 49 f9 80 be 23 e8 45 be 2e f1 46 3e
       0.19533159 -0.2519019 -0.19326834 0.1942794
0000d0 d1 32 95 be 80 ca 4b bc 21 5e 1b bd 63 1d 16 bd
       -0.29140332 -0.0124384165 -0.037931565 -0.03664912
0000e0 58 7a b3 bb d6 58 a3 bd 91 11 0f 3d 6c 45 ef be
       -0.005477231 -0.079759285 0.034928862 -0.46732652
0000f0 ab 18 54 3e 47 f0 45 3d dd 43 51 be a6 f1 04 3e
       0.20712535 0.04832485 -0.20436044 0.12982807
000100 62 55 39 3e c2 3b 61 3e 6c b5 a4 be bc 7c 45 3e
       0.18098977 0.21995452 -0.32169664 0.19285864
000110 ad dd 35 be eb 51 c6 3d 1c 0e bb 3d 83 5f 19 3e
       -0.17760344 0.09683593 0.091335505 0.14977841
000120 83 eb b6 3e 30 c4 8b 3c 03 bc a5 3d cf 22 74 39
       0.35726556 0.017061323 0.08092501 0.0002328262
000130 ca 01 30 be 8f 80 74 3a 82 a9 4b 3e 4f 90 6e 3e
       -0.17188182 0.0009327018 0.19888881 0.23297237
000140 8b bd b6 3e 13 98 88 3b 42 08 eb 3d 03 88 d9 bb
       0.35691485 0.0041685193 0.114761844 -0.0066385283
000150 6c ce 92 be 13 a8 93 be a9 25 01 3e c6 12 cf 3e
       -0.28673112 -0.28839168 0.12612022 0.4044401
000160 cb 14 3d bd 1c 5a bb bd 39 20 08 3e c0 27 54 bd
       -0.046162408 -0.091480464 0.13293542 -0.05179572
000170 77 3f b2 bd 93 25 13 be 9e a9 32 be c9 7e 5a 3e
       -0.08703511 -0.14369802 -0.17447516 0.21337427
000180 85 6f fd be 52 98 66 3d 40 96 6f 3c 1b 2f 8c 3e
       -0.49499145 0.056297608 0.014623225 0.2737969
000190 a5 1b 93 bd d6 53 d2 3d 81 58 84 3e 97 d9 93 bd
       -0.07183007 0.10269897 0.25848773 -0.07219236
0001a0 a2 3d 4a 3e 44 9c 81 3e d3 26 42 be 9a dc c5 bd
       0.19750074 0.25314534 -0.18960123 -0.09661217
0001b0 1a e0 86 bc 6a 52 67 be 2f 18 b8 3d 6b 86 ba bd
       -0.016464282 -0.22590032 0.08988988 -0.091076694
0001c0 22 75 60 be 3e a5 68 be 9d f4 1b 3f e9 41 50 3d
       -0.21919683 -0.22719285 0.60920125 0.050844107
0001d0 e1 14 36 be 60 70 2a 3d f1 6c 37 3e 19 7e 8e 3e
       -0.17781402 0.041611075 0.17912652 0.2783058
0001e0 5e ff d8 be ad 8c 29 bd 23 1c ee 3c c6 9a 8c bc
       -0.4238233 -0.041393925 0.029066151 -0.017163645
0001f0 4f ba 08 be b2 10 06 bf 58 26 47 3e b2 05 87 3d
       -0.13352321 -0.52369225 0.1944822 0.06592883
000200 80 5c 84 3e 91 18 8b be 11 87 25 3e a6 7b 16 be
       0.25851822 -0.2716718 0.16164805 -0.14695606
000210 24 4b bb 3c de 48 02 bd 93 11 68 3e f5 19 dd 3d
       0.022862978 -0.031807773 0.22662954 0.107959665
000220 52 79 33 be d4 6d 7f be 7c d6 91 3d 4d 74 33 be
       -0.17526749 -0.2494424 0.07120988 -0.17524834
000230 64 96 4b 3e 80 2a da 3e bf e5 52 3e 65 eb 3a bc
       0.19881588 0.4261055 0.20595454 -0.0114086615
000240 c9 2b 9a 3e 73 89 16 3e 8e 36 d4 be 83 e9 0e 3e
       0.3011153 0.1470087 -0.41447872 0.13956265
000250 17 3b 57 bd 7f 3b 59 bd 22 0c be 3d cb 2c 06 3e
       -0.052546587 -0.053035256 0.09279658 0.13103025
000260 f1 70 8b 3e 27 46 92 be 38 1a 55 3c 32 b9 5f be
       0.27234605 -0.28569147 0.013006739 -0.2184799
000270 b5 68 37 be 88 8a 17 be b4 50 4d be 8a 69 79 3e
       -0.17911036 -0.14798939 -0.20050317 0.24356666
000280 f6 51 e1 3d a0 37 51 be b5 13 de bd a5 b2 34 3e
       0.11001961 -0.20431376 -0.108436026 0.17646272
000290 04 b5 8e be 76 d3 71 3e 95 b6 63 be cb 5f f8 bd
       -0.2787248 0.23615822 -0.22237618 -0.12127646
0002a0 96 66 8b be 94 a3 04 be 13 85 00 3e 2d 5b 0a 3e
       -0.27226704 -0.12953025 0.12550764 0.13511343
0002b0 dd 4b df 3d 48 3a e9 bd 8a 18 34 3d c0 3a fb 3e
       0.10903142 -0.113880694 0.043968715 0.4906826
0002c0 18 20 57 3e 00 d9 0d 3e a6 db 19 3e b5 5f 54 be
       0.21008337 0.1385231 0.15025195 -0.20739634
0002d0 01 a5 f8 3d 4f 78 7e 3c 56 bc b8 3e ae 4f b5 3c
       0.12140847 0.0155316135 0.3608119 0.02213272
0002e0 04 d7 f8 3e 4a a9 85 3e f0 31 29 3e d5 53 2c 3e
       0.48601544 0.2610572 0.16522956 0.16828854
0002f0 99 27 da 3e d7 97 0f 3e ab c2 c9 3d c3 69 91 be
       0.42608336 0.14022766 0.09851583 -0.28401002
000300 75 c2 90 bd f6 be 84 3e 43 63 0a be 46 83 43 bc
       -0.0706834 0.25926942 -0.13514428 -0.0119331535
000310 5a 96 86 3e d8 74 72 bb c0 65 5b be 60 bd ff 3c
       0.26286584 -0.0036995914 -0.21425533 0.03121823
000320 82 ea 0a bd 92 ec 17 3e f9 ae 0c be 1b 2b 01 3e
       -0.03391505 0.14836338 -0.13738622 0.126141
000330 8e 68 5c be 55 a2 e3 bd ae 0d 79 be b1 b3 76 3d
       -0.2152426 -0.11114947 -0.24321625 0.06022996
000340 21 11 b4 3e 99 8d 0d bf 96 2c cb bc 85 ff 20 be
       0.35169318 -0.55294186 -0.024801534 -0.15722473
000350 71 9b e0 be 44 da 55 be 4d 0a 83 bb b9 14 13 3e
       -0.43868592 -0.20884043 -0.0039990307 0.14363374
000360 5c f2 80 be 16 ec 96 3e 85 5f 2e 3e 9d fa 65 be
       -0.25184906 0.29476994 0.17028625 -0.22458883
000370 fe e2 c4 be f4 c2 28 3e 1d 91 9b 3e 8a 0d 2d 3e
       -0.3845443 0.16480619 0.3038415 0.16899696
000380 58 a0 ed bd 7a f1 20 3d 4c e6 00 3d f0 82 16 be
       -0.11602849 0.03929279 0.03146963 -0.14698386
000390 2a 93 71 be 81 57 b7 3e cc 4f d4 3d c0 91 eb 3e
       -0.23591295 0.35808948 0.103667825 0.46009636
0003a0 89 b9 b1 bd 43 ce a8 bd 2d 68 61 3e 97 b9 5e be
       -0.08677966 -0.08242466 0.22012396 -0.21750484
0003b0 c8 97 b3 bd 3b 2d 13 3e 9b f6 55 3e 54 8d c0 3c
       -0.08769184 0.14372723 0.20894854 0.02350489
0003c0 80 8c b5 be c5 4a 1d 3e 84 3c 04 3e 82 b8 aa 3d
       -0.35458755 0.15360554 0.1291371 0.08335973
0003d0 38 48 9f be 14 41 9a 3e 9c d7 01 3b a0 64 73 be
       -0.31109786 0.30127776 0.001981235 -0.23768854
0003e0 46 c3 3d 3e 63 37 6b 3e ba ce fe bd 39 f2 8f 3e
       0.18531522 0.22970347 -0.12441774 0.2811449
0003f0 f2 87 2f 3e 67 ee 97 bd 6d b7 16 bd 7e 36 89 3c
       0.17141703 -0.074185185 -0.036796022 0.016749617

bias f4 [20]
000000 b1 70 b7 3d 13 45 dc 3d b8 2a 52 ba a8 23 41 bc
       0.08957041 0.10755362 -0.000801723 -0.011788286
000010 7d f5 7a bc 31 9e 8a bc 8f f7 0c 3d f2 d0 62 bd
       -0.015317318 -0.016921135 0.034415778 -0.055375047
000020 63 2c 3d be fe b5 9e bc 9a d3 1b 3d ba 90 1b bd
       -0.18473963 -0.01937389 0.038043596 -0.03797982
000030 b8 cc f4 3c 9e 44 ce bc e5 55 35 bd df 8e 88 be
       0.029882774 -0.025179204 -0.04427137 -0.26671502
000040 3e 86 75 bd 1c 5f e3 bd 31 2a 63 3e 4e 09 4e 3d
       -0.059942476 -0.11102125 0.22184063 0.050301842

weight f4 [20, 20]
000000 d0 1c 76 3e ff 2d 62 be 5a 71 6d 3d 71 cd 39 3e
       0.24034429 -0.22087859 0.05796943 0.18144776
000010 4e 67 0c be 0c bc 18 be a7 aa 16 3e 94 91 c3 3e
       -0.13711283 -0.14915484 0.14713536 0.38197005
000020 f1 b6 29 bf 0a 86 4d 3e 1f 11 4c 3e a9 d6 a2 3e
       -0.6629477 0.20070663 0.19928406 0.31804398
000030 07 e2 33 3e 64 65 31 3e 66 87 94 3e df c5 5a be
       0.17566691 0.17323834 0.2900955 -0.21364544
000040 a5 2f bd 3e 00 c6 13 be 84 14 5c 3e 93 f2 9b be
       0.36950412 -0.14431 0.21492201 -0.30458507
000050 20 e3 85 3e af 9a c1 3c df ca 85 3d ec 0b 04 3b
       0.26149845 0.02363333 0.06532835 0.0020148708
000060 3e d8 95 3d b4 90 90 3e 8b a8 60 3e 4f 9e 85 be
       0.073166355 0.282354 0.21939294 -0.26097342
000070 ce 5c c8 bd c3 48 30 3e 47 fc 51 be af 7e b4 3e
       -0.09783326 0.17215256 -0.20506392 0.35252902
000080 83 ff 2b bd 0e 2e ba ba 24 1d a6 bd 33 ae ac 3e
       -0.04199172 -0.0014204399 -0.08111027 0.33726653
000090 4d 6a 59 bd c4 2c cd 3e dc db ae 3e dc 6f 01 bd
       -0.053079892 0.40073216 0.34152114 -0.031600818
0000a0 2a b5 84 be a9 65 34 bd 0c 07 2a bd e4 a6 78 be
       -0.25919467 -0.044042263 -0.041510627 -0.24282414
0000b0 bb e2 46 3e d5 7e de 3d 31 6c 9a 3e 20 1a 8d 3c
       0.19422428 0.10864035 0.30160668 0.017224371
0000c0 b3 80 07 3e 8b 3d 54 3e 56 72 22 be 98 07 5c be
       0.13232689 0.20726602 -0.15863928 -0.21487272
0000d0 89 0b ef bd d5 3a df 3d 45 c2 8d 3b c4 6d b9 3e
       -0.11672122 0.10899893 0.0043261372 0.36216557
0000e0 6d d5 4b 3e 5c a1 2d 3d b5 ca 4a be af 48 8e 3d
       0.19905634 0.042390212 -0.19803889 0.06947457
0000f0 20 29 9c 3e b4 a6 bb 3d ec 35 8a be 09 30 ba bd
       0.30500126 0.091626555 -0.26994264 -0.09091193
000100 c8 0a 99 be 1d 2f 86 be 92 bf 09 bf 20 bd ee be
       -0.29891038 -0.2620782 -0.5380794 -0.46628666
000110 7d 21 41 be 8d e0 6a be 97 8c 98 3d b9 de f0 3c
       -0.18860431 -0.22937222 0.074486904 0.029403077
000120 62 86 94 bd 7f 63 a6 3d 2d 40 04 be db 56 9f 3e
       -0.07252194 0.08124446 -0.12915106 0.31120953
000130 61 f6 d0 bd bc d8 dd bd 09 41 09 3e 10 c1 cf 3e
       -0.10203243 -0.108323544 0.13403715 0.40576982
000140 b9 76 91 3e 41 fb 5d bd 5e 7a 93 3d f9 67 0b bd
       0.2841089 -0.054194693 0.07201074 -0.034034703
000150 01 06 86 3e a6 52 87 be bd 9c 0e be 8c 98 23 be
       0.26176456 -0.26430243 -0.13926978 -0.15976161
000160 70 ae 2a 3e f5 da 87 bc ff 94 c7 be d3 09 a6 be
       0.16668105 -0.016583899 -0.38980862 -0.3242937
000170 5c 55 7f bd 63 32 18 bf a2 f0 fc 3e a1 b0 05 3e
       -0.062337264 -0.59451884 0.49402338 0.1305566
000180 6a 50 7f be 5f 1a 7e be 05 62 b1 3e 27 60 50 3e
       -0.2493302 -0.24814747 0.34645095 0.20349179
000190 78 df 36 be 1a 47 54 bd 52 f7 06 3c 51 0b 3a be
       -0.17858684 -0.05182562 0.008237677 -0.1816838
0001a0 6c df 82 be 30 c8 01 bd d1 b3 96 3d 85 0d d3 be
       -0.25561082 -0.031685054 0.07358516 -0.41221252
0001b0 62 ef 05 3e df 61 12 bd 42 aa 0f be e6 53 7b bd
       0.13079599 -0.03573787 -0.14029792 -0.06135931
0001c0 09 21 df 3e 7d e1 0f 3e 98 84 cb 3e 0a 35 9e bb
       0.4357989 0.1405086 0.39749599 -0.0048281
0001d0 78 58 3f 3b be 27 25 3e 30 a2 2e 3e 74 53 fb be
       0.0029197019 0.16128442 0.17054057 -0.49087107
0001e0 13 dc 81 3e c3 45 19 bd bc 2c 4f 3d 7b 98 6b 3e
       0.25363216 -0.037420046 0.05057977 0.23007385
0001f0 9a 45 a9 3d 46 3f f9 bc 14 09 4e be 1b b5 7c 3e
       0.082652286 -0.030425679 -0.2012065 0.24678461
000200 95 44 41 bd 3b 85 9e 3d b9 61 4f 3e c7 3f 05 3e
       -0.047184546 0.077402554 0.20252122 0.1301261
000210 93 f5 2b be bf b9 98 3e 6c cb 5d be d5 f6 9d 3e
       -0.16792898 0.29829213 -0.2165963 0.3085238
000220 ca 4f 29 3e 1c bc 16 bf 8c c2 46 be 6f 78 de 3d
       0.16534343 -0.5888078 -0.19410151 0.10862815
000230 3c 87 e6 bd 7f 12 41 3e f9 21 a4 bd 39 07 69 3e
       -0.11256263 0.18854712 -0.08014292 0.22756661
000240 ba cc e9 bc 4b 66 75 bd 10 53 3e be 57 f1 94 3e
       -0.028540004 -0.059912007 -0.18586373 0.29090378
000250 eb 16 b1 3e cf 33 e6 3d ce 5d 34 3e 33 e3 06 be
       0.34587798 0.112403505 0.17613909 -0.13172607
000260 4e 27 d4 bd 6b 49 a4 bd aa 2e 9f 3d 3c 25 1c 3e
       -0.10359059 -0.08021816 0.07772572 0.15248579
000270 a7 13 35 be 0f d9 b5 3e 97 a7 fc 3c ae e5 36 3d
       -0.17683278 0.35517165 0.030841632 0.044652633
000280 a9 5f e9 bd cf cc b2 bd 7b 3e 77 be 34 40 e3 3e
       -0.11395199 -0.087304704 -0.24144928 0.4438492
000290 97 e5 85 3e 0e 9b 3e 3e 22 38 19 bc 11 bf 7e 3c
       0.26151726 0.18613836 -0.009351762 0.0155484835
0002a0 60 57 57 3e 14 03 7a 3d 53 11 5f bd 8d fa 91 3e
       0.21029425 0.06103809 -0.05445988 0.28511468
0002b0 6b 2c 8c be 24 51 b3 be cf 13 81 3e 5b 5c d4 bd
       -0.27377638 -0.35022843 0.25210425 -0.10369178
0002c0 e4 7d 02 bd 70 13 38 be 2f d4 91 3e f4 dd 87 be
       -0.03185834 -0.17976165 0.28482196 -0.26536524
0002d0 f5 3a 02 3f be 49 31 be 57 5f a2 be 03 32 6e bc
       0.5087121 -0.17313287 -0.31713364 -0.014538291
0002e0 8a 0d 94 be a8 8d 6f 3e b6 6b 90 be fc 2d a5 3d
       -0.2891658 0.23393881 -0.28207177 0.080654114
0002f0 64 9d 07 bc 2b 82 1c 3c 03 de 45 3e b5 86 22 3e
       -0.008277271 0.009552519 0.19322972 0.15871699
000300 63 fe 88 bd 13 d0 52 bc 7c bc 34 be 60 91 ac 3e
       -0.066891454 -0.012866992 -0.17650026 0.33704662
000310 ef fa 11 bd 03 5a 8b 3d 10 21 12 3e c0 b3 93 be
       -0.0356397 0.06804278 0.14270425 -0.28848076
000320 63 2a 45 3e 80 33 c9 3c 09 d6 11 3e 7a ee 05 bc
       0.1925445 0.02456069 0.14241804 -0.008174533
000330 12 88 4a 3d 7a 59 cf 3d ad 0a cf 3d 54 a0 d3 bd
       0.049446173 0.10124488 0.10109458 -0.103333145
000340 c4 af 0e be 87 38 20 3e d1 6e 38 be 4a bf 06 3e
       -0.13934237 0.15646563 -0.18011023 0.13158908
000350 27 b7 46 3b e5 03 63 3e 2c b8 b7 be 5c 90 84 3e
       0.003032157 0.22169454 -0.358827 0.25891387
000360 8e 5f bb 3d 10 0d a6 be 56 6b c0 bd c3 52 80 be
       0.09149085 -0.3243184 -0.09395473 -0.25063142
000370 5d 89 1c 3d 50 4a da 3d b5 80 11 be 05 67 47 be
       0.038216937 0.10658705 -0.14209254 -0.19472893
000380 61 20 36 3e 02 b4 87 be c6 84 6a 3d 4f 5c a5 bd
       0.17785789 -0.26504523 0.05725553 -0.08074247
000390 c8 b6 be be f1 99 1f 3e 2b 1b 2a be ad 07 a2 bd
       -0.37248826 0.15586068 -0.16611926 -0.0791162
0003a0 36 bd 97 3e 3e 09 a2 3e 39 24 5a bc bb 74 9b 3e
       0.29636544 0.31647676 -0.0133143 0.30362496
0003b0 03 30 a8 3c f5 97 2d 3f f1 67 f6 bd 3e a3 10 3d
       0.020530706 0.67809993 -0.12031544 0.03531193
0003c0 2a 29 a6 be 15 68 c6 3d 59 36 4b be 9c b8 f3 3b
       -0.3245328 0.09687821 -0.1984495 0.0074377786
0003d0 99 60 50 3e 17 4f 93 be 1d 80 4a bd 05 c8 a8 3e
       0.20349349 -0.28771278 -0.049438585 0.32965103
0003e0 85 1a 84 3c 6a c5 b1 3d e2 cb ba 3d 81 8a bf bd
       0.016125927 0.08680232 0.09120919 -0.093525894
0003f0 03 0a 92 be 04 73 da be 99 7b 52 3e 4c f2 32 bf
       -0.28523263 -0.42665875 0.20554961 -0.69900966

bias f4 [20]
000000 4c 70 ff 3d 8f d1 4c bc dc 18 76 bd dd 96 d7 3d
       0.12472591 -0.012501135 -0.0600823 0.10526822
000010 98 cc 1f bd 04 d1 48 3d 20 58 02 3c fb 3e 39 3c
       -0.039013475 0.049027458 0.007955581 0.01130652
000020 71 cc c3 ba 5d 4b 0b bd ef b2 a2 3c 08 28 87 ba
       -0.0014938248 -0.03400742 0.019860713 -0.0010311613
000030 ca d5 b5 3d c5 8a 50 bd 5a 35 c4 bc fc 0b cf 3d
       0.08878668 -0.05091359 -0.023951221 0.10109708
000040 57 17 ae bd 59 f0 3e be 8f be bc bd 00 36 9f bd
       -0.085005455 -0.18646373 -0.09216034 -0.077739716

weight f4 [20, 20]
000000 9d 05 51 bc 8f 6e 15 3e 87 ef a0 3e 38 a7 36 be
       -0.012757686 0.14592956 0.31432745 -0.17837226
000010 91 4c 14 3f 73 18 05 b9 65 e5 a3 3e b8 53 83 be
       0.5792933 -0.00012692976 0.32010952 -0.2564981
000020 85 df 70 3e 15 aa 45 3d d1 06 36 3e bd a9 ae 3c
       0.23522766 0.048257906 0.17776038 0.021321172
000030 eb 25 d5 3d 2b d4 84 3e aa 49 25 be 51 89 14 3e
       0.10407623 0.2594312 -0.16141382 0.14505507
000040 5c 40 34 3e 12 81 d1 3e 9f 8c 88 3e 10 48 94 bd
       0.17602676 0.40918785 0.26669785 -0.07240307
000050 91 6e dc bd 09 c3 21 bb a3 6a 21 be 64 8e 6d bd
       -0.10763276 -0.00246829 -0.15763335 -0.057997122
000060 04 d7 62 3e 5b 6d a8 3e f8 9d 96 3e b4 8b 7a bc
       0.22152334 0.32895932 0.29417396 -0.015292097
000070 e3 22 d9 bd fb 3a 1d bc 1a 23 9c be 3f 37 7d be
       -0.10602357 -0.009596582 -0.3049553 -0.24728106
000080 96 7f 82 be 83 af e5 3e da 4f 95 be cf 8e 7d be
       -0.25487965 0.44860467 -0.29162484 -0.24761508
000090 0f 1f a8 3e 2e 1d b4 3e 33 43 92 be 68 a9 59 3e
       0.32836196 0.35178512 -0.28566894 0.2125603
0000a0 5d ce e4 be 9c 32 bd be b3 6d 4d 3e 2f 03 f8 bd
       -0.44688693 -0.36952674 0.20061378 -0.12109982
0000b0 b0 b5 c5 be b9 3a 71 3e b5 95 02 bf 73 fb 4f 3e
       -0.3861518 0.23557557 -0.51009685 0.20310764
0000c0 3c 9a 60 3e d3 2d 02 3f ed 79 33 be 6e 76 0c be
       0.21933836 0.5085117 -0.1752698 -0.13717052
0000d0 c8 45 6b bd 11 3f b0 3c a5 a3 97 3d 66 fd 6f be
       -0.057439595 0.021514447 0.074042596 -0.23436508
0000e0 db 85 8a be d6 59 ed 3e 41 9c 99 bc 77 99 a1 3e
       -0.2705525 0.46357602 -0.018751265 0.31562397
0000f0 d3 de 05 be a5 23 88 bd 10 7d 06 be 7e 1b 0e 3e
       -0.13073282 -0.06647424 -0.13133645 0.13877675
000100 07 aa 63 bd 3c 2b 24 be 8b 74 21 3e 51 a2 31 3e
       -0.055582073 -0.16032118 0.15767114 0.17347075
000110 86 11 74 3d 27 eb 1c 3e 75 ad 87 3e 0d 4b 07 bf
       0.059587024 0.15324079 0.26499525 -0.52848893
000120 a9 10 9f 3d 89 49 88 3e 58 ad 8c 39 ab b8 4b 3d
       0.077668495 0.26618603 0.00026832032 0.04973666
000130 56 19 47 be 49 fa 18 3f f1 4b 64 3d d8 47 ef be
       -0.19443259 0.59756905 0.055736486 -0.467345
000140 eb 42 8a 3e 4d 17 9f be 50 0b 88 be b9 3e b6 bd
       0.2700418 -0.31072465 -0.2657113 -0.08898682
000150 43 2d 13 3e 2f e7 04 3e 28 e4 fa bd cd 00 25 3c
       0.14372735 0.12978815 -0.122505486 0.010070992
000160 0e 42 2b 3d 78 a7 aa be f1 50 ea 3d a1 0e 76 3c
       0.04181104 -0.33330894 0.114412196 0.015018136
000170 fb 94 d1 3d 90 58 4c 3e ac 54 3f be 2f 06 35 bd
       0.10233494 0.19955659 -0.18684644 -0.04419535
000180 11 3a 2c be ad 7d 85 be 53 62 04 bf db 74 d0 3c
       -0.16819026 -0.26072446 -0.5171253 0.025446346
000190 08 ad ce 3d ea 4e d9 3b 71 3c 0e 3d ea 44 5c 3e
       0.10091597 0.0066317217 0.03472561 0.21510664
0001a0 e0 35 47 3e 8a f9 59 bb 96 03 55 be d3 62 6c bb
       0.19454145 -0.003326031 -0.20802149 -0.0036069646
0001b0 2c 94 77 3e 0b 72 11 3e e9 a4 4e be 4d df 9b be
       0.24177617 0.1420366 -0.20180096 -0.30443802
0001c0 8d 18 fb bd ba 9f 5b 3e 88 bb 82 be 8e 44 88 bd
       -0.12260542 0.2144765 -0.255337 -0.06653701
0001d0 82 1e 5d be 9f 4d b4 bd 78 6f d4 3e 4b ec 27 3e
       -0.21593669 -0.088038675 0.41491294 0.16398732
0001e0 f0 eb 1b be 8a ad a3 3e 69 d2 41 3d 6e da 31 be
       -0.15226722 0.31968337 0.047319803 -0.1736848
0001f0 d3 74 bf be 5e 69 a5 3e d9 04 87 3c f0 89 c6 bd
       -0.37393817 0.3230695 0.016481804 -0.09694278
000200 4e 63 57 be d4 c1 55 3e 6f 05 44 be 72 d9 db be
       -0.21033975 0.20874721 -0.19142698 -0.42939335
000210 26 89 85 3e 31 87 8f be 0e c0 4c 3e 23 ea 8b 3d
       0.26081198 -0.2803283 0.19995138 0.068317674
000220 83 a9 11 3f 39 79 fe 3d 2e a4 bf bd 0c 5e 87 be
       0.5689928 0.12425465 -0.09357487 -0.2643894
000230 bf 9b b0 be de 78 a6 bd 41 7c cb be 15 7a 48 3e
       -0.34493825 -0.08128522 -0.39743236 0.1957782
000240 c2 f1 1e bf bb 48 d2 3e 51 1c 8c 3e ff 1c 60 3e
       -0.62087643 0.41071114 0.27365354 0.21886061
000250 12 1f a2 bd 11 b0 17 be f6 88 cf 3e 99 b5 7b be
       -0.079160824 -0.14813258 0.4053418 -0.24580993
000260 25 96 a0 3e 26 26 b7 be fc a4 65 be 7d b7 f2 3d
       0.3136455 -0.35771292 -0.22426218 0.11851404
000270 f0 70 56 bd 79 10 75 be 35 23 d0 be 86 f8 17 be
       -0.0523538 -0.23932065 -0.4065186 -0.14840898
000280 63 30 82 3e 36 83 9a bd 6d 3d 65 be a5 16 a1 be
       0.2542754 -0.07544558 -0.22386713 -0.3146259
000290 d0 ee 33 3e b2 74 e5 3d 08 e6 54 be 51 f3 18 be
       0.17571568 0.112038985 -0.20790875 -0.14936568
0002a0 87 6f d2 3c 91 cc 17 be 9f 4d 8a 3d 37 a1 0d be
       0.025687946 -0.1482413 0.06753086 -0.1383103
0002b0 00 5e 83 3e 03 90 1c 3e 9a 4a 2e 3e 0f 99 2b bd
       0.25657654 0.15289311 0.17020646 -0.041894015
0002c0 7a 4e 33 be e0 a5 4c be fd c4 1f 3e c6 ce 35 bd
       -0.17510405 -0.19985151 0.15602489 -0.044386648
0002d0 b3 45 a9 3e 0c 7c 05 3e 9a 19 2b 3d f1 1e 3b be
       0.3306099 0.13035601 0.041772462 -0.18273522
0002e0 eb 94 d4 bd 19 6d 98 bd 78 a5 54 be 70 a0 24 3e
       -0.10379966 -0.07442684 -0.20766246 0.16076827
0002f0 c8 68 7d bd bd 87 ab 3e 7e 33 5e be f5 96 9e bd
       -0.061867505 0.33501998 -0.2169933 -0.077436365
000300 24 d8 bc be 30 7b 2d 3e 31 0f cc 3e ad 1c 96 be
       -0.36883652 0.16941524 0.3985534 -0.29318753
000310 f8 41 1f be 9f c6 f4 be c7 12 ad bd c4 f9 39 3d
       -0.15552509 -0.47807786 -0.08450847 0.04540421
000320 75 a0 6f 3d 7a 5b 93 3e 67 df 16 3e 1f 16 8f 3e
       0.058502633 0.2878073 0.14733659 0.27946565
000330 83 04 10 be 79 f7 04 3e a8 a3 8f bb 2a 22 90 3c
       -0.14064221 0.12985028 -0.004383523 0.017594416
000340 36 37 bb 3e 07 06 a7 3d 02 35 88 be a0 fc c1 bd
       0.3656556 0.081554465 -0.26602942 -0.094720125
000350 49 8f 7a 3e 1c f6 92 3e c9 c0 27 3e b2 a2 ae be
       0.24468721 0.28703392 0.16382135 -0.34108502
000360 26 93 3d be bc b3 00 bf 41 a2 d5 ba 01 12 53 bc
       -0.18513164 -0.5027425 -0.0016298966 -0.01288271
000370 92 98 26 bd 9a 73 fe 3d ab da e1 3b 19 58 6b be
       -0.040672846 0.12424393 0.0068925223 -0.22982825
000380 47 ee 06 be 68 42 0d 3e fe 8f 0e 3d ae db 0a be
       -0.13176833 0.13794863 0.03480529 -0.13560364
000390 1c 56 81 be 18 03 8b be fe bb 29 be 74 2f 0a be
       -0.2526101 -0.27150798 -0.1657562 -0.13494664
0003a0 e3 cc 11 be 30 e4 7a be a0 5c 26 bd 76 20 0a 3e
       -0.14238314 -0.24501109 -0.040615678 0.13488945
0003b0 95 e9 0e 3e 81 7e 94 3e 54 ab a5 be 98 5c 7e 3e
       0.13956292 0.29002765 -0.32357275 0.24840009
0003c0 f0 bb 47 3e 1b 27 37 bc d4 72 c5 3d fb 28 20 3d
       0.19505286 -0.011178757 0.09641042 0.039101582
0003d0 ed 07 18 be 21 cc cc be dd e1 10 3e be 2e a8 be
       -0.14846773 -0.39999488 0.1414866 -0.3284816
0003e0 a4 5d 37 3e 8d 3f 64 bd c0 39 06 bd cb f1 12 be
       0.17906815 -0.05572467 -0.03276992 -0.14350049
0003f0 04 0c ec bd 94 e6 b1 bd 11 9e 18 3e 35 a6 db 3e
       -0.11525729 -0.086865574 0.14904048 0.42900243

bias f4 [20]
000000 85 36 99 bd 78 c5 c6 bd de f3 6b bd 7c 1f 7f 3b
       -0.07481102 -0.09705633 -0.057605617 0.0038928678
000010 5a 7f 84 3d 53 d2 6e 3d 08 1a 42 bd e7 92 bd 3c
       0.06469603 0.05830605 -0.047388107 0.023141338
000020 b9 c9 90 3d ea bd 05 bc ca 81 ae 3d 3a f9 d2 3c
       0.070697255 -0.008162955 0.08520849 0.025753606
000030 4c b4 2b 3d 95 64 5a 3d 1f 95 66 3d 8c b2 07 3d
       0.04191999 0.05331858 0.056294557 0.03312926
000040 66 ee 11 3d 53 5b b8 bc ba 3b 38 3c dc 81 17 be
       0.035627745 -0.022504484 0.011244709 -0.14795631

weight f4 [20, 20]
000000 36 44 74 3e 5d 45 09 3e 12 fd 92 3d 8c d8 95 bd
       0.23854145 0.13405366 0.071771756 -0.07316694
000010 b9 eb 69 3e 6e cd bb 3c 0e 97 29 bc 4f 76 a4 bd
       0.22843827 0.022925105 -0.010350956 -0.08030378
000020 30 41 cc 3e 3a f4 eb 3c 46 22 00 be 07 bc 6e 3e
       0.39893484 0.02880298 -0.12513074 0.23313914
000030 50 8a 36 3e 8c 67 79 be cb d0 08 3e 8c f3 70 be
       0.178262 -0.24355906 0.13360898 -0.23530406
000040 ab f1 8e 3e 0e 14 ef bd 09 1f 49 be 52 8e b0 bd
       0.27918753 -0.11673747 -0.19640745 -0.086208954
000050 8f 14 41 3c 76 40 48 be c9 58 45 3e b0 14 cf bd
       0.011784687 -0.1955584 0.1927215 -0.10111368
000060 dd bf f0 bd cd 18 96 bd 19 47 0a bc 69 00 81 be
       -0.11755345 -0.07328949 -0.008439803 -0.25195625
000070 8d e8 ac 3e 04 e6 41 be 65 d8 18 bc ab ae 3a be
       0.33771172 -0.189354 -0.009328936 -0.18230693
000080 32 69 2a be 64 1d 0c 3d 06 df a6 be fd e0 be be
       -0.16641691 0.034207717 -0.32592028 -0.37281027
000090 40 40 ce bd cf db bc 3e d4 b5 fa 3d 1a 0f 1b bc
       -0.100708485 0.3688645 0.12241712 -0.00946405
0000a0 0f 78 9b 3e 87 aa 25 3e 24 5f 70 be 94 f2 d0 3d
       0.30365035 0.16178332 -0.23473793 0.10202518
0000b0 b4 a6 d9 be cd dd 42 be 2b 48 f8 bc eb ed 9d 3d
       -0.42509997 -0.19029923 -0.03030785 0.07711395
0000c0 30 a0 84 bd da 15 23 3d c3 83 ca bb 46 af a5 bd
       -0.06475866 0.03981576 -0.006180258 -0.080900714
0000d0 dd 9e 70 3d 93 75 d9 3e b2 26 a6 bc ed 9f 9d b7
       0.058745254 0.42472515 -0.020282123 -1.879033e-05
0000e0 e0 a8 7a 3d 21 38 93 be 07 7d 9e be 39 75 31 bc
       0.061196208 -0.2875376 -0.30954763 -0.010831171
0000f0 7a 00 71 bd 96 41 a6 3e a4 06 26 3e 8d 80 6c 3d
       -0.058838345 0.32471913 0.1621347 0.057739783
000100 64 cf 24 3e a3 28 7b be bb 13 04 bd 38 a2 d3 3d
       0.16094738 -0.2452722 -0.03224538 0.10333675
000110 ca 82 9d bd 96 75 5a be 3a da 3a be 8c b9 45 bd
       -0.07690962 -0.21333918 -0.1824731 -0.048272654
000120 d9 f0 b3 3e 1e 88 57 3e b2 f4 05 3e 43 1b 7d 3e
       0.3514469 0.21048018 0.13081625 0.24717431
000130 b8 23 e4 bd 39 37 90 3e e9 75 57 3c 64 7f 89 3e
       -0.11139625 0.28167132 0.013150671 0.26855004
000140 1c ad 8c be 19 72 60 3c 6b 5e d6 3e d7 ff 1a 3e
       -0.27475822 0.013699078 0.4186891 0.15136658
000150 22 07 48 3d 9f 89 bd bd 57 5e 6f bc 7e b7 41 be
       0.048834927 -0.09254765 -0.014609895 -0.18917653
000160 8f 8d fe 3d e6 ad 24 be 46 7a 61 be 33 08 2b 3d
       0.12429344 -0.16081962 -0.220193 0.041755866
000170 e1 4c 85 be 11 fc 0d be 30 40 b5 be c3 a8 28 3e
       -0.26035216 -0.13865687 -0.35400534 0.16470627
000180 d9 47 10 be 25 28 e4 3d 4b 95 88 bd d1 3e f1 bd
       -0.14089908 0.111404695 -0.066691004 -0.117795594
000190 25 72 d0 be f2 24 0b bd 8f 6c 01 3e 9b 17 eb bd
       -0.40712085 -0.03397078 0.12639068 -0.11479112
0001a0 ee ff 80 3e 16 bd 93 3d 4e e8 be be ce 4e e6 bc
       0.2519526 0.072138 -0.3728661 -0.028113749
0001b0 92 73 c1 3d 63 95 8e 3c 5f 68 35 be 3a a0 db be
       0.094458714 0.017405218 -0.17715596 -0.4289568
0001c0 e0 b6 20 be 13 27 68 3e 1f 35 36 bc 11 d0 0a 3f
       -0.15694761 0.22671156 -0.0111210635 0.54223734
0001d0 cd 2b ca bd d1 34 73 bc b5 b4 68 be 10 8d a9 be
       -0.098716356 -0.014844135 -0.22725184 -0.33115435
0001e0 76 96 80 3e 05 c1 08 bc a9 68 f0 3b 1d dc f4 bc
       0.25114793 -0.008346801 0.007336695 -0.029890114
0001f0 e4 1d dd be ab b8 26 3e e7 70 02 be 84 4f ed 3d
       -0.43186867 0.16281383 -0.12738381 0.11587432
000200 4d 47 12 3d fb 21 56 3e 03 1c 77 be f4 d8 70 bd
       0.03571253 0.209114 -0.2413178 -0.058800653
000210 ff c9 cd 3b c6 a5 a6 3d 0f 27 37 3e 60 a2 47 ba
       0.0062801833 0.081370875 0.17885993 -0.00076154433
000220 35 e8 01 3e e8 db 23 3e 40 0f 26 38 55 19 dd 3d
       0.12686236 0.16001856 3.9591687e-05 0.10795847
000230 cb b0 5a be 3b 72 57 3d b7 1c 45 3e a9 f2 ed 3c
       -0.21356504 0.052599173 0.19249235 0.029046373
000240 4e cd 0f 3e 2f 2a 3a be 79 2e b4 3d 9e 35 d5 ba
       0.14043161 -0.18180154 0.087979265 -0.001626659
000250 d0 18 f0 bc 2f 02 bc 3d a7 96 aa bd 5c 3c 89 bd
       -0.029308707 0.09180104 -0.08329516 -0.06700966
000260 f9 bc 60 3e a5 30 d1 bd 22 7c 32 be 6b 0e 04 be
       0.21947087 -0.10214356 -0.17430165 -0.12896125
000270 de 30 97 be 24 c1 65 bc 90 72 a3 3c a4 73 06 3e
       -0.2952947 -0.014023099 0.019952089 0.13130051
000280 bb 81 83 be 21 2a 60 be df 7f e8 bc c2 4f 33 3e
       -0.25684914 -0.21891071 -0.028381286 0.17510894
000290 de 78 b7 bd db 2c 9e be 3e 1d f6 bc e7 5c b5 be
       -0.089586005 -0.30893597 -0.03004324 -0.3542244
0002a0 dc 9e 01 be 78 97 7a 3e 2e a6 30 3e 28 b5 60 be
       -0.12658256 0.24471843 0.17250893 -0.21944106
0002b0 3c 58 d1 bd 1c 79 8a 3e 7c 3b 0c 3d f6 32 89 3c
       -0.102219075 0.27045524 0.034236416 0.016747933
0002c0 75 7a 10 be 87 04 57 be 21 cd 19 3c 69 05 80 3d
       -0.14109214 -0.20997821 0.009387285 0.06251032
0002d0 73 bb 14 bd 61 09 6a 3e 60 b4 9b 3e 75 84 06 be
       -0.036311578 0.2285514 0.30411053 -0.13136466
0002e0 bd b5 f7 bd d2 12 f2 bd 3f d1 f8 bd 26 b3 96 3e
       -0.12095211 -0.11819996 -0.121492855 0.29433554
0002f0 18 8a ab bd 93 a4 13 be dd 4d 2f bc 0a 68 66 3c
       -0.08375949 -0.14418249 -0.010699716 0.014062891
000300 05 26 d4 be 88 d0 b7 3e b8 c8 31 be 07 c0 0b be
       -0.41435257 0.35901284 -0.17361724 -0.13647471
000310 72 94 de bd 0d f8 90 3e fc 82 cf bb 1a d0 12 3e
       -0.108681574 0.28314248 -0.006332753 0.14337197
000320 9a 28 cb bd cb 8a 6b be b5 c8 ba 3e 0c 92 98 3e
       -0.099198535 -0.23002164 0.36481252 0.29798925
000330 2d 27 f9 bd 60 6f a2 3e 82 69 cf bd a5 dc 66 be
       -0.12165675 0.31725597 -0.10127546 -0.22545107
000340 4d 1a 28 3e 52 44 bb be 52 7d 89 3e 85 51 b7 3c
       0.16416283 -0.36575562 0.26853424 0.022377739
000350 92 10 ad be 67 8b d5 bd 45 07 be be 5f 00 bc 3d
       -0.33801705 -0.104269795 -0.3711492 0.09179758
000360 e0 1e 5e 3e b8 a9 12 bd 10 48 9f 3e 06 a6 85 be
       0.21691465 -0.035806388 0.31109667 -0.26103228
000370 9d cf d4 be 5e 23 24 bd 7b 1f 05 bd 74 bf 34 3e
       -0.41564646 -0.04007279 -0.032500725 0.17651159
000380 c5 5b b2 be 95 e7 5a 3d d5 7f 22 be c4 62 fc 3e
       -0.3483564 0.05344351 -0.15869077 0.49294102
000390 31 b5 24 be a5 ca 52 be b7 8c 08 bd 4c 4d 0b 3e
       -0.16084744 -0.20585115 -0.03333732 0.13603705
0003a0 47 12 83 3e 8f 95 f1 3d 85 36 2c 3d 39 47 85 bd
       0.25599882 0.11796104 0.04204418 -0.06507725
0003b0 11 bd ae 3d 19 2f 02 be 17 1b a1 bd 45 fe 23 bd
       0.08532155 -0.12713279 -0.07866495 -0.040037412
0003c0 9c c6 6c be 72 c0 73 bd 1a 03 ef bc a4 30 e7 bd
       -0.23122638 -0.059509702 -0.029176284 -0.11288574
0003d0 03 2f 7c be 17 9d 9c 3e 49 53 0e be 84 80 44 be
       -0.24627309 0.305886 -0.13898958 -0.1918965
0003e0 74 65 bc 3c 24 23 61 bd 45 b7 5c 3d 17 7b 9f bc
       0.022997595 -0.054965153 0.053885717 -0.019467873
0003f0 2f 56 74 be eb e9 82 3e a1 a0 bf be e8 ab 9c 3d
       -0.23861001 0.2556909 -0.37427238 0.07649976

bias f4 [20]
000000 6b 60 a3 bb f5 0b 51 bc 2f 32 19 bc c4 82 1a bd
       -0.004985859 -0.012759198 -0.009350344 -0.037722364
000010 9b 6e 37 bc ad c1 8b 3d ab 82 59 bd 60 c7 c5 bc
       -0.011195804 0.0682405 -0.05310313 -0.024142921
000020 94 8e fb 3c 37 d7 56 bd ff 45 e7 3c 8b b3 ac 3b
       0.030707635 -0.05245134 0.028231619 0.0052704266
000030 ed d8 77 bc 17 ca f8 bd e4 df 72 bd 06 73 e9 3b
       -0.015127403 -0.121479206 -0.05929555 0.0071243076
000040 2e a5 91 3c c5 30 94 3d cc f1 83 3d 5e 86 7b 3c
       0.01777896 0.072358645 0.064426035 0.01535186

weight f4 [20, 20]
000000 9c 45 88 3e 32 59 5e 3d 70 3b 49 bd 8d cc 83 3e
       0.26615608 0.054284282 -0.04912895 0.25741997
000010 ff fa c4 bd f5 f6 0d bb 2f df c6 3d 2c 32 4a 3d
       -0.09618186 -0.002166209 0.09710538 0.049364254
000020 9e 70 b5 bd 07 1e e9 3d ed 7c 6e 3d af 22 9b 3d
       -0.08859371 0.113826804 0.058224607 0.07574975
000030 79 c0 5c 3e e3 88 c9 3e 91 1a c8 bd 01 1d c5 3d
       0.21557797 0.3936225 -0.09770692 0.09624673
000040 c0 cd db 3d e3 e2 9f 3e 24 04 0f 3d 97 39 01 bf
       0.10732603 0.31227788 0.03491606 -0.504785
000050 ac c7 25 3e 4e 78 27 3e e5 14 78 be b9 f7 bb bd
       0.1618945 0.16354486 -0.2422672 -0.09178109
000060 e0 c6 1c 3c 13 72 c1 3d 66 11 e7 bd 6a dc 64 3e
       0.0095689 0.09445586 -0.11282615 0.22349706
000070 b4 a7 ef 3d ca e7 e3 3d 6c 03 44 be 4a cb 47 be
       0.11701909 0.11128195 -0.1914193 -0.19511142
000080 c3 54 45 3e 32 39 2e 3e a2 52 ff bd 5d 79 7d be
       0.19270615 0.17014006 -0.12466933 -0.24753328
000090 db 18 91 3e 6d 7d e3 bd 5e 48 82 be b5 88 a9 3d
       0.28339276 -0.111079074 -0.25445837 0.08278028
0000a0 b7 61 cf be 20 9d 89 3c e6 f1 dc bd f4 8e 83 be
       -0.40504238 0.016798556 -0.10788326 -0.25695002
0000b0 4c 7b a0 be 43 8d 6c bd b0 f2 b9 3d 3b 4a c4 be
       -0.31344068 -0.057751905 0.09079492 -0.38337883
0000c0 1c 40 f4 bd 7a 7c 65 3d 84 26 be bd d5 c1 95 be
       -0.119262904 0.056026913 -0.0928469 -0.29249445
0000d0 87 cc 25 be 39 0b 62 be 8a 3f c7 3e 21 f2 89 3e
       -0.16191302 -0.22074594 0.38915664 0.26942542
0000e0 38 e1 d0 3d 01 d9 4b be cd fe 24 3e e6 f5 85 3e
       0.10199207 -0.19906999 0.16112824 0.26164168
0000f0 59 b6 9d be c7 91 c9 3d 8d db 63 be d2 9c 55 be
       -0.30803183 0.09842258 -0.2225172 -0.20860603
000100 a0 90 ac bd 27 86 a9 bc d5 1c 3e be 23 fc 43 be
       -0.084260225 -0.020693852 -0.18565686 -0.19139151
000110 99 e7 1f be 1c 16 99 3e 79 97 db 3d 8b de 23 3e
       -0.15615691 0.2989968 0.107222505 0.16002862
000120 00 72 b4 3c 9a 05 08 3e 66 7f 9d 3e ad bf 61 3e
       0.022027016 0.13283387 0.3076126 0.22045775
000130 7c 86 b5 be 80 5a 22 3d 8f 42 00 3c 02 fa 25 be
       -0.35454166 0.03963709 0.007828369 -0.16208652
000140 93 1d 16 be 43 e3 64 be 10 be e1 bd 28 21 2b be
       -0.14659719 -0.22352318 -0.1102258 -0.16711867
000150 7c a0 ec be a4 67 fc bd 51 f1 7e be b3 d9 8d be
       -0.4621619 -0.123244554 -0.24896742 -0.27705154
000160 8a 61 e0 3d 2e 9a a0 be eb 4f b5 3e 6c f2 aa bc
       0.10956104 -0.3136763 0.35412535 -0.020867549
000170 a0 f8 80 be 7d 6e 04 be 18 c4 cf bc 19 a1 13 be
       -0.25189686 -0.12932773 -0.02536206 -0.14416923
000180 82 59 31 bd c7 77 87 bd ac 7c 8a 3a 75 ac 2f be
       -0.043298252 -0.066146426 0.001056572 -0.17155631
000190 ab e6 ec bd 9f 87 b6 bc 1b 61 04 bf d1 20 27 3e
       -0.11567434 -0.022281466 -0.5171067 0.16321112
0001a0 2f 32 11 bf 6f 4a 7f be 2c 41 46 3b 5c 59 64 be
       -0.567172 -0.24930738 0.0030251248 -0.22299713
0001b0 f1 66 99 3e dd 63 ff bd 90 70 90 bd 9c e5 91 3e
       0.2996135 -0.12470219 -0.070527196 0.2849549
0001c0 af 3c 81 be e3 d9 4b be 21 78 19 bc a6 d1 7e 3e
       -0.2524161 -0.19907336 -0.00936702 0.24884662
0001d0 2b 84 94 3e 49 ee fd bc 70 68 02 be 11 ad e5 3e
       0.29007086 -0.030997412 -0.12735152 0.44858602
0001e0 32 ba 18 be c5 dd df bc 85 b0 c9 bd a1 2e 30 3e
       -0.14914778 -0.027327428 -0.098481216 0.17205288
0001f0 76 e0 6b 3e 3f 14 5e bd 83 ef 17 3e ce ac 57 be
       0.23034844 -0.054218527 0.1483746 -0.21062014
000200 77 8c 56 3e da 5b 9b bc c3 47 21 3e 5e 16 90 bd
       0.2095202 -0.018964697 0.15750031 -0.07035516
000210 06 4c 27 be 03 e8 92 bd a0 2f 96 3e ec c3 04 bf
       -0.16337594 -0.07173159 0.2933321 -0.51861453
000220 00 2c 93 bd c9 7b 73 be e6 07 8c 3a 69 28 8a be
       -0.07186127 -0.23777689 0.0010683506 -0.26983956
000230 a5 84 29 3e 94 9e 00 bd a8 c8 19 be 36 37 c8 3d
       0.16554506 -0.031401232 -0.1501795 0.09776156
000240 3b f7 68 3e 3b dd ae bd ad ca 87 bd 8f b6 22 be
       0.22750561 -0.0853829 -0.06630454 -0.15889953
000250 bf c6 df 3d 7f 25 b9 bc 6d 39 fd 3d 8c 0e 09 be
       0.1092658 -0.022600887 0.12364469 -0.13384455
000260 47 ae e2 3d fd d0 9d bd 0a dc 58 3d 62 b6 98 bd
       0.11068397 -0.07705877 0.05294422 -0.07456662
000270 95 c6 1e be ad 6d 60 3e 34 9f a4 be e0 fa fe 3d
       -0.1550544 0.21916838 -0.32152712 0.12450194
000280 1e bc 2c be 00 41 8c be 52 3f 66 3d 3e 0a 5f 3e
       -0.16868636 -0.2739334 0.05621273 0.21781251
000290 7c 9c 5f 3e 1e ec 42 3e 85 4c ae 3c 1e 24 bc 3e
       0.21837038 0.19035384 0.021276722 0.36746305
0002a0 96 df 12 3f 02 e8 f0 3d af 54 32 be a2 a7 08 be
       0.57372415 0.11763002 -0.17415117 -0.13345197
0002b0 c2 0e 77 3d 3f a2 a0 bd e6 9d 87 bd 05 50 4d 3e
       0.06031681 -0.07843446 -0.066219136 0.20050056
0002c0 ba 6d 73 3e 5b 93 b7 be 52 6f f4 3d bc 0d f4 bd
       0.23772326 -0.3585461 0.11935295 -0.11916682
0002d0 06 5f 5c be 41 d6 9a be e3 35 b9 bb 09 31 8c 3e
       -0.21520624 -0.30241588 -0.0056521758 0.2738116
0002e0 7c 40 80 3d 63 05 94 3d bc d7 f5 bb ee 4c 64 be
       0.062622994 0.0722759 -0.007502524 -0.22294971
0002f0 0e fa 17 3d 54 b4 ed bd a6 09 b0 3d 99 59 dd bd
       0.037103705 -0.116066605 0.0859559 -0.10808105
000300 5d 0f 78 be 94 f9 26 be dc 0c 1e be be a5 ec be
       -0.2422461 -0.16306144 -0.15434593 -0.462202
000310 5c d5 94 3c 50 6c d5 be 54 06 23 be 14 64 08 3e
       0.018168144 -0.41684198 -0.15920383 0.13319427
000320 49 f3 a5 3e 8d 42 70 3e d9 d8 85 3e 1d 12 35 3c
       0.32412174 0.23462887 0.26142004 0.011051682
000330 e1 52 89 bd 5a 87 55 bd f9 d8 85 3e 63 65 82 bd
       -0.06705261 -0.052131034 0.261421 -0.06366994
000340 4e c7 f0 bd ad 95 8e 3e ba 92 2b 3c 85 f5 a0 be
       -0.11756764 0.2784857 0.010471994 -0.31437317
000350 3f dc 99 be 08 c9 aa 3d d8 cf b8 bd 1b fd 89 3e
       -0.30050847 0.08339125 -0.09024018 0.26950917
000360 80 21 26 bd e7 a0 fc bd 0f 29 0d 3c 73 15 61 be
       -0.04055929 -0.12335377 0.008615746 -0.21980838
000370 9f 41 15 3e 68 74 69 3e 74 d6 a7 3e 86 02 94 3c
       0.14575814 0.22798312 0.32780802 0.01806761
000380 1e 1d 77 be be 6c 97 3e 14 a7 54 3c 12 55 93 be
       -0.24132201 0.2957515 0.012979288 -0.2877584
000390 fc f8 75 3e d3 75 7b be 3e af b6 3e e3 4b 4a 3e
       0.24020761 -0.24556665 0.35680574 0.19755511
0003a0 c5 f4 8a 3e 66 db 99 be 05 97 9e be e3 4f 8d 3e
       0.2713987 -0.300502 -0.30974594 0.2760001
0003b0 14 83 4b 3e 1f cf bf be 9e 81 0f 3f 9a 0e 83 bd
       0.19874221 -0.37462708 0.56057155 -0.063992694
0003c0 f9 0f 2d 3e af 2a 7c bd ee ef ad 3e 5c fd 8b bd
       0.16900624 -0.061564144 0.33972114 -0.06835434
0003d0 50 bb 46 be 1b ff 8e 3d 34 7d 70 be 67 9f a8 be
       -0.19407392 0.06982251 -0.23485261 -0.32934114
0003e0 19 95 e9 3d d5 b6 af 3e b1 5e 03 be 57 35 3e be
       0.11405391 0.34319177 -0.1282909 -0.18575035
0003f0 bf b6 68 3d f5 2f 4a 3e 85 57 71 3e 2c 34 08 3e
       0.056814905 0.19744857 0.23568542 0.13301152

bias f4 [20]
000000 4f 15 03 bd 30 68 92 3c ab ed 71 3c 87 b5 18 3b
       -0.032002743 0.017871946 0.014766137 0.0023301558
000010 f6 cc 03 3d c1 08 8f bc 25 80 b1 3a be e6 94 b9
       0.032177888 -0.017460229 0.0013542218 -0.00028400676
000020 d3 f6 2c 3d 3d 76 ca 3c 9c 6b e2 bc 31 49 8a 3c
       0.042227577 0.024714584 -0.027639203 0.016880604
000030 ab 13 ba bc 50 cc b5 bc eb 9f b7 3d d6 b8 30 bd
       -0.022714457 -0.02219215 0.08966049 -0.043145023
000040 42 14 bc bb 7a 83 9e 3c be c0 68 3d 70 57 8e bc
       -0.0057397196 0.019349802 0.05682444 -0.017375678

weight f4 [20, 20]
000000 e6 98 24 bd 23 48 90 3d 18 70 b5 be 52 e4 b4 bd
       -0.040184878 0.07045009 -0.35437083 -0.08832611
000010 95 10 c4 bd 50 b0 89 bd b0 bb 5f 3e 78 f6 98 bd
       -0.09573475 -0.06723082 0.21848941 -0.07468885
000020 af 62 95 3e da f6 68 3e c0 12 cc 3d 02 b9 07 be
       0.29176852 0.22750416 0.09964514 -0.13254169
000030 60 47 00 3d 02 32 ed 3c 72 17 3e be 49 13 6b 3e
       0.03131807 0.02895451 -0.18563631 0.22956575
000040 9d 22 ce be bf 06 dd 3e f3 78 a5 bc 18 f8 e8 ba
       -0.40260783 0.4316921 -0.020199275 -0.0017774133
000050 77 33 43 3e 83 09 01 3f 7c 31 e2 3d 8a 42 23 3e
       0.19062601 0.5040514 0.11044595 0.15943351
000060 98 e2 89 be d3 26 bb 3d 8c 13 8d be fc 1e 62 be
       -0.2693069 0.091382645 -0.27553976 -0.22082132
000070 5f a4 80 3e b3 5e ce 3d 1e 7e 42 3e d0 37 4d be
       0.25125405 0.10076656 0.18993422 -0.20040822
000080 82 20 5d be 67 a2 b6 bd 69 85 86 bd c6 d0 15 3e
       -0.21594432 -0.089176945 -0.06568415 0.14630422
000090 60 5a b3 3e f1 91 ba 3d 5b df 04 3e 58 89 06 3d
       0.35029888 0.09109867 0.12975828 0.032845825
0000a0 db 61 bd be b4 01 00 be 87 34 eb 3e 35 36 18 3e
       -0.3698872 -0.1250065 0.45938513 0.14864428
0000b0 44 cd 47 3d 58 70 8f 3d 08 b1 dd bd d8 b6 29 3e
       0.04877974 0.0700385 -0.10824782 0.16573656
0000c0 b5 f6 f3 3d 7d de ca 3d 81 01 19 3d 1c 8c 23 3e
       0.1191229 0.099057175 0.03735495 0.15971416
0000d0 0f 9a c6 be c1 6e ab 3d b1 12 a6 3e f5 d2 00 3f
       -0.38789412 0.08370734 0.32436135 0.50321895
0000e0 90 35 b6 3d 93 db 47 3d 17 a5 80 be 9a 80 95 3d
       0.08896935 0.048793387 -0.25125954 0.072999194
0000f0 2a 93 f9 3d 53 66 b8 3d d5 38 8b 3e c7 4b c0 be
       0.121862724 0.09003892 0.27191797 -0.37557814
000100 73 a2 34 bd a5 50 42 be 94 7b a7 be eb bc 6a bd
       -0.044100236 -0.18976076 -0.3271147 -0.057309072
000110 6d f5 96 3c 72 50 90 3e 5b 9a 50 be 77 71 9f 3e
       0.018427575 0.28186375 -0.20371382 0.31141254
000120 22 c0 11 bd 59 24 08 3e d0 d9 da 3d b8 ad b2 3d
       -0.035583623 0.13295116 0.10686076 0.087245405
000130 0b 09 ae 3e 72 ae d9 bd 26 38 56 be 37 6c eb be
       0.33991274 -0.10628976 -0.20919856 -0.45981
000140 f5 4a 35 3e 03 7d dc 3b 26 09 3c 3e 19 45 56 3e
       0.17704375 0.0067287697 0.18362865 0.20924796
000150 ef 4c 45 3f 8a 9c 11 bd 8f 80 9d 3e 04 8f 30 3e
       0.77070516 -0.035549678 0.30762145 0.17242056
000160 ff 07 f4 3d 43 35 d4 3d 5a d4 82 be 5c 2f da 3d
       0.11915588 0.10361721 -0.25552636 0.10653564
000170 9c ad 80 be 77 75 ad 3d 51 5c cc 3d 12 c2 fe be
       -0.25132453 0.0846967 0.099785455 -0.4975744
000180 93 c2 64 be ce 83 8e 3d 06 f7 41 3e f5 3c 95 3e
       -0.22339849 0.069587335 0.18941888 0.2914807
000190 18 f4 1d 3e 18 bd 39 be ac 29 45 be 4d 62 43 be
       0.15425146 -0.1813854 -0.19254178 -0.19080468
0001a0 14 3e c9 be dd 19 3e 3e 16 2f 91 3e 61 6f 1e 3f
       -0.39305174 0.18564554 0.28356236 0.618887
0001b0 d4 db 86 be 43 a4 82 be 9d ee a7 3e 7e 67 29 3e
       -0.2633959 -0.25515947 0.32799235 0.16543385
0001c0 15 30 cf be 02 fd 8a 3e a9 e8 33 bd 68 b1 00 3e
       -0.4046637 0.27146155 -0.043923054 0.12567675
0001d0 62 c4 f0 bd b5 4a 99 bd 52 34 b6 bc c5 ef 99 3e
       -0.11756207 -0.07484952 -0.022241745 0.30065742
0001e0 04 f3 c4 be d3 06 21 3e 69 ae 29 be 88 84 26 be
       -0.38466656 0.1572526 -0.16570438 -0.16261494
0001f0 af 32 26 b9 e6 71 51 3e ae 0c 33 be 0a 0c 06 be
       -0.00015849875 0.20453605 -0.17485306 -0.1309053
000200 c5 c4 83 bd 58 18 00 bf 53 21 0e 3e dd 23 4b be
       -0.06434015 -0.50037146 0.138799 -0.198379
000210 53 ae 91 ba cc 20 6b be b8 93 0c be eb 4c 91 be
       -0.0011114575 -0.2296173 -0.13728225 -0.28378996
000220 93 fb 90 be a4 c4 e2 bc 19 4a 89 3e 20 75 49 bd
       -0.28316936 -0.027681656 0.26814345 -0.049183965
000230 7c 78 d5 3e db 31 aa be 01 68 8d 3c 52 86 45 3e
       0.41693485 -0.33241162 0.017261507 0.1928952
000240 c0 93 87 be 22 ae a8 3d 7f c9 f2 3c 8e 63 17 be
       -0.26479912 0.08236338 0.029637096 -0.14784071
000250 92 b2 30 be 29 06 0d be d9 d5 e7 bc 55 79 51 be
       -0.17255619 -0.13771881 -0.028300213 -0.20456441
000260 fd 56 b6 bd c3 c0 64 3e 8f ae d4 bc 97 6f 19 3e
       -0.089033104 0.22339158 -0.025962142 0.14983974
000270 3e ed a5 3d 45 b4 04 3e 4d 2c 06 be 93 f9 03 be
       0.08101891 0.12959392 -0.13102837 -0.12888174
000280 70 5a ec bd 74 a0 a6 bd e9 9e 1f bd 2e 0f 2b 3d
       -0.11540687 -0.08136073 -0.038969908 0.041762523
000290 79 02 87 bd 42 92 3f bd 36 76 64 3e 7a 2e 48 bd
       -0.065922685 -0.04677034 0.22310719 -0.04887245
0002a0 13 d3 96 3d a6 06 4b 3e 0f b6 9e bd 21 be da 3d
       0.07364478 0.19826755 -0.07749569 0.106807955
0002b0 c5 dc dd bc 62 9b 4b 3e 1b 64 66 3d a1 ec e0 be
       -0.02708281 0.19883493 0.05624781 -0.43930534
0002c0 28 81 1b be 0b c7 f3 3c 42 7b e6 bd 90 19 a6 be
       -0.15185988 0.029757997 -0.11253978 -0.32441378
0002d0 a1 8a 78 3e d8 88 a8 3e 55 ce 9b be 0e e2 c3 be
       0.24271633 0.32916903 -0.30430856 -0.38258404
0002e0 d0 87 f1 3d 74 94 42 3e 3f f8 50 3e cc 5f 98 3e
       0.11793482 0.19001943 0.20407198 0.29760587
0002f0 59 db 29 be 12 3a 2e be 74 83 62 be f6 00 76 bb
       -0.1658758 -0.1701434 -0.22120458 -0.0037537194
000300 ff 51 17 3e 41 17 52 bd 46 db 61 3e 61 7d 92 3e
       0.14777373 -0.051291708 0.22056302 0.28611282
000310 40 0b d8 3d 25 e6 7c 3d 49 18 13 3e 54 8e 0d be
       0.10549021 0.06174292 0.14364733 -0.13823825
000320 d3 7c 03 3e d4 d2 91 be f3 fe 4b be 2a 8f cb bd
       0.12840585 -0.28481162 -0.19921474 -0.09939416
000330 c4 8e 65 3e 5a 13 a5 be a5 9e 03 bd d7 bf 06 3e
       0.22417742 -0.32241327 -0.032133717 0.13159119
000340 50 dc 25 3e 8e 07 dd 3c ee 44 0e be 2e cd d1 be
       0.16197324 0.026981141 -0.13893482 -0.40976852
000350 f8 5c d8 3d 88 20 6e be bb 93 2d 3e e8 23 7b bc
       0.105646074 -0.23254597 0.16950886 -0.015328385
000360 01 bc 54 bc b6 d4 4a be 64 3e e5 3e 76 21 06 3e
       -0.012984277 -0.19807705 0.44774163 0.13098702
000370 17 d3 08 3e 5f dc ea bd d2 78 82 3e a1 29 ae bd
       0.13361774 -0.11467814 0.25482804 -0.08504034
000380 1b d9 e7 3d f2 c8 01 be 2f 68 e7 bd 07 e6 0b bd
       0.113207065 -0.12674311 -0.11299168 -0.034154918
000390 d3 1c 1c 3e c3 81 27 3d 05 4f 9d 3e 5d 60 a8 bd
       0.1524537 0.040895235 0.3072435 -0.08221505
0003a0 fb e5 76 3d 10 5c 39 be fd b5 f5 bd 2b 15 8e be
       0.06027792 -0.18101525 -0.11997602 -0.27750525
0003b0 92 ff 5f be 0b 72 a9 3d f4 bd ab 3e 84 e1 33 3e
       -0.21874836 0.08273705 0.3354336 0.17566496
0003c0 44 ed 84 be b3 76 34 3d 2c f7 95 3e 64 fa a8 3d
       -0.2596227 0.044058513 0.2929014 0.08250883
0003d0 f9 29 47 3e 65 eb 8a 3e 5c 0c 26 3e 0d 47 5a ba
       0.19449605 0.27132717 0.16215652 -0.00083266274
0003e0 3d e1 d7 be 6a 82 e0 be 3e 8b 8f bc f9 be 0e bd
       -0.4216403 -0.43849498 -0.01752245 -0.034850094
0003f0 e9 7f 5b 3e 88 4a 49 be 66 48 46 3d d6 21 97 3d
       0.21435513 -0.19657338 0.04840889 0.073795006

bias f4 [20]
000000 28 71 92 3c e8 56 26 bb 61 34 c7 bb 77 b6 0a bd
       0.017876223 -0.002538139 -0.006079242 -0.03386542
000010 0c 55 f8 3c ee e4 2f bc b3 20 01 3d 73 b5 71 3b
       0.030313991 -0.010735733 0.031525325 0.0036881834
000020 10 45 f2 3b 4b 6b 17 3b cf 33 00 3d 1f 9a 23 3d
       0.007393487 0.0023104723 0.03129941 0.039941903
000030 7d f5 3f bd c2 06 89 3c 93 af 44 bc 9b 11 34 3d
       -0.046864975 0.016726855 -0.012004751 0.043962102
000040 58 15 d1 bc ec d3 42 bb 75 82 9b bb cc 77 35 3b
       -0.025522873 -0.0029728366 -0.0047457763 0.0027689813
