Trained/Models_00/Noise_5/toy_nostop/internal_o3.pt (torch, 51615 bytes, 23 tensors)

weight f4 [20, 2]
0	0x3d4a961a	0.049459554
1	0x3e2964f5	0.16542418
2	0xbe39e241	-0.18152715
3	0x3d675adc	0.056483135
4	0xbebc8429	-0.3681958
5	0xbed4fde0	-0.4159994
6	0x3ed1165c	0.4083737
7	0x3f134234	0.5752289
8	0x3d1ad7b6	0.037803374
9	0xbea4b522	-0.32169443
10	0x3df516a0	0.11967206
11	0xbed19cef	-0.40940043
12	0xbe6d1ce7	-0.23155557
13	0x3dda2747	0.10652023
14	0xbe288754	-0.16457874
15	0xbf147e73	-0.58005446
16	0xbe22d830	-0.15902781
17	0x3e37cb61	0.17948677
18	0xbe8eb648	-0.27873445
19	0x3e339a19	0.17539252
20	0xbc8ba31f	-0.017045556
21	0x3e2d3227	0.16913663
22	0x3e0975ec	0.1342389
23	0x3dd656b7	0.10465758
24	0x3da76169	0.081728764
25	0xbe516178	-0.20447338
26	0xbe32a691	-0.17446353
27	0x3db37f0a	0.08764465
28	0x3d082109	0.03323463
29	0xbe7ab4f6	-0.24483094
30	0x3e739909	0.23788847
31	0xbe04aaa2	-0.12955716
32	0x3ed62897	0.41827843
33	0xbf190a7d	-0.5978163
34	0xbed368f7	-0.4129102
35	0xbee45055	-0.44592538
36	0x3cf007a6	0.029300522
37	0xbd88311a	-0.066499904
38	0x3cb10502	0.021608833
39	0xbd8eb3e4	-0.06967905

bias f4 [20]
0	0x3b2c4ddb	0.0026291523
1	0x3b62947a	0.0034573362
2	0xbeada095	-0.33911577
3	0x3c848690	0.016177446
4	0xbdbf8125	-0.09350804
5	0xbe91064b	-0.28325114
6	0xbcb9aadd	-0.022664482
7	0xbe92d89c	-0.28680885
8	0x3d8c0234	0.06836358
9	0xbe052ae3	-0.13004641
10	0xbddc5a85	-0.10759453
11	0xbd372ee1	-0.04472244
12	0xbeb68549	-0.35648564
13	0x3d83bed3	0.06432881
14	0xbd948a27	-0.07252913
15	0xbe865967	-0.26240084
16	0xbe3c0220	-0.18360186
17	0xbe574a7d	-0.21024509
18	0xbc966c6d	-0.018362248
19	0xbe5337df	-0.20626782

weight f4 [20, 20]
0	0x3e835471	0.2565036
1	0x3e6fa48b	0.23402612
2	0xbeb11753	-0.34588107
3	0x3e5528a7	0.20816289
4	0x3d4e95e6	0.050435923
5	0x3d3195b7	0.04335567
6	0x3e5ce9e7	0.21573602
7	0xbc46c7b6	-0.012132576
8	0x3ec32d8c	0.38120687
9	0x3ec38c5f	0.38193032
10	0x3ebc0242	0.36720473
11	0x3d8891d5	0.0666844
12	0x3e81fc22	0.25387675
13	0x3e462d9d	0.19353338
14	0x3ee0b937	0.43891308
15	0xbeae36a1	-0.34026054
16	0xbe024358	-0.12721002
17	0xbe91ac42	-0.28451735
18	0xbe038ebb	-0.12847416
19	0x3dbb00a4	0.091309816
20	0x3e8357f2	0.25653034
21	0x3df9badd	0.121938445
22	0xbd629ada	-0.05532346
23	0xbc1d2d6c	-0.009593349
24	0xbde4ea57	-0.11177509
25	0xbec5ef81	-0.3865929
26	0xbedd481d	-0.4321908
27	0xbe587643	-0.21138863
28	0x3e747c49	0.23875536
29	0xbd934a2c	-0.071918815
30	0xbd295eab	-0.041350048
31	0xbcfeb217	-0.03109078
32	0xbe30145e	-0.1719527
33	0x3d71ffa0	0.059081674
34	0xbe567530	-0.20943141
35	0x3e37dee5	0.17956121
36	0x3e3045ae	0.1721408
37	0x3d8903d2	0.06690182
38	0x3d1ab8d0	0.037773907
39	0xbc29a192	-0.010353463
40	0x3ea3fe2e	0.3202986
41	0x3e1667ec	0.1468808
42	0xbe62584b	-0.22103994
43	0xbf056d16	-0.52119577
44	0x3f1d7089	0.6149984
45	0xbdaee781	-0.085402496
46	0xbd5536af	-0.052054103
47	0x3e543c6e	0.20726177
48	0x3e3ab20b	0.1823198
49	0xbe80dad3	-0.2516695
50	0xbe503d51	-0.2033589
51	0x3e361d41	0.17784597
52	0xbe921be5	-0.28536907
53	0x3baec5c0	0.005333632
54	0xbb9bbfd6	-0.0047530932
55	0xbd680c71	-0.05665249
56	0x3d5d1263	0.053972613
57	0xbd66cce1	-0.05634773
58	0x3d2b07d2	0.041755505
59	0xbeef1341	-0.46694377
60	0x3e4a4f40	0.19756794
61	0xbc9be9bc	-0.019032352
62	0xbe856062	-0.26050097
63	0x3e79f59c	0.24410099
64	0x3e370773	0.17873935
65	0x3e894ce0	0.26816463
66	0xbeb3399f	-0.350049
67	0x3e3bbead	0.18334456
68	0xbe456301	-0.19276048
69	0x3d374126	0.044739865
70	0x3db45dac	0.08806929
71	0x3e3fc138	0.18726051
72	0x3ebd73a9	0.37002304
73	0xbd5f9017	-0.054580774
74	0x3dca57ac	0.09880003
75	0x3dcd61b3	0.100284
76	0xbdd585e2	-0.10425927
77	0xbe10f0a1	-0.14154293
78	0x3e4f489d	0.20242544
79	0x3e799351	0.24372603
80	0x3eb4cd70	0.35312986
81	0xbc62f955	-0.013853391
82	0x3e3b1265	0.18268736
83	0x3d85bc47	0.06530052
84	0xbe90cc34	-0.28280795
85	0xbe9a8ef2	-0.30187184
86	0x3dda67f5	0.106643595
87	0x3ede59c6	0.43427867
88	0xbd366c64	-0.044536963
89	0xbdd68a7b	-0.10475632
90	0x3e0176e6	0.12643012
91	0xbcebf79c	-0.028804593
92	0xbda3fa8b	-0.08006772
93	0xbe305d13	-0.17223005
94	0xbe040355	-0.12891896
95	0x3e691b3f	0.227643
96	0xbeefb687	-0.46818945
97	0x3dd8a0bb	0.10577532
98	0x3cb517fa	0.02210616
99	0x3e953ad8	0.29146457
100	0xbd5610a1	-0.052261952
101	0x3e049d7a	0.12950698
102	0x3e9ed077	0.3101842
103	0xbdd4b071	-0.10385216
104	0x3e3c2823	0.18374686
105	0x3e1fbf98	0.15600431
106	0xbe36b7d9	-0.1784357
107	0xbdd53285	-0.104100265
108	0x3bd5073c	0.0065011065
109	0xbe46c631	-0.19411542
110	0x3dc7520e	0.097324476
111	0xbdd5fa29	-0.10448105
112	0xbe75ea97	-0.2401527
113	0xbe4b3980	-0.19846153
114	0x3f1413bd	0.5784262
115	0x3bf1b560	0.007376358
116	0xbe971461	-0.29507735
117	0x3ceb28d8	0.028706
118	0x3e321410	0.17390466
119	0x3e8b6946	0.27228755
120	0xbece7eda	-0.40331155
121	0xbd070897	-0.032967176
122	0x3d56e5d8	0.05246529
123	0xbc7d0751	-0.015443639
124	0xbe1e5e74	-0.15465719
125	0xbf101cc0	-0.5629387
126	0x3e4641c9	0.19361033
127	0x3d639c1c	0.0555688
128	0x3e952cf2	0.29135853
129	0xbe83e5cd	-0.25761262
130	0x3e364d20	0.17802858
131	0xbe03ed89	-0.12883581
132	0x3c85ffbe	0.016357299
133	0xbcdeba8f	-0.027188567
134	0x3e513166	0.20429
135	0x3dd1ba2f	0.1024059
136	0xbe56dae0	-0.20981932
137	0xbe66c0e6	-0.22534522
138	0x3d85578c	0.06510839
139	0xbe3122c8	-0.17298424
140	0x3e3986ef	0.1811788
141	0x3edaef6b	0.42760786
142	0x3eab4fbf	0.3345928
143	0xbd808203	-0.06274798
144	0x3eb47422	0.35244852
145	0x3e2cfe86	0.16893968
146	0xbed702d5	-0.41994348
147	0x3e6fa021	0.23400928
148	0xbd8b5f0a	-0.06805237
149	0xbd4b037f	-0.04956388
150	0x3daa0174	0.083010584
151	0x3e048fb1	0.12945439
152	0x3e9e6359	0.3093517
153	0xbe94f03a	-0.29089528
154	0x3d6bcef2	0.057570405
155	0xbe4cf49c	-0.20015186
156	0xbe4771e9	-0.19477047
157	0xbd46a178	-0.048493832
158	0xbe427bd9	-0.18992557
159	0x3e8ad377	0.2711446
160	0x3dc8a19f	0.09796452
161	0xbe5dd279	-0.2166232
162	0x3c3da97f	0.011576056
163	0x3dca02ad	0.098637916
164	0xbe8a8784	-0.27056515
165	0x3e0563da	0.13026372
166	0xbe79f4f7	-0.24409853
167	0xbda4bebe	-0.08044194
168	0xbe9ad5a2	-0.30241114
169	0xbe0cff1d	-0.13769193
170	0x3db89cde	0.09014295
171	0x3df06d7c	0.117396325
172	0x3ddc5cd2	0.107598916
173	0xbdda3730	-0.106550574
174	0x3db0e906	0.08638196
175	0x3eeab4a9	0.45840958
176	0x3e2559d9	0.16147555
177	0x3e5326cf	0.20620273
178	0x3e2403fa	0.16017142
179	0xbe49e9ff	-0.19718169
180	0x3dbf07a4	0.09327629
181	0x3d23777b	0.039908867
182	0x3ee21479	0.44156244
183	0x3da0fd8e	0.07860862
184	0x3f0944b4	0.5362046
185	0x3ea4336d	0.32070485
186	0x3e2cd56d	0.1687829
187	0x3e7e2773	0.24819736
188	0x3ecc6de9	0.39927605
189	0x3e21b6c4	0.15792376
190	0x3dba7314	0.09103981
191	0xbe92a8fa	-0.28644544
192	0xbbe4f03f	-0.0069866474
193	0x3e84e918	0.25959086
194	0xbd96eea8	-0.07369739
195	0xbc5b78ad	-0.013395471
196	0x3ead4530	0.33841848
197	0xbd1eb251	-0.038744275
198	0xbe45349c	-0.1925835
199	0x3d90e0a2	0.07074095
200	0xbd0b92c6	-0.03407552
201	0x3e2083cc	0.15675277
202	0xbe15e8c8	-0.1463958
203	0x3e3320f5	0.17493041
204	0xbe59e46e	-0.21278545
205	0xbe33b23b	-0.17548458
206	0xbe7428e3	-0.23843722
207	0x3d7dc14b	0.061951917
208	0x3ebfc0a5	0.37451664
209	0xbf0eae54	-0.55734754
210	0xbcee676c	-0.02910205
211	0xbe31a12b	-0.17346637
212	0xbef2f020	-0.47448826
213	0xbe5527ba	-0.20815936
214	0xbcf6b2a5	-0.030114481
215	0x3e15a691	0.14614321
216	0xbebdc1ba	-0.37061864
217	0x3e26ba86	0.1628209
218	0x3e2f66a3	0.17128997
219	0xbe74fc94	-0.23924476
220	0xbecb59dd	-0.39716998
221	0x3e12e19e	0.14343879
222	0x3ea82435	0.32840124
223	0x3e2b81ba	0.16748706
224	0xbdc65ada	-0.09685297
225	0x3d33be3a	0.043882586
226	0x3c675883	0.014120224
227	0xbde692d2	-0.112584725
228	0xbe888f3d	-0.26671782
229	0x3eb040fe	0.34424585
230	0x3db9d277	0.09073346
231	0x3ee6738b	0.45010027
232	0xbd90637b	-0.070502244
233	0xbdcac806	-0.09901433
234	0x3e7c9f84	0.24670225
235	0xbe341e1d	-0.17589612
236	0xbd511926	-0.051049374
237	0x3dc9be5b	0.098507605
238	0x3e613fa2	0.2199693
239	0x3d04be44	0.032408014
240	0xbeb0c141	-0.3452244
241	0x3e4512de	0.19245479
242	0x3dad16a4	0.08451584
243	0x3c9e109c	0.01929503
244	0xbea7846d	-0.3271822
245	0x3e928352	0.28615814
246	0x3d090c62	0.033459075
247	0xbe997217	-0.29969856
248	0x3e44ea73	0.1923006
249	0x3e884469	0.26614693
250	0xbe010577	-0.12599741
251	0x3e819dd0	0.25315714
252	0x3e2ab3a0	0.16670084
253	0xbcb96a99	-0.022633838
254	0xbd6ca77c	-0.057776913
255	0xbd16e571	-0.036839906

bias f4 [20]
0	0x3c87e7ea	0.016590077
1	0x3e271611	0.16317011
2	0x3da09fb9	0.07842965
3	0xbcd52bdd	-0.026021892
4	0xbde1dc63	-0.110283636
5	0xbc99a98b	-0.018757602
6	0xbd80a613	-0.06281676
7	0xbe05444b	-0.13014333
8	0xbe14b294	-0.14521247
9	0xbe83e674	-0.2576176
10	0x3dfb5ec6	0.12273936
11	0xbdb91c65	-0.09038619
12	0xbcab6f08	-0.020926967
13	0x3ad356ec	0.0016123927
14	0xbe76da06	-0.24106607
15	0xbe0ec0f3	-0.13940792
16	0xbcfdd9ec	-0.030987702
17	0xbe6f59c3	-0.23374085
18	0x3cb4e0cc	0.022079848
19	0xbde97b32	-0.11400451

weight f4 [20, 20]
0	0x3e9c3e22	0.30516154
1	0xbe880bd5	-0.26571527
2	0x3d84f8d5	0.064927734
3	0x3e5b4654	0.21413547
4	0xbe1ad448	-0.15120041
5	0xbe3354a5	-0.17512758
6	0x3de8dbb3	0.11370029
7	0x3ec39404	0.38198864
8	0xbf2114e7	-0.6292252
9	0x3e2e1f17	0.17004047
10	0x3e32d11f	0.17462586
11	0x3ea0244b	0.3127769
12	0x3e564fe7	0.20928918
13	0x3e5b0895	0.21389993
14	0x3eac7650	0.33684015
15	0xbe36a1b8	-0.17835128
16	0x3ebf7e25	0.37400928
17	0xbdf71cf2	-0.12066068
18	0x3e522b36	0.20524296
19	0xbe95386e	-0.29144615
20	0x3e935b4c	0.2878059
21	0x3c419418	0.011815093
22	0x3d5dae8c	0.05412154
23	0x3caa5e81	0.020797016
24	0x3d6d5406	0.05794146
25	0x3e95a62f	0.2922835
26	0x3e6436be	0.22286507
27	0xbe66771d	-0.22506376
28	0xbdcec155	-0.10095469
29	0x3e761043	0.24029641
30	0xbe6a9a6c	-0.2291047
31	0x3eb794a4	0.3585559
32	0xbd3ad933	-0.045617294
33	0x3c355eb7	0.011069945
34	0xbd5dfb14	-0.054194525
35	0x3eaf19fe	0.34199518
36	0xbd1e7fd0	-0.03869611
37	0x3edd3e6d	0.4321169
38	0x3e9ee6ef	0.31035563
39	0x3ca715ab	0.020396074
40	0xbe8d0c5d	-0.27548495
41	0xbbcca81b	-0.0062456257
42	0xbd6d6831	-0.057960693
43	0xbe852906	-0.2600786
44	0x3e8b3bf1	0.2719417
45	0x3d92b6d8	0.07163781
46	0x3e900b9f	0.28133866
47	0x3cada6df	0.021197734
48	0x3de2251f	0.110422365
49	0x3e5f44e6	0.21803626
50	0xbe0e2fea	-0.13885465
51	0xbe4efed9	-0.20214404
52	0xbdad99fc	-0.08476636
53	0x3db18720	0.08668351
54	0x3c81d12f	0.015846817
55	0x3ea59b07	0.3234484
56	0x3e2422b5	0.16028865
57	0x3d26ff0b	0.04077057
58	0xbe13a6d6	-0.14419112
59	0x3d84f317	0.06491678
60	0x3ec5b306	0.38613147
61	0x3d84f885	0.06492714
62	0xbe52cbb5	-0.2058552
63	0xbdca9691	-0.098919995
64	0xbe9f0aa9	-0.3106282
65	0xbe9f78ee	-0.3114695
66	0xbf13ac01	-0.5768433
67	0xbef4f0ca	-0.47839957
68	0xbe87a313	-0.26491603
69	0xbe94d6d8	-0.29070163
70	0x3d1a3a0d	0.037653018
71	0x3cbd2fb7	0.023094041
72	0xbd2df4a8	-0.04246965
73	0x3e08c0fd	0.13354869
74	0xbdff9bab	-0.12480863
75	0x3e969253	0.29408512
76	0xbe06bb47	-0.13157378
77	0xbe0a0193	-0.13477163
78	0x3e6dbaea	0.23215833
79	0x3ed2fe43	0.4120961
80	0x3ea7bbf1	0.32760575
81	0xbd8b34eb	-0.06797203
82	0x3c567831	0.013090179
83	0xbc7a80e9	-0.015289524
84	0x3e55f545	0.20894344
85	0xbe91c79e	-0.28472608
86	0xbdf6b2ef	-0.120458476
87	0xbe257fa1	-0.16161968
88	0x3e18d395	0.14924462
89	0xbc1748eb	-0.009233694
90	0xbec005e2	-0.37504488
91	0xbea6ff8d	-0.32616845
92	0xbd5e1053	-0.054214787
93	0xbf0f7ff8	-0.5605464
94	0x3ef61355	0.48061624
95	0x3e3da737	0.18520819
96	0xbe8300f4	-0.25586665
97	0xbe7cf2b0	-0.24701953
98	0x3eb8ed36	0.36118478
99	0x3e4a8f56	0.19781241
100	0xbe02a66d	-0.12758799
101	0xbc171ff5	-0.009223928
102	0x3b3b757d	0.0028603964
103	0xbe50eaad	-0.20402022
104	0xbe8e463a	-0.27787954
105	0xbde727ac	-0.11286864
106	0x3e0ebb96	0.13938746
107	0xbeee0e56	-0.46495312
108	0x3d8c3298	0.068455875
109	0xbe195fcf	-0.14977954
110	0xbdf3ed29	-0.11910469
111	0xbde2d85a	-0.11076422
112	0x3ece19c5	0.40254036
113	0x3e27bdda	0.16381016
114	0x3ecf811e	0.40528196
115	0xbd4d8792	-0.050178118
116	0xbd8a1a7b	-0.06743332
117	0x3db9e505	0.09076885
118	0x3e2c7c59	0.1684431
119	0xbf170bee	-0.5900258
120	0x3e86a5fb	0.26298508
121	0xbda1a038	-0.078918874
122	0x3acf4452	0.0015813208
123	0x3e9434a8	0.28946424
124	0x3d34d923	0.04415239
125	0xbd18fb42	-0.037348993
126	0xbe3186da	-0.17336598
127	0x3e8a4595	0.27006212
128	0x3ac1f065	0.0014796375
129	0x3d57a89c	0.052651033
130	0x3e51fb8e	0.20506117
131	0x3de3cba3	0.11122825
132	0xbe4cd329	-0.20002426
133	0x3eacda17	0.3376014
134	0xbe29ce6c	-0.1658265
135	0x3ea0fee7	0.31444475
136	0x3e40a2d3	0.18812113
137	0xbf12ad71	-0.572959
138	0xbe9b6a85	-0.30354705
139	0x3ddb8cc9	0.10720212
140	0xbde00f2e	-0.10940395
141	0x3e309d49	0.172475
142	0xbd9d8c7d	-0.07692812
143	0x3e727912	0.23678997
144	0xbcc6aaf6	-0.024251442
145	0xbd824e9e	-0.06362651
146	0xbe4d2e5f	-0.2003722
147	0x3e9c2985	0.30500427
148	0x3eafa0db	0.3430241
149	0x3e01383e	0.12619111
150	0x3e1c2251	0.15247466
151	0xbdfac796	-0.12245099
152	0xbdb40dea	-0.087917164
153	0xbd8e12b2	-0.069371596
154	0x3daaddf2	0.08343114
155	0x3e2b3360	0.16718817
156	0xbe3153f9	-0.1731719
157	0x3ebbc885	0.36676422
158	0x3d5a9116	0.05336102
159	0x3d86b80f	0.06578075
160	0xbe05bd11	-0.13060404
161	0xbdbbc76c	-0.09168896
162	0xbe8eb287	-0.2787058
163	0x3eea11d9	0.45716742
164	0x3e9118ae	0.28339142
165	0x3e3b0ddf	0.1826701
166	0xbb9aed6e	-0.004728011
167	0x3cafb872	0.021450255
168	0x3e70a2e1	0.23499633
169	0x3da8789a	0.08226128
170	0xbd4c4440	-0.049869776
171	0x3e981bfe	0.29708856
172	0xbe857a98	-0.26070094
173	0xbeb34625	-0.35014454
174	0x3e84aa6a	0.25911266
175	0xbda9bc05	-0.08287815
176	0xbceeb0a5	-0.029136965
177	0xbe2c59de	-0.16831157
178	0x3e877332	0.26455075
179	0xbe87ab7c	-0.2649802
180	0x3f004453	0.50104254
181	0xbe23adee	-0.15984318
182	0xbe8b103e	-0.2716083
183	0xbd214835	-0.039375503
184	0xbe863741	-0.2621403
185	0x3e5f6c4f	0.2181866
186	0xbea4c930	-0.32184744
187	0x3d3a9b95	0.04555853
188	0xbc6efe3b	-0.01458698
189	0xbd9c6bc9	-0.07637746
190	0x3e0ad378	0.13557231
191	0x3e253b94	0.16136009
192	0xbd07e798	-0.03317985
193	0xbc71d98d	-0.014761341
194	0xbe3882c7	-0.18018638
195	0x3ea5d1d8	0.3238666
196	0xbd634867	-0.05548897
197	0x3d90e54c	0.07074985
198	0x3e550444	0.20802408
199	0xbe9ccb66	-0.3062393
200	0x3e4fb964	0.20285565
201	0x3cd55d95	0.0260456
202	0x3e16d187	0.14728366
203	0xbc382823	-0.011240038
204	0x3d8117b2	0.06303348
205	0x3de4ac51	0.11165679
206	0x3da323b9	0.07965798
207	0xbdb66319	-0.0890562
208	0xbe1c813c	-0.15283674
209	0x3e50736c	0.2035653
210	0xbe23d01e	-0.15997359
211	0x3e1c33a8	0.1525408
212	0x3cb31bfb	0.021863928
213	0x3e5a03f5	0.21290572
214	0xbebd22c1	-0.36940578
215	0x3e84cce4	0.2593757
216	0x3dac6fb8	0.08419746
217	0xbea84738	-0.32866836
218	0xbd804d48	-0.0626474
219	0xbe68e2f3	-0.22742824
220	0x3cbf3d99	0.023344802
221	0x3db8cc3d	0.0902333
222	0xbdf82c5d	-0.121178366
223	0xbe4e003a	-0.20117274
224	0x3e227fa1	0.15868999
225	0xbe80e1f8	-0.251724
226	0x3bf3971d	0.0074337856
227	0xbdaf1339	-0.08548588
228	0xbeb9164d	-0.36149827
229	0x3e254dcd	0.1614296
230	0xbe6147e9	-0.22000088
231	0xbd724532	-0.05914802
232	0x3eabe36e	0.33571953
233	0x3ea3173b	0.3185366
234	0xbd070da2	-0.032971986
235	0x3eb7b8fc	0.3588332
236	0x3d437a57	0.047724094
237	0x3f372488	0.7154012
238	0xbd783084	-0.060593143
239	0x3d70c7ea	0.058784403
240	0xbead7908	-0.33881402
241	0x3d82db67	0.06389504
242	0xbe2ea504	-0.17055136
243	0x3c8ec840	0.017429471
244	0x3e725dee	0.23668644
245	0xbe689a3b	-0.22715084
246	0xbd7ff1de	-0.062486522
247	0x3ecd3ec4	0.4008695
248	0x3c29025f	0.010315507
249	0x3e5bec6a	0.21476904
250	0x3dc9a373	0.098456286
251	0xbd730df3	-0.059339475
252	0xbe8dabe7	-0.27670214
253	0xbee4f601	-0.44718936
254	0x3e3ae403	0.18251042
255	0xbf2dc7f2	-0.6788322

bias f4 [20]
0	0xba918756	-0.0011102955
1	0xbca7de5c	-0.020491771
2	0xbe2851c9	-0.16437449
3	0x3ca70133	0.020386314
4	0x3b8da560	0.0043226928
5	0x3e105b80	0.14097404
6	0x3daa1d95	0.083064236
7	0xbd6e1ac5	-0.058131
8	0xbdd8a5ab	-0.10578474
9	0xbe139c79	-0.14415158
10	0x3d29f6ed	0.041495252
11	0xbe062064	-0.13098294
12	0xba9adb0d	-0.001181455
13	0xbcc3c613	-0.02389816
14	0xbcff11a4	-0.031136341
15	0x3e46bbbc	0.19407552
16	0x3e1583b5	0.14601023
17	0xbd98cc00	-0.07460785
18	0xbcd6f847	-0.026241435
19	0xbd71157d	-0.058858383

weight f4 [20, 20]
0	0x3bc2e965	0.005948233
1	0x3e36a1c7	0.1783515
2	0x3e9f8d3f	0.3116245
3	0xbe62a3f7	-0.2213286
4	0x3f0cdf48	0.550282
5	0xbd68ced5	-0.056837875
6	0x3ea8ff9f	0.33007523
7	0xbe75eed5	-0.24016888
8	0x3e89c028	0.26904416
9	0x3d3a3bb8	0.04546711
10	0x3e27c54b	0.16383855
11	0x3c9bb8d9	0.01900904
12	0x3e23a820	0.15982103
13	0x3e587dec	0.21141785
14	0xbe2793c7	-0.16364966
15	0x3e35bdb8	0.17748153
16	0x3e3e812f	0.18603967
17	0x3ee54cc6	0.44785136
18	0x3e8f3a58	0.279742
19	0xbd51d80e	-0.051231436
20	0xbdb4bd15	-0.08825127
21	0xbd6f809c	-0.05847226
22	0xbe16db9b	-0.1473221
23	0xbdb394f8	-0.08768648
24	0x3e0fe794	0.14053184
25	0x3eba54b3	0.36392745
26	0x3ea1955f	0.31559274
27	0xbb2b47c1	-0.0026135298
28	0xbd8e81e5	-0.06958369
29	0x3c63b0f3	0.013897168
30	0xbead37db	-0.33831677
31	0xbe6cfde5	-0.23143728
32	0xbe7174ee	-0.23579761
33	0x3ef040b5	0.46924368
34	0xbe91baf0	-0.28462934
35	0xbe8a680b	-0.27032503
36	0x3ec7267d	0.38896552
37	0x3ec56788	0.3855555
38	0xbe8c3dc9	-0.27390888
39	0x3e63ec17	0.2225803
40	0xbee181bd	-0.44044295
41	0xbea18467	-0.31546327
42	0x3e489ced	0.19591112
43	0xbe184bb4	-0.14872628
44	0xbecd0fd3	-0.40051135
45	0x3e5a6c9b	0.21330492
46	0xbf0a8057	-0.5410208
47	0x3e59394a	0.2121326
48	0x3e823e2b	0.25438055
49	0x3efbf6d8	0.49211764
50	0xbe404043	-0.18774514
51	0xbde32b65	-0.11092261
52	0x3cc47b06	0.023984443
53	0xbd26501d	-0.040603746
54	0x3d355af6	0.0442762
55	0xbe2e05bf	-0.1699438
56	0xbe931a88	-0.2873118
57	0x3eef7a35	0.46772924
58	0x3b426899	0.0029664396
59	0x3eb22659	0.34794882
60	0xbe1ec4ea	-0.15504804
61	0xbda2e2e5	-0.07953433
62	0xbdf9dbe3	-0.12200143
63	0x3dfbd2c5	0.122960605
64	0xbd7e4784	-0.06207992
65	0xbe210c3e	-0.15727326
66	0x3e2abb12	0.16672924
67	0x3e412ef7	0.18865572
68	0x3d850ab4	0.06496182
69	0x3e0f26de	0.1397967
70	0x3e7deadf	0.24796627
71	0xbf0d45d2	-0.5518466
72	0x3da26611	0.07929624
73	0x3e8a3504	0.26993573
74	0x3ca4c8fb	0.020115366
75	0x3c9a24f7	0.018816454
76	0xbe20b6fd	-0.15694804
77	0x3f20aebf	0.6276664
78	0x3d563f99	0.052306745
79	0xbef102be	-0.47072405
80	0x3ea419ca	0.32050925
81	0xbe67080f	-0.22561668
82	0xbe8a80e9	-0.27051476
83	0xbddd5500	-0.10807228
84	0x3de62432	0.112373725
85	0x3d56914e	0.052384667
86	0xbdddc7e3	-0.10829141
87	0xbbabe9e4	-0.005246388
88	0x3ccb7f75	0.02484105
89	0xbea0ad99	-0.31382445
90	0x3e19382d	0.14962836
91	0xbc01573d	-0.007894334
92	0x3de2221c	0.11041662
93	0x3e2d55d2	0.16927269
94	0xbe85c6d1	-0.26128247
95	0xbd035f9b	-0.0320736
96	0xbe3222bb	-0.17396061
97	0xbe8a4469	-0.27005318
98	0xbf0200b4	-0.5078232
99	0x3c0f9395	0.008763214
100	0x3e1056be	0.1409559
101	0xbd3df84e	-0.04637938
102	0x3ba8d94e	0.005152858
103	0x3e9752df	0.29555413
104	0x3e84ab15	0.25911775
105	0x3d05ef4b	0.03269891
106	0xbe545578	-0.20735729
107	0xbd139ef2	-0.036040254
108	0x3e58026c	0.21094674
109	0x3e22f464	0.1591354
110	0xbe3d314f	-0.18475841
111	0xbe964dd6	-0.2935626
112	0xbe3cd827	-0.1844183
113	0x3e81247e	0.25223154
114	0xbe7cfeca	-0.2470657
115	0xbd58cd6b	-0.052930277
116	0xbe93d563	-0.2887374
117	0xbe07991e	-0.13242003
118	0x3ecf96a0	0.40544605
119	0x3e1895e5	0.1490093
120	0xbe411bb9	-0.18858232
121	0x3ec44896	0.3833663
122	0x3d774135	0.06036492
123	0xbe74dd12	-0.23912457
124	0xbecf2f24	-0.40465653
125	0x3e8b4be9	0.27206352
126	0x3b8635de	0.004095777
127	0xbdb38096	-0.0876476
128	0xbe519907	-0.20468532
129	0x3e3a995a	0.18222561
130	0xbe477617	-0.19478641
131	0xbee7b4b1	-0.45255044
132	0x3e9fb088	0.3118937
133	0xbeab2729	-0.33428314
134	0x3e21f637	0.1581658
135	0x3dd11896	0.102097675
136	0x3f17f83e	0.5936316
137	0x3e0ff56b	0.14058463
138	0xbdc915a4	-0.09818581
139	0xbe891755	-0.26775613
140	0xbea682db	-0.3252171
141	0xbdca724c	-0.09885082
142	0xbecd2de8	-0.40074086
143	0x3e3519ac	0.17685574
144	0xbf259b14	-0.64689755
145	0x3ec98b9c	0.39364326
146	0x3e9ba898	0.30402064
147	0x3e5c4331	0.21510006
148	0xbd915784	-0.070967704
149	0xbe185392	-0.1487563
150	0x3ed27453	0.41104373
151	0xbe8dc1a5	-0.27686802
152	0x3e9ea0b1	0.30981973
153	0xbeb0824b	-0.34474406
154	0xbe6fbd36	-0.23412022
155	0x3db26ce0	0.087121725
156	0xbc9a5eab	-0.01884397
157	0xbe5b6e21	-0.2142873
158	0xbed91852	-0.42401367
159	0xbe22f97b	-0.15915482
160	0x3e7e2915	0.24820359
161	0xbd6f457d	-0.05841588
162	0xbe562334	-0.20911866
163	0xbea552f5	-0.32289854
164	0x3e217465	0.15767057
165	0x3dd2434e	0.102667436
166	0xbe33fa3c	-0.17575926
167	0xbe0914c9	-0.13386835
168	0x3c8f1ffb	0.017471304
169	0xbe1429b8	-0.1446904
170	0x3d90f240	0.070774555
171	0xbe21b8b1	-0.1579311
172	0x3e6e0acf	0.2324631
173	0x3e385f8e	0.18005201
174	0x3e405622	0.18782857
175	0xbdbc4ee6	-0.09194736
176	0xbe0162c1	-0.12635328
177	0xbe345ef6	-0.1761435
178	0x3e2c3750	0.16817975
179	0xbd778410	-0.06042868
180	0x3ea51cf8	0.32248664
181	0x3daa65cb	0.08320197
182	0x3cb1d57a	0.021708239
183	0xbe27cefc	-0.16387552
184	0xbd907aa6	-0.07054643
185	0xbd1fe43e	-0.039036028
186	0xbe62e3ba	-0.22157183
187	0x3e0fdcf1	0.14049126
188	0xbd8bf4d6	-0.06833808
189	0x3ea5fbc0	0.32418633
190	0xbe59519d	-0.21222539
191	0xbdcb7cb1	-0.099358924
192	0xbeb97cb3	-0.3622795
193	0x3e3905de	0.18068644
194	0x3ecd4e7d	0.40098944
195	0xbe871ecc	-0.26390684
196	0xbe4746e1	-0.19460632
197	0xbf00e66a	-0.50351584
198	0xbded0e25	-0.115749635
199	0x3d0786be	0.033087485
200	0x3d451798	0.048118204
201	0x3e7609ed	0.24027224
202	0x3e0d0ac3	0.13773637
203	0x3e9edfb6	0.31030053
204	0xbda34fee	-0.0797423
205	0x3e2b4ec8	0.16729271
206	0xbc9e8f65	-0.019355485
207	0x3c1fd0b2	0.009754347
208	0x3ebb5580	0.3658867
209	0x3d808c31	0.062767394
210	0xbe8728e7	-0.26398394
211	0xbdc03176	-0.09384434
212	0x3e6fb19f	0.23407601
213	0x3e9f54ae	0.31119293
214	0x3e4a4cf8	0.19755924
215	0xbec04cd8	-0.37558627
216	0xbe5f749f	-0.21821831
217	0xbf036ab2	-0.5133468
218	0xbc690a6e	-0.014223678
219	0xbc7a1e79	-0.015266054
220	0xbce4386b	-0.027858933
221	0x3dcf0439	0.10108227
222	0xbb7933ce	-0.0038025263
223	0xbe8665e6	-0.26249617
224	0xbe4aa888	-0.19790852
225	0x3e09f2bb	0.134715
226	0x3daa908e	0.08328353
227	0xbe1080f9	-0.14111699
228	0xbe79c655	-0.24392064
229	0xbe978b28	-0.29598355
230	0xbe31ca8f	-0.17362426
231	0xbe52bf33	-0.20580749
232	0xbdd7686b	-0.10517963
233	0xbe511938	-0.20419776
234	0xbd76e59a	-0.06027756
235	0x3dc06fd1	0.09396327
236	0x3e6a4043	0.22876076
237	0x3eb5ccc2	0.3550778
238	0xbec0f3a4	-0.37685883
239	0x3e46e08b	0.19421594
240	0x3e183cb4	0.14866906
241	0xbc893292	-0.016747747
242	0x3e1cfbd2	0.15330437
243	0xbd1d731e	-0.038439862
244	0xbe52f118	-0.20599782
245	0xbee18c3b	-0.440523
246	0x3e31f1df	0.17377423
247	0xbe87ecc1	-0.26547816
248	0x3e5ada83	0.21372418
249	0xbd8419f8	-0.06450266
250	0xbda601a7	-0.08105784
251	0xbe0508c1	-0.1299162
252	0xbdc35fe5	-0.09539775
253	0xbdae23fb	-0.085029565
254	0x3e39ac98	0.18132246
255	0x3e9948bd	0.29938307

bias f4 [20]
0	0xbd0341b6	-0.03204509
1	0xbce44d8e	-0.027869012
2	0xbe0f9980	-0.140234
3	0x3d5e717d	0.05430745
4	0x3db2672d	0.087110855
5	0x3c69d637	0.014272264
6	0x3b955a2a	0.0045578675
7	0x3db27c86	0.08715157
8	0x3d9a70ab	0.07541021
9	0xbbc27397	-0.0059341895
10	0x3be06dc0	0.0068490207
11	0x3e3f9e22	0.18712667
12	0xbc738aa2	-0.014864596
13	0x3d96b913	0.07359519
14	0x3ccb07d6	0.02478401
15	0x3daa072e	0.08302151
16	0xbdab130c	-0.08353242
17	0x3d776361	0.06039751
18	0x3d5451d6	0.051835857
19	0xbda9b309	-0.08286101

weight f4 [20, 20]
0	0x3e961f1d	0.29320613
1	0x3e10d7df	0.14144848
2	0x3da70ad2	0.08156361
3	0xbd7422d7	-0.05960354
4	0x3e0b9c45	0.13633831
5	0xbbc8b952	-0.0061256075
6	0x3d3c28fc	0.045937523
7	0xbde03ea9	-0.109494515
8	0x3eb6c807	0.35699484
9	0x3d174777	0.03693339
10	0xbe15e201	-0.14636995
11	0x3e6b35fd	0.22969814
12	0x3e65d73c	0.22445387
13	0xbe860e0a	-0.26182586
14	0x3e311150	0.1729176
15	0xbe7dd118	-0.24786794
16	0x3eafb139	0.34314898
17	0xbe027d15	-0.12743028
18	0xbe6f9fe0	-0.23400831
19	0xbd4797d3	-0.048728775
20	0x3cab730e	0.020928886
21	0xbe6f0245	-0.2334071
22	0x3e2a6c99	0.16642989
23	0xbdf6eb8d	-0.120566465
24	0xbe0db6da	-0.13839284
25	0xbd8d3872	-0.06895532
26	0xbccdff86	-0.025146257
27	0xbe89bb1e	-0.26900572
28	0x3eabe9f9	0.33576944
29	0xbe3dacb8	-0.18522918
30	0xbc6598f1	-0.014013515
31	0xbe49f943	-0.19723992
32	0xbe1b8297	-0.15186535
33	0x3d4094e9	0.04701701
34	0xbea4f461	-0.32217696
35	0xbeb14fba	-0.3463114
36	0xbdb99a4b	-0.09062632
37	0x3eaf96b6	0.3429467
38	0x3dfe541c	0.12418386
39	0xbc85bd7a	-0.016325701
40	0x3e9dfbe7	0.3085625
41	0x3e0fe682	0.14052776
42	0xbe69f22c	-0.22846287
43	0x3db851cd	0.08999977
44	0xbee8e63d	-0.45488158
45	0xbe3e302d	-0.18573065
46	0xbd3ec1b6	-0.046571456
47	0x3d2c591f	0.04207718
48	0xbd90fd89	-0.07079608
49	0x3d394c4f	0.04523879
50	0xbb2f84c3	-0.0026782013
51	0xbdcc9eb3	-0.09991207
52	0x3d76808d	0.06018119
53	0x3ed40e3f	0.4141712
54	0xbc7b6e52	-0.015346127
55	0x3c212e5e	0.009837715
56	0x3d7f633d	0.0623505
57	0xbe98dd4f	-0.29856345
58	0xbeabea12	-0.3357702
59	0xbc0341f5	-0.008011331
60	0xbba70349	-0.005096827
61	0x3eaf447a	0.3423193
62	0x3e48cc6a	0.19609228
63	0x3d6ad003	0.05732728
64	0x3d8dce15	0.06924073
65	0xbe8c728d	-0.27431145
66	0x3d0d8523	0.034550797
67	0x3d677991	0.05651242
68	0xbe081d78	-0.13292491
69	0xbe58fcfb	-0.21190254
70	0xbe627063	-0.22113185
71	0xbd0694dd	-0.03285681
72	0x3ec5fbb6	0.38668603
73	0x3e45f2d9	0.1933092
74	0x3e1e66c3	0.15468888
75	0x3e56cefe	0.20977399
76	0xbd81d435	-0.063393034
77	0x3e921c04	0.28537
78	0xbcecc9ea	-0.028904874
79	0x3ea1eab6	0.31624383
80	0xbe918d24	-0.28427994
81	0x3d479296	0.04872378
82	0x3efec2f2	0.49758106
83	0x3e288510	0.1645701
84	0x3cf2c8be	0.029636737
85	0xbdf25129	-0.11831886
86	0x3d80dbfd	0.062919594
87	0xbe34c4e7	-0.17653237
88	0x3dffccea	0.12490256
89	0xbe337f1d	-0.17528959
90	0xbe40d406	-0.1883088
91	0x3d8a622e	0.067570075
92	0xbe92291a	-0.28546983
93	0xbe08b4fa	-0.13350287
94	0xbebc14ba	-0.36734563
95	0x3de35a68	0.11101228
96	0xbe2060fe	-0.15662
97	0x3e23a00d	0.15979023
98	0xbdfa091b	-0.12208768
99	0xbdde61e7	-0.10858517
100	0xbed91d0d	-0.42404976
101	0xbba9e43b	-0.005184678
102	0x3dbebfa8	0.09313899
103	0xbdfc1b70	-0.12309921
104	0x3e8d6960	0.27619457
105	0x3dda4599	0.10657806
106	0xbee382c3	-0.444357
107	0xbd1c27d8	-0.038123935
108	0x3daaac31	0.08333624
109	0x3d876c5d	0.066124655
110	0xbe2649f8	-0.16239154
111	0xbef164db	-0.4714726
112	0xbe3ac896	-0.1824058
113	0x3e4960c4	0.1966582
114	0xbc438220	-0.01193288
115	0x3f121ca9	0.5707498
116	0xbde8fe8a	-0.113766745
117	0xbc90d517	-0.017679734
118	0xbe2c99db	-0.16855566
119	0xbebe352a	-0.37149936
120	0x3e66dd24	0.22545296
121	0x3b707e35	0.003669632
122	0x3d2aba0a	0.041681327
123	0xbc989c39	-0.01862918
124	0xbeba77ae	-0.36419433
125	0x3e201e13	0.15636472
126	0xbe08dff5	-0.13366683
127	0x3e1d7d35	0.15379794
128	0x3d8c40e5	0.06848315
129	0x3e38bd17	0.18040882
130	0xbe7847c3	-0.24246125
131	0xbd095581	-0.03352881
132	0xbc21ce6c	-0.009875875
133	0x3daf83c7	0.085700564
134	0x3e2094cf	0.15681766
135	0xbd2900bf	-0.041260477
136	0x3dbab922	0.091173425
137	0x3e5871a2	0.21137097
138	0xbc60a3d6	-0.0137109365
139	0x3df8b762	0.121443525
140	0xbe4bd7f6	-0.19906601
141	0x3d9fb2c3	0.07797768
142	0x3e8d2c26	0.27572745
143	0x3d01fcc4	0.031735197
144	0x3dbba3d7	0.09162109
145	0xbe66b228	-0.22528899
146	0x3e49cc1d	0.1970677
147	0xba180308	-0.00057987915
148	0xbd30ead6	-0.043192707
149	0x3d88163f	0.06644868
150	0xbd9205df	-0.07130026
151	0xbcc0d929	-0.02354105
152	0x3e5c3675	0.21505149
153	0xbdc929dd	-0.09822438
154	0xbe382304	-0.17982107
155	0xbe4af24d	-0.19818993
156	0xbe908d92	-0.2823301
157	0x3d0167d5	0.031593163
158	0xbd30284d	-0.043007184
159	0x3e2bb35a	0.16767636
160	0xbe857302	-0.26064306
161	0xbe47f804	-0.19528204
162	0xbcca08d8	-0.02466242
163	0x3e43403e	0.19067475
164	0xbda34c77	-0.07973569
165	0xbe9dd92c	-0.30829751
166	0xbccd9728	-0.025096491
167	0xbeaa3118	-0.3324058
168	0xbe0034a9	-0.12520088
169	0x3e7b2598	0.2452606
170	0x3e3623d9	0.17787112
171	0xbe59a50f	-0.21254371
172	0xbdf3364c	-0.11875591
173	0x3e8a2f27	0.269891
174	0x3cdd7084	0.02703119
175	0x3c30075b	0.010743941
176	0xbe235e48	-0.15953934
177	0xbe516052	-0.204469
178	0x3c1c57de	0.009542434
179	0x3d7cc45a	0.061710693
180	0xbd08ab98	-0.03336677
181	0x3e59b349	0.21259798
182	0x3e9dcd5e	0.30820745
183	0xbe1a12c6	-0.15046224
184	0xbe320c0c	-0.17387408
185	0xbe129f83	-0.14318661
186	0xbd9360df	-0.07196211
187	0x3e8b585e	0.27215856
188	0xbdccbd4d	-0.09997044
189	0xbe095a5b	-0.13413374
190	0xbb955893	-0.004557678
191	0x3c84c05c	0.016205005
192	0xbec2b811	-0.38031057
193	0x3ebaf7d6	0.3651721
194	0xbe203022	-0.15643361
195	0xbe17e816	-0.14834628
196	0xbd84886e	-0.064713344
197	0x3e9505d8	0.2910602
198	0x3c5957d8	0.0132655725
199	0x3e04b513	0.129597
200	0xbdbdf390	-0.092749715
201	0xbe71aba7	-0.23600636
202	0x3ea3819a	0.31934816
203	0x3e94d58a	0.29069167
204	0xbe0598a6	-0.13046512
205	0x3eadbc15	0.33932558
206	0xbe128e37	-0.14312063
207	0xbe753de4	-0.2394939
208	0x3e1eafe6	0.15496787
209	0xbeb3e9b7	-0.35139248
210	0x3e863808	0.26214623
211	0x3b2fa5e0	0.002680175
212	0xbeab3e09	-0.33445767
213	0xbdd59120	-0.10428071
214	0xbeb840e9	-0.35987023
215	0x3e0905d2	0.13381127
216	0x3e5267a6	0.20547351
217	0xbd83db8c	-0.064383596
218	0x3ea688e3	0.3252631
219	0xbe8de788	-0.27715707
220	0xbec66ea6	-0.38756293
221	0xbc662c17	-0.014048598
222	0xbd08b788	-0.033378154
223	0x3e45aaff	0.19303511
224	0xbebe9fd1	-0.37231305
225	0x3d2b5b6c	0.041835234
226	0xbe0ee3e6	-0.13954124
227	0x3ef7f190	0.48426485
228	0xbe3bec59	-0.18351878
229	0xbe52a731	-0.20571591
230	0xbd5b0998	-0.053475946
231	0x3e0f32b0	0.1398418
232	0x3e8cbc9e	0.27487653
233	0x3dd0ace1	0.10189224
234	0x3d70561a	0.058675863
235	0xbd977cf6	-0.07396881
236	0x3df1b43a	0.118019536
237	0xbe09e044	-0.13464457
238	0xbdb13ed7	-0.08654564
239	0xbca6ae57	-0.020346804
240	0xbe6401dc	-0.22266334
241	0xbd7d48dd	-0.061837066
242	0xbd24af1b	-0.040206056
243	0xbdd7037a	-0.1049871
244	0xbe891ba1	-0.26778892
245	0x3e9c1003	0.30480966
246	0xbe1051c0	-0.14093685
247	0xbe3efb68	-0.18650591
248	0x3caaaa80	0.020833254
249	0xbd40a0ff	-0.047028538
250	0x3d5d8224	0.05407919
251	0xbce87d5e	-0.028380092
252	0xbe6a7949	-0.22897829
253	0x3e84680d	0.25860634
254	0xbebcb430	-0.36856222
255	0x3db27213	0.08713164

bias f4 [20]
0	0xbd2d7c25	-0.04235472
1	0xbd82a099	-0.06378288
2	0xbc9511e4	-0.018197007
3	0xbce31044	-0.027717717
4	0x3cf7228a	0.030167837
5	0x3d4677d2	0.048454113
6	0xbc69b479	-0.014264219
7	0xbb1c6ab3	-0.0023867309
8	0x3d53292f	0.051552948
9	0xbd7dbd4f	-0.061948117
10	0x3ca4685a	0.02006929
11	0xbbefd8e1	-0.007319555
12	0xbd388e23	-0.045057427
13	0xbd7cbb3f	-0.06170201
14	0xbd829de4	-0.063777715
15	0x3c395d7a	0.01131379
16	0x3ce55c87	0.027998222
17	0x3e82ef37	0.2557313
18	0x3dd48978	0.103777826
19	0xbd8a9fb4	-0.06768742

weight f4 [20, 20]
0	0x3e94fa6e	0.29097313
1	0x3b32ff29	0.0027312732
2	0x3bcc5e8d	0.0062368573
3	0x3ead450b	0.33841738
4	0xbe194ce4	-0.14970738
5	0xbdefca71	-0.117085345
6	0x3e278fec	0.16363496
7	0x3d30ffdb	0.043212753
8	0xbe0336f4	-0.12813932
9	0x3dba749c	0.09104273
10	0xbd096f32	-0.03355331
11	0x3e089089	0.13336386
12	0x3e12dd10	0.14342141
13	0x3eb3f2d9	0.35146216
14	0xbde43af2	-0.111440554
15	0x3d97397b	0.073840104
16	0x3def93ad	0.11698089
17	0x3eba6769	0.3640702
18	0xbcc6841e	-0.02423292
19	0xbf0a6a7f	-0.5406875
20	0x3e212633	0.15737228
21	0x3e25b969	0.1618401
22	0xbe6081c3	-0.219245
23	0xbdb39bc0	-0.08769941
24	0x3b1084d9	0.002205184
25	0x3cc10ba2	0.023565117
26	0xbdb056b0	-0.08610284
27	0x3e695073	0.22784595
28	0x3df94d0c	0.12172899
29	0x3de660a4	0.112489015
30	0xbe529783	-0.2056561
31	0xbe3acbc3	-0.18241791
32	0x3e339a1f	0.17539261
33	0x3e2a0a87	0.16605578
34	0xbe057eb0	-0.13036609
35	0xbe903517	-0.28165504
36	0x3e88ae73	0.26695594
37	0xbe0b2d83	-0.1359158
38	0xbe8e438e	-0.27785915
39	0x3d12bae2	0.035822757
40	0xbee4d7f7	-0.44696018
41	0x3b15d22c	0.0022860868
42	0xbe348e9c	-0.17632526
43	0xbe868196	-0.2627074
44	0xbe9e4d79	-0.30918482
45	0x3d8db528	0.069193184
46	0x3d164ded	0.03669541
47	0xbeccb906	-0.39984912
48	0xbe025894	-0.12729102
49	0x3d8d1e2f	0.06890523
50	0xbd6b7093	-0.057480406
51	0xbe9ca90f	-0.3059773
52	0xbe15e6ca	-0.1463882
53	0xbe812b0e	-0.2522816
54	0x3ed1109f	0.40832993
55	0x3eb3143f	0.34976384
56	0x3e05c106	0.13061914
57	0xbe2c5b59	-0.16831721
58	0x3e8e06ae	0.2773947
59	0x3eb2b55c	0.3490399
60	0xbea2a612	-0.31767327
61	0x3d96f0d4	0.07370153
62	0xbe5f0138	-0.21777809
63	0xbe668a35	-0.2251366
64	0xbddd6a17	-0.10811251
65	0x3cab98b0	0.02094683
66	0xbe4184f6	-0.18898377
67	0xbe597057	-0.2123426
68	0xbe16bdc8	-0.14720833
69	0x3e8c8d91	0.27451757
70	0x3de3e3a9	0.11127407
71	0x3e21f76c	0.1581704
72	0x3d33cdeb	0.04389755
73	0x3dd06a9e	0.101765856
74	0x3ea4228c	0.32057607
75	0x3e8a391a	0.2699669
76	0xbebad6e9	-0.36492088
77	0x3d27b037	0.040939536
78	0x3d64f965	0.055901904
79	0xbdc40130	-0.09570539
80	0xbe1c45d9	-0.1526102
81	0xbe6a7afc	-0.22898477
82	0xbdf69709	-0.120405264
83	0xbe3a0484	-0.18165785
84	0xbeec9633	-0.46208343
85	0xbdaf527b	-0.08560654
86	0xbe87b6f2	-0.26506764
87	0xbe9337bf	-0.28753468
88	0x3de2257d	0.110423066
89	0xbea3b2e4	-0.3197242
90	0x3ebcc960	0.36872387
91	0xbd05fe57	-0.03271326
92	0xbe712525	-0.23549326
93	0xbdf286c0	-0.11842108
94	0xbca667f6	-0.020313244
95	0xbdff9f1e	-0.12481521
96	0xbd328023	-0.043579232
97	0xbd55afbf	-0.052169558
98	0x3d01c102	0.031678207
99	0xbe0a7cf6	-0.13524231
100	0xbdcbdeed	-0.09954629
101	0xbcb82288	-0.022477403
102	0xbefbf79d	-0.4921235
103	0x3e1dbec7	0.15404807
104	0xbf178523	-0.59187526
105	0xbe8e563f	-0.27800176
106	0x3cda90ce	0.026680376
107	0xbe6f35dd	-0.23360391
108	0x3e9a9244	0.30189717
109	0xbe19d075	-0.15020926
110	0xbda3961c	-0.079876155
111	0x3e91e403	0.28494272
112	0xbe76c15b	-0.24097197
113	0xbe5002cd	-0.20313568
114	0xbbef4c67	-0.007302809
115	0x3e825a81	0.25459674
116	0x3e88c606	0.2671358
117	0xbd53c569	-0.051701937
118	0xbe118c81	-0.14213754
119	0x3ee8fe81	0.4550667
120	0xbe1af9a1	-0.15134288
121	0xbcd54cf2	-0.026037667
122	0xbdd08508	-0.10181624
123	0x3e5108f2	0.20413569
124	0x3e715bf7	0.23570238
125	0xbda628ed	-0.08113275
126	0x3e134a53	0.14383821
127	0xbe4d9c3d	-0.20079131
128	0x3e41f3bf	0.18940638
129	0x3a724aa4	0.00092426897
130	0x3e0b4730	0.13601375
131	0xbd65c382	-0.056094654
132	0xbe43b519	-0.19112052
133	0xbd56205a	-0.052276947
134	0x3e8c42d7	0.27394745
135	0xbf0af86a	-0.542853
136	0xbd375c0b	-0.044765513
137	0xbe493b54	-0.19651538
138	0xbcd55230	-0.026040167
139	0xbe9eec99	-0.31039885
140	0x3e3170c8	0.17328179
141	0xbd678140	-0.056519747
142	0xbdfc2118	-0.12311
143	0x3deec86f	0.116593234
144	0x3e5ce4e9	0.21571697
145	0xbdb508ba	-0.08839555
146	0xbd52dae2	-0.051478274
147	0xbe28751a	-0.1645092
148	0x3ddf8a46	0.109150454
149	0xbd01d74b	-0.03169946
150	0x3dcb6423	0.09931209
151	0xbde9924f	-0.11404859
152	0x3dcc3a46	0.09972052
153	0xbd9ecd11	-0.07753957
154	0x3d0dc04f	0.034607228
155	0xbdab1b2e	-0.083547935
156	0xbe1441c9	-0.1447822
157	0x3e801b3e	0.25020784
158	0xbeb19287	-0.34682104
159	0x3de98d3d	0.11403892
160	0xbe4102e3	-0.18848757
161	0xbe8d12b5	-0.27553335
162	0x3d271ef1	0.040800992
163	0x3e71e1e0	0.2362132
164	0x3e6d839d	0.23194738
165	0x3e30c2c6	0.172618
166	0x3c56f286	0.0131193455
167	0x3ec2acc2	0.3802243
168	0x3f10e2a8	0.5659585
169	0x3e148efb	0.14507668
170	0xbe39b1a5	-0.18134172
171	0xbe058c35	-0.13041766
172	0x3d0aad4d	0.03385668
173	0xbd61b2b9	-0.055102084
174	0xbd83e2c6	-0.06439738
175	0x3e35586b	0.1770951
176	0x3e84537d	0.25844947
177	0xbeac50fd	-0.3365554
178	0x3e0554f3	0.13020687
179	0xbe23ff23	-0.16015296
180	0xbe65fe42	-0.22460273
181	0xbe9d791a	-0.30756456
182	0xbca2ce95	-0.019873897
183	0x3e8285ac	0.2549261
184	0x3d90a48c	0.07062635
185	0x3dd2c33b	0.102911435
186	0xbc95e96e	-0.018299785
187	0xbe696166	-0.22791061
188	0x3d237686	0.039907955
189	0xbdf49935	-0.119432844
190	0x3dd5ddcd	0.10442696
191	0xbe01ed02	-0.12688068
192	0xbe675e92	-0.2259467
193	0xbe13594b	-0.14389531
194	0xbded4a23	-0.11586406
195	0xbee03556	-0.43790692
196	0x3c106868	0.008813955
197	0xbeda5afa	-0.42647535
198	0xbdd7966c	-0.105267376
199	0x3e200a77	0.15628992
200	0x3ea84163	0.32862386
201	0x3e71859c	0.23586124
202	0x3e8d15f3	0.27555808
203	0xb82f7045	-4.182781e-05
204	0xbda5caa6	-0.08095293
205	0xbd65f747	-0.056144025
206	0x3e8a6495	0.27029863
207	0xbd8a6404	-0.06757358
208	0xbdd97de8	-0.10619718
209	0x3e862dfb	0.26206955
210	0x3b8d4778	0.0043114983
211	0xbea16067	-0.31518862
212	0xbe926616	-0.2859351
213	0x3d8b5807	0.06803899
214	0xbdc2339e	-0.094825014
215	0x3e8bb50b	0.27286562
216	0xbd60e615	-0.054906923
217	0xbe2003d1	-0.15626456
218	0x3b5041e6	0.003177756
219	0xbe54b54d	-0.20772286
220	0x3dfe18bd	0.12407062
221	0x3e795bf2	0.2435148
222	0x3ea2bd1b	0.317849
223	0xbcc37827	-0.023861004
224	0xbe517472	-0.20454577
225	0x3eae3c09	0.34030178
226	0x3859e47e	5.194963e-05
227	0xbe8d79da	-0.27632028
228	0x3e88bd35	0.26706854
229	0xbe65787d	-0.22409244
230	0x3ec74e86	0.38927096
231	0x3e17dcf0	0.14830375
232	0x3e9f6c78	0.31137443
233	0xbe7de87d	-0.24795718
234	0xbe750673	-0.23928241
235	0x3e9445fd	0.28959647
236	0x3e2ef51c	0.1708569
237	0xbeceb2bc	-0.40370739
238	0x3f21ec19	0.6325088
239	0xbd601a1c	-0.0547124
240	0x3e2f7c1b	0.17137186
241	0xbd3041a8	-0.043031365
242	0x3ea72e13	0.3265234
243	0xbde1feb9	-0.110349126
244	0xbe4796ff	-0.19491194
245	0x3de4c672	0.11170663
246	0xbe7e4799	-0.24832
247	0xbeaac5eb	-0.33354124
248	0x3e0b9f3d	0.13634963
249	0x3ea528f8	0.3225782
250	0xbdba22a9	-0.09088642
251	0xbe489467	-0.19587861
252	0x3dc4d520	0.09610963
253	0x3e184005	0.14868172
254	0x3e7434ec	0.23848313
255	0x3e3318fa	0.17489997

bias f4 [20]
0	0xbd160a0b	-0.03663067
1	0x3bc58a15	0.0060284236
2	0x3dbe15bb	0.092814885
3	0xbbff00e1	-0.007782087
4	0x3d17a060	0.03701818
5	0xbdb453b0	-0.088050246
6	0x3d778165	0.060426135
7	0x3c6d31eb	0.014477233
8	0x3df65640	0.1202817
9	0x3d10cb9b	0.035350423
10	0xbd208673	-0.03919072
11	0x3d1151d8	0.035478443
12	0xbda87b0f	-0.082265966
13	0xbb7b3e82	-0.0038336818
14	0x3d170ab3	0.036875438
15	0xbd901c20	-0.070366144
16	0xbd708f23	-0.058730256
17	0x3d49f327	0.049304154
18	0x3db4ef14	0.08834663
19	0xbd9402c6	-0.072270915

weight f4 [20, 20]
0	0xbc943c5b	-0.018095186
1	0x3d9680dc	0.07348797
2	0xbecbfa11	-0.39839223
3	0xbdf23363	-0.118262075
4	0xbd83018a	-0.06396778
5	0xbda28d34	-0.079370886
6	0x3e979abf	0.2961025
7	0xbdb08c58	-0.086205184
8	0x3e9c3ca7	0.30515024
9	0x3e840846	0.25787562
10	0x3de75628	0.1129573
11	0xbe1ac984	-0.15115935
12	0xbbbabc80	-0.0056987405
13	0x3c1da1b2	0.009621071
14	0xbe852058	-0.2600124
15	0x3e59e698	0.21279371
16	0xbecc8a67	-0.39949343
17	0x3edd2e63	0.43199453
18	0xbdc96bb7	-0.09834998
19	0xbd0fd7e2	-0.03511799
20	0x3e33fa74	0.17576009
21	0x3f02c5fd	0.51083356
22	0x3df6e59b	0.120555125
23	0x3e2a3c44	0.16624552
24	0xbe89fc99	-0.2695053
25	0x3db0deda	0.086362556
26	0xbe8ccf4a	-0.275019
27	0xbe63d799	-0.22250213
28	0x3e8640d0	0.26221323
29	0x3dc7f952	0.09764351
30	0x3e3f8096	0.18701395
31	0xbe44bf8f	-0.19213699
32	0xbe5db6c6	-0.21651754
33	0xbdcd78a8	-0.10032779
34	0xbd866498	-0.065621555
35	0x3e1ec0f0	0.15503287
36	0x3eb9a4a9	0.36258438
37	0x3d9dbb7a	0.07701774
38	0x3dda28e8	0.106523335
39	0x3ccc0f1a	0.024909545
40	0xbec4d80f	-0.3844609
41	0xbdd9bcef	-0.10631739
42	0x3f0193b7	0.5061602
43	0x3e4116b6	0.1885632
44	0x3d1e8081	0.03869677
45	0x3d0f3bad	0.03496902
46	0xbe1a30b7	-0.15057646
47	0x3e2bd9d3	0.16782312
48	0x3e100717	0.14065205
49	0x3da13c21	0.07872797
50	0x3c894e2a	0.016760904
51	0x3e40855e	0.18800876
52	0xbebea635	-0.3723618
53	0x3d9a6f17	0.0754072
54	0x3ec49bf1	0.38400224
55	0x3efd3834	0.49456942
56	0x3dbb3523	0.091409944
57	0x3bc2182d	0.005923292
58	0xbe8d12f7	-0.27553532
59	0x3dc3170f	0.095258825
60	0x3de415fa	0.11137004
61	0x3db7cf49	0.089750834
62	0x3e986b48	0.2976935
63	0xbeb3f489	-0.35147503
64	0xbd68abe9	-0.05680457
65	0xbe4f8785	-0.2026654
66	0xbebf7b11	-0.3739858
67	0xbd4a940d	-0.0494576
68	0xbb2144ac	-0.0024607582
69	0x3e84d091	0.25940374
70	0xbe58f4b6	-0.211871
71	0x3ea62dff	0.32456967
72	0xbc46cb5e	-0.012133447
73	0x3e117ecb	0.14208524
74	0x3e073e9e	0.1320748
75	0x3da62936	0.08113329
76	0x3eaa73dc	0.3329152
77	0xbdec67dd	-0.11543248
78	0xbe2f128a	-0.17096916
79	0xbedd0dcc	-0.4317459
80	0x3e4cb60d	0.19991322
81	0xbc439710	-0.011937872
82	0x3e274bae	0.16337463
83	0x3e40bd86	0.18822297
84	0x3f489c2f	0.7836332
85	0xbc1ca0ce	-0.009559823
86	0x3e9f3c7f	0.31100842
87	0x3e30eecc	0.17278594
88	0x3deb4094	0.11486927
89	0x3de88874	0.11354151
90	0xbe89397c	-0.2680167
91	0x3dd2c2b8	0.10291046
92	0xbe844df2	-0.25840718
93	0x3dddc0f0	0.108278155
94	0x3de9ee81	0.11422444
95	0xbf05a34b	-0.5220229
96	0xbe7cabe7	-0.2467495
97	0x3da9fa81	0.08299733
98	0x3e772b5d	0.24137636
99	0x3e9ab661	0.3021727
100	0x3e4609eb	0.19339721
101	0xbe428280	-0.18995094
102	0xbe730a9f	-0.2373452
103	0xbe635dea	-0.22203794
104	0xbec82c30	-0.39096212
105	0x3e45e0c5	0.19324024
106	0x3e99973b	0.29998192
107	0x3f1e24ce	0.6177491
108	0xbe89625e	-0.2683286
109	0xbe79ca52	-0.24393585
110	0x3eab5362	0.33462054
111	0x3e144d81	0.1448269
112	0xbed003db	-0.4062794
113	0x3e9430a4	0.2894336
114	0xbd67ffb9	-0.05664036
115	0x3ddf7ab4	0.10912076
116	0xbe07c9a1	-0.13260509
117	0xbd622f5f	-0.055220958
118	0xbc0cdc7d	-0.00859749
119	0x3e95b09f	0.29236314
120	0xbebacf39	-0.36486223
121	0x3e151cf5	0.14561827
122	0xbe3eab13	-0.18619947
123	0xbe39f9c2	-0.18161681
124	0x3bff6767	0.007794309
125	0x3e635589	0.22200598
126	0xbe127858	-0.1430372
127	0xbe099cbb	-0.13438694
128	0xbd67356d	-0.056447435
129	0xbef8d1d4	-0.48597586
130	0x3e0bb000	0.13641357
131	0xbe5cb176	-0.21552071
132	0xbc712735	-0.01471882
133	0xbe6608f0	-0.22464347
134	0xbe1bb0a8	-0.15204108
135	0xbe96d281	-0.29457477
136	0xbe986b56	-0.2976939
137	0xbb3e5ce7	-0.0029047073
138	0x3e97d938	0.29657912
139	0xbd405f66	-0.04696598
140	0x3ede47f2	0.43414265
141	0xbeac8e72	-0.33702427
142	0x3b376cbb	0.0027988392
143	0x3e393181	0.1808529
144	0xbe837581	-0.25675586
145	0x3db0d12f	0.086336486
146	0x3d71edbf	0.059064623
147	0xbe1add56	-0.15123495
148	0xbe33e56a	-0.17567983
149	0xbe009c75	-0.12559684
150	0xbcad05de	-0.021120962
151	0xbe6487d4	-0.2231744
152	0xbddd4203	-0.10803606
153	0x3e675846	0.22592267
154	0xbd660a38	-0.05616209
155	0x3e10364c	0.14083213
156	0x3d880b67	0.066428
157	0x3e1eee05	0.15520485
158	0xbe028d65	-0.1274925
159	0xbdf56e9c	-0.11983988
160	0xbda34dd1	-0.07973827
161	0xbd7a4264	-0.06109847
162	0xbdb15a71	-0.086598285
163	0x3d14c399	0.03631935
164	0xbda55be7	-0.080741696
165	0xbd9257f9	-0.07145686
166	0x3e7393d5	0.23786862
167	0xbd2ce8f7	-0.04221436
168	0x3d941fb8	0.07232612
169	0x3e47e9e4	0.19522816
170	0xbd91348a	-0.07090099
171	0x3d78f46c	0.060779974
172	0xbd275928	-0.04085651
173	0x3e4e5356	0.20148978
174	0x3c866db1	0.016409727
175	0xbeecd980	-0.4625969
176	0xbe33fe9d	-0.17577596
177	0x3d7efafc	0.062251076
178	0xbdb54ecb	-0.08852919
179	0xbe99b14e	-0.30018085
180	0x3e7db35e	0.24775454
181	0x3eb27d54	0.34861243
182	0xbea708ec	-0.32623994
183	0xbec407d5	-0.38287225
184	0x3de787a2	0.11305167
185	0x3e2a0bb7	0.16606031
186	0x3e604441	0.21901037
187	0x3e9ad00d	0.30236855
188	0xbe2595f8	-0.1617049
189	0xbe2f3512	-0.17110088
190	0xbe5f9e87	-0.21837817
191	0xbca56087	-0.02018763
192	0x3e0d91f0	0.13825202
193	0xbd81ce3f	-0.063381664
194	0x3e3d8fe7	0.18511926
195	0x3e8ee9f8	0.2791288
196	0x3dd4ddae	0.103938445
197	0x3d8b7eb1	0.06811274
198	0x3e03e916	0.12881884
199	0xbe0880b4	-0.13330346
200	0x3e13931b	0.14411585
201	0xbe976c62	-0.29574877
202	0xbe63dd60	-0.22252417
203	0xbe02985d	-0.12753434
204	0x3e6ac71d	0.22927518
205	0xbe97844f	-0.2959313
206	0xbcc623b3	-0.024186945
207	0x3e07577e	0.1321697
208	0x3e2a2986	0.16617402
209	0x3d280074	0.041016057
210	0xbe174b13	-0.14774732
211	0xbed2935a	-0.41128045
212	0x3dcec630	0.10096395
213	0xbe5e895e	-0.21732089
214	0x3e3bbd7b	0.18334
215	0xbcaec493	-0.021333968
216	0xbc9b5ad6	-0.018964212
217	0xbe44eb90	-0.19230485
218	0x3eedc32a	0.4643796
219	0x3df1f1cd	0.11813698
220	0x3e07388e	0.13205168
221	0xbdfd2a9b	-0.12361642
222	0x3e7a0fd0	0.24420094
223	0xbde3f721	-0.111311205
224	0x3e09e487	0.13466083
225	0xbdd5f4b4	-0.10447064
226	0xbdaa0d5f	-0.083033316
227	0xbd2dbdf5	-0.042417485
228	0x3e32b692	0.17452458
229	0x3d857b87	0.065177016
230	0x3e99992b	0.2999967
231	0xbd8f999c	-0.070117205
232	0x3d2dff3b	0.042479735
233	0xbe3a32ff	-0.18183516
234	0xbde18019	-0.11010761
235	0xbe8d485f	-0.27594277
236	0xbe5561b7	-0.20838057
237	0x3d869bbc	0.06572673
238	0x3e9c8ce3	0.30576238
239	0x3e11084e	0.14163324
240	0xbe9fb098	-0.31189418
241	0x3d7b0a34	0.061289027
242	0x3ea6b88e	0.3256268
243	0x3dd45281	0.10367299
244	0x3e4873f0	0.19575477
245	0x3e846d06	0.25864428
246	0x3de71eea	0.11285193
247	0x3becb8fb	0.0072242
248	0xbedea06c	-0.43481767
249	0xbee7d7f5	-0.4528195
250	0xbcaaa496	-0.020830434
251	0x3c9e9b55	0.019361177
252	0x3e6dbacc	0.23215789
253	0xbe565630	-0.20931315
254	0x3d96a353	0.073553704
255	0x3dbe5bc9	0.092948504

bias f4 [20]
0	0x3d55391b	0.052056413
1	0xbc1a62d7	-0.009422979
2	0x3cc42d79	0.023947464
3	0xbd440cdd	-0.04786383
4	0x3da89a06	0.08232503
5	0xbc0404c2	-0.008057775
6	0x3d79d110	0.060990393
7	0x3d03f2a8	0.032213837
8	0x3d4914f4	0.049092248
9	0x3c18b912	0.009321468
10	0x3cdd8356	0.027040165
11	0x3d8f88cf	0.07008516
12	0xbe0a730d	-0.13520451
13	0x3dd7bf0e	0.10534488
14	0xbc48344a	-0.012219498
15	0x3d09cd19	0.033642862
16	0x3c3dd7fc	0.011587139
17	0xbcb3fae8	-0.021970227
18	0xb9f15061	-0.0004602699
19	0xbc5172f7	-0.012783757
