Models/Noise_5/simulation_nostop/weak_ff_400.pt (torch, 36191 bytes, 23 tensors)

weight f4 [20, 2]
0	0xbe88cc4e	-0.26718372
1	0xbcfebbca	-0.031095404
2	0xbe33e6f3	-0.17568569
3	0x3dd35b38	0.10320133
4	0xbec0ec34	-0.3768021
5	0xbed45579	-0.4147146
6	0x3e8f20c1	0.27954677
7	0x3ee2bffe	0.44287103
8	0x3bc17f6b	0.005905082
9	0xbe911f17	-0.28344032
10	0x3e85681a	0.26055986
11	0xbd8f3991	-0.06993402
12	0xbd975582	-0.07389356
13	0x3db943aa	0.09046109
14	0xbcd47cf3	-0.025938487
15	0xbebd2c29	-0.36947754
16	0xbc03924e	-0.008030487
17	0x3e309a4c	0.1724636
18	0xbe3fd7ad	-0.18734618
19	0x3d52c0cb	0.051453393
20	0xbd69ff75	-0.05712839
21	0x3da4edc5	0.080531634
22	0x3e48d735	0.19613345
23	0x3e0eeecb	0.1395828
24	0x3d24f173	0.040269326
25	0xbe25dc05	-0.16197212
26	0xbe833253	-0.25624332
27	0xbc88bd37	-0.016691787
28	0x3e52a147	0.20569335
29	0xbeb03a46	-0.3441946
30	0x3e879bd5	0.26486078
31	0xbdb9da66	-0.09074859
32	0x3eb74b7a	0.35799772
33	0xbf41129a	-0.7541901
34	0xbf362236	-0.7114595
35	0xbeb1ab1e	-0.34700865
36	0x3df7122b	0.12064012
37	0xbcfbfd68	-0.030760482
38	0x3e0930be	0.133975
39	0x3cc19f4d	0.02363553

bias f4 [20]
0	0x3e043e05	0.12914284
1	0xbcd98d91	-0.026556762
2	0xbded2caa	-0.115807846
3	0x3d840185	0.06445602
4	0x3d524541	0.051335577
5	0xbc419ca6	-0.011817133
6	0xbc672261	-0.014107318
7	0x3dfabcca	0.1224304
8	0xbca0bb62	-0.019620601
9	0x3d557c21	0.05212033
10	0x3dad8131	0.08471907
11	0xbdfa2795	-0.12214581
12	0xbd86dc78	-0.0658502
13	0x3e632118	0.22180593
14	0xbe1bd2ad	-0.15217085
15	0x3d2636e6	0.0405797
16	0xbe3b8036	-0.18310627
17	0xbd2b0c7d	-0.041759957
18	0xbe1b6e18	-0.15178716
19	0xbd8c8a6c	-0.068623394

weight f4 [20, 20]
0	0x3e7d3a83	0.24729352
1	0x3e08500b	0.13311784
2	0xbe84ad40	-0.2591343
3	0x3d8d7809	0.069076605
4	0x3dfa2df2	0.122157946
5	0xbbcb0005	-0.0061950707
6	0x3e49532e	0.19660637
7	0x3defbec4	0.117063075
8	0x3ea36f33	0.31920776
9	0x3eb7d2f8	0.35903144
10	0x3ea58d50	0.32334375
11	0x3d4bd3f6	0.04976269
12	0x3e8ca507	0.27469656
13	0x3e241246	0.16022596
14	0x3f092b9a	0.53582156
15	0xbe7a6995	-0.24454339
16	0xbcf6231c	-0.030046038
17	0xbe911824	-0.2833873
18	0xbe06cecb	-0.13164823
19	0x3da46526	0.08027105
20	0x3e8384d5	0.2568728
21	0x3dfc2cf4	0.12313262
22	0xbca913ae	-0.020639267
23	0xbd424e9b	-0.047438245
24	0xbda353e3	-0.079749845
25	0xbed05592	-0.40690285
26	0xbed8956d	-0.42301503
27	0xbe3fa3ac	-0.1871478
28	0x3e53e04e	0.20691034
29	0xbd424c7a	-0.047436215
30	0xbd800c42	-0.06252338
31	0xbd822aff	-0.06355857
32	0xbe15f0f0	-0.14642692
33	0x3db6b6a4	0.08921555
34	0xbe1f7bee	-0.15574619
35	0x3e20e4ee	0.1571233
36	0x3e89b63a	0.2689684
37	0x3e0ae90b	0.13565461
38	0x3d295097	0.041336622
39	0xbc255721	-0.010091574
40	0x3eaa22b0	0.3322959
41	0x3e0fbaac	0.14036053
42	0xbe820dc1	-0.25401118
43	0xbefd7ec8	-0.4951079
44	0x3f17fea1	0.5937291
45	0xbda26c75	-0.07930843
46	0xbd45c608	-0.04828456
47	0x3e51a63d	0.20473571
48	0x3e3f508a	0.18683067
49	0xbe7bc8a7	-0.24588262
50	0xbe4638ab	-0.19357555
51	0x3e403b29	0.18772568
52	0xbe9515e9	-0.2911828
53	0x3af7deb5	0.0018910976
54	0xbcb8a4dc	-0.022539549
55	0xbd49a5f7	-0.049230542
56	0x3d264b20	0.04059899
57	0xbd8d5e68	-0.06902772
58	0x3cfb8c22	0.030706469
59	0xbef21acc	-0.4728607
60	0x3e52a33b	0.2057008
61	0x3d2e6751	0.042579
62	0xbe38ac02	-0.18034366
63	0x3e0d1f18	0.13781393
64	0x3e34e50a	0.17665496
65	0x3e660b5c	0.22465271
66	0xbea1d6c3	-0.31609163
67	0x3e39328f	0.18085693
68	0xbe2dcd3f	-0.16972826
69	0x3dc623af	0.09674775
70	0x3dbbe764	0.09174994
71	0x3e2252e7	0.15851937
72	0x3eb82dd5	0.35972467
73	0x3bde489b	0.0067835576
74	0x3db046fa	0.08607288
75	0x3c2bab45	0.010477846
76	0xbe37f0ed	-0.17963
77	0x3d1ceb59	0.038310383
78	0x3e4df455	0.20112737
79	0x3e71c64c	0.236108
80	0x3eaa748b	0.3329204
81	0x3c8bab0a	0.017049331
82	0x3e209d0a	0.15684906
83	0x3d8f18b8	0.069871366
84	0xbe93e9b4	-0.2888924
85	0xbe7eed67	-0.2489525
86	0x3e0078c6	0.12546071
87	0x3ec0e321	0.37673286
88	0xbd3b3625	-0.045705933
89	0xbdaf349d	-0.08554957
90	0x3e05374d	0.13009377
91	0xbd01cfba	-0.031692244
92	0xbd9c2f95	-0.07626263
93	0xbe1cb411	-0.15303065
94	0xbe125e94	-0.14293891
95	0x3e3f7d45	0.1870013
96	0xbef0a908	-0.4700396
97	0x3e2bee8e	0.1679022
98	0x3cdd244c	0.026994847
99	0x3e97ed7a	0.29673368
100	0xbdab110f	-0.08352863
101	0x3de7b9b9	0.11314721
102	0x3e9117c0	0.28338432
103	0xbdbeb268	-0.09311372
104	0x3e284105	0.16431053
105	0x3e833656	0.25627393
106	0xbe508ff5	-0.20367415
107	0xbdf34ea3	-0.11880233
108	0xba88fc34	-0.0010451139
109	0xbe790b18	-0.24320638
110	0x3dcc6dea	0.09981902
111	0xbd8d9e42	-0.06914951
112	0xbe75c968	-0.24002612
113	0xbe8122aa	-0.2522176
114	0x3f117f24	0.56834626
115	0x3d3e5199	0.046464536
116	0xbe59165f	-0.2119994
117	0x3de40a0c	0.11134729
118	0x3e3b46bc	0.18288702
119	0x3e94a74e	0.29033893
120	0xbeda8fbb	-0.42687783
121	0xbd5a7df3	-0.05334277
122	0xbc598fc6	-0.013278907
123	0x3d204bcd	0.03913479
124	0xbe174f26	-0.14776286
125	0xbf013d1e	-0.5048388
126	0x3e41a59e	0.18910834
127	0x3d265665	0.040609736
128	0x3e8acf0e	0.27111095
129	0xbe8feb0f	-0.28109023
130	0x3e2a77da	0.16647282
131	0xbe057e8d	-0.13036557
132	0x3c9287a0	0.017886937
133	0xbd4bd9fc	-0.049768433
134	0x3e6d9723	0.23202185
135	0x3dfad15c	0.122469634
136	0xbe056bd0	-0.13029408
137	0xbe93fe7a	-0.28905088
138	0x3d914bf5	0.07094566
139	0xbe31c312	-0.1735957
140	0x3e3a8e3b	0.18218319
141	0x3ed9db0b	0.4254993
142	0x3e79cdd8	0.2439493
143	0xbbfffae3	-0.0078118904
144	0x3e9dd93c	0.308298
145	0x3e278b76	0.16361794
146	0xbed3b1ba	-0.41346532
147	0x3e0ff3a1	0.14057781
148	0xbd6c084e	-0.057625107
149	0xbd574b6a	-0.052562155
150	0x3db4f5f4	0.08835974
151	0x3e0d373a	0.13790599
152	0x3e90d315	0.28286043
153	0xbe93c183	-0.28858575
154	0x3cccfe54	0.025023617
155	0xbe5df40c	-0.21675128
156	0xbe58ac20	-0.2115941
157	0xbdb15a72	-0.08659829
158	0xbe450c28	-0.19242918
159	0x3e8270eb	0.25476775
160	0x3dd7af53	0.10531487
161	0xbe0cf7aa	-0.13766351
162	0xbc3a9f1c	-0.011390474
163	0x3df024d8	0.117257774
164	0xbe94ad0c	-0.29038274
165	0x3e3d7571	0.18501832
166	0xbe6a6439	-0.22889794
167	0xbde6c13e	-0.11267327
168	0xbe84cc98	-0.25937343
169	0xbe0059c2	-0.1253424
170	0x3dfc2e94	0.123135716
171	0x3df222b9	0.11823029
172	0x3db8418a	0.089968756
173	0xbda2bc3f	-0.07946061
174	0x3cc1965d	0.02363127
175	0x3ecc0130	0.39844656
176	0x3e067063	0.1312881
177	0x3e81d9bd	0.25361434
178	0x3e267e08	0.16259015
179	0xbe46d511	-0.19417216
180	0x3de59c9c	0.112115115
181	0x3cea2355	0.0285813
182	0x3ec841c4	0.39112675
183	0x3d575452	0.05257065
184	0x3efe4dc7	0.49668714
185	0x3e8ae40e	0.27127117
186	0x3e2ec964	0.17069012
187	0x3e38bbaf	0.18040346
188	0x3ed62083	0.4182168
189	0x3e1ea05e	0.15490863
190	0x3dbe93ba	0.0930552
191	0xbe92906e	-0.28625816
192	0xbd6f5159	-0.05842719
193	0x3e8b503c	0.2720965
194	0xbdf840be	-0.121217236
195	0xbd0ba0c0	-0.03408885
196	0x3e919b82	0.28438956
197	0x3c9162e1	0.017747344
198	0xbe5506da	-0.20803395
199	0x3d2040f4	0.039124444
200	0xbc9cb4ae	-0.019129124
201	0x3e2dbab6	0.16965756
202	0xbdf0982e	-0.11747776
203	0x3e2b7531	0.16743924
204	0xbe71664e	-0.23574182
205	0xbe24e6e1	-0.16103698
206	0xbe6a5faa	-0.22888055
207	0x3d15b48a	0.03654913
208	0x3ec21b19	0.379113
209	0xbf077bb0	-0.5292311
210	0xbc8fe6a3	-0.01756603
211	0xbe24ed0c	-0.16106051
212	0xbee61b7a	-0.44942838
213	0xbe3f70e7	-0.18695413
214	0xbd78d281	-0.060747627
215	0x3e04f592	0.12984303
216	0xbec685a3	-0.38773832
217	0x3e934413	0.28762874
218	0x3e285050	0.16436887
219	0xbe6ca67a	-0.23110381
220	0xbedafda8	-0.4277165
221	0x3e0a9bbb	0.13535969
222	0x3eb1d1e2	0.3473044
223	0x3e117f3f	0.14208697
224	0xbdc0fcd3	-0.094232224
225	0x3dcf5b3b	0.10124823
226	0x3bab30d1	0.005224325
227	0xbde099b7	-0.10966819
228	0xbe8b76bf	-0.27239034
229	0x3ea388b9	0.3194025
230	0x3db6a826	0.089187905
231	0x3ef2ec41	0.47445872
232	0xbd850631	-0.064953215
233	0xbe08ed53	-0.13371782
234	0x3e7d2a6d	0.24723215
235	0xbe22d4c2	-0.15901473
236	0xbd4ac41f	-0.049503442
237	0x3dfcf474	0.12351313
238	0x3e6cc4d1	0.23121955
239	0x3d2f8784	0.042853847
240	0xbeb13d5e	-0.34617132
241	0x3e0de507	0.13856898
242	0x3d5c8dc3	0.053846132
243	0x3dab8a48	0.083759844
244	0xbead4b3c	-0.33846462
245	0x3e9b0819	0.30279616
246	0xbc97f265	-0.0185482
247	0xbe81fbf1	-0.2538753
248	0x3e59c340	0.21265888
249	0x3e442891	0.191561
250	0xbde6b9ab	-0.11265882
251	0x3e99c418	0.3003242
252	0x3e1c950d	0.15291233
253	0xbdf65547	-0.12027984
254	0xbd92cac0	-0.07167578
255	0x3d8b3ea5	0.06799058

bias f4 [20]
0	0x3d54b44e	0.051929764
1	0xbc8afc90	-0.016966134
2	0x3d0969d9	0.03354821
3	0xbcb4d9bf	-0.022076486
4	0x3bffc0c9	0.007804964
5	0xbdaeccc3	-0.08535149
6	0xbab435c4	-0.0013748934
7	0x3d60e16c	0.05490248
8	0xbd5c9b58	-0.053859085
9	0x3cec3923	0.028835839
10	0x3d2c901c	0.04212962
11	0xbd240211	-0.040041033
12	0xbdba0e30	-0.09084737
13	0xbdac8f84	-0.08425811
14	0x3dace0bf	0.084413044
15	0xbe308767	-0.17239152
16	0x3d68b263	0.056810748
17	0xbd578a5f	-0.052622195
18	0xbd07c1e7	-0.033143904
19	0x3cdcd3bc	0.026956432

weight f4 [20, 20]
0	0x3e935502	0.28775793
1	0xbe793109	-0.24335112
2	0x3dbb4c58	0.09145421
3	0x3e35ecc1	0.17766096
4	0xbe2bc852	-0.16775635
5	0xbe17f07a	-0.14837828
6	0x3e1b80f7	0.15185915
7	0x3eb329f0	0.34992933
8	0xbf1f33d0	-0.62188435
9	0x3e380f6f	0.17974637
10	0x3e133ef8	0.1437949
11	0x3e8decb5	0.27719656
12	0x3e135613	0.14388303
13	0x3e3843a4	0.17994553
14	0x3ea56486	0.32303256
15	0xbe2ca698	-0.16860425
16	0x3ec61bca	0.38693076
17	0xbe086bf6	-0.13322434
18	0x3e377cf8	0.17918766
19	0xbea2c972	-0.31794316
20	0x3e8bb16d	0.27283803
21	0x3cd16556	0.025561016
22	0x3d8ddc3d	0.06926773
23	0xbb9e51ac	-0.0048315134
24	0x3d5059c2	0.05086685
25	0x3e9095e1	0.2823935
26	0x3e550572	0.20802858
27	0xbe85f11c	-0.26160514
28	0xbdc31f0c	-0.09527406
29	0x3e59c79e	0.21267554
30	0xbe7b6935	-0.24551852
31	0x3eb09439	0.34488085
32	0xbd60d352	-0.05488903
33	0xbbf2d1dd	-0.0074102716
34	0xbda539c1	-0.08067656
35	0x3eba4dea	0.3638757
36	0xbd032a2b	-0.032022636
37	0x3ed61049	0.418093
38	0x3eb1aacc	0.3470062
39	0xbc8efc19	-0.017454194
40	0xbe825a93	-0.25459728
41	0xbb3cf694	-0.0028833495
42	0xbd170951	-0.03687412
43	0xbe83d8f8	-0.25751472
44	0x3e59873d	0.21242996
45	0x3dd03d5f	0.101679556
46	0x3ea0e1c2	0.3142224
47	0x3bfc5a7a	0.0077012153
48	0x3e014543	0.12624077
49	0x3e3804a3	0.17970519
50	0xbe030576	-0.12795052
51	0xbe67e281	-0.22644998
52	0xbdd30c71	-0.103051074
53	0x3de6c661	0.112683065
54	0xbb0e91fa	-0.002175449
55	0x3ebb42dc	0.36574447
56	0x3e1f723c	0.1557092
57	0x3cad0f55	0.021125475
58	0xbe34b800	-0.17648315
59	0x3d6dfbdc	0.05810152
60	0x3ec2e67b	0.38066468
61	0x3deb6689	0.114941664
62	0xbe70f399	-0.23530425
63	0xbde097fb	-0.10966488
64	0xbe8a8899	-0.2705734
65	0xbea2a241	-0.31764415
66	0xbefeba25	-0.49751392
67	0xbf014e9b	-0.5051057
68	0xbe4eb5db	-0.2018656
69	0xbe918b84	-0.28426754
70	0x3d5be630	0.05368632
71	0xbd4456de	-0.047934406
72	0xbe0abb7d	-0.13548084
73	0x3db7c2d0	0.089727044
74	0xbd88e251	-0.066837914
75	0x3e8697c9	0.26287678
76	0xbe13f307	-0.14448176
77	0xbe2670f8	-0.16254032
78	0x3e0c7902	0.13718036
79	0x3eb14bae	0.34628052
80	0x3ea7e4b8	0.32791686
81	0xbd2ca4d6	-0.042149387
82	0x3d3721db	0.04471002
83	0xbd54dea7	-0.05197015
84	0x3e713341	0.23554708
85	0xbe93cda5	-0.28867832
86	0xbe1a0534	-0.15041047
87	0xbe2e8162	-0.17041543
88	0x3df6dcd0	0.120538354
89	0x3caed712	0.021342788
90	0xbece3fa4	-0.4028293
91	0xbea2d259	-0.31801108
92	0xbd8af230	-0.06784475
93	0xbf19898c	-0.59975505
94	0x3eeb9f6b	0.46020064
95	0x3e3cee7b	0.18450348
96	0xbe84ce8a	-0.25938827
97	0xbe71f6bf	-0.23629282
98	0x3ec956c7	0.39324018
99	0x3e3f0d40	0.18657398
100	0xbe080fdc	-0.132873
101	0xbd1a6b30	-0.03769988
102	0x3c927491	0.017877849
103	0xbe499ac0	-0.19687939
104	0xbe880787	-0.26568243
105	0xbdab62f1	-0.08368481
106	0x3de43582	0.11143018
107	0xbed94ef7	-0.42443058
108	0x3d9288f4	0.07155028
109	0xbd71b59a	-0.05901108
110	0xbe2b21ea	-0.16712156
111	0xbdd3e6c7	-0.10346752
112	0x3ecb43e5	0.39700237
113	0x3e1ac70d	0.15114994
114	0x3ed6991f	0.41913697
115	0xbd40f337	-0.047106948
116	0xbca6594f	-0.020306258
117	0x3e0f4385	0.139906
118	0x3e3725d5	0.17885526
119	0xbf0875ec	-0.53304935
120	0x3e872c9a	0.26401216
121	0xbd1c2055	-0.03811677
122	0x3d50de08	0.050992996
123	0x3e5c439a	0.21510163
124	0x3dc36b3b	0.09541937
125	0xbcee9267	-0.029122544
126	0xbe5a0440	-0.21290684
127	0x3e791c66	0.2432724
128	0xbd71ec01	-0.05906296
129	0x3de6eac4	0.11275247
130	0x3e400794	0.18752891
131	0x3e09d422	0.13459828
132	0xbe49844c	-0.19679374
133	0x3e8babd5	0.27279535
134	0xbe69601d	-0.2279057
135	0x3e97aaab	0.29622397
136	0x3e35c79a	0.17751923
137	0xbf156ea5	-0.58371955
138	0xbe4f2e59	-0.20232524
139	0x3dccd9c9	0.10002477
140	0xbda74c84	-0.08168891
141	0x3e4d3641	0.20040227
142	0xbda5f1e4	-0.081027776
143	0x3e6c3eae	0.23070785
144	0xbc95d500	-0.018290043
145	0xbdc1558a	-0.094401434
146	0xbe26967b	-0.16268341
147	0x3e8ff31b	0.28115162
148	0x3eab95d0	0.33512735
149	0x3dad4bba	0.08461709
150	0x3e44b917	0.19211231
151	0xbe25eb11	-0.16202952
152	0xbdfa5edb	-0.122251235
153	0xbd8da930	-0.069170356
154	0x3ddab01d	0.10678122
155	0x3df29fd6	0.118468925
156	0xbe506f0b	-0.2035486
157	0x3ea6c05e	0.3256864
158	0x3d05f5bd	0.032705057
159	0x3c894d81	0.01676059
160	0xbdf7d401	-0.121009834
161	0xbd9edc2d	-0.07756839
162	0xbe895141	-0.26819804
163	0x3ee26e44	0.4422475
164	0x3e88f9ff	0.26753232
165	0x3e3d1172	0.18463686
166	0xbc5c5376	-0.013447633
167	0x3cb7063e	0.022341844
168	0x3e53eae7	0.20695077
169	0x3d95567f	0.072918884
170	0xbcfad76a	-0.030620296
171	0x3e9fa168	0.3117783
172	0xbe807718	-0.2509086
173	0xbeb30471	-0.34964326
174	0x3e6e002a	0.2324225
175	0xbdb6d5aa	-0.08927472
176	0xbd460ffa	-0.04835508
177	0xbe3706cb	-0.17873685
178	0x3e946863	0.2898589
179	0xbe8a3b27	-0.26998255
180	0x3efd0061	0.49414352
181	0xbe1d98dc	-0.15390342
182	0xbe7b852f	-0.24562524
183	0xbc77666d	-0.015100104
184	0xbe81a1b0	-0.2531867
185	0x3e854665	0.2603027
186	0xbe82ddca	-0.25559837
187	0x3db3427f	0.087529175
188	0x3c25aa9d	0.010111478
189	0xbd5875e2	-0.052846797
190	0x3e3e8a8c	0.18607539
191	0x3df99a84	0.12187675
192	0xbd92d0d7	-0.07168739
193	0x3a1cb515	0.0005977911
194	0xbe12a059	-0.1431898
195	0x3e93ea83	0.28889856
196	0xbd7ef103	-0.062241565
197	0x3d438567	0.047734644
198	0x3e1323d4	0.14369136
199	0xbe86dd99	-0.2634094
200	0x3e4ac55b	0.19801848
201	0x3ca7f9d3	0.020504868
202	0x3e069f1f	0.13146637
203	0xbc04643f	-0.008080541
204	0x3d20562c	0.03914468
205	0x3dcc3ebe	0.099729046
206	0x3db81602	0.08988573
207	0xbddf0e0a	-0.108913496
208	0xbe007a5e	-0.1254668
209	0x3e2b7554	0.16743976
210	0xbe3a1619	-0.18172492
211	0x3e0d7e57	0.13817726
212	0x3c0a9e4d	0.008460593
213	0x3e6118e4	0.21982151
214	0xbeb914e9	-0.36148766
215	0x3e930251	0.28712705
216	0x3dc22e0b	0.09481438
217	0xbea3d453	-0.31997928
218	0xbdae7720	-0.08518815
219	0xbe82bbc1	-0.2553387
220	0x3d0ee5db	0.034887176
221	0x3dff457f	0.12464427
222	0xbe064494	-0.13112098
223	0xbe4ba134	-0.19885713
224	0x3e422e65	0.1896301
225	0xbe8a1dd1	-0.26975873
226	0x3d8434f0	0.064554095
227	0xbdac97b6	-0.08427374
228	0xbeb9f9fc	-0.36323535
229	0x3e06923f	0.13141726
230	0xbe1c6979	-0.1527461
231	0xbdb548f4	-0.08851805
232	0x3e9e6760	0.30938244
233	0x3ea539e8	0.3227074
234	0xbb670788	-0.0035252292
235	0x3e980f34	0.296991
236	0x3aaa895a	0.0013010905
237	0x3f2a8131	0.6660338
238	0xbdf9316f	-0.12167632
239	0x3d00eb25	0.03147425
240	0xbe9a2837	-0.30108806
241	0x3dc92072	0.098206416
242	0xbe6bcf03	-0.23028187
243	0x3c9cb2ae	0.01912817
244	0x3e76cb97	0.24101101
245	0xbea5f25e	-0.32411474
246	0xbd1bada7	-0.038007405
247	0x3ea96c6f	0.3309054
248	0x3c83d2be	0.0160917
249	0x3ddde499	0.10834617
250	0x3e02e704	0.12783438
251	0xbdcfe830	-0.10151708
252	0xbe9da325	-0.30788532
253	0xbee30759	-0.44341543
254	0x3e6467c3	0.22305207
255	0xbf3d6d07	-0.7399449

bias f4 [20]
0	0x3c1eaef9	0.009685271
1	0x3c4479be	0.011991916
2	0xbd89d332	-0.067297354
3	0x3d0d912f	0.034562286
4	0x3ca1781a	0.01971059
5	0x3d1c066f	0.038092073
6	0x3d58389f	0.052788373
7	0x3d394e53	0.04524071
8	0xbd1327d9	-0.035926674
9	0xbda7b941	-0.08189631
10	0xbbe5e30f	-0.007015593
11	0xbcd58342	-0.026063565
12	0x3dce3b01	0.10069848
13	0xbb5d17c7	-0.0033736096
14	0xbdc83306	-0.09775357
15	0xbca4f323	-0.020135468
16	0x3cd60849	0.026126998
17	0x3d94cef4	0.07266036
18	0xbd8f8e00	-0.07009506
19	0xbde66819	-0.11250324

weight f4 [20, 20]
0	0x3ac76d85	0.0015215134
1	0x3e336b38	0.1752137
2	0x3e9dae36	0.30796975
3	0xbe35e648	-0.17763627
4	0x3f10f5df	0.5662517
5	0xbd2fcf82	-0.042922504
6	0x3ea57f09	0.32323483
7	0xbe85197d	-0.2599601
8	0x3e7b24b6	0.24525723
9	0x3d9b6f4b	0.07589587
10	0x3e46ff3f	0.19433306
11	0x3d236167	0.039887812
12	0x3dfa0489	0.12207896
13	0x3e81b45c	0.25332916
14	0xbe30e746	-0.17275724
15	0x3e609df1	0.2193525
16	0x3e3ed270	0.18634963
17	0x3ed20699	0.4102066
18	0x3e97df16	0.2966239
19	0xbd88801a	-0.066650584
20	0xbd39c8f4	-0.04535766
21	0x3a750f7b	0.0009348315
22	0xbe27085a	-0.1631178
23	0xbd862b9b	-0.06551286
24	0x3e157844	0.14596659
25	0x3e9ed580	0.31022263
26	0x3e978311	0.29592183
27	0xbcf14316	-0.029450934
28	0xbdeb684c	-0.114945024
29	0x3ca621af	0.020279733
30	0xbe97c9ff	-0.29646298
31	0xbe5d72e7	-0.21625863
32	0xbe80ac12	-0.2513128
33	0x3ee8d335	0.45473638
34	0xbea5351b	-0.3226708
35	0xbe8b02ae	-0.27150482
36	0x3eb1ebbd	0.34750167
37	0x3eb972bd	0.3622035
38	0xbe76097a	-0.24027053
39	0x3e5bbac1	0.2145796
40	0xbed078e3	-0.4071723
41	0xbeb7bf37	-0.35888073
42	0x3e37ffab	0.17968623
43	0xbe0b82d0	-0.1362412
44	0xbee2dfee	-0.4431147
45	0x3e5821a8	0.21106589
46	0xbf02181f	-0.50818056
47	0x3e49e328	0.1971556
48	0x3e5e557d	0.21712299
49	0x3f0562bc	0.5210378
50	0xbe344ef4	-0.17608243
51	0xbdf6b822	-0.12046839
52	0xbd7fa510	-0.062413275
53	0xbb416160	-0.0029507503
54	0x3da1bd81	0.07897473
55	0xbe66a14d	-0.22522469
56	0xbe846a73	-0.25862464
57	0x3ee903ab	0.4551061
58	0x3c95ad3e	0.018271085
59	0x3eb6e838	0.35724044
60	0xbe09443a	-0.13404933
61	0xbd7ebcb4	-0.06219168
62	0xbdfa5325	-0.1222289
63	0x3e0e5910	0.13901162
64	0xbd4cd34f	-0.050006207
65	0xbe2a43a1	-0.16627361
66	0x3e213801	0.1574402
67	0x3e3159da	0.17319432
68	0x3d715056	0.058914505
69	0x3e20f275	0.1571749
70	0x3e885a02	0.2663117
71	0xbf08105a	-0.5314995
72	0x3d9d1045	0.07669119
73	0x3e8cc3e6	0.2749321
74	0xbc2c2720	-0.010507375
75	0x3d3128e7	0.0432519
76	0xbe465482	-0.19368175
77	0x3f1b2a85	0.60611755
78	0x3d562ade	0.052286975
79	0xbef71a15	-0.48262087
80	0x3e9a8539	0.30179766
81	0xbe88f610	-0.2675023
82	0xbe7c64b6	-0.24647793
83	0xbd9e8c08	-0.077415526
84	0x3df09fec	0.11749253
85	0x3dd9a28f	0.10626709
86	0xbdee4722	-0.11634661
87	0x3c82a29b	0.015946677
88	0x3ce17708	0.027522579
89	0xbe98af71	-0.2982135
90	0x3dfecacf	0.124410264
91	0x3d1dee88	0.03855756
92	0x3d9ae56e	0.075632915
93	0x3e66363c	0.22481626
94	0xbe60feba	-0.2197217
95	0xbdfaff33	-0.12255707
96	0xbe2597df	-0.16171215
97	0xbe7ae5b8	-0.24501693
98	0xbef7cfdb	-0.4840077
99	0x3bda4d63	0.0066620572
100	0x3dcf7b94	0.101309925
101	0xbce6cc68	-0.02817364
102	0x3c9445fc	0.018099777
103	0x3e6caacb	0.23112027
104	0x3e93d604	0.28874218
105	0x3d2dbdcf	0.042417344
106	0xbe5d08b8	-0.21585357
107	0xbcc0b82a	-0.023525316
108	0x3e77237b	0.24134628
109	0x3dbddee0	0.09271026
110	0xbe58bbe8	-0.2116543
111	0xbeb1317c	-0.34608066
112	0xbdcb2270	-0.09918678
113	0x3e6236a3	0.22091155
114	0xbe95c588	-0.29252267
115	0xbd67a5fa	-0.056554772
116	0xbe95a3da	-0.2922657
117	0xbdba40be	-0.0909438
118	0x3ea96a60	0.3308897
119	0x3dc4c9e6	0.096088216
120	0xbe27a13a	-0.16370097
121	0x3ea9f9cf	0.331984
122	0x3d6bb86d	0.05754893
123	0xbe4ecbaa	-0.20194879
124	0xbed84c09	-0.4224551
125	0x3e92721e	0.2860269
126	0x3c842db7	0.01613508
127	0xbda42625	-0.08015088
128	0xbe51d3b2	-0.20490912
129	0x3e5dbc0c	0.21653765
130	0xbe4c5fb5	-0.19958384
131	0xbed9272f	-0.42412707
132	0x3e8b69ad	0.27229062
133	0xbe9c75c1	-0.3055859
134	0x3e5c0936	0.21487889
135	0x3d9669ed	0.073444225
136	0x3f1ccf5e	0.6125392
137	0x3e16ae8c	0.14715022
138	0xbd508b83	-0.0509143
139	0xbe64c9f7	-0.22342668
140	0xbea64d61	-0.3248091
141	0xbdb9a46a	-0.090645626
142	0xbecb8e11	-0.39756826
143	0x3e48bd92	0.19603565
144	0xbf213cd9	-0.6298347
145	0x3eca3917	0.3949668
146	0x3e9024af	0.28152987
147	0x3e602aee	0.21891376
148	0xbd84a388	-0.064765036
149	0xbe09d8a7	-0.13461553
150	0x3ed22106	0.4104082
151	0xbe7ab1f6	-0.24481949
152	0x3eabda04	0.3356477
153	0xbeb30238	-0.3496263
154	0xbe712ee6	-0.23553047
155	0x3dede9bb	0.11616846
156	0xbd2adfc4	-0.041717306
157	0xbe5f01ce	-0.21778032
158	0xbecdc450	-0.40188837
159	0xbe1cd7de	-0.15316722
160	0x3e89d0d6	0.26917142
161	0xbd80cee3	-0.062894605
162	0xbe56a09a	-0.20959702
163	0xbe9ec62e	-0.31010574
164	0x3e25d7c5	0.16195591
165	0x3de59ee3	0.11211946
166	0xbe4971e9	-0.1967236
167	0xbe0ed003	-0.13946538
168	0x3cd75534	0.026285745
169	0xbe030792	-0.12795857
170	0x3d93e676	0.07221691
171	0xbdf72b76	-0.120688364
172	0x3e80adad	0.25132504
173	0x3e3aed54	0.18254596
174	0x3e35e60f	0.17763542
175	0xbdd060c6	-0.10174708
176	0xbe22dcd1	-0.15904547
177	0xbe3b1b95	-0.1827224
178	0x3e31eb00	0.17374802
179	0xbd5131e3	-0.051072966
180	0x3e9922ac	0.29909265
181	0x3dcf1e75	0.10113231
182	0x3d21463f	0.039373633
183	0xbe4d3eb4	-0.2004345
184	0xbdbc811e	-0.09204315
185	0xbd888c5f	-0.06667399
186	0xbe57250f	-0.2101023
187	0x3e2293a1	0.15876628
188	0xbd6be26c	-0.05758898
189	0x3ea06610	0.31327868
190	0xbe686d79	-0.2269801
191	0xbdcbe9c7	-0.09956699
192	0xbeb7694f	-0.35822532
193	0x3e1e05af	0.15431856
194	0x3ed2c284	0.4116403
195	0xbe89a573	-0.2688404
196	0xbe1ba683	-0.15200238
197	0xbef2ae52	-0.4739862
198	0xbde73bba	-0.11290689
199	0x3d82fdf7	0.06396096
200	0x3cef4e21	0.02921206
201	0x3e9144d0	0.28372812
202	0x3e1ba118	0.15198171
203	0x3e9330db	0.2874821
204	0xbd9a69c9	-0.07539708
205	0x3e202c3a	0.15641871
206	0xbc7a2c83	-0.0152694015
207	0x3b2f537a	0.0026752637
208	0x3eb842fc	0.35988605
209	0x3d4d7e69	0.050169382
210	0xbe8674b3	-0.2626091
211	0xbde6c8e9	-0.11268789
212	0x3e764d2b	0.24052875
213	0x3e9663d7	0.29373047
214	0x3e16f3e0	0.14741468
215	0xbea4a702	-0.32158667
216	0xbe64a0da	-0.22326985
217	0xbf0367d3	-0.513303
218	0xbd689b50	-0.056788743
219	0xbd3eb32b	-0.046557587
220	0x3c75f8b3	0.015012908
221	0x3e0d40f0	0.13794303
222	0x3c577d98	0.0131525025
223	0xbe59b009	-0.21258558
224	0xbe3599a6	-0.17734393
225	0x3df7e6f9	0.121046014
226	0x3d3f8724	0.04675974
227	0xbe1217b3	-0.14266853
228	0xbe7ecd2b	-0.24882953
229	0xbe6c68a3	-0.2308679
230	0xbe17fcf9	-0.14842595
231	0xbde330c0	-0.11093283
232	0xbdf3dae6	-0.11906986
233	0xbe469c78	-0.19395626
234	0xbd8be8dd	-0.068315245
235	0x3d8890bf	0.06668233
236	0x3e269e51	0.1627133
237	0x3ea303b6	0.3183877
238	0xbe9862db	-0.2976292
239	0x3e59c090	0.21264863
240	0x3e423eef	0.1896932
241	0xbafd28e1	-0.0019314551
242	0x3de96be2	0.1139753
243	0x3ca18e30	0.01972112
244	0xbe4d1696	-0.20028147
245	0xbee03d0c	-0.43796575
246	0x3e1e75dd	0.15474649
247	0xbea05dc7	-0.31321546
248	0x3e41d898	0.1893028
249	0xbd06c91d	-0.03290664
250	0xbcf74ad7	-0.030187054
251	0xbe01ecf4	-0.12688047
252	0xbdec0f0c	-0.115263075
253	0xbd9ba1a7	-0.07599192
254	0x3e2b2931	0.16714932
255	0x3ecb3784	0.39690793

bias f4 [20]
0	0xbad4e37e	-0.0016242114
1	0x3d307357	0.043078747
2	0xbcbc2368	-0.022966102
3	0x3d04dd51	0.032437626
4	0x3d7e4d66	0.06208553
5	0x3be7a8d2	0.0070696855
6	0x3c3b8871	0.011446104
7	0x3c81c686	0.015841734
8	0x3cd8ace5	0.02644963
9	0xbd528adf	-0.05140197
10	0xbcadd31d	-0.02121883
11	0x3db43601	0.08799363
12	0x3ca8d3e5	0.020608852
13	0xbc3bb902	-0.0114576835
14	0x3d50a0b7	0.05093452
15	0x3d73c698	0.059515566
16	0xbb72fad3	-0.0037075772
17	0xbc8a04b8	-0.016847953
18	0xbdbe80a2	-0.093018785
19	0xbd12f628	-0.035879284

weight f4 [20, 20]
0	0x3e59679e	0.21230933
1	0x3e119138	0.14215553
2	0x3da7c1d4	0.08191267
3	0xbdc476c3	-0.095929645
4	0x3e2c2a9e	0.16813132
5	0x3ccdea2f	0.025136082
6	0xbc9f8a0b	-0.019475004
7	0xbe0bee0b	-0.13665025
8	0x3ec2beff	0.38036343
9	0x3dd5e591	0.10444177
10	0xbd9ed57f	-0.07755565
11	0x3e3a78e7	0.18210183
12	0x3e35ae42	0.17742255
13	0xbe9ea28e	-0.30983394
14	0x3e1b8a28	0.15189421
15	0xbe7621db	-0.24036352
16	0x3ea23b8e	0.31686062
17	0xbdff56d3	-0.12467732
18	0xbe1e431f	-0.15455292
19	0xbdd7a6c5	-0.10529856
20	0x3a3c8d2e	0.0007192668
21	0xbe458ac5	-0.19291218
22	0x3e5340c7	0.2063018
23	0xbdf185bf	-0.11793088
24	0xbe015f25	-0.12633951
25	0xbda3dc24	-0.08000973
26	0x39d03e8d	0.00039719456
27	0xbe81c7cb	-0.25347742
28	0x3ead9e27	0.33909723
29	0xbe318206	-0.17334756
30	0xbb924061	-0.004463241
31	0xbe3ae3b5	-0.18250926
32	0xbe2fa312	-0.1715205
33	0x3d147496	0.036243998
34	0xbeaa58d0	-0.33270884
35	0xbec7b6f3	-0.39006767
36	0xbdd97af1	-0.10619152
37	0x3ec5fae2	0.3866797
38	0x3e030940	0.12796497
39	0xbc56f537	-0.013119987
40	0x3ea3c651	0.3198724
41	0x3df71a14	0.12065521
42	0xbe8ca356	-0.27468365
43	0x3d97fd5b	0.074213706
44	0xbeeaae44	-0.4583608
45	0xbe3ea52c	-0.18617696
46	0xbd35b709	-0.04436401
47	0x3d58b267	0.052904513
48	0xbdb2c943	-0.08729794
49	0x3d542984	0.051797405
50	0xbc5affdd	-0.013366667
51	0xbdca3c2b	-0.098747574
52	0x3da9d553	0.082926415
53	0x3eeb8cb5	0.46005788
54	0xbc9025fc	-0.017596237
55	0x3d23068f	0.039801177
56	0x3d81e6ac	0.06342825
57	0xbe932f61	-0.28747085
58	0xbe8ecd90	-0.27891207
59	0xbd022627	-0.031774666
60	0xbd8733f5	-0.06601707
61	0x3ea79aeb	0.3273538
62	0x3e348829	0.17630066
63	0x3d5c1ea0	0.053740144
64	0x3dff317e	0.12460612
65	0xbe773698	-0.2414192
66	0xbccedcfb	-0.025251856
67	0x3d99d523	0.07511356
68	0xbdb1865f	-0.086682074
69	0xbe3d9f09	-0.18517698
70	0xbe2987ed	-0.16555758
71	0xbd84e15b	-0.06488296
72	0x3eb53dd3	0.3539873
73	0x3e3af900	0.18259048
74	0x3e13b4c6	0.14424428
75	0x3e760d52	0.24028519
76	0xbdbdc1e5	-0.09265498
77	0x3e8a3815	0.26995912
78	0x3c4ff9aa	0.012693802
79	0x3e8af8a4	0.27142823
80	0xbe9e2dd2	-0.30894333
81	0xbaec21c8	-0.0018015439
82	0x3ee485c5	0.44633308
83	0x3dcc8ec7	0.0998817
84	0xbbbd0792	-0.0057687247
85	0xbdf68062	-0.12036206
86	0x3cb94bb4	0.022619106
87	0xbe5ac180	-0.21362877
88	0x3dc995fa	0.09843059
89	0xbdd741bf	-0.10510587
90	0xbe62197a	-0.22080031
91	0x3d294990	0.04132992
92	0xbe7403cc	-0.23829573
93	0xbe21497c	-0.15750688
94	0xbeb53498	-0.35391688
95	0x3de8d159	0.11368055
96	0xbdf83006	-0.12118535
97	0x3e27ef2f	0.16399835
98	0xbc5759db	-0.013143982
99	0xbddf278b	-0.10896214
100	0xbed21d7f	-0.4103813
101	0x3c4574b2	0.012051748
102	0x3ded0b7f	0.11574458
103	0xbda5efe3	-0.081023954
104	0x3e99215c	0.29908264
105	0x3de3cb41	0.11122752
106	0xbedafcb9	-0.42770937
107	0xbd199a19	-0.037500475
108	0x3ddd12ae	0.107945785
109	0x3cc14a8a	0.023595113
110	0xbe0c4e17	-0.13701664
111	0xbee4b8c4	-0.44672215
112	0xbe5d2f5e	-0.216001
113	0x3e4d1e03	0.2003098
114	0xbccc5695	-0.02494363
115	0x3f15068f	0.5821313
116	0xbdfda021	-0.12384058
117	0xbd8746e1	-0.06605316
118	0xbe76a61a	-0.240868
119	0xbeba53e4	-0.36392128
120	0x3e831525	0.2560207
121	0xbcd6dd25	-0.026228497
122	0x3c966b02	0.018361572
123	0xbca80cd9	-0.020513939
124	0xbec17493	-0.37784252
125	0x3e15baa4	0.14621979
126	0xbde3c3fe	-0.11121367
127	0x3e30e823	0.17276053
128	0x3d88b1ce	0.066745386
129	0x3e2171d0	0.15766072
130	0xbe8dfd89	-0.27732494
131	0xbc96dc6f	-0.018415658
132	0x3cb66905	0.022266874
133	0x3e067009	0.13128676
134	0x3e2f3b87	0.17112552
135	0xbce50733	-0.027957534
136	0x3dd95550	0.10611975
137	0x3e4efcb8	0.20213592
138	0xbcb6231f	-0.022233544
139	0x3e0a1000	0.13482666
140	0xbe76df60	-0.24108648
141	0x3d18df7c	0.037322506
142	0x3e8118fb	0.2521437
143	0xbd2e1d7b	-0.042508584
144	0x3d529ebf	0.051420923
145	0xbe6960fd	-0.22790904
146	0x3e1f2b34	0.15543824
147	0xbd2091a7	-0.039201405
148	0xbd84f90b	-0.06492814
149	0x3e1be1d3	0.15222864
150	0xbdd12cd6	-0.1021363
151	0xbd68e11c	-0.056855306
152	0x3e7c5eca	0.24645534
153	0xbe0eed10	-0.1395762
154	0xbe2a8f92	-0.1665633
155	0xbe5d095e	-0.21585605
156	0xbe848acc	-0.25887144
157	0x3d6b2f63	0.05741824
158	0x3d8f6b79	0.07002921
159	0x3e2619c6	0.1622077
160	0xbe84c3e4	-0.25930703
161	0xbe496435	-0.19667132
162	0xbcad88e9	-0.021183448
163	0x3e5022d1	0.20325781
164	0xbd82b54d	-0.06382237
165	0xbe9999aa	-0.3000005
166	0xbd2cb16a	-0.042161383
167	0xbeb30b02	-0.34969336
168	0xbded9ff8	-0.11602777
169	0x3e70cb64	0.23515087
170	0x3e3aa09f	0.18225335
171	0xbe5bbc01	-0.21458437
172	0xbdfc966f	-0.123333804
173	0x3e7f642d	0.24940558
174	0x3cf48c3c	0.029852025
175	0x3caa0964	0.02075643
176	0xbe1607bb	-0.14651386
177	0xbe6cd34f	-0.23127483
178	0xbc33eaf3	-0.010981309
179	0x3d883bf6	0.06652062
180	0xbd1e0dd7	-0.038587417
181	0x3e34c96a	0.17654958
182	0x3e8ce2d6	0.27516812
183	0xbe387b9e	-0.18015906
184	0xbe3b97a5	-0.18319567
185	0xbe0f7940	-0.14011097
186	0xbde787b3	-0.113051794
187	0x3e851bdb	0.25997815
188	0xbdc92f68	-0.09823495
189	0xbde62b36	-0.112387106
190	0xbca57e38	-0.020201787
191	0xbc7cf8fa	-0.01544022
192	0xbeb78b6c	-0.35848558
193	0x3eb427b5	0.35186544
194	0xbe1507f9	-0.14553823
195	0xbe0b5f62	-0.13610604
196	0xbd8018ae	-0.06254707
197	0x3e94e305	0.29079452
198	0x3d1cb048	0.038254052
199	0x3e0f8948	0.14017212
200	0xbdb13bca	-0.08653982
201	0xbe5ecd18	-0.21757925
202	0x3eab4a3a	0.33455068
203	0x3eaa9376	0.3331563
204	0xbdbb9cf6	-0.09160797
205	0x3eb28dea	0.34873897
206	0xbe114e8c	-0.1419012
207	0xbe624d84	-0.22099882
208	0x3e397811	0.18112208
209	0xbec48c67	-0.38388368
210	0x3e948080	0.29004288
211	0x3c14422e	0.009048982
212	0xbeba0ead	-0.36339322
213	0xbdca931a	-0.09891339
214	0xbebe1fdf	-0.3713369
215	0x3e11c791	0.14236285
216	0x3e4afe41	0.19823553
217	0xbdb66121	-0.089052446
218	0x3e8e1941	0.27753642
219	0xbe8f1163	-0.27942953
220	0xbed6b130	-0.41932058
221	0xbc989a40	-0.01862824
222	0xbc98651c	-0.0186029
223	0x3e40ff08	0.18847287
224	0xbeb942dc	-0.36183822
225	0x3d72737e	0.059192173
226	0xbe239d88	-0.15978062
227	0x3ef2f82b	0.47454962
228	0xbe2aad2b	-0.16667621
229	0xbe401d36	-0.18761143
230	0xbc4a487f	-0.012346386
231	0x3df3ef67	0.11910897
232	0x3e7996a2	0.24373868
233	0x3db25496	0.0870754
234	0x3d3da1b4	0.04629679
235	0xbd8a1302	-0.06741907
236	0x3dc83863	0.0977638
237	0xbe10973f	-0.14120196
238	0xbda689e3	-0.081317686
239	0xbd35ff49	-0.044432912
240	0xbe8446df	-0.2583532
241	0xbd284f77	-0.04109141
242	0x3b4f37bd	0.0031618916
243	0xbe030ba6	-0.12797412
244	0xbe83945e	-0.25699133
245	0x3e96962a	0.2941144
246	0xbe018696	-0.12648997
247	0xbe4218e7	-0.18954812
248	0x3cc7175f	0.024303136
249	0xbcb38f75	-0.021918992
250	0x3da0522c	0.07828173
251	0xbcd08af2	-0.02545688
252	0xbe7f8bc2	-0.24955657
253	0x3e75eea6	0.24016818
254	0xbec5fdb7	-0.38670132
255	0x3d1f5e90	0.03890854

bias f4 [20]
0	0x3bf40372	0.0074467
1	0xbcdd6352	-0.027024899
2	0xbcfe88cf	-0.031071095
3	0x3d1ddbd5	0.038539726
4	0xbd2ce4cc	-0.042210385
5	0x3d285c9e	0.04110395
6	0xbd44c6d8	-0.048041195
7	0xbd88b039	-0.06674237
8	0x3d5f1684	0.054464832
9	0xbd5ff7f2	-0.05467982
10	0x3d74f7c9	0.05980662
11	0x3cf7df57	0.030257864
12	0xbd44594f	-0.047936734
13	0xbbd58da7	-0.0065171304
14	0xbd43c0da	-0.04779134
15	0xbc5098a0	-0.012731701
16	0x3d50b763	0.05095614
17	0x3db830fa	0.089937165
18	0x3d86cfba	0.065825894
19	0xbde076b4	-0.10960141

weight f4 [20, 20]
0	0x3e94c53b	0.29056725
1	0x3d7fc796	0.0624462
2	0xbdaf144f	-0.085487954
3	0x3e56d98e	0.20981428
4	0xbd9ec02e	-0.07751499
5	0xbd818437	-0.06324046
6	0x3dd6ede6	0.10494594
7	0x3da19fed	0.078918315
8	0xbd6eedb6	-0.058332168
9	0x3db64d87	0.08901506
10	0x3da3cd43	0.07998135
11	0x3d5cf21c	0.05394183
12	0x3e5cc0d6	0.21557936
13	0x3ec78efc	0.38976276
14	0xbd197a9b	-0.03747044
15	0x3d77d253	0.060503315
16	0x3d97975c	0.074019164
17	0x3e5ae2a3	0.21375518
18	0x3d400b5b	0.04688583
19	0xbf0b8d5a	-0.5451256
20	0x3e2d37d6	0.16915831
21	0x3e326709	0.17422117
22	0xbe8d7ce6	-0.27634352
23	0xbe086278	-0.13318813
24	0x3cc259b0	0.023724407
25	0x3d446d41	0.047955755
26	0xbddd9ecc	-0.10821304
27	0x3e805d16	0.2507102
28	0x3e129696	0.14315256
29	0x3dc8bf4d	0.09802113
30	0xbe386897	-0.18008648
31	0xbe5a0f82	-0.21294978
32	0x3e4daeef	0.20086263
33	0x3e285949	0.1644031
34	0xbd881e39	-0.066463895
35	0xbe89a8ad	-0.26886502
36	0x3e808248	0.25099397
37	0xbe4fe8bc	-0.20303625
38	0xbe676c29	-0.22599854
39	0x3d74928a	0.059710063
40	0xbeceaca1	-0.4036608
41	0xbc91f0ab	-0.017814955
42	0xbd9d692e	-0.07686077
43	0xbe6ddc68	-0.2322861
44	0xbea4d47f	-0.32193372
45	0x3ca707e0	0.020389497
46	0x3d8a8b29	0.06764824
47	0xbed99a8c	-0.42500722
48	0xbe12c1bb	-0.14331715
49	0x3d60417e	0.05474996
50	0xbdb1d7b7	-0.086837225
51	0xbe8c78f1	-0.2743602
52	0xbe25451b	-0.16139643
53	0xbe4f7a44	-0.20261484
54	0x3eaad368	0.33364415
55	0x3e924174	0.28565562
56	0x3e04a2d9	0.12952746
57	0xbdcd043b	-0.100105725
58	0x3e2273cc	0.15864486
59	0x3ea6ceb4	0.32579577
60	0xbe9af1b8	-0.30262542
61	0x3d95a015	0.07305924
62	0xbe5624f2	-0.20912531
63	0xbe57f798	-0.21090543
64	0xbdb37902	-0.08763315
65	0x3ce56249	0.028000968
66	0xbe4b63b9	-0.1986226
67	0xbe5c9322	-0.21540502
68	0xbe211cea	-0.15733686
69	0x3e91e87c	0.28497684
70	0x3df89354	0.121374756
71	0x3e279fed	0.163696
72	0x3ce4c826	0.02792747
73	0x3e04be5f	0.12963246
74	0x3e93f95f	0.28901193
75	0x3e6d3b91	0.23167254
76	0xbeb2746a	-0.34854442
77	0x3d9f2fb7	0.07772773
78	0x3c6b528e	0.014362944
79	0xbde36ba5	-0.11104516
80	0xbe0f28cb	-0.13980405
81	0xbe8294d2	-0.25504166
82	0xbdabe7cf	-0.08393823
83	0xbe248afd	-0.16068645
84	0xbef01965	-0.46894374
85	0xbdb3dd20	-0.087824106
86	0xbe8371a2	-0.25672632
87	0xbe9ccdbf	-0.30625722
88	0x3dcc3a13	0.09972014
89	0xbea7c4bf	-0.32767293
90	0x3eb90c9e	0.3614244
91	0xbc4dd89d	-0.012563852
92	0xbe80a908	-0.2512896
93	0xbdda1377	-0.10648244
94	0xbd583a15	-0.052789766
95	0xbe14b878	-0.14523494
96	0xbd122c36	-0.035686694
97	0xbc2b628b	-0.010460506
98	0xbb7a0bcf	-0.003815401
99	0xbe0aca94	-0.1355384
100	0xbdcd2ca0	-0.10018277
101	0xbd060c5b	-0.032726627
102	0xbf01167f	-0.5042495
103	0x3e2ee196	0.17078242
104	0xbf124eca	-0.5715147
105	0xbe801bd9	-0.25021246
106	0x3bb2627c	0.005443869
107	0xbe6efe3a	-0.23339167
108	0x3e9571fc	0.29188526
109	0xbe0cfb4e	-0.1376774
110	0xbd90080c	-0.07032785
111	0x3e92bd55	0.28660074
112	0xbe863b21	-0.26216987
113	0xbe3fb030	-0.18719554
114	0xbcb69dae	-0.022291984
115	0x3e74e832	0.239167
116	0x3e96babc	0.29439342
117	0xbc6f00c8	-0.014587589
118	0xbe15a041	-0.14611913
119	0x3ee36b46	0.4441778
120	0xbe060f0d	-0.13091679
121	0xbd47235a	-0.0486177
122	0xbdc9fbc0	-0.098624706
123	0x3e2d81a5	0.16943987
124	0x3e715554	0.23567706
125	0xbd21e289	-0.03952268
126	0x3e0cc4f1	0.13747002
127	0xbe606c3a	-0.21916285
128	0x3e56f006	0.20989999
129	0xbd12dd4b	-0.035855573
130	0x3e2d0019	0.16894569
131	0xbd82167c	-0.06351945
132	0xbe2e5b6b	-0.1702706
133	0xbd7cf689	-0.06175855
134	0x3e9147a7	0.2837498
135	0xbf098e4b	-0.53732747
136	0xbd81cc56	-0.06337802
137	0xbe5a4845	-0.21316631
138	0xbbd7b4cd	-0.0065828324
139	0xbe8319b5	-0.2560555
140	0x3e242346	0.16029081
141	0xbd084606	-0.033269905
142	0xbe27ad83	-0.16374783
143	0x3da5f6bc	0.081037015
144	0x3e71ba15	0.23606141
145	0xbd9a18c5	-0.07524256
146	0xbd9b5f51	-0.075865395
147	0xbe1bf1ce	-0.1522896
148	0x3e020ee2	0.1270099
149	0xbcd8b7e3	-0.026454872
150	0x3e0f04f0	0.13966727
151	0xbe0e004c	-0.13867301
152	0x3df8887c	0.12135407
153	0xbdb751f4	-0.08951178
154	0x3d9031d8	0.07040757
155	0xbd93f09e	-0.072236285
156	0xbe252754	-0.16128284
157	0x3e49d840	0.19711399
158	0xbe9abadd	-0.3022069
159	0x3e1a374c	0.15060157
160	0xbe25c1a7	-0.16187154
161	0xbe920c6f	-0.2852511
162	0x3d500bf7	0.05079266
163	0x3e4ca4c3	0.19984727
164	0x3e6519c1	0.22373106
165	0x3e3c140e	0.18367025
166	0x3c95a799	0.018268393
167	0x3ebbeca4	0.3670398
168	0x3f159cc1	0.5844231
169	0x3dd05004	0.10171512
170	0xbe25c077	-0.16186701
171	0xbe0d7b80	-0.13816643
172	0x3d822b61	0.0635593
173	0xbd83dcb4	-0.0643858
174	0xbd451543	-0.04811598
175	0x3e3b026e	0.18262646
176	0x3e67c661	0.2263427
177	0xbec3f0ce	-0.38269657
178	0x3e0a9b90	0.13535905
179	0xbde3d098	-0.111237705
180	0xbe571a39	-0.21006097
181	0xbeaf9927	-0.34296533
182	0x3b89fd34	0.0042110924
183	0x3e8de9b1	0.27717355
184	0x3d8e77d7	0.069564514
185	0x3e1171a8	0.14203513
186	0xbd1bb7fe	-0.038017265
187	0xbe807b3f	-0.2509403
188	0x3d0ea513	0.034825396
189	0xbe0458de	-0.12924525
190	0x3de6c278	0.11267561
191	0xbdd54a33	-0.10414543
192	0xbe70a796	-0.23501429
193	0xbe10a105	-0.14123924
194	0xbe3087a6	-0.17239246
195	0xbee9348a	-0.45547897
196	0x3d0ad525	0.033894677
197	0xbeb34fb1	-0.35021737
198	0xbe15defe	-0.14635846
199	0x3e580918	0.21097219
200	0x3ea48a99	0.32136992
201	0x3e65afcb	0.22430341
202	0x3e91db4c	0.28487623
203	0x3c5c5bf1	0.013449655
204	0xbdb324b9	-0.08747239
205	0xbd1c7ae1	-0.038203124
206	0x3e8af63a	0.2714098
207	0xbda03daa	-0.078242615
208	0xbde552d4	-0.11197439
209	0x3e8562a8	0.2605183
210	0x3a8788f3	0.0010340497
211	0xbe9ee1e9	-0.3103173
212	0xbe97771d	-0.29583064
213	0x3d6423cd	0.055698205
214	0xbdd134e4	-0.10215166
215	0x3e92a90f	0.28644606
216	0xbd3633e0	-0.044483066
217	0xbe04789f	-0.12936638
218	0x3c1a6bdf	0.009425133
219	0xbe4c05c4	-0.19924074
220	0x3e0ecd61	0.13945533
221	0x3e4e7e11	0.20165278
222	0x3ebcd8c8	0.3688414
223	0x3d1738cd	0.036919404
224	0xbe7d4ac8	-0.24735558
225	0x3ebb659b	0.36600956
226	0xbb96f5a1	-0.004606918
227	0xbea6a7bc	-0.32549846
228	0x3e6d9da7	0.23204671
229	0xbe78a022	-0.24279836
230	0x3ebc1c1f	0.36740205
231	0x3e53faa0	0.20701075
232	0x3e90d553	0.28287753
233	0xbe8c292d	-0.27375165
234	0xbeb5cc75	-0.3550755
235	0x3e93d660	0.28874493
236	0x3e6257e8	0.22103846
237	0xbe8e0b43	-0.27742967
238	0x3f0dcb6b	0.55388516
239	0x3baf6991	0.0053531607
240	0x3e246a19	0.16056098
241	0xbd81631c	-0.06317732
242	0x3eb01acc	0.34395444
243	0xbd4cc9b5	-0.04999705
244	0xbe51638c	-0.2044813
245	0x3dc101ec	0.09424195
246	0xbe75310a	-0.23944488
247	0xbeab202b	-0.3342298
248	0x3dd84fab	0.105620705
249	0x3eb1db65	0.34737697
250	0xbe0cb5d1	-0.13741232
251	0xbe36764c	-0.17818564
252	0x3d622af1	0.055216733
253	0x3e2b62e9	0.1673695
254	0x3e5ddf7a	0.21667281
255	0x3e293b49	0.16526522

bias f4 [20]
0	0x3cb84c61	0.022497358
1	0x3cd526f8	0.026019558
2	0x3ca6bc09	0.020353334
3	0x3ca526ac	0.020160042
4	0x3d28ae27	0.04118171
5	0x3ad0f5dd	0.0015942414
6	0x3da0aabb	0.07845064
7	0x3c56aeeb	0.013103227
8	0x3d7f6f1f	0.062361833
9	0x3d6be6b5	0.057593066
10	0x39080c9b	0.00012974667
11	0x3ce901df	0.028443275
12	0xbd239b93	-0.03994329
13	0xbc39d83c	-0.011343058
14	0x3da75aa4	0.08171585
15	0xbd86d667	-0.06583863
16	0xbda8ed7c	-0.082484215
17	0x3d314da5	0.04328694
18	0x3d8b1baf	0.067923896
19	0x3c268172	0.010162698

weight f4 [20, 20]
0	0xbdafea1e	-0.08589576
1	0x3d938c40	0.07204485
2	0xbea102a6	-0.31447333
3	0xbdb74694	-0.089490086
4	0xbd7ca171	-0.0616774
5	0xbd564d2b	-0.052319687
6	0x3e89506e	0.26819175
7	0xbdc514a0	-0.096230745
8	0x3eacaa9e	0.3372392
9	0x3e76cc04	0.24101263
10	0x3dc3181c	0.09526083
11	0xbdd919aa	-0.10600598
12	0x3ba00475	0.004883344
13	0xbc0e726f	-0.008694275
14	0xbe5d16b1	-0.21590687
15	0x3e95b49c	0.29239357
16	0xbeac2dc0	-0.33628654
17	0x3ebf8375	0.3740498
18	0xbdf54e74	-0.11977854
19	0xbd9bf1c2	-0.07614471
20	0x3e441d7f	0.19151877
21	0x3f011169	0.5041719
22	0x3de19507	0.11014753
23	0x3e2328bf	0.15933512
24	0xbe8afc7e	-0.2714576
25	0x3db8a431	0.09015692
26	0xbe8d9030	-0.2764907
27	0xbe62c3ed	-0.22145052
28	0x3e809fe8	0.25122
29	0x3dca4c07	0.09877782
30	0x3e43db09	0.19126524
31	0xbe4ae559	-0.19814052
32	0xbe5c689e	-0.21524283
33	0xbdb59ba0	-0.08867574
34	0xbd8bdbc2	-0.06829025
35	0x3e1642c4	0.14673907
36	0x3eb2843a	0.34866506
37	0x3dbbdc18	0.09172839
38	0x3e04d618	0.12972295
39	0x3d0f0581	0.03491736
40	0xbebdd13f	-0.37073705
41	0xbe199f86	-0.1500226
42	0x3eef4580	0.46732712
43	0x3e148ab3	0.14506035
44	0x3d0360fc	0.032074913
45	0x3da046b5	0.07825986
46	0xbe25fb2f	-0.162091
47	0x3e28a811	0.16470362
48	0x3dcc5997	0.099780254
49	0x3dcd4ae7	0.10024052
50	0x3d2869b6	0.04111644
51	0x3e514086	0.2043477
52	0xbeb70104	-0.35742962
53	0x3ddb3d63	0.10705068
54	0x3eb0ca26	0.34529227
55	0x3ef26ea0	0.47350025
56	0x3d69561e	0.056966893
57	0x3d6b1a48	0.05739811
58	0xbe5d0bba	-0.21586505
59	0x3dc3958e	0.0955001
60	0x3e23baf9	0.15989293
61	0x3dadfd4e	0.0849558
62	0x3e7acf09	0.2449304
63	0xbec00aa4	-0.37508118
64	0xbd9a2598	-0.07526702
65	0xbe4ea3a0	-0.20179605
66	0xbeb7dd31	-0.35910943
67	0xbd61d214	-0.055131987
68	0xbc4e5619	-0.0125937695
69	0x3e890965	0.2676498
70	0xbe38c4b5	-0.18043788
71	0x3e959c10	0.2922063
72	0xbcab8eec	-0.020942174
73	0x3e247459	0.16060008
74	0x3dab88a8	0.083756745
75	0x3d52fc58	0.051510185
76	0x3e96f751	0.29485562
77	0xbd83a0e5	-0.064271726
78	0xbe1aa2dd	-0.1510119
79	0xbed5cd92	-0.417584
80	0x3e169356	0.14704642
81	0x3bf4a2e9	0.0074657095
82	0x3e4c01f0	0.19922614
83	0x3e4f99d6	0.20273528
84	0x3f4bb702	0.7957612
85	0xbccea5a0	-0.02522546
86	0x3ea25f77	0.3171346
87	0x3e3737b9	0.1789235
88	0x3e0511d8	0.12995088
89	0x3df68f11	0.120390065
90	0xbe915e23	-0.28392133
91	0x3e06cc35	0.13163836
92	0xbe81e2fd	-0.2536849
93	0x3d940745	0.07227949
94	0x3e126dd7	0.14299713
95	0xbefb5cc3	-0.4909421
96	0xbe4d43dd	-0.20045419
97	0x3cfed7ab	0.031108698
98	0x3e2a968d	0.16658993
99	0x3e89ea0a	0.2693637
100	0x3e0d6158	0.13806665
101	0xbe3477dc	-0.17623848
102	0xbe399652	-0.18123749
103	0xbe4387e4	-0.19094807
104	0xbec599c4	-0.38593876
105	0x3e41bbef	0.18919347
106	0x3e995596	0.2994811
107	0x3f1da3db	0.6157815
108	0xbe79388b	-0.24337976
109	0xbe7f9ff6	-0.24963364
110	0x3ea4303c	0.3206805
111	0x3e32e36c	0.17469567
112	0xbed41ee3	-0.41429815
113	0x3e841d84	0.2580377
114	0xbd1f9c3d	-0.03896736
115	0x3e136435	0.14393695
116	0xbdc7d0ac	-0.09756598
117	0xbdc3a6da	-0.09553309
118	0xbd37702b	-0.044784706
119	0x3e902766	0.2815506
120	0xbed1dad0	-0.40987253
121	0x3e2be5bd	0.16786857
122	0xbe13efab	-0.14446895
123	0xbe1bbf4f	-0.15209697
124	0x3c8246fa	0.015902985
125	0x3e4a8f58	0.19781244
126	0xbe071657	-0.13192116
127	0xbe0ffb0e	-0.14060614
128	0xbd1c1ee4	-0.038115397
129	0xbefefbdb	-0.49801525
130	0x3e0c293a	0.13687602
131	0xbe485389	-0.19563116
132	0xbc96b82d	-0.018398369
133	0xbe877af1	-0.26460984
134	0xbe22ff69	-0.15917744
135	0xbe7ba896	-0.24576029
136	0xbe762c7b	-0.24040405
137	0xbd779c87	-0.06045201
138	0x3e5d4b7b	0.21610825
139	0xbdb66753	-0.08906426
140	0x3ed1421d	0.40870753
141	0xbea91882	-0.3302651
142	0x3cf16724	0.029468127
143	0x3e4a752f	0.19771264
144	0xbe82f298	-0.2557571
145	0x3da44054	0.08020082
146	0x3d77799c	0.06041871
147	0xbe26e45b	-0.16298048
148	0xbe21ef13	-0.15813856
149	0xbe0c7ec0	-0.13720226
150	0xbc3a83c2	-0.011383953
151	0xbe52aee1	-0.20574524
152	0xbdd58913	-0.104265355
153	0x3e51da64	0.20493466
154	0xbd8f2797	-0.06989973
155	0x3e383efe	0.1799278
156	0x3ddcdf23	0.107847475
157	0x3ded1753	0.11576714
158	0xbe362c9a	-0.17790452
159	0xbe26210a	-0.16223541
160	0xbdf57d4c	-0.11986789
161	0xbda7f87f	-0.08201694
162	0xbd168a02	-0.03675271
163	0x3d283362	0.041064627
164	0xbd83f834	-0.06443825
165	0xbd386285	-0.04501583
166	0x3e5ff64c	0.21871299
167	0xbd3bb879	-0.045830224
168	0x3d9896c5	0.07450632
169	0x3e4cc006	0.19995126
170	0xbdac585e	-0.08415292
171	0x3de6b5f9	0.11265177
172	0xbcc53372	-0.024072383
173	0x3e4b400d	0.19848652
174	0x3d862235	0.06549493
175	0xbee25d72	-0.44211918
176	0xbe1c1d73	-0.15245609
177	0x3cda5e7b	0.02665638
178	0xbde1371e	-0.10996841
179	0xbea565a4	-0.32304108
180	0x3e7f71f2	0.2494581
181	0x3eaaeb6a	0.33382732
182	0xbe9d7566	-0.3075363
183	0xbec0d84b	-0.37665018
184	0x3de788a0	0.11305356
185	0x3e3a6710	0.18203378
186	0x3e5c0695	0.21486886
187	0x3e96488b	0.2935222
188	0xbe269cda	-0.16270772
189	0xbe34ea01	-0.1766739
190	0xbe597154	-0.21234637
191	0xbc81e194	-0.015854634
192	0x3e10fc1d	0.14158674
193	0xbd69fdb0	-0.0571267
194	0x3e42b42d	0.19014044
195	0x3e9630d6	0.29334134
196	0x3dd955d3	0.10612073
197	0x3d911599	0.070841976
198	0x3e10f3f9	0.14155568
199	0xbe0bdc88	-0.13658345
200	0x3dbd4427	0.09241515
201	0xbe908af7	-0.28231022
202	0xbe29bee3	-0.16576724
203	0xbdc13761	-0.09434391
204	0x3e723a65	0.23655088
205	0xbea0086d	-0.31256428
206	0xbc58dcee	-0.0132362675
207	0x3dfe4e9c	0.12417337
208	0x3e43d21b	0.19123118
209	0x3d028dc8	0.031873494
210	0xbe1b3f90	-0.15160966
211	0xbec7a68f	-0.38994262
212	0x3dc754b3	0.09732952
213	0xbe837d24	-0.25681412
214	0x3e3a53ac	0.18195981
215	0x3cabe13b	0.020981422
216	0x3cece5de	0.028918203
217	0xbe7319b3	-0.23740272
218	0x3ecb775a	0.39739496
219	0x3db7fe44	0.08984044
220	0x3d9ae3f8	0.07563013
221	0xbdf0d350	-0.11759055
222	0x3e971b78	0.29513144
223	0xbdc36d61	-0.09542347
224	0x3e1e0e0c	0.15435046
225	0xbdce4e0e	-0.100734815
226	0xbdc708d5	-0.097184815
227	0xbd043a35	-0.032282073
228	0x3e3d5cb2	0.18492392
229	0x3d8988ee	0.067155704
230	0x3e87d167	0.2652695
231	0xbce232c9	-0.027612107
232	0x3d5ed90c	0.05440621
233	0xbe4fc0f8	-0.20288455
234	0xbd5348f1	-0.051583234
235	0xbe7eae76	-0.24871239
236	0xbe2e8dae	-0.17046234
237	0x3c56bb27	0.013106144
238	0x3e8c264f	0.27372977
239	0x3e00836e	0.12550136
240	0xbe608c2b	-0.2192847
241	0x3ce82c5e	0.028341468
242	0x3e89c40a	0.26907378
243	0x3da40f4e	0.08010732
244	0x3e2b2a09	0.16715254
245	0x3e8b1ed1	0.2717195
246	0x3e030b7e	0.12797353
247	0xbc143742	-0.009046378
248	0xbee64baa	-0.44979602
249	0xbeeaabad	-0.45834103
250	0x3c8c4eeb	0.017127475
251	0xbd54ad81	-0.05192328
252	0x3e68e534	0.22743684
253	0xbe272701	-0.16323473
254	0xba3b5766	-0.0007146507
255	0x3d58e96f	0.052956995

bias f4 [20]
0	0x3d05b01a	0.032638647
1	0x3c17aef1	0.009258018
2	0xbd0f79e1	-0.035028342
3	0xbd5db122	-0.054124005
4	0x3d65a2ba	0.05606339
5	0x3c5606f3	0.01306318
6	0x3c00eb14	0.007868547
7	0xbcb8ce9f	-0.022559462
8	0x3c90d367	0.01767893
9	0xbb54f607	-0.0032495277
10	0x3b18907a	0.0023279474
11	0x3d967f57	0.07348507
12	0xbd842607	-0.06452566
13	0xbad7e447	-0.001647123
14	0xbc3e8d79	-0.011630409
15	0x3d363445	0.04448344
16	0xbd285e4b	-0.04110555
17	0x3d074d66	0.033032797
18	0x3c9be124	0.019028254
19	0xbc8e031d	-0.017335469
