Models/Noise_5/toy_stop/internal_o3_100.pt (torch, 59679 bytes, 23 tensors)

weight f4 [20, 2]
-0.5160992 0.3776997 -1.0492557 -0.0471898 -0.020142553 0.022490427 0.6275328 0.4778625
-0.14336148 -0.99789244 0.5251626 -0.8359707 0.2580248 0.1491615 0.3835075 -0.21206634
-0.3358065 -0.09958904 -0.3483281 0.06623958 0.16851532 0.27214202 -0.2546549 -0.048720937
-0.38321394 -1.0280013 -0.04794639 0.08371324 -0.21470854 -0.062484838 0.8004696 0.063825406
-0.34754986 -2.3763134 -1.2494198 -0.105854206 -0.31833705 0.19244984 -0.8609746 0.24035668
00000000: 141f 04bf db61 c13e 034e 86bf 174a 41bd
00000010: ff01 a5bc d83d b83c fda5 203f 65aa f43e
00000020: 5acd 12be e175 7fbf 0e71 063f 2d02 56bf
00000030: d41b 843e cbbd 183e 185b c43e eb27 59be
00000040: d4ee abbe 57f5 cbbd 1058 b2be 9ea8 873d
00000050: 488f 2c3e 3356 8b3e 2162 82be 9b8f 47bd
00000060: 9e34 c4be 8c95 83bf 6f63 44bd d971 ab3d
00000070: 8edc 5bbe 1af0 7fbd 93eb 4c3f e5b6 823d
00000080: 0ef2 b1be 8515 18c0 fdec 9fbf 17ca d8bd
00000090: 13fd a2be 9211 453e d568 5cbf 1020 763e

bias f4 [20]
-0.36832905 -0.43800774 0.09660968 -0.7878248 0.21234562 -0.45080838 0.64707077 -0.15680934
0.75379914 0.51301664 -0.09647151 -0.04211408 -0.21686974 0.36573887 1.0690669 -0.9633418
0.31655142 -0.24242976 0.07143176 -0.24297373
00000000: a095 bcbe 8d42 e0be 4cdb c53d e3ae 49bf
00000010: 2171 593e 5bd0 e6be 6ea6 253f a192 20be
00000020: fbf8 403f 0f55 033f db92 c5bd d07f 2cbd
00000030: 1a13 5ebe 2042 bb3e 2fd7 883f 919d 76bf
00000040: 0713 a23e 823f 78be d14a 923d 1bce 78be

weight f4 [20, 20]
0.21169771 0.13482405 -0.03753185 -0.26730222 0.21761842 -0.031940013 0.2931335 0.16566536
0.27277085 0.4537085 0.29408437 -0.02208666 0.18941121 0.32561946 0.53550744 -0.3431077
-0.18290818 -0.015482751 -0.19137809 0.0038272927 0.33761483 0.33192682 0.10682888 -0.25516832
-0.04786927 -0.37412944 -0.4336076 -0.16823366 0.112603374 0.006520755 -0.07569473 -0.09346454
-0.10144685 0.21418412 -0.29735407 0.2211652 0.22336091 0.52291644 0.004511687 0.04475159
0.35016388 0.078863695 -0.24135862 -0.39329293 0.5935837 0.039606735 -0.15191242 0.2943906
0.10712286 -0.343293 -0.1922066 0.21380918 -0.14096768 -0.09914264 -0.06669653 0.11838318
0.21939768 -0.20405817 0.045146577 -0.39886987 0.3844251 0.2673035 -0.27580446 0.13291398
0.034087315 0.16057847 -0.27031535 -0.06522 0.06856687 0.18652229 0.094024986 0.23281077
0.2912121 -0.0046357536 0.17119144 -0.039742276 -0.33607608 0.047052417 0.35281157 0.49436027
0.4032474 0.30532065 0.021681592 0.44412097 -0.5271962 -0.6020244 0.31648523 -0.120846085
0.39119056 0.14481716 0.17509435 0.061082527 -0.20297211 -0.06487402 -0.06571417 -0.06498622
-0.8028903 0.05510451 0.12640032 0.3377497 -0.024149984 0.28066784 0.27156618 0.03374521
0.04473641 0.1087198 -0.11836512 -0.30489662 0.16277243 -0.12617029 0.11772236 -0.042168163
-0.33413592 -0.2061074 0.61548156 -0.16625315 -0.4215941 0.18763001 0.24194299 0.32857203
-0.48339498 -0.266947 -0.111647815 0.31147808 -0.23362811 -0.5691443 0.16484591 0.07912967
0.17701948 -0.38049257 0.22494535 -0.14969613 -0.08441475 -0.12017103 0.1613819 0.21488257
-0.2885501 -0.5696867 0.015287054 -0.31982225 0.11175803 0.32952812 0.072742574 0.23016824
0.2768136 0.29720342 -0.4895622 0.121523425 -0.061745606 -0.17520502 0.07661238 0.2099342
0.32375172 -0.4606738 0.014532056 -0.05562262 -0.0137550635 -0.35028926 -0.16956834 0.22307174
0.1478542 -0.11342381 -0.1716662 0.34187654 -0.35251692 0.25986817 -0.37890097 -0.11878435
-0.2653289 -0.24550654 0.13930692 0.2099165 0.23089847 -0.27181175 -0.022732243 0.5398557
0.28338438 0.06916814 0.21332139 -0.07124284 0.048936475 -0.056556575 0.18144612 0.3914715
0.44298878 0.46641377 0.09014218 0.17039184 0.42667726 -0.0031631007 0.11373404 -0.22798988
-0.05304012 0.082406394 -0.1461238 0.15706632 0.74658626 -0.30862617 -0.19954848 -0.039377034
-0.2590957 -0.10377386 -0.42626625 0.23473018 -0.060483675 0.17333417 -0.4290085 0.17280465
0.272728 -0.80325735 -0.12187321 -0.03460119 -0.33123487 -0.49061573 -0.13224004 0.59135807
-0.37860128 -0.27685544 0.106750034 -0.29153937 -0.48025548 0.08237142 0.07335366 0.4784124
-0.11694704 0.21115044 -0.017567044 -0.21181555 -0.13072667 0.241648 0.07550166 0.5465545
-0.1346317 -0.2700599 0.25223315 -0.049878623 -0.040395297 -0.29377484 0.24214646 -0.0038970362
-0.13285255 0.42833996 0.42813933 -0.43655163 -0.34928393 0.40187097 0.030933032 -0.16685034
0.008148753 0.38528436 -0.13569152 0.22889346 0.1707137 0.12512857 -0.098962344 0.07799786
00000000: 49c7 583e 510f 0a3e ffba 19bd d6db 88be
00000010: 5dd7 5e3e 88d3 02bd 9815 963e 2ea4 293e
00000020: 9fa8 8b3e 7b4c e83e 3a92 963e 15ef b4bc
00000030: 03f5 413e 98b7 a63e 0417 093f d0ab afbe
00000040: 484c 3bbe 5dab 7dbc 9ef8 43be 51d3 7a3b
00000050: dadb ac3e 50f2 a93e 1ac9 da3d 6ca5 82be
00000060: 9112 44bd e58d bfbe d101 debe 7245 2cbe
00000070: 999c e63d 0fac d53b d705 9bbd 566a bfbd
00000080: 5ec3 cfbd 1553 5b3e cb3e 98be 2179 623e
00000090: b9b8 643e dadd 053f c6d6 933b 714d 373d
000000a0: ae48 b33e 4a83 a13d b726 77be b15d c9be
000000b0: 1af5 173f ac3a 223d ee8e 1bbe 5dba 963e
000000c0: 3b63 db3d 1ac4 afbe cfd1 44be cbf0 5a3e
000000d0: d559 10be 4c0b cbbd 3198 88bd e172 f23d
000000e0: c9a9 603e a0f4 50be 9eeb 383d ac38 ccbe
000000f0: 5ed3 c43e 01dc 883e 3e36 8dbe 9a1a 083e
00000100: 249f 0b3d af6e 243e c666 8abe 1092 85bd
00000110: ca6c 8c3d b3ff 3e3e 2c90 c03d f265 6e3e
00000120: c119 953e 85e7 97bb cf4c 2f3e ccc8 22bd
00000130: 2a12 acbe 09ba 403d b8a3 b43e ca1c fd3e
00000140: 7176 ce3e fd52 9c3e 989d b13c d363 e33e
00000150: 55f6 06bf 451e 1abf 5a0a a23e 277e f7bd
00000160: 214a c83e f34a 143e ef4b 333e ac31 7a3d
00000170: ecd7 4fbe acdc 84bd 2795 86bd 7f17 85bd
00000180: 388a 4dbf 44b5 613d 166f 013e 87ed ac3e
00000190: 30d6 c5bc b2b3 8f3e b90a 8b3e 6b38 0a3d
000001a0: 873d 373d 7da8 de3d 6969 f2bd 691b 9cbe
000001b0: d1ad 263e c932 01be 6c18 f13d 86b8 2cbd
000001c0: dd13 abbe d10d 53be 3390 1d3f 443e 2abe
000001d0: 2fdb d7be 1522 403e e7bf 773e 983a a83e
000001e0: 8c7f f7be 47ad 88be 9ca7 e4bd 0e7a 9f3e
000001f0: 353c 6fbe 71b3 11bf 5ecd 283e bd0e a23d
00000200: 9844 353e eccf c2be 1358 663e f149 19be
00000210: a4e1 acbd 3b1c f6bd 4c41 253e 2d0a 5c3e
00000220: d7bc 93be fdd6 11bf 8d76 7a3c bebf a3be
00000230: 65e1 e43d e9b7 a83e 0ffa 943d 39b1 6b3e
00000240: 83ba 8d3e 0c2b 983e e6a7 fabe 46e1 f83d
00000250: f6e8 7cbd f268 33be f4e6 9c3d fef8 563e
00000260: c9c2 a53e 70dd ebbe dc17 6e3c 8bd4 63bd
00000270: eb5c 61bc 1d59 b3be 53a3 2dbe eb6c 643e
00000280: 1767 173e be4a e8bd 44c9 2fbe 710a af3e
00000290: 197d b4be 710d 853e 4fff c1be 3645 f3bd
000002a0: 31d9 87be 1166 7bbe 79a6 0e3e 5af4 563e
000002b0: a670 6c3e e92a 8bbe f838 babc fc33 0a3f
000002c0: c217 913e 07a8 8d3d ec70 5a3e c4e7 91bd
000002d0: 9d71 483d dea7 67bd 03cd 393e f46e c83e
000002e0: 6dcf e23e c9cd ee3e 779c b83d 337b 2e3e
000002f0: 7175 da3e 064c 4fbb 64ed e83d 2e76 69be
00000300: 9940 59bd afc4 a83d 7aa1 15be fed5 203e
00000310: 4720 3f3f 4004 9ebe 7056 4cbe d049 21bd
00000320: 31a8 84be 6487 d4bd 923f dabe 1c5d 703e
00000330: bbbd 77bd 837e 313e 01a7 dbbe b4f3 303e
00000340: 01a3 8b3e 46a2 4dbf a998 f9bd fab9 0dbd
00000350: 9e97 a9be fc31 fbbe ef69 07be 3e63 173f
00000360: 07d8 c1be ffbf 8dbe c39f da3d a644 95be
00000370: 0ce4 f5be 59b2 a83d 723a 963d 78f2 f43e
00000380: ee81 efbd d237 583e c3e8 8fbc 2de6 58be
00000390: 36dd 05be 9372 773e 9da0 9a3d ffea 0b3f
000003a0: e4dc 09be 4b45 8abe b424 813e 874d 4cbd
000003b0: 8a75 25bd a869 96be 3ef5 773e 6b65 7fbb
000003c0: 800a 08be 604f db3e 1435 db3e b283 dfbe
000003d0: 58d5 b2be 08c2 cd3e 4567 fd3c d1da 2abe
000003e0: 5982 053c fe43 c53e b8f2 0abe 0c63 6a3e
000003f0: 92cf 2e3e b421 003e c5ac cabd 58bd 9f3d

bias f4 [20]
0.7887064 0.076651655 0.12107073 -0.2153912 -0.15509522 0.06036461 -0.029426856 -0.53576326
-0.94668055 -0.032741357 -0.6606467 0.048605252 -0.09942434 -0.13712627 -0.67243004 0.49475518
0.08430478 -0.28646287 0.46124417 -0.15540251
00000000: aae8 493f 8bfb 9c3d eef3 f73d 838f 5cbe
00000010: 48d1 1ebe e240 773d 9710 f1bc c827 09bf
00000020: a859 72bf cd1b 06bd 2420 29bf 4d16 473d
00000030: fd9e cbbd d46a 0cbe 6024 2cbf 8d50 fd3e
00000040: fca7 ac3d 43ab 92be 3228 ec3e d621 1fbe

weight f4 [20, 20]
0.30956936 -0.53128207 0.17826602 -0.034009665 -0.046956856 -0.18853678 0.16528054 0.35245678
-0.8121629 0.36473018 0.21447308 0.37750643 -0.18622124 -0.09113442 0.19640735 -0.45033047
0.5177196 -0.29639292 0.2400564 -0.19450651 0.16608721 -0.019408345 0.038479798 0.051449534
-0.05638529 0.23185597 0.23446658 -0.2104778 0.035613015 0.30232477 -0.23764914 0.36261436
-0.0837902 -0.0025925916 0.008312402 0.36393523 0.03595229 0.52963525 0.33889717 0.11516675
-0.40182933 0.21914104 -0.1363827 -0.3303159 0.52161133 0.18407373 0.69280756 -0.087969534
0.22447312 0.22397934 -0.27280417 0.11020444 -0.26741058 -0.29505083 -0.087356605 0.38860247
0.30809015 0.17985398 -0.35696945 0.10294089 0.30079502 0.0945097 -0.06765586 -0.29601473
-0.043254383 -0.20993224 -0.6383521 -0.4791833 -0.44123796 -0.02439191 -0.1351061 0.13601102
-0.37722337 -0.19281736 -0.2841048 -0.104032196 0.024673346 -0.2543537 0.050211262 0.48704386
0.23645775 -0.13651286 0.11207681 -0.11877356 0.098983385 -0.3244182 -0.0867878 -0.1932577
0.20325266 0.20938934 -0.5314229 -0.26374415 -0.20698297 -0.71676284 0.43598643 0.21207355
-0.1453692 -0.13677388 0.36353922 0.3611873 -0.17083155 -0.18654504 0.19477902 -0.1789277
-0.5025413 -0.022373639 -0.04201815 -0.30930847 0.0449047 0.13790278 -0.43694112 -0.15172774
0.27296224 0.144479 0.4431289 0.004854381 0.09485026 0.0515731 0.50615054 -0.3358486
0.050312914 -0.12571038 0.12553483 0.3937575 -0.18910508 -0.17320697 -0.17708163 0.43704337
0.23690936 0.17730397 0.2620461 0.06076848 -0.19452402 0.3602213 0.040264204 0.3298044
0.28430572 -0.30569124 -0.20368193 0.26663104 -0.08699179 0.15814961 -8.7529e-05 0.13085808
-0.08243121 -0.040236983 -0.24109474 0.2826126 0.24721427 0.22607861 0.029055921 -0.095047414
-0.14705119 -0.14317673 0.00423348 0.12399331 -0.11120293 0.3818131 0.12211795 0.1504647
-0.013876069 -0.062168892 -0.30285916 0.48796937 0.39257136 0.22258095 -0.011048682 -0.049186878
0.16292404 -0.1491632 0.06430796 0.22365122 -0.14467764 -0.21573 0.20414707 -0.12678824
-0.13390405 -0.27457324 0.25083062 -0.45922711 0.41384575 -0.1009784 -0.27589336 -0.111062646
-0.0051044915 0.36836135 -0.44293022 0.18135944 -0.028264605 0.08002481 -0.038156115 0.27006793
0.049900454 -0.03035994 -0.19270061 0.38824686 0.027238423 0.2336102 0.13800737 -0.11996348
0.24687475 0.0072592883 0.17185217 -0.0952376 0.060805127 0.10471217 0.12035884 -0.1864181
-0.26047105 0.22239609 -0.1890988 0.1904751 -0.061271776 0.12495887 -0.48816645 0.22974104
0.10145772 -0.3772494 -0.1548334 -0.25628734 -0.022498239 0.103967324 -0.2526461 -0.3113022
0.3159401 -0.19191787 0.11894486 -0.14322446 -0.35467687 0.26795262 -0.33971065 0.104651466
0.3818953 0.20655228 -0.09503788 0.3204392 0.20217106 0.63946897 -0.31336766 0.18236415
-0.34859863 0.11168621 -0.17906433 0.08835902 0.22693883 -0.41493633 -0.03140208 0.35809308
0.06879684 0.01470176 0.2908789 -0.19475555 -0.34341848 -0.40269667 0.28926226 -0.9144371
00000000: e07f 9e3e 1a02 08bf 5e8b 363e b84d 0bbd
00000010: d555 40bd c90f 41be 4d3f 293e 3775 b43e
00000020: e8e9 4fbf eabd ba3e d59e 5b3e 8648 c13e
00000030: c8b0 3ebe afa4 babd 021f 493e b791 e6be
00000040: 4689 043f d0c0 97be 58d1 753e b72c 47be
00000050: c412 2a3e 40fe 9ebc fe9c 1d3d bfbc 523d
00000060: 43f4 66bd a76b 6d3e 0218 703e 7e87 57be
00000070: f4de 113d 50ca 9a3e 4c5a 73be 97a8 b93e
00000080: 329a abbd 78e8 29bb be30 083c b855 ba3e
00000090: b542 133d 2d96 073f ee83 ad3e 8cdc eb3d
000000a0: 93bc cdbe 8266 603e e8a7 0bbe 2a1f a9be
000000b0: 5288 053f d37d 3c3e d65b 313f 5f29 b4bd
000000c0: 48dc 653e d75a 653e fdac 8bbe deb2 e13d
000000d0: 0aea 88be e710 97be 05e8 b2bd e7f6 c63e
000000e0: febd 9d3e a42b 383e b3c4 b6be acd2 d23d
000000f0: ce01 9a3e 4d8e c13d 288f 8abd 3e8f 97be
00000100: 822b 31bd 7af8 56be 0b6b 23bf 8357 f5be
00000110: f1e9 e1be 8bd1 c7bc 4159 0abe 7946 0b3e
00000120: 6c23 c1be ea71 45be 2f76 91be d50e d5bd
00000130: c21f ca3c a63a 82be 53aa 4d3d d05d f93e
00000140: fb21 723e 07ca 0bbe 8788 e53d 8d3f f3bd
00000150: cdb7 ca3d 241a a6be cdbd b1bd 59e5 45be
00000160: 7721 503e 296a 563e 550b 08bf 7909 87be
00000170: 58f3 53be c57d 37bf 9d39 df3e cf29 593e
00000180: aadb 14be 740e 0cbe d021 ba3e 8bed b83e
00000190: 77ee 2ebe aa05 3fbe 2774 473e d338 37be
000001a0: 8ca6 00bf ec48 b7bc 391b 2cbd ae5d 9ebe
000001b0: feed 373d 6336 0d3e bfb6 dfbe 845e 1bbe
000001c0: b5c1 8b3e 4ef2 133e cbe1 e23e 8011 9f3b
000001d0: da40 c23d 513e 533d 1593 013f 59f4 abbe
000001e0: ea14 4e3d 39ba 00be 348c 003e 959a c93e
000001f0: c3a4 41be 2b5d 31be e354 35be 26c4 df3e
00000200: 5e98 723e 2c8f 353e e82a 863e 5fe8 783d
00000210: 4e31 47be ed6e b83e 14ec 243d 1fdc a83e
00000220: 8590 913e 9083 9cbe ff91 50be dd83 883e
00000230: c028 b2bd f9f1 213e c68f b7b8 a9ff 053e
00000240: b2d1 a8bd 89cf 24bd 8ae1 76be 99b2 903e
00000250: bd25 7d3e 2781 673e af06 ee3c 38a8 c2bd
00000260: 9694 16be ec9c 12be 01b9 8a3b 34f0 fd3d
00000270: 5dbe e3bd 027d c33e fa18 fa3d 6b13 1a3e
00000280: 7458 63bc cfa4 7ebd 5b10 9bbe 1fd7 f93e
00000290: 1dff c83e 43ec 633e 8805 35bc 2e78 49bd
000002a0: 8fd5 263e 3dbe 18be e4b3 833d d304 653e
000002b0: 6026 14be 53e8 5cbe ee0b 513e c7d4 01be
000002c0: 251e 09be dd94 8cbe df6c 803e d11f ebbe
000002d0: 97e3 d33e c3cd cebd e541 8dbe d074 e3bd
000002e0: 9443 a7bb dc99 bc3e c0c7 e2be 4ab6 393e
000002f0: 2c8b e7bc 0ce4 a33d 9649 1cbd 5846 8a3e
00000300: 6b64 4c3d 69b5 f8bc 4f53 45be 4bc8 c63e
00000310: 1d23 df3c 8337 6f3e ce51 0d3e 6aaf f5bd
00000320: bccc 7c3e 53df ed3b 04fa 2f3e ee0b c3bd
00000330: cc0e 793d 5673 d63d b27e f63d 63e4 3ebe
00000340: 765c 85be cdbb 633e 1ea3 41be e80b 433e
00000350: 1df8 7abd 70ea ff3d f4f0 f9be 3c41 6b3e
00000360: 11c9 cf3d d526 c1be a68c 1ebe 1838 83be
00000370: 3a4e b8bc d2ec d43d d45a 81be 0163 9fbe
00000380: e7c2 a13e 1e86 44be 5d99 f33d 6fa9 12be
00000390: 3598 b5be 1631 893e 8eee adbe 8253 d63d
000003a0: c887 c33e 7182 533e 38a3 c2bd 9b10 a43e
000003b0: ee05 4f3e 3db4 233f ba71 a0be abbd 3a3e
000003c0: 857b b2be bdbb e43d a45c 37be 93f5 b43d
000003d0: a762 683e 8972 d4be 789f 00bd fa57 b73e
000003e0: 5ce5 8c3d a7df 703c 14ee 943e 006e 47be
000003f0: 8cd4 afbe 422e cebe 2f1a 943e 8d18 6abf

bias f4 [20]
0.19693156 0.16413368 0.00942456 0.23530045 -0.03712557 -0.17397945 -0.23087952 -0.1897709
0.024220588 -0.031456895 0.2938373 0.16422878 -0.18051237 -0.0052134963 -0.10522088 0.4384061
-0.35402593 -0.21600455 0.109989256 -0.23893477
00000000: 6da8 493e a912 283e 7869 1a3c 9af2 703e
00000010: fb10 18bd ab27 32be ae6b 6cbe 4e53 42be
00000020: 416a c63c f2d8 00bd d871 963e 972b 283e
00000030: 3cd8 38be fad5 aabb 0b7e d7bd c476 e03e
00000040: e342 b5be 4c30 5dbe 0c42 e13d 51ab 74be

weight f4 [20, 20]
-0.21053563 0.18639277 0.6706109 -0.18852942 0.45497164 0.095211744 0.09543026 -0.111494996
0.26540962 0.020016186 0.06404169 0.23265043 -0.075746045 0.25031456 -0.101740316 -0.22304434
0.29966936 0.23082978 0.5941607 0.04727609 -0.04030193 0.049583063 -0.07881415 0.070359714
0.18906604 0.79698694 0.23229429 0.1513508 -0.2981939 0.18901917 -0.4078306 -0.106606044
-0.5741967 0.5494109 -0.15711047 -0.56088465 0.3299151 -0.040731803 0.11045343 -0.16436402
-0.49573016 -0.30421308 0.110463805 0.0035709755 -0.4327521 0.46073854 -0.55490696 0.29076856
0.11625701 0.6463471 -0.17607662 0.014912332 -0.31449422 0.061574936 0.42065078 -0.3930282
-0.31504303 0.24041073 0.15836339 0.32860962 -0.08567689 -0.0016785146 -0.2531144 0.2979846
0.11377297 0.085450046 0.15161885 0.16229118 -0.18344176 0.26332852 0.38949502 -0.51324517
-0.08507511 0.4098449 -0.023945954 0.21566728 -0.3343301 0.41477886 0.105148084 -0.77873975
0.63462067 -0.4117968 -0.5058263 0.009497556 0.20196739 0.21647362 0.039539244 0.04582521
0.05816242 -0.2582272 0.10208949 -0.37953585 0.032645203 0.21332046 -0.14793223 -0.0559502
-0.18746565 -0.36808494 -0.61243206 -0.28701243 -0.0016771739 0.03680667 0.14373033 0.055929113
0.32607126 -0.346627 -0.1779106 -0.24878214 0.24089287 -0.15970626 -0.12026824 -0.40646258
0.18960987 0.2373308 -0.80281776 0.15404493 -0.19813614 0.2721034 0.055070058 0.14786072
-0.15123628 0.35395357 0.045561142 -0.14023656 -0.3743852 0.5326789 -0.04239615 0.119209126
-0.1997258 0.3818096 -0.3072434 -0.29664424 0.09665668 -0.36605993 0.5342633 -0.1391614
0.5432145 -0.017024446 0.15884657 -0.2251789 -0.26769793 -0.3398946 -0.45416206 0.1094293
-0.897012 0.5198227 0.35447124 0.35300404 -0.042254694 -0.14579546 0.26031482 -0.3427342
0.5614918 -0.4860452 -0.07206595 0.05475238 0.09940129 -0.22591789 -0.29534113 -0.12003715
0.2970787 -0.15270776 -0.35839936 -0.24602202 0.22083718 0.18927917 -0.1600779 -0.10640908
0.031081285 -0.07869621 0.09462746 -0.15182038 0.3533601 0.19387642 0.20306168 0.13230173
-0.24407193 -0.30631155 0.16836378 -0.099816926 0.27408662 0.0578344 -0.023702053 -0.30738616
-0.20986378 -0.13593078 -0.14637095 0.27405247 0.012403951 0.33562976 -0.31076497 -0.009874961
-0.2588931 -0.001637821 0.5471142 -0.31688985 -0.08326886 -0.31562367 0.00039807425 0.22625257
0.20613728 0.1263393 -0.06662756 0.09527063 -0.09300407 0.046703883 0.15837045 -0.030240096
0.3790543 -0.09068464 -0.2991321 -0.36277795 0.57939774 0.21084177 0.0016751027 -0.1758995
-0.13752931 -0.14006634 -0.20432861 -0.070433594 -0.012280019 -0.0023480288 0.049454503 -0.17249991
-0.2128535 0.50019616 0.101861164 -0.009712404 -0.4168566 -0.30379066 -0.29102048 -0.26558495
-0.22463568 -0.114152804 0.0844446 -0.18641947 0.25334388 0.12976243 -0.18446915 -0.10362761
0.25810263 -0.336673 -0.07671908 0.004704613 -0.30421725 -0.15500526 0.30867937 -0.11512811
0.23044464 0.021124713 -0.19517604 -0.17427465 0.0060814843 -0.030985082 0.60540825 0.36468172
00000000: a796 57be bfdd 3e3e 28ad 2b3f db0d 41be
00000010: 0bf2 e83e 60fe c23d f170 c33d 7d57 e4bd
00000020: c5e3 873e fcf8 a33c 4a28 833d ea3b 6e3e
00000030: be20 9bbd 3b29 803e 3a5d d0bd bc65 64be
00000040: 436e 993e a45e 6c3e ea1a 183f 93a4 413d
00000050: a313 25bd 9c17 4b3d 5069 a1bd c118 903d
00000060: 879a 413e 5607 4c3f 8ede 6d3e b4fb 1a3e
00000070: dfac 98be 3e8e 413e 2ccf d0be 4554 dabd
00000080: 8efe 12bf 31a6 0c3f 91e1 20be 2396 0fbf
00000090: a2ea a83e 64d6 26bd 6835 e23d 0b4f 28be
000000a0: 58d0 fdbe d1c1 9bbe d93a e23d 0707 6a3b
000000b0: af91 ddbe ece5 eb3e 620e 0ebf 9edf 943e
000000c0: 2818 ee3d 0177 253f 6e4d 34be db52 743c
000000d0: 6305 a1be 0036 7c3d 8a5f d73e fe3a c9be
000000e0: 524d a1be 3b2e 763e 032a 223e 853f a83e
000000f0: 5e77 afbd 9b01 dcba 3698 81be 7091 983e
00000100: ce01 e93d 6f00 af3d f941 1b3e a92f 263e
00000110: 28d8 3bbe ffd2 863e e46b c73e 0964 03bf
00000120: dc3b aebd 31d7 d13e 4e2a c4bc e2d7 5c3e
00000130: 512d abbe e55d d43e e157 d73d 7d5b 47bf
00000140: 8076 223f 08d7 d2be d57d 01bf a39b 1b3c
00000150: 8ad0 4e3e 43ab 5d3e e7f3 213d 37b3 3b3d
00000160: b83b 6e3d 5b36 84be 4b14 d13d 8652 c2be
00000170: fab6 053d ae70 5a3e 8c7b 17be 092c 65bd
00000180: fff6 3fbe a175 bcbe 59c8 1cbf 4bf3 92be
00000190: 9ed4 dbba 97c2 163d 0b2e 133e ed15 653d
000001a0: d0f2 a63e 1879 b1be 322e 36be bfc0 7ebe
000001b0: 9fac 763e 0a8a 23be 324f f6bd dd1b d0be
000001c0: 1729 423e d806 733e 7785 4dbf f4bd 1d3e
000001d0: 33e4 4abe 2351 8b3e 2491 613d cd68 173e
000001e0: afdd 1abe 6739 b53e 529e 3a3d 2c9a 0fbe
000001f0: 6baf bfbe a55d 083f 96a7 2dbd ea23 f43d
00000200: ec84 4cbe 8c7c c33e 024f 9dbe c1e1 97be
00000210: f0f3 c53d 356c bbbe 7bc5 083f 5380 0ebe
00000220: 1b10 0b3f da76 8bbc ada8 223e 4c95 66be
00000230: b40f 89be aa06 aebe ee87 e8be 781c e03d
00000240: 94a2 65bf 1a13 053f 417d b53e f2bc b43e
00000250: 4213 2dbd 684b 15be fc47 853e db7a afbe
00000260: edbd 0f3f ebda f8be 5097 93bd 0844 603d
00000270: e792 cb3d 0557 67be f436 97be 0ad6 f5bd
00000280: b31a 983e 6c5f 1cbe 1f80 b7be 32ed 7bbe
00000290: 2423 623e 66d2 413e 76eb 23be 01ed d9bd
000002a0: 2e9e fe3c 7b2b a1bd 0bcc c13d cd76 1bbe
000002b0: 9deb b43e 8a87 463e 67ef 4f3e 1b7a 073e
000002c0: feed 79be ded4 9cbe 8e67 2c3e d16c ccbd
000002d0: 1555 8c3e c4e3 6c3d cf2a c2bc b861 9dbe
000002e0: 88e6 56be 7031 0bbe 44e2 15be 9b50 8c3e
000002f0: f139 4b3c aad7 ab3e 961c 9fbe 97ca 21bc
00000300: a38d 84be 27ac d6ba ad0f 0c3f 633f a2be
00000310: dd88 aabd 6d99 a1be 9fb4 d039 c1ae 673e
00000320: a715 533e 175f 013e 0874 88bd 401d c33d
00000330: eb78 bebd 924c 3f3d dd2b 223e 14ba f7bc
00000340: 6813 c23e deb8 b9bd d827 99be 08be b9be
00000350: 6953 143f e8e6 573e 1f8f db3a 001f 34be
00000360: 7cd4 0cbe 8d6d 0fbe 853b 51be 7d3f 90bd
00000370: 2232 49bc 63e1 19bb ce90 4a3d d1a3 30be
00000380: 45f6 59be db0c 003f 969c d03d c620 1fbc
00000390: 3a6e d5be 738a 9bbe a300 95be c0fa 87be
000003a0: e506 66be f2c8 e9bd 4af1 ac3d bfe4 3ebe
000003b0: 4ab6 813e 71e0 043e 7be5 3cbe b63a d4bd
000003c0: 0726 843e 6760 acbe e51e 9dbd 2729 9a3b
000003d0: 5dc2 9bbe b3b9 1ebe 390b 9e3e 49c8 ebbd
000003e0: aef9 6b3e bc0d ad3c 3adc 47be 0e75 32be
000003f0: 3047 c73b 6dd4 fdbc 09fc 1a3f 90b7 ba3e

bias f4 [20]
-0.20896624 -0.13687803 -0.100515835 0.23309395 0.24307317 -0.17480467 -0.022806117 -0.13737924
0.00022265707 -0.13724528 0.18577775 -0.19626133 0.14213607 0.0053800726 -0.0042093396 0.11563854
-0.027780343 -0.12139976 0.17399296 0.020112636
00000000: 3ffb 55be c129 0cbe 3fdb cdbd 2eb0 6e3e
00000010: 2ce8 783e ffff 32be e5d3 babc 25ad 0cbe
00000020: 0d79 6939 078a 0cbe 863c 3e3e bbf8 48be
00000030: 1e8c 113e 524b b03b 80ee 89bb e6d3 ec3d
00000040: 9a93 e3bc 70a0 f8bd 362b 323e 41c3 a43c

weight f4 [20, 20]
-0.049414985 0.12813844 0.027878558 -0.16034009 0.3110595 0.11626698 -0.009307499 0.061297916
0.46250087 0.30450165 0.21243767 0.05329193 0.1300687 -0.18458518 0.1863224 -0.15402487
0.277003 -0.062095 -0.059910286 -0.38809505 0.053786255 -0.27029714 0.13621974 -0.18246253
-0.08403327 -0.08949957 -0.054787144 -0.28816873 0.31284666 -0.19693837 -0.006853835 -0.16978008
-0.14779636 0.05452161 -0.3609263 -0.31813568 -0.1305829 0.341695 0.12490751 0.017704986
0.3962897 0.32892466 -0.3161052 -0.095750324 -0.5231636 -0.10459132 -0.019382099 -0.11279885
-0.08914901 0.05243109 -0.0045086923 -0.061551157 -0.05560783 0.38084775 -0.110273376 0.06542162
-0.007347462 -0.38866058 -0.37086466 0.11907568 -0.25236136 0.2996059 0.16884623 0.08365194
0.1876165 -0.2016302 -0.045995414 0.24440706 0.019871194 -0.050410986 0.0020116814 -0.18055628
0.3555356 0.2716474 0.1835994 0.29837412 -0.10614598 0.36947352 0.07707204 0.089437254
-0.43789542 0.039686628 0.62021273 0.17034775 -0.05075413 -0.109265365 0.06878758 -0.11226348
0.19486076 0.081221126 -0.09199866 -0.046501316 -0.31796327 -0.21232021 -0.33361247 0.0234795
-0.25739932 0.37974468 -0.08481968 -0.08977449 -0.18116593 0.06209043 -0.088496104 0.07869661
0.41775906 0.0052707926 -0.45792288 0.0805229 0.096867815 -0.341233 -0.3827618 -0.29677767
-0.007110326 0.29963997 -0.01139071 0.6731308 -0.12887086 -0.11351904 -0.3503682 -0.17129715
0.29219168 -0.2911152 0.13861534 -0.31893882 -0.8308502 0.28496912 -0.09630107 -0.128693
-0.22483206 -0.02883543 -0.41302037 0.024329983 -0.13533731 -0.16505197 0.103623495 -0.12004134
0.46717903 0.111821875 0.1653897 0.1750535 -0.6234468 -0.12335179 0.48768502 -0.027969947
0.02806234 -0.21274126 0.14646389 0.023808721 0.11528726 0.55603373 0.19328335 -0.26891142
0.17190288 -0.1714033 -0.15140684 -0.26151198 -0.41287595 0.33855924 0.16002315 0.005196857
-0.38166898 -0.24081436 0.16733658 0.4048786 -0.04175905 -0.5320599 0.076596774 -0.19112493
0.037633184 0.24250253 0.1479669 -0.18034175 0.10087659 0.26563695 0.18316548 -0.11545886
-0.16549884 0.065393776 -0.23398867 0.12706262 -0.32599938 0.12859663 0.38748947 -0.3696476
-0.19822042 -0.07932107 -0.10252501 0.26355737 -0.039335523 0.39451218 0.33591267 -0.23442098
-0.52774113 0.40048438 -0.15882671 -0.11860165 -0.20362124 0.41680297 0.05811621 -0.088012606
0.122700445 -0.069416925 0.15489933 0.4899785 0.055956945 0.26133662 -0.18451911 -0.20365307
0.16311501 -0.62995887 0.1173625 0.1432896 -0.27232656 -0.028558623 -0.43670928 0.24839579
0.16460441 -0.20567764 0.22941115 -0.160782 -0.47653797 -0.014231326 -0.084545225 0.24604237
-0.24962504 0.06254975 -0.18036684 0.6925778 -0.07972907 -0.17554645 0.015435833 0.086877204
0.27975807 0.19428197 0.11041555 -0.015857369 0.048556168 -0.09617246 -0.026460614 -0.18478787
-0.23550758 -0.17085078 -0.06404693 -0.1460778 -0.30487454 0.32463357 -0.1924227 -0.23408423
0.03402674 -0.07396037 0.0517364 -0.07816258 -0.20767576 0.26212224 -0.33511466 0.14398731
00000000: 5e67 4abd b936 033e 9361 e43c 3130 24be
00000010: 3143 9f3e 621d ee3d 7b7e 18bc 8613 7b3d
00000020: eacc ec3e a4e7 9b3e 4389 593e a448 5a3d
00000030: bb30 053e e603 3dbe 4dcb 3e3e b2b8 1dbe
00000040: 56d3 8d3e 5457 7ebd 7d64 75bd 65b4 c6be
00000050: fa4e 5c3d 6364 8abe 307d 0b3e 75d7 3abe
00000060: a319 acbd 8d4b b7bd 7c68 60bd da8a 93be
00000070: 702d a03e 36aa 49be 2396 e0bb d4da 2dbe
00000080: ee57 17be 0d52 5f3d 55cb b8be aee2 a2be
00000090: 86b7 05be a6f2 ae3e 82cf ff3d 0c0a 913c
000000a0: 7ce6 ca3e d068 a83e 8ad8 a1be bf18 c4bd
000000b0: 0dee 05bf f933 d6bd 35c7 9ebc 1503 e7bd
000000c0: c293 b6bd fcc1 563d a7bd 93bb 111d 7cbd
000000d0: 09c5 63bd 7afe c23e 02d7 e1bd c5fb 853d
000000e0: fac2 f0bb 85fe c6be f9e1 bdbe f3dd f33d
000000f0: 8235 81be f265 993e 07e6 2c3e b551 ab3d
00000100: 8a1e 403e 2678 4ebe b065 3cbd d845 7a3e
00000110: eac8 a23c c07b 4ebd 6ad6 033b bfe3 38be
00000120: c308 b63e 5e15 8b3e 7b01 3c3e 7ec4 983e
00000130: 1063 d9bd a22b bd3e f2d7 9d3d e12a b73d
00000140: d433 e0be 728e 223d 43c6 1e3f a46f 2e3e
00000150: 90e3 4fbd 85c6 dfbd 81e0 8c3d 65ea e5bd
00000160: 9489 473e 4357 a63d cb69 bcbd 2a78 3ebd
00000170: 15cc a2be 786a 59be 41cf aabe 1558 c03c
00000180: d8c9 83be e56d c23e f1b5 adbd b0db b7bd
00000190: 9083 39be 8952 7e3d 723d b5bd b02b a13d
000001a0: 84e4 d53e 9db6 ac3b de74 eabe 31e9 a43d
000001b0: a262 c63d 17b6 aebe 5bf9 c3be 3ef3 97be
000001c0: bdfd e8bb 696a 993e 1aa0 3abc 4d52 2c3f
000001d0: b9f6 03be ac7c e8bd 7663 b3be 8568 2fbe
000001e0: 269a 953e 0d0d 95be 2ef1 0d3e f34b a3be
000001f0: 99b2 54bf 79e7 913e 7f39 c5bd 19c8 03be
00000200: 603a 66be 4838 ecbc 6877 d3be ac4f c73c
00000210: dd95 0abe 6203 29be 8e38 d43d 3cd8 f5bd
00000220: 1732 ef3e de02 e53d eb5b 293e 3a41 333e
00000230: 369a 1fbf dd9f fcbd dab1 f93e 3b21 e5bc
00000240: fee2 e53c d8d8 59be a1fa 153e 820a c33c
00000250: ba1b ec3d 3a58 0e3f 12ec 453e c2ae 89be
00000260: 4f07 303e 5984 2fbe 650a 1bbe e6e4 85be
00000270: 7a64 d3be a357 ad3e 1cdd 233e 654a aa3b
00000280: 1e6a c3be 0a98 76be 485a 2b3e 3f4c cf3e
00000290: 8a0b 2bbd 1435 08bf c5de 9c3d 41b6 43be
000002a0: 4125 1a3d 9552 783e a384 173e 82ab 38be
000002b0: 6398 ce3d 9101 883e bb8f 3b3e b275 ecbd
000002c0: 8778 29be 2ced 853d ba9a 6fbe b41c 023e
000002d0: 64e9 a6be d6ae 033e 0565 c63e 7342 bdbe
000002e0: 4bfa 4abe 1673 a2bd a2f8 d1bd fef0 863e
000002f0: 491e 21bd 80fd c93e bffc ab3e 0e0c 70be
00000300: 0b1a 07bf 4a0c cd3e 78a3 22be 6ce5 f2bd
00000310: 1682 50be 3367 d53e 430b 6e3d f43f b4bd
00000320: 5f4a fb3d 762a 8ebd ee9d 1e3e 76de fa3e
00000330: 1c33 653d eacd 853e 94f2 3cbe 6e8a 50be
00000340: 9f07 273e fc44 21bf c05b f03d 82ba 123e
00000350: 636e 8bbe c6f3 e9bc 5c98 dfbe 775b 7e3e
00000360: 0f8e 283e 299d 52be c2ea 6a3e 09a4 24be
00000370: c9fc f3be 822a 69bc 0c26 adbd 88f2 7b3e
00000380: b59d 7fbe 151a 803d 16b2 38be c74c 313f
00000390: ff48 a3bd 73c2 33be 93e6 7c3c adec b13d
000003a0: 733c 8f3e daf1 463e 8c21 e23d 50e7 81bc
000003b0: d5e2 463d 11f6 c4bd eec3 d8bc 0839 3dbe
000003c0: e628 71be 82f3 2ebe 092b 83bd 6b95 15be
000003d0: 8418 9cbe 5f36 a63e 750a 45be c7b3 6fbe
000003e0: 9f5f 0b3d 8978 97bd 8ce9 533d b413 a0bd
000003f0: f4a8 54be e334 863e 2694 abbe 6971 133e

bias f4 [20]
0.06352692 -0.16596708 0.10586933 0.016788 0.055061467 -0.10834464 -0.65296876 -0.0004943957
0.09144051 0.24038906 0.040929105 0.09512557 -0.118821755 -0.032991648 0.0111877415 0.018484768
0.6074591 -0.19403781 -0.08942479 0.1339567
00000000: 671a 823d 46f3 29be 05d2 d83d fd86 893c
00000010: 2288 613d cbe3 ddbd f628 27bf 559a 01ba
00000020: 2945 bb3d 8d28 763e 47a5 273d 32d1 c23d
00000030: d258 f3bd 4022 07bd ca4c 373c 5e6d 973c
00000040: 7182 1b3f d9b1 46be 5824 b7bd f22b 093e

weight f4 [20, 20]
0.0183298 0.09168868 -0.19930293 0.026064966 -0.103215724 0.4779659 -0.03665257 0.027979428
0.21032603 0.071914546 0.18613598 0.027854659 0.4182008 -0.25401428 -0.0043943254 0.42046005
0.08108725 0.05160667 0.5257768 0.07139016 0.13206315 0.17101759 -0.4248313 -0.09752011
0.12544954 0.22020227 -0.32141852 0.44577134 0.33235165 0.114316516 -0.31643105 -0.12522735
0.15600112 -0.22918688 -0.15891236 -0.2592427 0.3457551 -0.24623881 -0.27224332 0.044805285
-0.2989312 -0.07838295 0.12389359 -0.11044638 -0.36025113 -0.2476431 0.19308469 -0.4111195
-0.287274 0.089623466 -0.2080519 -0.2808326 -0.21303745 0.2878858 0.30645314 0.17915083
0.055517048 0.06785674 -0.196779 -0.0028241002 -0.32817936 -0.010719024 -0.051706698 -0.20683111
-0.14697829 0.025763268 -0.17306125 -0.27591115 -0.19889724 0.241945 0.090947166 0.10345725
0.057047393 0.31684038 0.3266436 0.3058667 -0.43486214 0.15598223 -0.011661166 -0.07320511
-0.1165758 -0.30271247 0.036799695 -0.0668861 -0.47855344 -0.11347946 -0.32225418 -0.36890644
0.091018304 -0.44425672 0.37707692 -0.050790325 -0.22053236 0.09580642 -0.031769305 -0.116467565
0.012394242 0.12342851 -0.0684686 -0.24049059 -0.12978703 0.01791608 -0.6235708 0.14675063
-0.5555895 -0.21010363 -0.05625328 -0.14066537 0.3660377 -0.14005074 -0.11491172 0.3610603
-0.23673715 -0.46567613 -0.09923482 0.25400817 0.28029415 -0.2185848 -0.15998803 0.40100035
-0.13789678 -0.0013788051 -0.11015713 0.21978128 0.26931733 -0.062564954 0.087313965 -0.19778271
0.21452053 -0.011285723 0.17642389 -0.06189861 -0.17620005 -0.03779031 0.28567895 -0.5659107
0.02471794 -0.15343973 -0.047756545 -0.31570855 0.1393925 -0.09013708 -0.061990805 0.2878633
0.21335123 0.017552176 -0.13246135 -0.16145779 0.124829344 -0.03401305 0.059821997 -0.07356081
0.09080535 -0.04400127 -0.0024341696 -0.024259582 0.026648106 0.48705417 -0.45108578 0.10873214
-0.13555947 -0.2121105 -0.12139636 0.41083956 0.3641603 0.14968997 -0.06011344 0.6188704
0.72171146 0.20271827 -0.33979368 -0.030581333 0.008114588 -0.18885112 -0.15324195 0.09438567
0.45266443 -0.2986584 -0.15201108 -0.35395166 -0.179324 -0.46081293 0.19621374 0.4090906
-0.016085677 0.05360633 -0.0019764327 -0.3139822 -0.11084977 -0.10507831 -0.007865656 -0.08008581
-0.31631944 0.11291994 -0.17336193 -0.43417692 0.02143993 -0.0846425 -0.27245903 0.12846307
0.34693623 0.27675855 0.15965499 -0.067002796 -0.034280367 -0.096591845 0.2593149 -0.009839437
-0.05584082 0.34187642 0.040693462 -0.35471097 -0.2926079 0.07813915 -0.15164113 0.22343992
0.0016725666 -0.19042802 0.039995033 -0.22033596 0.2802976 0.14104187 0.58553857 0.1692193
-0.3603698 0.04779951 0.14258374 -0.40939674 -0.06719224 -0.19721527 0.2856026 0.2668929
0.1480692 0.15767138 -0.42099902 0.16115834 0.17072697 -0.11550754 0.24272896 -0.30224454
0.10700168 -0.041914705 0.39303282 -0.18825549 -0.23185566 0.032108113 -0.14843373 -0.34827217
0.099317834 0.3653087 -0.17648025 -0.31226012 0.038402013 0.33284003 0.34346983 0.16303407
00000000: 6028 963c 46c7 bb3d 1116 4cbe 3286 d53c
00000010: c462 d3bd f2b7 f43e 0121 16bd 1d35 e53c
00000020: b55f 573e ef47 933d 6e9a 3e3e 742f e43c
00000030: 6a1e d63e 290e 82be 46fe 8fbb 8a46 d73e
00000040: 1211 a63d 8461 533d 4f99 063f 0135 923d
00000050: 903b 073e 3c1f 2f3e 7d83 d9be a0b8 c7bd
00000060: d875 003e b47c 613e f890 a4be 243c e43e
00000070: ff29 aa3e c71e ea3d 4003 a2be 993b 00be
00000080: c2be 1f3e f7af 6abe ecb9 22be 76bb 84be
00000090: d006 b13e 0726 7cbe 7a63 8bbe bf85 373d
000000a0: 830d 99be 3d87 a0bd ecbb fd3d b631 e2bd
000000b0: d672 b8be 2796 7dbe feb7 453e 417e d2be
000000c0: 9415 93be 828c b73d 8f0b 55be 4ac9 8fbe
000000d0: 7d26 5abe c465 933e 6de7 9c3e 5173 373e
000000e0: d865 633d 79f8 8a3d 6f80 49be 8a14 39bb
000000f0: 2007 a8be d89e 2fbc 67ca 53bd 89cb 53be
00000100: 7a81 16be 7d0d d33c f836 31be 3a44 8dbe
00000110: b8ab 4bbe 6ec0 773e 8242 ba3d 65e1 d33d
00000120: 87aa 693d e738 a23e d43d a73e 8f9a 9c3e
00000130: 40a6 debe ceb9 1f3e 7a0e 3fbc 90ec 95bd
00000140: 4bbf eebd 21fd 9abe 47bb 163d 94fb 88bd
00000150: f504 f5be eb67 e8bd 80fe a4be 4ee1 bcbe
00000160: ce67 ba3d 9e75 e3be 3a10 c13e 8409 50bd
00000170: 3cd3 61be 2836 c43d 8820 02bd 8c86 eebd
00000180: 3811 4b3c 16c8 fc3d 4439 8cbd 2a43 76be
00000190: e4e6 04be bec4 923c 56a2 1fbf cc45 163e
000001a0: 1d3b 0ebf 6825 57be d769 66bd 950a 10be
000001b0: 4b69 bb3e 7669 0fbe d656 ebbd e5dc b83e
000001c0: 396b 72be 1a6d eebe a03b cbbd 5c0d 823e
000001d0: b782 8f3e b2d4 5fbe e7d3 23be eb4f cd3e
000001e0: d034 0dbe 06b9 b4ba 109a e1bd 580e 613e
000001f0: f6e3 893e 0e22 80bd aad1 b23d 8d87 4abe
00000200: 45ab 5b3e c1e7 38bc 77a8 343e 6689 7dbd
00000210: c96d 34be 03ca 1abd 8344 923e 86df 10bf
00000220: 477d ca3c 4e1f 1dbe 5e9c 43bd 8da4 a1be
00000230: e8bc 0e3e ca99 b8bd 12ea 7dbd d262 933e
00000240: bf78 5a3e 95c9 8f3c f3a3 07be 3155 25be
00000250: 87a6 ff3d 4551 0bbd e907 753d 0da7 96bd
00000260: 28f8 b93d ad3a 34bd 9786 1fbb 08bc c6bc
00000270: 214d da3c 2a5f f93e b7f4 e6be f5ae de3d
00000280: 1ad0 0abe 7f33 59be a89e f8bd 9059 d23e
00000290: 3873 ba3e 5448 193e 8339 76bd 4a6e 1e3f
000002a0: 15c2 383f 6195 4f3e 70f9 adbe b485 fabc
000002b0: 0df3 043c 3062 41be 75eb 1cbe 464d c13d
000002c0: a2c3 e73e c1e9 98be cba8 1bbe 2739 b5be
000002d0: b6a0 37be acef ebbe 41ec 483e 5374 d13e
000002e0: 1cc6 83bc 5092 5b3d 0a87 01bb 46c2 a0be
000002f0: 3405 e3bd 4c33 d7bd f4de 00bc 0704 a4bd
00000300: 9ff4 a1be 9242 e73d ca85 31be 704c debe
00000310: cba2 af3c 0c59 adbd c07f 8bbe d38b 033e
00000320: a0a1 b13e 4cb3 8d3e 997c 233e c338 89bd
00000330: 9269 0cbd f2d1 c5bd ecc4 843e 9735 21bc
00000340: 58b9 64bd 6d0a af3e 30ae 263d ad9c b5be
00000350: b4d0 95be 6b07 a03d d047 1bbe 6fcd 643e
00000360: 063a db3a 90ff 42be d5d1 233d c09f 61be
00000370: 2b83 8f3e 486d 103e dbe5 153f d347 2d3e
00000380: 6482 b8be 6bc9 433d 7901 123e 739c d1be
00000390: 169c 89bd cdf2 49be 813a 923e 30a6 883e
000003a0: 749f 173e 9b74 213e 2f8d d7be b106 253e
000003b0: 0dd3 2e3e 388f ecbd f18d 783e ccbf 9abe
000003c0: b223 db3d c1ae 2bbd 993b c93e 0cc6 40be
000003d0: 926b 6dbe cc83 033d 03ff 17be bb50 b2be
000003e0: 2667 cb3d be09 bb3e 3db7 34be 8fe0 9fbe
000003f0: 6e4b 1d3d 026a aa3e 47db af3e 67f2 263e

bias f4 [20]
0.02565104 0.28675336 -0.042811487 -0.19504273 0.253362 0.03160558 -0.07782753 0.31996876
0.24674414 -0.023243742 -0.17037022 -0.0053718016 -0.0851895 -0.43496987 -0.38885868 -0.20132832
-0.3602861 -0.13651028 0.420522 0.33577064
00000000: 2122 d23c 56d1 923e 195b 2fbd 48b9 47be
00000010: aab8 813e da74 013d 0a64 9fbd f2d2 a33e
00000020: 7faa 7c3e a969 bebc 8875 2ebe f005 b0bb
00000030: d577 aebd 5fb4 debe 7c18 c7be 0329 4ebe
00000040: 6b77 b8be 5ac9 0bbe a94e d73e 21ea ab3e

weight f4 [20, 20]
-0.20660363 0.21897629 -0.1917702 -0.037865195 -0.08371785 0.04348392 0.300059 -0.07006822
0.5221069 0.21782625 -0.030089745 0.1604833 -0.14955047 -0.091548204 -0.045875356 0.39482892
-0.31680885 0.024678133 0.09432085 0.05047766 0.15597181 0.50872606 -0.0095462315 0.06563421
-0.3239424 0.058047134 -0.14827953 -0.118874386 0.35919243 0.18817356 0.20204736 -0.3170973
-0.28385973 -0.007928027 -0.22996289 0.18353122 0.29375193 0.2832799 0.18587469 0.0058870926
0.04661541 -0.12825407 0.037843574 0.0842217 -0.0137553755 -0.13475926 -0.036871374 0.15863988
-0.07770292 0.08844358 0.2659662 -0.37415797 -0.30220166 0.20717937 -0.1880895 0.30077338
-0.049624283 0.5134915 -0.38662857 0.14473112 0.13644855 -0.13249443 0.34029022 -0.29485634
-0.073813446 -0.34438652 -0.30303806 -0.2229573 -0.32683095 0.27525786 0.058303434 0.15964699
0.050342847 0.09681429 -0.14164676 0.06451557 0.4615886 -0.020921512 -0.46228978 -0.8198247
0.28021815 0.08903632 0.07277993 0.11637409 0.80551976 0.07366974 0.29777402 0.2562632
0.18115465 0.09483427 -0.35595202 0.18393971 -0.3632852 0.16636637 0.09695185 -0.55412066
-0.39587802 0.06162194 0.45237875 0.5138403 0.06617645 -0.19268194 -0.20351815 -0.28862682
-0.42439824 0.26856545 0.32610092 0.67241204 -0.21140784 -0.20850341 0.28660586 0.24708682
-0.5745726 0.3902981 0.020186014 0.1839866 -0.20163524 -0.07320165 0.27158207 0.32936496
-0.4561705 0.3244318 -0.23579118 -0.24563846 -0.021185448 0.3264542 -0.030122027 -0.07796493
0.14215782 -0.4359762 0.08498049 -0.17692025 -0.20127639 -0.20397747 -0.21075378 -0.15099499
-0.2816404 -0.0696368 0.38157448 0.002190065 0.12774704 -0.3476267 0.20404565 0.21228062
-0.22340094 0.2047575 0.059208333 -0.20284991 -0.17602769 -0.11177249 -0.09021958 0.033068847
-0.21884726 0.15219222 0.15119864 0.3249134 0.26447752 -0.13791838 -0.14705995 -0.37088016
-0.02793456 -0.05589367 -0.08427843 0.06632375 -0.04612043 -0.14523545 0.29523692 -0.044664197
-0.015516169 0.20263413 -0.007943762 -0.042535882 -0.032307908 0.13579245 -0.095053725 -0.50841886
-0.20564075 0.16525689 -0.060595524 -0.24430385 0.328614 0.35531586 -0.42679867 -0.4029281
0.09893525 0.12996337 0.30147287 0.31837603 -0.19268008 -0.14434394 -0.15328456 -0.11794918
0.10403323 -0.027188394 0.04760742 0.26135027 0.040806655 0.15681021 0.15130068 -0.08569215
0.088979974 -0.2012397 -0.217932 -0.1882094 0.15482871 -0.22831091 -0.0013231712 0.20085451
0.35303226 0.048245594 -0.21871822 -0.38275492 0.03915096 -0.14122102 0.25162387 0.0603109
-0.04068872 -0.1970838 0.5564077 0.21581675 0.13489826 0.06689473 0.1748101 -0.16425431
0.13598637 0.06101458 -0.10988593 0.09746446 0.44474912 0.053001996 0.10276006 0.038294706
-0.04843425 -0.13005815 -0.004496236 -0.2581357 -0.37604743 0.027182678 0.5996808 0.4782699
-0.17583853 0.021314451 0.33317223 0.23866776 0.18288532 0.0068140253 0.20649973 -0.096473426
-0.4631927 -0.46266493 0.15245874 -0.16670191 0.42113513 -0.3753105 -0.15146819 0.028175132
00000000: e78f 53be 523b 603e 685f 44be 8918 1bbd
00000010: 4474 abbd 321c 323d 55a1 993e ed7f 8fbd
00000020: cca8 053f d80d 5f3e c57e f6bc bc55 243e
00000030: c223 19be a07d bbbd cce7 3bbd 0427 ca3e
00000040: c534 a2be cc29 ca3c 4a2b c13d aac1 4e3d
00000050: 13b7 1f3e df3b 023f cc67 1cbc 3b6b 863d
00000060: c7db a5be d5c2 6d3d 97d6 17be 6a74 f3bd
00000070: 12e8 b73e 92b0 403e 81e5 4e3e 945a a2be
00000080: 1056 91be 8ee4 01bc 647b 6bbe 9cef 3b3e
00000090: a766 963e 100a 913e ef55 3e3e 83e8 c03b
000000a0: cdef 3e3d 0955 03be dd01 1b3d 6d7c ac3d
000000b0: 3a5e 61bc 55fe 09be 7006 17bd 7e72 223e
000000c0: b522 9fbd e821 b53d b92c 883e a291 bfbe
000000d0: 2dba 9abe d426 543e 899a 40be f8fe 993e
000000e0: d542 4bbd 2e74 033f 2ef4 c5be 6534 143e
000000f0: 2bb9 0b3e 9fac 07be 853a ae3e 69f7 96be
00000100: 812b 97bd 6e53 b0be ce27 9bbe eb4e 64be
00000110: 6356 a7be 99ee 8c3e 95cf 6e3d 807a 233e
00000120: 4d34 4e3d 9246 c63d d90b 11be bd20 843d
00000130: 5755 ec3e 9763 abbc 3fb1 ecbe 08e0 51bf
00000140: c178 8f3e ad58 b63d a50d 953d 8a55 ee3d
00000150: 8b36 4e3f 29e0 963d d675 983e ee34 833e
00000160: 9b80 393e 7838 c23d 583f b6be b15a 3c3e
00000170: 8500 babe f25b 2a3e b18e c63d dada 0dbf
00000180: 86b0 cabe 4a67 7c3d 309e e73e 0a8b 033f
00000190: 8587 873d 6a4e 45be 1067 50be e5c6 93be
000001a0: ba4a d9be 6981 893e b3f6 a63e 3223 2c3f
000001b0: 4c7b 58be eb81 55be 01be 923e 5404 7d3e
000001c0: 3117 13bf 27d5 c73e 245d a53c fc66 3c3e
000001d0: 7879 4ebe bfea 95bd ce0c 8b3e 86a2 a83e
000001e0: 2e8f e9be ed1b a63e 3e73 71be a688 7bbe
000001f0: 1b8d adbc 0125 a73e 78c2 f6bc 14ac 9fbd
00000200: d291 113e 4638 dfbe 400a ae3d 952a 35be
00000210: 661b 4ebe 78df 50be d7cf 57be 6e9e 1abe
00000220: 2c33 90be bd9d 8ebd bb5d c33e 3287 0f3b
00000230: 1fd0 023e 20fc b1be 58f1 503e 1760 593e
00000240: 37c3 64be f3ab 513e 7084 723d e3b7 4fbe
00000250: 9a40 34be fae8 e4bd 0bc5 b8bd 3373 073d
00000260: 7f19 60be 47d8 1b3e d1d3 1a3e 0d5b a63e
00000270: 9969 873e 7a3a 0dbe e296 16be 01e4 bdbe
00000280: 05d7 e4bc c3f0 64bd 2b9a acbd bfd4 873d
00000290: c7e8 3cbd 9ab8 14be 4b29 973e cef1 36bd
000002a0: 8837 7ebc 527f 4f3e 8d26 02bc 1b3a 2ebd
000002b0: 4c55 04bd 2d0d 0b3e 87ab c2bd bd27 02bf
000002c0: 7d93 52be 1a39 293e 0333 78bd ca2a 7abe
000002d0: 1840 a83e f6eb b53e 5b85 dabe 984c cebe
000002e0: 909e ca3d 1e15 053e a75a 9a3e 2f02 a33e
000002f0: ed4d 45be e6ce 13be a1f6 1cbe 578f f1bd
00000300: 600f d53d 32ba debc ffff 423d b4cf 853e
00000310: e124 273d db92 203e 91ee 1a3e 5e7f afbd
00000320: 223b b63d c811 4ebe 9129 5fbe f7b9 40be
00000330: 6b8b 1e3e 56ca 69be 426e adba ceac 4d3e
00000340: a5c0 b43e 2c9d 453d abf7 5fbe 74f8 c3be
00000350: c25c 203d 3e9c 10be d8d4 803e 9008 773d
00000360: 37a9 26bd 56d0 49be bc70 0e3f 11ff 5c3e
00000370: c522 0a3e 1b00 893d 6b01 333e 4832 28be
00000380: 0340 0b3e 6dea 793d e00b e1bd 729b c73d
00000390: 28b6 e33e 9f18 593d de73 d23d e9da 1c3d
000003a0: fe62 46bd f72d 05be 2955 93bb 5d2a 84be
000003b0: 4a89 c0be 35ae de3c ae84 193f cbdf f43e
000003c0: 040f 34be a59b ae3c 8d95 aa3e 5265 743e
000003d0: 4a46 3b3e 3048 df3b aa74 533e dc93 c5bd
000003e0: 9827 edbe 6be2 ecbe 251e 1c3e e8b3 2abe
000003f0: 069f d73e b328 c0be 7a1a 1bbe 89cf e63c

bias f4 [20]
0.5347692 -0.15005949 -0.05185326 -0.48392203 0.42028216 0.012908462 0.25961646 -0.16358152
0.0758195 0.086453326 0.2517442 0.5493473 -0.1913056 0.15853041 -0.20322424 0.5903434
0.54519695 -0.12407943 -0.18874347 0.20036602
00000000: a2e6 083f 32a9 19be 1564 54bd a1c4 f7be
00000010: 392f d73e 047e 533c 73ec 843e ea81 27be
00000020: 4147 9b3d 710e b13d 9ee4 803e 06a2 0c3f
00000030: 9de5 43be cc55 223e 041a 50be bf20 173f
00000040: 0792 0b3f 5b1d febd f845 41be c02c 4d3e

weight f4 [20, 20]
-0.21010078 -0.1253919 0.33769011 0.26455146 -0.3926293 -0.6480531 -0.48913068 0.7441121
-0.613027 -0.108805306 -0.4399167 -0.63299745 0.45041513 -0.27176338 0.53463995 -0.2876368
-0.7162476 0.4742041 -0.2874394 -0.096490264 0.09624987 0.08361017 -0.026071738 0.12132017
-0.23595576 -0.25305313 -0.040823765 0.18325101 0.21588142 -0.02440483 -0.4706729 0.0397416
0.71356076 -0.113443166 -0.06770488 -0.6063779 0.14677171 0.6671022 -0.46320853 0.30073476
-0.030063305 0.021662675 0.2958108 0.16423558 -0.106014706 0.40287322 -0.32756037 -0.026247473
0.11337559 -0.48466498 -0.1110789 -0.020659406 0.16318312 -0.10331683 0.05806515 -0.45282885
-0.15467145 0.07297729 -0.36527082 -0.0134008145 0.13393256 0.012736021 0.045230694 -0.32152924
0.117708415 0.1550877 0.20523237 -0.23429821 0.20476148 -0.11369465 0.2617283 0.41850507
-0.37920865 0.11095001 -0.44366747 -0.05362699 -0.011676874 0.044557825 0.17613147 -0.068871364
0.2201939 -0.032294553 0.049979288 -0.13873075 0.28388003 0.3501896 0.47417623 0.26014078
-0.18309513 -0.26767588 0.028757108 0.12828596 0.20922917 0.08250651 -0.48659864 0.15826234
-0.18126242 -0.27209398 0.6002615 0.33724722 -0.2918 0.24875414 0.14080557 0.19699718
-0.4034164 -0.57068807 -0.19376221 0.23270176 -0.266236 -0.27218089 -0.06553448 -0.0136357425
0.58062893 -0.28343415 0.17943548 0.0221597 0.15607142 0.5435844 -0.43157822 0.003181446
0.36288944 0.096044876 0.3718608 0.16139443 0.5780973 0.5248802 0.27148497 -0.26670134
-0.1740942 0.0110720415 0.2709826 0.43027228 -0.39708436 0.088113025 0.04651135 0.21953046
-0.41145918 -0.21043395 0.31110078 -0.30809635 -0.5228307 -0.35803312 -0.19915776 0.60614514
-0.6118803 -0.07969419 0.12144302 0.40832695 0.021653417 -0.13012141 -0.07033677 -0.78979856
-0.25134122 -0.009126409 0.2323498 -0.36624268 0.06922721 0.37312645 0.146415 -0.2324055
-0.1588492 0.24829037 0.23499313 0.3817256 -0.084883936 0.011696593 0.2984605 -0.14238341
-0.071702674 -0.36753812 -0.29105988 0.22494185 0.35795662 -0.3317749 -0.08025734 0.15764514
0.1560307 0.0068524377 -0.18429126 0.02866248 -0.27301386 0.379907 5.3789412e-05 -0.4688061
0.25970447 -0.20597038 0.2816513 0.012155516 0.04839034 0.27805915 -0.085403934 0.486317
-0.14488325 -0.032477252 -0.026660258 -0.09224649 0.23959148 -0.41793776 -0.169623 -0.033374622
0.07048251 0.17343155 0.16617857 -0.15128434 -0.49552503 -0.5830936 0.31445643 0.0062055774
0.24278444 0.31947973 -0.028221468 -0.11518285 0.15467077 0.13852747 0.3814526 -0.40383294
0.1307368 -0.3206229 0.2152451 0.14172627 0.1607861 -0.06327782 0.11960661 0.01838673
-0.05133901 0.36727965 -0.4177362 -0.3187337 0.24215114 -0.28085384 0.22399472 0.20872785
0.62288135 0.30701128 0.39063033 -0.099134944 -0.321648 0.45881587 -0.36927578 0.049149778
0.43260482 0.2098514 -0.3708817 -0.24304649 0.06146271 0.104864635 0.16100073 -0.12763286
0.22356161 0.20711102 0.086433224 0.41095442 0.25029325 -0.12210817 -0.36977154 0.5805918
00000000: a924 57be bc66 00be b8e5 ac3e 4a73 873e
00000010: b506 c9be cfe6 25bf 566f fabe 217e 3e3f
00000020: 56ef 1cbf 51d5 debd c33c e1be 1f0c 22bf
00000030: d09c e63e 9224 8bbe 2ade 083f 2145 93be
00000040: 015c 37bf e1ca f23e 422b 93be b09c c5bd
00000050: a71e c53d cf3b ab3d 6694 d5bc b676 f83d
00000060: 639e 71be 2e90 81be d236 27bd 27a6 3b3e
00000070: 0510 5d3e a3ec c7bc 0afc f0be 17c8 223d
00000080: ebab 363f e454 e8bd dba8 8abd 953b 1bbf
00000090: 534b 163e 36c7 2a3f ab29 edbe e8f9 993e
000000a0: 5247 f6bc ec75 b13c 8374 973e 5f2d 283e
000000b0: 3d1e d9bd 6645 ce3e feb5 a7be f104 d7bc
000000c0: 7631 e83d 0226 f8be 567d e3bd ea3d a9bc
000000d0: 7a19 273e c697 d3bd b9d5 6d3d 2fd9 e7be
000000e0: 3162 1ebe 1e75 953d c704 bbbe 178f 5bbc
000000f0: 9e25 093e beaa 503c d243 393d 7b9f a4be
00000100: 1c11 f13d 4fcf 1e3e 6f28 523e dfeb 6fbe
00000110: feac 513e bed8 e8bd 4001 863e 4c46 d63e
00000120: a327 c2be c239 e33d 6228 e3be faa7 5bbd
00000130: 5c50 3fbc 4482 363d cf5b 343e 6e0c 8dbd
00000140: 827a 613e 4b47 04bd 15b7 4c3d 6f0f 0ebe
00000150: b958 913e 0d4c b33e 3ac7 f23e 2c31 853e
00000160: 4a7d 3bbe d00c 89be 0794 eb3c 655d 033e
00000170: 2c40 563e 2cf9 a83d 7523 f9be 860f 223e
00000180: db9c 39be e74f 8bbe bdaa 193f abab ac3e
00000190: cf66 95be 68b9 7e3e 562f 103e a1b9 493e
000001a0: 988c cebe 9d18 12bf 9a69 46be 5f49 6e3e
000001b0: 1650 88be 4b5b 8bbe f136 86bd 7368 5fbc
000001c0: 19a4 143f 481e 91be efbd 373e 4288 b53c
000001d0: 30d1 1f3e 5928 0b3f d2f7 dcbe cf7f 503b
000001e0: a5cc b93e 2db3 c43d 8a64 be3e 9544 253e
000001f0: 2ffe 133f 8c5e 063f 1400 8b3e 148d 88be
00000200: c045 32be 8267 353c 3bbe 8a3e a64c dc3e
00000210: a44e cbbe 9a74 b43d af82 3e3d 98cc 603e
00000220: c7aa d2be ff7b 57be 9a48 9f3e cebe 9dbe
00000230: 3cd8 05bf 1e50 b7be 03f0 4bbe 542c 1b3f
00000240: 30a4 1cbf b536 a3bd 1eb7 f83d 3b10 d13e
00000250: 8262 b13c 8c3e 05be b90c 90bd 3d30 4abf
00000260: ccaf 80be ef86 15bc 1bed 6d3e 2984 bbbe
00000270: ffc6 8d3d 6e0a bf3e d0ed 153e b5fb 6dbe
00000280: 5da9 22be d53f 7e3e 0aa2 703e 8a71 c33e
00000290: a1d7 adbd 11a3 3f3c d1cf 983e f5cc 11be
000002a0: dad8 92bd f52d bcbe cd05 95be 2857 663e
000002b0: 1746 b73e 66de a9be f65d a4bd ba6d 213e
000002c0: 83c6 1f3e 6a8a e03b d9b6 3cbe 94cd ea3c
000002d0: 79c8 8bbe 2c83 c23e f19b 6138 5a07 f0be
000002e0: fcf7 843e e6e9 52be 9934 903e ee27 473c
000002f0: f334 463d c55d 8e3e 42e8 aebd 8bfe f83e
00000300: 465c 14be de06 05bd 9d66 dabc baeb bcbd
00000310: 7857 753e f0fb d5be a7b1 2dbe d4b3 08bd
00000320: 2259 903d 0a98 313e b72a 2a3e 48ea 1abe
00000330: 75b5 fdbe 9f45 15bf 6f00 a13e 2858 cb3b
00000340: 7c9c 783e d992 a33e b530 e7bc fce4 ebbd
00000350: 0462 1e3e 25da 0d3e c14d c33e 31c3 cebe
00000360: dedf 053e af28 a4be 3669 5c3e b120 113e
00000370: 1da5 243e cd97 81bd 4ff4 f43d c59f 963c
00000380: db48 52bd 140c bc3e 85e1 d5be 1031 a3be
00000390: 78f6 773e 13cc 8fbe df5e 653e c1bc 553e
000003a0: 2775 1f3f 9530 9d3e b300 c83e 4307 cbbd
000003b0: 0caf a4be eae9 ea3e b711 bdbe 4751 493d
000003c0: 617e dd3e 49e3 563e 35e4 bdbe 2ee1 78be
000003d0: 53c0 7b3d 45c3 d63d 60dd 243e 30b2 02be
000003e0: 56ed 643e e914 543e e703 b13d 9e68 d23e
000003f0: 7026 803e d913 fabd b252 bdbe aaa1 143f

bias f4 [20]
0.3684911 -0.4076813 -0.22914349 0.4147244 0.35336506 -0.12681095 0.5378333 -0.5473667
-0.2489367 0.20536026 -0.25848338 -0.19386947 0.05397919 -0.7174871 -0.61621493 -0.2422481
0.122232854 0.6977944 0.27796367 -0.52609575
00000000: deaa bc3e 9abb d0be 97a4 6abe c256 d43e
00000010: 44ec b43e bbda 01be 71af 093f 3920 0cbf
00000020: 43e9 7ebe f649 523e ef57 84be b885 46be
00000030: 4819 5d3d 3cad 37bf 43c0 1dbf e30f 78be
00000040: 3855 fa3d a7a2 323f 4151 8e3e 36ae 06bf

weight f4 [1, 20]
-0.35273525 -1.9546233 -0.63735586 0.6456103 1.0697119 -1.5910937 1.4737072 -1.4003731
-0.039637715 0.60006714 -0.27843988 -0.46266288 1.100541 -1.2815348 -1.7983234 -1.2402903
0.5052346 1.5735677 0.665354 -1.3455341
00000000: b799 b4be 1931 fabf c129 23bf b746 253f
00000010: 52ec 883f f5a8 cbbf 70a2 bc3f 6d3f b3bf
00000020: 285b 22bd 009e 193f ac8f 8ebe 26e2 ecbe
00000030: 87de 8c3f 5509 a4bf 762f e6bf d5c1 9ebf
00000040: 0e57 013f ab6a c93f a454 2a3f 763a acbf

u_b f4 [2]
1.0 39.96
00000000: 0000 803f 0ad7 1f42

l_b f4 [2]
0.0 0.0
00000000: 0000 0000 0000 0000
