Models/Noise_5/toy_stop/weak_ff_400.pt (torch, 43935 bytes, 23 tensors)

weight f4 [20, 2]
000000 6d fd 06 be 22 50 0f 3e 2b 77 88 bf c8 dd 5e 3e
       -0.13182612 0.13995412 -1.0661367 0.2176429
000010 55 e6 3c bf 5b 93 08 bf 59 24 06 3e 89 e5 c2 3f
       -0.7378896 -0.53349847 0.13099803 1.5226299
000020 93 e6 da 3d 46 c6 82 bf a8 09 a2 3f e4 69 e3 be
       0.1068851 -1.0216758 1.2659197 -0.44416726
000030 21 ec 06 be 3c 50 5a bf a9 dd 6d 3e 75 9d 2e bf
       -0.13176014 -0.8527868 0.23229088 -0.6820901
000040 97 52 f7 be 5a 8d 8c 3f 8d 7a 74 be 04 bb b5 be
       -0.483052 1.0980637 -0.23874874 -0.35494244
000050 a7 43 35 be 2d 86 cb 3e 59 0f 49 3e 8e eb 75 bd
       -0.17701589 0.39750805 0.19634761 -0.060039096
000060 18 5f 3e 3e c4 8c 4f bf d4 fb 45 bf 13 0f e2 bd
       0.18590963 -0.81074166 -0.77337384 -0.110380314
000070 68 80 a7 3e 2b e2 67 bf 1b c2 14 40 44 06 93 bf
       0.32715154 -0.9057948 2.3243473 -1.1486287
000080 38 ec a4 3e 5d 0c 0f c0 47 35 dc bf c8 3b ab be
       0.3221147 -2.2351296 -1.7203759 -0.33444047
000090 ef 17 c4 be 1b 7a 18 3d 43 1d 1b bf 01 31 f8 3c
       -0.3829951 0.037225824 -0.60591525 0.030296804

bias f4 [20]
000000 8b b0 50 be aa 72 82 3d 80 68 8d be 73 e3 a2 bf
       -0.20379846 0.06369527 -0.2761879 -1.2725662
000010 db 4f 1e 3f 06 c9 83 be 00 ab 17 3f 77 84 88 be
       0.618406 -0.25739306 0.592453 -0.26663563
000020 87 51 30 3f 85 db d5 3d c0 be d4 be f9 e4 72 3e
       0.688744 0.10442261 -0.4155178 0.23720159
000030 d6 c0 9b 3d 64 c5 f8 3d 68 76 fc 3e 05 b8 63 be
       0.0760514 0.12147024 0.49309087 -0.22238167
000040 13 aa 54 be f5 25 a0 3e 47 94 f9 bc 1c 58 2d bf
       -0.20768003 0.3127896 -0.030466212 -0.6771257

weight f4 [20, 20]
000000 77 d6 e0 3d 98 aa 44 3e a5 67 f4 bd 87 6e e5 be
       0.10978406 0.19205701 -0.11933831 -0.44810888
000010 b3 61 bc 3e 39 fc 91 3d 10 56 0e 3f 94 79 74 3e
       0.3679329 0.07128186 0.5560007 0.23874503
000020 a6 ae 38 bd e6 da 03 3f cf ad 73 3e f2 cb bf 3b
       -0.045088433 0.5150589 0.23796771 0.0058531696
000030 88 e6 03 3f cd 3c c1 3e 78 5a 2b 3f e4 87 33 bf
       0.5152364 0.377417 0.6693492 -0.7012923
000040 2c bc e3 bc e4 a6 a2 3d 07 fa 83 bd 4c 84 2b 3d
       -0.027799688 0.07941988 -0.06444173 0.041874215
000050 7e e5 4a 3e ef 7c 93 3e 42 ee 15 bd 03 23 bd bd
       0.19814107 0.28806254 -0.036604173 -0.092351936
000060 df 12 53 be fc 23 1c bf 69 75 a0 be a6 2d ba be
       -0.20612668 -0.6099241 -0.31339577 -0.36362952
000070 b9 78 a7 3e 8a 4b 58 bc 68 98 bb bb f1 f8 2f bd
       0.32709292 -0.013201604 -0.0057249554 -0.04296202
000080 6b e7 92 be be 50 42 3e fc 65 5f be 75 cf 98 3d
       -0.28692183 0.18976113 -0.21816248 0.07461444
000090 30 f0 8a bd ef c9 52 3e d9 2f bb 3d 5f 86 ab bd
       -0.067840934 0.20584844 0.091399856 -0.083752386
0000a0 ee 88 e1 3d fc 81 0c be 57 16 5b be 38 b8 c6 bf
       0.110124454 -0.1372146 -0.2139524 -1.5524969
0000b0 2b aa 9f 3f ab 6b bd 3e 2b 55 12 3f 98 0d fb 3e
       1.2473806 0.36996207 0.57161206 0.4903381
0000c0 84 1f e0 3c aa 19 5a bb 9b c7 f4 be 8a 3c 6e 3e
       0.027358778 -0.0033279457 -0.47808537 0.23265281
0000d0 00 33 76 3e 8b 68 9c ba 45 eb 20 3f 23 25 84 3e
       0.24042892 -0.0011933012 0.6285899 0.25809583
0000e0 da bb 21 3e d2 3c d9 3d 16 0b 20 bd 61 77 20 bf
       0.15794316 0.10607304 -0.039073072 -0.6268216
0000f0 cb 54 89 3e 63 9f 0b 3e b5 05 aa be d6 68 32 3f
       0.26822504 0.1363502 -0.3320748 0.69691217
000100 11 42 24 be 55 92 9a 3d a7 0e 18 bf cb 6f 55 bd
       -0.16040827 0.07547442 -0.5939736 -0.052108567
000110 b0 29 82 3d ee 8d ab bd 0d 39 2d 3e c7 fe 4b 3e
       0.063556075 -0.0837668 0.16916294 0.19921409
000120 02 00 77 3d 9b 91 05 be c5 9c 3c be ba 65 22 3e
       0.06030274 -0.13043825 -0.18419178 0.15859118
000130 69 99 a2 be 00 f2 20 be 9d 12 3b 3e b2 0a 9a 3e
       -0.31757668 -0.15717316 0.18268819 0.30086285
000140 8e ff ca 3e 4d 91 3a 3e 6f 5a 0a 3e bf 18 8d 3e
       0.39648098 0.1821949 0.1351106 0.27557942
000150 a0 aa d9 be 86 3b ce be 89 47 66 bd d5 2e b3 3e
       -0.4251299 -0.40279788 -0.056220565 0.34996668
000160 9f d9 ff 3a b2 a8 da bd f3 37 41 3e 2c ce 88 bd
       0.0019519812 -0.10676707 0.18868999 -0.06679949
000170 4b 84 20 be c6 be f3 bd 45 d2 88 be a2 84 bf bc
       -0.15675466 -0.119016215 -0.26722923 -0.023378674
000180 18 20 ee be 62 94 8b 3e 5a c4 89 3d 68 7d b1 3e
       -0.4650886 0.27261645 0.06726904 0.3466599
000190 88 16 0e bd c9 1f 16 3e 84 a6 e2 3e d9 93 16 be
       -0.034689456 0.14660563 0.44267666 -0.14704837
0001a0 ff 86 2a 3e dd d1 7b 3e 48 ed 96 be d5 20 17 bd
       0.1665306 0.24591775 -0.29477906 -0.036896545
0001b0 77 05 56 3c 7a 71 76 be 10 8c c2 3d f4 00 c4 bd
       0.013062826 -0.24066725 0.09499371 -0.09570494
0001c0 69 6a 39 be 35 3b 70 be be 17 20 3f be 50 45 3e
       -0.18106999 -0.23460086 0.6253623 0.19269082
0001d0 cd 9b 84 3d d3 10 9c 3d be 68 4a 3e 71 a5 bc 3e
       0.06475029 0.076203965 0.19766518 0.36844972
0001e0 ea 81 e0 be 37 7c 52 bc b6 34 fb 3d 58 66 4e be
       -0.43849117 -0.012846998 0.12265913 -0.20156229
0001f0 57 51 89 3b 6f a0 07 bf 8a c9 a5 3e 3c ec 17 3e
       0.0041906047 -0.5297918 0.32380325 0.1483621
000200 35 a7 29 3e 02 86 2d be 00 b9 09 3e 43 bb 33 be
       0.1656769 -0.16945651 0.13449478 -0.17551903
000210 2d a3 1b 3e e4 98 5c 3d af f7 c1 3e 74 58 90 bc
       0.15198965 0.053856745 0.3788428 -0.017620303
000220 b2 1e 24 3e ff 46 06 bd c7 81 d2 3d 04 63 c4 bd
       0.16027334 -0.03278255 0.10278659 -0.09589198
000230 cb fe 32 3e e0 76 5d 3e 27 d6 24 be c3 9c e6 3e
       0.17480008 0.21627378 -0.16097318 0.45041475
000240 5b ac 2e 3d 78 de 85 3e 88 af 0e bf 39 95 b2 bc
       0.04264484 0.26146293 -0.5573659 -0.02179967
000250 d2 73 f5 3d 47 76 83 be 44 9f 14 3e 9e 5d 62 3e
       0.119849816 -0.25676176 0.1451388 0.22106025
000260 9d c8 6f 3d 67 06 07 bf c3 4e 41 be 0e 64 b1 3e
       0.05854093 -0.52744144 -0.18877701 0.34646648
000270 b1 57 cc be 41 da 38 bf 10 32 89 be f2 e5 93 3c
       -0.39910653 -0.7220803 -0.26796007 0.018053982
000280 42 d5 ad 3c c9 07 3c bf 89 5d 1e be 9f dc b5 3e
       0.021219853 -0.7344938 -0.15465368 0.35519883
000290 fc dc 88 be a1 c6 40 3f 6e 21 8e be 63 0e ea 3d
       -0.26731098 0.75303084 -0.2775988 0.11428525
0002a0 88 a4 f1 be 6b 60 98 be 45 a2 3e 3d eb f9 4a 3e
       -0.4719584 -0.2976106 0.04654147 0.19821899
0002b0 60 b0 59 3e 52 a6 0e bf 8b 33 43 3e 4d 96 eb 3f
       0.21258688 -0.55722535 0.19062631 1.8405243
0002c0 de 64 a7 3f 27 07 f6 be 1d 8e 09 bd ed d6 7d be
       1.3077657 -0.48052332 -0.033582795 -0.24789019
0002d0 ad 32 bd 3d de 43 28 be 69 1f 55 3e cd e0 7e 3e
       0.09238181 -0.1643214 0.20812763 0.24890442
0002e0 ae 75 f7 3e 70 d0 06 3f 4d 15 23 3e 4c 21 5e 3e
       0.4833197 0.526618 0.15926094 0.21692389
0002f0 d5 ab 84 3e 9a 3f a8 3d 23 88 d7 3d 2e 33 6e be
       0.25912347 0.08215256 0.10524013 -0.23261711
000300 c0 8d 24 bd e6 1f c4 3d 03 0d 03 be 1c be bb 3d
       -0.040174246 0.09576397 -0.12797932 0.0916712
000310 60 06 db 3e 2c 16 0c be c7 76 8f be 65 32 8b bc
       0.427783 -0.13680333 -0.28020307 -0.016991803
000320 d6 4a 01 3d 6d ae 84 3e a3 83 f1 be e2 0e 48 3f
       0.03156551 0.25914326 -0.47170743 0.7814771
000330 3a 79 0b bf cb 1a d1 be 4e d1 af be 7a 2d f0 be
       -0.5448185 -0.40840754 -0.34339374 -0.46909696
000340 6a 70 5d 3f b4 5e 21 bf f6 b6 bf 3b 05 84 ae bc
       0.86499655 -0.6303513 0.005850668 -0.021303186
000350 e8 7a 39 bf 3c 1f 9a be 42 82 db be ca ff e9 3e
       -0.72453165 -0.30101955 -0.42872816 0.45702964
000360 7f 91 a0 bf a1 c4 e7 be 30 d9 3b 3e a4 0e 78 be
       -1.2544402 -0.45267203 0.18344569 -0.24224335
000370 f1 ef b9 be 11 95 8e 3e d5 58 85 3e 65 b3 ea 3e
       -0.36315873 0.27848104 0.26044336 0.45839992
000380 31 b1 7c be c6 cf d8 bd b4 e2 07 be d5 69 69 be
       -0.24676968 -0.10586505 -0.13270074 -0.22794278
000390 21 97 0a be 19 27 8e 3e f7 46 e3 3d 37 35 ea 3e
       -0.13534214 0.27764204 0.1109752 0.45743725
0003a0 f9 b9 39 be bc 64 8a bd 1f 4e 85 3d ab f9 e5 be
       -0.18137349 -0.06757495 0.06509041 -0.44917044
0003b0 70 85 5e 3d 08 b8 20 3e 10 b8 8a 3e c4 e9 61 3d
       0.054326475 0.15695202 0.27093554 0.055154577
0003c0 5b b6 af be 0c 7d 34 3e 3e 3c af 3e 70 29 ea be
       -0.34318814 0.17625827 0.3422565 -0.4573474
0003d0 a3 1f cf bd 48 f3 20 3e a2 15 4f 3e 90 e1 4c be
       -0.10113456 0.15717804 0.20223096 -0.2000792
0003e0 2d e5 c5 3e 2d 77 cc 3e d0 14 5c be 36 25 5e 3e
       0.3865141 0.39934674 -0.21492314 0.21693882
0003f0 e8 65 87 3e 37 ea a1 3d d0 e4 fc 3d 59 10 fe 3d
       0.26444936 0.07906001 0.1234833 0.12405462

bias f4 [20]
000000 eb cd d0 3e a8 0e 0b 3e d3 db 1f 3f e8 c3 a1 be
       0.40782103 0.1357981 0.624448 -0.31594777
000010 95 15 e3 be c6 af d4 be 82 f5 a3 3d 11 0d 83 bd
       -0.44352403 -0.41540354 0.08005811 -0.063989766
000020 97 f2 d0 bd af c5 66 bd 3a c2 d8 3d ae c2 60 3b
       -0.1020252 -0.05634087 0.10583921 0.0034295726
000030 a2 43 8c 3e 7b e7 5c 3c aa ce 85 be 56 48 86 3e
       0.2739535 0.013482924 -0.26134235 0.26227063
000040 0d 1c 8e be 6c c5 96 bd 32 55 91 be cf b0 df bd
       -0.27755776 -0.07361874 -0.2838531 -0.109223954

weight f4 [20, 20]
000000 00 64 0d 3f 1a 92 71 3d 1d de de 3e f8 e7 70 3d
       0.5523071 0.058977224 0.43528834 0.058814973
000010 4c d0 89 be 80 72 89 be 1a 6c a8 3e f3 1b 08 3e
       -0.2691673 -0.2684517 0.32894975 0.13291912
000020 74 f2 60 bf b2 19 0e bd 5f 66 3d 3e ec 1d a3 3e
       -0.87869954 -0.034692474 0.18496083 0.31858766
000030 13 4c 4b 3e a2 83 f4 3c 9c 47 12 3d fd a2 45 be
       0.19853239 0.029847924 0.035712823 -0.19300456
000040 41 4b 2d bd b4 38 8f be f9 cb a5 3e 06 b1 d2 be
       -0.042308096 -0.2797295 0.3238218 -0.41150683
000050 61 75 c6 3e a6 23 25 be bd fe 0c 3e 39 31 20 be
       0.38761428 -0.1612688 0.1376905 -0.15643777
000060 8a 49 fa bd 50 9c a5 3e c4 10 74 3e e7 ac 16 bf
       -0.12221058 0.3234582 0.2383452 -0.5885758
000070 10 d9 4b 3e ec e6 8a 3e e3 d9 db be 85 15 cf 3e
       0.19907022 0.27129304 -0.42939672 0.40446106
000080 65 f2 3e 3e 40 43 59 3c be ec a8 bc 10 34 de 3e
       0.18647154 0.013260663 -0.0206207 0.43399096
000090 75 38 29 3d 48 41 48 3f 6c 56 b5 3f 2f aa 33 3d
       0.041313607 0.7822461 1.4166999 0.04386347
0000a0 29 8d f4 be bc 90 a5 be a9 98 7e bd b5 9b 76 be
       -0.47763947 -0.32336986 -0.062157307 -0.24082835
0000b0 0f c2 8e 3e 4b 3e 3c 3e 07 13 05 3e 83 e6 49 3e
       0.2788243 0.18383138 0.1299554 0.1971684
0000c0 d0 ab a4 3e 5c 01 9e 3e ae f2 3b bf 20 ef 2d be
       0.32162333 0.30860412 -0.73417175 -0.1698575
0000d0 3a 07 5e be ad 9e 96 3e 97 26 ac 3e 3b bb c2 3e
       -0.21682444 0.29417935 0.33623192 0.3803347
0000e0 4d a2 24 3f 77 e2 92 bc 8f a2 88 be c2 6a 3e 3e
       0.6431015 -0.017930252 -0.26686522 0.18595412
0000f0 c2 4f 30 3e 87 33 ac 3e ab fb ab be c7 b4 b8 bb
       0.17217925 0.33633062 -0.33590445 -0.0056367847
000100 04 bf 32 be 15 17 d4 be 42 72 06 bf d4 3e d4 be
       -0.17455679 -0.4142386 -0.52518094 -0.41454184
000110 a8 92 1f bf d7 f2 d0 be 26 63 47 3d 5e f2 71 3d
       -0.62333155 -0.40810272 0.04867854 0.05906903
000120 d8 25 a1 be 69 4a 39 bd 74 eb b7 be 58 1d 05 bc
       -0.31474185 -0.04523698 -0.35921824 -0.008124672
000130 bb c3 82 be df 53 a2 be f9 3f 98 3e 02 e9 b8 3e
       -0.25539955 -0.31704614 0.29736307 0.3611527
000140 b9 a8 4f 3f d3 f0 e9 bd 85 20 8a 3f f4 f7 24 bf
       0.81116825 -0.11422887 1.0791174 -0.64440846
000150 31 08 37 be da 7f 27 be cb 03 b5 3c f8 f7 bd be
       -0.17874219 -0.16357365 0.022096535 -0.37103248
000160 a2 7c a6 3e 39 02 5a 3d e2 88 09 bf 20 cb e9 be
       0.32516962 0.053224776 -0.5372449 -0.45662785
000170 16 0d bf 3e c1 d6 03 bf f3 03 0b 3f 03 cf 63 3f
       0.3731467 -0.51499563 0.543029 0.8898775
000180 cb 67 37 be 9e 9d 0a bd 5c 5e fe 3e 76 59 6b 3e
       -0.17910688 -0.03384172 0.49681365 0.22983345
000190 9b 5a 64 be 63 10 c1 be b4 c3 80 bc 63 2c 12 be
       -0.22300188 -0.37707815 -0.015718319 -0.14274745
0001a0 91 b2 9c be d6 1c fb 3b 95 90 9a bd 9d 95 f8 be
       -0.30604985 0.0076633496 -0.07547108 -0.48551646
0001b0 8b 2b de 3d 81 17 94 3d 3c 90 2a bf 85 1a 38 3d
       0.10848149 0.072310455 -0.66626334 0.044947166
0001c0 cc 7f aa 3e b1 cf f3 3d 00 3f 23 3f 0f 86 90 bc
       0.33300626 0.11904848 0.63768005 -0.01764205
0001d0 1b 6e a7 3e 82 b9 9f 3e f6 b7 eb 3e 05 e6 cb be
       0.3270119 0.3119622 0.4603879 -0.39823928
0001e0 1c 9a 36 3e 2d c7 ac bc 76 47 c0 3d 00 aa a4 3e
       0.17832226 -0.021091068 0.0938863 0.3216095
0001f0 c9 8b f1 3d 93 d9 8f be c4 08 e7 bd 43 c6 d3 3e
       0.1179424 -0.28095683 -0.11280969 0.413622
000200 7d 0d 84 be b7 80 9f bc 38 d7 74 3f 14 35 b6 3d
       -0.2579154 -0.019470556 0.956409 0.088968426
000210 fb 4e d6 be e2 3f 9e 3e f1 72 20 be 87 34 cc 3d
       -0.41857132 0.30908114 -0.15668847 0.09970956
000220 16 39 4a 3d c2 79 81 bf a3 cb 32 bf 24 e2 44 3d
       0.049370848 -1.0115283 -0.69841975 0.048067227
000230 fe 58 79 be 70 78 7f 3e 3a 33 23 be 40 cf 82 3e
       -0.24350354 0.24948287 -0.1593751 0.25548744
000240 0b 0f 70 3d 60 bb c8 bd 18 5c aa bd a8 de 00 3f
       0.058608096 -0.09801364 -0.08318347 0.50339746
000250 62 e3 15 3f 5c fa ae 3c 57 a9 bf 3e 03 f6 66 be
       0.58550084 0.021359615 0.37433884 -0.22554784
000260 b5 5a a2 be 79 c8 d1 bd 37 f0 67 3d bc d6 21 3d
       -0.3170983 -0.10243315 0.05662557 0.039511427
000270 38 b3 98 be 45 5d 9f 3d 4f 11 2e bf 9a 94 51 bd
       -0.29824233 0.077814616 -0.6799516 -0.051167108
000280 61 24 3d bf 04 c5 72 3e 98 05 89 bf 68 c6 55 3f
       -0.73883635 0.23707968 -1.0704832 0.8350587
000290 45 d2 ed 3e d1 20 bd 3d 98 6b 08 be 6a ad d3 3e
       0.46449485 0.09234775 -0.13322294 0.41343242
0002a0 2c db ea 3f cc a0 c3 bd ce 87 3a 3e 6e 24 aa 3e
       1.8348136 -0.09552154 0.18215868 0.3323092
0002b0 0a 5e e2 be de c5 aa be f9 4b 83 3c c2 2f f1 be
       -0.4421237 -0.33354086 0.016027438 -0.4710675
0002c0 58 2f 77 be f6 24 ca be 51 74 a7 3f 40 df ac be
       -0.24139154 -0.39481324 1.3082372 -0.33764076
0002d0 d6 f7 46 bd 56 85 a5 bd 3b ce 19 bf 8b 4c 9f 3e
       -0.0485762 -0.080820724 -0.6008031 0.31113085
0002e0 4b b4 3a bd a9 4c 83 3e 57 a8 e2 be 4a e9 da 3e
       -0.045582097 0.25644425 -0.44269058 0.4275611
0002f0 1c 4f 95 3e 85 0a 37 3d 2b 05 e8 3e 33 d1 84 3d
       0.29161918 0.044687767 0.45316443 0.06485214
000300 90 2e b7 be a2 6c 3e 3c 94 99 09 be ca 3a 39 3d
       -0.35777712 0.01162258 -0.13437492 0.04522208
000310 51 ed 8e bd 86 a5 40 be 3b 07 04 be 2f 8d 95 be
       -0.06978858 -0.18813142 -0.12893383 -0.29209277
000320 8e d5 e6 bd da a9 34 3e 2f 9c 26 be 3e 32 ce 3e
       -0.11271201 0.17642918 -0.16270517 0.40272707
000330 06 4e db 3b 98 15 7a be ab 59 1a 3d 09 18 85 3e
       0.0066926507 -0.244223 0.03768317 0.259949
000340 a7 9d 57 bf b2 c0 30 3d 97 60 40 bf b7 29 ef 3d
       -0.84224933 0.04315252 -0.75147384 0.11677878
000350 96 41 c0 be 16 e1 5e 3e 03 93 04 bf 3b 4a 8f be
       -0.37550038 0.21765551 -0.5178682 -0.2798632
000360 bc 0a 0e 3e 4d e9 52 bf 47 64 89 be d1 0f 85 be
       0.13871282 -0.8238724 -0.26834318 -0.2598863
000370 59 b8 f1 bd 95 45 2b 3e 29 9b f4 bd cf 0b 93 bc
       -0.1180274 0.16725762 -0.11943657 -0.017949967
000380 94 a4 14 3e 70 31 af be cf 1c 19 bd 98 cc e5 3d
       0.14515907 -0.34217405 -0.03738099 0.11220664
000390 d2 1c d1 be 27 f9 30 3e f9 6a 9e be 14 37 a7 bd
       -0.408423 0.17282544 -0.3094099 -0.08164802
0003a0 f0 03 1c 3e 1d 6f 8a 3e 31 68 d3 3b ce 44 a6 3e
       0.15235877 0.27037898 0.0064516296 0.3247437
0003b0 47 f6 d8 3c fb c1 0a 3f 9e 84 da 3c ce 25 b1 3d
       0.026484622 0.5420224 0.026674565 0.08649789
0003c0 fb 9f fb be 4f 64 18 3e 32 e0 36 bf 5d 6a 79 3e
       -0.49145493 0.14882015 -0.71435845 0.2435698
0003d0 0c e8 19 3f bb 4a 13 bd 23 cc a2 3c d7 8b d8 3e
       0.601197 -0.03595994 0.01987273 0.4229419
0003e0 59 64 65 bf 2c 42 60 be 20 dc 26 bc 7a d2 98 3d
       -0.89606243 -0.21900243 -0.010184318 0.0746202
0003f0 ef 60 9e be 43 c8 b5 be 9d d2 8b 3e e4 93 73 bf
       -0.3093333 -0.3550435 0.27309123 -0.9514754

bias f4 [20]
000000 97 2e f5 3e f7 b8 c0 3d 1a 97 5d be 86 52 b4 3e
       0.47887108 0.09410279 -0.21639672 0.3521921
000010 56 39 93 3c db f4 e6 bd 51 4b aa 3b b8 61 e3 3d
       0.017971676 -0.11277171 0.0051969667 0.11102623
000020 34 04 7b bc bb c6 bd bd fb 3c b0 3e 8d 4b f4 3b
       -0.015320826 -0.092664205 0.34421524 0.0074552954
000030 75 61 cc be 21 3e bf bd b2 57 2e 3d 57 3e b4 bc
       -0.39918104 -0.09338022 0.0425641 -0.022002382
000040 9d ef 09 bf e5 1d cc bd 6b f8 1a be c5 58 ac be
       -0.53881246 -0.099666394 -0.15133826 -0.33661476

weight f4 [20, 20]
000000 6b 72 81 3e 41 fa 11 3f a7 ff 4b 3e 58 54 6b be
       0.25282606 0.5702248 0.19921742 -0.22981393
000010 7c f2 2c 3f 8c 5c cc be a7 a9 fb 3e d7 26 0e bf
       0.675575 -0.39914358 0.49152872 -0.55528015
000020 df 70 8d 3f 9b 28 82 be a9 73 8f 3c fd 32 88 bd
       1.105007 -0.25421605 0.017511206 -0.0665035
000030 f4 eb a7 3e 70 53 76 bd e6 14 1a bf d5 97 15 3f
       0.32797205 -0.060138166 -0.6018814 0.584348
000040 b4 03 9e 3f fe 58 ab 3e 09 6d 84 3e ec f3 19 be
       1.234488 0.33466333 0.25864437 -0.15034455
000050 3d 48 09 be f2 2a 29 3e 51 74 d8 3e 85 1a cf be
       -0.13406463 0.16520289 0.42276242 -0.4044992
000060 93 3f 3a 3f 1c d4 3f 3f 0d 87 90 3e 91 9b 31 3e
       0.72753257 0.7493303 0.28228036 0.173445
000070 a5 11 57 bf 9c 2a 9f bd a0 0a 37 bf 8c e1 3b be
       -0.840113 -0.07771799 -0.7150059 -0.18347758
000080 fa 36 83 bf 55 5f 96 3f 7e 09 e4 be ba 03 b2 bf
       -1.0251153 1.1747843 -0.44538492 -1.3907387
000090 5a d2 24 3f ef 1d 37 3f cc 13 f1 be 88 8e bc 3e
       0.6438347 0.7153005 -0.47085416 0.36827493
0000a0 db 42 7c bf a7 5d 8e be dc fe 37 3f ec 4d d3 be
       -0.98539513 -0.27805826 0.7187326 -0.41270387
0000b0 64 f7 26 bf 06 d4 5c 3e e1 98 d5 be 63 f8 c0 3e
       -0.6522124 0.21565256 -0.417182 0.37689504
0000c0 cd b6 8c 3e b1 e5 10 3f c1 10 7d be ab 2b a0 bd
       0.27483216 0.5660048 -0.24713422 -0.07820829
0000d0 76 57 3b 3f fb ac c0 be c6 39 43 3e 8c 59 f8 be
       0.7318033 -0.37631974 0.19065008 -0.4850582
0000e0 12 9e 45 bc 26 25 71 3f 14 b6 51 3d ee 19 ce 3e
       -0.012061613 0.9419731 0.051199034 0.40254158
0000f0 07 47 b2 be 3d 32 26 be 83 4b 2d 3e 94 67 50 be
       -0.34819815 -0.16230102 0.16923337 -0.20352012
000100 5a a6 1c bf b4 e0 21 be c7 ea 66 3e 96 e1 43 3e
       -0.6119133 -0.15808374 0.22550498 0.19129023
000110 01 d7 d6 3e c1 6b e3 3e 92 5c dd 3d 83 62 18 bf
       0.4196091 0.44418147 0.10808672 -0.59525317
000120 e4 5f 1d 3f 65 7f 55 be fd 73 a8 3c 6b 20 8e 3d
       0.6147444 -0.20849378 0.02056312 0.06939777
000130 7c ba 8e bd 45 ff 64 3f b1 c9 b4 bc 0d 0a 60 be
       -0.06969163 0.8945201 -0.02206883 -0.21878834
000140 7c 69 29 3f 6c 01 22 be df fa 1f bf 55 9f 45 3e
       0.6617658 -0.15820855 -0.62492174 0.19299062
000150 37 28 46 3e 2d b1 4d 3b 15 13 ee bd af 63 19 bd
       0.19351278 0.0031386123 -0.11624733 -0.03744858
000160 46 45 00 bf 9c 43 84 be 0a bb 10 3e 1e 08 1e 3e
       -0.501057 -0.25832832 0.1413385 0.15432784
000170 c0 6f 4c be 0a af fe 3e 75 9d 9c bd fd de dd 3b
       -0.19964504 0.4974292 -0.0764722 0.006770967
000180 70 1e 93 be 18 7f 2c bf 12 30 be be 43 d9 6b be
       -0.2873416 -0.6738143 -0.3714605 -0.23032098
000190 b4 d7 58 3d 76 9d b7 3e 11 f1 70 bd 21 78 17 3f
       0.052940086 0.3586232 -0.05882365 0.5916768
0001a0 b9 ef d7 3e b3 67 34 be 17 9f 7c be fb 67 d0 be
       0.4217508 -0.17617683 -0.24670063 -0.4070433
0001b0 81 6d 1c bf a7 83 88 3e 9a 20 82 bd e5 06 94 3b
       -0.6110459 0.26662943 -0.063538745 0.0045174235
0001c0 06 7b 36 bf 57 08 82 3e d2 fd f7 be ca 1d 82 3f
       -0.7128147 0.25396988 -0.48435837 1.0165341
0001d0 ea bc 4e bf f7 f8 32 be b8 08 d1 3e 0e a9 0b 3e
       -0.8075701 -0.17477785 0.40826964 0.13638708
0001e0 18 09 33 bf d5 77 c7 bc 34 bf 57 3e 97 ed 1d bf
       -0.6993575 -0.024349133 0.21069032 -0.6169066
0001f0 47 33 76 bf ff e8 26 bd 0d f6 85 3e a2 c4 9f 3d
       -0.96171993 -0.040749546 0.26164284 0.078011766
000200 fe 14 8f 3e 83 d7 07 3f 19 ea fe be da 77 c1 be
       0.27945703 0.5306322 -0.49787977 -0.37786752
000210 34 4f 70 3f 6f b0 06 bf 27 40 8a 3f f3 5d 92 3d
       0.93870854 -0.52612966 1.0800828 0.07146826
000220 90 d6 e2 3f 64 26 64 3e 04 f7 af bd 09 7d 49 3d
       1.7721729 0.2228027 -0.08592036 0.04919151
000230 70 a4 ea 3d bb b7 11 bf 20 7e 25 bf 42 77 29 3f
       0.11457145 -0.56920975 -0.64645576 0.661976
000240 3a ac 60 bf e3 43 1d 3f af f8 20 3e b6 a1 bf 3e
       -0.87762797 0.6143171 0.15719865 0.37428063
000250 1f 4e b6 3e c1 5c ed be a0 fc 25 3f b9 4e 57 3e
       0.35606477 -0.46359828 0.648386 0.21026124
000260 6f 03 7b 3f bb f4 0c bf ce 13 1b be e9 64 49 3f
       0.98052114 -0.5506093 -0.15144274 0.786696
000270 bf 39 86 bd b3 29 e3 be f8 dc df be 2e 71 c1 bd
       -0.06553983 -0.4436775 -0.43723273 -0.094454154
000280 ab d7 1b 3f 7a bd 12 3e c1 54 04 bf 0d 48 50 be
       0.6087596 0.14330092 -0.51691824 -0.20339985
000290 23 ef 8c 3e 5e e8 0a 3e f6 a2 03 bf 69 e8 0a 3e
       0.27526197 0.13565204 -0.51420534 0.1356522
0002a0 fd 2a 42 3e f3 14 1e be 91 b3 b0 3c 23 88 b6 3d
       0.18961711 -0.15437679 0.021569999 0.08912685
0002b0 24 90 c9 3e 8a 68 42 3e 3e d1 f6 3e 37 88 ad 3d
       0.39367783 0.18985191 0.48206514 0.084732465
0002c0 92 a8 09 bf c2 4c e1 be be cf 85 3e a6 4c 94 be
       -0.5377284 -0.44003874 0.26135057 -0.28964728
0002d0 e1 07 17 3e fa e3 ac 3e ec f9 c9 bd 79 33 51 be
       0.147491 0.33767682 -0.09862122 -0.20429792
0002e0 0d 7f cb bd 18 04 2d be 27 27 20 be 06 07 99 bd
       -0.099363424 -0.16896093 -0.15639935 -0.07472043
0002f0 0a 7e 9f be ea 75 47 3e 10 ad d1 be 95 dd a2 3d
       -0.31150848 0.19478574 -0.4095235 0.0795242
000300 40 2c 9a bf ac fc 84 3e ef 90 0b 3f 92 96 0e bf
       -1.2044754 0.25974023 0.54518026 -0.556985
000310 46 69 de be e4 52 33 bf ae c4 00 be 44 d2 c6 bd
       -0.43439692 -0.70048356 -0.12575027 -0.09708074
000320 7c 05 04 3e 0a 8d 26 3f 2a d2 c5 3d c3 5f 59 3e
       0.12892717 0.6505896 0.09659226 0.21227936
000330 f0 a8 91 3e 51 05 17 3c 03 8f 58 bf 98 85 e6 3c
       0.28449202 0.009217576 -0.8459322 0.028139874
000340 2e eb 09 40 cd 4a 6d 3e a3 23 1f bf ea 50 dc bc
       2.1549792 0.23173065 -0.6216375 -0.026894052
000350 68 16 68 3f 1a ec 5c 3c b3 23 2a 3f 86 bc 98 be
       0.9065919 0.013484025 0.6646072 -0.29831332
000360 74 4f f5 bd 69 e8 0e bf 3d 51 80 bd 1b e6 90 3e
       -0.11978045 -0.5582338 -0.06265495 0.28300557
000370 29 6e 1b 3e 27 8b b0 3e 76 61 5d 3d c6 c2 47 be
       0.15178742 0.34481165 0.054048024 -0.19507894
000380 2b 4e 41 bd 37 60 d0 3e ab 91 0a 3e 27 d3 e5 be
       -0.047193687 0.40698406 0.1353213 -0.4488766
000390 fa 12 19 bf 0a 61 e0 bd af 1a 90 be 2d a9 ee 3d
       -0.5979458 -0.10956009 -0.28145358 0.116533615
0003a0 14 6d 43 bf c0 97 a8 3e 9a a5 dc be 1d 1b a6 be
       -0.76338315 0.32928276 -0.43095094 -0.3244256
0003b0 4a 24 8e 3e 98 cb 1b 3e 0c 55 cc be 17 22 63 3e
       0.2776206 0.15214384 -0.39908636 0.22180973
0003c0 9b cc 79 3e 56 91 80 be f1 c3 84 be 40 43 8e bd
       0.24394457 -0.25110883 -0.2593074 -0.06946421
0003d0 dc 02 02 bf d3 fd 4a bf 49 6f a1 3c 9f 07 ff 3d
       -0.50785613 -0.79293555 0.019706385 0.124526255
0003e0 79 b8 92 3e 7f 95 76 3e 03 ba 61 be d0 3d a7 bd
       0.28656366 0.24080466 -0.22043614 -0.08166087
0003f0 b5 c5 89 3c 3a 6e 28 be bb 8c 21 3f 5b d9 ad 3f
       0.016817907 -0.16448298 0.6310536 1.3581957

bias f4 [20]
000000 f7 58 d9 bd c2 c5 da be f5 4c b0 bc f5 1a 46 be
       -0.10612672 -0.42729002 -0.021521071 -0.19346221
000010 10 68 df 3e 3b f2 0a 3e a1 07 c5 be 4e 70 20 be
       0.4363408 0.13568966 -0.38482383 -0.15667841
000020 d8 18 b0 3e cd c2 57 3e 2e a4 38 be 98 d5 b8 3d
       0.34393954 0.21070404 -0.1803138 0.09025115
000030 78 26 70 be f0 99 c1 3d 7e 3d 9e 3e 01 ca cd 3e
       -0.23452175 0.094531894 0.3090629 0.4019318
000040 3b b8 23 3e aa 2e 7c be 87 9f b2 3d 04 40 1d be
       0.15988247 -0.24627176 0.08721834 -0.15356451

weight f4 [20, 20]
000000 3c 80 f4 3d f2 3d a2 3f 14 46 3c 3f b1 e1 bb be
       0.11938521 1.2675154 0.7354443 -0.36695626
000010 57 5a 0b 3e f4 ca 9a bd e0 c8 71 be 12 c3 3b bf
       0.1360868 -0.075582415 -0.23611784 -0.7334453
000020 7f b7 b8 3e 21 a2 fb 3e 3b 98 4a 3d 30 2d dd 3e
       0.36077496 0.49147132 0.049461585 0.43198538
000030 7a 12 0d bf df 7f 38 bf bb 12 ea bd ea 00 cc bd
       -0.5510632 -0.72070116 -0.11429354 -0.09961112
000040 ea 84 b7 3d bf e6 9b be ba 3f b5 be b9 1d 19 bd
       0.08960898 -0.30449483 -0.35400182 -0.03738186
000050 42 99 7e 3f 03 0c 1f bf aa 8b ab 3c 80 1f 0f bf
       0.994526 -0.62127703 0.02094062 -0.5590744
000060 53 1d 43 3d c1 8d c2 3c 89 81 bd be 3f 6a 63 be
       0.047635388 0.023749234 -0.3701289 -0.22208498
000070 7f 3e 03 3f c3 4a 02 be 81 29 f3 3f 38 24 24 bf
       0.51267236 -0.12723832 1.8997041 -0.64117765
000080 61 34 1e bd 5d fb 92 3d 48 a1 c3 be 8f 3b df be
       -0.03862417 0.0717685 -0.38208985 -0.43600127
000090 ff d6 81 be 40 cb cc 3d 7c 07 11 bf 1c a7 68 3e
       -0.25359342 0.09999704 -0.56652045 0.22719997
0000a0 c4 73 29 3f 7b 8c 64 3f 57 0e 47 bd 7f 2a 1f 3e
       0.6619227 0.89276856 -0.04859766 0.15543555
0000b0 b9 7c 00 bf 4d 7f 27 bf ea fb 7d bd d9 b9 f4 3d
       -0.5019031 -0.6542862 -0.062007822 0.1194951
0000c0 3e 26 d2 be 19 15 ec bd 96 43 5b bd 9a 05 12 3e
       -0.410448 -0.115274616 -0.05353125 0.1425995
0000d0 7e 4b d9 be c5 d2 df bd 8b 24 66 bf e0 5c e5 be
       -0.42440408 -0.10928873 -0.8989951 -0.4479742
0000e0 93 01 23 be c0 ec 02 bf 0d a0 25 bf b8 62 ac 3e
       -0.1591857 -0.511425 -0.64697343 0.33669066
0000f0 60 b5 ae be 3e a1 96 3f da e1 3b 3f 19 9e b1 be
       -0.34122753 1.1767957 0.733915 -0.3469093
000100 e8 9e 9d be 9d c9 83 bd 01 a7 87 3f 7d 42 cf be
       -0.30785298 -0.06434939 1.059784 -0.40480414
000110 56 cf f0 3d da 31 8f bf c6 8a 69 bf 2d 28 79 bd
       0.11758296 -1.1187088 -0.91227376 -0.06082933
000120 2f c1 0b 3e f9 b1 6d 3f c2 da bd 3d 7f d0 7d be
       0.13647912 0.9284969 0.0927024 -0.24786566
000130 e5 f6 4f be 91 6f eb 3e 1e b7 bd bc ae 7a b6 3e
       -0.20309027 0.45983556 -0.023158606 0.35640472
000140 cc c5 48 be ff 94 b2 bf 90 30 38 3f 7b f4 f6 bd
       -0.19606704 -1.395172 0.719491 -0.1205835
000150 37 71 ad 3d 96 22 a3 be d9 1f 52 3f 80 55 89 bc
       0.0846886 -0.31862324 0.82079846 -0.016764402
000160 16 ef b1 bd 2d 22 4e 3d 5c 8d 7c bf 86 ee 8f be
       -0.0868818 0.05032556 -0.986532 -0.28111666
000170 23 7d b0 bd 8f a7 cd 3d 91 b7 f0 be c9 fb 02 3f
       -0.08617618 0.10041725 -0.4701505 0.51165444
000180 b6 b6 df bd 1b bc b0 3e 10 7d 54 be 00 fa f3 3e
       -0.10923521 0.34518513 -0.20750833 0.47651672
000190 c5 c0 2b be 9a 4f 35 bf 2a cb 0b bf 8d 13 b2 3e
       -0.16772754 -0.7082459 -0.5460688 0.3478054
0001a0 93 50 26 3f 91 8d d2 bd d9 39 1d bf 19 33 fb 3e
       0.64966697 -0.10280908 -0.61416394 0.49062422
0001b0 b9 83 36 3e 6c 22 78 be 00 cc d8 be 87 ea 87 be
       0.17823686 -0.24231881 -0.4234314 -0.26546118
0001c0 d8 2d 66 bd be 99 db 3e f5 ac 44 3e 73 b8 78 3f
       -0.056196064 0.42890733 0.19206603 0.9715645
0001d0 98 58 9b bc 1c e9 ae 3b 9a 7b 06 bf cf 77 78 be
       -0.018963143 0.0053378474 -0.5253235 -0.24264453
0001e0 ac 5a e4 3d 17 6f 08 c0 d2 1e aa bc e7 6a 16 3c
       0.11150107 -2.1317804 -0.02076665 0.009180761
0001f0 e7 be 82 be 5d eb 9d 3d 23 f7 98 bf f7 0f 6a 3f
       -0.25536272 0.077109076 -1.195042 0.9143061
000200 8b 5e 41 3e 15 ee 38 bd 2f 0c 8e bf f4 97 2a be
       0.18883722 -0.045148928 -1.1097468 -0.16659528
000210 fa 5e a0 3e a1 ac 81 3e 04 e0 09 3f d8 1c 0a 3f
       0.3132246 0.25327018 0.53857446 0.5395026
000220 cf 96 cd 3f 78 b2 df 3e 58 55 cb be ed 04 f3 bc
       1.6061648 0.43690848 -0.3971355 -0.029665435
000230 d1 43 03 be bf f6 69 bf f3 e0 94 3f 2e 3d 09 bf
       -0.12818839 -0.9139213 1.1631149 -0.5360898
000240 4f 18 20 bf 3b 84 b0 3c 0b ec 77 3c 38 cd 8f bf
       -0.6253709 0.021547427 0.015131961 -1.1234503
000250 f8 53 bc be d3 06 83 3e 76 58 91 bd 5b 6e 99 be
       -0.36782813 0.25591144 -0.07096951 -0.29967007
000260 e4 37 13 3f 42 c1 ac be 78 68 98 be 65 c7 e8 be
       0.5750716 -0.33741194 -0.29767203 -0.45464626
000270 c4 c0 a6 bd d6 a0 59 3c d6 2b 78 3e f4 e1 5b 3e
       -0.08142236 0.013282975 0.24235472 0.21472913
000280 99 f5 16 bf 5a db a9 3e e3 33 79 3e 4f d3 38 3d
       -0.589685 0.33175164 0.243362 0.045123395
000290 4d 7d 94 be cd bb 6e bf ae 0a 8f 3f 2b bb 76 be
       -0.29001847 -0.9325531 1.1175134 -0.24094836
0002a0 55 5b f5 bd d2 f5 2e 3e 96 8e 85 3e 2b 55 08 bf
       -0.11980311 0.1708596 0.26085347 -0.53254956
0002b0 8d a0 b3 bd b2 c8 19 3d 52 9f e8 3d 42 f8 61 be
       -0.08770857 0.037544914 0.11358513 -0.22067359
0002c0 d1 b1 a3 be 57 67 18 be 71 9e 95 be db 54 45 3f
       -0.319716 -0.14883171 -0.29222444 0.77082604
0002d0 f9 6c 19 be 73 46 47 3f 2b f4 eb 3e 91 5f 57 bd
       -0.14982976 0.7784187 0.46084723 -0.052581374
0002e0 00 27 42 be ba 71 bb 3d 3d a5 a1 be 87 e1 8a bd
       -0.1896019 0.09152551 -0.3157138 -0.06781297
0002f0 e4 7e 95 3d 87 db cf 3e f5 e9 46 3e a2 2a 0c be
       0.07299593 0.40597174 0.19425185 -0.13688138
000300 71 62 65 bf ed 95 bf 3e c1 27 57 be 2b 44 82 3a
       -0.89603335 0.37419072 -0.21011259 0.0009938529
000310 9d ab de be 80 11 17 3d fc c7 da 3c a1 8b 24 3e
       -0.43490306 0.036881924 0.026706688 0.16068889
000320 6f 1f c2 3e ab ac 91 bd cf e9 12 3f a7 d8 a2 3e
       0.37914607 -0.07113012 0.57388014 0.31805918
000330 a3 b9 9b be c9 20 c2 3e 58 83 01 be 5b 89 ca be
       -0.30415067 0.37915638 -0.1264776 -0.3955792
000340 37 08 d0 bd 19 8c f2 be a3 7b ad bd 11 40 42 3e
       -0.10157817 -0.4737251 -0.084708475 0.18969752
000350 ea 4f 0b bf 9a d1 b8 be ed dd 21 bf db c6 f8 bd
       -0.54418814 -0.36097413 -0.63229257 -0.12147304
000360 6c 7c 1e 3e 80 36 eb be 2c 00 87 3e a5 cc 26 be
       0.1547715 -0.45940018 0.2636732 -0.16289003
000370 db a3 a2 bf 90 24 05 3f a0 1d 48 3e ed a4 59 3d
       -1.2706255 0.52008915 0.19542551 0.0531358
000380 b6 fa f3 be 3e 65 2c 3f 7f 3d 93 bf 0b 0a c4 3d
       -0.47652215 0.67341983 -1.1503142 0.09572228
000390 10 f1 f7 bd 8a e8 27 3f 79 5e e4 bd 56 55 93 3e
       -0.12106526 0.655892 -0.11150832 0.28776044
0003a0 a9 96 b7 3e 4a e0 9a 3e c5 5f be bc 89 8e 74 be
       0.35857132 0.30249244 -0.023239026 -0.23882498
0003b0 8b 76 3e be 48 42 62 bf 37 99 3f 3f 35 13 fd bc
       -0.18599908 -0.8838239 0.7484316 -0.030892948
0003c0 45 2f f4 be 5d cf 09 3d de 2f 47 3e ab a3 88 be
       -0.47692314 0.033645023 0.19451854 -0.2668737
0003d0 be d6 63 be 9d f4 12 3f ff 2d 0b bf a4 e0 8a be
       -0.22249886 0.574045 -0.5436706 -0.27124512
0003e0 c2 1e 81 3e bd 92 07 3d f2 f2 05 3f 28 b1 bd bd
       0.2521878 0.033098925 0.5232383 -0.092623055
0003f0 9a 86 52 bf 8f 69 32 3e 59 02 94 bf d6 ab 88 3e
       -0.82236636 0.1742308 -1.1563216 0.266936

bias f4 [20]
000000 ba 67 24 3e 78 d1 9a 3e 38 6e c7 be c3 e7 1b bf
       0.16055194 0.30237937 -0.38951278 -0.60900515
000010 f5 5e ba 3c 90 99 12 3f fc 35 21 3e 64 85 2f bf
       0.022750357 0.5726557 0.1574325 -0.6856291
000020 1f 07 8d bd 08 88 9e 3d 13 5b 51 be 1b 78 00 be
       -0.06886124 0.0774079 -0.20444898 -0.12545817
000030 c3 08 15 3d 54 2b fb 3d 6f e7 a7 bd 86 c5 ca 3c
       0.03638531 0.122641236 -0.08198439 0.02475239
000040 48 b4 db 3e bf 09 8f 3e eb bf a8 be f2 64 2f 3f
       0.4291098 0.27937123 -0.32958922 0.68513405

weight f4 [20, 20]
000000 d1 3a 6a 3e 0f d3 ce 3e 14 21 fa be 1e d7 1c 3e
       0.22873999 0.403954 -0.48853362 0.15316436
000010 31 7b a9 3e a0 f0 a3 bd 44 a2 95 bd b4 bd e0 3e
       0.331018 -0.0800488 -0.0730634 0.43894732
000020 81 36 b3 3e 98 34 d0 3e f1 7c f1 3e 09 43 14 be
       0.3500252 0.40665126 0.47165635 -0.14478697
000030 c0 94 3e 3f 80 1e c3 3f ca cc 3b bf 40 39 9c be
       0.74445724 1.5243683 -0.7335936 -0.30512428
000040 a8 af 5e be c2 fd 12 3f b4 5b 22 bf ab 31 19 bf
       -0.21746695 0.57418454 -0.6342118 -0.5984141
000050 32 c9 1c 3f e0 9b d8 3e 17 78 db 3e 1b 5b ad 3d
       0.612445 0.42306423 0.4286506 0.084646426
000060 d2 0f 60 3f 4b 56 18 bf c2 ee ca be da 64 a4 3f
       0.8752414 -0.5950667 -0.39635283 1.2843277
000070 d7 5b 64 3f 8a 10 97 3e 39 83 9d 3d 16 af 61 bf
       0.89202636 0.29504806 0.07691044 -0.88157785
000080 51 71 63 3f 36 4c 7a 3f 35 7b 11 3e 90 3e 10 be
       0.8884478 0.9777254 0.14207156 -0.14086366
000090 06 a9 cb 3e 36 83 6d bf 26 89 93 3e cd 90 c1 bd
       0.39777392 -0.92778337 0.28815573 -0.09451447
0000a0 0a ff 76 bd 61 d2 c8 be ba 44 93 be 7d 59 42 bf
       -0.060301818 -0.39223006 -0.28763372 -0.759178
0000b0 c4 fb 3b bf 9f 34 cf 3e 70 b3 bd 3e 19 e4 73 bf
       -0.7343104 0.40469834 0.37050962 -0.95269924
0000c0 17 b5 1e be 56 00 0e bb db 32 7b be eb fa 0b 3e
       -0.15498768 -0.002166768 -0.24531119 0.13669936
0000d0 f2 c2 94 3d 42 3a 84 bf c0 98 ce 3e bc 54 15 3f
       0.07263745 -1.0330279 0.40350914 0.5833242
0000e0 ee 52 65 3e bb 8e 71 3d 77 0d 10 3f b6 a4 56 3f
       0.22394916 0.05897401 0.56270546 0.8384508
0000f0 60 2d 44 bf 58 72 c8 bd 3e 53 67 be 38 7d 29 bf
       -0.76631737 -0.09787434 -0.22590348 -0.66206694
000100 dd 0d 72 be d4 ba 9a 3e 57 dd bd be a4 c4 ff be
       -0.23638101 0.30220664 -0.3708293 -0.49954712
000110 96 63 18 3e 9a 7a 08 3f 44 6d 41 bb 9b 8d e8 3f
       0.14881739 0.53312075 -0.002951459 1.8168215
000120 e6 92 08 3f b2 e1 01 bf d4 f4 f2 be cc fe ac 3f
       0.5334915 -0.5073501 -0.47452414 1.3515258
000130 56 58 a1 be 34 8d 66 3e 08 9f 03 3f dd 95 85 3e
       -0.31512707 0.22514802 0.5141454 0.260909
000140 8f d0 87 be d3 70 1c bf 0a 39 76 3e 7a b1 b4 be
       -0.26526305 -0.61109656 0.24045196 -0.35291654
000150 50 60 fc be cc 37 98 bd 62 f2 e9 bc d8 c8 00 bf
       -0.4929223 -0.074325174 -0.02855796 -0.50306463
000160 33 90 e3 3d c6 8e 0d bf 37 72 d7 bc 51 82 0e be
       0.11111488 -0.5529598 -0.02629958 -0.139169
000170 a8 ce cf be af 91 ff be dc 6d 56 3d b4 f8 9b be
       -0.40587354 -0.49915835 0.052350864 -0.30463183
000180 77 5d c5 3c 1e 36 25 be 00 74 e2 3c 1f 3a b3 be
       0.02409242 -0.16133925 0.027643204 -0.3500528
000190 02 2f 33 3f ab 04 bc be b6 04 80 bf 4d 3b 77 3f
       0.69993603 -0.3672231 -1.0001438 0.9657486
0001a0 aa a5 90 bf 35 5a d6 be 59 2b c5 3e 24 0b 6b bf
       -1.1300557 -0.41865698 0.38509634 -0.91813874
0001b0 51 d7 e2 3d ab 24 25 bf dd a2 fc be 7d e2 f2 3e
       0.110762246 -0.64509076 -0.49343005 0.47438422
0001c0 b2 1b bf be 65 2f 83 bf bc 3a 1a bf 56 a0 48 3f
       -0.37325817 -1.0248839 -0.6024587 0.78369653
0001d0 d3 68 c4 3e e4 7f ae 3d 1a 71 78 bd 93 ec 8e 3f
       0.38361225 0.08520487 -0.060654737 1.1165947
0001e0 33 e3 4f bd 8e 9c 8a 3f 7e de b8 be a9 fb 80 3f
       -0.050753783 1.0829027 -0.36107248 1.00768
0001f0 43 83 93 3f 9d e7 44 bf 6e 2b 28 3f 82 cc 08 bf
       1.1524433 -0.76915914 0.6569127 -0.53437054
000200 d0 4d 6c bd 8a 9d 05 bf e2 14 38 3f c7 9d 2f bf
       -0.057691395 -0.5219351 0.71906865 -0.68600124
000210 a8 c0 23 3e 00 2c 8c 3d 51 a6 80 be 30 15 13 bf
       0.15991461 0.0684433 -0.2512689 -0.57454205
000220 28 32 e3 be 45 51 cb be 3f f2 af 3d 8c 3b f9 bf
       -0.44374204 -0.3971044 0.08591127 -1.9471297
000230 2d 5c 32 3e 48 b3 7f be 9a c0 1a bf 74 72 ad 3d
       0.17417975 -0.24970734 -0.60450137 0.08469096
000240 f0 7d 49 bd bf db 22 3e 53 65 02 bf e0 6f f6 bd
       -0.04919237 0.15904139 -0.5093586 -0.12033057
000250 5e d4 b1 3e 87 af 7b 3e be 3c c8 be 26 2b 89 3d
       0.34732336 0.24578677 -0.39108843 0.06697683
000260 4b 30 40 be 6a 4f 99 be c2 bb 76 be c0 17 97 be
       -0.18768422 -0.299434 -0.24095061 -0.29510307
000270 99 8f df 3e e9 5e e0 3e 42 67 2f bf 7f 5a f0 3e
       0.43664244 0.4382241 -0.68516934 0.46944043
000280 4c 73 4e 3c 8f 0d da bd ef 42 38 be d0 91 a2 3e
       0.012600731 -0.10647117 -0.17994283 0.3175187
000290 cd 15 e0 3e 4c 34 16 be c1 73 f8 bd 28 e0 21 3f
       0.43766633 -0.14668387 -0.12131453 0.6323266
0002a0 dc cd 72 3e 34 b5 4a 3e 58 c6 f8 bd a0 fd 23 bd
       0.23711342 0.19795686 -0.12147206 -0.040036798
0002b0 9e 6d a2 3d 0d 6f 12 3c 83 56 3a bf 6e 42 c0 3e
       0.07931064 0.008937609 -0.72788256 0.37550682
0002c0 be a1 fd 3e 5c 93 a0 bf c9 ea 13 be cf 64 88 be
       0.49537462 -1.254497 -0.14445032 -0.2663941
0002d0 3a 79 93 be fd a4 59 bf 22 4e a1 bd 11 b8 49 3f
       -0.28803426 -0.8501738 -0.07876231 0.7879649
0002e0 a3 42 7c 3e b2 d2 31 3d 60 36 c1 bd 53 ec 8d be
       0.24634795 0.043413825 -0.09434199 -0.27719364
0002f0 ab f3 dc 3e da 0d d3 be f0 a5 5a bf 75 83 96 bd
       0.43154654 -0.41221505 -0.8540945 -0.07349292
000300 9c 3a 8e bf 31 76 92 bf 62 c4 eb 3a b9 1f 60 bf
       -1.1111636 -1.1442319 0.0017987604 -0.87548405
000310 7b 61 5a 3f 4f 68 97 3e 84 df 29 bf 2b 53 b8 3e
       0.85304993 0.2957177 -0.6635668 0.36000952
000320 33 fb e6 3e 63 78 0d bc f3 f7 c5 3e ac 7d fc be
       0.45113525 -0.008634659 0.38665733 -0.4931463
000330 4a 65 df be 3a f3 79 bc 06 8f 1d 3f 30 8b fc be
       -0.43631965 -0.015255744 0.6154636 -0.49324942
000340 ac cb 9a bf b8 68 54 bd d2 23 8a 3e f7 e8 f4 be
       -1.2093406 -0.05185768 0.26980454 -0.47833988
000350 35 7e ed be f7 26 f8 3e af 01 87 be bc 00 3f 3f
       -0.4638535 0.48467228 -0.26368472 0.74610496
000360 31 cb 2a bf 8c e4 a0 3e e8 4e bb 3c cd 4f 6c 3e
       -0.66716295 0.31424367 0.022864774 0.23077317
000370 a3 ff 8f 3e a6 e6 90 3e 3b 78 82 3f ef a1 41 3d
       0.28124723 0.2830097 1.0192941 0.047273573
000380 95 e9 d2 3e 5e d9 30 3e 1f 87 05 3d e3 89 d6 bd
       0.41193834 0.17270419 0.032599565 -0.104755186
000390 5b f7 3c 3e 33 0b d4 3d e3 08 13 3f 2a 08 c1 bd
       0.18453734 0.103536986 0.57435435 -0.09425385
0003a0 7e f0 13 3f 1f 91 86 bd c0 cf 90 bd 70 08 f7 3d
       0.57788837 -0.065706484 -0.07070875 0.12062156
0003b0 8c 9c 67 be f1 8a 5f be fe 46 94 3f 34 c5 f6 be
       -0.22618312 -0.21830346 1.1584165 -0.4819733
0003c0 be 86 8e 3d 12 70 61 bf 25 7e 30 3f 5a 28 b4 3e
       0.06959294 -0.8806163 0.6894248 0.35187036
0003d0 fe 96 4b be c8 b5 23 3f f9 f3 c2 bf d5 fc 1a bf
       -0.19881818 0.6394925 -1.5230705 -0.6054204
0003e0 52 e0 e4 bd 59 73 27 3f c8 af ed bd 35 bd 7c be
       -0.11175598 0.6541038 -0.11605793 -0.24681552
0003f0 0f 12 f3 be b4 c9 fe 3f a7 de bf 3d 41 24 3a 3f
       -0.47474715 1.9905305 0.093686394 0.7271157

bias f4 [20]
000000 9d b9 e2 3d b1 2f 23 3e 36 41 24 bd 92 67 51 3e
       0.11070559 0.15936162 -0.040101252 0.20449665
000010 a7 eb d8 3e 23 be 55 bd 75 49 52 bf 68 57 cf 3e
       0.42367288 -0.05218328 -0.82143337 0.40496373
000020 c3 d3 28 bd 1b 1b 33 3f f2 f4 1e 3d f9 46 58 be
       -0.041217577 0.69963235 0.038807817 -0.21120824
000030 46 6a d2 3e cf c6 96 bc be 5b 09 3f 03 93 dc be
       0.41096705 -0.018405346 0.5365561 -0.4308091
000040 2a 0f 8b 3e 28 81 81 be a6 c6 a9 bd ab 62 cb 3e
       0.27160007 -0.2529385 -0.08289842 0.39723715

weight f4 [20, 20]
000000 8b 7e bc 3d b6 9a 5f 3f e9 4f 1d bf b8 90 0e be
       0.09203824 0.87345445 -0.6145006 -0.13922393
000010 58 7e ae be 32 6d 80 bf 5c 18 e0 3d 00 6c 6c be
       -0.34080768 -1.0033324 0.10942146 -0.23088074
000020 d7 e4 6a be 68 f3 cb 3c 3d 6a 9c 3e 90 09 2e bf
       -0.22938858 0.024896339 0.30549803 -0.6798334
000030 d7 d9 4d bf c1 5f 62 be 58 01 c5 bf 6b e2 01 40
       -0.8041052 -0.2210684 -1.5391035 2.0294445
000040 1e ce b8 be e6 41 9b 3f 19 76 5d be f2 63 c8 bf
       -0.36094755 1.2129486 -0.21627082 -1.5655501
000050 19 a7 a6 3e 39 ee eb 3e c7 05 9d 3e e8 92 a2 3e
       0.3254936 0.46080187 0.3066847 0.31752706
000060 7a 6c 84 be 13 36 f1 bd 6f 85 0f bf 17 49 b0 bd
       -0.2586401 -0.11777892 -0.5606298 -0.08607691
000070 58 f5 26 3d 98 c6 f4 3d 31 4b 2b 3e 68 f0 83 be
       0.04076132 0.11951941 0.16727902 -0.25769353
000080 89 51 41 be 35 de 96 3d 7b 4f c6 3d f2 5e 9d 3e
       -0.1887876 0.073666014 0.096831284 0.307365
000090 7d da b1 3e 0a 38 29 3e a4 f3 df 3d e7 16 9f 3e
       0.34737006 0.16525283 0.10935143 0.3107216
0000a0 19 b9 80 be 3a e4 2c be 08 a0 a6 3f a8 06 e2 3e
       -0.25141218 -0.16883937 1.3017588 0.44145703
0000b0 94 5a 53 3e c1 ee f4 3d f4 04 76 be d0 bb ab 3e
       0.20640022 0.11959601 -0.24025327 0.33541727
0000c0 7c 20 8d be 90 17 04 3f 47 33 fd 3e ee 4c a5 3c
       -0.27563846 0.51598454 0.49453184 0.020178284
0000d0 8b 36 91 bf 72 e4 36 3f 72 40 c7 3e e8 90 ae 3f
       -1.134477 0.7144233 0.38916355 1.3637972
0000e0 41 18 94 be 4f 40 ca 3e 9e a7 d3 bf 15 ca 01 bf
       -0.28924754 0.3950219 -1.6535528 -0.5069898
0000f0 da b8 dc 3e 13 d8 4a 3e 9d e0 be 3e dd 14 69 bf
       0.4310978 0.19808988 0.3728074 -0.9104746
000100 d9 b4 d3 be 5d 0a 02 bf b4 a2 cf bf e4 bd b8 be
       -0.41348913 -0.50797063 -1.6221528 -0.36082375
000110 19 3f 36 3e 56 d2 8e 3e 7b 52 a8 be 17 20 73 3e
       0.17797507 0.2789485 -0.32875428 0.2374271
000120 4a b4 67 3e 4f 8d 14 3e d9 f5 90 bc 4a 47 10 3e
       0.22627369 0.1450703 -0.017695354 0.14089695
000130 c1 59 44 be 33 c9 4a bd 1c d7 2b 3e 48 c5 4c bf
       -0.19174863 -0.049508285 0.16781276 -0.7998853
000140 c6 81 34 be e9 d0 d6 be af ea e3 bc b2 49 4f 3f
       -0.1762763 -0.4195626 -0.027821867 0.80971825
000150 27 a4 1b 3f e3 54 8f 3d c1 11 a2 3f 9d f8 44 3e
       0.6079735 0.06998613 1.2661668 0.19235463
000160 1a 12 8c bc d5 ca 74 be e0 6f 28 be a6 52 04 3e
       -0.017098475 -0.239055 -0.16448927 0.12922153
000170 7c da 09 be 16 a1 3a bc ef 7a e6 3d 21 60 08 bf
       -0.13462251 -0.011390945 0.112539165 -0.5327168
000180 16 1a ff 3d 9c 95 04 3e 1a c4 69 be 77 34 31 3f
       0.124561474 0.12947696 -0.22828713 0.6922068
000190 62 5b 38 be 1e e7 53 bf a2 8e c0 3d e5 d5 6b 3d
       -0.1800361 -0.8277453 0.09402205 0.057577033
0001a0 9c ec 1d 3d 77 2d dc 3e 64 b0 8a bc 29 b0 dc 3e
       0.038555726 0.43003437 -0.016929813 0.4310315
0001b0 46 29 63 bf 40 91 59 be d3 67 53 3f e4 62 11 3f
       -0.88734853 -0.21246815 0.825803 0.5679152
0001c0 67 5c 7c bf e5 26 9f 3e b1 2a 14 3e 40 a6 34 3f
       -0.98578495 0.31084362 0.1446941 0.7056618
0001d0 d8 d2 96 be ec 30 e7 3e 3e 64 7b bf 03 02 87 3f
       -0.29457736 0.45154512 -0.9819983 1.0547489
0001e0 46 0f 5e bf 4a 4b 70 3c 08 12 9b bc c5 31 54 bf
       -0.86742055 0.014666388 -0.018929496 -0.8288844
0001f0 78 44 c1 3e 44 e0 65 3f 98 60 61 be 49 0b 6c 3e
       0.3774755 0.8979533 -0.22009504 0.2305118
000200 e3 15 15 be 1c fb 11 be 98 5f e8 3d 8b e9 96 be
       -0.1455913 -0.14255947 0.11346358 -0.29475054
000210 04 ba 78 be 00 24 c8 be 38 ae f9 3d 75 cd 9a be
       -0.2428971 -0.39089966 0.12191433 -0.30234876
000220 39 e1 14 be 7d 52 8f be 2e 00 d8 3d ca d9 01 3d
       -0.1453904 -0.2799262 0.10546909 0.03170184
000230 6e 11 f2 3e 1d ec 74 bf 5c 92 fe 3e af 21 8c 3d
       0.47278923 -0.9567278 0.49721038 0.06842362
000240 fe 95 fc be d5 80 ac be a9 49 ba bf f0 e9 c9 be
       -0.49333185 -0.3369204 -1.4553729 -0.39436293
000250 ab 5d 98 bf 96 04 b7 be 1b 76 71 3e 0e 1c 59 be
       -1.1903585 -0.35745686 0.2358021 -0.21202108
000260 46 73 05 be 14 b5 10 3f b7 9e 1f bd 9f 01 30 be
       -0.13032255 0.56526303 -0.03896972 -0.17188118
000270 6c 24 79 3d fd 02 65 bd a9 3a ac bf b0 c2 88 bf
       0.06082575 -0.055911053 -1.3455402 -1.0684414
000280 d3 f0 db bd 98 c0 bc be b8 ac ad 3d 12 10 14 3f
       -0.10739293 -0.36865687 0.08480209 0.5783702
000290 20 a7 4f be 34 83 9b bf a7 76 c8 3e 5d d1 42 be
       -0.20278597 -1.2149415 0.39153025 -0.19025178
0002a0 67 97 a6 3d ab a6 1c 3e f8 0a 80 ba fb 5e 5c 3e
       0.081343465 0.15297954 -0.0009768894 0.21520607
0002b0 33 ea 24 3d c4 59 5d 3e c4 c6 2f 3d d4 00 5b be
       0.040262412 0.21616274 0.042914167 -0.21387035
0002c0 dc a6 8a bd 5e 39 af 3d 7d 96 17 bf 0b 11 29 bf
       -0.06770107 0.08555864 -0.59214 -0.6604163
0002d0 a1 da a2 3f b0 bf b4 3f f8 1e 29 bf d2 7a 32 bf
       1.272297 1.4120998 -0.6606288 -0.6971866
0002e0 9e 86 24 be cb 66 f0 bd d0 8f 78 3e f2 f8 b1 3e
       -0.16066977 -0.11738356 0.2427361 0.34760243
0002f0 90 2b d8 be c6 43 12 be 96 8e 8f bd 7d 98 c7 3d
       -0.42220736 -0.14283666 -0.07009618 0.09745882
000300 0c d3 ae 3e 46 f4 fa be 44 f8 fc bd ba ae cb 3e
       0.3414539 -0.4901449 -0.123520404 0.39781743
000310 04 8b 8e bd 19 85 de 3e 0e 8e 55 bd 61 90 b6 3e
       -0.06960109 0.4346092 -0.052137427 0.35657027
000320 82 8c 4f 3c e7 59 cb be ae 3f 78 be 14 70 ef bd
       0.012667777 -0.39717028 -0.24243042 -0.11691299
000330 10 6a be 3e 12 68 8c 3e 0c 10 98 bd c6 7c 99 3e
       0.37190294 0.2742315 -0.07424936 0.29978007
000340 18 0a 89 3e 3b 21 07 be 78 90 3f bf 88 95 59 bf
       0.26765513 -0.1319627 -0.74829817 -0.8499379
000350 d9 b3 86 3e 10 b9 98 bd af 69 20 3c a3 01 86 3e
       0.26309088 -0.07457173 0.009790822 0.26173124
000360 54 f5 57 bd 75 47 3a bd ea 7f 72 3f 99 74 2a 3f
       -0.052724198 -0.045478303 0.9472643 0.66584164
000370 ab 58 a9 bd ba 97 8e be c2 f9 54 3f 3f 49 95 3e
       -0.08268865 -0.27850133 0.831936 0.29157445
000380 2b e7 71 3e 62 46 ba be c3 48 00 bf 58 ff 13 3e
       0.2362334 -0.36381823 -0.50111026 0.14452875
000390 ec 89 14 be 8e 5e 92 3d 46 1e 97 bd 97 f2 37 bb
       -0.14505738 0.07146941 -0.07378821 -0.0028068179
0003a0 40 a4 96 3e 80 af 93 3d 51 09 6c be e2 70 43 3c
       0.29422188 0.07211208 -0.23050429 0.011928769
0003b0 63 5d b8 3d 57 ca 23 bd 09 77 f6 3e 8d 2e 03 3f
       0.09002187 -0.03998789 0.48137692 0.51242906
0003c0 87 a0 f4 3b 35 66 81 bd 96 7a 7b bd 27 2d 15 3f
       0.0074654254 -0.063183226 -0.061396204 0.5827202
0003d0 4f 4c 72 3e 1b 57 a7 be 9a fd 83 3b 0e 58 63 be
       0.23661922 -0.32683644 0.0040280344 -0.22201559
0003e0 4d 63 65 bf a5 8f ac be f1 20 04 3f b7 d7 70 bd
       -0.89604646 -0.33703342 0.51612765 -0.05879947
0003f0 5c c0 ca 3e e6 ca 23 bf e4 8b 1c bf d8 de a6 3e
       0.39599884 -0.63981473 -0.61150956 0.3259189

bias f4 [20]
000000 1d 4f f5 be 61 67 51 3e 26 97 65 3d aa f0 e4 be
       -0.4791192 0.20449592 0.05605235 -0.44714862
000010 5e 52 8d 3c 14 f7 dd bd c2 bd 4f 3e ae a3 f5 be
       0.01725119 -0.10838142 0.2028723 -0.4797644
000020 42 df 49 bd fe d3 42 3e d7 fd 95 3d 23 ec bb 3e
       -0.04928518 0.19026181 0.07323807 0.36703596
000030 13 5b f1 be c7 e6 a3 be bf 60 6e bc b8 b7 10 3f
       -0.47139797 -0.32012007 -0.014549433 0.5653033
000040 37 61 33 be 37 66 01 3c 33 55 b2 3d c4 11 7a bd
       -0.17517553 0.007897905 0.08707657 -0.0610521
