Trained/Models_00/Noise_1/toy_nostop/border_o1.pt (torch, 51615 bytes, 23 tensors)

weight f4 [20, 2]
00000000: 8311 d3bd 7a68 003e 28ac 9cbe 7223 7c3d
00000010: 37b9 86be e031 07bf 8b47 1d3e 7a34 8c3e
00000020: 64d2 cc3d 6fdc efbe 8d38 003f af55 44be
00000030: 900d dfbc 4e62 c63c 118e f83d 3357 aabe
00000040: 9dd9 88be bc1a 603e f539 c4bd 63ff d4bd
00000050: ec9e 363d 757e 1b3e 87e8 323e c152 313d
00000060: c0d5 123e 3bf4 bbbe f74d afbe 996c 1c3c
00000070: bd01 2d3e ecd6 cebe 24a9 0e3f 9c4a 01bd
00000080: 6f05 e33e 6c8f 96bf 9c4e 58bf 63ac 33be
00000090: 4080 8cbd adc5 a1bd 1926 f43d af83 84bd
-0.103060745 0.12539855 -0.30600095 0.06155724 -0.26313183 -0.5281048 0.15359323 0.27383786
0.10001066 -0.46847865 0.5008629 -0.1917331 -0.027228147 0.024216797 0.12136472 -0.33269653
-0.26728526 0.21885198 -0.09581367 -0.10400274 0.044585153 0.15184958 0.17471515 0.04329181
0.14339352 -0.3670977 -0.3423917 0.009547376 0.16895194 -0.40398347 0.5572684 -0.031565294
0.44340083 -1.1762519 -0.8449495 -0.17546229 -0.06860399 -0.07899032 0.11921329 -0.06470429

bias f4 [20]
00000000: 4e54 753e ea08 56bd ac89 fabe a633 a4be
00000010: c94e b7bc 1282 97bb b514 cfbd 92bb ff3d
00000020: 17ba 23bd dbaa ac3d 2db5 173e cb26 90bd
00000030: aa44 1dbd 2605 7c3e 714a 41be ef83 d9bb
00000040: c78d 46bf d37c 1abd c7f0 4abe ad03 d8bc
0.23957941 -0.052254595 -0.4893316 -0.32070655 -0.022376435 -0.00462366 -0.101113714 0.12486948
-0.03997239 0.084310256 0.14815207 -0.07038649 -0.03839556 0.24611339 -0.18876053 -0.006638042
-0.77560085 -0.037716698 -0.19818412 -0.02636894

weight f4 [20, 20]
00000000: fa8b 663e 5687 103e a98b 3dbe 2507 cd3c
00000010: e10d 193e f968 2abb 34b6 5b3e d903 053e
00000020: 8c60 943e 6077 cd3e d325 a13e 193a 603d
00000030: 68f9 9d3e 9d53 413e 17f5 0b3f ebe9 88be
00000040: 821a b7bd 2474 71be 85a8 fdbd e776 be3d
00000050: 8faa 863e d43e 1c3e 7656 8e3c e4e7 19bd
00000060: 9e28 03be f350 eebe 56ff cdbe 2cda 79be
00000070: 077d 6d3e a8aa bfbc f7f6 57bd 18ff 6fbd
00000080: b2e6 39be 338a fd3d e4ae 56be 0465 e53d
00000090: 1c5a 233e 4994 4e3e 73f5 193d ab2f 8ebc
000000a0: 9f17 a53e df51 0a3e 861e 75be a0aa 03bf
000000b0: b0df 1e3f fb02 77bd 6c14 5bbd 9429 6d3e
000000c0: 4d98 323e 8b42 7bbe f59b 4ebe 0db7 3d3e
000000d0: 38e8 89be 100e 26bb a731 4e3b 0152 3abd
000000e0: 8cdc 9f3d 22d3 74bd 5954 1a3d 45bf eebe
000000f0: d360 573e 5cff 173d 5009 58be 63a3 0a3e
00000100: 82e0 243e 9cbc 693e 5641 a8be 288e 2d3e
00000110: b6ad 1cbe 2325 a63d fdcc ca3d b272 2c3e
00000120: 6491 b13e 605f 4ebc 613b 813d a9aa c83c
00000130: d49d 71be 54e4 113c 2ace 4a3e 730e 743e
00000140: 762e ba3e d547 d33c 1aa1 633d b198 003e
00000150: fdbe b3be 5dab 89be 80fd d93d 4828 a33e
00000160: 196c 233d 3e02 00be 7461 1f3e 379c 63bb
00000170: ea3c efbd 92b1 58be f66f 44be 4d9a 5a3e
00000180: 782c 16bf ee82 4c3d bcbb b53c 12f5 973e
00000190: 159a 9cbd e607 df3d 4716 8c3e cb53 2dbd
000001a0: 657c 123e b519 843e 427c 51be 3bb6 0cbe
000001b0: d9c9 a23c 4a87 8abe a7f4 cb3d 0ca9 88bd
000001c0: 7765 83be 3b09 90be 8768 133f 9b37 8f3d
000001d0: 1935 1abe c602 123d 4925 403e 9c94 903e
000001e0: 4f41 d9be 4893 7cbd f56c 82bc 4507 253d
000001f0: 4671 1fbe 4aee fbbe 323c 3d3e fe98 193d
00000200: 50b9 8a3e 9ad9 95be e1a7 2d3e 9303 01be
00000210: 348e 463c 462d 88bd f1fa 6a3e ef53 123e
00000220: 3887 debd 457c 9bbe c525 8c3d 6527 31be
00000230: 0533 463e 65f2 c83e ed8a 2c3e d8a8 6dbc
00000240: a042 8e3e e2b9 5a3e c48f edbe fa7a 0b3e
00000250: 7beb a3bc cc70 f1bd 3da7 db3d a7d5 2d3e
00000260: c8a5 863e b407 c2be 8b1d 2fbb 00ef 0ebe
00000270: 1f94 78be b01c 1ebe 3523 49be 904e 8a3e
00000280: 8a5f 0e3e c56f 15be 509d 0abe 2dc6 1b3e
00000290: 29e9 a8be fff9 323e 74dc 82be 5d73 06be
000002a0: 862b 60be c0ff 2bbe b883 153e c652 f03d
000002b0: 822b 3a3d 39c3 c9bd e5a9 7fbc 50d3 d93e
000002c0: cedd f63d 827b 363e be57 143e 89eb 53be
000002d0: f6f9 e43d 65c1 9e3c fe40 c53e 3cc7 593b
000002e0: 4942 003f 372b 963e cce7 183e f8c1 3d3e
000002f0: 214a e03e dcb6 023e e9d5 c63d 551c 8cbe
00000300: 0331 63bd 0117 6c3e dfc7 f0bd 735a ffbb
00000310: 6d0d 883e ff1c c93c 7d5c 51be 1416 413d
00000320: 8de4 c7bc b52b 453e 9ede 60bd 6727 063e
00000330: c808 9dbe a6bc 59be 01fb 4dbe 5b95 35bd
00000340: 9127 d13e 2be2 08bf 80cb 84bc 8910 1bbe
00000350: 3910 00bf 84e8 43be 087b b5bd f903 d43d
00000360: c3dc c6be 8ff0 cc3e b9a0 303e b611 79be
00000370: 8bc3 d1be 560d 043e 1459 8c3e 8497 3c3e
00000380: 396e d1bd e4fe e13d fa25 05bc cd5c eebd
00000390: 51c5 77be 98c5 983e 2dc0 ce3d 8b4e f83e
000003a0: d44d 91bd a567 2bbe e220 783e f43f 08be
000003b0: a860 83bd 2bd5 cf3c d03b 653e c140 343d
000003c0: 65d3 b2be dbe1 203e 7264 2c3e ca7c d53c
000003d0: 017a 96be 7254 883e ceb6 f03c 2c2b 58be
000003e0: 55fb 053e 9c06 853e e14e 0fbe bd2f 733e
000003f0: 2774 313e 23a5 54bb d12c 0bbd f619 a1bb
0.22514334 0.14114127 -0.18510307 0.02502782 0.149467 -0.002600251 0.21456224 0.12989749
0.2897991 0.40130138 0.3147417 0.054742906 0.30854344 0.18879552 0.5467085 -0.26740965
-0.08940603 -0.2357946 -0.12385658 0.093000226 0.26302 0.15258342 0.017375212 -0.037574664
-0.12808463 -0.46546134 -0.40233868 -0.24399632 0.23192225 -0.023396805 -0.05272576 -0.058592886
-0.1815441 0.12379875 -0.20965153 0.11200908 0.15952343 0.20173754 0.037587594 -0.017356714
0.32244584 0.13507794 -0.23937425 -0.5143223 0.6206007 -0.060305577 -0.053486273 0.23160392
0.1744091 -0.24537103 -0.2017668 0.1852686 -0.2693498 -0.0025337972 0.00314627 -0.04548836
0.07805738 -0.059771664 0.037678096 -0.46630302 0.2103303 0.037108764 -0.21097302 0.1353889
0.16101268 0.22825855 -0.32862347 0.1694876 -0.1530064 0.08112552 0.0990238 0.16840628
0.34681237 -0.012595981 0.06310154 0.02449544 -0.23595363 0.008904535 0.19805208 0.23833637
0.36363572 0.025791088 0.05557356 0.12558247 -0.3510665 -0.26888552 0.106440544 0.3186667
0.03989801 -0.12500855 0.15564519 -0.0034730562 -0.1168154 -0.21161488 -0.19183335 0.21347924
-0.58661604 0.04992955 0.022184245 0.2967916 -0.07646576 0.108901784 0.27360746 -0.04231624
0.14305265 0.25800863 -0.20457557 -0.1374139 0.01987164 -0.27056342 0.09958773 -0.06672868
-0.2566335 -0.28132042 0.5758137 0.06993028 -0.15059318 0.035647176 0.18764223 0.2823838
-0.4243264 -0.061663896 -0.015921095 0.040290136 -0.15570554 -0.49205238 0.18479994 0.03749942
0.27094507 -0.2926758 0.16958572 -0.1259902 0.012118865 -0.0664926 0.22947289 0.1428983
-0.10865635 -0.30368248 0.068431415 -0.17300184 0.193554 0.39247432 0.16849871 -0.0145055875
0.27785206 0.21359971 -0.46398747 0.1362113 -0.020009747 -0.117890924 0.107252575 0.16976033
0.26298356 -0.37896502 -0.002672049 -0.13958359 -0.24275254 -0.15440631 -0.19642337 0.27013063
0.13903633 -0.14593418 -0.13536572 0.15212317 -0.32990387 0.17478178 -0.25558817 -0.13129945
-0.21891603 -0.1679678 0.14601028 0.11734538 0.04545165 -0.09851689 -0.015604471 0.4254403
0.12054025 0.17820552 0.14486596 -0.20695318 0.11180489 0.019379327 0.38526148 0.0033230325
0.50101143 0.29329845 0.14932173 0.18531024 0.43806556 0.12765068 0.09708769 -0.27365366
-0.055466663 0.2305565 -0.117568724 -0.007792765 0.26572743 0.02454996 -0.20445438 0.047140196
-0.024400974 0.19254954 -0.054899804 0.13100968 -0.30670762 -0.2126337 -0.20115282 -0.04433189
0.408505 -0.53470105 -0.016210318 -0.15143026 -0.50024754 -0.19131666 -0.08861357 0.1035232
-0.38840303 0.40027282 0.17248811 -0.24323162 -0.409695 0.12895712 0.2741171 0.18417174
-0.102261014 0.11034945 -0.00812673 -0.11638794 -0.24196364 0.29838252 0.10095248 0.48497424
-0.07094923 -0.16738756 0.24231294 -0.13305646 -0.0641492 0.025370201 0.22386098 0.044007067
-0.34926906 0.15711157 0.16835192 0.02606048 -0.29389957 0.26626927 0.029384043 -0.21110219
0.13084157 0.25981605 -0.13994934 0.2374868 0.17329465 -0.0032447062 -0.033978287 -0.004916425

bias f4 [20]
00000000: 3cbf 463e 4efd bc3d eaeb 053d ac99 ab39
00000010: fd16 153c f600 19be 1244 8fbd 1d5b 33bd
00000020: 8ff7 7ebd 1b56 34be 404a 43be 5365 d6bd
00000030: da47 2abc aaae 38bd 3b68 a7bd b698 91be
00000040: 0050 633d 36ef 85be aa99 5c3e 6688 adbc
0.19408888 0.092280015 0.03269569 0.00032730156 0.009099719 -0.14941773 -0.06995405 -0.043788064
-0.06224781 -0.17610972 -0.19071293 -0.10468545 -0.010393107 -0.045088448 -0.08174177 -0.28436822
0.055496216 -0.26159066 0.21542993 -0.021183204

weight f4 [20, 20]
00000000: 2618 8f3e 4dfe 98be f96d aa3d 0ef4 3c3e
00000010: 2450 67be cbd1 00be b2e7 f63d 21a0 bf3e
00000020: 5e51 24bf bc2a 6d3e 3e31 953d c0eb ac3e
00000030: 3578 373e 60e1 443e 244a 953e f6ef 34be
00000040: 4761 e53e b12f cbbd 18d0 0f3e b925 95be
00000050: e407 903e 2d78 9a3c 4441 1a3d 5169 da3c
00000060: ea6f 873d 7f56 823e bee1 753e 41f9 82be
00000070: 53ef a8bd e4e0 1f3e 59d6 4dbe d7f6 a93e
00000080: 0573 55bd 5db6 9b3c 7a40 40bd 16e8 a63e
00000090: 57c0 57bd 0d30 c93e ed8a 9f3e 0594 16bd
000000a0: edb9 8ebe df5d 08bd 0805 b8bc 3bc0 86be
000000b0: 8166 233e 7aab e33d 7a7a 943e 9e35 193c
000000c0: 2b94 193e 4383 673e 42c6 42be 1f23 5fbe
000000d0: eef9 e9bd 4153 e63d 1d27 a93a 483a c33e
000000e0: 84b3 553e c643 4a3d a628 54be 1bd9 ab3d
000000f0: 6dd0 c43e 2cee 953d dee8 6cbe a611 06be
00000100: 9831 9ebe 250b a6be d4b8 0cbf 6060 01bf
00000110: 6d92 8bbe 5bb1 6abe abb8 08bd ef4b fc3c
00000120: e7a8 0cbe d247 843d 9363 02be c776 343e
00000130: 1a6f b9bd 9228 2bbe e18c 183e a085 b93e
00000140: 8b76 a83e fe8d 6ebd 624c 6c3d b9cd adbc
00000150: 587e 643e e166 91be ac0b 11be 4885 1fbe
00000160: f4eb 103e db4f dcbb b487 cbbe e216 acbe
00000170: 9cc5 67bd 41fe 14bf 256d f53e 2239 3e3e
00000180: 2e45 7bbe 281e 6abe 8715 c23e 1681 4e3e
00000190: c2d4 14be 9789 23bd e7ce 213c 95c2 52be
000001a0: 558f 8fbe 6786 c9bd 896d d33d 0336 e4be
000001b0: 6ae5 b03d 2223 93bd 8a53 3fbe 3eeb c5bd
000001c0: 861c c63e e3b5 163e 9a13 d63e 881c 43bd
000001d0: c0d8 86bc 28fb 0a3e ed9a 463e c146 08bf
000001e0: 4e19 903e 39ea 06bd d1cb 263d b0af 843e
000001f0: 4d3f f83d 14d0 05bd 84c3 41be 9dc0 863e
00000200: 17fe 6dbd 452d 7d3d 4c08 883e 81f4 e93d
00000210: cd34 2ebe 5cde 973e aee7 5cbe 529e 8f3e
00000220: 4e6f 243e 894b 1abf 9c3a 5bbe 041f bd3d
00000230: 5858 cfbd 2b40 533e 011a 82bd 25b7 573e
00000240: efbd 04bd fb14 abbd fade 46be e5bf 8a3e
00000250: a41e a63e e570 e33d 0b13 2a3e 78ad 10be
00000260: 69ea efbd ce36 b7bd e603 973d cf30 003e
00000270: 6791 3ebe ff60 aa3e 0125 6d3d 7645 0a3d
00000280: 2cea dcbd 47d2 93bd d8ef 85be 102e e03e
00000290: 49f8 923e 5ae7 3a3e 6d51 a73a 046c c43c
000002a0: 8e89 403e 57bf 823d 890e 66bc 9cc8 983e
000002b0: bee7 81be e908 b3be 4afe 723e 7444 d6bd
000002c0: 8902 88bd 719c 3abe 2b1b 9a3e 1f2a 90be
000002d0: 9c73 ed3e 99fb 3fbe e903 7abe 14c4 37bd
000002e0: 4392 9cbe 648e 893e bea9 91be a27a 9c3d
000002f0: 906f a43c 1bc9 373c 96dc ce3d 5aa5 203e
00000300: 4101 c7bd 60bb 52bc 4cfc 1cbe f5fc 933e
00000310: 83cb 4ebc 42eb 903d afd1 f73d 5caf 79be
00000320: 473a 663e a67f 3e3d 16db 0e3e b21d 3fbc
00000330: 6aff 943d 0868 9c3d 35ff b73d 50b3 e6bd
00000340: 1bbc 38be 86d4 253e 7288 11be 5f19 083e
00000350: e2f2 22b9 d355 523e c1a7 c1be 378a 5e3e
00000360: bfec 8b3d 9fcc b7be 0288 6cbd 7218 8ebe
00000370: 0573 933c 774e c63d 9e9d f6bd ace1 54be
00000380: 858b 183e 0e8f 81be 4a59 343d 15e3 afbd
00000390: 945c b0be 1307 2c3e 7d76 5ebe 1efe 93bd
000003a0: efb8 973e 83c6 a33e 311f 20bc acaf a43e
000003b0: 44ca 2b3d ee3f 313f c4fa 06be 388b 5d3d
000003c0: 0e51 94be a023 0d3e a86e 74be 43fb 6f3c
000003d0: 11ac 933e 2cba aebe 9804 08bd ed59 a33e
000003e0: 4706 d1bc 169c 863d 2771 503e 1587 cebd
000003f0: eb7b 92be 68b3 e6be 65f9 4c3e 9d5d 45bf
0.2794811 -0.29881516 0.08321757 0.18452474 -0.22589165 -0.1258003 0.12055911 0.37426856
-0.64186656 0.23160833 0.07284783 0.33773613 0.17916949 0.19226599 0.29158127 -0.17669663
0.4480078 -0.09921206 0.14044225 -0.29130343 0.2813102 0.018856132 0.0376599 0.026661547
0.06613143 0.25456616 0.24011895 -0.2558079 -0.082487725 0.15613133 -0.20101298 0.33196136
-0.052111644 0.019007856 -0.04693649 0.32598943 -0.052673664 0.39294472 0.3116068 -0.036762256
-0.27876225 -0.033292647 -0.022463337 -0.26318535 0.15957071 0.11116691 0.28999692 0.009351162
0.14997928 0.22608666 -0.19020942 -0.21790741 -0.114246234 0.11246348 0.0012905333 0.38130403
0.20869261 0.04938104 -0.20718631 0.08391019 0.38440266 0.07320818 -0.23135707 -0.1309267
-0.30897212 -0.32430378 -0.54969525 -0.5053768 -0.27260152 -0.22919218 -0.033379238 0.030797927
-0.13736306 0.06459011 -0.12733297 0.17623435 -0.09054394 -0.16714695 0.14897491 0.3623476
0.3290294 -0.058240883 0.05769003 -0.02121626 0.22313821 -0.28398803 -0.14164609 -0.15578187
0.14152509 -0.0067233867 -0.3975197 -0.33611208 -0.05658494 -0.5820046 0.47934833 0.18576482
-0.24538109 -0.22863066 0.3790705 0.2016643 -0.14534286 -0.039926138 0.0098759895 -0.2058204
-0.2803904 -0.09840088 0.103236265 -0.44572458 0.08637507 -0.071844354 -0.18684211 -0.096640095
0.38693637 0.14717822 0.4181183 -0.04763463 -0.016460776 0.13572371 0.19395037 -0.5323296
0.28144306 -0.032938216 0.04072172 0.2591529 0.12121449 -0.032669142 -0.1892224 0.26318827
-0.058103647 0.06181075 0.2656883 0.114235885 -0.1701233 0.29661834 -0.21572754 0.28050476
0.16058084 -0.6027151 -0.21409076 0.092344314 -0.10124272 0.20629947 -0.06352616 0.21065958
-0.032407697 -0.08353611 -0.19420996 0.2709953 0.32445252 0.11105517 0.16608827 -0.14128673
-0.11714632 -0.08946 0.073737904 0.12518619 -0.18610154 0.33277127 0.057896618 0.03375765
-0.10786852 -0.072178416 -0.2615955 0.43785143 0.28705052 0.18252316 0.0012765356 0.023977287
0.18802473 0.063841514 -0.014041551 0.29840553 -0.25372118 -0.34967735 0.23729816 -0.10462275
-0.066411085 -0.1822374 0.30098853 -0.28157136 0.46377265 -0.1874832 -0.24415554 -0.04486473
-0.3058034 0.26866448 -0.28449816 0.07640578 0.020072728 0.011217381 0.10100667 0.15688077
-0.09717036 -0.0128620565 -0.15330619 0.28903928 -0.012621763 0.07076122 0.12100541 -0.243833
0.22483169 0.046508454 0.13950762 -0.011664795 0.07275279 0.0763703 0.08984224 -0.1126467
-0.18040507 0.16194353 -0.14212206 0.13290928 -0.00015540005 0.20540552 -0.378233 0.21732412
0.06832265 -0.358983 -0.057746895 -0.27753025 0.017999182 0.09682935 -0.12041782 -0.20789212
0.14896972 -0.25304455 0.044030465 -0.08588234 -0.34445632 0.16799574 -0.21724887 -0.072262034
0.2963328 0.3198739 -0.009773062 0.32165277 0.041940942 0.69238174 -0.13181597 0.054087847
-0.2896809 0.13783121 -0.23870337 0.014647308 0.28842214 -0.34126413 -0.033207506 0.31904545
-0.025515689 0.0657274 0.20355664 -0.100843586 -0.28610167 -0.4505875 0.20017011 -0.7709597

bias f4 [20]
00000000: 36a2 a73d d4ec 253c b9f0 c8bd db4e 873e
00000010: 932b 02bd 8019 4e3d 7d69 503d 13f5 653d
00000020: 340f e9bc 4703 c5bd 72af cc3d 443b 8ebd
00000030: 07be 073e 6c8b 60bd 9e82 e1bd 7706 8c3d
00000040: 999e 36be 2252 46be c7b4 0bbd 2fef 22be
0.08185236 0.010127265 -0.09811539 0.2642735 -0.031779837 0.050317287 0.05088185 0.056141924
-0.028449632 -0.09619766 0.09994401 -0.06944898 0.13256083 -0.054820463 -0.110112414 0.068371706
-0.17833938 -0.19367269 -0.03410795 -0.15911554

weight f4 [20, 20]
00000000: d4e9 84bc 24b5 1f3e 3e9f a03e a1a9 4ebe
00000010: aba7 0b3f 33e7 23bd ae98 ba3e 155c 5cbe
00000020: ae1d 7a3e 5abd 7b3d c51f 2b3e 90d1 973c
00000030: 9f2f 0c3e 5101 683e fddd febd 4e5b 2a3e
00000040: 0e11 663e ce42 df3e f54f 9f3e b821 1abd
00000050: 60b3 8cbd edd3 cdbc f82e 33be 390f 91bd
00000060: 5555 363e 4e35 993e 41fb ae3e 3074 7e3c
00000070: b35d b8bd 7d49 3f3a fa6c a2be 6d1e 7fbe
00000080: 61c1 58be b98d ce3e 668e 8cbe 82cd 5fbe
00000090: b265 b13e 06ed ba3e fd85 77be edf3 713e
000000a0: 5fdc e2be 42cb a5be 593a 5c3e 94fb 19be
000000b0: a4ac d5be 72c7 543e 7060 febe 3956 6b3e
000000c0: d89f 573e 9ce6 023f 59f4 3bbe 762e e8bd
000000d0: f574 91bd 7bf9 fdbc 2f5d a63d e953 8bbe
000000e0: 596a 7ebe 77d0 f13e 9192 013d 8894 b33e
000000f0: 4ace 03be 2692 b1bd 200c 0ebe b5b1 113e
00000100: 40a6 4fbd 3c2b 2abe 401c 283e 942f 303e
00000110: 9ffc 8b3d fb22 183e abc7 853e 3b37 0cbf
00000120: 144e c93d 4554 893e d19e 40bb be25 7b3d
00000130: 517c 4abe 501b 1a3f 3f4f 2c3d 8047 f1be
00000140: 7635 a03e e68d 8ebe 9fb1 8dbe 6dcf 7abd
00000150: 0671 0a3e 167a ac3d 3f3a ccbd ce72 143c
00000160: 8679 223d 73db 98be a1ff 093e 8c4e b33c
00000170: ed3d da3d 3afb 523e ebe5 61be 5864 e8bc
00000180: 017a 39be 428d 8bbe a99f fabe 0a53 e93c
00000190: d193 073e 5951 7ebb 4a0a 6c3c eb7d 823e
000001a0: 1d59 853e 60e2 073d b5bf 7bbe 9620 9cbd
000001b0: e160 5b3e 7409 e13d c4de 32be b652 a4be
000001c0: 64c3 08be 4543 8d3e 0a56 b8be 9055 87bd
000001d0: d3f8 96be a189 c7bd 309b ab3e acfb a13d
000001e0: 2299 56be 608f a53e a078 8a3d efba 57be
000001f0: cab4 d0be 6699 993e 141d 123d b33a 32bd
00000200: e51c 43be b262 503e 4585 64be 3dad debe
00000210: 5f68 8b3e ca50 aabe 32d1 8c3e d9d3 8b3d
00000220: a89e 203f ed94 1b3e 2fa9 51bd d29a 54be
00000230: 930c 9ebe 5e15 f7bd b3ca dfbe ec6d 4c3e
00000240: 4b1c 20bf 4d62 c73e bc3f 973e 8783 603e
00000250: ef1b 1dbd 1b26 11be 6e72 cf3e a3b1 8bbe
00000260: 6d00 c73e 8f4b bfbe 3785 59be a4d4 2c3e
00000270: ac90 59bd 8074 76be 6fa2 d4be 8c95 00be
00000280: aec8 983e fb8d 6cbd 37c2 7cbe bf1f 94be
00000290: 829a 343e a6d1 ba3d 582c 42be c3cc 1dbe
000002a0: fd09 0c3d d7e1 f2bd 66e5 ba3d bbea 07be
000002b0: 77de 943e 09aa 2f3e 2c14 233e 245b 853b
000002c0: 3db5 36be 4cae 6cbe 63d4 2a3e 6839 3cbd
000002d0: e6d6 943e a4bf b93d 040f 3d3d 9fa7 50be
000002e0: dfdc c5bd 0003 5ebd f723 5ebe 0f71 1f3e
000002f0: c39d 6cbd 2dc6 9b3e 90fa 6fbe 663e cfbd
00000300: dc88 bcbe 6e73 2b3e fd87 d43e 2803 9dbe
00000310: 8189 18be 841b e7be 7e59 fabd 0bba 4a3d
00000320: 1fbd b53d fbd7 913e f08c 0f3e e0f1 993e
00000330: 107d cebd be6e 293e e466 53bd 91cb 27bd
00000340: 07c1 ae3e 037f 923d 25a0 7abe 29cb b9bd
00000350: d1da 683e d2b1 ad3e d288 b83d 60cf a9be
00000360: f092 76be 81d9 05bf 72d5 70bd 1249 8cbd
00000370: e2c4 3fba f6cf 263e 5d9d a13c 0e72 5dbe
00000380: 0202 35be 1a9f d83d 22f5 b03d f77e cfbd
00000390: 12f1 84be 8d41 54be 46f7 18be 6f2a c8bd
000003a0: 211f 15be c79c 64be f2bc c8bc 20f9 f33d
000003b0: a844 453e a763 923e fbe5 7abe d926 883e
000003c0: 5d70 723e ddb5 e2bb 3243 c13d bf0a 95bc
000003d0: bc55 54be a5b8 f4be 72aa 3c3e 45ae 9cbe
000003e0: 01ad 573e 9d38 4ebc 6a18 e3bc 11a4 14be
000003f0: b327 27bd 47e0 f6bd 5416 2f3e 378a d83e
-0.01622478 0.15596443 0.31371492 -0.20181896 0.54552716 -0.04001541 0.3644461 -0.21519502
0.24425384 0.061459877 0.16711338 0.018532544 0.13690041 0.22656752 -0.12444685 0.16636392
0.22467443 0.43605655 0.3111569 -0.037629813 -0.068701506 -0.025125468 -0.17498386 -0.070829816
0.17805989 0.2992348 0.34176067 0.015530631 -0.09002247 0.00072970224 -0.31723768 -0.2491395
-0.21167518 0.403425 -0.2745239 -0.21855739 0.346479 0.3650896 -0.24172206 0.23628207
-0.44308755 -0.32381636 0.21506633 -0.15037376 -0.41733277 0.20779207 -0.4968295 0.2298211
0.2105707 0.5113313 -0.1835493 -0.11336987 -0.07102386 -0.03100275 0.08123242 -0.27212456
-0.24845256 0.4722936 0.031633917 0.35074258 -0.12871662 -0.08670454 -0.13871813 0.14227946
-0.050695658 -0.16618055 0.16417027 0.1720565 0.06835293 0.14857094 0.26128897 -0.54771775
0.09829345 0.26822105 -0.0029391537 0.06131529 -0.19773985 0.60197926 0.042067762 -0.47124863
0.31290787 -0.27842635 -0.27674577 -0.061232973 0.13519678 0.084217235 -0.09972047 0.009060575
0.039666675 -0.29854926 0.13476421 0.02188804 0.10656343 0.20603648 -0.22060363 -0.02836816
-0.18112947 -0.2725621 -0.48949936 0.028481979 0.13239981 -0.0038805811 0.01440675 0.25486693
0.2604455 0.033174872 -0.24584849 -0.07623403 0.21423675 0.10988131 -0.17467791 -0.32094353
-0.13355786 0.27590385 -0.36003143 -0.066081166 -0.29486713 -0.097430475 0.33516836 0.07909331
-0.20956853 0.3233595 0.06761289 -0.21067403 -0.4076293 0.29999846 0.035672262 -0.04351301
-0.19053991 0.2035015 -0.22316463 -0.43491545 0.27228066 -0.33264762 0.27503353 0.06827516
0.6274209 0.1519353 -0.051186737 -0.20762184 -0.30868968 -0.12064622 -0.43709335 0.19963807
-0.6254317 0.38942185 0.29540813 0.21925174 -0.038356718 -0.14174692 0.4051699 -0.27283964
0.38867512 -0.37362334 -0.21242224 0.16877991 -0.053116485 -0.24067879 -0.41530177 -0.12557048
0.29840606 -0.05775259 -0.24683462 -0.2893047 0.17637065 0.091220185 -0.18962228 -0.15410142
0.034189213 -0.11859482 0.091257855 -0.13273136 0.29075977 0.17154707 0.15925664 0.0040697027
-0.17842574 -0.23113364 0.16682582 -0.045953184 0.29070204 0.09069756 0.0461569 -0.20376442
-0.096612684 -0.05420208 -0.21693407 0.15570472 -0.05776764 0.30424634 -0.23435426 -0.101193234
-0.36823165 0.16743252 0.4151 -0.3066647 -0.14896204 -0.4513818 -0.122241005 0.04949383
0.088739626 0.28485093 0.14018607 0.30067348 -0.100824475 0.16546151 -0.051611796 -0.04096562
0.34131643 0.07153132 -0.24475153 -0.09071953 0.22739722 0.3392473 0.090104714 -0.33166027
-0.2407949 -0.5228501 -0.058797307 -0.068498746 -0.00073154096 0.16290268 0.019728357 -0.2162554
-0.17676547 0.10577221 0.086405054 -0.101316385 -0.25965172 -0.2072813 -0.14938077 -0.097737186
-0.14562656 -0.22325431 -0.024504159 0.11912751 0.19264472 0.28591654 -0.24501793 0.26592138
0.23675676 -0.0069186524 0.094366446 -0.0181936 -0.2073583 -0.47797123 0.18424395 -0.30601707
0.2106209 -0.01258674 -0.027721602 -0.14515711 -0.040809345 -0.12054496 0.17098361 0.4229295

bias f4 [20]
00000000: 5acd adbd 2099 31bd 8abb e0bd 8c3c 123d
00000010: 3054 ab3d 2df0 083e b9e8 acbd 8bc5 a03d
00000020: a7c7 af3d 487f 2dbd 4e7a 9c3d 678d 0c3c
00000030: 1ee6 2b3d 219d 613d 7f46 373d 358c 813e
00000040: 8b66 3b3d a408 8fbd 9d1d 7f3c 8713 28be
-0.08486433 -0.043358922 -0.1097327 0.035702273 0.08365667 0.1337287 -0.08442826 0.07850178
0.085830025 -0.042357713 0.07640515 0.008578635 0.041967504 0.05508149 0.044744965 0.25302282
0.04575209 -0.0698407 0.015571025 -0.16413699

weight f4 [20, 20]
00000000: 58c0 6f3e b2a7 9a3c 0cf1 46bc fb28 97bd
00000010: 513c 5c3e 4f0a 8b3d d196 81bd d2f7 1fbd
00000020: 421a d73e 9c75 2a3d 3f7d a4bd 5758 0b3e
00000030: 862d 863e 2cdd 4fbe 4270 893e 8cb0 48be
00000040: 02bc cc3e d40a 4dbe ab12 3cbe 1280 3abe
00000050: 80df c3bb eb73 58be a759 403e 594c d9bd
00000060: 5572 e6bd 33a5 92bd 1e10 2ebc 977f 82be
00000070: 24bf b23e d381 39be 2e8d 5a3c 3ed9 4dbe
00000080: 78b6 2bbe 6d78 543d 8aaf acbe a254 b8be
00000090: 3844 f2bd 91d1 c33e f979 f13d 77c5 fbbc
000000a0: a6f0 983e c2db 183e 5e88 71be 2be1 c23d
000000b0: 4df2 e1be 3349 3fbe 928e e5bc dfa5 623d
000000c0: 1ddb 94bd 70ef 713d 9b60 6ebb ecd5 bbbd
000000d0: 36a1 973d 9fb6 db3e 10f5 1e3b db1b cc3b
000000e0: 7a9f a03d 9308 9ebe 6bb4 9abe d441 1ebd
000000f0: 9aa9 78bd a76d 863e 7089 103e 3ad4 333d
00000100: 4c52 0d3e 10fe 68be d1da 26bd 1d03 003e
00000110: c511 91bd 5bb4 58be 75f7 26be fac9 aebd
00000120: d5b9 c23e 6e24 693e f26b 353e efc4 763e
00000130: f096 78bd 2e68 843e a3ee 423c b82b 7e3e
00000140: 3793 9bbe a1a4 4abc e1de e43e e1cd 0c3e
00000150: 8a5e a93c 2025 e5bd 7d45 a93c 9d2f 41be
00000160: b833 f33d 9129 0dbe b2fd 65be af23 1a3d
00000170: ca31 7cbe 12db 10be 4422 b5be 7f38 083e
00000180: d4da 03be 1535 113e e2aa 8dbd 3f74 e9bd
00000190: d0b5 c7be 4584 78bc 53fc 0f3d 5a7d aabd
000001a0: d5a4 a13e e794 013e 016f f1be 8a87 debc
000001b0: 9195 e23d d54d b2bb 9648 24be cb45 e7be
000001c0: 3a4b 1cbe 0e01 763e 2888 9a3b fd6f 273f
000001d0: 0a00 eebd a7fc 85bd 6149 5dbe 2656 bcbe
000001e0: dacb 763e 3e21 67bc 443a 2f3d f449 77bc
000001f0: dee6 bebe 7e4c 0e3e 80ce c2bd 75e0 2a3e
00000200: 69de 943d 2b33 253e b4c9 83be e5ac a0bc
00000210: 04be 07ba 158d d03d 4000 1f3e ef47 50bd
00000220: 108d cf3d 9433 4e3e 78f7 f8bc 0037 113e
00000230: 3fca 6dbe 37b9 cabb 472b 7e3e 4cb7 95bc
00000240: f612 803d e284 5cbe 86ed 1a3e 8ebf 78bc
00000250: 35cf 3dbd fb19 043e 4ad7 afbd 6cec 9fbd
00000260: a1bf 6f3e ad84 e6bd 77be 27be 52e6 5bbe
00000270: 26d3 7dbe b6df 4b3c 80dd c43c 314c 163e
00000280: 468d 7ebe 3765 5ebe a006 40bd 90d9 423e
00000290: 2bd7 88bd 2928 99be c5a7 51bd 818d acbe
000002a0: df3a f6bd 0dbd 643e 6047 2b3e 907a 5ebe
000002b0: 2af3 d4bd 3dc8 873e 60f4 2a3d c805 e63c
000002c0: 246f 07be 4ce8 66be 3544 e33b a0c6 833d
000002d0: f52c 57bd 3615 2f3e 84cf ab3e 516a 40be
000002e0: 1acf 58be 982e 1ebe 8979 8ebd cc3a 843e
000002f0: 7abd d5bd b3d1 afbd c4ff 2dbc 595a 17bc
00000300: d31f c8be 33fb b23e 4c31 1dbe cc0a 44be
00000310: 0727 7bbd aa6a 963e c8da 283c 34b3 093e
00000320: d347 99bd e555 56be 227c a13e f1ed 9c3e
00000330: 99a2 dcbd 5a3c b33e 96c3 1abe 3271 7cbe
00000340: 2d8a 203e 166f bebe d3ba 8c3e 213c 883c
00000350: f569 aebe cb8e d4bd 5c68 b4be b1d7 1d3e
00000360: 6937 5e3e f5d1 c3bd 2e00 a53e 7eb0 96be
00000370: 1b9d d0be 54de 6bbd e859 39bd 215d 2d3e
00000380: 11f7 b8be ee0e 873d dd6d 30be e234 ff3e
00000390: 2103 28be 1ad1 48be fe95 88bc 46a9 de3d
000003a0: b88d 853e a5c5 e13d b236 973d f2de 93bd
000003b0: 3519 ff3d 2b4f 15be b387 7fbd b0df 60bd
000003c0: 6cd1 83be 8fb2 e8bd 85b0 96bd 32b2 debd
000003d0: 5aba 61be 3fb0 a63e e4f7 2bbe 548a 21be
000003e0: e1ba 663d fa16 71bd a8eb c23d 7f6e 88bd
000003f0: 84bb 55be 44e2 983e 59db b2be a457 de3d
0.23413217 0.018878791 -0.012142431 -0.07380863 0.21507384 0.067890756 -0.06327594 -0.0390547
0.4201222 0.041616067 -0.08031701 0.13607918 0.26206607 -0.20299214 0.26843458 -0.19598597
0.3998719 -0.20023662 -0.18366496 -0.18212917 -0.005977571 -0.21137969 0.187842 -0.10610265
-0.11252276 -0.071604155 -0.01062396 -0.25487968 0.34911454 -0.1811593 0.013339324 -0.20102403
-0.16768825 0.05187266 -0.33727676 -0.3600207 -0.11829418 0.38245824 0.117908426 -0.030733807
0.298711 0.14927581 -0.23587176 0.09515604 -0.44130173 -0.18680267 -0.028022084 0.05533397
-0.07268355 0.059066236 -0.00363735 -0.09171662 0.074037954 0.42912766 0.0024254955 0.0062289066
0.07842918 -0.30865917 -0.30215773 -0.038636997 -0.06070862 0.26255533 0.14114928 0.043903567
0.13800925 -0.22753167 -0.040736023 0.12501188 -0.070834674 -0.2116255 -0.16305335 -0.08534618
0.38032404 0.22767803 0.17716959 0.24098562 -0.06069082 0.25860733 0.011897716 0.24821365
-0.30385754 -0.012368352 0.44701293 0.13750412 0.020674963 -0.11188722 0.020663017 -0.1886582
0.11875099 -0.13785388 -0.22460058 0.037631687 -0.24628368 -0.14146069 -0.35377705 0.13302802
-0.12876445 0.14180405 -0.06917359 -0.11399125 -0.390059 -0.015168254 0.035152745 -0.0832469
0.3157107 0.12654458 -0.47155002 -0.02716424 0.11063684 -0.005441407 -0.16043314 -0.45170435
-0.15263072 0.2402384 0.004715938 0.65405256 -0.11621101 -0.0654233 -0.21610023 -0.36784476
0.241012 -0.014107047 0.042780176 -0.015093315 -0.37285513 0.13896367 -0.09512043 0.16687186
0.07268984 0.161328 -0.25739825 -0.019613693 -0.0005178156 0.10183159 0.15527439 -0.05084985
0.101343274 0.20136863 -0.03039144 0.14181137 -0.23221682 -0.00618663 0.24821196 -0.01827588
0.062536165 -0.21535066 0.1512967 -0.015182389 -0.046340186 0.12900536 -0.08585985 -0.07808766
0.23412944 -0.11255775 -0.1638125 -0.21474579 -0.24787578 0.012443474 0.0240314 0.14677502
-0.24858579 -0.21718298 -0.046881318 0.19028306 -0.06681665 -0.29913452 -0.051185388 -0.3370171
-0.120229475 0.22337742 0.16726446 -0.21726441 -0.10397942 0.26519957 0.04173696 0.028078929
-0.1322599 -0.22549552 0.006935621 0.06434369 -0.05253311 0.17097935 0.3355676 -0.18790556
-0.21172753 -0.15447462 -0.06956775 0.25826108 -0.104365304 -0.08584919 -0.010620061 -0.009237849
-0.3908678 0.34957275 -0.15350837 -0.19144744 -0.061316516 0.29378253 0.010306068 0.13447267
-0.074844025 -0.20931204 0.31540018 0.30650285 -0.107732005 0.35006982 -0.15113673 -0.24652556
0.1567771 -0.37194127 0.27486286 0.016630234 -0.34065214 -0.10378798 -0.3523587 0.15414311
0.21700825 -0.095615305 0.322267 -0.29431528 -0.40744862 -0.057585075 -0.045251757 0.16930057
-0.36125997 0.065946445 -0.1722941 0.49845034 -0.16407444 -0.19611016 -0.016673084 0.1087213
0.26084685 0.11024026 0.07383479 -0.07220258 0.1245598 -0.14580981 -0.062385272 -0.054900825
-0.25745714 -0.11362182 -0.07357887 -0.10873832 -0.22043744 0.3255634 -0.16793782 -0.15775424
0.056330565 -0.058859803 0.09517604 -0.066617005 -0.20872313 0.29860127 -0.34932974 0.1085656

bias f4 [20]
00000000: 8303 963d fefc ce3c d88d 3dbd cb7b 7a3d
00000010: 095a 43bd 8bac 073e 798c b43c 8041 e2bd
00000020: 4f6e 723d a31f 29be 6fbe 7b3d c5ec 543d
00000030: 8739 173d 3f78 7dbd 4aae 9bbd 129f 433d
00000040: c8c2 6e3d 0e9d f23d 1eeb ea3d 24e8 d93d
0.073248886 0.02526712 -0.04627785 0.061153214 -0.047693286 0.13249414 0.022039639 -0.110476494
0.05918723 -0.16515975 0.06146091 0.051983614 0.036920097 -0.061882254 -0.076016024 0.047759123
0.058291227 0.11846362 0.11470626 0.106399804

weight f4 [20, 20]
00000000: 62d4 ae3e 6b3f c6bb 22a1 e73c 01ac 313e
00000010: b738 80be 3a55 25bd 3536 183e 13c4 adbc
00000020: 6a15 94bc 2de8 063d 5cc2 943d 9325 173e
00000030: a55a 7d3e 0a5e 8c3e 9aa9 56be 7bf5 243e
00000040: 1f47 8e3d 4645 783e a946 683d d700 04bf
00000050: a340 333e 329c 143e 60ce 5bbe da9c 17be
00000060: 13e9 1dbd 596c 823d bed7 a4bd 6c40 513e
00000070: 895b 223e f97c 903d 1f09 3bbe fb5c 3abe
00000080: 32fc 5f3e d659 f03d d831 0abe 1fab 6abe
00000090: e036 713e 1fe5 4dbe d98e 69be 6b28 b33d
000000a0: 3d8f eebe ff9e 4c3d 4311 19be 817b 46be
000000b0: 3a94 60be eb7e 71bb d3c4 5e3d 3691 b0be
000000c0: dd26 2bbe 1cd3 de3d 3ecf d8bd 1b35 aebe
000000d0: dffd 34be ad3f 25be 1c38 eb3e d47e 783e
000000e0: f7a4 053e f804 0ebe 1f80 1a3e 0615 a33e
000000f0: 2268 a9be ee71 c93d c6c1 61be e8f1 5cbe
00000100: 777d 99bd e0d3 9c3c b95c 49be 8fb5 46be
00000110: ade4 13be 61e9 983e 77fb ed3d 6cd2 0b3e
00000120: 2645 213d 4a59 f63d ee68 ad3e 19c0 773e
00000130: 2d1b bbbe 6260 093d 0e7c 213d 0dfb c8bd
00000140: c9f2 11be 1fd2 7ebe 21c9 d0bd 9831 19be
00000150: 144e e5be 10e5 c6bd a311 86be 1896 92be
00000160: 4900 bd3d 8290 a3be 6601 b73e 7e94 e8bc
00000170: 529e 82be 7a61 8fbd 4402 b3bb 947e 20be
00000180: 9aa0 0bbd 75cb d9bc 4716 833b a1ab 17be
00000190: 4c16 debd 4b58 37bc 6f09 04bf ddbf 203e
000001a0: b08d 13bf 7ff2 8cbe c160 2b3c 5ddf 62be
000001b0: 7ea7 943e 4710 e0bd a640 8bbd edea 953e
000001c0: da65 83be 3b8b 50be 822b 1fbd 1ecc 783e
000001d0: 4c0f 953e b99c 5abc ec60 1bbe df00 da3e
000001e0: 8bd7 0bbe a973 32bd cdce b9bd 8428 2d3e
000001f0: 52e0 683e ea9e 86bd 7533 1e3e 73d1 5bbe
00000200: 034e 4c3e 0eb9 b8bc 11a4 1f3e 0135 83bd
00000210: 2b33 2fbe 772d 29bd f9ad 933e d44c 08bf
00000220: 00c7 96bd 73f4 6bbe 27db fdbb b3d4 92be
00000230: 17a4 243e 4168 41bd 4e1e 19be b36d b83d
00000240: 73fa 633e 338d 87bd f905 86bd 8e52 29be
00000250: 1c85 ec3d cb0c 13bd 5d80 003e bd1e 0cbe
00000260: e308 ea3d 02a0 bfbd 5063 873d ed1e 82bd
00000270: 5d86 25be 8a38 503e dd07 99be 5fc9 1a3e
00000280: cf7c 36be 330c 8ebe 7fa0 5c3d c64e 553e
00000290: a205 643e aaac 343e 7c3e 0c3d 6782 bc3e
000002a0: 9bd5 113f 5864 e13d 6c91 31be d580 0cbe
000002b0: b56d 833d a7fa 95bd cb5c 57bd 52b3 413e
000002c0: 820c 5f3e 72f8 c8be ca0e ff3d da84 e5bd
000002d0: 7c3a 6dbe c6b7 a0be c62a 42bc c8c4 983e
000002e0: a5fa ad3d 99f3 e53d f497 8bbc 2010 64be
000002f0: f9b8 813c 72c4 e1bd 7dd8 9a3d 46e9 04be
00000300: de21 80be 9c52 0bbe 28e9 fbbd ae0e edbe
00000310: c411 bc3c 7457 c7be 5a0f 18be f743 383e
00000320: 5b92 a33e 081c 813e 5b86 823e a3d2 83ba
00000330: a76c 64bd 780b 8cbd 504a 843e a90f 5ebd
00000340: fbc5 e0bd 467c 933e 799d a43c f03d a2be
00000350: 7987 96be 9cc7 a63d 6798 b3bd 286e 863e
00000360: e069 3ebd a6c6 0bbe f461 203c 9266 73be
00000370: 7a5f 0f3e 60ee 5e3e e5b5 a23e 0419 6c3d
00000380: c3a1 5dbe d3bf b13e 91e9 eabc 67f1 95be
00000390: 6a50 653e c387 6fbe 1a20 bc3e 6ede 3f3e
000003a0: 7685 8b3e b3d0 72be a482 98be d70d 8f3e
000003b0: 371a 783e 3580 87be 6523 113f 0635 19bd
000003c0: d145 263e c536 5cbd 67a7 a93e 3012 21bd
000003d0: bec4 3cbe 2fd7 be3d f1fd 7abe d263 a4be
000003e0: 00ad d93d a10c b33e 481b 17be 27d1 3ebe
000003f0: 485f 253d 3f4c 2e3e 1380 733e c29b 113e
0.3414641 -0.0060500405 0.028275076 0.1735077 -0.2504327 -0.04036448 0.14864428 -0.02121166
-0.018076617 0.032936264 0.072636336 0.14760427 0.2474161 0.27415496 -0.20963135 0.16109268
0.06947159 0.24245176 0.05670801 -0.5156378 0.17505126 0.14512709 -0.21465445 -0.14805928
-0.038552355 0.06368322 -0.08048962 0.20434731 0.1585523 0.07055087 -0.18265198 -0.18199532
0.21873549 0.11735885 -0.13495576 -0.2291684 0.2355609 -0.20106934 -0.22808398 0.087479435
-0.46593657 0.049956318 -0.14947991 -0.1938305 -0.21931544 -0.003684933 0.054386925 -0.34485787
-0.16714044 0.1088011 -0.10586403 -0.3402489 -0.17674969 -0.16137572 0.45941246 0.24267131
0.1305121 -0.13869083 0.15087937 0.31851977 -0.3308726 0.098361835 -0.22046575 -0.21576655
-0.07494634 0.019143999 -0.19664277 -0.19405197 -0.14442702 0.29865554 0.11620229 0.13654488
0.039372586 0.12028749 0.33869117 0.24194373 -0.3654417 0.033539183 0.03942495 -0.09813509
-0.14252771 -0.24884842 -0.10194612 -0.14960325 -0.4478613 -0.09711659 -0.2618533 -0.28630137
0.0922857 -0.31946188 0.35743254 -0.02839112 -0.25511414 -0.07001014 -0.0054629166 -0.15673286
-0.03408871 -0.026586274 0.0040004584 -0.14811565 -0.108440965 -0.011190484 -0.51576895 0.1569819
-0.5763807 -0.2752876 0.01046008 -0.22155519 0.29034036 -0.10940605 -0.0679944 0.29280797
-0.25663644 -0.20365612 -0.03885985 0.24296615 0.29113233 -0.01334303 -0.15173692 0.4257879
-0.13656442 -0.043567333 -0.09072647 0.16909987 0.22741821 -0.06573279 0.15449317 -0.21466617
0.19951634 -0.022549178 0.1558993 -0.06406594 -0.17109363 -0.041303124 0.28843668 -0.5324223
-0.07362175 -0.23042469 -0.0077470723 -0.28677902 0.1607822 -0.047218565 -0.14952967 0.090052985
0.22263508 -0.066187285 -0.06544108 -0.16535398 0.11548826 -0.035900872 0.12548967 -0.136836
0.11427476 -0.09356691 0.06610739 -0.06353555 -0.16164537 0.20334068 -0.29888812 0.1511588
-0.17821048 -0.27743682 0.053864 0.20830831 0.22267774 0.17643991 0.034239277 0.3681824
0.5696656 0.11005467 -0.1734063 -0.1372102 0.06417409 -0.07323199 -0.05257873 0.18916062
0.21782115 -0.3925205 0.12453993 -0.1120698 -0.23166841 -0.31390208 -0.011851018 0.29837632
0.08495072 0.11228103 -0.01704023 -0.22271776 0.015835272 -0.11023797 0.07560823 -0.12979612
-0.2502584 -0.13605732 -0.123003304 -0.46300262 0.02295769 -0.3893391 -0.14849606 0.17994677
0.31947598 0.252167 0.2549313 -0.0010057281 -0.05576768 -0.06838125 0.25837946 -0.054214153
-0.10975262 0.2880575 0.02009462 -0.3168788 -0.29400232 0.08143541 -0.08769303 0.26255918
-0.04648769 -0.13649997 0.009788979 -0.23769596 0.14001265 0.2177062 0.317794 0.057641044
-0.21643738 0.34716663 -0.028675826 -0.29285738 0.22393957 -0.23391633 0.36743242 0.18737194
0.2725026 -0.23712425 -0.2978717 0.27940246 0.2422875 -0.26465002 0.5669463 -0.037404083
0.1623757 -0.05376317 0.3313553 -0.039323986 -0.18434426 0.09318387 -0.24510933 -0.32107407
0.106287 0.34970573 -0.147565 -0.18634473 0.04037407 0.17021273 0.23779325 0.14219573

bias f4 [20]
00000000: 99c1 ea3c 1345 f7bc 9c09 023d 3b14 003c
00000010: 8984 793c 0936 f33a 9049 2e3d f686 c13c
00000020: 01ad 533c a937 453d 03b4 a7bc 1f69 e23d
00000030: 3b9e 5abd b766 3e3d 026f 7d3e 21be 5bbd
00000040: a581 3ebd 07ed df3c d6e2 743d c00a 51bd
0.028656768 -0.030184304 0.031747445 0.007817323 0.015229353 0.0018555532 0.042550623 0.023623925
0.012919665 0.048148785 -0.020471578 0.110552065 -0.053373557 0.046484675 0.24749377 -0.053648118
-0.046510357 0.027334703 0.05978664 -0.051035643

weight f4 [20, 20]
00000000: 61be 4dbd 2d21 853d 4c3d b6be 3c7f c2bd
00000010: 6fe0 65bd aecd 9fbd 3334 903e 94f9 ddbd
00000020: 70eb 9b3e 8317 743e c92b fe3d ee72 fcbd
00000030: a4f6 643c eb9f 8e3b efc9 8ebe af76 793e
00000040: 97d1 b9be eea6 be3e 137d d5bd 3e37 b2bd
00000050: 7bbd 2a3e 231d 013f 05fe 063e 31ac 283e
00000060: c899 8bbe 06f5 c53d a2bc 8fbe 1f24 5ebe
00000070: a320 873e c2ee d43d fbdc 393e bba6 32be
00000080: 86e1 5fbe 805a c5bd 0954 42bd f429 2c3e
00000090: 64e3 ba3e 2997 9f3d 3907 e83d bbfd d03c
000000a0: 2a3e d3be 7563 b3bd e7a1 f93e 4e84 513e
000000b0: 7edd 04bd ab60 a8bc 9531 a5bd 07ac 3e3e
000000c0: c60b 0b3e 688d bd3d d729 1d3d ef44 033e
000000d0: 6e82 c6be 6392 c23c f558 993e 3193 113f
000000e0: 5e54 013e 9489 e93d 2d75 9cbe 859c cb3d
000000f0: 480b 0f3e 8008 de3d 9ffb 823e 62f3 b8be
00000100: 4651 b9bd 3a05 5abe f9b5 afbe bb58 39bd
00000110: 9020 3f3b 0ebf 893e fcef 3ebe 6d4f 893e
00000120: adcd ecbc 74cf 073e 30fd cb3d 6ea3 b43d
00000130: dba5 a33e 56eb 2ebd a286 2fbe 3d33 d2be
00000140: c580 243e 0cd5 bfbb e542 493e a12a 493e
00000150: 7c61 4a3f 1762 84bc e564 9f3e b47c 273e
00000160: 552c fc3d 09c6 f23d b549 8abe 8757 063e
00000170: c960 7ebe e95a b13d 4b24 0c3e ccc7 febe
00000180: 7f00 54be 8c60 193d ec3e 2d3e 18a5 833e
00000190: a264 233e ba2a 43be a09a 4abe a38b 4cbe
000001a0: fd92 bdbe a590 493e 0651 943e 3ebb 1c3f
000001b0: f5ad 88be 4b78 81be dabd a63e 066e 2f3e
000001c0: 4de7 d0be 5592 8f3e e1b1 4fbd 66c8 e13d
000001d0: bbe1 fcbd 7ec4 cabd 4288 3bbc 9c49 953e
000001e0: 4a06 c7be 3557 143e 4224 20be b506 2fbe
000001f0: 5917 113d cd9a 5d3e de17 24be b8ea 17be
00000200: 26d0 6dbd 09d1 00bf 57c4 0e3e bb46 44be
00000210: 5842 813b 9bb8 6cbe fbe2 1ebe 1324 96be
00000220: 7a86 89be 20e9 9fbd 55d3 7f3e 911f b0bd
00000230: e833 dc3e 4fcc aabe 02e6 7e3b 417e 3c3e
00000240: b403 7cbe 4a27 b43d e687 373d 02ad 26be
00000250: dfe4 37be 29d4 10be 2109 ecbb 9bbb 5bbe
00000260: 75a3 c4bd cd67 663e dfde a6bd 4599 133e
00000270: 8c8b ad3d 6bca e33d b013 11be 5291 20be
00000280: 8052 bcbd 5ced a6bd c0d5 77bd 2524 223d
00000290: d3a6 89bd ad9b 83bd 83f8 6e3e bc5c 3cbd
000002a0: 5097 803d a8f5 4a3e 7145 a6bd 7d52 a43d
000002b0: 6c91 f6bc bdbf 543e 7fdf 133d b99c ebbe
000002c0: 0208 2ebe eac2 563d 43e6 c5bd 4994 9bbe
000002d0: 1db5 813e 45e7 a93e d79b 9fbe 487a c3be
000002e0: 2a1e ea3d b084 363e 34dd 593e 033c 983e
000002f0: f47b 29be bde3 30be 33ac 5fbe 67e6 9fbc
00000300: 5ea7 143e a961 4dbd 0147 4e3e 8445 913e
00000310: 595a cd3d ddff 9b3d e116 143e f8ce 03be
00000320: fbf1 d13d d184 97be c989 30be 1794 cfbd
00000330: f60b 813e fcc9 9ebe a7e4 8fbc c998 f33d
00000340: a86d 383e 973d 0a3d e87a 17be dd23 c4be
00000350: 0483 df3d 2315 7abe d0ae 423e e028 cebb
00000360: 45d0 5b3c 5b33 7fbe c15f d13e 75af bb3d
00000370: dcff d33d 516b 09be b34e 8f3e 46f8 cdbd
00000380: ed38 233e 7a0b c9bd a635 cdbd ed41 42bd
00000390: db2c 2a3e 7714 763d 4d39 923e bf91 fcbc
000003a0: efad 683d 92b6 3bbe 450e bdbd 56b6 8bbe
000003b0: 506e 41be 605a 2c3c 8b17 923e b31c ec3d
000003c0: 32c0 75be 5031 9b3d d906 8a3e 000f e53d
000003d0: 2d72 113e 8398 503e e555 3d3e b853 013c
000003e0: b210 d5be 345b e8be 7533 e73b d550 a2bd
000003f0: 79c1 5d3e 5eab 6bbe c827 7bbb 61b2 b13d
-0.050230388 0.065004684 -0.3559364 -0.09496924 -0.05612224 -0.07802902 0.28164825 -0.10838619
0.30453062 0.23837094 0.12410695 -0.123266086 0.013974819 0.00435256 -0.27888438 0.2436168
-0.36292717 0.37236732 -0.10424247 -0.08701943 0.16673844 0.50435084 0.13182838 0.16471936
-0.27265763 0.09665875 -0.28073603 -0.21693467 0.26392087 0.10397102 0.18150704 -0.17446415
-0.21863374 -0.09636402 -0.047443423 0.16812879 0.3650161 0.077925034 0.113295026 0.025511613
-0.41258365 -0.08759204 0.48756334 0.20460626 -0.032437794 -0.020553907 -0.08066098 0.1862031
0.1357871 0.09255487 0.03836998 0.12819265 -0.38771385 0.023751443 0.2995068 0.5686522
0.1262984 0.11403194 -0.30558148 0.09941963 0.13969147 0.10841465 0.25582597 -0.36123186
-0.09048705 -0.21291056 -0.34318522 -0.045250636 0.0029163696 0.26903576 -0.18646234 0.2681841
-0.028906668 0.13262731 0.09960401 0.08820234 0.31962475 -0.042704903 -0.17141202 -0.41054717
0.16064747 -0.0058542546 0.19654424 0.19645168 0.79055 -0.016160054 0.31131664 0.16356164
0.12313143 0.118541785 -0.2700936 0.13119327 -0.24841608 0.08659918 0.1368572 -0.49761808
-0.20703314 0.03744559 0.16918534 0.25711894 0.15956357 -0.19059268 -0.19785547 -0.19975142
-0.37026206 0.19684084 0.28968066 0.6122321 -0.2669522 -0.2528709 0.3256672 0.17131814
-0.40801468 0.2804133 -0.050706748 0.11024551 -0.12347742 -0.09900759 -0.011446061 0.29157722
-0.38871986 0.14486392 -0.15638831 -0.17092402 0.035422657 0.21641083 -0.1602473 -0.14835632
-0.058059834 -0.5031896 0.13942085 -0.19167607 0.0039446764 -0.23117296 -0.15516274 -0.29324397
-0.2686041 -0.07808137 0.2498296 -0.08599771 0.4300835 -0.33359 0.003889442 0.18407537
-0.24610788 0.08796556 0.044807337 -0.16276935 -0.17958401 -0.14143433 -0.0072032367 -0.21458285
-0.096014895 0.22500534 -0.08147978 0.14413936 0.08473882 0.111225925 -0.14167666 -0.15680435
-0.09195423 -0.081507415 -0.060506582 0.03958525 -0.06721272 -0.06426177 0.23336987 -0.045986876
0.062788606 0.19820273 -0.08118714 0.08023546 -0.03009864 0.20776267 0.036101814 -0.46018007
-0.16995242 0.05243198 -0.096630596 -0.3038657 0.2533349 0.33184257 -0.31173584 -0.3817923
0.114315346 0.17824054 0.21275789 0.29733285 -0.1655119 -0.17274375 -0.21843033 -0.019519044
0.1451697 -0.050141964 0.20144273 0.2837335 0.10026998 0.076171614 0.14461853 -0.12871921
0.10251232 -0.29593518 -0.17240061 -0.10135668 0.25204438 -0.31013477 -0.017565085 0.11894376
0.1801058 0.033750143 -0.14792979 -0.38308612 0.10913661 -0.24422126 0.19011998 -0.006291494
0.013416355 -0.24921934 0.40893367 0.09164325 0.10351536 -0.13419844 0.2798973 -0.1005712
0.15939684 -0.09816642 -0.10019998 -0.047426153 0.16618674 0.06007811 0.28559342 -0.030831216
0.0568065 -0.18331364 -0.09231237 -0.2728755 -0.18889737 0.010519594 0.28533587 0.115289114
-0.23999098 0.07577765 0.2695835 0.11184502 0.14203711 0.20370679 0.18489797 0.007893495
-0.416143 -0.45382082 0.0070556947 -0.07925574 0.21655835 -0.2301459 -0.0038323272 0.08676601

bias f4 [20]
00000000: 1c4f 9dbd 386d 56ba a2c0 0bbd b688 4cbb
00000010: cf75 b03c ef75 9a3c d378 c03b e39f 7abb
00000020: ee50 f13c 74fb d23a b92d a2bc 00a6 e23b
00000030: ae45 dbbd cad8 bbbb d308 393c 143a 4a3b
00000040: fd47 b9bd 2b31 1a3d 6de1 383d 151e 8dbd
-0.076811045 -0.0008179727 -0.034119256 -0.0031209416 0.02154055 0.018855063 0.0058737784 -0.0038242273
0.029457536 0.0016096667 -0.019797193 0.0069167614 -0.1070665 -0.0057326304 0.011293608 0.0030857371
-0.09046934 0.037644546 0.045136858 -0.06890503

weight f4 [20, 20]
00000000: ca37 293e 2a96 35bd 94c5 b9bd 84ca 0abe
00000010: c417 9bbb 332e 97be 8785 e7bd e446 cf3e
00000020: ebb0 8dbe cdfa 903e 1b3a 7dbd 4203 86be
00000030: c1e1 f03d 2f71 ca3c 37aa e73d e1eb eb3d
00000040: f15f 90be f3c4 1e3e 312d 7b3d 422a 293d
00000050: 6f0e 043e 8976 543e 9104 9a3e 1218 ff3d
00000060: 0c4c fe3a 69c2 c7bd 824d c53c 8ca7 d63c
00000070: a78a 353e af7b 1a3e 4483 a6be 99db af3d
00000080: 1504 f93e 25b6 9ebd bf13 d0bd 33a9 07bf
00000090: e28e 2ebd 2550 ae3e a7b8 83be 8718 1c3d
000000a0: 9a6d 96bc 32b0 043e 460a 043f 84ed ad3d
000000b0: 1eab 043d d69d e73e 8c68 7abe ed87 51be
000000c0: b1f2 503d 15b3 d0be 3a59 acbc c60e 723d
000000d0: 8505 e73d 3770 85bd a369 723d b8f8 aebe
000000e0: a734 54be c646 03be 1f4d 93be 3f03 17be
000000f0: 2c44 aa3d 5252 0fbe c26b e3bc 01af 33be
00000100: de51 78bd a55e 3a3d d287 ac3d 005a aebd
00000110: bc7f a33e 00c8 6fbe f430 fc3d 6d97 953e
00000120: b4c9 83be ee5f 073e 5fc4 a8be 5cf5 75be
00000130: 8064 87bd ea52 853e 0885 5e3d 100f 90bd
00000140: 74cd 343e 1549 27be f1db 7bbd d33d 33bd
00000150: 886a 073e 211d 7f3e 4c43 ce3e d63a c83e
00000160: a81f 97bd 4b95 c7be 4b09 4bbd c2db 7b3d
00000170: 1fcf 993e 67d8 ad3d 2df5 cabe fa7c 7f3d
00000180: 701b 5ebe 4ef3 8ebd e65b fa3e 7cb4 b03e
00000190: 106d 20be 29d7 613e 0855 ef3d 6737 ae3d
000001a0: 93fb 28be a705 24be 33f9 11be f5e7 123e
000001b0: 2d6b 7ebe fc35 28be fea2 e23c bcf6 8d3d
000001c0: 83d9 873e b482 a9be 9d2b 023e 8c42 c23d
000001d0: 702f 083e cd57 f03e 42b5 5fbe 1fc9 fe3c
000001e0: 1766 f53e 9d8b 2abd 9e06 b0be d903 193e
000001f0: 9529 3c3e 7f57 c83e a29a 083e 0d47 1f3e
00000200: 81dc f7bd d9c8 78bd 54ca 1a3e aa73 943e
00000210: 15e5 51be bb10 443d da67 14be 247a f23d
00000220: 4040 98bd 86e1 723e aeda 183e fb75 6b3e
00000230: db8a f7be 49f4 64be 99a8 083e 34eb c53e
00000240: da7c 78be 3133 c8bb b0bc 873e 9e0f 653d
00000250: 171b 6ebd ab41 033a 2572 1d3e 36e6 1cbf
00000260: a638 a8be 45b5 6a3d 4381 733e 3e71 cabd
00000270: bc42 18bd 40d4 433d 5c19 9f3e 83cf ecbe
00000280: 1247 14be a337 a33e 9294 ac3e f43d a23e
00000290: 4509 13bb d520 8f3d 759c b03e 1860 72be
000002a0: ae9e 05be 4cf5 9dbe 15d8 69be e880 863e
000002b0: 4cc1 a03e f7c9 98be e759 abbd c3b0 7e3e
000002c0: e384 023e 212b 01be ba78 fcbd 94b8 87bc
000002d0: 3434 bdbe f41e 8e3e 6cb0 cabc 9218 b0be
000002e0: 850f e43d 67b1 a1be 12e1 2c3e b43f 133e
000002f0: 189b 6c3d a478 233e dc0f 5cbe 5429 be3e
00000300: 0674 51bc 1b5d aebd 7b23 b43d 1b25 7fbe
00000310: 8456 493e b347 70be 1735 98be a39b d6bc
00000320: affa 823d 86f6 4f3e 16d7 2d3e 0f1d 48be
00000330: 8b1d e4be 353f 11bf 7484 a73e 50d6 9c3c
00000340: a047 fb3d 215a b03e da17 303b 1ace cbbd
00000350: e4ca 003e 785a 873d b393 a23e a4b6 a8be
00000360: 18bc 223e bc0c b9be d9b5 7c3e 4c02 423e
00000370: 3677 313e 258a 553c 4f44 d43e cde8 37bc
00000380: 4819 c53d e092 d63e 1e37 b7be e581 02bf
00000390: 66af 573e 463c 4fbe 40e0 913e 2a88 853e
000003a0: f5af 103f b163 b83e 85fd df3e b2a9 b6bc
000003b0: d962 eebe 7a12 803e 1925 95be 88cb 16be
000003c0: d1c3 ca3e ffd9 613e 26ea f7bd 8bd2 d7bd
000003d0: 2656 5d3d b8e9 933d 7620 3f3e 2579 5abe
000003e0: 9c37 863e a4b4 5e3e 42d0 943d 3141 ca3e
000003f0: 0a4f 873e 1785 4fbd 235a 63be b6ad 073f
0.16525188 -0.04433266 -0.09070888 -0.13553816 -0.0047330577 -0.29527435 -0.11304765 0.40483773
-0.2767404 0.28316346 -0.06182299 -0.2617436 0.11761809 0.024712173 0.11311763 0.115196
-0.28198197 0.15504818 0.061322395 0.041300066 0.12896131 0.20748343 0.3008161 0.12455763
0.0019401326 -0.09753878 0.02408481 0.02620294 0.17728673 0.15086244 -0.32522023 0.08586807
0.48635927 -0.07749585 -0.10160016 -0.5299255 -0.042616732 0.3404552 -0.25726816 0.03810933
-0.018362809 0.12957838 0.51578176 0.08492568 0.032389753 0.45237607 -0.24453944 -0.20462008
0.0510127 -0.4076163 -0.02103864 0.05909612 0.1128035 -0.06515544 0.059182774 -0.34174132
-0.2072321 -0.12819967 -0.28769776 -0.14747332 0.08313784 -0.13996246 -0.027761344 -0.17547227
-0.06062495 0.045500416 0.08424343 -0.0851326 0.3193339 -0.23416138 0.123140246 0.2921709
-0.25739825 0.13220188 -0.3296232 -0.24019378 -0.06610966 0.2603982 0.054326087 -0.07034123
0.17656499 -0.16336472 -0.06148905 -0.043760132 0.13224232 0.24913456 0.40285718 0.39107388
-0.07379085 -0.3898109 -0.04956941 0.061488874 0.30040833 0.08488541 -0.3964018 0.062375046
-0.21690154 -0.069800004 0.48898238 0.345127 -0.15666604 0.22054733 0.1168614 0.08506661
-0.16502218 -0.16017781 -0.14255218 0.14346297 -0.24845572 -0.16426843 0.027665611 0.069318265
0.26533136 -0.3310753 0.1271195 0.09485349 0.13299346 0.46941987 -0.21846488 0.031101761
0.4792945 -0.04163705 -0.3438005 0.14942874 0.18375237 0.39129254 0.13340238 0.15554447
-0.12102605 -0.06073842 0.15116245 0.28994495 -0.20497544 0.047867518 -0.14492741 0.11839703
-0.0743413 0.23718843 0.1492717 0.22994225 -0.48348126 -0.22358812 0.13345565 0.38656008
-0.24266377 -0.006109618 0.26511145 0.055923097 -0.058131304 0.00050070387 0.15375574 -0.61288774
-0.3285572 0.05730178 0.23779778 -0.098848805 -0.037173018 0.04780984 0.31074035 -0.4625207
-0.14480236 0.31878385 0.337071 0.3168789 -0.0022435945 0.06988684 0.34494367 -0.2366947
-0.13048813 -0.3085121 -0.22836335 0.26270223 0.31397474 -0.29841587 -0.08366757 0.24872117
0.12746005 -0.12614109 -0.12327714 -0.016567506 -0.3695389 0.2775799 -0.024742328 -0.34393746
0.111357726 -0.3158066 0.16882733 0.1437977 0.057765096 0.1596399 -0.21490425 0.37140906
-0.01278401 -0.08513852 0.0879583 -0.24916498 0.1966191 -0.23464851 -0.29728004 -0.02619726
0.0639547 0.20308885 0.1697658 -0.19542335 -0.4455379 -0.5673707 0.3271824 0.01914516
0.12269521 0.34443763 0.0026869685 -0.0995142 0.12577397 0.066090524 0.3175331 -0.32951844
0.15892065 -0.36142528 0.24678744 0.18946189 0.17330632 0.0130334245 0.41458365 -0.011224938
0.09623963 0.41908932 -0.3578424 -0.50979453 0.21063003 -0.20237836 0.28491402 0.26080447
0.5651849 0.36013559 0.43748108 -0.022297714 -0.4655979 0.25014096 -0.29129866 -0.14726079
0.3960252 0.22055815 -0.12105207 -0.10538205 0.054037236 0.07222313 0.18664727 -0.21335275
0.26214302 0.21748596 0.072662845 0.39502862 0.2642749 -0.050664034 -0.22202353 0.52999437

bias f4 [20]
00000000: d826 223b 9da5 c1bb bfce b8bc 1b7a eb3c
00000010: 8504 5d3c 4d26 c7bc 62ee 0fbd 030a 4fbc
00000020: 8473 fabc d25c 98bb 70e1 a2bc b892 4cbd
00000030: d5ac c23c 53f1 f53d 6803 9bbb 02d4 7b3b
00000040: 2901 d3ba 73e2 fc3b 6af9 d63c 9f91 00bd
0.002474239 -0.005909635 -0.022559522 0.028744748 0.013489847 -0.024310255 -0.03513945 -0.012636664
-0.03057266 -0.004649737 -0.019882888 -0.04994461 0.023764053 0.120089196 -0.0047306307 0.0038425927
-0.0016098368 0.0077174245 0.026241977 -0.031388875

weight f4 [1, 20]
00000000: 411f a23c c6eb 10bf 9242 09bf 7434 a13e
00000010: 3d37 f83e be82 7bbe c022 6b3f b0b3 21bf
00000020: 630e aabe d040 653d 538a 2dbe 7a43 1ebf
00000030: 3fcc e33d bcba 6ebf e162 aabe 5d2d 203b
00000040: 77bd 1e3f 687d 4c3f 599e 643e 5ce2 9abe
0.019790294 -0.5660976 -0.53617203 0.3148533 0.48479643 -0.24561593 0.918499 -0.63164806
-0.332141 0.055970013 -0.16947298 -0.6182171 0.11122941 -0.93253684 -0.33278564 0.00244411
0.6200785 0.79878855 0.2232603 -0.30250823

u_b f4 [2]
00000000: cdcc 8c3f 77be 7f40
1.1 3.996

l_b f4 [2]
00000000: cdcc cc3d 0000 0000
0.1 0.0
