Trained/Models_00/Noise_1/simulation_nostop/weak_ff.pt (torch, 31199 bytes, 23 tensors)

weight f4 [20, 2]
-0.20889565 0.06464355 -0.16447653 0.09146579 -0.40558034 -0.36845145 0.31762746 0.5153878
0.031990845 -0.32942486 0.33884662 -0.19293669 -0.11123608 0.043428432 0.021468665 -0.33252576
-0.036377218 0.17534001 -0.20845366 0.049418017 -0.02491932 0.12948117 0.16317536 0.0888768
0.042235024 -0.2225707 -0.33875936 0.06510743 0.12707302 -0.45906922 0.27471837 -0.094525255
0.47164413 -0.75367814 -0.70056826 -0.34677675 0.06937212 -0.09467338 0.09508065 -0.023379385
00000000: bee8 55be d663 843d 896c 28be 6b52 bb3d
00000010: 3aa8 cfbe aba5 bcbe 11a0 a23e 74f0 033f
00000020: d508 033d 60aa a8be 4e7d ad3e 3291 45be
00000030: becf e3bd 03e2 313d 0edf af3c d140 aabe
00000040: 4700 15bd 558c 333e e074 55be 8c6a 4a3d
00000050: 9a23 ccbc b696 043e 7117 273e 0a05 b63d
00000060: a2fe 2c3d 93e9 63be de71 adbe 0b57 853d
00000070: 6e1f 023e 1f0b ebbe e3a7 8c3e 7596 c1bd
00000080: 577b f13e 0df1 40bf 7158 33bf b98c b1be
00000090: f812 8e3d 1ee4 c1bd a5b9 c23d 2086 bfbc

bias f4 [20]
0.106056154 -0.020384813 -0.08054825 0.020503255 0.061620675 -0.030196397 -0.02538204 0.1121228
-0.027111322 0.03955435 0.07663082 -0.09449479 -0.05242023 0.17879552 -0.12952773 -0.005879028
-0.084633134 -0.06539703 -0.12871252 -0.045683526
00000000: f833 d93d 0dfe a6bc 7bf6 a4bd 71f6 a73c
00000010: f665 7c3d 6f5e f7bc ffed cfbc a3a0 e53d
00000020: 9018 debc be03 223d 9ff0 9c3d 7c86 c1bd
00000030: 98b6 56bd 2c16 373e eba2 04be dca4 c0bb
00000040: 2354 adbd e1ee 85bd 37cd 03be a61e 3bbd

weight f4 [20, 20]
0.24563165 0.1294234 -0.20498514 0.0006057502 0.1302976 -0.0082626315 0.18407539 0.120756835
0.32812375 0.34792435 0.32424963 0.054870594 0.27248177 0.154751 0.5479349 -0.2425883
-0.032773215 -0.25849253 -0.12705386 0.0832249 0.26928803 0.13788037 -0.009712603 -0.06337801
-0.09458635 -0.44233277 -0.41922563 -0.20608617 0.22459154 -0.036223 -0.05393722 -0.06496263
-0.16376592 0.11366812 -0.17873344 0.13008101 0.20331599 0.1575127 0.03465916 -0.014953487
0.3252576 0.13085087 -0.2453937 -0.50906014 0.6042231 -0.062424038 -0.055089258 0.21579675
0.18063824 -0.2556166 -0.19696209 0.19063365 -0.28396633 -0.011398029 -0.008707064 -0.034897238
0.072704576 -0.07010928 0.03488138 -0.4694262 0.20777746 0.04487617 -0.20232372 0.16229439
0.16868034 0.2204943 -0.31465036 0.17288548 -0.16650018 0.098320164 0.09440022 0.160625
0.35515615 0.007914451 0.07533919 0.008828252 -0.20360734 0.012017199 0.19891757 0.23552889
0.34056196 0.02999179 0.13937931 0.09802343 -0.30021408 -0.26550683 0.14143251 0.36719063
-0.04620053 -0.06754444 0.13006765 -0.03894773 -0.07763777 -0.13610768 -0.15657209 0.17084555
-0.50166744 0.16341086 0.022800654 0.29176357 -0.08147659 0.11584443 0.2870405 -0.10142345
0.18388651 0.25620556 -0.19351125 -0.097895704 -0.016194588 -0.2305719 0.09058079 -0.08551829
-0.22501422 -0.23649645 0.59262997 0.038348686 -0.18396008 0.10014799 0.18401812 0.28614655
-0.42203656 -0.04911934 -0.009141653 0.036125667 -0.14887886 -0.5114659 0.19308783 0.039908405
0.27183127 -0.27496287 0.16721345 -0.13465999 0.017331872 -0.04145169 0.22830248 0.1158641
-0.13090594 -0.2736269 0.06865432 -0.17637756 0.17963386 0.4292693 0.23281126 0.012294213
0.30196902 0.16476221 -0.40691987 0.1350072 -0.06080729 -0.04667226 0.0881741 0.13788684
0.2817429 -0.2866854 0.0208133 -0.22071773 -0.19581932 -0.06968807 -0.194171 0.25537002
0.1092923 -0.13851348 -0.03355729 0.14780594 -0.28903925 0.192441 -0.22339685 -0.1065056
-0.2678808 -0.12059749 0.121420786 0.11282975 0.097290546 -0.07981992 0.021922046 0.4040306
0.14526789 0.24452166 0.1603298 -0.19679503 0.11613447 0.034722697 0.3880095 0.06081674
0.48766485 0.26218283 0.17514512 0.17138168 0.42289963 0.16073075 0.09629929 -0.28608015
-0.06358845 0.27829045 -0.1314423 -0.04198885 0.2747295 0.03314494 -0.21138133 0.037765123
-0.027684813 0.17115329 -0.13892119 0.20061064 -0.25513414 -0.1572663 -0.22435416 0.017272174
0.38187328 -0.5321022 -0.017231772 -0.14848292 -0.45371503 -0.20275277 -0.067747444 0.13490407
-0.40383974 0.27048144 0.1677324 -0.22597083 -0.4211596 0.14495465 0.32633814 0.17367925
-0.10298838 0.0887406 0.016801195 -0.11696123 -0.27202663 0.332803 0.089353524 0.46781358
-0.06699737 -0.12030145 0.23571081 -0.17180906 -0.06624755 0.11826966 0.22759585 0.03814241
-0.34442148 0.1338224 0.08232228 0.049248766 -0.316851 0.31304556 -0.021460926 -0.23156561
0.20349754 0.1903352 -0.118840456 0.2896676 0.16566218 -0.1187317 -0.048156325 0.07249739
00000000: dd86 7b3e 9187 043e a0e7 51be 35cb 1e3a
00000010: bc6c 053e fd5f 07bc 427e 3c3e 5c4f f73d
00000020: d6ff a73e 2423 b23e 0c04 a63e fdbf 603d
00000030: bb82 8b3e 0c77 1e3e 7645 0c3f 1169 78be
00000040: 353d 06bd 2259 84be 681a 02be d171 aa3d
00000050: 1fe0 893e 8330 0d3e 9c21 1fbc 55cc 81bd
00000060: 7db6 c1bd 7179 e2be bea4 d6be 4108 53be
00000070: 53fb 653e 925e 14bd 46ed 5cbd 210b 85bd
00000080: 41b2 27be d5ca e83d e605 37be f533 053e
00000090: 1132 503e 024b 213e c3f6 0d3d 78ff 74bc
000000a0: 2a88 a63e c5fd 053e 7c48 7bbe c451 02bf
000000b0: 5dae 1a3f 59b0 7fbd 46a5 61bd d3f9 5c3e
000000c0: 3bf9 383e 2ee0 82be 6eb0 49be 7835 433e
000000d0: 0964 91be ccbe 3abc 13a8 0ebc 68f0 0ebd
000000e0: 23e6 943d 7495 8fbd c7df 0e3d a258 f0be
000000f0: 9dc3 543e 13d0 373d f32d 4fbe 8030 263e
00000100: 8aba 2c3e 42c9 613e da19 a1be e408 313e
00000110: 067f 2abe 155c c93d e754 c13d e17a 243e
00000120: 07d7 b53e 9dab 013c 6f4b 9a3d 5fa4 103c
00000130: 717e 50be c9e3 443c 0cb1 4b3e 7c2e 713e
00000140: 235e ae3e 58b1 f53c 73b9 0e3e 82c0 c83d
00000150: a9b5 99be 83f0 87be afd3 103e 6900 bc3e
00000160: c43c 3dbd bd54 8abd 7430 053e a887 1fbd
00000170: 8d00 9fbd d05f 0bbe 6f54 20be 23f2 2e3e
00000180: 476d 00bf 2d55 273e 70c8 ba3c 0962 953e
00000190: 33dd a6bd d83f ed3d f9f6 923e 19b7 cfbd
000001a0: bf4c 3c3e 602d 833e d027 46be 8b7d c8bd
000001b0: 83aa 84bc 0a1b 6cbe 6c82 b93d 3724 afbd
000001c0: 216a 66be 202c 72be 99b6 173f 8313 1d3d
000001d0: 0860 3cbe 641a cd3d 3f6f 3c3e cd81 923e
000001e0: 2d15 d8be 5c31 49bd dfc6 15bc 82f8 133d
000001f0: b373 18be 6eef 02bf d1b8 453e ff76 233d
00000200: 782d 8b3e efc7 8cbe 013a 2b3e 4fe4 09be
00000210: 92fb 8d3c 3fc9 29bd 20c8 693e 284a ed3d
00000220: 350c 06be d318 8cbe a39a 8c3d 529c 34be
00000230: f0f1 373e 30c9 db3e 1366 6e3e ab6d 493c
00000240: af9b 9a3e 6db7 283e cd57 d0be 543f 0a3e
00000250: 1111 79bd 692b 3fbd 9f94 b43d 3532 0d3e
00000260: 9b40 903e 6ec8 92be a780 aa3c d403 62be
00000270: dc84 48be 9eb8 8ebd c3d4 46be dcbf 823e
00000280: a4d4 df3d 7ad6 0dbe 5e73 09bd 715a 173e
00000290: f4fc 93be 410f 453e 25c2 64be 9c1f dabd
000002a0: ac27 89be d1fb f6bd 76ab f83d 4913 e73d
000002b0: 4440 c73d a078 a3bd dd95 b33c 19dd ce3e
000002c0: 1bc1 143e e363 7a3e 7f2d 243e a384 49be
000002d0: e9d7 ed3d 6339 0e3d 2ea9 c63e f91a 793d
000002e0: 35af f93e d43c 863e 3e59 333e ae7e 2f3e
000002f0: 4d86 d83e 9a96 243e 9038 c53d 1979 92be
00000300: a93a 82bd 167c 8e3e cf98 06be 80fc 2bbd
00000310: 58a9 8c3e fdc2 073d 5974 58be 9aaf 1a3d
00000320: 43cb e2bc cf42 2f3e 5b41 0ebe e06c 4d3e
00000330: f1a0 82be 6b0a 21be 19bd 65be 607e 8d3c
00000340: e584 c33e da37 08bf a529 8dbc e80b 18be
00000350: 564d e8be 6c9e 4fbe 2cbf 8abd 4b24 0a3e
00000360: 15c4 cebe 8b7c 8a3e 0bc2 2b3e e664 67be
00000370: 3ba2 d7be fe6e 143e cb15 a73e f9d8 313e
00000380: 92eb d2bd a2bd b53d a9a2 893c 5f89 efbd
00000390: 1347 8bbe 2865 aa3e fbfe b63d 4385 ef3e
000003a0: eb35 89bd 9b60 f6bd 2d5e 713e b7ee 2fbe
000003b0: ccac 87bd 5d37 f23d e30e 693e 373b 1c3d
000003c0: 0358 b0be bd08 093e 9598 a83d 13b9 493d
000003d0: 4b3a a2be 8247 a03e d3ce afbc 891f 6dbe
000003e0: a961 503e 3be7 423e a062 f3bd 504f 943e
000003f0: 59a3 293e 9b29 f3bd 913f 45bd 8379 943d

bias f4 [20]
0.028536275 0.0014275523 0.024596293 -0.011417378 0.0047128024 -0.06076585 0.005587345 0.046919823
-0.03405837 0.035056617 -0.0036899324 -0.030086035 -0.08369501 -0.07875985 0.054367606 -0.14179596
0.042712428 -0.038027614 -0.0039071026 0.029085498
00000000: e8c4 e93c b51c bb3a 2a7e c93c f40f 3bbc
00000010: da6d 9a3b 9de5 78bd 0c16 b73b 002f 403d
00000020: ca80 0bbd 8797 0f3d cbd2 71bb fd76 f6bc
00000030: 4a68 abbd d84c a1bd 91b0 5e3d f632 11be
00000040: 3af3 2e3d d8c2 1bbd 2707 80bb b644 ee3c

weight f4 [20, 20]
0.27757287 -0.2439655 0.09107039 0.19048317 -0.17724587 -0.14310372 0.16113824 0.35948884
-0.6122058 0.16737369 0.15353389 0.27610308 0.14924948 0.18500757 0.3248982 -0.17853943
0.3923927 -0.13269673 0.1649038 -0.30956867 0.27334404 0.02219122 0.05127933 0.009603371
0.061158173 0.26660448 0.22763948 -0.26069036 -0.093559116 0.17902079 -0.21516408 0.3403401
-0.05300162 0.006912789 -0.06414936 0.33737627 -0.04606578 0.4009419 0.32950893 -0.029856881
-0.24157317 -0.0057531563 -0.017783472 -0.25570267 0.19441235 0.104043625 0.30989107 0.014356113
0.12086971 0.19821903 -0.14972933 -0.23811363 -0.11869248 0.10805244 -0.00022431738 0.36645648
0.1712925 0.029865552 -0.16878167 0.068250366 0.36505684 0.120186344 -0.22151692 -0.09467668
-0.27687532 -0.30353668 -0.48996955 -0.4863124 -0.1958232 -0.28717327 0.059449617 -0.04715352
-0.13630566 0.084654 -0.072359204 0.24103054 -0.13370325 -0.15931945 0.124609694 0.36117393
0.3247014 -0.04063216 0.044076692 -0.046106666 0.23387478 -0.2880705 -0.14587651 -0.16620758
0.12399805 0.014637436 -0.40001395 -0.31829584 -0.06548026 -0.5972066 0.4626083 0.18162265
-0.259326 -0.23510423 0.389576 0.18927689 -0.1484748 -0.038541134 0.008434422 -0.19307669
-0.26531577 -0.079105146 0.11170714 -0.42452 0.08644526 -0.06831056 -0.1586178 -0.095905304
0.41128522 0.1548376 0.4172861 -0.040321708 -0.02063224 0.14205384 0.17117572 -0.53105617
0.25872692 -0.050691396 0.033732273 0.22722642 0.09451152 -0.030587178 -0.1976146 0.24251886
-0.048458077 0.08209259 0.20166948 0.13761972 -0.18195395 0.2915001 -0.21931075 0.2983289
0.17501025 -0.585481 -0.2228763 0.09926298 -0.09365587 0.20372388 -0.078500755 0.23133035
-0.02284536 -0.0844252 -0.16707312 0.28535068 0.3433864 0.08943273 0.19002634 -0.15652357
-0.11579782 -0.07282366 0.09975338 0.12798 -0.19809884 0.3326338 0.032108594 0.024724165
-0.110953644 -0.079328485 -0.26904124 0.44498283 0.2791755 0.17468135 -0.0079477485 0.021657292
0.19848607 0.06651923 -0.02429748 0.3046561 -0.26044077 -0.347753 0.2414472 -0.10817626
-0.05402077 -0.18795946 0.2889627 -0.2789109 0.5076303 -0.16248205 -0.21595176 -0.016344216
-0.2840647 0.28205723 -0.2689059 0.10022921 0.0061231386 -0.015743895 0.1462013 0.1162478
-0.088168755 -0.007837885 -0.15530051 0.3172136 -0.032493968 0.072660565 0.15339476 -0.24130458
0.20378047 0.022925466 0.1352246 -0.0043721762 0.046854164 0.09446737 0.09714525 -0.1053058
-0.13589638 0.16178775 -0.17432277 0.13321273 3.5921563e-05 0.21882837 -0.35796833 0.26355252
0.090849854 -0.328445 -0.08712126 -0.25894213 0.04194756 0.12339361 -0.11388716 -0.20164493
0.17664333 -0.25778046 0.05506112 -0.07751557 -0.36808664 0.15497714 -0.1753913 -0.08895176
0.2994096 0.31484303 -0.012504938 0.31207746 0.01458334 0.67927885 -0.111931086 0.04205605
-0.31594506 0.1019523 -0.2654092 0.028061649 0.26925328 -0.34440893 -0.018447084 0.32304308
0.023275563 0.06082859 0.17836055 -0.09639807 -0.2900136 -0.42853695 0.23737192 -0.76951605
00000000: 081e 8e3e 18d2 79be 1d83 ba3d 050e 433e
00000010: f17f 35be c889 12be 6c01 253e ec0e b83e
00000020: 85b9 1cbf 0264 2b3e fd37 1d3e 625d 8d3e
00000030: dbd4 183e a072 3d3e 0f59 a63e 0ad3 36be
00000040: b2e7 c83e a7e1 07be 8bdc 283e c97f 9ebe
00000050: c0f3 8b3e 5dca b53c 460a 523d 7557 1d3c
00000060: fe80 7a3d 6280 883e 531a 693e 3579 85be
00000070: ec9b bfbd 3a51 373e f953 5cbe 0f41 ae3e
00000080: 3a18 59bd ad84 e23b bd60 83bd 95bc ac3e
00000090: 79af 3cbd 4248 cd3e 65b5 a83e 6b96 f4bc
000000a0: f55e 77be f984 bcbb a5ae 91bc 76eb 82be
000000b0: 0814 473e d314 d53d 0baa 9e3e e735 6b3c
000000c0: 8a8a f73d eef9 4a3e a552 19be 0fd4 73be
000000d0: 0b15 f3bd 994a dd3d bd36 6bb9 2fa0 bb3e
000000e0: 4d67 2f3e 9aa8 f43c 1ad5 2cbe d9c6 8b3d
000000f0: bbe8 ba3e 4224 f63d 55d5 62be d9e5 c1bd
00000100: 9ac2 8dbe 2969 9bbe 4add fabe f0fd f8be
00000110: e085 48be 6008 93be 7181 733d 0d24 41bd
00000120: b693 0bbe 145f ad3d 1031 94bd b6d0 763e
00000130: 81e9 08be a324 23be 5e33 ff3d caeb b83e
00000140: 433f a63e e86d 26bd c389 343d 58da 3cbd
00000150: df7c 6f3e fa7d 93be a760 15be 5232 2abe
00000160: b1f2 fd3d dbd1 6f3c a1ce ccbe acf7 a2be
00000170: 841a 86bd 88e2 18bf ffda ec3e 4afb 393e
00000180: 61c6 84be 2abf 70be 8176 c73e cdd1 413e
00000190: c709 18be 4fdd 1dbd 8830 0a3c e5b5 45be
000001a0: 78d7 87be e101 a2bd b7c6 e43d af5a d9be
000001b0: 360a b13d 68e6 8bbd b46c 22be 006a c4bd
000001c0: fa93 d23e bf8d 1e3e 86a6 d53e 6028 25bd
000001d0: f204 a9bc 9076 113e b048 2f3e 4cf3 07bf
000001e0: db77 843e c8a1 4fbd da2a 0a3d 0bae 683e
000001f0: 418f c13d f691 fabc 7b5b 4abe dd56 783e
00000200: fa7b 46bd 2920 a83d 7282 4e3e 2fec 0c3e
00000210: 2352 3abe 803f 953e ff92 60be 91be 983e
00000220: e335 333e 15e2 15bf af39 64be 644a cb3d
00000230: a6ce bfbd fe9c 503e 01c5 a0bd dde1 6c3e
00000240: 3126 bbbc 1fe7 acbd 3715 2bbe 7c19 923e
00000250: 58d0 af3e 8228 b73d 4496 423e b747 20be
00000260: 6827 edbd 9224 95bd 804b cc3d 300d 033e
00000270: 6cda 4abe fa4e aa3e 4d84 033d 558a ca3c
00000280: aa3b e3bd f976 a2bd c6bf 89be cad4 e33e
00000290: 17f0 8e3e abdf 323e 4637 02bc a26a b13c
000002a0: ef3f 4b3e 3c3b 883d 820b c7bc e2fb 9b3e
000002b0: 7e58 85be ae0c b2be ef3d 773e 848b ddbd
000002c0: e244 5dbd 7278 40be ebf2 933e 69cd 8ebe
000002d0: 0ff4 013f b261 26be 7522 5dbe 4ee4 85bc
000002e0: ee70 91be ce69 903e 09ae 89be f944 cd3d
000002f0: 9ca4 c83b 57f9 80bc cbb5 153e 5413 ee3d
00000300: d291 b4bd 796a 00bc 1907 1fbe d269 a23e
00000310: 6518 05bd 10cf 943d 8413 1d3e 8c18 77be
00000320: d4ab 503e 30ce bb3c 5178 0a3e 7944 8fbb
00000330: 27ea 3f3d 1c78 c13d 17f4 c63d 91aa d7bd
00000340: 6c28 0bbe b0ab 253e ab81 32be eb68 083e
00000350: 7caa 1638 8b14 603e a047 b7be 5bf0 863e
00000360: 7d0f ba3d f129 a8be a26c b2bd 1094 84be
00000370: 34d1 2b3d cab5 fc3d ac3d e9bd 027c 4ebe
00000380: fde1 343e cdfb 83be c587 613d 7cc0 9ebd
00000390: da75 bcbe 54b2 1e3e c799 33be 572c b6bd
000003a0: 374c 993e 1b33 a13e 83e1 4cbc 9ec8 9f3e
000003b0: f6ee 6e3c 38e5 2d3f 203c e5bd f742 2c3d
000003c0: 8dc3 a1be 5ecc d03d b7e3 87be 8be1 e53c
000003d0: 91db 893e 5e56 b0be 571e 97bc e765 a53e
000003e0: 65ac be3c 6627 793d 26a4 363e 5a6c c5bd
000003f0: aa7c 94be 3269 dbbe a011 733e 01ff 44bf

bias f4 [20]
0.0047199666 0.003910554 -0.017518928 0.029180665 0.00991581 0.0011124769 0.025788236 0.025660442
-0.009516131 -0.053143967 0.014394731 -0.024028575 0.061663203 -0.013407913 -0.05952623 -0.0025469768
0.009991774 0.074994296 -0.049933814 -0.08709188
00000000: f3a9 9a3b 1b24 803b db83 8fbc 4a0c ef3c
00000010: ec75 223c 88d0 913a da41 d33c d935 d23c
00000020: 8ce9 1bbc 7dad 59bd e1d7 6b3c 93d7 c4bc
00000030: 8e92 7c3d ddac 5bbc c7d1 73bd 2eeb 26bb
00000040: 8ab4 233c 9c96 993d 6687 4cbd 3a5d b2bd

weight f4 [20, 20]
0.00027445867 0.1813505 0.3147461 -0.16990702 0.55455524 -0.026087558 0.3256644 -0.25628468
0.23714316 0.079653524 0.18990701 0.048737604 0.09998617 0.26494488 -0.16046803 0.17636451
0.19255716 0.40442306 0.30185565 -0.0567045 -0.058025043 0.018082757 -0.15911512 -0.04844226
0.15102145 0.32631359 0.2873004 -0.030435234 -0.115611374 0.0247494 -0.2924646 -0.20157848
-0.25951028 0.45986643 -0.31202883 -0.280876 0.34526664 0.34228802 -0.23846875 0.22929507
-0.4152736 -0.32977965 0.1867714 -0.1209189 -0.42495722 0.21767329 -0.51559454 0.1990876
0.21416081 0.5275918 -0.1696822 -0.10734457 -0.069484 -0.0005777706 0.07159614 -0.23182116
-0.2687901 0.4424153 0.02284564 0.34944797 -0.13430251 -0.0835435 -0.12901169 0.13537334
-0.06159566 -0.1586615 0.15829454 0.17394133 0.065578885 0.1471252 0.25738713 -0.5408359
0.09227335 0.27145335 0.0031935265 0.035110343 -0.18576099 0.6113189 0.044502128 -0.46774778
0.2884234 -0.2866474 -0.2549024 -0.07560094 0.107801475 0.11610487 -0.12256573 0.016231133
0.038280558 -0.3096221 0.11775581 0.031035794 0.098753326 0.21534052 -0.19532447 -0.11000037
-0.15140794 -0.2507565 -0.4905195 0.03371678 0.088844515 -0.03204213 0.024465611 0.2135291
0.27696282 0.023888007 -0.21491452 -0.015866391 0.23600894 0.09424328 -0.21149774 -0.35005087
-0.102073304 0.20849006 -0.2842311 -0.026524313 -0.27459562 -0.08285282 0.34860024 0.09900188
-0.16473849 0.33994728 0.059493974 -0.18807417 -0.4236668 0.30497235 0.015098627 -0.081583105
-0.20736979 0.21932502 -0.20050673 -0.41545045 0.2592608 -0.29315522 0.22263959 0.04192368
0.611185 0.13506795 -0.054137237 -0.214669 -0.3270184 -0.09814402 -0.4000182 0.19672155
-0.6410959 0.40375116 0.281848 0.21787305 -0.061722625 -0.1389194 0.40625122 -0.24635287
0.33877337 -0.34830758 -0.22213705 0.10356546 -0.035627462 -0.22123043 -0.40638372 -0.13583604
0.27051502 -0.08434867 -0.223554 -0.3094503 0.16403338 0.11364395 -0.19898996 -0.14461054
0.041559983 -0.14072248 0.06816592 -0.133223 0.28184858 0.17325653 0.18315132 -0.07783373
-0.16180767 -0.18120332 0.15758346 -0.04044817 0.30293456 0.110676 0.046330802 -0.20175546
-0.08926626 -0.07000592 -0.20697859 0.16165514 -0.066017345 0.32124004 -0.22440569 -0.09467341
-0.37844068 0.16048911 0.40475345 -0.27879196 -0.15454064 -0.4722641 -0.103805006 0.04976969
0.04257771 0.24309304 0.1388004 0.26988325 -0.08714459 0.15105346 -0.009632612 0.00236777
0.36735156 0.03314252 -0.27562845 -0.1367149 0.2715755 0.2850819 0.14706463 -0.320375
-0.21942809 -0.4885079 -0.07008175 -0.05066769 -0.0045898175 0.12178753 0.0053408737 -0.19719759
-0.1851739 0.14591919 0.037145745 -0.14241673 -0.2379691 -0.24197632 -0.15611638 -0.11135366
-0.10696137 -0.19736482 -0.032206174 0.07515301 0.17270783 0.29998004 -0.30366746 0.25035042
0.19729188 -0.008878931 0.103920855 0.025281584 -0.19758946 -0.4318707 0.15306638 -0.32200387
0.19742996 -0.04000933 -0.030522903 -0.13129218 -0.095950104 -0.07484133 0.16271809 0.39597216
00000000: 38e5 8f39 f2b3 393e 6726 a13e 1bfc 2dbe
00000010: 55f7 0d3f 93b5 d5bc 7cbd a63e bf37 83be
00000020: a8d5 723e 6321 a33d fc76 423e 15a1 473d
00000030: 8dc5 cc3d dba6 873e bb51 24be e698 343e
00000040: b42d 453e 8a10 cf3e d38c 9a3e fa42 68bd
00000050: abab 6dbd 4a22 943c 13ef 22be 646b 46bd
00000060: 5ea5 1a3e 9312 a73e 0a19 933e 5053 f9bc
00000070: a8c5 ecbd 41bf ca3c ecbd 95be 976a 4ebe
00000080: 88de 84be 9d73 eb3e 3ec2 9fbe fbce 8fbe
00000090: cac6 b03e 6040 af3e 2731 74be 54cc 6a3e
000000a0: be9e d4be e1d8 a8be 0041 3f3e 54a4 f7bd
000000b0: fe93 d9be bfe5 5e3e 01fe 03bf 9fdd 4b3e
000000c0: f94c 5b3e 4210 073f 2cc1 2dbe 78d7 dbbd
000000d0: a14d 8ebd 8775 17ba ffa0 923d 8762 6dbe
000000e0: db9e 89be 4284 e23e c826 bb3c d8ea b23e
000000f0: 9986 09be db18 abbd a41b 04be 4f9f 0a3e
00000100: bb4b 7cbd 2978 22be f717 223e ad1d 323e
00000110: 394e 863d fda7 163e 3fc8 833e 3974 0abf
00000120: cff9 bc3d effb 8a3e 7c4a 513b ddcf 0f3d
00000130: 2138 3ebe 657f 1c3f dd47 363d a37c efbe
00000140: 3bac 933e 73c3 92be 9182 82be aad4 9abd
00000150: 05c7 dc3d 64c8 ed3d be03 fbbd 27f7 843c
00000160: 13cc 1c3d ca86 9ebe f529 f13d c73e fe3c
00000170: 2f3f ca3d 3a82 5c3e 2303 48be e047 e1bd
00000180: af0a 1bbe 2863 80be 5f25 fbbe 9b1a 0a3d
00000190: 1df4 b53d 9c3e 03bd 1b6c c83c 5fa7 5a3e
000001a0: 12ce 8d3e c8b0 c33c 8d12 5cbe 3cfa 81bc
000001b0: 54ac 713e 9f02 c13d dd92 58be de39 b3be
000001c0: cf0b d1bd 6b7e 553e bd86 91be 8449 d9bc
000001d0: cc97 8cbe bdae a9bd bb7b b23e 7fc1 ca3d
000001e0: 35b1 28be 920d ae3e f4af 733d 8496 40be
000001f0: dbea d8be 5625 9c3e 3b60 773c 0b15 a7bd
00000200: bf58 54be bd96 603e a351 4dbe ecb5 d4be
00000210: d5bd 843e 7118 96be a2fb 633e 2ab8 2b3d
00000220: 9f76 1c3f 414f 0a3e 02bf 5dbd 31d2 5bbe
00000230: f56e a7be bbff c8bd 2fcf ccbe 6071 493e
00000240: dc1e 24bf 79b8 ce3e 624e 903e 1d1a 5f3e
00000250: ddd0 7cbd e340 0ebe 2900 d03e ed43 7cbe
00000260: b473 ad3e 5f55 b2be e577 63be 211a d43d
00000270: 1aee 11bd 3b8a 62be 8711 d0be 9a18 0bbe
00000280: f280 8a3e ffbe acbd 57eb 64be 4570 9ebe
00000290: 5ef8 273e 29be e83d 06c4 4bbe c914 14be
000002a0: cd3a 2a3d 8e19 10be 939a 8b3d 9c6b 08be
000002b0: 754e 903e 296a 313e 058c 3b3e 4a67 9fbd
000002c0: e9b0 25be 5d8d 39be 8f5d 213e fbac 25bd
000002d0: 3d1a 9b3e 19aa e23d 5ec5 3d3d fc98 4ebe
000002e0: 3bd1 b6bd 445f 8fbd 32f2 53be ed88 253e
000002f0: 1a34 87bd 9379 a43e 9bca 65be 22e4 c1bd
00000300: fac2 c1be 4257 243e d83b cf3e d2bd 8ebe
00000310: e73f 1ebe 9acc f1be b897 d4bd 4ddb 4b3d
00000320: f765 2e3d 62ed 783e b121 0e3e 232e 8a3e
00000330: dd78 b2bd c2ad 1a3e 1ad2 1dbc 972c 1b3b
00000340: 8115 bc3e 73c0 073d 2c1f 8dbe fefe 0bbe
00000350: f20b 8b3e 41f6 913e 1c98 163e 3108 a4be
00000360: c2b1 60be b51d fabe 0587 8fbd ec88 4fbd
00000370: 2e66 96bb be6b f93d 7f02 af3b 2aee 49be
00000380: 3a9e 3dbe d76b 153e 2326 183d b1d5 11be
00000390: 2cae 73be a4c8 77be f9dc 1fbe 630d e4bd
000003a0: 900e dbbd 011a 4abe 9fea 03bd d2e9 993d
000003b0: 52da 303e fc96 993e 4d7a 9bbe ee2d 803e
000003c0: e206 4a3e f078 11bc 75d4 d43d 531b cf3c
000003d0: e454 4abe 281e ddbe 6fbd 1c3e b1dd a4be
000003e0: 142b 4a3e d3e0 23bd 2b0b fabc 7571 06be
000003f0: 7d81 c4bd 6946 99bd 929f 263e ddbc ca3e

bias f4 [20]
0.002761317 0.01863812 -0.00502907 0.026185317 0.03475408 -0.0045227995 0.0054375585 0.007925181
0.01634214 -0.04054898 -0.0024721725 0.051723227 0.022043688 0.0028892641 0.026162414 0.03940649
0.010949004 -0.029075747 -0.06722347 0.009489404
00000000: 36f7 343b f8ae 983c e6ca a4bb 9782 d63c
00000010: 4b5a 0e3d fe33 94bb 8c2d b23b 9ed8 013c
00000020: f4df 853c b016 26bd 2c04 22bb bcdb 533d
00000030: f794 b43c cf59 3d3b 8f52 d63c b368 213d
00000040: 7463 333c 4330 eebc 75ac 89bd 7279 1b3c

weight f4 [20, 20]
0.21428896 0.1120927 0.057843372 -0.088713825 0.19751668 0.036337126 -0.036103018 -0.10673557
0.39769775 0.0721709 -0.07503179 0.17783871 0.18701154 -0.2816605 0.15645397 -0.20955567
0.31051338 -0.13150403 -0.1795907 -0.11586705 0.011440156 -0.19749151 0.19116935 -0.11132358
-0.12399657 -0.07318844 -0.012151179 -0.25883314 0.33934367 -0.17859687 -0.005861184 -0.18986928
-0.16780809 0.040777348 -0.3284238 -0.37443545 -0.10296359 0.37255335 0.12755686 -0.01681691
0.3117716 0.1405271 -0.27154943 0.09685656 -0.43412948 -0.1823949 -0.04966282 0.06786477
-0.07137883 0.04245784 -0.00988701 -0.09354113 0.07750547 0.44280833 -0.010101835 0.036059275
0.06375356 -0.30102962 -0.2942462 -0.026629355 -0.07170282 0.31870997 0.17673646 0.04557033
0.13126333 -0.24156365 -0.023862123 0.085472755 -0.08411571 -0.1920536 -0.15961789 -0.062881246
0.34980872 0.18873718 0.13838099 0.24072763 -0.09821497 0.2784617 0.008570884 0.26618072
-0.30131176 -0.004012511 0.42464697 0.12687352 0.03471005 -0.10044248 -0.006396835 -0.19365682
0.122273274 -0.13615626 -0.21010508 0.032763105 -0.24542233 -0.15583919 -0.3469587 0.13803455
-0.12344439 0.13494189 -0.04186637 -0.11732625 -0.39339915 -0.022279091 0.10601817 -0.090314716
0.27314958 0.09709482 -0.41012847 -0.033991892 0.09685639 0.015303944 -0.1691221 -0.4452391
-0.17862725 0.23446709 -0.014176051 0.5902628 -0.1111214 -0.05415544 -0.23690416 -0.35149223
0.26662108 -0.015598262 0.012171783 -0.009917846 -0.38504344 0.14882119 -0.11523746 0.15580095
0.061466515 0.16084523 -0.28063443 -0.021294117 0.022237927 0.12220768 0.17661884 -0.023657301
0.11290861 0.18454608 -0.01926466 0.13656819 -0.22613621 0.031560767 0.21917892 -0.023692535
0.08124737 -0.20059712 0.11104513 -0.04152841 -0.050716702 0.13358787 -0.08422267 -0.075870246
0.23635995 -0.13538072 -0.16613995 -0.17950106 -0.26283363 0.021059401 0.05739311 0.14609857
-0.2615371 -0.20482035 -0.016813122 0.19677556 -0.068787344 -0.30753082 -0.030792607 -0.3418637
-0.11739608 0.23289976 0.17569338 -0.20999971 -0.115985066 0.25688085 0.029667469 0.01422131
-0.14525023 -0.21989161 -0.010636461 0.071461454 -0.051705357 0.19207053 0.2795807 -0.17200951
-0.1558258 -0.1244704 -0.1318502 0.26620615 -0.08457613 -0.11446751 0.007787451 -0.018775841
-0.38617215 0.33518162 -0.1548618 -0.1358947 -0.0756078 0.28144968 0.025369018 0.1273379
-0.093383014 -0.22384971 0.34722927 0.32247984 -0.103302225 0.3336442 -0.117745794 -0.21117374
0.17584822 -0.3829108 0.27760434 0.020718606 -0.35153994 -0.09074296 -0.3704308 0.12750019
0.19910406 -0.06628485 0.27912477 -0.27144086 -0.42526126 -0.030438228 -0.01807446 0.18087585
-0.3571559 0.05669017 -0.15591721 0.48714882 -0.16338424 -0.1933614 -0.011046158 0.121604264
0.24618135 0.09695933 0.04295853 -0.06659805 0.09357909 -0.13062984 -0.08470741 -0.04606257
-0.2389304 -0.06215478 -0.030044213 -0.108980596 -0.24140641 0.30659708 -0.14755026 -0.18236421
0.033985615 -0.047305956 0.06996702 -0.03632484 -0.23405866 0.2612279 -0.3726164 0.07710386
00000000: 916e 5b3e dc90 e53d 2ced 6c3d 98af b5bd
00000010: d041 4a3e 3dd6 143d c2e0 13bd 2e98 dabd
00000020: 0a9f cb3e 56ce 933d 44aa 99bd 5a1b 363e
00000030: f47f 3f3e ce35 90be 7835 203e c395 56be
00000040: 9cfb 9e3e fea8 06be a0e6 37be b44b edbd
00000050: 7e6f 3b3c 373b 4abe e6c1 433e 9efd e3bd
00000060: eaf1 fdbd d2e3 95bd bd15 47bc c785 84be
00000070: 74be ad3e 19e2 36be 2d0f c0bb 186d 42be
00000080: e2d5 2bbe 2606 273d 2a27 a8be 01b6 bfbe
00000090: 93de d2bd 50bf be3e 449e 023e 9ec3 89bc
000000a0: 87a0 9f3e 56e6 0f3e 8708 8bbe bb5c c63d
000000b0: 3846 debe bbc5 3abe 3e6b 4bbd affc 8a3d
000000c0: 102f 92bd 46e8 2d3d 20fd 21bc 7e92 bfbd
000000d0: 30bb 9e3d c6b7 e23e 2b82 25bc e4b2 133d
000000e0: 3a91 823d 8e20 9abe 70a7 96be ce25 dabc
000000f0: eed8 92bd f42d a33e 67fa 343e f4a7 3a3d
00000100: e569 063e 765c 77be 807a c3bc 570c af3d
00000110: db44 acbd b3a9 44be df72 23be e2c7 80bd
00000120: 211a b33e 5244 413e bfb3 0d3e 4e81 763e
00000130: ee24 c9bd 8892 8e3e e56c 0c3c d748 883e
00000140: 8945 9abe 627b 83bb 546b d93e 22eb 013e
00000150: 202c 0e3d c9b4 cdbd 8b9c d1bb f94d 46be
00000160: 696a fa3d 8c6c 0bbe c925 57be 9b32 063d
00000170: fe4f 7bbe 4f94 1fbe 92a4 b1be ee58 0d3e
00000180: 6ad0 fcbd 352e 0a3e 127c 2bbd bf48 f0bd
00000190: 9d6b c9be a482 b6bc 0e20 d93d ecf6 b8bd
000001a0: 43da 8b3e a6d9 c63d 5cfc d1be 153b 0bbd
000001b0: a55c c63d 65bd 7a3c 582e 2dbe 61f6 e3be
000001c0: 10ea 36be 2418 703e ab42 68bc 761b 173f
000001d0: 9e93 e3bd 18d2 5dbd 0197 72be caf6 b3be
000001e0: 8f82 883e da8f 7fbc 286c 473c 767e 22bc
000001f0: 6a24 c5be 9564 183e 9e01 ecbd 498a 1f3e
00000200: 50c4 7b3d 9db4 243e 51af 8fbe 0071 aebc
00000210: 502c b63c 0548 fa3d 92db 343e f5cc c1bc
00000220: a13c e73d a6f9 3c3e ecd0 9dbc 88d8 0b3e
00000230: 4090 67be dd45 013d 7070 603e d916 c2bc
00000240: 0565 a63d 5569 4dbe a16b e33d b219 2abd
00000250: 51bc 4fbd 42cb 083e ef7c acbd dc61 9bbd
00000260: 5808 723e 3ea1 0abe 9720 2abe 20cf 37be
00000270: 2192 86be c484 ac3c 0a15 6b3d dd9a 153e
00000280: 31e8 85be 6dbc 51be acbb 89bc 887f 493e
00000290: 61e0 8cbd ae74 9dbe c740 fcbc c208 afbe
000002a0: 5b6d f0bd 467d 6e3e f7e8 333e 2a0a 57be
000002b0: 9489 edbd e385 833e 3109 f33c 7f00 693c
000002c0: 7abc 14be 442b 61be 8d44 2ebc 625a 923d
000002d0: ffc8 53bd 23ae 443e 3425 8f3e 4323 30be
000002e0: cc90 1fbe 56ea febd bd03 07be 2c4c 883e
000002f0: 4036 adbd f16d eabd e02d ff3b cbcf 99bc
00000300: 5bb8 c5be ed9c ab3e 1794 1ebe fb27 0bbe
00000310: 43d8 9abd 2c1a 903e b0d2 cf3c de64 023e
00000320: 983f bfbd dc38 65be 09c8 b13e 141c a53e
00000330: 1e90 d3bd 6ad3 aa3e b524 f1bd ee3d 58be
00000340: 8e11 343e e20c c4be 2822 8e3e 11ba a93c
00000350: 0bfd b3be 72d7 b9bd 1ba9 bdbe 698f 023e
00000360: efe1 4b3e 5ac0 87bd 71e9 8e3e 4cfa 8abe
00000370: d8bb d9be 9759 f9bc e410 94bc 8537 393e
00000380: 23dd b6be f433 683d c3a8 1fbe 926b f93e
00000390: 334e 27be 8800 46be f2fa 34bc a80b f93d
000003a0: f716 7c3e 9d92 c63d 49f5 2f3d 8f64 88bd
000003b0: 65a6 bf3d d4c3 05be 147b adbd 1bac 3cbd
000003c0: 2caa 74be 0396 7ebd 481f f6bc 3831 dfbd
000003d0: 3e33 77be 4bfa 9c3e 6a17 17be afbd 3abe
000003e0: 8034 0b3d e4c3 41bd de4a 8f3d 5bc9 14bd
000003f0: 13ad 6fbe aabf 853e 94c7 bebe a1e8 9d3d

bias f4 [20]
0.03123503 -0.02171678 -8.872651e-05 0.037863243 -0.010539601 0.010476319 -0.024845077 -0.03196805
0.041523855 -0.025225181 0.04456704 0.025590498 -0.016953371 0.010872924 -0.03971802 -0.021256214
0.027664121 0.040443618 0.012721326 -0.057592504
00000000: 9be0 ff3c 63e7 b1bc af12 bab8 7d16 1b3d
00000010: 4aae 2cbc dea4 2b3c e787 cbbc eef0 02bd
00000020: eb14 2a3d 0aa5 cebc ee8b 363d 2aa3 d13c
00000030: cce1 8abc 5924 323c 5daf 22bd 8321 aebc
00000040: de9f e23c 35a8 253d 1c6d 503c 1ee6 6bbd

weight f4 [20, 20]
0.27215418 0.064239606 -0.06563768 0.21288773 -0.091136724 -0.027627567 0.09940685 0.059593115
-0.05555678 0.090523 0.08661539 0.06807402 0.22924301 0.35025057 -0.0723562 0.08742896
0.086464904 0.23850551 0.04722645 -0.5063325 0.1594032 0.16776961 -0.2583802 -0.13663357
0.010769574 0.07650777 -0.1085999 0.23240721 0.14791131 0.088997416 -0.17269124 -0.20955135
0.21281178 0.13988128 -0.08522902 -0.24757206 0.25132275 -0.1934113 -0.2219526 0.096679546
-0.40695703 0.0040077264 -0.09149437 -0.23433745 -0.31126875 -0.032616597 0.08433193 -0.39574492
-0.13901788 0.071936116 -0.103073716 -0.2892127 -0.16515055 -0.17737177 0.37126464 0.27214345
0.112523794 -0.14097138 0.16155826 0.27429238 -0.308977 0.0882634 -0.21300723 -0.20851004
-0.084652245 0.0032107926 -0.190105 -0.20210831 -0.15616415 0.29790282 0.11140121 0.16093412
0.026446972 0.13378239 0.30038503 0.22849435 -0.3523518 0.061574403 0.014151775 -0.13713159
-0.14479072 -0.23432623 -0.097677715 -0.16003528 -0.45858586 -0.1202051 -0.25050762 -0.285286
0.10060939 -0.30905032 0.3522255 -0.018677022 -0.25384185 -0.09333124 -0.033216916 -0.15456901
-0.04044443 -0.033022903 -0.001639196 -0.17229134 -0.10667986 -0.015581482 -0.5170718 0.16584085
-0.5598785 -0.26675698 0.002560247 -0.21932718 0.2950714 -0.120670445 -0.0679813 0.2816547
-0.25840205 -0.17867187 -0.011177496 0.23394676 0.29197815 -0.022825623 -0.14009018 0.42257884
-0.14226158 -0.027290525 -0.105225004 0.16835931 0.23891684 -0.058500025 0.14308065 -0.20786393
0.20935684 -0.018038405 0.1642996 -0.06627429 -0.16676879 -0.06353531 0.28867123 -0.5349655
-0.06679998 -0.23120482 -0.0043580327 -0.27681535 0.16184175 -0.03739231 -0.16209882 0.08800252
0.23284222 -0.066712886 -0.07862753 -0.15716204 0.121149816 -0.027927667 0.13737361 -0.12941033
0.11626754 -0.09693283 0.056794155 -0.07159688 -0.15097962 0.2112118 -0.30892187 0.15555201
-0.16682962 -0.27352715 0.043917153 0.19899547 0.2263599 0.17418602 0.020686625 0.37398222
0.58266395 0.11147708 -0.16390732 -0.13991061 0.06533101 -0.063782156 -0.046920557 0.18316905
0.22489189 -0.3923663 0.13423365 -0.121824965 -0.21245965 -0.32768926 9.460183e-05 0.2907106
0.07009645 0.10895791 -0.025900759 -0.23542969 0.027521726 -0.11456682 0.0924148 -0.097666614
-0.24712668 -0.13727899 -0.17016524 -0.46466756 0.038780373 -0.35996827 -0.16031715 0.17272119
0.32273483 0.23529997 0.26798123 0.0070799896 -0.07437379 -0.05309435 0.2664775 -0.06629224
-0.11238463 0.27224058 0.0066127027 -0.31693405 -0.29630223 0.071608335 -0.08837134 0.27512923
-0.048107214 -0.13946052 0.015336432 -0.22226717 0.15129235 0.20336579 0.35562927 0.053549796
-0.24297565 0.33236867 0.001360546 -0.30845943 0.21911626 -0.23590843 0.34693882 0.21513231
0.2615148 -0.25587767 -0.3492415 0.26759514 0.22912994 -0.27656934 0.53490394 -0.036629602
0.16844578 -0.07086991 0.34354627 -0.050016277 -0.20222028 0.09776206 -0.2423262 -0.3363488
0.10502259 0.34117186 -0.13491026 -0.17753434 0.050546013 0.17384663 0.21800855 0.15828428
00000000: cb57 8b3e 0e90 833d 0c6d 86bd 3eff 593e
00000010: e4a5 babd 3553 e2bc d295 cb3d e917 743d
00000020: 828f 63bd 1f64 b93d 6963 b13d 646a 8b3d
00000030: aebe 6a3e 0b54 b33e 7d2f 94bd f40d b33d
00000040: 8314 b13d ca3a 743e 8670 413d 029f 01bf
00000050: 983a 233e cccb 2b3e 694a 84be ace9 0bbe
00000060: de72 303c 1bb0 9c3d a069 debd 28fc 6d3e
00000070: 1076 173e 4744 b63d f9d5 30be a194 56be
00000080: 55eb 593e 0a3d 0f3e 8d8c aebd 8883 7dbe
00000090: 60ad 803e 9d0d 46be 8b47 63be edff c53d
000000a0: ac5c d0be 3f53 833b 6661 bbbd 28f6 6fbe
000000b0: 9e5e 9fbe fb98 05bd 38b6 ac3d 149f cabe
000000c0: b45a 0ebe 3e53 933d 5018 d3bd b013 94be
000000d0: 3a1d 29be f2a0 35be 6616 be3e 6356 8b3e
000000e0: e072 e63d cd5a 10be 876f 253e 0d70 8c3e
000000f0: 3c32 9ebe 71c3 b43d 911e 5abe a883 55be
00000100: 285e adbd 296c 523b e3aa 42be 7bf5 4ebe
00000110: 7fe9 1fbe b886 983e 5126 e43d eacb 243e
00000120: 52a7 d83c 40fe 083e 11cc 993e 6cfa 693e
00000130: 7567 b4be 7135 7c3d d9dc 673c 396c 0cbe
00000140: 0544 14be 37f3 6fbe 410b c8bd 4ae0 23be
00000150: c4cb eabe 172e f6bd 8942 80be 0211 92be
00000160: 4c0c ce3d d83b 9ebe e756 b43e 8e00 99bc
00000170: 8ff7 81be 7324 bfbd 760e 08bd 5747 1ebe
00000180: 0fa9 25bd 0643 07bd 4ada d6ba 246d 30be
00000190: f87a dabd 7949 7fbc d15e 04bf 2fd2 293e
000001a0: 3354 0fbf 5f94 88be d1c9 273b 4e97 60be
000001b0: 9913 973e 1122 f7bd c839 8bbd 0b35 903e
000001c0: 464d 84be c2f5 36be d121 37bc bd8f 6f3e
000001d0: 297e 953e cdfc babc cd73 0fbe 415c d83e
000001e0: 05ad 11be 6190 dfbc 3580 d7bd 6266 2c3e
000001f0: 9ea6 743e b99d 6fbd bc83 123e 48da 54be
00000200: a461 563e 47c5 93bc 283e 283e d1ba 87bd
00000210: 70c5 2abe cd1e 82bd b7cc 933e 80f3 08bf
00000220: 6ece 88bd f5c0 6cbe d4cd 8ebb beba 8dbe
00000230: d8b9 253e ae28 19bd 3cfd 25be aa3a b43d
00000240: 316e 6e3e c4a0 88bd 7807 a1bd 16ef 20be
00000250: 651d f83d 90c8 e4bc abab 0c3e 2484 04be
00000260: ad1d ee3d b884 c6bd fda0 683d 63a1 92bd
00000270: 679a 1abe e847 583e 022b 9ebe 0749 1f3e
00000280: 62d5 2abe c00b 8cbe 79e2 333d 78c5 4b3e
00000290: e4ca 673e d25d 323e ff76 a93c 997a bf3e
000002a0: 7729 153f 184e e43d 52d7 27be ba44 0fbe
000002b0: 44cc 853d 38a0 82bd c52f 40bd ab90 3b3e
000002c0: 0f4a 663e 3ce4 c8be 8c74 093e 5e7f f9bd
000002d0: 068f 59be e3c6 a7be f964 c638 05d8 943e
000002e0: ba8e 8f3d 5325 df3d d42d d4bc 7b14 71be
000002f0: 3e75 e13c 02a2 eabd f843 bd3d 6f05 c8bd
00000300: c70e 7dbe dd92 0cbe cc3f 2ebe e8e8 edbe
00000310: 2bd8 1e3d c34d b8be 2e2a 24be d3dd 303e
00000320: 803d a53e 7af2 703e d634 893e 42ff e73b
00000330: 4951 98bd 7679 59bd bd6f 883e 3ac4 87bd
00000340: ea29 e6bd 1e63 8b3e 5faf d83b 2e45 a2be
00000350: edb4 97be 64a7 923d 08fc b4bd bddd 8c3e
00000360: 120c 45bd bdce 0ebe a845 7b3c 019a 63be
00000370: 62ec 1a3e 1f3f 503e 0a15 b63e 0857 5b3d
00000380: 9cce 78be 3a2c aa3e 5954 b23a 65ee 9dbe
00000390: 0360 603e fb91 71be f7a1 b13e a54b 5c3e
000003a0: 45e5 853e 6602 83be c8cf b2be 3b02 893e
000003b0: 0aa1 6a3e 7f9a 8dbe 77ef 083f ec08 16bd
000003c0: 0d7d 2c3e 3e24 91bd 4ce5 af3e dedd 4cbd
000003d0: d512 4fbe 7a37 c83d 5c24 78be e935 acbe
000003e0: 1516 d73d 14ae ae3e ea25 0abe 90cb 35be
000003f0: 5609 4f3d da04 323e a23d 5f3e 4615 223e

bias f4 [20]
0.03986058 0.022697223 -0.021916585 0.0014711805 0.020019326 0.00050699577 0.04048336 0.016685972
0.03780893 0.033447176 -0.004661212 0.022701822 -0.021086995 -0.0072090914 0.015965847 -0.052368723
-0.057656486 0.01446453 0.02742382 0.0070940154
00000000: d944 233d 87ef b93c 698a b3bc a0d4 c03a
00000010: 92ff a33c e9e7 043a e1d1 253d 05b1 883c
00000020: 89dd 1a3d e8ff 083d 15bd 98bb 2cf9 b93c
00000030: a2be acbc 3e3a ecbb cfca 823c 9680 56bd
00000040: 3529 6cbd a3fc 6c3c eba7 e03c ea74 e83b

weight f4 [20, 20]
-0.09349585 0.073768206 -0.30790642 -0.08195424 -0.058393937 -0.05818956 0.2638107 -0.09128095
0.33710107 0.24201171 0.084804215 -0.092108026 0.008169322 -0.015623743 -0.19358361 0.28860617
-0.3352559 0.36203083 -0.121207096 -0.074516945 0.19424994 0.50584185 0.108529374 0.16165823
-0.27119026 0.08643272 -0.27329034 -0.2216106 0.25033978 0.097381085 0.19266604 -0.20404138
-0.2162847 -0.09037321 -0.07221705 0.14655301 0.34846723 0.0939741 0.12916109 0.03589501
-0.35297883 -0.13644217 0.46014085 0.1575438 0.03084009 0.051703934 -0.12972267 0.1601631
0.10540167 0.09075511 0.055058498 0.15293628 -0.3625144 0.09538672 0.3183513 0.47845566
0.06517329 0.07186811 -0.24236079 0.09002126 0.17129873 0.084689565 0.22915131 -0.38692194
-0.070259474 -0.19673415 -0.3595221 -0.050445817 -0.022068396 0.27346653 -0.1815044 0.2762016
-0.022000212 0.1742338 0.08867052 0.0402909 0.28397742 -0.05018175 -0.13743225 -0.40812433
0.14615147 0.010400147 0.20279877 0.20948294 0.7896622 -0.02727626 0.32058623 0.17470428
0.13609275 0.11528218 -0.28069165 0.13338071 -0.25801912 0.06497673 0.1290193 -0.4822949
-0.1959314 0.029072307 0.16220577 0.26687017 0.14117552 -0.17643112 -0.18849179 -0.19384854
-0.38487354 0.1941621 0.29423144 0.618579 -0.24948815 -0.24656723 0.31621128 0.17864239
-0.41731903 0.2623008 -0.034030735 0.13895988 -0.10519659 -0.091589354 -0.031085707 0.29070532
-0.42162168 0.16124707 -0.1363826 -0.15727848 0.019757273 0.20949791 -0.14887072 -0.13625461
-0.039372925 -0.49242875 0.12564574 -0.17175642 -0.0121598225 -0.25840744 -0.12855315 -0.24976635
-0.24139026 -0.071732454 0.22328544 -0.089604594 0.39824197 -0.33515927 0.037356135 0.19391012
-0.25067204 0.086250864 0.047717564 -0.15801157 -0.15960678 -0.13199854 -0.021184903 -0.18900642
-0.096531525 0.20921247 -0.038455978 0.17521092 0.108984634 0.10451047 -0.17831627 -0.16549963
-0.11712998 -0.08014482 -0.037571564 0.044116575 -0.06515376 -0.04870461 0.22421482 -0.047707196
0.07590455 0.19844615 -0.08127709 0.106546216 -0.026205085 0.19557954 0.05911538 -0.43995684
-0.15100588 0.028782785 -0.11440413 -0.32404214 0.24667302 0.33214322 -0.3062703 -0.37858295
0.11647897 0.18405275 0.2105093 0.29615 -0.16440372 -0.17391613 -0.21685481 -0.011480564
0.14446662 -0.054624636 0.20533384 0.2897371 0.10523183 0.067999244 0.1432293 -0.13604249
0.09068595 -0.28544366 -0.16906129 -0.09906795 0.23911126 -0.304757 -0.022269094 0.12754105
0.18593194 0.037179995 -0.15813532 -0.3781972 0.09729525 -0.25099152 0.19672589 0.015459516
0.02233873 -0.23785517 0.41079363 0.09684468 0.07354431 -0.11295467 0.30272746 -0.08230025
0.14708905 -0.10926086 -0.090147085 -0.03813237 0.19295812 0.058423214 0.2706939 -0.026723592
0.050152395 -0.21699248 -0.07278522 -0.23711716 -0.16205454 0.008304676 0.26281962 0.119845115
-0.21732795 0.03257614 0.2692909 0.083140716 0.17092949 0.2584243 0.13921896 -0.0065575554
-0.44748646 -0.4587969 0.01697821 -0.065989755 0.23142786 -0.16757424 0.0037589264 0.048946362
00000000: c17a bfbd c913 973d e9a5 9dbe a0d7 a7bd
00000010: 7b2e 6fbd 2d58 6ebd 3212 873e 82f1 babd
00000020: 8398 ac3e ebd1 773e d5ad ad3d 22a3 bcbd
00000030: 9fd8 053c bafa 7fbc c83a 46be 30c4 933e
00000040: a9a6 abbe 1b5c b93e 6d3b f8bd 579c 98bd
00000050: 75e9 463e da7e 013f a644 de3d bc89 253e
00000060: 73d9 8abe a303 b13d b6ec 8bbe e4ed 62be
00000070: 892c 803e bc6f c73d 3f4a 453e 39f0 50be
00000080: bd79 5dbe 9715 b9bd 88e6 93bd fe11 163e
00000090: 4c6a b23e 7e75 c03d ce42 043e a506 133d
000000a0: a4b9 b4be 7fb7 0bbe 9597 eb3e 2953 213e
000000b0: 5ba4 fc3c 81c7 533d 05d6 04be cc01 243e
000000c0: d5dc d73d d1dd b93d 0585 613d 549b 1c3e
000000d0: 7d9b b9be 1d5a c33d f1fe a23e 24f8 f43e
000000e0: 9379 853d 962f 933d 6d2d 78be 115d b83d
000000f0: ef68 2f3e b971 ad3d a4a6 6a3e a21a c6be
00000100: 33e4 8fbd ad74 49be 4813 b8be 46a0 4ebd
00000110: c8c8 b4bc ce03 8c3e 4adc 39be 4c6a 8d3e
00000120: ca39 b4bc 586a 323e e498 b53d 1208 253d
00000130: 7d65 913e 618b 4dbd 0abb 0cbe acf5 d0be
00000140: bba8 153e 6165 2a3c 7baa 4f3e b282 563e
00000150: 4d27 4a3f 7772 dfbc e123 a43e aee5 323e
00000160: e65b 0b3e 1019 ec3d d1b6 8fbe f494 083e
00000170: 151b 84be 8512 853d a31d 043e 5bef f6be
00000180: 3ea2 48be 0c29 ee3c 4519 263e 35a3 883e
00000190: 5190 103e 5caa 34be fe03 41be 3b80 46be
000001a0: 250e c5be 6ed2 463e 81a5 963e 315b 1e3f
000001b0: d279 7fbe 1f7c 7cbe 72e6 a13e 08ee 363e
000001c0: d7aa d5be 4a4c 863e d063 0bbd 804b 0e3e
000001d0: 4f71 d7bd 3393 bbbd 74a7 febc 54d7 943e
000001e0: ccde d7be f41d 253e e1a7 0bbe 9c0d 21be
000001f0: 01da a13c 9f86 563e 9171 18be 5486 0bbe
00000200: 8145 21bd 9f1f fcbe 47a9 003e eae0 2fbe
00000210: fe39 47bc fb4d 84be 70a3 03be c0c2 7fbe
00000220: 022f 77be 77e8 92bd f0a4 643e 9d82 b7bd
00000230: 5fe6 cb3e ff99 abbe bf02 193d 6090 463e
00000240: 1658 80be 4ba4 b03d 7e73 433d c9cd 21be
00000250: f66f 23be a02a 07be f68b adbc e68a 41be
00000260: 52b2 c5bd cb3b 563e 0484 1dbd 7e6a 333e
00000270: 5633 df3d 9609 d63d 8a98 36be bc78 29be
00000280: d8e1 efbd f822 a4bd a4e4 19bd 95b3 343d
00000290: 566f 85bd 7c7e 47bd 9298 653e 9f68 43bd
000002a0: d873 9b3d 7835 4b3e 9a74 a6bd e734 da3d
000002b0: 0cac d6bc 0146 483e f822 723d 0642 e1be
000002c0: 49a1 1abe e0c9 eb3c b64c eabd dae8 a5be
000002d0: da97 7c3e ad0e aa3e 76cf 9cbe a0d5 c1be
000002e0: 878c ee3d 5378 3c3e c08f 573e f9a0 973e
000002f0: 7359 28be 1217 32be 300f 5ebe fa18 3cbc
00000300: 0fef 133e 15be 5fbd 0943 523e 6c58 943e
00000310: c983 d73d 3043 8b3d b4aa 123e b94e 0bbe
00000320: 8eb9 b93d ac25 92be 671e 2dbe 23e4 cabd
00000330: 95d9 743e 1c09 9cbe ad6d b6bc 1f9a 023e
00000340: f164 3e3e 0d4a 183d 3aee 21be 10a3 c1be
00000350: bb42 c73d f681 80be 8372 493e e949 7d3c
00000360: b6ff b63c 4e90 73be 8b53 d23e 8156 c63d
00000370: 669e 963d c754 e7bd 18ff 9a3e 098d a8bd
00000380: 839e 163e 28c4 dfbd 099f b8bd b030 1cbd
00000390: d096 453e 2e4d 6f3d 6498 8a3e 6feb dabc
000003a0: 996c 4d3d 4733 5ebe 6b10 95bd d7ce 72be
000003b0: a0f1 25be 5610 083c 4b90 863e 5b71 f53d
000003c0: 388b 5ebe 8f6e 053d 7fe0 893e ae45 aa3d
000003d0: 2408 2f3e 3150 843e 6a8f 0e3e c3e0 d6bb
000003e0: f21c e5be 6de7 eabe e315 8b3c a325 87bd
000003f0: 6dfb 6c3e 9598 2bbe 5258 763b fb7b 483d

bias f4 [20]
0.028646547 0.0062436475 -0.043764472 -0.022349704 0.03937961 0.016973466 0.012451707 -0.015032151
0.010341264 3.0672916e-05 0.0076764235 0.04328022 -0.048520852 -0.0073210658 -0.016671397 0.03844411
-0.008607265 0.020517137 0.01519002 -0.0074361586
00000000: 2aac ea3c 8397 cc3b 6042 33bd ba16 b7bc
00000010: 844c 213d f00b 8b3c 3f02 4c3c 6949 76bc
00000020: 686e 293c cba6 0038 828a fb3b 9a46 313d
00000030: cdbd 46bd 8de5 efbb 7492 88bc 9277 1d3d
00000040: 7c05 0dbc 8e13 a83c 90df 783c 05ab f3bb

weight f4 [20, 20]
0.16363795 -0.041901246 -0.083523884 -0.13300565 -0.0056405775 -0.2993647 -0.11596091 0.4015759
-0.2782079 0.28226224 -0.06269108 -0.26381704 0.12238345 0.02713973 0.11787663 0.11555791
-0.2839573 0.1530874 0.059145674 0.0352681 0.13265686 0.17091441 0.23934129 0.11199328
0.012006179 -0.072877616 0.0530119 0.052378178 0.20001696 0.1500672 -0.3154005 0.10905912
0.45432076 -0.10872201 -0.13246848 -0.5504802 -0.0340251 0.3692352 -0.24288917 0.082320645
-0.016148685 0.10135227 0.46454215 0.07641256 0.047234718 0.47420114 -0.2223825 -0.18784678
0.06908938 -0.40238985 -0.009702562 0.079488434 0.08103539 -0.09040715 0.026822867 -0.3476162
-0.207425 -0.107035264 -0.27231696 -0.12021639 0.06457839 -0.11955308 0.033058006 -0.14856766
-0.07138083 0.018909879 0.062170368 -0.11298055 0.305467 -0.23845303 0.109548315 0.27291664
-0.22503832 0.14028236 -0.29134747 -0.24820073 -0.09113241 0.24026401 0.03725898 -0.11704523
0.17404467 -0.13934758 -0.015867915 -0.034953598 0.12526923 0.23405781 0.37875617 0.37478712
-0.088139944 -0.3895435 -0.05980964 0.04479723 0.32161143 0.09587211 -0.3697715 0.06847169
-0.23338678 -0.088181295 0.48010263 0.32069522 -0.1504279 0.20349242 0.088874355 0.07462636
-0.15618715 -0.14826033 -0.13075162 0.15833306 -0.23792094 -0.16454211 0.035547875 0.08166776
0.248398 -0.33941266 0.10908411 0.095644966 0.14331427 0.48321995 -0.20992808 0.050183684
0.47983822 0.0005571239 -0.25000995 0.16074076 0.19873936 0.3766949 0.082206555 0.11431728
-0.1482269 -0.05176344 0.14433777 0.26015565 -0.18728991 0.08204053 -0.10904643 0.17174235
-0.09172693 0.19468266 0.14298926 0.15906748 -0.47614142 -0.26176637 0.06400969 0.3808875
-0.23120007 0.04049879 0.29467207 0.08434729 -0.034230497 0.0093288915 0.15560818 -0.5959912
-0.38325405 0.030463688 0.1821942 -0.110332675 -0.023028202 0.07563184 0.3313846 -0.41845632
-0.13149661 0.29649743 0.2826398 0.29464307 0.010866305 0.09113688 0.3648816 -0.21366072
-0.11607041 -0.30565178 -0.2143046 0.28206146 0.28637582 -0.30897725 -0.11623242 0.25427413
0.14623132 -0.10537018 -0.108045325 0.022052279 -0.36913595 0.28839144 -0.012224355 -0.34354922
0.1104614 -0.32285795 0.16329144 0.1356275 0.050817553 0.159955 -0.21475458 0.3667085
-0.0034530424 -0.07440554 0.09442283 -0.24177884 0.19775903 -0.24320044 -0.29960713 -0.0346611
0.07145728 0.19421764 0.14688101 -0.2068786 -0.4375065 -0.5544733 0.33398885 0.029635226
0.12839688 0.34858757 0.009194243 -0.09199299 0.109787084 0.061053608 0.301382 -0.32143635
0.1675543 -0.3535955 0.2547151 0.20612267 0.17750975 -0.0014910052 0.35524404 -0.01981548
0.08151553 0.43811542 -0.31937715 -0.47975102 0.21699715 -0.19829644 0.29175845 0.27912596
0.5440048 0.34173116 0.39806235 -0.042747907 -0.44426063 0.2654232 -0.28168663 -0.10019627
0.3982409 0.22279847 -0.13167806 -0.11025657 0.051117167 0.07995616 0.19056147 -0.21068351
0.2612856 0.22020088 0.071033895 0.3950542 0.25818944 -0.05219625 -0.22797191 0.5266495
00000000: b590 273e a4a0 2bbd 920e abbd a232 08be
00000010: 98d4 b8bb 5446 99be ea7c edbd 5b9b cd3e
00000020: 4471 8ebe ad84 903e 2e64 80bd 0713 87be
00000030: 2da4 fa3d 2454 de3c 4d69 f13d a0a9 ec3d
00000040: da62 91be f2c2 1c3e bc42 723d 4975 103d
00000050: 33d7 073e 3004 2f3e e215 753e bc5c e53d
00000060: 91b5 443c dc40 95bd 0223 593d 808a 563d
00000070: 3fd1 4c3e 37ab 193e 2d7c a1be 635a df3d
00000080: bb9c e83e a5a9 debd d1a5 07be 45ec 0cbf
00000090: e75d 0bbd 650c bd3e f0b7 78be ba97 a83d
000000a0: 3f4a 84bc c791 cf3d 78d8 ed3e 307e 9c3d
000000b0: 3179 413d 7eca f23e 3db8 63be e85a 40be
000000c0: bc7e 8d3d 0b06 cebe 7ff7 1ebc d5ca a23d
000000d0: e2f5 a53d 6227 b9bd a1bb db3c c0fa b1be
000000e0: 3867 54be 4e35 dbbd 216d 8bbe 0334 f6bd
000000f0: ad41 843d 3fd8 f4bd d567 073d 1f22 18be
00000100: 1d30 92bd e4e8 9a3c 5ba6 7e3d 5962 e7bd
00000110: 2c66 9c3e 082d 74be de5a e03d bbbb 8b3e
00000120: 7270 66be 2ea6 0f3e 7f2b 95be 5528 7ebe
00000130: a1a3 babd c507 763e df9c 183d 69b5 efbd
00000140: c438 323e 22b1 0ebe 6efd 81bc 812b 0fbd
00000150: 9446 003e daac 6f3e 54ec c13e 19e4 bf3e
00000160: b782 b4bd 3f72 c7be f4fa 74bd 4d7d 373d
00000170: 41aa a43e 9958 c43d b152 bdbe e33a 8c3d
00000180: f2fc 6ebe 6598 b4bd 03d0 f53e 2a32 a43e
00000190: c509 1abe 5160 503e c203 b63d b4d5 983d
000001a0: 86ef 1fbe 8ed1 17be c1e3 05be 1022 223e
000001b0: 8ca1 73be ba7d 28be a69a 113d 6d41 a73d
000001c0: 0c5c 7e3e 7fc7 adbe 7d67 df3d 82e1 c33d
000001d0: fac0 123e 9b68 f73e 63f7 56be 688d 4d3d
000001e0: 5bad f53e f40b 123a 4e01 80be 3a99 243e
000001f0: 5582 4b3e 27de c03e e95b a83d 2e1f ea3d
00000200: cbc8 17be e705 54bd 48cd 133e 1f33 853e
00000210: edc8 3fbe de04 a83d bc53 dfbd 3add 2f3e
00000220: 54db bbbd e45a 473e c76b 123e 96e2 223e
00000230: cfc8 f3be 3e06 86be 8317 833d b003 c33e
00000240: b6bf 6cbe 0fe2 253d 42df 963e 46be ac3d
00000250: 4735 0cbd 35d8 183c c057 1f3e e192 18bf
00000260: e039 c4be fc8e f93c 1e91 3a3e 19f6 e1bd
00000270: a4a5 bcbc dee4 9a3d 3eab a93e e83f d6be
00000280: 0ca7 06be 83ce 973e 2ab6 903e 75db 963e
00000290: 9608 323c f9a5 ba3d c3d1 ba3e e0c9 5abe
000002a0: 53b6 edbd 647e 9cbe aa72 5bbe 5c6a 903e
000002b0: da9f 923e 4432 9ebe 430b eebd 3830 823e
000002c0: aabd 153e 52cc d7bd de46 ddbd fba6 b43c
000002d0: 63ff bcbe 0ba8 933e a948 48bc afe5 afbe
000002e0: 9639 e23d a34d a5be df35 273e efe1 0a3e
000002f0: 1126 503d 3ecb 233e a0e8 5bbe 37c1 bb3e
00000300: 704c 62bb ef61 98bd c260 c13d df94 77be
00000310: 5881 4a3e 8909 79be 1b66 99be ccf8 0dbd
00000320: 3258 923d fde0 463e fa67 163e fcd7 53be
00000330: da00 e0be f6f1 0dbf 9600 ab3e 93c5 f23c
00000340: 797a 033e 127a b23e 73a3 163c d266 bcbd
00000350: 0dd8 e03d 5913 7a3d be4e 9a3e 4e93 a4be
00000360: 5b93 2b3e 780a b5be 056a 823e d211 533e
00000370: 1ec5 353e d56d c3ba 8ce2 b53e 1354 a2bc
00000380: 9df1 a63d aa50 e03e 6785 a3be eda1 f5be
00000390: 8034 5e3e 390e 4bbe 5d61 953e 99e9 8e3e
000003a0: e643 0b3f 63f7 ae3e d4ce cb3e 6e18 2fbd
000003b0: 2176 e3be 8de5 873e 3b39 90be b433 cdbd
000003c0: 3be6 cb3e 4825 643e 9dd6 06be 32ce e1bd
000003d0: 3c60 513d 0ec0 a33d 8c22 433e 6bbd 57be
000003e0: 3ac7 853e 577c 613e 387a 913d 8b44 ca3e
000003f0: 6831 843e bccb 55bd 7871 69be 80d2 063f

bias f4 [20]
0.0044522258 -0.028850809 -0.025704853 0.02514054 0.027209388 -0.021131476 0.05965651 -0.049677655
-0.025883822 0.01543802 -0.009055478 -0.032588806 0.0042910553 0.0301817 -0.037224475 -0.007012606
0.023132913 0.05970405 0.018559664 -0.045874104
00000000: fae3 913b 8858 ecbc fc92 d2bc 89f3 cd3c
00000010: 39e6 de3c eb1b adbc 625a 743d cc7a 4bbd
00000020: 4f0a d4bc c0ef 7c3c 6d5d 14bc d77b 05bd
00000030: fb9b 8c3b 9d3f f73c b178 18bd 01ca e5bb
00000040: 3c81 bd3c 3c8c 743d 700a 983c 7ce6 3bbd

weight f4 [1, 20]
0.040155135 -0.5103403 -0.38049456 0.16054048 0.31425747 -0.17697662 0.7472969 -0.5601886
-0.19314939 0.098963596 -0.040668994 -0.35632834 0.049653724 -0.84855294 -0.28716543 -0.05981472
0.44943634 0.69107616 0.133801 -0.32824
00000000: b679 243d a9a5 02bf 2fd0 c2be b964 243e
00000010: 5be6 a03e 5c39 35be da4e 3f3f 8568 0fbf
00000020: f4c8 45be 6dad ca3d 8894 26bd ab70 b6be
00000030: b461 4b3d c43a 59bf 5907 93be 4800 75bd
00000040: 851c e63e 5eea 303f 2103 093e 130f a8be

u_b f4 [2]
2.5 0.156
00000000: 0000 2040 77be 1f3e

l_b f4 [2]
1.5 0.0
00000000: 0000 c03f 0000 0000
