Trained/Iter_00/Models_00/Noise_2/toy_stop/internal_o3.pt (torch, 51615 bytes, 23 tensors)

weight f4 [20, 2]
00000000: 7469 83bc 029f f73d f394 f1bd 559f 58bc
00000010: cf65 09bf be3f d6be 74da 8f3f ff19 b53e
00000020: 76b4 28be ed73 ea3d 8ea6 95be 5a82 29be
00000030: 459d 16bd 5506 60bd 1ea3 30be 9c6c 12be
00000040: 6387 08be 600e 29be 1458 4c3d 1301 f9bd
00000050: fed8 363e 8292 b53d 44bc 6e3e 4a5d 303d
00000060: 71e6 8d3d c3dd 36be b6bc 16be fd02 ebbd
00000070: 1533 873d 48a4 25be 5ec1 ad3e 9de7 be3c
00000080: 7017 dc3e 9f80 2ebf d49c cdbf 6eab 35be
00000090: b8c3 9abd 0756 59be 0599 053f 44cf 893d
-0.016041495 0.12090875 -0.11795988 -0.0132215815 -0.5367097 -0.41845506 1.1238542 0.35371396
-0.1647509 0.11447892 -0.29228634 -0.16553631 -0.036771078 -0.05469354 -0.17249724 -0.14299244
-0.13332896 -0.1650939 0.049888685 -0.12158408 0.17856213 0.08865835 0.23314005 0.043057717
0.06928719 -0.17858033 -0.14720425 -0.11475179 0.0660154 -0.1617595 0.3393659 0.023303801
0.4298663 -0.6816501 -1.6063485 -0.17741176 -0.07556862 -0.21224223 0.52186614 0.06728986

bias f4 [20]
00000000: 2850 a33e e688 4cbd 0bc7 72bf 5274 2b3e
00000010: cfa2 99be 49dc d1be 795c a9be f3ae e3bd
00000020: 9762 1abe 8fa9 05be 93ef 583e 80d8 e3bd
00000030: 0097 55be 1c0e 1c3e 6825 9fbe f1fd 5f3e
00000040: 03a4 72bf a12a 0fbe a84f 57be 3e99 5cb9
0.31897092 -0.049935244 -0.94834965 0.16743591 -0.30007026 -0.40988377 -0.33078364 -0.11117353
-0.15076672 -0.13052963 0.2118514 -0.111252785 -0.20858383 0.15239757 -0.31083226 0.21874215
-0.9478151 -0.13981105 -0.2102648 -0.00021037922

weight f4 [20, 20]
00000000: 9b5e 0a3e da48 1a3d b1d5 11bf 61f2 ec3e
00000010: f0db 673e 601b 173e de45 053e 16da 673e
00000020: 0e81 4f3e ad0f 8c3e 6eda 733e 4474 3dbd
00000030: 3ca7 c33e 6517 093e 5c5e 1d3f f187 a4bd
00000040: fc5a 493c 7045 13bf d1e3 dbbc 05bf 563d
00000050: d88b 883e e824 6d3d 8438 24be faa3 473e
00000060: f093 d8bd 665b a3be ec97 00bf a7a4 7abe
00000070: 6761 483e 6914 0ebe 38a5 3dbd 4a9e 31bd
00000080: 50af 31be 268a 28bc 6636 1abe ceb9 af3e
00000090: 50a0 bb3e 7ec0 30be f29e 0f3d a154 d5bb
000000a0: cd29 b53e a82b 643e a52e 04be 3b83 28bf
000000b0: efa6 183f 4b0e 28be 3336 2e3c 32d5 433e
000000c0: a706 5e3e eb9f 2dbe 9286 37be 746c 2b3e
000000d0: fa15 a5be 180f ba3d b2a0 99bd 8dc2 38be
000000e0: bd7b fd3c ac7b 583e 9762 ac39 4818 f5be
000000f0: 8108 493e 63be b7bb b681 56be f7c1 6f3e
00000100: fdfe 0c3e b14a 963e 84d9 a9be 6034 253e
00000110: 3705 21be 26d3 6c3d 08f3 d03d 8b35 533e
00000120: dd0e ba3e 0d38 9cbd 7e5e d93d eec4 213e
00000130: e219 e6bd 05e1 ecbd 8b10 573e 91fa 863e
00000140: 2d87 c23e 8ad5 92bc 324d a83e b869 a53d
00000150: f186 b7be 6136 5dbe 2770 ad3d 0fd7 8f3e
00000160: e73e 3dbc fb43 00be f650 213e 0c66 663d
00000170: d8bf f0bd 955e 86be bfb3 35be 906e 823e
00000180: eeb1 ebbe a93d 5cbd aa5a 35bc 6d28 963e
00000190: 4ae7 54bd 0d52 f73d b289 a63e 14e7 f1bd
000001a0: aadc 023e 6f15 373e e0d6 3dbe ab05 2bbe
000001b0: 73a2 563b b662 54be fca7 e53d a28b 42bd
000001c0: bf77 7dbe 7b44 6abe eee2 0a3f 450f 7f3b
000001d0: c8f0 a5be d033 ff3d 4ee4 1f3e 348f 9d3e
000001e0: 2835 c3be 6b76 cfbc 7454 9e3d 2ae2 18bd
000001f0: 4cfd 5bbe 9105 13bf 99cf 4d3e d3ec 4cbd
00000200: 205f 9b3e 1520 7fbe 6451 4f3e f1e2 b4bd
00000210: 1deb f2bc ee85 28bd 3594 3a3e c2cf c83d
00000220: 8e84 45be 2bc5 0ebe 8d73 cd3c 1ea2 1abe
00000230: c204 7f3e e957 da3e 97d4 053f f82b 7abe
00000240: 10ef f23d bbcf 233e 25ba cdbe 2679 66bc
00000250: c746 9a3d 2c20 41bd 5a07 2c3e f65c 9b3e
00000260: 0ad6 493e 4131 cebe 93cd 52bc af02 d7bd
00000270: 83ae 84bd 221d ea3d 7171 81be 0b84 9c3e
00000280: 2b82 173e 9c83 96bd 48ab 433d 9e14 053e
00000290: 8a29 98be 513c a13d af5e 3dbe d8d8 a3bd
000002a0: 395c 60be f3a6 6bbd 4908 183e 8f3a e53d
000002b0: 750f 813d 37b3 3dba 7f9f 62bc 1171 843e
000002c0: 05be 0c3d eb58 663b 5340 f73d 3b9a 44be
000002d0: 9d05 aa3d 5fa7 c13d eff8 dd3e 1afc 823e
000002e0: facd bc3e 71b5 6a3e 2ffa 983e 67f8 c3b9
000002f0: 108a f93e 20b6 853e 608c 933d 4df7 66be
00000300: 9a1b 70bd 4e13 933e 56ff 24be 7225 71bd
00000310: d603 d93d 3c41 88be 0300 46be 1f55 b23c
00000320: 827f 11bd d56a 133e 3770 99bd 5305 3d3e
00000330: 9c6d 68be 522a fdbd 6df1 70be a4eb ae3d
00000340: cf38 c23e 6787 11bf d3e0 bdbc 2b6f 1dbe
00000350: b815 dfbe e99c 6cbe 7951 c7bc 4678 313e
00000360: c4ac 9ebe 21fe 3a3e e1ae 3e3e 45e1 5dbe
00000370: b247 d3be cead f33d e64b c23e eb9f 243e
00000380: c87d ebbd 2f59 a13d c00f 6a3c 58e2 01be
00000390: 07e1 91be 11a6 a73e 5f74 b83d 4d94 ff3e
000003a0: 6186 6cbd ab5c 14be 5ee6 863e b98d 19be
000003b0: 1b8d 7cbd 8049 c43d b688 653e 9b06 513d
000003c0: f867 cbbe bf70 133e c019 cc3c 764f cf3d
000003d0: e98e 5ebe 8926 983e 886e 6d3c 7340 16be
000003e0: fe75 0b3e ca12 663e 0c01 2bbe 2dae 4e3e
000003f0: 22ec 643e 20df 8ebc 992b 12bc 57c5 85bc
0.13512652 0.037667133 -0.5696669 0.4627867 0.22642493 0.14756536 0.13014933 0.22641787
0.20264074 0.2735571 0.23813793 -0.046253458 0.38213527 0.1338783 0.61472106 -0.08033741
0.012289759 -0.5752783 -0.02684203 0.052428264 0.26669192 0.057896525 -0.16037184 0.19496146
-0.10575092 -0.3190567 -0.50231814 -0.24476872 0.19568406 -0.13874973 -0.046300143 -0.043363847
-0.17352033 -0.010286843 -0.15059814 0.34321445 0.36645746 -0.1726093 0.03506369 -0.0065103327
0.35383454 0.22282279 -0.12908418 -0.6582524 0.5962972 -0.16411702 0.010633039 0.19124296
0.21682225 -0.16955535 -0.17922428 0.1674059 -0.3224333 0.0908491 -0.07501353 -0.18042965
0.030942792 0.21140927 0.00032879852 -0.47870088 0.1963215 -0.0056074127 -0.20947918 0.23413835
0.13769145 0.2935386 -0.33173764 0.1613326 -0.15724646 0.057818554 0.102026045 0.20625894
0.36339465 -0.07627878 0.10613726 0.15797779 -0.112354055 -0.115663566 0.21002404 0.26363042
0.37993756 -0.017924089 0.32871395 0.08076805 -0.3584514 -0.21602775 0.08468657 0.28093764
-0.011550642 -0.12525932 0.1575354 0.056249663 -0.11755341 -0.26244035 -0.17744349 0.25474977
-0.46034187 -0.05376974 -0.011068979 0.29327717 -0.051978387 0.12076197 0.32526928 -0.11811653
0.12779489 0.1787927 -0.18539 -0.16701381 0.0032750636 -0.2074078 0.11213681 -0.047496445
-0.24752711 -0.22877686 0.5425252 0.0038919013 -0.32410264 0.12461054 0.15614435 0.30773318
-0.38126493 -0.02532502 0.07730952 -0.03732506 -0.21483344 -0.5743037 0.20098723 -0.05003054
0.30346012 -0.24914582 0.20245892 -0.08832348 -0.029653126 -0.04114335 0.18220599 0.09805252
-0.19288847 -0.13942401 0.025079513 -0.15100905 0.24904159 0.42645195 0.5227751 -0.24430835
0.11862004 0.15997212 -0.4018108 -0.01406697 0.07533031 -0.047149822 0.1679968 0.3034436
0.19710556 -0.40271953 -0.0128663955 -0.10498559 -0.06478598 0.11431338 -0.2528186 0.3056949
0.14795749 -0.07349321 0.04777077 0.12996146 -0.29719192 0.078728326 -0.1849315 -0.08000344
-0.2191018 -0.057532262 0.1484691 0.1119281 0.06301776 -0.0007236483 -0.013831972 0.25867513
0.034360904 0.0035148214 0.12072816 -0.19199459 0.08301852 0.09455752 0.43353984 0.25582963
0.36875898 0.22920777 0.29878375 -0.00037378373 0.48738146 0.26115513 0.07204509 -0.22555275
-0.058620073 0.28725666 -0.16113028 -0.0588736 0.10596435 -0.2661227 -0.19335942 0.021769105
-0.03552199 0.14396222 -0.074921064 0.18459062 -0.22698063 -0.123615876 -0.23529597 0.08541039
0.37933967 -0.5684723 -0.023178494 -0.15374438 -0.43571258 -0.23106731 -0.024330841 0.17331037
-0.30991185 0.18261005 0.18621399 -0.21667965 -0.41265637 0.11898385 0.3794853 0.16076629
-0.114986 0.078783385 0.014285982 -0.12684 -0.28491995 0.32743886 0.09006571 0.49917832
-0.05774534 -0.14488475 0.2634763 -0.14995469 -0.061658006 0.095843315 0.22415432 0.05103169
-0.3972776 0.14398478 0.024914622 0.10122578 -0.21734203 0.297169 0.014491685 -0.14673023
0.13619229 0.22468105 -0.16699618 0.2018363 0.22355703 -0.017440379 -0.008921527 -0.01632945

bias f4 [20]
00000000: ee56 12bd b746 9d3e 50ea b9bd c824 a1bb
00000010: de9b 1d3e 3e03 babd f5de 83bb 3a93 fa3d
00000020: bb3a 483c cd01 14bf b3ab 153d ad8f 3abe
00000030: f622 3abe 8e4d 67be 4663 693a c5f7 04bf
00000040: f6bf ebbc c7cf 3e3c 826d 653e ef92 383d
-0.035727434 0.30718014 -0.09077895 -0.0049177147 0.1539149 -0.0908265 -0.0040243813 0.122351125
0.012221034 -0.5781525 0.0365407 -0.1821887 -0.18177399 -0.22588179 0.00089030375 -0.51940566
-0.028778058 0.011646218 0.22405055 0.045062

weight f4 [20, 20]
00000000: 9abb 923e 8d2b 85be ce6e 853d e05b 753e
00000010: 8c56 7cbe 0b3a 2fbe 86be 163e 4e9c a23e
00000020: 26d1 02bf 52f7 e53d 0998 113e 0491 813e
00000030: dcf6 1b3e eeeb 413e 4d1f ae3e 9283 38be
00000040: 2d02 d53e fe69 10be a648 4c3e ffce 9bbe
00000050: 1539 9b3e b3de 8e3d e35c dc3c 66f0 0abc
00000060: 0e62 573d 1598 473e 6d32 5a3e 8878 8fbe
00000070: 3c79 87bd e56b 2f3d ff9f 2bbe 7c65 a03e
00000080: 1bb8 5bbd 4f6f 773c 2d7c 39bd dc79 943e
00000090: 3834 a0bd b08a ab3e b656 a73e 6f79 aabd
000000a0: f4df 8dbe e723 333c 8c3a bebd b116 77be
000000b0: 4e85 5c3e 3ba1 933d f1c7 a53e ace5 a33b
000000c0: 270d 293e 607c 093e 9121 9ebd 317d 76be
000000d0: ccfe b3bd 6bf1 fe3d ad0e 243d 88cb a53e
000000e0: a1e8 193e 809d bdbb 1fce 91be d81c 393c
000000f0: 9d48 e63e fd8f 653d 277d 83be 0e59 ecbc
00000100: 98ea e0be 8134 c5be 4be0 04bf 8e71 0fbf
00000110: 1883 a4bd 9c57 c3be 5736 e13c 4aaf f0bd
00000120: 9752 40be eade 113e ec1b 81bd c998 933e
00000130: 6d76 dfbd 85b1 60be 5b3a 863e bfa8 bd3e
00000140: 3c26 a13e 3bb8 93bd ff46 433d c103 c6bc
00000150: 44dc 5f3e db88 8abe 7693 14be 0de4 18be
00000160: b826 143e 1e3e 8c3c 17ab cdbe f8f2 9ebe
00000170: 6eeb 67bd e75a 18bf a0c0 ef3e d477 373e
00000180: e3a2 77be ecf7 59be 2d9f ba3e 8ada 5f3e
00000190: aa6a afbd 7892 96bc 00d6 173d 62da 4fbe
000001a0: de55 88be e8da f9bd 3323 053e a944 d2be
000001b0: 96a5 66bd 6b71 d8bd 53ce 17be 343b 14be
000001c0: e34b af3e efbd 403e 8ba5 d53e aa93 a6bd
000001d0: 3b10 96bd ba4d b93d 9d8e b63e cc36 0abf
000001e0: a6b5 643e b464 0dbd 240f 9b3d 6cb1 363e
000001f0: 7584 f23d d06c 79bc ffd7 59be 4910 753e
00000200: ca70 9dbc 1b50 c13d 4515 5b3e 2dd9 1b3e
00000210: a6bd 03be fbca 8d3e d0d3 78be e3b6 b93e
00000220: 111a 1e3e 3782 13bf 7e97 5cbe ef6c 023e
00000230: 10cb 90bd d997 523e 2226 d1bd e1dd 7a3e
00000240: e36e 6fbd 1f45 dfbd 485e 27be c2e8 843e
00000250: 80a9 d13e 3278 243d 133c 4a3e 9a63 42be
00000260: f58a f9bd 98e6 60bd 96dd ea3d 5d99 c33d
00000270: 9792 3dbe 89c6 9d3e 23ef 4abc 0e5a 093b
00000280: 4e11 09be f00d cbbd 88d9 92be 00e6 ef3e
00000290: 0246 953e 82d9 503e ba3f 8f3b a56f 093d
000002a0: a3ad 833e 36cb b53d a6d5 2abc 4f59 a03e
000002b0: 47dd 7cbe 3e1d b1be b276 853e cf16 a8bd
000002c0: 7d84 d3bc a653 2cbe ed3d 343e fe0b 8ebe
000002d0: d23b 0d3f 70bc 56be 39ab a3be 9ff1 f93d
000002e0: 7a58 83be b17a 3e3e 3f5d 3abe 284d c93d
000002f0: 7d88 27bd 35b9 16be 632b 6d3e e3df 8a3d
00000300: 982f 18be bdc7 883d 5f70 51bd e2da 583e
00000310: 22d8 97bd fec7 543b 9a12 473e 691f a7be
00000320: a448 333e 0f14 8e3a 8dff 083e d823 6cbc
00000330: 877d 083d 4d8e ea3d 8f68 903d f406 eebd
00000340: e3f4 b7bd 68ef 383e 4036 2fbe 77a5 2f3e
00000350: f6ad b93c fab0 453e 6d64 cabe 55c9 923e
00000360: 8fd1 d43d a4a7 a4be 4c7a 14be 89ab 7ebe
00000370: eb51 c13c 0a12 d03d c9ac 02be e336 27be
00000380: 9bc8 2f3e fc32 85be 599b 563d 09d0 a1bd
00000390: 616a bebe 50f9 133e 75d9 31be 897c a5bd
000003a0: 3e38 993e 4915 a43e 3a5d c5bb ee97 9b3e
000003b0: c98c 983c a58e 2f3f 02f8 d7bd ab77 0a3d
000003c0: e703 a9be 65e7 ef3d ab51 68be 52fb 6a3c
000003d0: 4fe9 583e d4f3 97be 5258 6dbd d4ca ab3e
000003e0: aabe b93d 88cb 3d3d f912 093e 60f8 f0bd
000003f0: 682c 91be a035 dcbe dce2 603e 8468 2bbf
0.28658754 -0.2600979 0.06515275 0.23960829 -0.2464239 -0.17111985 0.14721116 0.31759876
-0.51100385 0.11228813 0.14218153 0.2530595 0.15230888 0.18937656 0.34008256 -0.1801894
0.41603222 -0.14102933 0.19949588 -0.30431363 0.30316988 0.0697607 0.02689976 -0.008480167
0.052583747 0.19491608 0.21308298 -0.28021646 -0.066149205 0.042827506 -0.16760252 0.31327426
-0.053642374 0.015102222 -0.04528444 0.2899922 -0.0782246 0.33504248 0.32683343 -0.08323943
-0.27709925 0.010933853 -0.09288511 -0.2412975 0.21535227 0.07208487 0.32379106 0.0050017443
0.16508923 0.13426352 -0.07721246 -0.24071194 -0.08788833 0.124483906 0.04005306 0.32381845
0.15030147 -0.0057865977 -0.2847757 0.011298381 0.44977275 0.05604552 -0.2568142 -0.028851058
-0.4392898 -0.3851662 -0.51904744 -0.56032646 -0.08032817 -0.38152778 0.027491732 -0.11752184
-0.18781506 0.14245191 -0.06304154 0.28827503 -0.1091126 -0.21942718 0.26216397 0.37042806
0.31474483 -0.072128735 0.04767513 -0.024171712 0.21861368 -0.27057537 -0.14509377 -0.14930744
0.14467895 0.017119464 -0.40169594 -0.31044745 -0.056621008 -0.59513706 0.4682665 0.17916805
-0.2418323 -0.21285981 0.36449566 0.2186071 -0.085652664 -0.018380389 0.03706932 -0.2029815
-0.2662801 -0.12199956 0.13001709 -0.4106801 -0.05631026 -0.10568508 -0.148248 -0.14475709
0.34237584 0.18822454 0.41727862 -0.081336334 -0.073273145 0.09048028 0.3565568 -0.53989863
0.22334918 -0.034519866 0.07571247 0.17841119 0.118416704 -0.015223697 -0.21273802 0.23931994
-0.019218821 0.09439107 0.21394832 0.15219565 -0.12865314 0.27693924 -0.2429955 0.36272344
0.15439631 -0.5762057 -0.21542165 0.12736867 -0.07069981 0.20565738 -0.102123514 0.24498703
-0.05845536 -0.10901856 -0.16344559 0.2595883 0.4094963 0.04015369 0.19749479 -0.18983307
-0.12184707 -0.05490741 0.114680454 0.09550736 -0.18512951 0.30815533 -0.012386116 0.0020958218
-0.13385507 -0.09914768 -0.28681588 0.46855164 0.29154974 0.20395473 0.0043716105 0.03355374
0.25718412 0.0887665 -0.010426914 0.31318137 -0.24693786 -0.34592623 0.2606712 -0.082074754
-0.025820011 -0.16828784 0.17601748 -0.27743524 0.55169404 -0.2097032 -0.3196657 0.12204289
-0.2565344 0.1860149 -0.18199633 0.098291695 -0.04090165 -0.14719088 0.23161082 0.06780984
-0.14861906 0.06678722 -0.051132556 0.21177247 -0.07414271 0.0032467837 0.1944069 -0.32641152
0.17508179 0.0010839718 0.13378735 -0.014412843 0.033322837 0.11452923 0.07051193 -0.1162242
-0.08982255 0.18060076 -0.17110538 0.17152964 0.022665959 0.19305792 -0.39529744 0.2866923
0.10391533 -0.3215915 -0.14499778 -0.24870123 0.023598632 0.10159691 -0.12761225 -0.16329531
0.17166369 -0.2601546 0.052394245 -0.07901008 -0.37190536 0.14450574 -0.1736811 -0.08080394
0.29925722 0.3204749 -0.0060230764 0.3038935 0.01862182 0.68577033 -0.105453506 0.03380553
-0.3301079 0.11714057 -0.22687404 0.014342146 0.2118275 -0.29678214 -0.057945557 0.33553183
0.090695694 0.04633668 0.13386144 -0.11766124 -0.28354192 -0.43009663 0.2196154 -0.66956353

bias f4 [20]
00000000: fbf1 563c 3957 3a3d ef48 9fbc bc3f 5f3d
00000010: 707a 44ba ac07 093e f69e e03c f159 093e
00000020: b990 32bd 7388 3abe 63aa 87bd c747 55bd
00000030: 5830 b43e 2716 39be 36ae 35bd fed4 873e
00000040: 73b7 49bc 0838 a93d 460e d7bd b3d3 9bbd
0.013119216 0.04549334 -0.019443957 0.05450414 -0.0007495051 0.13381833 0.027419548 0.13413216
-0.04359505 -0.18216114 -0.066242956 -0.052070405 0.35193133 -0.18074857 -0.044355594 0.26529688
-0.012311804 0.0826264 -0.10500769 -0.07608738

weight f4 [20, 20]
00000000: 1782 11ba 7f52 fa3d ec7f ab3e c461 83be
00000010: 9dc2 f73e bddd 47bd e898 a83e 0f95 87be
00000020: 567f 663e e73d 1c3c 3484 3d3e c854 9e3d
00000030: 5fe2 f63d 9689 5b3e c5ff 0cbe 4730 ef3d
00000040: 7dd6 8c3e 7849 f63e bef9 9d3e 20fb 7a3b
00000050: d82d c73c 42d5 273c 67a9 2abe 8490 f1bd
00000060: ccf4 113e 0149 963e 81aa 953e 4458 91bd
00000070: 1fee 04be e7b0 0ebd 0c33 95be 6feb 31be
00000080: cb2c 85be a68a c53e 98c8 c1be 65a7 fabd
00000090: 978c a43e d39e c53e 221e 80be 2903 8c3e
000000a0: 02e2 abbe 3bcc ccbe c137 333e 2766 36be
000000b0: 878b efbe ec43 603e 195c f5be 3c30 413e
000000c0: b904 723e 3bf6 f13e a913 3cbe c5a1 e7bd
000000d0: e6e9 103c 2cc4 08bd edc8 293c 3588 18be
000000e0: f328 8cbe 2a6a 0d3f e217 93bc ee23 a63e
000000f0: 22f0 47be 9b8f a0bd 8a11 d4bd 6ed8 163e
00000100: 0f25 8abd 64bb 08be 25fd 233e 7fd9 463e
00000110: 151c 043d e225 213e 0551 853e a91e 08bf
00000120: 4540 6c3d 3c6a 973e ff82 3f3d 6f81 65bd
00000130: b28f 08be ed28 1e3f fe02 693d f78e ecbe
00000140: a9f1 a43e fb5d 79be 649b 89be 1dc6 bbbd
00000150: 315c 0e3e 5352 793d 793e 08be b6e8 cabc
00000160: d3bc 813b 4b53 a5be 0e62 1f3e 5bc6 303d
00000170: ab97 ba3d 9a5e 3a3e 9298 92be 6cbc acbc
00000180: 057a 49be 0983 9ebe f08b fbbe 79ba aebb
00000190: 7fdf cb3d f3a2 63bd bace ddbc 3f36 a33e
000001a0: 1374 a53e f73e a03d 039b 61be ce8e 54bc
000001b0: 63da 813e 56d9 323e 5c4f 68be 4f01 c7be
000001c0: 0342 08be 9126 913e 8a77 81be 41f4 f4bb
000001d0: 35b7 aabe f838 3ebe a9f2 a93e 2daf a53d
000001e0: a57b 09be 9cef c23e e46e 9d3d a767 7ebe
000001f0: 5176 d7be 0917 883e 257e 1dbc 2c7e eabd
00000200: da5d 6cbe 1a9b 333e 27ee 2abe 46c2 b9be
00000210: 7ec5 8b3e c4ab b1be 5fd8 183e a1f8 e03d
00000220: b2d1 123f 3fc8 2a3e 4951 5ebd c238 6ebe
00000230: 41ab abbe 4e08 debd e726 c3be 5ff3 323e
00000240: bcbb 24bf cde0 be3e cc28 953e 1aaa 483e
00000250: 79d8 bebd cfc1 21be d5b8 dd3e 3828 6cbe
00000260: ad5d 993e 50e5 b1be be1a 71be 612d 8a3d
00000270: c641 5fbc f2b2 7fbe e4c3 d1be 25fe f7bd
00000280: 26c0 6a3e 5de7 49bd 6686 56be d39b 96be
00000290: 9530 2c3e cf07 f03d 1ece 53be 41a8 16be
000002a0: 4fcf b3bc 3f41 09be 7c34 b43d 7114 f4bd
000002b0: f4bc 783e e500 3b3e 9037 2d3e c277 e9bd
000002c0: d3ee 09be 3e5d 4abe 6e5e 2c3e 841e a6bd
000002d0: 9e86 a83e 0d4c 0b3e 0e61 0b3d b850 43be
000002e0: 729a 77bd 3ffd 89bd bdb0 6fbe 2c3c 2b3e
000002f0: b219 81bc d119 ab3e 3872 73be 4d8b d4bd
00000300: 2985 b0be bafc 283e 9def cc3e 9396 72be
00000310: b967 66be be02 edbe 77ec cabd 02df d33c
00000320: b2ff 7dbc 1e59 873e 5443 113e 8925 b93e
00000330: 84bc 30bd d37b 4b3e c1bc 293c 5593 0a3d
00000340: 292f b73e aafd c43d 2296 8dbe 25bd 24be
00000350: 60ad 4c3e 9814 b53e d2dd 523e 644c ccbe
00000360: 2bc9 46be 6288 18bf 3751 6ebd f4da 4fbd
00000370: e4cd 91bd d721 163e fe0b e13c 97df 5abe
00000380: d5ba 48be 5b00 143e ddbf 973c bfa9 2ebe
00000390: e20c c0be cffc 8fbe c369 e3bd bef8 8cbd
000003a0: 25c8 16be 9f84 5fbe 7e3b a3bd c15d b33c
000003b0: 2687 763e c303 973e 729e 9dbe ee3a 473e
000003c0: 74b3 d73d 5409 823c a5a8 213e 22d6 35bc
000003d0: ff30 52be b50c d5be bf95 173e fddb 97be
000003e0: 6407 163e c497 acbd 2aa0 c2bc c446 f6bd
000003f0: 7920 e1bd 2554 aebd a68f 473e 04cb 933e
-0.0005550696 0.12222766 0.33496034 -0.25660527 0.48390666 -0.04879545 0.32929158 -0.2648091
0.22509512 0.009536243 0.18507463 0.077310145 0.120548956 0.21439204 -0.13769443 0.1167913
0.27507392 0.48102927 0.308546 0.0038296655 0.024313852 0.010243716 -0.16666184 -0.11795142
0.14253539 0.29352573 0.29231647 -0.070969135 -0.12981461 -0.034836676 -0.29140508 -0.17374967
-0.26010737 0.38582343 -0.37848353 -0.12238959 0.32138512 0.38597736 -0.2502299 0.2734616
-0.33570868 -0.39999565 0.17501737 -0.17812406 -0.46786138 0.2190091 -0.47921827 0.18866056
0.23634614 0.4725817 -0.18366875 -0.11310152 0.008844828 -0.03339021 0.010362846 -0.14895709
-0.27374992 0.5524012 -0.017955724 0.32449287 -0.19525197 -0.078398906 -0.10354908 0.14730999
-0.067453496 -0.13352734 0.16014536 0.19418906 0.032253344 0.15737107 0.26038375 -0.53171784
0.05767848 0.29573238 0.046755787 -0.05603164 -0.13336065 0.617812 0.05688762 -0.46202824
0.32215622 -0.24352257 -0.26876366 -0.091686465 0.13902356 0.060869526 -0.13305081 -0.024769168
0.003959277 -0.3229011 0.15564749 0.043157917 0.091109596 0.1820015 -0.28632027 -0.02108594
-0.19675453 -0.30959347 -0.491302 -0.005332288 0.09954738 -0.055575322 -0.027076114 0.31877324
0.3231512 0.078245096 -0.22031789 -0.0129735 0.25361928 0.1746572 -0.22686523 -0.38868186
-0.13306431 0.28349736 -0.25286514 -0.0074754064 -0.333429 -0.1857642 0.33192948 0.08090053
-0.13426073 0.38073432 0.07687166 -0.24844228 -0.42082456 0.26580074 -0.009612595 -0.114498466
-0.23082677 0.17539635 -0.1669241 -0.3628103 0.27299112 -0.3470136 0.14926289 0.10984922
0.5735122 0.1667795 -0.05427674 -0.23263839 -0.33529094 -0.10841428 -0.38115618 0.17475651
-0.6434896 0.37280884 0.29132688 0.19596139 -0.09318633 -0.15796588 0.43305078 -0.23062217
0.2995428 -0.34745264 -0.23545358 0.067469366 -0.013626521 -0.24970606 -0.40969765 -0.12109021
0.22924861 -0.04929291 -0.20949706 -0.2941576 0.16815408 0.11720239 -0.20684096 -0.14712621
-0.021949438 -0.13403796 0.08799073 -0.119179614 0.2429083 0.1826206 0.16915727 -0.11399795
-0.1347001 -0.19762132 0.16832897 -0.08111289 0.32915205 0.1360323 0.034028105 -0.1907376
-0.060450025 -0.06737756 -0.23407264 0.16722172 -0.015759323 0.33418134 -0.2377404 -0.10378132
-0.34476593 0.16502658 0.4002656 -0.23690252 -0.22500505 -0.46291155 -0.09908383 0.025863174
-0.015502857 0.2643518 0.1418584 0.3616145 -0.043148533 0.19871454 0.010359944 0.033831913
0.35778168 0.09618695 -0.27653605 -0.16087778 0.19988012 0.35367274 0.2059243 -0.3990203
-0.19412677 -0.59583104 -0.05818292 -0.05074592 -0.07119349 0.14661346 0.027471539 -0.21374355
-0.19602521 0.1445326 0.018524105 -0.1705694 -0.3750983 -0.28122565 -0.11104157 -0.06883381
-0.14724787 -0.21827935 -0.079703316 0.021895291 0.24074993 0.29495057 -0.30784947 0.19456074
0.10532275 0.015873589 0.15786989 -0.0110984165 -0.20526503 -0.41611257 0.14803217 -0.29660025
0.14651257 -0.084273845 -0.023758013 -0.12025216 -0.10992522 -0.08512143 0.19488391 0.28865826

bias f4 [20]
00000000: 03cd 7f3c 816d b03c 3985 1a3d a58f 163d
00000010: fd72 af3d 7ba8 03bd 5571 243d 5ba5 0b3d
00000020: ccef e93d d78d cebd 7361 d1bb 5031 8c3e
00000030: bd5b 5d3d b32f 2abc cc49 4e3d 3ab2 d53c
00000040: e7d0 25bc bc0f 81bd 2a37 9cbe 8c4e 33bd
0.015612843 0.02153659 0.037724707 0.036758084 0.08566854 -0.032143097 0.040147144 0.034093242
0.11422691 -0.100856476 -0.0063897907 0.27381372 0.054042567 -0.010387349 0.050363347 0.026085962
-0.010120607 -0.06301829 -0.30510837 -0.04377608

weight f4 [20, 20]
00000000: ba1f 513e a7dd 2f3e 03d1 6a3d 4c56 c2bd
00000010: c13a 2e3e 60e2 3ebd e6b9 493d 51d4 91bd
00000020: cb6e bc3e 78b2 dc3c a0ad ccbd 2972 5f3e
00000030: 070c 143e 9773 9fbe cb0e 0b3e 98a4 83be
00000040: f630 a23e 57dc 27be 8cd5 4cbe 3666 ffbd
00000050: dbf3 a33c c1c9 58be 932c 3d3e 487c d7bd
00000060: 36be 0abe 62e0 93bd b9e5 81bc a068 8abe
00000070: 5bf5 ac3e 56f9 3abe 6447 dabb ffc7 48be
00000080: 2e6b 1ebe 15ad 2b3d a8a3 a6be 7dc2 b6be
00000090: be71 d2bd eec3 b83e c838 033e f65a 5cbc
000000a0: fd03 863e e2d9 6c3e 2c82 4cbe c565 ee3d
000000b0: 8e49 debe ed68 4ebe ba5c 9f3c 5d7f cd3d
000000c0: 12cb adbd 689f 833d eb24 d13c 0364 b1bd
000000d0: 3bfd 013d f17b cc3e e2c0 3fbc 8ec4 09bd
000000e0: 2f42 6e3d 0991 82be 6d45 9ebe dcbf 3bbd
000000f0: 991e 3dbd 7fb4 b73e 0e82 613e 1642 6f3d
00000100: e1f9 a23d 7bba 9cbe 3c4f 6f3d c996 9e3d
00000110: f969 f3bd d4dd 5cbe e8a8 47be ceed 7ebc
00000120: 626f ab3e 6ef5 313e 1de0 e43d 5cde 4b3e
00000130: da58 d6bd 8d44 893e 7922 71bc 1922 9b3e
00000140: 935a 90be 7c2c b23d 5b8a e53e 0edc 1a3e
00000150: cb4f 3dba 0615 08be 2b35 343d 7f12 47be
00000160: 152f b23d 9a93 11be 26a5 54be 80b3 683d
00000170: 7232 8dbe 436e 3fbe 02f2 babe f1b5 ce3d
00000180: 36ac e0bd 26d7 013e bef2 8ebd fcec febd
00000190: 62bf d8be 25a3 b8bd 0ff6 513d c25f a7bd
000001a0: dbe2 b03e 7a3e 1b3e d6b7 eebe 9323 fcbb
000001b0: 16db 043e f921 023d 3fbc 1fbe 456c fdbe
000001c0: c7f8 18be 2b9e 863e fd95 243d 4e07 2c3f
000001d0: 3e1d edbd de09 90bd 20e1 3bbe a76c c6be
000001e0: ff59 8a3e 6490 b2bc cfea 453d 7384 83bc
000001f0: 63f8 d3be 0864 243e 51b6 06be f1b1 f03d
00000200: 6695 683d 6885 393e 64af 8bbe 5bba ddbc
00000210: f791 bf3c c91f d73d 7069 223e cce7 22bd
00000220: da3b bf3d 1458 613e 1ee0 8dbb 0524 223e
00000230: 8c2a 3bbe e3af c23d 776d 8d3e cc11 e73c
00000240: f54c e73c dfea 76be f2b7 2b3e 7f0b 4fbd
00000250: a66f 97bd 596f b53d 2990 c5bd 87f5 efbc
00000260: 2c27 613e f399 28be 06be 4abe 23ea 63be
00000270: 8e93 7ebe 4736 d5bb cdad 40bc c44a 433e
00000280: ffc6 80be efcd 4ebe 0917 2cbc b4c2 5d3e
00000290: 6924 81bd 2896 93be a2ed 19bd fa83 adbe
000002a0: 13b1 02be a13d 6f3e 4304 333e 6426 62be
000002b0: 41d6 e7bd 5225 893e 5365 323d bfbd 433d
000002c0: 0298 17be 0ba5 63be f005 b4ba 129d 773d
000002d0: 157a 74bb ab6d 5a3e b90e 723e cc08 44be
000002e0: e2c6 47be c082 36be 1d14 eebd 3e71 6d3e
000002f0: 9619 ddbd 0049 0abe 254d 51bd dde4 c13c
00000300: d727 b8be 2612 a03e c701 29be ea9b 32be
00000310: a23b 1bbd 9339 6a3e e2ac 993c d75a 203e
00000320: 0b96 0fbe e86d 60be 45e1 ae3e a943 9d3e
00000330: a215 95bd cc17 b03e ea8f b6bd 0835 2bbe
00000340: e744 3d3e 120a bdbe 805a 9c3e ceab 443c
00000350: 491f bdbe bc79 9cbd 4a64 b4be 42a8 053e
00000360: 5856 3c3e caa0 38bd 621a 943e 4657 a0be
00000370: 6369 dabe 6f3a debc c8c4 fdbc 9ea2 343e
00000380: 8562 b4be 8a84 1b3d 452c 21be d81d 003f
00000390: c9bc 30be b713 57be a6ae e0bc 03d7 003e
000003a0: 2339 733e e2b5 c43d a632 113d b86a 71bd
000003b0: e09e c73d 7296 12be 01f5 a4bd a7ad 3bbd
000003c0: 0851 5dbe cb9b d8bc b50f 7abb ccf0 97bd
000003d0: 301c 90be d8c3 993e 0e47 0bbe 2e79 59be
000003e0: 4ab7 be3a 5423 1fbd b28c 913d df0f 46bd
000003f0: 25c6 6cbe 9f54 703e 51e7 bfbe ba27 ae3d
0.20422259 0.17174397 0.057328235 -0.09489116 0.170146 -0.046602607 0.049249552 -0.07120574
0.36803278 0.02694057 -0.09994054 0.21820892 0.14457713 -0.31142876 0.13579862 -0.25711513
0.3167798 -0.16392647 -0.20003337 -0.12470667 0.02001374 -0.21170713 0.18474035 -0.10521752
-0.13549122 -0.07220532 -0.01585661 -0.27032948 0.3378094 -0.18259177 -0.0066613425 -0.19607542
-0.15470573 0.04191311 -0.32546735 -0.35695258 -0.10275601 0.36086982 0.12814629 -0.013449421
0.26174918 0.2312999 -0.19971532 0.11640505 -0.43415493 -0.20157214 0.019453395 0.10034058
-0.08485998 0.06426889 0.0255303 -0.08661654 0.03173564 0.3993831 -0.011703702 -0.033634715
0.058168586 -0.25501278 -0.30912343 -0.04583727 -0.04617176 0.35879895 0.22022268 0.058412634
0.07957817 -0.30611023 0.058425173 0.07743604 -0.11885447 -0.21568996 -0.19498026 -0.015559627
0.33483416 0.1737878 0.11175559 0.19909042 -0.10466166 0.26810113 -0.014717692 0.30299452
-0.28194103 0.08699891 0.4483212 0.15123007 -0.0007221668 -0.1328927 0.043996017 -0.1944065
0.087003864 -0.14216462 -0.20766124 0.05681181 -0.2757755 -0.18694405 -0.36512762 0.10093296
-0.10970347 0.12679729 -0.06979893 -0.12447545 -0.42333513 -0.09015492 0.05126005 -0.08172561
0.34548077 0.15160552 -0.4662463 -0.0076946705 0.129742 0.03177068 -0.15599154 -0.49496666
-0.14938651 0.26292548 0.040182102 0.67198646 -0.11577843 -0.07033132 -0.18347597 -0.3875477
0.27021787 -0.021797366 0.048319634 -0.016054368 -0.41400442 0.16053784 -0.13155486 0.1175269
0.056783102 0.18117297 -0.2728225 -0.0270664 0.023385031 0.105041094 0.15860534 -0.03977184
0.09337588 0.22006255 -0.0043296954 0.15834053 -0.18277949 0.09506204 0.27622578 0.028206728
0.028234938 -0.24113034 0.16769388 -0.050548073 -0.07394342 0.088591285 -0.09646637 -0.029291881
0.21987599 -0.16464977 -0.1979905 -0.22257285 -0.24860975 -0.0065067145 -0.011760187 0.1907149
-0.25151822 -0.20195745 -0.010503539 0.21656305 -0.06305773 -0.28825498 -0.03758014 -0.33889753
-0.12762861 0.23363353 0.17482094 -0.22084957 -0.113201626 0.26786286 0.04355366 0.047788378
-0.1480408 -0.22230928 -0.001373468 0.06045253 -0.0037304212 0.21330898 0.23638429 -0.1914398
-0.19509462 -0.17823315 -0.1162493 0.2318773 -0.10795896 -0.1350441 -0.05109896 0.0236687
-0.35967895 0.31263846 -0.16504584 -0.17442289 -0.037898667 0.22873525 0.018759195 0.15659653
-0.1402208 -0.21916926 0.34156242 0.30715683 -0.07279517 0.34393156 -0.08914168 -0.16719449
0.18483315 -0.36921746 0.30537796 0.012003852 -0.3693793 -0.076404065 -0.35232764 0.13052467
0.18392313 -0.045075215 0.28926378 -0.31316584 -0.4265853 -0.027127473 -0.030977622 0.17640159
-0.35231414 0.037968196 -0.15739544 0.5004554 -0.17259516 -0.21003614 -0.027427029 0.1258202
0.23752265 0.09605004 0.035448693 -0.058939666 0.097471 -0.14315203 -0.08054543 -0.045819905
-0.21612942 -0.026441475 -0.0038156335 -0.07418975 -0.28146505 0.3003223 -0.13601324 -0.21237633
0.0014550474 -0.03885205 0.071069136 -0.04835498 -0.23122461 0.2346978 -0.37481168 0.08503671

bias f4 [20]
00000000: 5696 bf3d 6a74 02bd 4263 733c 3474 183d
00000010: e650 b63c fe73 cfbc 6782 c6bd bf6c 40bc
00000020: d104 543a 139c 12bd 80f4 bf3d 1b11 233d
00000030: 0462 aebd a5e6 e43b 4793 edbd c3e9 efbd
00000040: 9947 ef3c 005a 603e b29d 6b3d 5e25 29be
0.09354846 -0.031849302 0.014855208 0.037220195 0.022255372 -0.025323864 -0.09692841 -0.011744677
0.0008087876 -0.035793375 0.093728065 0.039811235 -0.08514789 0.006985503 -0.116003565 -0.117145084
0.029208945 0.21909332 0.057523437 -0.1651816

weight f4 [20, 20]
00000000: 29f9 983e df47 103d 2d6f 853c 5292 703e
00000010: 4845 ebbd b4d7 10be f699 0d3e 0436 803d
00000020: afcd 90bd 710f 423d 168c 923c d917 a53d
00000030: b617 3f3e 24a0 d63e 10ec 86bd 483c 623d
00000040: fcf6 473d ff3f 883e a293 89bd b652 05bf
00000050: a571 4d3e 0c14 fc3d be38 56be 5237 e8bd
00000060: 1efd 7eba c5ce 333d 2293 d6bd ede6 5c3e
00000070: eb13 fe3d ed14 823d f686 41be 63b4 33be
00000080: bdd1 373e 3a21 2d3e d38f efbd e5ca 8dbe
00000090: 6a1d 7f3e c11e 0fbe 34bc 8ebe aa80 b53d
000000a0: 5d19 d1be f863 f53c c828 0cbe c05e 93be
000000b0: 7908 bdbe 5017 aa3d 6a83 933d 55a8 dbbe
000000c0: 5e8b f1bd 6e4d 2f3d 6c85 90bd 9d87 99be
000000d0: 11c9 c4bd 8976 9cbe a69c ad3e 2f3e bc3e
000000e0: 6a4a 033e f2dc 22be 6b47 843e 6785 b83e
000000f0: 4c70 a1be 4978 ad3d 52f4 5cbe ab6c 5ebe
00000100: e847 d7bd 214e 003d 4174 3dbe 2df7 54be
00000110: a687 13be 378d 8f3e 62b7 dc3d a840 1f3e
00000120: e94b 293d 164b ce3d ced2 993e 1995 853e
00000130: 4d7d b6be 7735 1b3d d90a 1b3d 2d25 d9bd
00000140: f134 11be 57e5 68be 5b35 04be 0281 1fbe
00000150: 9a80 e9be 1238 a4bd 4db7 83be 81bf 91be
00000160: 1919 c23d fbd0 9bbe 2583 ba3e bbb9 60bc
00000170: d6d4 84be b975 02be 7c5a 5fbd e5c3 1cbe
00000180: 1819 9fbc e4dd 04bd 18bb 6f3c 99b0 2fbe
00000190: 6717 d8bd 5640 19bc 6afb fcbe a074 313e
000001a0: 35c7 12bf b592 8dbe 0374 db3c 4518 5dbe
000001b0: f6fa 9c3e d49d 0ebe 842b b6bd 04ce 8b3e
000001c0: 3f03 7abe 2c98 21be 8675 50bc fdde 7c3e
000001d0: 75e6 8e3e b469 fbbc 39b9 34be a44f dc3e
000001e0: 4972 eabd 3c93 54bd ba7b d0bd e5c0 453e
000001f0: b4dd 783e fa02 3dbd 6a32 073e 14d1 5dbe
00000200: afdd 403e 3a1d 0cbd e24c 1f3e 7c08 09bd
00000210: a3bd 40be 38d3 24bd 90c2 733e dc16 0dbf
00000220: 244e 45bd 157c 32be 6e9b 13bd 83c3 92be
00000230: 57af 153e dc3e 48bd 1df7 17be ffef 933d
00000240: 57a0 663e 97c3 81bd 212f bbbd d025 2ebe
00000250: 5bba ef3d 8291 c6bc 0aab f53d 864b ffbd
00000260: 5a49 fd3d 56bd babd c860 523d 6f60 68bd
00000270: a1e3 23be 5ba0 703e 076e 92be d157 1c3e
00000280: ed95 24be 2a4f 93be daf4 7a3d c970 503e
00000290: dce3 613e 2ba6 413e 8936 a23c d4c8 b93e
000002a0: 31ca 133f 1329 e33d fb89 22be 9905 0ebe
000002b0: 5fad 863d 13b4 7fbd ed65 7dbd f53f 373e
000002c0: f34a 6a3e d5e2 bdbe 489f 093e 891c 06be
000002d0: 8075 78be d9d5 a8be fdb7 d7bc 55f2 893e
000002e0: 4633 6c3d 5efc 0b3e 2aba 00bd 8dbe 76be
000002f0: 5312 133d 5db3 edbd ddec c13d 0076 e1bd
00000300: ed25 7bbe bee6 41be f38f 1dbe 4ff8 debe
00000310: 1e46 143d 0bee cdbe 6f4e aabd 81ed 343e
00000320: c1c7 aa3e d4e1 7e3e 0f25 8a3e 3b72 5e3c
00000330: 587e 8bbd 1ffe a7bd 10ae 893e 1da5 4bbd
00000340: 1ba0 e2bd bcdf 8d3e f058 21bc e053 a4be
00000350: 99ee 97be cb3e cc3d 43cc b9bd 9c33 843e
00000360: fd1e 2fbd 9037 01be d193 a8bc ee9d 89be
00000370: 5503 b73d e744 753e b8ee 8d3e aa5b 293d
00000380: c008 4fbe 6780 bd3e fe80 57bc 96f2 8cbe
00000390: 2ac6 613e 3122 35be c501 be3e cb59 433e
000003a0: 55d0 803e 7c11 9bbe 3783 9abe 559c 863e
000003b0: f07c 773e d28e b3be 338f 1f3f 74e9 97bd
000003c0: 9a9a 333e f254 9abd 5b79 a53e 1e8d 2cbd
000003d0: 0b00 5fbe 2b28 bd3d 18dc 67be b5bb aabe
000003e0: 1a6f e43d a10f 9f3e d6d0 0cbe 736e 41be
000003f0: 066b 223d 5e9c 113e 436e 7c3e 07a3 393e
0.29877594 0.03522479 0.016288364 0.23493317 -0.11487824 -0.14144784 0.13828263 0.06260303
-0.07070481 0.047378007 0.017889064 0.08061189 0.18661389 0.41919053 -0.06587994 0.05523327
0.048819527 0.26611325 -0.06717612 -0.5207933 0.20062883 0.12308511 -0.20920083 -0.113386765
-0.00097270485 0.043898363 -0.10477282 0.21572466 0.12406143 0.063516475 -0.1889914 -0.17549281
0.17951103 0.16907206 -0.11697354 -0.2769386 0.24913564 -0.13976575 -0.27877963 0.08862431
-0.40839663 0.029954895 -0.13687432 -0.28783226 -0.36920527 0.08305228 0.072027996 -0.42901865
-0.1179416 0.042798452 -0.07056698 -0.29986277 -0.09608663 -0.30559185 0.33908576 0.36766192
0.12821355 -0.15904596 0.25835738 0.36039278 -0.31530988 0.08470208 -0.21577576 -0.21721141
-0.10511762 0.03132451 -0.18501379 -0.20797415 -0.14407215 0.28037426 0.10777165 0.15552008
0.04133216 0.10072915 0.30043644 0.26090315 -0.35642472 0.037892785 0.037852142 -0.10602794
-0.14180352 -0.22743736 -0.12910978 -0.15576556 -0.45605928 -0.08018507 -0.25725785 -0.28466418
0.09477443 -0.30432877 0.3642818 -0.013716157 -0.2594363 -0.1274022 -0.054529652 -0.15309103
-0.019421145 -0.032438174 0.014632009 -0.1715721 -0.10551339 -0.009353718 -0.49410564 0.17329645
-0.57335216 -0.2765099 0.026788717 -0.2159129 0.30660218 -0.13927394 -0.08895019 0.27305615
-0.24415301 -0.15780705 -0.012723332 0.24694438 0.279102 -0.030690052 -0.17648782 0.4302951
-0.114475794 -0.051898226 -0.10179849 0.19311865 0.24303323 -0.046145417 0.13202825 -0.21661788
0.18834566 -0.03420756 0.15556672 -0.033455357 -0.1882234 -0.040240496 0.23804688 -0.55113006
-0.048170224 -0.17430146 -0.0360369 -0.2866479 0.14617668 -0.048888072 -0.1484036 0.0722351
0.22522102 -0.06336134 -0.091398485 -0.17006612 0.11705466 -0.024239305 0.11995514 -0.12465577
0.12367506 -0.09118144 0.05136183 -0.05673259 -0.16004802 0.23498671 -0.2859957 0.15267874
-0.16072817 -0.28771335 0.061268665 0.20355524 0.22059578 0.18911044 0.019801395 0.36286032
0.57730395 0.11091819 -0.15872948 -0.13869323 0.06576037 -0.06242759 -0.061864782 0.17895491
0.22880153 -0.37087122 0.13439667 -0.13096823 -0.24263573 -0.32975653 -0.02633285 0.26942697
0.057666086 0.13670489 -0.03142754 -0.24096127 0.035906147 -0.116064765 0.09469006 -0.11008835
-0.24526186 -0.18935677 -0.15386944 -0.4354882 0.03619968 -0.40220675 -0.08315741 0.17668726
0.33355525 0.24890834 0.26981398 0.013577039 -0.068112075 -0.082027666 0.26890612 -0.04971801
-0.11065694 0.27709758 -0.0098478645 -0.32095242 -0.29674223 0.09972914 -0.09072163 0.25820625
-0.042754162 -0.12618852 -0.020578297 -0.26878303 0.089361824 0.23952065 0.2772119 0.041347183
-0.20218182 0.37012026 -0.013153313 -0.27528828 0.2204825 -0.17688824 0.37110725 0.19077222
0.25158945 -0.30286777 -0.30178234 0.26291147 0.24168754 -0.350699 0.6232788 -0.074175745
0.17539445 -0.07535733 0.3231915 -0.042126767 -0.2177736 0.09236177 -0.22642553 -0.33346334
0.111540034 0.3106661 -0.1375154 -0.1888979 0.039652847 0.14219806 0.24651437 0.18128596

bias f4 [20]
00000000: 1a4a 4b3b d5b2 853d 388a 04bd 3f20 65bc
00000010: 4e68 283d 5839 85bd ab2f 103e beac 873d
00000020: 3913 c43c f68d d13c 38ac 12bc c9b1 05bd
00000030: c200 b8bd bd67 973c 7152 a03c 1afe 33be
00000040: 8bc1 28be 6201 a53d 22f0 723d 0a35 883d
0.003101951 0.0652825 -0.03235838 -0.013984739 0.041115098 -0.06505078 0.14080684 0.06624745
0.023934947 0.025580388 -0.008952193 -0.032640252 -0.089845195 0.018482083 0.019570561 -0.17577401
-0.16480081 0.080569044 0.05931104 0.066507414

weight f4 [20, 20]
00000000: 9b40 423b 4481 943d 1dc1 e2be d535 16be
00000010: 1b7b 27bd 14ad 8abd 990b 863e 0652 45bd
00000020: e06f 803e 65c6 853e 773d b53d 33df 1dbe
00000030: 0c65 e23b 89e7 863d fd48 70be 85f7 283e
00000040: 25c4 e1be d21f e73e 6a7e f0bc a90b 413b
00000050: 4c29 3c3e 1f64 023f c88f fe3d c8c0 233e
00000060: 83b5 8cbe efcd ac3d 671a 87be 565c 69be
00000070: f3dc 8a3e 4d79 c93d 67a9 4a3e fc98 4bbe
00000080: 5be0 5abe 7eef ccbd 9726 7ebd 4dcd 2c3e
00000090: ff83 be3e 97be a53d ba96 c53d fbea 543c
000000a0: aa9f afbe 6028 babd e560 fa3e eacf 3a3e
000000b0: 26be 97bb 1921 5dbc 70b6 bdbd 9d56 213e
000000c0: 74c5 1c3e 694a 783d 8f44 5e3d df83 023e
000000d0: b379 c0be 44f3 583d 314c b13e d91e 083f
000000e0: 7ea3 bd3d c6dd 0b3d f234 85be 4a23 a63d
000000f0: 3bd1 f03d d5f7 be3d 2a4c 943e 0556 b9be
00000100: f889 a2bd 8918 40be a576 b3be be36 88bd
00000110: c453 eb3c 7f6d 8d3e c184 41be 53ba a63e
00000120: 9f7d 18bd 4046 023e 9afe f83d d0c5 df3d
00000130: b4f6 af3e 4e18 d9bd 7bb7 4bbe d544 e7be
00000140: 3060 3b3e b21c 04b9 6f95 293e 4392 483e
00000150: 894f 4b3f 5f92 02bd e524 a03e c5d6 373e
00000160: 4c5e d03d 6567 e93d 6533 8bbe 2f0e e03d
00000170: 8213 81be 3671 c73d a921 013e 4adb 05bf
00000180: 87c3 72be 1c48 843d 7b13 4c3e 2862 963e
00000190: 77c1 353e f9e3 3abe 0d08 64be b1d9 38be
000001a0: 331b c6be 15cc 2d3e b9bf 973e 98d0 1c3f
000001b0: c681 86be 66ca 87be 3a0f a33e 9711 103e
000001c0: d032 c8be 9fd9 8b3e 492a eebc f5ea d73d
000001d0: 3cac 01be ac09 50bd 1b99 d1bb d8ea a23e
000001e0: ad21 d3be debe 123e 6ce2 20be c38f 2bbe
000001f0: 5be3 d03c 7447 6b3e a27a 39be 5c20 fabd
00000200: 326e a0bd c6ef f9be 7010 f03d fe71 2cbe
00000210: 436d 173a a482 6cbe 31de 12be 936f 95be
00000220: 6961 8dbe 3b5f 4cbd b6ce 853e b02a 88bd
00000230: 3529 e23e f831 a5be 40ca 92bc 860d 3d3e
00000240: 61b3 86be 1d9c 863d 8411 653d c999 0dbe
00000250: 6698 4abe f023 0cbe 2a9e 0abc 11d8 78be
00000260: 4a0d c2bd 2c4f 5f3e 94b5 fcbd f898 0b3e
00000270: b66c 9d3d 4790 1b3e 961d 21be ef40 0bbe
00000280: 798a b5bd cb08 9bbd b891 8bbd fac5 2b3d
00000290: 80d5 8bbd 1da7 80bd 4840 6e3e d0fd 38bd
000002a0: 1839 7c3d 38d3 473e 2d8d 9cbd 7010 a13d
000002b0: 4c1a 0cbd 174b 533e 42ea 4a3d 2a4a eabe
000002c0: 7684 33be e81f 653d 4042 a9bd 4389 99be
000002d0: 52b7 863e aec1 b03e 4dc5 a6be df90 c2be
000002e0: bd87 cb3d 276c 323e f38c 643e 07ef 993e
000002f0: 169a 2abe 3d9f 32be a4e2 50be abb4 1abd
00000300: 7e78 0a3e 4f20 71bd 6914 273e 061b 963e
00000310: 0f55 d83d e4d0 b63d 28c7 083e ff4b 09be
00000320: 9020 e03d d2e0 99be 799a 49be ae4d cebd
00000330: 6da1 803e 5068 99be 6fc2 29bd cb42 083e
00000340: 8e4d 203e 29af 1c3d c546 30be 2cb4 bfbe
00000350: 0187 e33d d670 68be e5d3 6e3e d23a f1bc
00000360: c61a 91bc 83f8 5bbe 7548 ec3e 2eb9 093e
00000370: f8be 0d3e 7392 f0bd 977a 6f3e f381 debd
00000380: 24be 1f3e 5cde 0abe 58d6 99bd 3eca 06bd
00000390: b978 1d3e d3f2 673d 4930 953e bd5d b6bd
000003a0: d365 6e3d a0dc 32be e70f c2bd 2c77 97be
000003b0: a210 5cbe 3c91 8e3d 5629 9d3e 408e 203e
000003c0: b5fc 7dbe be85 583d 0a0c 903e 7915 463d
000003d0: 6752 323e ea15 923e 9f96 0b3e 8ce8 093c
000003e0: eafa d7be 1aa3 ddbe b3d1 e9bb 3fd4 09bc
000003f0: 2756 4d3e 2433 2bbe 6ce6 673d ea7c 9e3d
0.0029640559 0.07251218 -0.4428796 -0.14668973 -0.040888887 -0.06771293 0.26180723 -0.048173927
0.25085354 0.26127926 0.08849614 -0.15417175 0.0069090184 0.065871306 -0.23465343 0.16500671
-0.4409496 0.45141464 -0.029357154 0.0029456413 0.18375129 0.5093402 0.12429768 0.15991509
-0.27482232 0.08437716 -0.2638733 -0.2278913 0.27121696 0.098375894 0.19791184 -0.19882578
-0.21374647 -0.10006617 -0.06204852 0.16875191 0.3721008 0.08092993 0.096478894 0.012995477
-0.34301502 -0.09089732 0.4890205 0.18243375 -0.0046308218 -0.013496661 -0.09263313 0.15755697
0.15309697 0.060617838 0.0542646 0.12745617 -0.3759285 0.05296637 0.34628442 0.5317207
0.09259699 0.034147047 -0.26016957 0.081121996 0.117586575 0.09324614 0.2896436 -0.3619844
-0.07936472 -0.1875936 -0.35051456 -0.06651066 0.028726466 0.276226 -0.18898298 0.3256403
-0.037229177 0.12722111 0.121579364 0.109264016 0.34367907 -0.10600339 -0.19894211 -0.45169702
0.18298411 -0.00012599191 0.1656091 0.19587044 0.79418236 -0.03187787 0.31278148 0.17953022
0.10174236 0.11396674 -0.27187648 0.10940205 -0.25210196 0.0973839 0.12610497 -0.52287734
-0.237074 0.06459066 0.19929306 0.29371762 0.17749582 -0.18251027 -0.22268696 -0.18051793
-0.38692626 0.16972382 0.2963846 0.6125579 -0.26270884 -0.26521605 0.31847554 0.1406921
-0.39101267 0.2731447 -0.029072898 0.10542861 -0.12663358 -0.050790474 -0.0063964254 0.31819797
-0.4123663 0.14330623 -0.15711373 -0.1675406 0.025499037 0.22976476 -0.18113187 -0.12213203
-0.07833518 -0.48815745 0.11721885 -0.1684036 0.0005776474 -0.2309671 -0.14342572 -0.29186687
-0.2761338 -0.049895506 0.2613427 -0.06648767 0.44172063 -0.32264686 -0.017918706 0.1846219
-0.2630873 0.06572745 0.055924907 -0.13828196 -0.19784698 -0.13685584 -0.008460561 -0.24301173
-0.09475191 0.21807545 -0.12339321 0.13632572 0.076867506 0.15191756 -0.15733942 -0.13598989
-0.08864302 -0.075700365 -0.06814903 0.041936852 -0.06827831 -0.06281874 0.23266709 -0.04516393
0.061577886 0.19514167 -0.07644115 0.07864463 -0.034204766 0.20634113 0.049539812 -0.45759708
-0.17530999 0.05593863 -0.08264589 -0.29987535 0.26311737 0.34522766 -0.32572404 -0.38001153
0.099379994 0.1742407 0.22319393 0.30065176 -0.16660342 -0.17443557 -0.20398957 -0.037769955
0.13522527 -0.058868703 0.1631638 0.29317492 0.10563099 0.089265615 0.13357222 -0.13407896
0.10943711 -0.30054337 -0.19687833 -0.1007341 0.25123158 -0.29962397 -0.041445192 0.1330673
0.15654585 0.038252983 -0.17214496 -0.37442148 0.11109734 -0.22699293 0.23323019 -0.029446993
-0.017712962 -0.21481518 0.4614903 0.13449547 0.1384238 -0.11746683 0.23386608 -0.108646296
0.15599877 -0.13561386 -0.07511586 -0.032907717 0.15378083 0.05662806 0.291384 -0.08904598
0.058202576 -0.17466974 -0.094756894 -0.29583108 -0.2149072 0.06961295 0.306956 0.15679264
-0.24803431 0.05286192 0.28134185 0.04836032 0.17414246 0.28532344 0.13631676 0.00841726
-0.4218362 -0.432885 -0.007135594 -0.00841242 0.20052396 -0.16718727 0.05661623 0.07738669

bias f4 [20]
00000000: 822b 143e f673 4bbd 2b16 b4bd 63d0 d1bd
00000010: 29d9 bc3d 0f69 863d a7dc 893d 5ee9 eb3c
00000020: e94a 423d decd 2ebc 405b af3d 0cf7 b73d
00000030: e343 cabd 58ef 943d ac13 a4bd 9b53 4b3e
00000040: d02c 0fbb 8651 8e3d d055 bc3c 738d 343d
0.14469722 -0.049671136 -0.08793291 -0.10244825 0.092211075 0.06563007 0.06731539 0.028797802
0.04743472 -0.0106692 0.085623264 0.08982667 -0.098762296 0.07272214 -0.080115646 0.19856112
-0.0021846779 0.06949143 0.022990137 0.04408021

weight f4 [20, 20]
00000000: 2cac 303e 9e73 46bd 269b d4bd 8b75 15be
00000010: 9b01 a03b 154e 93be 3428 e1bd 8f86 cf3e
00000020: 6754 8dbe a6e6 923e 95ee 5cbd 66f4 83be
00000030: 8f21 e13d af2c b13c 6a6b d63d 5490 023e
00000040: 2e86 8bbe 4b56 243e 79b4 833d 2b7e 4e3d
00000050: 66f0 bd3d b9e9 6f3e add4 b33e da77 373e
00000060: 2860 6ebd d1e3 d6bd 31f9 893c 568f 003d
00000070: 9cea 393e e934 113e 97e0 bdbe dfe2 853d
00000080: 0ebd ff3e b67b 3cbd 5e90 a2bd d144 19bf
00000090: f77e b7bd 64b9 9c3e 600e 84be 97e9 393c
000000a0: 1609 7cbc 2c2a 0f3e d296 fe3e f02a b53d
000000b0: f77b 3e3c fbe9 de3e f6c0 82be 9ebf 4cbe
000000c0: 015b 743d b084 d1be 8283 afbc 0c35 713d
000000d0: 8bb8 ec3d e5c4 65bd 332c 9b3d 3c76 b3be
000000e0: 24a6 76be 8bb3 14be ccf8 8ebe c412 25be
000000f0: 8015 ce3d 16ff 21be d555 5fbd 1e68 51be
00000100: c725 8ebc b2f5 8a3d fc4a bd3d 6d68 c3bd
00000110: 0667 a23e 0f33 61be 3120 1b3e ab8a 9b3e
00000120: 69f1 8ebe 4582 cc3d e651 b3be 7212 4bbe
00000130: 63ca 2fbd e184 8f3e 3633 723d 94c2 54bd
00000140: 3591 5e3e d2f0 37be 4fa7 e0bd 0d3a b7bd
00000150: 2e81 353e 236d 913e 5be7 d23e 86b6 ca3e
00000160: 107a 99bd 57ec bcbe 2805 97bc ae10 963d
00000170: a5f1 873e 772c 763d 5c54 dcbe ecfe f03d
00000180: 3c16 2cbe ceec 39bd 61f6 fd3e a9be c53e
00000190: 7788 31be 593a 673e f2d9 0b3e 96a7 d73d
000001a0: 2dc3 3dbe 7ae5 31be 22e5 16be 75af 143e
000001b0: bed9 7abe 0e23 32be bd99 543c 7cb8 823d
000001c0: 058c 8e3e a090 a1be 80f2 133e 9263 8d3d
000001d0: 325c e93d aa42 eb3e cad7 62be 74de 4a3c
000001e0: 1334 023f 9d63 9ebd 34d8 bcbe 1fee f73d
000001f0: 191d 803e d574 cf3e 0056 d83d d455 183e
00000200: a885 edbd 5c9b e7bc 3d61 3a3e 648e 913e
00000210: 692e 78be b383 a73b cf74 38be c0e9 503e
00000220: 5461 6ebd 43ca 8d3e 86d5 123e 735a 703e
00000230: a079 1abf 4455 61be 9725 6f3e ed88 f63e
00000240: 85fa 90be 4dda 29bd 60cb 823e 393a 8d3c
00000250: 5928 5ebd 573e c1bc bb1f d73d 2d27 23bf
00000260: eef3 99be 1a62 803d c4a3 a23e 0322 48be
00000270: d314 24be aa30 663c d0df 943e 420b 16bf
00000280: 9f0f 36be 1cb1 a63e bb2b c13e 9af4 b63e
00000290: aa11 11bd 6d9b 1a3d b942 ac3e 2819 72be
000002a0: acf3 ffbd b592 a8be 4148 82be 79e8 813e
000002b0: 8ad4 b13e 22ab 8ebe cbbd 41bd ab65 493e
000002c0: 7357 b93d 6870 10be 1b5e 08be 7043 53bd
000002d0: 5f1f bbbe 031a 8c3e ed03 f2bc 6d11 b2be
000002e0: 8814 f13d 9001 a1be bcfc 293e 721a 103e
000002f0: 2d55 6c3d 2ad6 253e 0898 57be 8952 be3e
00000300: 01b7 56bc 42be b8bd 6463 b53d ca62 74be
00000310: 4a4c 503e de13 69be 2404 9abe 52bb e1bc
00000320: cbab 713d 3473 5d3e e42b 3e3e 3b17 35be
00000330: e9b7 f2be 8a48 14bf b28b a13e 7aca e13c
00000340: 89f8 fa3d 0022 af3e 2118 8dbc 00f5 e2bd
00000350: 6641 0c3e 6002 ad3d a74b a73e da62 b2be
00000360: 9857 183e 5cd5 bebe 8104 773e 52bd 353e
00000370: 20fd db3d 5f84 b1bb 370a d63e 20ab c93c
00000380: d1ba c53d bb47 d13e 6143 adbe 50cf 09bf
00000390: 5bb7 5f3e 423b 48be 41df 963e 753e 893e
000003a0: a4b9 103f 6ec1 9b3e ba12 f73e 72b2 8bbd
000003b0: 9515 10bf 5287 743e 068f 92be c761 47be
000003c0: 6e70 ce3e 65f6 663e 55d7 04be 8c7a f1bd
000003d0: 52e0 713d b6de aa3d ba29 4b3e 2cfe 55be
000003e0: f63b 843e 6e35 623e 8511 9c3d 586b cc3e
000003f0: 0e2e 813e ca44 4ebd c1f1 76be f488 083f
0.17253178 -0.048450105 -0.10381155 -0.1459562 0.004883004 -0.2877051 -0.10993996 0.40532348
-0.27603456 0.28691596 -0.053938467 -0.257724 0.10992729 0.021627752 0.10469706 0.1275037
-0.27250808 0.16048543 0.06430907 0.050413292 0.09274368 0.23429002 0.35123196 0.17916813
-0.05819717 -0.10492671 0.016842457 0.031386696 0.18155903 0.1418034 -0.3708541 0.06537413
0.49948925 -0.046016417 -0.07937692 -0.5987063 -0.089597635 0.30610192 -0.25792217 0.011347196
-0.015383026 0.13980931 0.49724442 0.0884608 0.011626235 0.43537888 -0.25537843 -0.19994971
0.0596571 -0.40921545 -0.021425012 0.05888848 0.11558636 -0.056095976 0.0757679 -0.35051143
-0.24086815 -0.14521615 -0.27924192 -0.1612044 0.100626945 -0.15819964 -0.054525215 -0.20449874
-0.017351998 0.06785144 0.09242818 -0.09541402 0.31719226 -0.21992134 0.15148999 0.30379233
-0.27918556 0.099857844 -0.3502342 -0.19831255 -0.04291762 0.28031066 0.05913087 -0.051943377
0.2173508 -0.1796296 -0.109694116 -0.08946619 0.1772506 0.28403577 0.41192135 0.3959238
-0.07493985 -0.36899063 -0.018435076 0.073274 0.26551548 0.060101 -0.4303311 0.117673725
-0.16805357 -0.04539185 0.49602035 0.38622025 -0.17337213 0.22580852 0.13657358 0.10530011
-0.18531485 -0.17372695 -0.14735845 0.14520057 -0.24497125 -0.17396185 0.012976107 0.06382844
0.278412 -0.31555653 0.14447975 0.06903757 0.11394538 0.45949298 -0.2215263 0.0123821385
0.5086071 -0.077338435 -0.368837 0.12105965 0.250222 0.40518823 0.10563278 0.14876491
-0.115977585 -0.028272323 0.18201156 0.28428948 -0.24236454 0.0051121353 -0.18013309 0.20401669
-0.058198288 0.27693376 0.14339265 0.23472004 -0.60341835 -0.22005183 0.23354183 0.4815134
-0.2831613 -0.041467953 0.25545788 0.017239677 -0.054237697 -0.023589296 0.10504099 -0.6373165
-0.30068916 0.062687114 0.31765568 -0.19544224 -0.16023569 0.014049688 0.29077005 -0.5861093
-0.17779396 0.32557 0.37728676 0.3573349 -0.035417236 0.03774588 0.33644655 -0.23642409
-0.124976486 -0.3292443 -0.2544575 0.25372675 0.34732467 -0.2786494 -0.04730014 0.1966769
0.09049883 -0.1410538 -0.13317148 -0.051577985 -0.36547372 0.27363595 -0.029542888 -0.3477892
0.11771494 -0.31446505 0.16600317 0.14072588 0.057698417 0.16194978 -0.21054089 0.37172344
-0.013105155 -0.09020664 0.08856848 -0.2386581 0.20341602 -0.22761485 -0.30081284 -0.027555142
0.059001725 0.21625978 0.1857143 -0.17684643 -0.47405937 -0.57923186 0.31551892 0.027562369
0.122544356 0.34205627 -0.01722342 -0.11081886 0.13696823 0.084477186 0.32674906 -0.34841043
0.14877164 -0.37272155 0.24122812 0.17748001 0.10741639 -0.005417391 0.41804668 0.024617732
0.09654773 0.40875039 -0.3384047 -0.5383196 0.21847288 -0.19553855 0.29467204 0.26805463
0.56533265 0.30421013 0.48256475 -0.06821145 -0.5628293 0.23879746 -0.28624743 -0.19470893
0.40320152 0.2255493 -0.12972768 -0.11790952 0.05905182 0.0834326 0.19840136 -0.2089774
0.25826997 0.22090694 0.07620529 0.39925647 0.2523045 -0.05035857 -0.2411566 0.53333974

bias f4 [20]
00000000: 9c76 ba3c a806 0ebe 68c2 bfbd 9675 ef3d
00000010: f1b2 f13d e796 94bd 5f9f be3d 7355 f8bd
00000020: aa70 eebd e50d 6e3c 9ac7 9ebd 0211 1abd
00000030: 72c6 243d 3957 f6bd ab5b f5bd 3647 38bc
00000040: d244 9a3d 344d 0a3e 1355 a93d 0754 24be
0.022761635 -0.13869727 -0.09363252 0.116923496 0.118017085 -0.07255345 0.093077414 -0.12125673
-0.11642583 0.01452968 -0.07752915 -0.037613876 0.040228315 -0.12028355 -0.11980375 -0.011247447
0.07532658 0.13506013 0.0826818 -0.16047679

weight f4 [1, 20]
00000000: f6c8 283c 80f9 50bf cf6f 42bf 4460 cb3e
00000010: 133a 213f 1aa7 9abe bc36 963f 9a9d 69bf
00000020: d015 e8be 990b 04bd acdc d4be c6c8 49bf
00000030: e670 bd3e c797 8abf e776 32bf 61af e8bc
00000040: 8391 683f bb25 883f ebec 973e 86e8 d7be
0.010301819 -0.81630707 -0.75951856 0.39721882 0.6297924 -0.30205613 1.1735454 -0.91256106
-0.45329142 -0.032237623 -0.4157461 -0.7882198 0.37000197 -1.0827569 -0.6971268 -0.02840394
0.90847033 1.0636514 0.29672942 -0.4216959

u_b f4 [2]
00000000: 0000 803f 77be 7f40
1.0 3.996

l_b f4 [2]
00000000: 0000 0000 0000 0000
0.0 0.0
