Trained/Models_01/Noise_0/simulation_stop/internal_o3.pt (torch, 60895 bytes, 23 tensors)

weight f4 [20, 2]
000000 26 7b f3 3e fa 4e 9c bd 8d 8d 37 bf ff d1 74 3e
       0.47554892 -0.07632251 -0.71700364 0.23908232
000010 f8 99 12 be 34 57 a9 bf ca ce 15 3f ec 85 8a 40
       -0.14316547 -1.3229737 0.5851866 4.328848
000020 e8 ab c9 be e7 b5 49 bf a2 c2 d5 be f3 a7 cc be
       -0.39388967 -0.78793186 -0.41750056 -0.39971885
000030 6e f1 c3 3a 42 7c 77 bf 33 93 6b 3e ab 16 ba bf
       0.0014949271 -0.9667398 0.23005371 -1.4538168
000040 7f 0a 90 3c 27 d8 d3 3f 99 0c b2 bd b5 00 80 bf
       0.01758313 1.655034 -0.08693809 -1.0000216
000050 47 0d 55 3e 3f 32 d9 3d 3c 68 1f be 01 e7 cd 3c
       0.20805846 0.10605287 -0.15567106 0.025134565
000060 9f 37 4c 3d 84 a0 c5 bf 1a b2 99 bd ab 8f c1 be
       0.049857732 -1.543961 -0.07504673 -0.37804922
000070 dc 57 ec bd 0a 49 66 3f 9a 5e bb 3e a7 e6 53 3f
       -0.11540195 0.899552 0.36595613 0.8277382
000080 e6 37 b1 3e 66 8a 0a c0 4e 41 c2 be 9a 50 71 bf
       0.3461296 -2.1646972 -0.3794045 -0.94263613
000090 99 2b 5f bd 30 9f fa bc eb 6d 28 3d 88 3b 4c bf
       -0.054484937 -0.030593485 0.04112045 -0.7977834

bias f4 [20]
000000 81 3c eb bf 34 4c 03 bf ee a0 d4 3e 7e 1b 22 40
       -1.8377839 -0.5128815 0.4152903 2.532928
000010 ea 28 03 bf 5c cb 9a 3f cd e6 46 3f 87 dd 22 3f
       -0.51234305 1.209331 0.77695924 0.63619274
000020 bf d9 5c bf 5a 88 ab 3d 33 75 df 3d 6d e2 55 3e
       -0.86269754 0.08375616 0.10911026 0.20887156
000030 c2 bf 81 be 7c 5b 6f bf 82 b8 10 bf 16 cc 2b 3f
       -0.25341612 -0.9349897 -0.56531537 0.67108285
000040 31 ff 53 bf 0b 09 85 bf 83 62 8c 3e 78 e0 a8 3d
       -0.82811266 -1.0393385 0.27418908 0.08245939

weight f4 [20, 20]
000000 1f 66 04 bc c2 cd 94 3e 2d 6e 6d be ea c3 cb 3d
       -0.008080988 0.2906323 -0.2318656 0.09949477
000010 e1 f2 e9 3d 20 20 29 3e 00 0a a5 3e 9e e7 cd bc
       0.114232786 0.16516161 0.32234192 -0.025134858
000020 6b b5 f8 3e d3 b2 cc 3e 37 4a 41 3e ec 25 17 3e
       0.4857591 0.39980182 0.18875967 0.1476056
000030 05 a1 39 3e aa 9e 83 3d d0 ea 0e 3f 98 af 9e be
       0.1812783 0.06426747 0.55827045 -0.30993342
000040 ef 82 e9 be 83 ad 2c bf 88 ed 24 bd c0 f3 2f 3d
       -0.45607707 -0.6745226 -0.04026559 0.042957067
000050 8f b7 96 3e 94 04 3a 3e a3 8d 02 bd 9b 1f c2 3e
       0.2943692 0.18165809 -0.031873357 0.37914738
000060 56 46 15 be b3 c4 cc be 92 1d e9 be c8 f6 a8 be
       -0.14577612 -0.3999382 -0.45530373 -0.3300078
000070 f5 07 59 3e f8 c8 6e bd 58 1e 4b bd 6f f7 46 3d
       0.21194442 -0.058297127 -0.049589485 0.048575815
000080 7e e2 09 be ba 43 03 3d 68 de 83 be ca 7c 60 3e
       -0.13465306 0.03204701 -0.2575562 0.21922603
000090 a3 9b 94 3d ec c0 7c 3d 22 e6 05 3d de 4e c7 3c
       0.07256248 0.061707422 0.032690175 0.024329599
0000a0 20 4f 57 3e 11 b5 1a 3e f3 c6 67 bd ad 80 41 bf
       0.21026278 0.15108134 -0.056586217 -0.7558697
0000b0 62 9e 25 3f 63 7d 15 3d 73 8e e7 3c c4 be 97 3e
       0.646948 0.03649653 0.028266167 0.2963773
0000c0 ac 56 5e 3d c1 52 4a be 6c 92 72 be 18 6a 2f 3e
       0.054281875 -0.1975813 -0.23688668 0.17130315
0000d0 1d c9 67 be 76 0e 01 bd fc 88 12 3d 5c b9 83 bd
       -0.22635312 -0.03150793 0.03577517 -0.06431839
0000e0 ec 82 75 3e ff 3b 3b 3d ff 86 b3 3d e1 0b e6 be
       0.23975724 0.045711514 0.08765983 -0.44930938
0000f0 4c 99 a3 3e 44 d8 3b 3e bd 07 2b be d0 bb b5 3e
       0.31952894 0.18344218 -0.1670217 0.35494852
000100 56 f1 c0 3c 65 3a 9d bd df c2 8b be 10 a9 11 be
       0.023552578 -0.076771535 -0.27297112 -0.14224648
000110 8d 7d cb bb 8b 13 62 3e 9f 46 d1 3d 6f 36 41 3e
       -0.006210035 0.22077768 0.10218548 0.18868421
000120 7f f6 98 3e a9 aa 4f 3e 50 40 c5 3c 7a c2 03 be
       0.29875562 0.20279945 0.024078518 -0.12867156
000130 f3 c4 37 bf e5 4e a3 3e a1 b2 42 3e de 16 40 3e
       -0.71784896 0.3189613 0.19013454 0.18758723
000140 84 68 01 3f 9c 23 23 be d3 4d c0 3e d6 fd 1d bf
       0.50550103 -0.15931553 0.37559375 -0.6171545
000150 39 2a 25 3e 12 04 ae bd 83 24 3d bd c4 6b 5a 3f
       0.16129388 -0.0849687 -0.0461774 0.8532069
000160 60 46 e8 be 20 93 ef bd 22 f4 df 3d 57 55 5f be
       -0.45366192 -0.11697984 0.109352365 -0.21809898
000170 59 20 0a 3e 23 94 51 3c b9 a6 d2 3d 39 e9 a3 3e
       0.13488902 0.012791666 0.10285706 0.32013872
000180 6b 43 4b 3e 24 ef 26 3f 5c 23 e7 bd 51 fe ae 3e
       0.19849937 0.6520865 -0.11286041 0.34178403
000190 06 8f 7e bd ec 57 f6 3d 5f cd a2 3e bd db 21 bf
       -0.062148117 0.120284885 0.3179731 -0.6322592
0001a0 46 ea aa 3e dd 22 89 3e 1a 82 2b be 3d 66 f3 3c
       0.3338186 0.2678441 -0.16748849 0.029711837
0001b0 42 bb bc bd ad 6f 3d be b3 d2 41 3d 03 0b 2f be
       -0.09215404 -0.18499632 0.04732008 -0.17094044
0001c0 15 57 3d be 45 53 13 be 89 25 25 3f 29 42 56 bd
       -0.1849025 -0.14387234 0.645104 -0.05230919
0001d0 b1 d6 3e be 6b b3 af 3c 96 36 13 3e cb 0f 8d 3e
       -0.18636586 0.021447858 0.14376292 0.27551112
0001e0 0a e1 ea be 25 2b 9a bd c5 b6 2e bc c4 29 ba bd
       -0.45874816 -0.075277604 -0.010663693 -0.090899974
0001f0 0d 5c 2a bd eb 1c d8 be 4e 38 3c 3e 6a 93 2c 3e
       -0.041591693 -0.42209563 0.18380854 0.16853109
000200 af 7d 52 3e fd 4d 97 be 05 40 26 3e b5 d6 2b be
       0.20555757 -0.29551688 0.16235359 -0.16781123
000210 98 d0 d9 3b 65 4c 62 bd 32 ec 84 3e 6c 05 b0 3d
       0.0066471808 -0.055248637 0.25961453 0.08594784
000220 4c 1c 63 3c 1b 71 99 be d3 9d 26 3d eb 97 32 be
       0.013861727 -0.29969105 0.040677857 -0.17440765
000230 09 09 fb 3e 80 5f 23 3f b3 ae df 3e 6e 5c 06 3e
       0.4903033 0.63817596 0.43687972 0.13121197
000240 47 25 27 3e 50 44 8b be 22 3c a6 be e1 f0 2a be
       0.16322814 -0.27200556 -0.32467753 -0.1669345
000250 c6 57 5d 3d ac 0f 3d 3e 4f 76 e0 3d b9 04 38 3e
       0.054038785 0.1846301 0.109600656 0.17970552
000260 31 f8 b9 3e 12 5c 86 3d c3 e5 e9 bd 48 ac f8 be
       0.36322168 0.0656053 -0.11420777 -0.4856894
000270 53 6f b0 be 3b 4a 4f 3f 67 33 62 be 24 ce 91 3e
       -0.34459934 0.8097264 -0.22089921 0.28477585
000280 48 e3 cc 3e 4e 91 8a be 90 54 a8 bd d2 86 2f be
       0.40017152 -0.27063984 -0.08219254 -0.17141274
000290 b8 41 a6 be 79 14 99 bd 48 b9 b0 be 82 7e 30 3b
       -0.32472014 -0.07474608 -0.34516358 0.0026930873
0002a0 40 db b7 be ac 0e 41 be bb dd 91 3e 16 f1 50 3d
       -0.35909462 -0.18853253 0.2848948 0.051011167
0002b0 f7 cd 3d 3d 8a 7f 05 3c e2 7b 3c be 6f 6b c9 3e
       0.046339 0.008148083 -0.18406633 0.39339778
0002c0 7a 41 36 3e 2e 91 1c 3f 81 c3 06 3d 36 23 03 be
       0.17798415 0.61159027 0.03290129 -0.128064
0002d0 86 72 5a 3e 69 36 73 bc 36 f2 27 3f 07 cd 33 be
       0.2133275 -0.014844515 0.6560396 -0.1755868
0002e0 d3 ec 2d 3f 9b d7 90 3e 0d 48 49 3e 2e da c8 3e
       0.6793949 0.28289494 0.19656391 0.39228958
0002f0 1a 0e 33 3e d3 e1 81 3e eb 62 88 3d 86 bb c2 be
       0.17485848 0.25367603 0.06659492 -0.38033694
000300 1f 35 d1 3d dc d1 e9 3e d3 85 fe bc 59 6e c3 bd
       0.1021521 0.45667922 -0.031069672 -0.095425315
000310 be d9 66 3f 26 32 1d 3f fa 8e 79 be 66 68 a6 3d
       0.90176 0.61404645 -0.24370947 0.08125381
000320 47 91 1d 3e e2 63 3c 3f 65 28 44 bf ba 9a c4 3f
       0.1538745 0.7358991 -0.7662414 1.5359719
000330 c9 50 5c bf 66 e5 61 bf 23 78 10 be e0 78 83 bf
       -0.8606077 -0.8824066 -0.14108329 -1.0271263
000340 8b 04 ac 3f 12 29 d3 be ae 66 b0 3d 10 34 18 3e
       1.3438886 -0.41242272 0.086133346 0.1486361
000350 b8 03 63 bf 5b 63 5d bd eb 65 04 bf 24 16 d7 be
       -0.8867755 -0.05404983 -0.51718014 -0.4200908
000360 4b e7 f2 bf 2f d4 b1 bc fb 8e e6 3d 5e 82 c5 be
       -1.8976835 -0.021707622 0.1125774 -0.38576025
000370 41 ee f0 be 1e 7d 66 3e 01 9d d8 3e 56 a2 73 bd
       -0.47056773 0.22508666 0.42307284 -0.059480987
000380 3d 6e 75 bd b8 f0 b7 3c 98 7e 1b 3e ed aa 94 bd
       -0.059919585 0.02245365 0.1518501 -0.07259164
000390 05 d0 8c be f1 61 ec 3e 0e e9 41 3d ec 54 c3 3e
       -0.27502456 0.46168473 0.0473414 0.38150728
0003a0 a6 69 b8 bd eb 72 1b 3d 8e 3a 84 3e 42 1a b4 be
       -0.09004526 0.03795139 0.25825924 -0.35176283
0003b0 39 54 4f be 74 00 5e 3e 04 4e 5d 3e 7b 9f 3d bc
       -0.20246972 0.2167986 0.21611792 -0.011573668
0003c0 9a c0 ef be 47 c3 31 3d f3 ee ae bd f3 0b b7 bd
       -0.4682663 0.04339912 -0.0854167 -0.08937826
0003d0 2e 09 8e be cd b1 e8 3e b0 34 31 bd b9 cf 11 be
       -0.2774138 0.4544815 -0.043263137 -0.14239396
0003e0 50 89 40 3e 9c ae b2 3d 43 e5 e0 bd d0 70 89 3e
       0.1880238 0.0872471 -0.10981228 0.26843882
0003f0 b9 15 d6 3d 54 91 92 be a3 43 71 bd af af ed 3d
       0.10453362 -0.28626502 -0.058902394 0.116057746

bias f4 [20]
000000 60 fa 9b be 73 de 79 bf c4 ad d4 b9 ba f1 d9 be
       -0.30464458 -0.97605056 -0.00040565256 -0.42567235
000010 20 be 01 be 0c fd 59 3e aa f3 f6 3e 8b 8f 55 bf
       -0.12670183 0.21287936 0.48232776 -0.83422154
000020 16 c9 d8 3e 62 aa 8d be 4c 08 c0 3e 52 00 a2 3e
       0.42340916 -0.27669054 0.3750633 0.3164087
000030 27 7c 5a 3f 7d b8 8c 3f d0 82 c7 be 85 3c 47 be
       0.8534569 1.0993801 -0.3896699 -0.1945668
000040 1a 31 7f 3f a1 3f 4f 3e 3f cc 85 be 40 4c 8b be
       0.996843 0.20239116 -0.2613239 -0.27206612

weight f4 [20, 20]
000000 46 a2 cf 3e db 58 a9 be ee bf 65 be 53 19 10 3e
       0.40553492 -0.33075604 -0.22436497 0.1407216
000010 61 cb 51 be d3 4d c1 bd 14 3e 9f 3e 5e 3c 9b 3e
       -0.20487739 -0.09438672 0.3110205 0.30319494
000020 a1 9b 3a bf 05 63 b8 bc 0b 86 0d 3f 02 b4 18 3f
       -0.7289372 -0.022508154 0.5528266 0.5964967
000030 60 c1 d3 3e 45 1b 94 3e 99 86 63 3d f1 00 10 3c
       0.4135847 0.28927055 0.055548284 0.008789287
000040 08 6b 41 3e 58 8f 5d be bd 80 a1 bd 68 06 db be
       0.18888485 -0.21636713 -0.07885883 -0.42778325
000050 52 cf 38 3e 29 53 36 bd f5 10 79 3e 14 33 4b bd
       0.18047836 -0.0445129 0.24322875 -0.04960926
000060 79 6d 04 be ae f9 e7 3e ed fc 83 3d dd 93 8c be
       -0.12932386 0.45307678 0.06444726 -0.2745656
000070 9b ba 17 3d 60 07 ba 3e 01 96 1d bf 3f d8 ae 3e
       0.037043195 0.36333752 -0.6155701 0.34149358
000080 61 be 95 bd 5e 80 cb bc 59 68 7e bd 78 f1 0d 3f
       -0.073117025 -0.024841484 -0.062111232 0.5544658
000090 6f 38 5b 3e a5 6e 04 3f 84 dc a7 3e 8e e7 3b 3e
       0.21408246 0.5173133 0.32785428 0.1835005
0000a0 d2 e3 90 be fe b4 8f bd 42 13 89 3e 64 a1 4d be
       -0.28298813 -0.070169434 0.26772505 -0.20081097
0000b0 27 77 d1 3d bf d0 65 3e 54 28 09 3e 2e 8e e9 3d
       0.10227805 0.22442912 0.1339429 0.11404072
0000c0 c1 3d 25 3e 18 d7 d4 3e 4c 4c 20 bf e3 90 94 be
       0.16136838 0.41570354 -0.6261642 -0.2901679
0000d0 ab 4d 93 be 92 10 0a 3e fb c7 2e 3e 3b 8d e0 3e
       -0.28770193 0.13482884 0.17068474 0.4385775
0000e0 a5 c2 8d 3e 63 db 3f 3e 71 99 5a be f5 58 8c 3e
       0.27687564 0.18736033 -0.21347596 0.2741162
0000f0 4c f9 a8 3e 99 78 fb bd f2 cc 8c be 5a a7 17 bd
       0.33002698 -0.122788616 -0.2750011 -0.037024833
000100 81 7b b9 be c8 72 d8 bd 55 d5 e6 be b2 fa c4 be
       -0.36227039 -0.10568768 -0.45084634 -0.38472515
000110 36 d8 08 be 9d 3e b9 be 83 9b ad bc e0 d7 18 3e
       -0.13363728 -0.36180583 -0.021192318 0.149261
000120 17 ca 3a bb ec 1a 72 3e a9 80 11 be 45 62 1c 3f
       -0.0028501803 0.23643082 -0.14209236 0.6108745
000130 72 ca d8 bd 8b 6d 9d bc a2 67 80 be e7 eb f0 3e
       -0.105854884 -0.019217273 -0.25079066 0.4705498
000140 56 69 d7 3d ec 36 06 3e c6 6d d9 3d 0f 53 bd 3d
       0.10518138 0.13106889 0.10616641 0.09244358
000150 8d 7c 78 3e da 35 96 be e4 7d 68 be a8 0b e2 bd
       0.24266262 -0.2933796 -0.22704273 -0.110373795
000160 93 98 ef 3e 65 23 1f bc 73 3a 08 bf 2a 1c 1c bf
       0.46796092 -0.009713029 -0.53214186 -0.60980475
000170 46 a8 fd bd 7d 13 2d bf 00 7c 48 3f da 43 52 bc
       -0.12385611 -0.6760786 0.7831421 -0.01283356
000180 8d 87 d8 bd 0c 7a 33 be f0 d7 05 3f 16 8d 68 3e
       -0.10572729 -0.17527026 0.5228262 0.2271007
000190 96 35 a8 be 76 f4 55 be 07 9b b2 3e 71 5a 3a be
       -0.32853383 -0.20894036 0.348839 -0.18198563
0001a0 71 5a 11 bf 5a c2 7f 3d a8 aa 60 3d 72 2e e7 be
       -0.5677863 0.062441207 0.05485025 -0.45152622
0001b0 9b b9 ba 3e b6 55 21 3e e0 73 63 bf 5f 53 bd be
       0.3646973 0.15755352 -0.88848686 -0.3697767
0001c0 20 1b 90 3e 94 53 55 3e f5 de 09 3f 91 74 ae 3d
       0.28145695 0.20832664 0.5385583 0.08518327
0001d0 ca b5 fa 3e fc f3 9b 3e f6 69 9f 3e cd eb 7a be
       0.4896682 0.30459583 0.3113553 -0.24504013
0001e0 de 9e bd 3e 9f fa 98 bc 25 35 09 3d c9 74 2c 3e
       0.3703527 -0.018674193 0.03349795 0.16841425
0001f0 9f dd c3 bd 32 bf 99 3d 71 47 68 be 88 f5 6e 3e
       -0.09563755 0.07507171 -0.22683503 0.2333585
000200 b4 7a 4e bd 5b 5f 07 3e 5f 63 8d 3e 2b 5c 9b 3e
       -0.050409988 0.13219969 0.27614877 0.30343756
000210 3b 2c b6 bd a2 ea 80 3e 41 48 8f be cd 95 12 3f
       -0.08895155 0.2517901 -0.27984813 0.5725983
000220 71 de e1 3d 89 5a 10 bf 2c 05 85 be 98 1a 3d 3e
       0.110287555 -0.56388146 -0.25980508 0.18467176
000230 d6 a1 45 be f6 45 a5 3e d5 3d f0 bd 23 ec 6f 3e
       -0.19300017 0.32279938 -0.117305435 0.23429923
000240 72 59 be 3d d4 ae ab bd a9 8a 82 be 86 13 9c 3e
       0.09294404 -0.08382955 -0.25496414 0.30483645
000250 cb ff e4 3e 93 d0 d2 3d d4 95 70 3e 62 70 f3 bd
       0.44726405 0.102936886 0.23494655 -0.1188667
000260 80 ca a0 bd 74 c8 29 be 77 98 7b 3e a6 13 17 3e
       -0.07851124 -0.16580373 0.2456988 0.14753589
000270 9b ab 98 be e3 8c c4 3e 23 c1 a0 3d bc 85 94 bc
       -0.29818425 0.38388738 0.07849338 -0.018130176
000280 7d 71 10 be 8c 92 32 be 79 6f c8 bd 37 a7 fc 3e
       -0.14105792 -0.17438716 -0.09786887 0.49346325
000290 fb 7f 36 3e e1 6e 80 3e 01 94 e1 bd ab d6 b4 3d
       0.17822258 0.25084594 -0.11014558 0.08830007
0002a0 ae 63 54 3e 61 4f 0b 3e 10 54 1f be 93 b0 8d 3e
       0.2074115 0.136045 -0.15559411 0.27673778
0002b0 11 cc d7 be 02 ab db be 59 65 70 3e 68 c0 1c be
       -0.42147878 -0.42903906 0.23476161 -0.15307772
0002c0 57 20 04 3e aa 17 f6 bd 77 64 9a 3e f3 45 49 be
       0.12902962 -0.12016232 0.30154774 -0.1965559
0002d0 f0 d8 37 3f a8 b5 65 be 97 90 94 bd c7 86 ff 3a
       0.71815395 -0.22432578 -0.07254141 0.0019495123
0002e0 08 7e 27 be 95 7a 91 3e 54 75 14 be 4f 2e 2e 3e
       -0.16356671 0.28413835 -0.14497882 0.17009853
0002f0 66 6c 93 be 40 a0 16 be 02 f0 1c be e4 d9 b7 3d
       -0.2879364 -0.14709568 -0.1532593 0.08977106
000300 19 41 50 be 7d 82 12 3e 11 0d 51 be d5 6a a5 3e
       -0.20337333 0.1430759 -0.2041514 0.3230807
000310 bd 5f 7b be 97 e3 de 3c a3 49 31 bd 61 56 81 be
       -0.2454824 0.027208133 -0.043283116 -0.25261214
000320 57 e7 85 3e c6 0a f8 bd dc 80 43 3e 1a ea fb 3d
       0.2615306 -0.1211143 0.19092125 0.12300511
000330 e8 a9 d5 bc 86 41 35 3e 96 ed de 3d 58 75 35 3d
       -0.026081994 0.17700776 0.1088516 0.04430136
000340 db ae 5a be f5 f1 9c 3d a8 65 84 be e1 9e 44 3e
       -0.21355765 0.07663337 -0.25858808 0.19201232
000350 65 bd a9 bd 29 6f b9 3e 2d 08 a9 be c7 28 9d 3e
       -0.08288077 0.3621762 -0.3301405 0.30695173
000360 ef 83 97 3d 42 d5 a0 be a2 02 88 be bd 7f 29 be
       0.07398211 -0.31412703 -0.2656451 -0.16552635
000370 2a de 66 3c e8 02 37 3e ae 5d 1d 3d 2a af ef bd
       0.014091054 0.17872202 0.038419418 -0.11703332
000380 7b 7a 98 3e 9f 40 62 be 23 2d e0 bc f4 17 8e 3c
       0.29780945 -0.22094963 -0.027365273 0.017345406
000390 87 79 a1 be d2 77 3a 3e 7e fe ff be 84 b7 9c be
       -0.3153803 0.1820977 -0.4999885 -0.3060876
0003a0 75 f1 0f 3e f7 2c 96 3e 5c 69 27 3e 09 46 7b 3e
       0.14056952 0.2933118 0.16348785 0.24538435
0003b0 eb b6 12 3d a1 dc 45 3f 50 cb 30 be 41 af b0 3d
       0.035818975 0.7728978 -0.17265058 0.08627177
0003c0 cf c9 e6 be 42 f9 c9 bd d4 e4 09 bf 1a 03 09 3e
       -0.45075843 -0.09861995 -0.5386479 0.1338009
0003d0 12 c4 23 3e 85 54 d5 be 0f d3 80 3d e1 e4 9c 3e
       0.15992764 -0.41666046 0.06290256 0.3064337
0003e0 18 a0 bb 3e 61 ee f2 3d 7c de 53 3f c3 bc fd 3b
       0.3664558 0.118618734 0.8276136 0.0077434494
0003f0 45 bc 3f be b7 08 fc be d4 c3 80 3e 52 89 5e bf
       -0.18724163 -0.492254 0.25149405 -0.86928284

bias f4 [20]
000000 b0 07 15 be 2a ab 6c be 60 aa a0 3e 0d d4 91 be
       -0.14553714 -0.23112169 0.31379986 -0.28482094
000010 dc 80 85 be 54 86 1d 3f a9 5a 9c be 0b 24 c3 be
       -0.26074874 0.61533093 -0.30537918 -0.38113436
000020 38 bb 1a bd 20 be 1f 3f d0 66 1b bd bc 22 3d 3d
       -0.037776202 0.6239948 -0.037939847 0.046175703
000030 c8 2d 48 be 96 51 97 3e 10 e9 18 3e 09 58 54 bf
       -0.19548714 0.29554433 0.14932656 -0.8294683
000040 cb 4e 8c be 83 bb 6c bf 3e f3 fe bd 32 cd 17 3f
       -0.27403864 -0.9247362 -0.124487385 0.5929748

weight f4 [20, 20]
000000 fb cd b3 bd 70 f3 a4 3d f5 6c 8e 3e af 3e 57 be
       -0.08779522 0.080542445 0.27817503 -0.21020006
000010 99 1a 53 3f cf fe 8e 3d cc 92 1f 3e 3f 7e 08 be
       0.8246246 0.06982195 0.15583342 -0.13329409
000020 22 7f be 3e 4c a4 9d bd 08 c2 41 3d 8e 3d 2d bc
       0.3720637 -0.07697353 0.047304183 -0.010573758
000030 43 19 cb 3e 77 62 ca 3a 6e e7 20 be cb 2f 60 3e
       0.3966771 0.0015440722 -0.15713283 0.21893232
000040 46 48 2b 3d 85 a5 0a 3f b5 2a a6 3e 8c 68 f9 bd
       0.041816972 0.5415881 0.32454458 -0.12178144
000050 84 53 2b be 14 90 1f 3e 3f 62 83 3d 53 4d 04 be
       -0.16731077 0.15582305 0.06415223 -0.12920122
000060 39 7d f1 3e bd 7a 0b 3f 0a 12 16 bb 4d 21 bd 3c
       0.4716585 0.5448416 -0.0022898936 0.023087168
000070 f3 04 37 be 6c c6 9b be f4 ee ce be 5b de 2b be
       -0.17872982 -0.3042482 -0.40416682 -0.1678404
000080 5c dc 14 be 04 87 c4 3e 7e a1 36 bf c6 b2 37 bf
       -0.14537185 0.3838426 -0.7134017 -0.7175716
000090 c5 f6 20 3e 10 e6 00 3f 44 13 22 be 5a 1b d4 bc
       0.15719135 0.5035105 -0.15827662 -0.025891948
0000a0 06 52 af be 0c 01 dd be b5 84 94 3c 40 29 f0 bd
       -0.34242266 -0.4316486 0.018129686 -0.11726618
0000b0 49 fb 9b bd 05 ee 71 3e 0b da 2d bf 75 8f 8a 3e
       -0.07616288 0.23625953 -0.6791083 0.27062574
0000c0 73 a4 ac 3e 3a fc a0 3e f5 d2 7a be 4d a6 4a be
       0.33719215 0.31442434 -0.24494536 -0.19790001
0000d0 17 97 b9 3e d0 2d 5d be 5c 7e a8 bd 5c e7 47 3e
       0.36248085 -0.21599507 -0.08227226 0.1952185
0000e0 86 5e f4 be 7c c4 fb 3e 04 52 1b 3c 31 07 79 3e
       -0.47728366 0.49173343 0.009480003 0.2431915
0000f0 bb 27 68 be 1b 6c 51 3e 0d 55 85 3d 80 74 57 3e
       -0.22671406 0.20451395 0.06510363 0.21040535
000100 66 0f 35 3d 26 dd 60 be 99 e5 56 3e 0c 1f 8c 3e
       0.04420414 -0.21959361 0.20986022 0.27367437
000110 5f 75 86 bd 4c cb 1b 3e 80 b5 a4 3e 51 c3 c2 be
       -0.065653555 0.1521427 0.32169724 -0.3803964
000120 28 42 92 be 5e d9 76 3e 13 b2 d0 bd c5 88 a7 be
       -0.28566098 0.24106357 -0.10190215 -0.32721534
000130 75 7a b9 bd fc 2d 42 3f fc 5e 6a 3e 24 3a f0 be
       -0.0905656 0.75851417 0.22887796 -0.46919358
000140 b1 4a 04 3f 53 62 14 bf 09 5d 0e bf c6 dd 68 3d
       0.5167647 -0.5796253 -0.5561071 0.056852125
000150 14 31 0a be c7 dd 8d 3c 17 f1 bd bb 8a 45 b3 3d
       -0.13495284 0.017317666 -0.0057965624 0.08753498
000160 37 67 03 3e 64 38 81 bd c7 fa bf 3d 16 79 d0 3c
       0.12832342 -0.06309584 0.09374004 0.025448363
000170 17 bb 88 3e a6 b0 86 3e 62 01 3d 3e 61 a7 b9 3e
       0.26705238 0.26306647 0.18457559 0.36260512
000180 7c 0c cc bc 2b dd 8d be ff 8d d9 be 70 90 60 3e
       -0.024908297 -0.277078 -0.42491147 0.21930099
000190 73 c6 c0 3d 4b a4 16 3d 9a 00 9b 3d b5 64 67 3e
       0.09412851 0.036777776 0.07568474 0.2259701
0001a0 89 e6 36 bd 15 53 8a bd 49 d1 07 3d 73 b2 48 bd
       -0.04465345 -0.06754128 0.033158574 -0.048998307
0001b0 da cf 5f 3e 2e 9c 9b 3e 62 eb 82 bd 84 a2 57 be
       0.21856633 0.30392593 -0.06392552 -0.21058089
0001c0 fc 5d d7 be e6 e5 ae 3e 00 72 6e bd cc b6 2c be
       -0.42063892 0.34159774 -0.058214188 -0.16866606
0001d0 67 80 12 bc 6c b8 1f be b0 8d ad 3e fa 70 e9 3e
       -0.008941746 -0.15597695 0.3389716 0.45594007
0001e0 c8 43 0d be cf a0 76 3e 8d 9c 7e bd 02 12 1b be
       -0.13795388 0.24084781 -0.062161017 -0.15143588
0001f0 15 53 7e be 8e 79 c4 3e 1d c5 1e be 7d 19 1d bd
       -0.24836381 0.3837399 -0.1550488 -0.038354386
000200 9a 6d 13 be 6c a6 31 3e 4a 7a 8a be 82 69 e5 be
       -0.14397278 0.17348641 -0.27046424 -0.4480706
000210 d8 80 d4 3e 3d 92 c4 be d7 66 82 3e 1b 11 51 3e
       0.4150455 -0.3839282 0.25469086 0.20416681
000220 69 b0 d7 3e a6 95 23 3e 3a d9 4f bd e7 d9 99 be
       0.42126778 0.15975055 -0.050744273 -0.3004906
000230 69 c0 8a be 48 3d 6e be 32 e9 0c bf 07 14 8c 3e
       -0.27099922 -0.23265564 -0.5504333 0.2735903
000240 2f 8a 44 bf b9 cf 99 3e fe ec 9b 3e 45 11 0b 3e
       -0.7677335 0.30041292 0.30454248 0.13580807
000250 94 e2 7a bd 63 91 58 3c 5e 99 d4 3e 91 fa ca be
       -0.061251238 0.013218257 0.4152326 -0.39644292
000260 ff 7f a6 3e db 8c 71 be 1a 19 8a bd 8f 26 b2 3e
       0.32519528 -0.23588888 -0.06743069 0.34795043
000270 08 ad 9e 3c 7f 5c a1 be 12 ac c8 be 8a dc 7a 3d
       0.019369617 -0.3151588 -0.3919378 0.06124548
000280 38 1a 84 3e d5 32 0f 3c f8 e1 13 be 34 3a b3 be
       0.25801253 0.008740147 -0.14441669 -0.35005343
000290 83 25 08 3e 19 a7 12 3e b7 19 3f be 0a 8c 21 bd
       0.1329556 0.14321555 -0.18662153 -0.039440192
0002a0 5e 3a 0e 3d f8 6e f4 bd 0a 3a 2b 3d ac 77 f4 bd
       0.034723632 -0.11935228 0.041803397 -0.11936888
0002b0 fe ed 7b 3e 06 36 4e 3e 95 df 00 3e b9 3e 5b be
       0.24602506 0.20137796 0.1258529 -0.21410646
0002c0 b4 8f 20 bd e9 15 61 bd 5e b8 44 3e c7 fa d8 bd
       -0.039199546 -0.054952536 0.19210956 -0.10594707
0002d0 16 42 c3 3e 1c d6 ac 3c 27 19 d1 bd 7f f4 bf bd
       0.38136357 0.021098189 -0.102098756 -0.09372806
0002e0 18 80 2e be 68 ae 2c be 4e 4c bd bd ac 52 0c 3d
       -0.17041051 -0.16863406 -0.092430696 0.03425853
0002f0 d2 b1 2b bd 5d 64 de 3e e3 8a db bd 14 20 b3 bd
       -0.04191763 0.43435946 -0.1071985 -0.08746353
000300 31 d9 cc be b7 2d 6a 3e bd a0 ff 3e 9f 16 03 3d
       -0.40009454 0.22869001 0.4992732 0.032003995
000310 ee 2d 56 be f6 c9 26 bf 8e 5f 59 be 0b dd 42 3e
       -0.20915958 -0.6515192 -0.21227857 0.19029634
000320 7f 75 49 3d 58 09 38 3f a3 17 d3 3e 75 a4 b1 3e
       0.04918432 0.7188926 0.4122897 0.34695783
000330 25 3f e6 be c3 58 03 3e 4a b1 5e 3e b0 42 25 be
       -0.4497005 0.12826829 0.21747318 -0.1613872
000340 dd 33 30 bd 79 a0 59 3e 6f 12 4e bb 44 84 1c 3e
       -0.04301821 0.21252622 -0.0031444093 0.1528483
000350 f8 ae 08 bf f2 53 3a 3f 14 bb ba 3c a3 3a 66 bf
       -0.5339198 0.7278434 0.022794284 -0.8993322
000360 60 a2 9f 3d bf d5 19 bf 5c b2 90 bd 6d 24 e8 bd
       0.077946424 -0.60091776 -0.07065269 -0.11335073
000370 69 0f 98 bd fd ca 3c 3e 2c 21 ef 3d cf aa 72 be
       -0.07424814 0.18436809 0.11676249 -0.23697971
000380 b3 e1 ce bc 5e 35 b2 3e f7 a5 2c be 07 1b bb 3d
       -0.025254106 0.3480634 -0.16860186 0.091360144
000390 4e 6f 6d be 0d b5 bd be 79 50 ab be 1e 75 1e bd
       -0.2318699 -0.37052193 -0.33459833 -0.03868591
0003a0 2f 47 2b bd 0b 22 ab be 62 76 5e 3c d4 2f 8a be
       -0.041815933 -0.3342441 0.013578029 -0.26989615
0003b0 2a c8 59 3e 1c d9 13 3f 39 d2 a4 bd b5 24 1d 3e
       0.21267763 0.5775316 -0.08047909 0.15346034
0003c0 9f 85 f3 3e 80 a9 b3 be ed 5f bd be 1f b0 93 3e
       0.47562882 -0.35090256 -0.36987248 0.28845307
0003d0 00 d0 03 bf 9f a9 2f bf 55 26 a4 3e be b2 a0 be
       -0.5148926 -0.68618196 0.32060495 -0.3138637
0003e0 5b 88 83 3e 28 a5 c5 3e 70 99 09 3d 49 49 2e be
       0.25689968 0.38602567 0.033593595 -0.17020144
0003f0 44 13 0f 3d 68 dd 25 3e 81 1f 11 3f 82 8e a1 3f
       0.034930483 0.16197741 0.56688696 1.2621615

bias f4 [20]
000000 0f 04 33 be 7a ae 0a 3e 16 96 64 3e 06 ce 10 be
       -0.17482017 0.1354312 0.22322878 -0.14141092
000010 de 4e dc bd e5 c9 8d bc 78 cf 3c bd 3f 0d 92 be
       -0.1075723 -0.017308185 -0.046096295 -0.2852573
000020 f6 e5 e3 bb 83 f4 c1 3c 0c fb 7f 3e be 84 b0 bd
       -0.0069549037 0.023676163 0.2499811 -0.086190686
000030 52 e2 06 bf 7d ca 3f 3d 57 7e c8 be 3d a2 8e be
       -0.5268909 0.046823967 -0.3915889 -0.27858153
000040 8c ac ab bb 91 7e d7 3d 78 5d 7a 3f 40 77 e2 be
       -0.005239075 0.105221875 0.9779887 -0.44231606

weight f4 [20, 20]
000000 57 15 96 3e a5 6e b0 bd 23 d2 a8 3e ec 8e e4 bd
       0.29313156 -0.08614854 0.32972822 -0.11160073
000010 8a 69 a6 bb 31 2e e8 3d 26 a6 ae bd 4c 21 39 3d
       -0.005078499 0.11336935 -0.08527784 0.04519777
000020 d6 97 da 3e 4a 88 04 be f4 90 eb be fb f4 e3 3c
       0.42693967 -0.12942615 -0.46009028 0.027826777
000030 7a 67 95 3e 58 75 fd bc 76 65 c9 3e a9 00 88 be
       0.2918051 -0.030939743 0.3933522 -0.26563004
000040 55 99 80 3e 09 f0 4d bd 02 32 68 bf 06 35 99 3e
       0.25116983 -0.050277743 -0.90701306 0.29923266
000050 0a 2e a8 3c 90 1c 09 be 12 93 88 3e a5 54 2c be
       0.020529766 -0.13389802 0.26674706 -0.16829164
000060 c2 58 c6 bc 88 3b 53 be 7b 9f 1a 3e 97 90 56 be
       -0.024212245 -0.20628178 0.150999 -0.20953594
000070 f7 45 d4 3e ea 89 76 be 27 a3 69 3c 37 9b df bd
       0.4145963 -0.24076048 0.01426009 -0.10918277
000080 ba b4 75 be fe 73 28 3c a5 96 fa be 1b f2 e3 be
       -0.23994723 0.010281561 -0.48943058 -0.4452065
000090 5d 8d 8e be 65 0d 83 3e 24 26 af 3e 4c cc 94 3c
       -0.27842227 0.25596157 0.34208786 0.018163823
0000a0 d1 65 ce 3e fd 9a 32 3e 65 f1 f0 bd 5f 7f 0e 3e
       0.40312055 0.17441936 -0.11764792 0.13915776
0000b0 e3 fc df be 9d c8 33 be 88 d4 2e 3c 9a 5d bc 3b
       -0.43747625 -0.17556997 0.010670789 0.005748463
0000c0 98 eb c1 bb 69 08 c5 bd 64 fc 8b bd b8 26 e1 bc
       -0.0059179775 -0.09620745 -0.06835249 -0.027484283
0000d0 4f 0c 87 bd 23 9e d7 3e 5d ea bc bd d4 8f 9c bd
       -0.065941446 0.42112836 -0.09224389 -0.076446205
0000e0 65 e4 10 3b 93 41 ff be 76 09 1b bf a5 61 c4 3d
       0.002210879 -0.49854717 -0.6056131 0.09588937
0000f0 0c cb 90 be ab 2a 50 3d 3e 5b 8f 3e f2 83 b3 3d
       -0.28279912 0.05082194 0.279993 0.08765401
000100 31 ce 37 3e 8f c7 6b be f2 5e 23 3d 5c ab db 3e
       0.1794975 -0.23025344 0.03988547 0.42904174
000110 46 fd 63 3d 41 5a 07 be e9 e9 64 be 66 6a 8e be
       0.055661462 -0.13218023 -0.22354855 -0.2781555
000120 f1 e3 4d 3f 73 11 ae 3e 8b 67 32 3f 20 12 98 3e
       0.80425936 0.33997688 0.69689244 0.29701328
000130 55 cd 54 3d 4a dc 40 3f 16 58 f8 3c cf 4b 91 3e
       0.051953632 0.75336134 0.03031544 0.2837815
000140 b7 c8 2b be 8a a8 b4 be 2c 55 f9 3e c9 7b 1a 3e
       -0.16775785 -0.35284835 0.48697793 0.15086283
000150 b8 96 7b 3c dd 0e 11 bd 62 de 78 bd 56 0d f6 bd
       0.015355758 -0.035414565 -0.060758956 -0.120142624
000160 bb cd 93 3e 8c a6 e1 be 8a a9 f7 be eb a7 a4 bd
       0.28867897 -0.44072378 -0.48371536 -0.0803984
000170 82 76 3d be 24 10 db 3d ab 60 64 be 8d 77 8b 3e
       -0.18502238 0.10696438 -0.22302501 0.27239648
000180 f1 2f 4b be 30 fb 2e bd e2 a8 23 bf 45 da ac 3d
       -0.19842507 -0.04272002 -0.6392957 0.08440069
000190 18 a0 06 bf fa 6b 5a bd 27 3a 9d 3e 98 06 b2 bd
       -0.52588034 -0.05332563 0.3070843 -0.08692664
0001a0 d9 91 6d 3e ee b7 e2 bc 16 2b 6a be 46 b9 bf 3d
       0.23200168 -0.027675595 -0.22867998 0.0936151
0001b0 c0 72 bb 3d 54 a6 15 3e 65 f9 51 be d2 6d de be
       0.09152746 0.1461423 -0.20505293 -0.4344316
0001c0 63 84 e1 ba 49 49 42 3e a2 db ed 3d a0 7a c4 3e
       -0.0017205592 0.18973269 0.11614157 0.38374805
0001d0 87 1c d8 3b 43 77 9d 3e 62 74 86 bd 5e 3a 73 be
       0.0065951976 0.30755052 -0.06565167 -0.23752734
0001e0 7d d7 3a 3e d4 8b 3b bf b1 9c 24 3b b1 cf b4 bd
       0.18246265 -0.73260236 0.002511781 -0.088286765
0001f0 fa 52 cc be 1d 34 32 3d b0 b6 3c be 1e ba 04 3f
       -0.39907056 0.04350673 -0.18429065 0.5184649
000200 4b f1 11 3e 87 1b 62 3d f9 d3 13 bf e2 94 80 be
       0.14252202 0.055202033 -0.5774532 -0.2511359
000210 88 89 e4 3d f8 30 f1 3e ec d8 06 3e 24 4a f2 3d
       0.111590445 0.47107673 0.13168687 0.118305475
000220 72 cb 56 3e 69 e0 3b 3f fd 69 47 3e 7f f8 bb 3e
       0.20976046 0.733893 0.19474025 0.36713025
000230 4d 17 d2 bd bd c9 ef be 11 70 06 3e 60 d2 18 3d
       -0.102583505 -0.46833602 0.13128687 0.037310004
000240 81 ae 57 3e 8a a8 3b be 86 df dc 3d 17 7b 66 3e
       0.21062662 -0.18326011 0.10784821 0.22507893
000250 87 85 68 3e 9f 63 87 be 52 2f c5 be f0 71 6a be
       0.22707187 -0.26443192 -0.38512665 -0.22895026
000260 df dd d1 3e f5 52 7d 3e 25 a1 04 3c f3 7b 1b bd
       0.40989587 0.24738677 0.0080950605 -0.037960004
000270 fa 2e 9b be b8 8a ab bc 98 39 96 be a0 e7 ad 3e
       -0.30309278 -0.02094017 -0.29340816 0.33965778
000280 01 31 b4 be 2f e9 e2 bd 40 09 43 bc 95 3f 8c 3e
       -0.35193637 -0.110796325 -0.011904061 0.2739226
000290 8e b0 83 bd 53 64 ab be ea 30 17 3d cd e1 72 be
       -0.064301595 -0.3347498 0.036911882 -0.23718949
0002a0 c5 a2 f1 bd 6a a6 9f 3e bf 3c 58 3e d5 83 7c be
       -0.11798624 0.3118165 0.21116923 -0.24659665
0002b0 ae 0a ef 3d c4 3e 4c 3e a2 ce 9c 3e 18 1d 27 bc
       0.11671959 0.19945818 0.30626398 -0.010199808
0002c0 50 76 c4 bc ad e0 5e bd 4a 65 41 3d 19 56 58 3d
       -0.023982197 -0.054413486 0.047215737 0.052816484
0002d0 ce 23 32 3e 38 cb 67 3e be 67 e6 3d c9 08 87 bd
       0.17396471 0.22636116 0.11250256 -0.065934725
0002e0 8f 1d 65 bd 64 80 ca 3c 77 6f 6b be ea d7 14 3e
       -0.055936392 0.024719425 -0.22991739 0.1453549
0002f0 c5 0e 17 3d 6a 20 e3 be 68 5b 4d 3c 03 8d 1d 3d
       0.03687932 -0.44360667 0.012534 0.038464557
000300 7d cb 26 bf 8f 37 dc 3e f0 f1 9e be dd 01 06 3d
       -0.6515425 0.43011138 -0.3104396 0.03271662
000310 6e d4 74 be 21 bf b2 be 23 82 03 bf e4 63 d8 3d
       -0.2390916 -0.34911445 -0.5137045 0.105659276
000320 b3 e4 23 be df 1c 81 3e 74 17 ca 3e 77 77 d1 3e
       -0.1600521 0.2521734 0.39471018 0.40911457
000330 8c 33 43 be 49 77 82 3e f4 dc 74 bd 0b 78 a9 be
       -0.19062632 0.25481632 -0.05978103 -0.33099398
000340 8c b1 0e 3d 30 b8 58 be 8f a6 ef 3e 66 ec 24 3e
       0.03483729 -0.21164012 0.46806762 0.16105804
000350 18 49 df be 9c 8e dd be 46 55 a2 be d6 54 07 3c
       -0.43610454 -0.43272865 -0.31705683 0.008259973
000360 73 58 8d 3e 24 70 b9 bd 76 3e b3 3e af 9d c6 be
       0.27606544 -0.09054592 0.3500859 -0.38792178
000370 2f 03 f8 be 10 70 67 3b e2 73 93 bd 31 45 a3 3d
       -0.4843993 0.0035314597 -0.07199837 0.079721816
000380 1e 9a b6 be c1 31 22 3e f4 26 87 be ff f8 01 3f
       -0.35664457 0.15839292 -0.26396906 0.5077056
000390 0c e9 44 be 21 7a b6 bd 21 3c 4d bd e8 1e b2 3d
       -0.19229525 -0.08910013 -0.05010617 0.08697301
0003a0 64 9b 99 3e aa 38 19 3e a5 52 20 3e 5e 5d 20 be
       0.30001366 0.14963022 0.15656526 -0.15660617
0003b0 8c d9 1d 3e fc cb 40 3d de 11 00 3c 0d 84 a1 bc
       0.15415019 0.047069535 0.00781676 -0.019716287
0003c0 6e 44 51 bd b5 fa 9c bd d5 a6 d9 3d cd 7a 6e bd
       -0.05109065 -0.07665006 0.10627524 -0.05822258
0003d0 63 31 9d be a8 76 81 3e 5d aa a2 bd ef 95 7b be
       -0.30701742 0.2528584 -0.079426505 -0.24568914
0003e0 7f 0d c7 3d 7a 98 a0 be a4 e4 33 3c 0f a0 2f 3d
       0.09719371 -0.3136633 0.010979805 0.042877253
0003f0 21 52 e4 be 94 c7 6a 3e 86 5c 16 bf 10 a4 ad bd
       -0.4459391 0.22927696 -0.5873493 -0.08478558

bias f4 [20]
000000 c6 ee f2 be 85 fc 92 3e 15 41 ac 3d c2 e5 24 be
       -0.47447795 0.28708282 0.08410851 -0.1610327
000010 01 d8 1c be b5 54 d3 3d 82 69 e5 be 73 e1 6f be
       -0.15316774 0.10318891 -0.4480706 -0.23425846
000020 0a 39 ae 3d ec c8 29 3e 0d 6a e3 3e de ef 16 be
       0.08506973 0.16580552 0.44416848 -0.1473994
000030 ed f6 3a be c8 46 f0 be d6 21 31 3d 83 4b 34 3e
       -0.18258257 -0.46929002 0.04324516 0.1760693
000040 6b 6e 05 be e3 ed 56 bd 4d f9 7c 3d 28 50 1f be
       -0.13030402 -0.05247296 0.06176119 -0.15557921

weight f4 [20, 20]
000000 2c 14 8c 3e f6 34 de 3c 6d 23 2c 3d d5 97 e7 3e
       0.2735914 0.027124863 0.042025972 0.45233026
000010 b5 69 9f bd de a1 69 3e dc 39 62 3e a2 5c 23 bd
       -0.07783834 0.22815654 0.22092384 -0.039883263
000020 41 36 43 be 7a fd 83 3e 6b ff 3a bd 21 4e a6 3e
       -0.19063665 0.25779325 -0.04565374 0.32481483
000030 ae 0f 76 3e 09 bd 93 3e 65 61 09 bf f9 38 f4 3d
       0.24029419 0.2885516 -0.5366424 0.11924929
000040 02 56 52 3e 95 6c a6 3e 5d 56 ff be 29 43 17 bf
       0.20540622 0.32504717 -0.49870577 -0.59086853
000050 c3 82 a4 3e b9 e3 ea bd aa d2 8b bc a6 65 d8 bd
       0.32131013 -0.11469216 -0.017068226 -0.10566263
000060 65 8d 56 3d df 04 19 3e be c6 49 be 60 20 43 3e
       0.052380938 0.14943264 -0.1970472 0.19055319
000070 8a 4a 0f 3e 9a e0 8d 3d 7e e0 92 be 9c 98 fd bd
       0.13993278 0.06927605 -0.286869 -0.123826236
000080 9f 0a 5c 3e c2 99 2f 3e cf 4f 35 be 2b 06 c4 be
       0.21488427 0.17148498 -0.17706226 -0.38285956
000090 1a a4 93 3e ed 2f 18 3e d3 0e f7 be 69 8c 85 3d
       0.28836137 0.14862032 -0.48253497 0.06520922
0000a0 27 5a 03 bf aa ab 55 bd 60 22 88 be 25 03 02 bf
       -0.51309437 -0.052165665 -0.26588726 -0.5078605
0000b0 aa ae 94 be e8 04 9d be 18 aa b5 bd cc 05 ce be
       -0.29039508 -0.30667806 -0.088703334 -0.40238798
0000c0 06 bc 99 bc 07 98 99 bc 76 54 58 3e c9 7c dd be
       -0.018766414 -0.01874925 0.2112597 -0.43259266
0000d0 88 3f 4f be 60 b2 7f be cb 40 52 3f e2 b9 50 3e
       -0.20239079 -0.24970388 0.82130116 0.20383409
0000e0 f6 6c e4 3c 8f 71 8d be a4 fe 04 3f 6d 69 0c 3f
       0.027883988 -0.276257 0.5195105 0.54848367
0000f0 68 96 c1 be ca dc 82 3e 83 6f c6 be ab 52 d1 be
       -0.37810063 0.25559074 -0.38756952 -0.40883383
000100 35 bc ea bd e5 46 89 bd ef 9c e1 be c8 91 65 be
       -0.11461679 -0.06702975 -0.44065043 -0.22418892
000110 ae c8 12 be 40 c4 7e 3e 78 da c9 3e be 36 b8 bd
       -0.14334366 0.24879551 0.3942449 -0.08994816
000120 d5 eb 3a 3d b5 70 b2 bd cd f3 fe 3e 20 2b 94 3e
       0.045635063 -0.087129034 0.4979538 0.28939152
000130 04 ed dc be f0 1f 5a bc d3 a1 e0 3e 89 89 7d 3d
       -0.4314958 -0.013313279 0.43873462 0.061898742
000140 0e ba 27 be f9 66 52 be b6 ef 3c be 7b 9c 4e be
       -0.16379568 -0.20547093 -0.18450817 -0.2017688
000150 61 46 d5 be 81 28 8c be f1 96 07 bf e2 df e1 be
       -0.41655257 -0.27374652 -0.52964693 -0.44116122
000160 51 c5 b7 3d 4d 51 9d be b9 ea 0e 3f 7d 31 f2 bd
       0.08973182 -0.3072609 0.5582691 -0.118258454
000170 ca 32 a3 be 1b 61 aa bd 27 fb 8f 3d 62 0f 8c be
       -0.31874686 -0.08319303 0.070303254 -0.27355486
000180 ee 44 6c bd 67 75 69 bd 24 5a 7c 3d 33 b1 e0 be
       -0.057682924 -0.05699673 0.061609402 -0.43885192
000190 80 73 7b be 36 32 8f bd 08 c5 20 bf 90 b4 1c 3e
       -0.24555779 -0.06991999 -0.62800646 0.15303254
0001a0 01 a5 34 bf 5b e7 61 be e7 4a 92 bd ab 76 9d be
       -0.70564276 -0.22060911 -0.07143193 -0.307546
0001b0 41 02 9a 3e d6 2a 4d be ec 67 6f bc 07 4d 8f 3e
       0.30079845 -0.20035872 -0.014612179 0.27988455
0001c0 f5 60 83 be 4b 73 05 bf 60 3d ec 3d 58 a3 dc 3e
       -0.2565991 -0.5212905 0.11535144 0.4309337
0001d0 20 92 95 3e 53 cd 12 be b8 e6 2e 3e 85 45 40 3f
       0.29213047 -0.14336137 0.170802 0.7510608
0001e0 d9 4a 02 be a9 f7 39 be 98 ab 16 be 79 2d ae 3e
       -0.12723865 -0.18160881 -0.14713895 0.34019068
0001f0 c6 31 d9 3d 78 f4 34 bd 91 4d 8a 3d d6 bb 9a be
       0.10605197 -0.044178456 0.06753076 -0.30221432
000200 91 63 4d 3e d4 b5 c6 bd 1e 51 fa 3d 56 ee 5f 3d
       0.20057513 -0.0970265 0.12222503 0.054670654
000210 5a 4e 9e be 0e d5 da be 3f ef 19 3e ff b4 0e bf
       -0.30919152 -0.42740673 0.15032671 -0.5574493
000220 ec 9b 10 3d 60 2a 65 be 49 45 a8 bd 84 48 d5 be
       0.03530495 -0.22379446 -0.0821634 -0.41656888
000230 cd a5 98 3e 0d 85 40 be 0b 4f a2 bd b0 9b 49 3e
       0.29813996 -0.18800755 -0.079252325 0.19688296
000240 1e 87 61 3e 50 85 75 be e7 2b ff bd 6f 97 0f be
       0.220242 -0.23976636 -0.124595456 -0.14022611
000250 8d d0 18 3e 42 27 ca bd d0 45 c7 3d 78 f5 c7 bd
       0.14923306 -0.09870769 0.097301126 -0.09763616
000260 56 06 ee bc 5f 97 7c bd bf 37 9e 3c 0d f8 b3 be
       -0.029055756 -0.061667796 0.019313691 -0.35150185
000270 92 d4 06 be fb 69 8b 3e 69 89 f9 be d2 de 94 be
       -0.13167027 0.27229294 -0.48737648 -0.29076248
000280 8d ec a6 bd e1 cd e5 be db 86 38 bd 93 68 d9 3e
       -0.08150587 -0.44883636 -0.045050483 0.42462596
000290 94 cc da 3b 35 f0 34 3e 1b 32 62 3d 5f 9d 9e 3e
       0.0066772196 0.17669757 0.055223566 0.3097944
0002a0 3f 18 0b 3f e2 ad da bd 5a 9a 94 be 95 f7 0a 3c
       0.5433387 -0.10677697 -0.2902401 0.00848188
0002b0 d9 aa 4d be 3c 97 ec be 28 20 90 be 6c 2c 3d 3e
       -0.20084704 -0.46209133 -0.28149533 0.18473977
0002c0 4e 0c d3 3e 7f bc df be e5 c9 17 3d 53 57 40 be
       0.41220325 -0.436985 0.037057776 -0.18783312
0002d0 bd 58 b1 be 3c ae 8b be f2 b8 77 be d3 09 04 3f
       -0.34638014 -0.27281368 -0.24191645 0.5157749
0002e0 6c 90 c6 bd 06 0f b4 3c 30 90 1e 3e d8 3d 35 be
       -0.09695515 0.02197982 0.1548469 -0.17699373
0002f0 24 e0 64 bb bf be 0c be 41 7e 0e be 67 53 07 3d
       -0.0034923637 -0.13744639 -0.1391535 0.033038523
000300 a7 aa d6 be c5 9e 1f bf 4c 7d 42 be 3e 73 b8 be
       -0.41927072 -0.6235164 -0.1899311 -0.36025423
000310 e9 a8 dc 3d 0f d5 4b bf e4 fa 1d be 63 7a ba bd
       0.107744046 -0.79621977 -0.15427738 -0.09105375
000320 30 0f 8f 3e 37 f4 a6 3e ab b9 3f 3e 50 42 2c 3d
       0.27941275 0.32608196 0.1872317 0.042055428
000330 5b 8c 16 be 0e e9 ba 3d b2 39 aa 3e 55 3d 44 bd
       -0.14701979 0.09126483 0.33247143 -0.047910053
000340 bf a6 f6 bd 5f 0f 6f 3e f2 15 67 bd 8c 04 92 be
       -0.12043523 0.23345707 -0.056417413 -0.28519094
000350 0e b4 a3 be 08 b5 89 bd ae 20 54 be 58 a0 ca 3e
       -0.31973308 -0.06723982 -0.20715591 0.39575458
000360 31 81 95 bb 19 4d 5e be 2d df 1f 3d 95 f8 1d be
       -0.00456252 -0.21709098 0.039031196 -0.15426858
000370 11 ec 8f 3d 34 47 95 3e a9 f0 d5 3d d6 14 3c 3b
       0.07027448 0.29155886 0.10446293 0.0028698943
000380 11 4f a1 be f5 8d dc bb 06 e2 cb bc c2 01 82 be
       -0.31505635 -0.00673079 -0.02488805 -0.25391966
000390 50 54 62 3e dc 16 90 be 26 d2 d5 3e 63 70 d4 3d
       0.22102475 -0.2814244 0.41761893 0.103729986
0003a0 81 da 11 3e e1 dc f4 be 38 2c a1 bd 27 59 74 3e
       0.14243509 -0.47824767 -0.07869762 0.23862134
0003b0 8d 13 59 3e d8 1a 18 bf 40 59 46 3f 60 e6 35 be
       0.21198864 -0.5941596 0.77479935 -0.17763662
0003c0 18 99 39 3e b9 2c d8 3d af f6 04 3f 3a 39 ce be
       0.18124807 0.10555405 0.5193891 -0.40278035
0003d0 26 5b c2 3d af 2d 08 3d b6 ae d1 be 12 2a 9a be
       0.094900414 0.033246692 -0.40953606 -0.30110222
0003e0 12 77 01 3e 94 f4 15 3f b0 d0 ff 3d 74 e3 cf be
       0.12643078 0.5857632 0.12490976 -0.4060322
0003f0 7e 44 ac 3e 77 77 3c 3f 1c 95 e3 3e c5 9f 35 3d
       0.33646005 0.7361979 0.444497 0.04434182

bias f4 [20]
000000 6a 5c a4 be 64 68 bc 3d 16 4c c3 3e 84 7e 8d 3e
       -0.32101756 0.091995984 0.38143986 0.27635586
000010 45 64 1f 3e a6 05 28 be 08 8b 71 3e 18 cf 4e 3e
       0.15565594 -0.16408405 0.23588192 0.20196187
000020 f6 24 53 3e 79 36 06 be fd 6f 73 3d d5 a6 95 3d
       0.20619568 -0.13106717 0.059432972 0.07307211
000030 c4 86 f1 bd 28 87 03 be f5 ea a6 3e ab 2c 8d be
       -0.11793283 -0.12844527 0.32601133 -0.2757314
000040 c8 fe 00 3d 62 83 52 3e 65 3d 3f be 7b 97 b9 3e
       0.03149298 0.20557931 -0.18675764 0.36248383

weight f4 [20, 20]
000000 cf de 2a 3d f7 18 81 bb 16 ff 1d bf 33 54 c2 be
       0.041716393 -0.0039397436 -0.61717355 -0.37954864
000010 9f ab f8 3d b1 32 12 3d 06 f7 35 3e ca f1 e7 3c
       0.12142109 0.035692874 0.17770013 0.028313536
000020 e6 1d a0 3e 5d a4 e5 3e cf df 40 bd 42 a5 a5 bc
       0.3127281 0.44851962 -0.04708844 -0.020220403
000030 0f e8 da bd 1f d6 c3 3e 38 68 9d 3c f0 ac 44 3d
       -0.10688793 0.382493 0.019214734 0.04801649
000040 80 93 17 bf e3 94 de 3e 0b b3 27 3e ba 61 57 3d
       -0.5920944 0.43472967 0.16376893 0.052583434
000050 ba 7c 1b bd 47 72 fb 3e 9f 57 a9 3e 7b d3 ad 3e
       -0.037960745 0.49110624 0.33074662 0.3395041
000060 81 cb b3 be 2e cb 90 3e 2f 15 de be 3d fd 89 be
       -0.351162 0.28280014 -0.43375537 -0.26951018
000070 28 c5 7c 3e 3c df 18 3d fb 77 e9 3d d0 82 8b bd
       0.24684584 0.037322268 0.113998376 -0.0681206
000080 f8 d9 15 be 8c 4e 5a be 94 b3 06 3e ad 09 ab 3e
       -0.1463393 -0.21319026 0.13154441 0.3340582
000090 ae 7b 09 3f 68 f8 77 bd 8e ff bd 3d a6 9e 52 bd
       0.53704345 -0.060539633 0.09277259 -0.05142083
0000a0 30 a4 23 bf 87 86 2e be 65 b9 3c 3f a1 f6 88 3e
       -0.63922405 -0.17043506 0.7372039 0.26750663
0000b0 fc 84 08 3f 39 d2 47 3e 53 45 2d 3e 44 67 bf 3e
       0.5332792 0.19513787 0.16920976 0.37383473
0000c0 c8 f4 3d bd 63 13 dc 3d 70 a6 2e be e9 56 15 bd
       -0.04637602 0.10745885 -0.17055678 -0.036459837
0000d0 6d 3f 69 be 17 b5 38 be 9e 43 c1 3e 2d 17 cf 3c
       -0.22778101 -0.1803783 0.377469 0.025279606
0000e0 2c e9 2c 3d ed 67 65 3d 44 e9 05 3c af e2 ea 3e
       0.042214558 0.056007314 0.008173291 0.4587607
0000f0 39 25 b9 3d 05 8d 01 3e c2 0f bf 3e 7e 46 9a bd
       0.09040303 0.12651451 0.3731671 -0.075329766
000100 15 bd 89 be 6e a4 95 be 27 37 cd be 0a d9 9c be
       -0.2690207 -0.29227012 -0.4008114 -0.30634338
000110 e8 67 e0 3d e9 1c 05 3e 7d 1d c5 bc 98 da 8c 3e
       0.109573185 0.1299931 -0.024061913 0.27510524
000120 48 2b a5 3b a8 3c 86 bd df 58 22 be 8a 9b c5 3e
       0.00504056 -0.06554538 -0.15854214 0.3859523
000130 a8 a1 26 3f 29 86 42 be e3 2a 09 bf 9d b0 44 bf
       0.6509042 -0.1899649 -0.53581065 -0.7683199
000140 29 41 b4 3e 91 a3 86 3a 8f fb df bd 2b 0d d8 3c
       0.35205963 0.0010272135 -0.10936653 0.026373466
000150 13 24 68 3f 48 34 28 be 59 b3 0f 3f 67 ca 5a 3e
       0.90680045 -0.16426194 0.5613304 0.21366273
000160 65 27 0b 3e ef 71 6f 3e 02 86 38 be 51 ed 5c bd
       0.13589247 0.23383306 -0.1801987 -0.05393726
000170 59 34 aa be 45 0d 6a 3e e6 0a 2a bd 1a cb 37 bf
       -0.33243063 0.22856624 -0.0415143 -0.71794283
000180 32 38 9a be 32 94 26 3e 59 3f f8 3d 17 7f 9c 3e
       -0.30121 0.1626747 0.121214576 0.30565712
000190 52 c4 77 3e f5 0d 9a be aa a3 bf be ad 2e ad be
       0.24195984 -0.30088773 -0.37429553 -0.33824673
0001a0 6e 80 81 be 90 b7 cc 3e 8f 45 e4 3e 3d 2f f1 3e
       -0.25293297 0.39983797 0.4458432 0.47106352
0001b0 1c 59 7f bd eb 4e 06 3d 24 8f ce 3e 87 de 8b 3e
       -0.06234084 0.032790106 0.40343583 0.27318212
0001c0 88 a2 3d bf 93 9d 19 3f 5d cf 12 be 72 1d 27 3e
       -0.7407613 0.60006064 -0.14336915 0.16319826
0001d0 09 14 08 be 5c b2 9b bd 69 00 9f bd a2 55 11 3e
       -0.13288893 -0.07602379 -0.0776375 0.14192823
0001e0 03 66 5e be 5e 0a 45 3e be 8d ca be aa 1d 8a be
       -0.21718602 0.19242236 -0.39561266 -0.26975757
0001f0 d5 6b e7 3c bb 5a b3 bd 53 54 93 bd a3 f8 44 bd
       0.02824966 -0.0875754 -0.07193818 -0.04808868
000200 6a 86 ef bd 6d 54 ef be bf 71 31 3e cd 2f af be
       -0.11695559 -0.467441 0.17328547 -0.34216157
000210 14 c8 a0 3c 19 76 33 be 94 06 96 be 72 17 e7 be
       0.019626655 -0.1752552 -0.29301894 -0.45135075
000220 dd 2b cd be a8 c2 c6 3d 6d fe 74 3e e7 a1 81 3d
       -0.40072528 0.097050965 0.2392518 0.063297085
000230 6d f3 93 3e 2a aa a7 be 91 70 39 3e 16 69 85 3e
       0.28896657 -0.32747012 0.18109347 0.26056737
000240 9e 08 a3 be 0c 2f 05 3d e9 2e ee bd 95 37 28 be
       -0.31842512 0.03251557 -0.11630041 -0.16427453
000250 12 2a 3f be 39 d9 55 be d2 eb 53 bd b7 33 84 bd
       -0.18668392 -0.20883645 -0.051738568 -0.06455176
000260 56 36 fb 3c b9 4a fc 3d 43 f8 47 3e 24 59 27 3e
       0.030665558 0.1231894 0.19528298 0.16342598
000270 f9 01 4c 3e f6 d4 5c 3c ef c1 83 be 1b 84 67 be
       0.19922628 0.013478508 -0.25733897 -0.22608988
000280 31 b0 2a 3d b6 c5 8f bd 1b 46 95 be 99 f6 00 be
       0.041671935 -0.07020132 -0.2915505 -0.1259407
000290 17 17 1b 3d 29 cc 56 bd 41 6f a2 3e 8f b3 cd 3b
       0.037863817 -0.052440796 0.31725505 0.0062775086
0002a0 d9 76 83 3d 77 47 a7 3e b3 3b 90 bd e0 89 1e bc
       0.06419153 0.3267171 -0.07042637 -0.009676427
0002b0 1a d9 39 be af 12 c7 3e b3 33 e0 bd e4 7c 0d bf
       -0.18149224 0.38881442 -0.10947361 -0.5526869
0002c0 fc 62 ab be 78 10 20 3e 7e d1 8b 3d 72 8c 52 be
       -0.33473957 0.15631282 0.06827067 -0.20561388
0002d0 3f 5a 8d 3e 60 a6 b8 3e f2 ec 90 be 99 67 a0 be
       0.27607915 0.36064434 -0.28305775 -0.3132904
0002e0 1f 69 bb 3d 9d f2 61 bc 75 db 55 3e 04 e5 bc 3e
       0.0915091 -0.013790754 0.20884497 0.36893475
0002f0 a3 2e 7e be 8f 41 94 be 50 86 71 be a1 78 bc bd
       -0.24822478 -0.28956267 -0.23586392 -0.09202696
000300 d8 aa a0 3e 72 35 3b be cb e3 5a 3e 6c 54 3c 3e
       0.31380343 -0.18282107 0.21375959 0.1839158
000310 76 6f a9 3d aa 46 f4 3d b1 03 f6 3d 56 1e b5 bc
       0.082732126 0.119275406 0.12012423 -0.022109192
000320 f8 68 2a 3e ff 4e ba be a0 41 8a be d3 32 a2 be
       0.16641605 -0.36388394 -0.27003193 -0.316794
000330 5f c4 c6 3e 48 b4 67 be e8 a2 44 3d 12 9e 05 3e
       0.38821694 -0.22627366 0.048006922 0.1304858
000340 05 29 83 3e 48 08 5c 3e da ed 31 be bb a0 a3 be
       0.25617233 0.21487534 -0.1737589 -0.31958565
000350 c4 a9 9f bd 1c 58 ef 3b 64 9e 4e 3e 7d 38 b0 bd
       -0.07796052 0.0073042046 0.20177609 -0.08604524
000360 3f f5 e9 bd bf d6 3d be b7 82 04 3f fa 77 10 3e
       -0.1142373 -0.1853895 0.51761955 0.14108267
000370 e1 24 4b 3e 23 75 2b be 5c 35 49 3d 8e c6 b0 be
       0.19838287 -0.16743903 0.049123153 -0.34526485
000380 e7 33 9f 3e 55 5c cf 3d c7 4f 6a bc 4b 41 49 bc
       0.31094286 0.10125033 -0.014301247 -0.012283633
000390 39 90 77 3e 2c 84 a7 3e ef 14 87 3e 43 ba 2d bb
       0.2417611 0.32718027 0.2638316 -0.0026508726
0003a0 24 18 5b be b3 58 19 3e b5 f8 45 bd 1c a3 b8 be
       -0.21395928 0.14975242 -0.04833289 -0.36061943
0003b0 7e db ce be 9b d7 99 3d 7c 04 00 3f 8b 9a 2c 3e
       -0.40401834 0.075118266 0.5000684 0.16855828
0003c0 8e 80 fa be 39 4b 2a 3d 0d c6 41 3f 3d 2c a0 3e
       -0.48926204 0.041575644 0.75692827 0.3128375
0003d0 3f 65 ea 3d 15 55 72 3e aa ab 7c 3d 54 34 95 3d
       0.114450924 0.23665269 0.06168715 0.072853714
0003e0 74 9c fd be 36 66 38 bf d1 2c d3 bd f6 03 57 3d
       -0.49533427 -0.7203096 -0.103112824 0.05249401
0003f0 99 fd 1c 3f 2c bf 05 bf 5c 9b c8 3e 11 fc 31 bc
       0.6132446 -0.5224483 0.3918103 -0.01086332

bias f4 [20]
000000 8b 4d 2f 3e 36 a2 b6 bd 38 4e 2c 3f f3 c8 e0 be
       0.17119424 -0.08917658 0.6730685 -0.43903312
000010 9e 5c 23 3e 3a 53 3b bd f3 c0 16 3d f9 b4 9f bd
       0.159533 -0.045733668 0.036805104 -0.0779819
000020 a5 2f 63 3e a8 57 a2 3d 07 1e b2 3d 51 72 6f 3e
       0.22186144 0.07926875 0.086971335 0.23383452
000030 f3 c8 44 3d 34 bb f8 3d a8 1f 93 be a4 94 b8 3d
       0.048043203 0.12145081 -0.2873509 0.09012726
000040 1f 90 48 3c 7b bb 73 bc 42 52 14 be f3 3c 15 3e
       0.012241392 -0.014876242 -0.14484504 0.14574032
