Trained/Iter_02/Models_02/Noise_5/toy_nostop/internal_o3_100.pt (torch, 47647 bytes, 23 tensors)

weight f4 [20, 2]
-0.07786049 0.46579874 -0.36678123 -0.2591574 -0.25708494 -0.2528686 -0.27192134 0.9470574
0.05428997 -0.52355003 0.18587388 -0.7984751 0.44187605 -0.047815785 -0.13741986 -0.26807284
-0.1452182 0.25775692 -0.112850785 -0.10645571 -0.22618425 0.12621605 0.13110308 -0.2703227
0.34621638 -0.7561551 -0.5586801 0.57679844 0.24751371 -1.0003796 0.4693896 0.12707707
0.19579823 -1.7511315 -0.5474241 -0.29997718 0.17469332 -0.19394557 -0.32817876 -0.40848282
00000000: 5275 9fbd 2c7d ee3e c0ca bbbe 47b0 84be
00000010: a3a0 83be fe77 81be 4639 8bbe 5b72 723f
00000020: 295f 5e3d 6007 06bf b955 3e3e dd68 4cbf
00000030: 943d e23e 7cda 43bd cbb7 0cbe d840 89be
00000040: 14b4 14be b7f8 833e 501e e7bd 7405 dabd
00000050: d89c 67be c83e 013e e33f 063e bd67 8abe
00000060: 4643 b13e 6193 41bf a905 0fbf 10a9 133f
00000070: 3c74 7d3e 700c 80bf d553 f03e 7e20 023e
00000080: 557f 483e 1425 e0bf fc23 0cbf 9c96 99be
00000090: cee2 323e ab99 46be 0c07 a8be a924 d1be

bias f4 [20]
-0.15750739 -0.2591847 0.694995 -0.7385821 0.13848813 0.24820825 0.9744246 0.21551873
-0.34116507 0.4495115 -0.1084003 0.116320066 0.6383629 -0.12304432 0.6064299 0.066796176
-0.36890757 -0.3934761 -0.026861737 0.30065912
00000000: 9e49 21be dbb3 84be 31eb 313f b713 3dbf
00000010: d5cf 0d3e 4e2a 7e3e e473 793f f1b0 5c3e
00000020: 30ad aebe 5f26 e63e fa00 debd 3739 ee3d
00000030: c06b 233f a9fe fbbd fd3e 1b3f 6fcc 883d
00000040: 74e1 bcbe b375 c9be 250d dcbc feef 993e

weight f4 [20, 20]
0.20081322 0.06826119 -0.14700924 -0.04263383 0.1885625 0.10343526 0.13051556 0.24703716
0.19482023 0.27588934 0.3213106 0.025619294 0.26521218 0.17843468 0.58004165 -0.20962822
0.26774356 -0.14701636 -0.1291412 0.08009567 0.30961522 0.18713225 -0.046908252 0.021482999
-0.21126102 -0.5433107 -0.4590695 -0.31122935 0.27362806 -0.03434372 -0.027860848 -0.064950496
-0.26308787 0.15256235 -0.34450197 0.082338236 0.073985375 0.21395256 0.030446209 -0.042811334
0.3673832 0.076991 -0.21854861 -0.4487075 0.5911779 -0.10100189 -0.049705993 0.26723975
0.14797746 -0.27318156 -0.15753312 0.14654532 -0.3433644 0.09261119 -0.028339224 -0.05107684
0.028860869 -0.031865902 -0.011777234 -0.49811187 0.23742393 0.15871255 -0.31845647 0.18369427
0.029067293 0.058188826 -0.3058146 -0.06584787 0.0014291055 0.122277975 0.0704007 0.22348617
0.33143687 -0.009520397 -0.0860072 -0.07320767 -0.46489888 0.09015706 0.25820416 0.2042137
0.38413838 0.11577282 0.15442477 0.2822273 -0.3034607 -0.28172353 0.11947824 0.32694995
0.09867817 0.033966385 0.22648053 -0.040945344 -0.14161776 -0.13109438 -0.19965574 0.16267659
-0.60928434 -0.22886847 -0.10034996 0.4296761 -0.08500307 0.21890771 0.3204687 -0.097729355
0.26097402 0.2725699 -0.29994878 -0.047199544 0.02894348 -0.19275793 0.12771894 -0.13321745
-0.23403458 -0.25789317 0.6276275 -0.0042420095 -0.2622972 0.08332589 0.12506181 0.36530444
-0.3918075 -0.05959177 0.04288212 0.054521196 -0.14117166 -0.5364353 0.25865284 0.052632473
0.2717423 -0.211149 0.1990019 -0.15177302 -0.009950573 0.056670066 0.2204043 0.07168452
-0.17979501 -0.3089624 0.011945265 -0.15963243 0.2057669 0.49783796 0.292738 -0.10499977
0.31871217 0.059428617 -0.31946215 0.07426758 0.017626815 0.06737181 0.07847271 0.13352598
0.37002224 -0.30288205 0.07740857 -0.32367396 -0.3805758 0.047338944 -0.20884347 0.26773858
0.006573652 -0.08405765 -0.41202566 0.3465442 -0.30848554 0.3960514 -0.38303986 -0.20292793
-0.2245371 -0.29772794 0.04904554 0.23179774 0.11540231 -0.28128526 0.023200115 0.48888215
0.55876595 0.09830337 0.28698057 -0.22457781 0.14566825 0.055891387 0.30041832 0.25968882
0.4431004 0.20633037 0.14951143 0.1354559 0.502059 0.14848064 0.14992581 -0.28089145
-0.12603693 0.32619318 -0.1844042 -0.109209545 0.2703256 -0.08344214 -0.25614515 0.040700503
-0.011965665 0.23361169 -0.31379077 0.13589527 -0.42291296 -0.30880335 -0.09201285 -0.28820968
0.5484941 -0.5159552 -0.11422921 -0.0023768141 -0.30992547 -0.3545216 -0.13328746 0.08553774
-0.6494611 0.3554211 0.32628608 -0.27666774 -0.40605783 0.25847796 0.27002946 0.25397545
-0.11591165 0.027365912 -0.02704924 -0.18011506 -0.14353101 0.36169863 0.113120735 0.4821278
-0.057118937 -0.11505506 0.20417365 -0.27073017 -0.13781643 0.05111291 0.20602344 0.107032225
-0.35413805 0.04299006 0.26917663 -0.18121226 -0.21511815 0.38631356 0.064547785 -0.09272848
0.026723212 0.24940321 -0.13484824 0.22168463 0.16438808 -0.051027603 0.04443546 0.15170369
00000000: fba1 4d3e 86cc 8b3d 9789 16be d0a0 2ebd
00000010: 8716 413e ded5 d33d dfa5 053e 4ff7 7c3e
00000020: f47e 473e 5e41 8d3e d382 a43e 8edf d13c
00000030: e4c9 873e 95b7 363e 9c7d 143f c8a8 56be
00000040: af15 893e 758b 16be 973d 04be 3309 a43d
00000050: e385 9e3e 999f 3f3e de22 40bd 1dfd af3c
00000060: cf54 58be 6916 0bbf 280b ebbe 7459 9fbe
00000070: fa18 8c3e 00ac 0cbd 6f3c e4bc c404 85bd
00000080: 74b3 86be 4e39 1c3e 9062 b0be f3a0 a83d
00000090: a585 973d 6116 5b3e 546a f93c f05a 2fbd
000000a0: a719 bc3e 75ad 9d3d 35cb 5fbe fdbc e5be
000000b0: 6f57 173f 14da cebd 8398 4bbd a6d3 883e
000000c0: 6787 173e 74de 8bbe 5d50 21be fa0f 163e
000000d0: 75cd afbe f0aa bd3d a927 e8bc f335 51bd
000000e0: a16d ec3c d285 02bd 4df5 40bc 8508 ffbe
000000f0: 421f 733e 8b85 223e ba0c a3be 5a1a 3c3e
00000100: 881e ee3c 6857 6e3d bb93 9cbe 40db 86bd
00000110: d350 bb3a e06c fa3d 3e2e 903d 8fd9 643e
00000120: 18b2 a93e 70fb 1bbc 8b24 b0bd e7ed 95bd
00000130: 3a07 eebe 44a4 b83d 5633 843e 651d 513e
00000140: c9ad c43e 4d1a ed3d 8721 1e3e 1980 903e
00000150: 335f 9bbe 113e 90be 02b1 f43d fc65 a73e
00000160: c817 ca3d 5620 0b3d 83ea 673e 4eb6 27bd
00000170: 3f04 11be 9b3d 06be 8e72 4cbe b194 263e
00000180: 0ffa 1bbf 7f5c 6abe 4884 cdbd 81fe db3e
00000190: 1716 aebd 5829 603e 7914 a43e 5426 c8bd
000001a0: 639e 853e 488e 8b3e e392 99be 4f54 41bd
000001b0: e11a ed3c 5662 45be c1c8 023e 286a 08be
000001c0: c3a6 6fbe 930a 84be 32ac 203f 8e00 8bbb
000001d0: d24b 86be c4a6 aa3d 3410 003e 2f09 bb3e
000001e0: fe9a c8be 8016 74bd 29a5 2f3d 9e51 5f3d
000001f0: 4e8f 10be d353 09bf 256e 843e 2695 573d
00000200: cf21 8b3e 7237 58be 27c7 4b3e 636a 1bbe
00000210: ba07 23bc df1e 683d aab1 613e 55cf 923d
00000220: 2f1c 38be 5230 9ebe 13b6 433c af76 23be
00000230: 8fb4 523e 9ee4 fe3e c1e1 953e 1f0a d7bd
00000240: 3e2e a33e 6c6b 733d 8b90 a3be 9a19 983d
00000250: 1c66 903c 3bfa 893d 4db6 a03d 09bb 083e
00000260: 8e73 bd3e 5b13 9bbe 6288 9e3d 98b8 a5be
00000270: d5da c2be 7be6 413d 10db 55be 0815 893e
00000280: ca67 d73b 6b26 acbd 07f5 d2be 3e6e b13e
00000290: d1f1 9dbe 40c7 ca3e cd1d c4be 57cc 4fbe
000002a0: 0eed 65be cc6f 98be fae3 483d 635c 6d3e
000002b0: 0c58 ec3d 9f04 90be 2b0e be3c c34e fa3e
000002c0: 490b 0f3f 4753 c93d 1eef 923e baf7 65be
000002d0: 0f2a 153e 5eee 643d 6ed0 993e eff5 843e
000002e0: 0ede e23e 4548 533e 8619 193e f4b4 0a3e
000002f0: f086 003f 4f0b 183e 2786 193e 01d1 8fbe
00000300: d30f 01be cb02 a73e 74d4 3cbe 41a9 dfbd
00000310: 1e68 8a3e b6e3 aabd 7525 83be 92b5 263d
00000320: a30b 44bc e737 6f3e 2fa9 a0be 2128 0b3e
00000330: 0c88 d8be 791b 9ebe 3c71 bcbd 3890 93be
00000340: 1c6a 0c3f a415 04bf 01f1 e9bd 53c4 1bbb
00000350: 8dae 9ebe db83 b5be 827c 08be 692e af3d
00000360: 1543 26bf c1f9 b53e f80e a73e 65a7 8dbe
00000370: d0e6 cfbe 3957 843e 4d41 8a3e 1209 823e
00000380: 1663 edbd 7a2e e03c 5e96 ddbc 1570 38be
00000390: cbf9 12be 9030 b93e d8ab e73d 74d9 f63e
000003a0: 8cf5 69bd fda1 ebbd e612 513e 259d 8abe
000003b0: c01f 0dbe c55b 513d cff7 523e b633 db3d
000003c0: 9551 b5be 5816 303d 85d1 893e b58f 39be
000003d0: ef47 5cbe e4ca c53e a131 843d 6ee8 bdbd
000003e0: a3ea da3c 8e63 7f3e a815 0abe 4c01 633e
000003f0: 5955 283e 5202 51bd f501 363d 3658 1b3e

bias f4 [20]
0.06410604 -0.27288437 0.22691748 -0.5901354 0.7627619 0.12888338 0.2710713 -0.1447224
-0.04516902 0.34592804 -0.9819837 0.051437825 0.05502205 0.18549746 0.40638235 0.68718207
0.21970062 0.1715206 -0.634001 0.24525747
00000000: 074a 833d 80b7 8bbe 0e5d 683e 1d13 17bf
00000010: 5d44 433f 01fa 033e dcc9 8a3e 1c32 14be
00000020: 2603 39bd 7b1d b13e 4963 7bbf 78b0 523d
00000030: cd5e 613d 0cf3 3d3e 5911 d03e 2aeb 2f3f
00000040: 33f9 603e 19a3 2f3e e44d 22bf c624 7b3e

weight f4 [20, 20]
0.2786095 -0.2239081 0.14451087 0.05761249 -0.11101477 -0.11970178 0.11994351 0.32061955
-0.7884095 0.30025572 -0.07580304 0.31339115 0.10755034 0.04557036 0.21230887 -0.23909745
0.39103985 -0.14877349 0.14202702 -0.30896938 0.2458768 0.072847776 0.089520626 0.061769195
-0.12364865 0.2815594 0.1779642 -0.14295258 -0.08265988 0.31560433 -0.19136392 0.313779
-0.09037202 0.09635382 -0.09017867 0.12475804 0.10472351 0.45377707 0.3439819 0.11441706
-0.26372036 -0.07953939 0.15296073 -0.3084015 0.010011291 0.27674636 0.15785368 0.1570859
0.003486764 0.5819699 -0.49692264 -0.19012277 -0.2644069 0.07090898 -0.1581307 0.14147852
0.58496934 0.21898994 -0.18556325 0.29797873 0.2904937 -0.018749341 -0.0045363847 -0.2477523
-0.2797182 -0.14929217 -0.5699112 -0.52096087 -0.0888472 -0.13932294 -0.29393762 0.0303023
-0.10746383 0.16189732 -0.11918271 0.24831372 0.22003572 -0.0046788077 -0.045051463 0.7210426
0.19339667 -0.07752802 -0.015827889 0.09630053 0.20557185 -0.31223702 -0.113452636 -0.13524385
0.2805772 0.043674838 -0.2431433 -0.36728796 -0.2084073 -0.65903276 0.52144384 0.068747446
-0.22701104 -0.35291207 0.28107318 0.1912539 -0.21357715 -0.18064934 -0.024047079 -0.14315082
-0.23015521 -0.040386777 0.18322614 -0.4320607 0.16616216 -0.025363253 -0.136774 -0.043543838
0.3290475 0.09338715 0.53131557 -0.0048308787 0.054391816 0.10664165 -0.076243676 -0.50239074
0.27161404 -0.036637593 0.0397823 0.25287473 -0.03869314 -0.0440264 -0.19280918 0.2624959
-0.025596682 0.08589584 0.25184983 0.05967613 -0.12720692 0.36479765 -0.20936736 0.30649054
0.17979692 -0.51552415 -0.14488387 0.14031908 -0.10158767 0.15117538 -0.028361488 0.18070997
-0.00784891 -0.03820649 -0.20771295 0.25775662 0.37057453 0.113343194 0.10712743 -0.10351209
-0.109867424 -0.08027056 0.06406464 0.20040156 -0.1361138 0.35235572 -0.017768404 0.08233897
-0.07523385 0.031457227 -0.30151176 0.36019483 0.308548 0.055200182 0.02526616 -0.045406047
0.17910643 -0.00917484 0.13722537 0.24855967 -0.18789904 -0.22111312 0.2734188 -0.2750378
-0.1820752 -0.23062134 0.3254312 -0.3051667 0.36387843 -0.23105775 -0.10671973 0.034538396
-0.40481204 0.44955477 -0.46447477 0.21621361 0.041833762 0.12846677 0.039665814 0.19839464
-0.19059527 -0.121518455 -0.29884645 0.30368254 0.1882129 0.16645855 0.2586479 -0.16374476
0.162793 0.0070416625 0.087714024 0.01567824 0.088934585 0.078790046 0.15123942 -0.117751695
-0.15409221 0.21304013 -0.18601373 0.14733708 -0.07451476 0.14871535 -0.31456488 0.11343183
0.088392876 -0.406364 -0.20641431 -0.29905596 0.01294496 -0.00068773393 0.0064175166 -0.15885761
0.021972481 -0.105289325 -0.067283064 0.09872328 -0.33721152 0.31985557 -0.30175054 -0.062417686
0.24542804 0.38970196 -0.09046418 0.2556048 0.3523629 0.84561056 -0.120541655 0.25098318
-0.24884984 0.25883174 -0.31514105 -0.051540114 0.29062054 -0.43640786 -0.0006138421 0.21819383
-0.09164541 -0.055307392 0.19117582 -0.08383611 -0.14736737 -0.40313792 0.2253636 -0.63540685
00000000: e8a5 8e3e 2a48 65be a8fa 133e 13fb 6b3d
00000010: b65b e3bd 3526 f5bd f1a4 f53d 3f28 a43e
00000020: 34d5 49bf 1ebb 993e a03e 9bbd ce74 a03e
00000030: 5a43 dc3d fca7 3a3d 7f67 593e f6d5 74be
00000040: 6036 c83e 1458 18be 886f 113e 3c31 9ebe
00000050: 21c7 7b3e 3731 953d 9756 b73d b201 7d3d
00000060: 813b fdbd 8e28 903e 3f3c 363e 2962 12be
00000070: 9549 a9bd e496 a13e e7f4 43be a4a7 a03e
00000080: f714 b9bd 2755 c53d 98af b8bd 2581 ff3d
00000090: 4879 d63d 7855 e83e 651e b03e 7e53 ea3d
000000a0: 5b06 87be 8ce5 a2bd bda1 1c3e cde6 9dbe
000000b0: 6606 243c b3b1 8d3e 65a4 213e 20db 203e
000000c0: 3182 643b fbfb 143f a56c febe 8baf 42be
000000d0: 5760 87be ba38 913d 04ed 21be bfdf 103e
000000e0: 8dc0 153f e63e 603e 4b04 3ebe ab90 983e
000000f0: 97bb 943e 3898 99bc f4a5 94bb c7b2 7dbe
00000100: 3937 8fbe 0ce0 18be b3e5 11bf b15d 05bf
00000110: 85f5 b5bd acaa 0ebe fe7e 96be 873c f83c
00000120: ff15 dcbd 69c8 253e 1116 f4bd f445 7e3e
00000130: 0b51 613e af50 99bb e287 38bd 3f96 383f
00000140: c709 463e 03c7 9ebd 7da9 81bc 3639 c53d
00000150: 6d81 523e 88dd 9fbe db59 e8bd 5d7d 0abe
00000160: d1a7 8f3e 63e4 323d 8ffa 78be 2b0d bcbe
00000170: b968 55be 5fb6 28bf 587d 053f 76cb 8c3d
00000180: 9575 68be e4b0 b4be d3e8 8f3e 10d8 433e
00000190: f8b3 5abe 24fc 38be 61fe c4bc 2196 12be
000001a0: cfad 6bbe 9b6c 25bd a29f 3b3e 0f37 ddbe
000001b0: 6a26 2a3e 99c6 cfbc 7c0e 0cbe 065b 32bd
000001c0: ea78 a83e c341 bf3d 4c04 083f 594c 9ebb
000001d0: f4c9 5e3d f066 da3d a525 9cbd ae9c 00bf
000001e0: ff10 8b3e 4d11 16bd c4f2 223d cc78 813e
000001f0: b37c 1ebd 0755 34bd c56f 45be dd65 863e
00000200: 22b0 d1bc 28ea af3d 76f2 803e f56e 743d
00000210: 8842 02be c2c6 ba3e 6664 56be 54ec 9c3e
00000220: af1c 383e 64f9 03bf 705c 14be ceaf 0f3e
00000230: 320d d0bd b8cd 1a3e 5a56 e8bc 090c 393e
00000240: b798 00bc 697e 1cbd b4b2 54be adf8 833e
00000250: f2bb bd3e 7a20 e83d a065 db3d 26fe d3bd
00000260: 2c02 e1bd e464 a4bd 5234 833d 1136 4d3e
00000270: 6a61 0bbe f867 b43e 0b8f 91bc 55a1 a83d
00000280: 3414 9abd 4bd9 003d c05f 9abe 756b b83e
00000290: 01fa 9d3e 9619 623d fafa ce3c b1fb 39bd
000002a0: ad67 373e 1152 16bc cf84 0c3e 6d86 7e3e
000002b0: 9b68 40be 7a6b 62be 8dfd 8b3e c1d1 8cbe
000002c0: ec71 3abe 0028 6cbe eb9e a63e cf3e 9cbe
000002d0: 464e ba3e 679a 6cbe e08f dabd 2278 0d3d
000002e0: 8643 cfbe 0b2c e63e a3cf edbe 1a67 5d3e
000002f0: e159 2b3d cb8c 033e 9f78 223d f727 4b3e
00000300: 682b 43be abde f8bd 6702 99be 477c 9b3e
00000310: e2ba 403e 1c74 2a3e 7f6d 843e b5ac 27be
00000320: 35b3 263e bfbd e63b 69a3 b33d a76f 803c
00000330: 5623 b63d ad5c a13d 82de 1a3e cd27 f1bd
00000340: 59ca 1dbe 3127 5a3e 627a 3ebe 88df 163e
00000350: 329b 98bd d648 183e a60e a1be f34e e83d
00000360: 5307 b53d f10e d0be 465e 53be dd1d 99be
00000370: 1917 543c 0b49 34ba 084a d23b 92ab 22be
00000380: a2ff b33c eea1 d7bd b4cb 89bd 6e2f ca3d
00000390: fda6 acbe 1cc4 a33e 0c7f 9abe b0a9 7fbd
000003a0: 7d51 7b3e 0487 c73e 4945 b9bd a2de 823e
000003b0: e968 b43e ef79 583f 8bde f6bd de80 803e
000003c0: 7ed2 7ebe 9885 843e 2b5a a1be ba1b 53bd
000003d0: 37cc 943e da70 dfbe 3fea 20ba 346e 5f3e
000003e0: 97b0 bbbd 018a 62bd 98c3 433e 44b2 abbd
000003f0: 79e7 16be 1868 cebe b7c5 663e 06aa 22bf

bias f4 [20]
-0.31872565 0.34911293 0.30145273 -0.19767192 0.50300694 0.35009006 0.091219194 -0.12148338
-0.20907554 -0.17685 0.25544646 0.21486478 -0.47351974 -0.1294502 -0.3232851 -0.30055997
0.30086774 0.7311385 -0.387086 0.24912469
00000000: 0230 a3be eebe b23e 0358 9a3e 826a 4abe
00000010: 10c5 003f 013f b33e 21d1 ba3d 47cc f8bd
00000020: e617 56be 2b18 35be e1c9 823e 8305 5c3e
00000030: 2e71 f2be 988e 04be a085 a5be ffe2 99be
00000040: 560b 9a3e e52b 3b3f 2330 c6be 8b1a 7f3e

weight f4 [20, 20]
0.08798691 0.037809163 0.27951923 -0.23158555 0.4484791 -0.05646076 0.32226378 -0.17076898
0.380979 0.14860132 0.123513244 -0.07955933 0.32774532 0.16158882 -0.07224178 0.16198614
0.24506278 0.4289197 0.37721148 -0.16483453 -0.021351999 -0.048393477 -0.14596808 0.04858628
0.1756768 0.4630399 0.3455143 0.010327561 -0.21308847 0.17841917 -0.2890826 -0.1844041
-0.4706813 0.56035835 -0.1783714 -0.34463817 0.3366199 0.3118954 -0.12842967 0.30532026
-0.33025387 -0.3976868 0.113752894 -0.100055195 -0.47734913 0.25672644 -0.397142 0.218219
0.2321852 0.7325994 -0.17289062 -0.08498353 -0.1912719 0.0972616 0.21490486 -0.09473658
-0.17258246 0.38888782 0.05845012 0.50846565 -0.10092864 -0.06395673 -0.21527047 0.23589265
-0.09252643 -0.18082568 0.11600147 0.22041932 -0.023724439 0.20615816 0.21213838 -0.46124
0.16557996 0.17973056 0.032279957 0.22440124 -0.27215365 0.44269514 0.14719902 -0.554336
0.23900892 -0.35741818 -0.42283884 0.09878725 0.24754398 0.35002893 -0.1273137 0.018390901
0.13302802 -0.22654547 0.1393309 0.037353627 -0.024166362 0.25976557 0.087787315 0.1509456
-0.2568777 -0.47902673 -0.44112492 0.1735938 0.010266174 0.0658283 0.12459029 0.043172028
0.28505835 -0.11518451 -0.23557241 -0.09147264 0.20584324 -0.120130695 -0.15909354 -0.43756992
-0.030884445 0.20190379 -0.5166006 -0.12446814 -0.2258266 0.12962003 0.17296247 0.0466326
-0.14700755 0.34302282 -0.010846635 -0.06494412 -0.320326 0.47396797 -0.0051185493 -0.054813877
-0.1969628 0.31993738 -0.1889139 -0.3582407 0.13352926 -0.29277655 0.3901787 0.12950899
0.49518836 -0.061819844 0.010263596 -0.1704059 -0.40107408 -0.17777584 -0.4426224 0.1715434
-0.497327 0.6127268 0.24571143 0.21633756 0.096429445 -0.18985216 0.4283213 -0.29384595
0.22947606 -0.29438007 -0.05201856 0.08969321 -0.05474711 -0.24831176 -0.49589068 0.00036733062
0.15480742 -0.20017253 -0.31602743 -0.38890743 0.3999329 0.25674975 -0.32033318 -0.16719355
0.24576494 -0.25702316 0.105291426 -0.0777039 0.27627894 0.1487604 0.35626912 -0.007670531
-0.19076543 -0.24105676 -0.010438629 0.085393235 0.24246787 0.082248956 0.022520948 -0.23876387
-0.07098892 -0.036603566 -0.21482067 0.13668102 -0.016393086 0.19805412 -0.23845835 -0.19082312
-0.414479 0.18524155 0.41858864 -0.3417082 -0.16328152 -0.39986405 -0.19400643 0.07979756
-0.08714932 0.34654415 0.15237904 0.27147168 -0.017474161 0.17852892 -0.091484495 -0.020301012
0.3349423 -0.10859376 -0.2684395 -0.14032795 0.22216275 0.3193024 0.060526337 -0.34090114
-0.28244865 -0.52525276 -0.12373786 -0.15030923 0.051745716 0.059302587 -0.11518453 -0.014513506
-0.18912795 0.19599277 0.05246532 -0.03141381 -0.29087666 -0.043327454 -0.21719319 -0.07024169
-0.06653801 -0.24134806 0.16300784 0.3317623 0.07324576 0.025529953 -0.07640202 0.19933158
0.28716612 0.017827934 -0.09241133 0.3580068 -0.027354376 -0.17083508 0.05303592 -0.31623822
0.12802155 0.14897625 0.0052867313 0.13721602 -0.24899627 -0.16716829 0.39493245 0.87258184
00000000: 7b32 b43d c8dd 1a3d 251d 8f3e c324 6dbe
00000010: 0d9f e53e 6643 67bd c2ff a43e 10de 2ebe
00000020: ae0f c33e f22a 183e 83f4 fc3d 01f0 a2bd
00000030: 3cce a73e 8a77 253e 80f3 93bd b2df 253e
00000040: bdf1 7a3e 5d9b db3e dd21 c13e 62ca 28be
00000050: 63ea aebc 3d38 46bd a878 15be 6802 473d
00000060: 9ee4 333e 9113 ed3e 40e7 b03e ee34 293c
00000070: dd33 5abe 84b3 363e a202 94be 6ed4 3cbe
00000080: 24fd f0be a573 0f3f fea6 36be 6a74 b0be
00000090: 7259 ac3e c1b0 9f3e 1183 03be f052 9c3e
000000a0: 0917 a9be 9b9d cbbe 47f7 e83d bde9 ccbd
000000b0: 1b67 f4be a671 833e 3256 cbbe cd74 5f3e
000000c0: f5c1 6d3e a28b 3b3f 3d0a 31be d80b aebd
000000d0: c8dc 43be 1731 c73d 0510 5c3e 4105 c2bd
000000e0: 75b9 30be 4e1c c73e 6569 6f3d ce2a 023f
000000f0: adb3 cebd bffb 82bd dd6f 5cbe d88d 713e
00000100: 7f7e bdbd 5e2a 39be 2e92 ed3d 9ab5 613e
00000110: c159 c2bc 201b 533e ce3a 593e a627 ecbe
00000120: cb8d 293e 4a0b 383e fd37 043d 70c9 653e
00000130: b957 8bbe f0a8 e23e 57bb 163e f7e8 0dbf
00000140: c1be 743e 84ff b6be 557e d8be f850 ca3d
00000150: 2b7c 7d3e fe36 b33e 865e 02be 84a8 963c
00000160: 7f38 083e 89fb 67be c2ac 0e3e 1e00 193d
00000170: 89f8 c5bc feff 843e d6c9 b33d 7c91 1a3e
00000180: 7985 83be fe42 f5be 20db e1be 93c2 313e
00000190: 7433 283c fdd0 863d 3229 ff3d 27d5 303d
000001a0: 2bf3 913e dbe5 ebbd e539 71be 0256 bbbd
000001b0: 92c8 523e 1507 f6bd 6be9 22be 2a09 e0be
000001c0: 6001 fdbc debf 4e3e f03f 04bf 27e9 febd
000001d0: 173f 67be 1dbb 043e 131d 313e d301 3f3d
000001e0: 2689 16be b0a0 af3e 16b6 31bc 6c01 85bd
000001f0: c501 a4be eeab f23e 81b9 a7bb 8484 60bd
00000200: 9eb0 49be d5ce a33e a572 41be 536b b7be
00000210: e5bb 083e cfe6 95be 81c5 c73e 019e 043e
00000220: 5489 fd3e ce36 7dbd a428 283c e27e 2ebe
00000230: 9559 cdbe df0a 36be 679f e2be 13a9 2f3e
00000240: a5a1 febe aadb 1c3f c79b 7b3e 9887 5d3e
00000250: cd7c c53d 9b68 42be ee4c db3e fa72 96be
00000260: c6fb 6a3e fcb8 96be 6a11 55bd 13b1 b73d
00000270: 813e 60bd 7045 7ebe 62e5 fdbe 4896 c039
00000280: d685 1e3e 07fa 4cbe 59ce a1be e01e c7be
00000290: 01c4 cc3e b474 833e b602 a4be c934 2bbe
000002a0: cea9 7b3e 8a98 83be 08a3 d73d 3923 9fbd
000002b0: 6f74 8d3e a554 183e e868 b63e 1459 fbbb
000002c0: 0358 43be 95d7 76be c906 2bbc a6e2 ae3d
000002d0: 7f49 783e 2472 a83d da7d b83c 847e 74be
000002e0: a462 91bd 9fed 15bd f3f9 5bbe 1cf6 0b3e
000002f0: cb4a 86bc b3ce 4a3e 6d2e 74be 2367 43be
00000300: 9736 d4be f6af 3d3e 4051 d63e 61f4 aebe
00000310: 4533 27be fbba ccbe 9fa9 46be e76c a33d
00000320: 587b b2bd 3c6e b13e 4009 1c3e 56fe 8a3e
00000330: f925 8fbc 49d0 363e 395c bbbd 4f4e a6bc
00000340: 8f7d ab3e 6866 debd e770 89be 21b2 0fbe
00000350: a27e 633e 9b7b a33e 77ea 773d 988a aebe
00000360: 1c9d 90be f776 06bf 466a fdbd aaea 19be
00000370: 51f3 533d 45e7 723d dee5 ebbd 0eca 6dbc
00000380: c2aa 41be 54b2 483e e0e5 563d c4ab 00bd
00000390: c9ed 94be 2178 31bd e467 5ebe e0da 8fbd
000003a0: 1545 88bd f223 77be 87eb 263e c0dc a93e
000003b0: df01 963d 3124 d13c aa78 9cbd 941d 4c3e
000003c0: 7007 933e e30b 923c 2742 bdbd ab4c b73e
000003d0: 4916 e0bc 64ef 2ebe 313c 593d fae9 a1be
000003e0: 1518 033e 3b8d 183e 513c ad3b 5b82 0c3e
000003f0: e1f8 7ebe 2a2e 2bbe 9634 ca3e 8661 5f3f

bias f4 [20]
0.3061536 0.54878706 -0.0027671007 -0.23795491 -0.41030547 -0.21041635 -0.13776064 0.05310659
-0.12957935 -0.095088154 -0.44801298 -0.007770135 -0.5435375 0.19136046 -0.5469728 -0.18003389
-0.16545293 -0.19714935 -0.020003978 0.21640246
00000000: 2ac0 9c3e 4f7d 0c3f 3f58 35bb 74aa 73be
00000010: 8f13 d2be 6277 57be 2011 0dbe 4c86 593d
00000020: 73b0 04be 94bd c2bd f561 e5be 9e9c febb
00000030: 4625 0bbf fff3 433e 6906 0cbf ce5a 38be
00000040: 7e6c 29be 85e1 49be 62df a3bc 9b98 5d3e

weight f4 [20, 20]
0.23310822 0.036589675 0.04069381 -0.06439336 0.17742607 0.06801792 -0.12958784 -0.02144865
0.4612435 0.050741617 -0.10415296 0.07296177 0.15886667 -0.17081642 0.18901657 -0.11635205
0.29569983 -0.05817947 -0.10331717 -0.20607542 0.08173986 -0.06886281 0.30611342 0.06892407
-0.05285995 -0.16541934 0.10262163 -0.2591856 0.37631926 -0.30232587 -0.07879868 -0.09900466
-0.08555416 -0.06348172 -0.29520297 -0.5119365 -0.087153666 0.37350935 0.10272013 0.133042
0.3848751 0.32091814 -0.14782856 0.31891894 -0.3970901 -0.34106013 0.17087977 0.12610777
-0.058402978 -0.08104824 -0.115526795 0.044462495 0.18948473 0.2583524 0.008659065 -0.17252564
0.11876339 -0.3725739 -0.44042632 0.16482286 -0.12542403 0.2142673 0.12983093 -0.14628518
0.09318202 -0.11767771 -0.21503636 0.023782166 -0.066050895 -0.050688915 -0.08505415 -0.1868364
0.25580457 0.29776967 0.14557822 0.31677327 -0.14247246 0.4395614 0.21837267 0.09608058
-0.33999196 0.02083185 0.5405706 0.15591313 0.094537705 -0.1861388 0.015798707 -0.13433984
0.122404106 -0.0774056 -0.20226097 0.08863618 -0.17917469 -0.16901192 -0.29638267 -0.048300598
-0.25900787 0.5962007 0.03314738 -0.15866491 -0.3095829 0.057514083 0.10862541 -0.063723646
0.3398469 0.015211359 -0.36605036 -0.035633575 0.06828222 -0.10561726 -0.25990745 -0.32579887
-0.16878791 0.20735817 -0.08775293 0.49027354 -0.13481444 -0.0602992 -0.27706137 -0.22462016
0.2595955 0.082253456 0.17008384 0.060890675 -0.22737218 0.0984344 -0.05610838 0.19524668
0.11839819 0.0814367 -0.26056355 0.082767956 0.047773685 0.1376538 0.15495121 -0.16220938
-0.002146042 0.35706878 -0.03503851 0.28310356 -0.35396752 -0.02845824 0.31803873 -0.16903707
0.16846336 -0.19750807 -0.015010306 -0.009053474 0.07918045 0.25613618 -0.0016279645 -0.10601304
0.21009159 -0.014803463 -0.13486601 -0.2940437 -0.44157737 0.58040595 0.21583116 0.043943584
-0.2597104 -0.31223032 -0.16209222 -0.034838714 -0.115336396 -0.24566795 -0.2027476 -0.39789093
-0.16617289 0.29076093 0.18141337 -0.27890226 -0.21107739 0.36244875 -0.04404192 0.1534805
-0.1969388 -0.17196235 0.100441374 -0.076932415 0.037017845 0.4973399 0.49740908 0.0011978787
-0.14044516 -0.17501763 -0.03721563 0.33324394 0.024405718 -0.104704484 -0.04850127 0.005815212
-0.411701 0.253341 -0.1688666 -0.38137978 -0.16888607 0.4642139 0.061226618 0.28820527
0.006231353 -0.17652352 0.2791052 0.327315 -0.17555153 0.34095103 -0.102280594 -0.26651883
0.106978014 -0.427987 0.21315868 0.026872879 -0.37083223 -0.13285363 -0.4213122 0.20528285
0.28009772 -0.3472345 0.25980633 -0.25698265 -0.49944758 -0.20082676 -0.11519372 0.066087075
-0.39294037 0.1408977 -0.26551503 0.4653887 -0.197755 -0.120941795 0.050180178 0.028049747
0.21884295 0.16297488 0.074019454 0.07393493 0.1028071 -0.125302 -0.014440664 -0.17753524
-0.23693703 -0.07919875 -0.10638083 -0.09033723 -0.22749564 0.27615917 -0.16945747 -0.19681664
-0.030975139 -0.106945366 0.049551357 0.0076172166 -0.22628966 0.19988674 -0.35850424 0.09015796
00000000: ecb3 6e3e 0edf 153d 8dae 263d aae0 83bd
00000010: 2eaf 353e fb4c 8b3d adb2 04be 14b5 afbc
00000020: 1c28 ec3e 71d6 4f3d 264e d5bd fb6c 953d
00000030: f2ad 223e 80ea 2ebe 8f8d 413e fc49 eebd
00000040: f865 973e 994d 6ebd f497 d3bd 6f05 53be
00000050: 3a67 a73d f207 8dbd e6ba 9c3e 1028 8d3d
00000060: ad83 58bd b063 29be 4a2b d23d fab3 84be
00000070: ebac c03e 75ca 9abe 3461 a1bd f5c2 cabd
00000080: 0537 afbd b402 82bd d824 97be 450e 03bf
00000090: 9f7d b2bd 9e3c bf3e ee5e d23d 293c 083e
000000a0: 590e c53e 624f a43e 5f60 17be 5849 a33e
000000b0: 654f cbbe 6f9f aebe 1bfb 2e3e 6522 013e
000000c0: f637 6fbd 9ffc a5bd 5099 ecbd 4e1e 363d
000000d0: 4908 423e c446 843e c0de 0d3c 90aa 30be
000000e0: 383a f33d 02c2 bebe 8f7f e1be 53c7 283e
000000f0: 286f 00be e368 5b3e 66f2 043e c8cb 15be
00000100: 37d6 be3d 0301 f1bd 7e32 5cbe d1d2 c23c
00000110: b145 87bd 2e9f 4fbd df30 aebd 0b52 3fbe
00000120: d1f8 823e 4475 983e 7512 153e 1b30 a23e
00000130: 4de4 11be 310e e13e 169d 5f3e e5c5 c43d
00000140: 6d13 aebe 8ea7 aa3c d662 0a3f b1a7 1f3e
00000150: fc9c c13d 2b9b 3ebe 4a6c 813c 6290 09be
00000160: 01af fa3d d486 9ebd 801d 4fbe e386 b53d
00000170: 9279 37be 7611 2dbe 78bf 97be d9d6 45bd
00000180: ae9c 84be 9ca0 183f 8cc5 073d 0e79 22be
00000190: a681 9ebe e393 6b3d 0077 de3d 8b81 82bd
000001a0: 6a00 ae3e 1039 793c f46a bbbe 83f4 11bd
000001b0: 8cd7 8b3d dd4d d8bd 9712 85be 1ccf a6be
000001c0: bdd6 2cbe b355 543e cfb7 b3bd 2205 fb3e
000001d0: cc0c 0abe 4bfc 76bd fdda 8dbe d402 66be
000001e0: b4e9 843e 8074 a83d 752a 2e3e 8068 793d
000001f0: 41d4 68be fa97 c93d e7d1 65bd bfee 473e
00000200: c07a f23d 49c8 a63d 9668 85be 3f82 a93d
00000210: 57ae 433d 1ef5 0c3e 88ab 1e3e 371a 26be
00000220: 9ca4 0cbb b8d1 b63e 8a84 0fbd f3f2 903e
00000230: 3b3b b5be 4121 e9bc f9d5 a23e 0e18 2dbe
00000240: a981 2c3e 8e3f 4abe c9ed 75bc 0655 14bc
00000250: 5c29 a23d 4824 833e 6d61 d5ba 5d1d d9bd
00000260: 4022 573e 398a 72bc 511a 0abe e58c 96be
00000270: 6e16 e2be 7c95 143f d802 5d3e 30fe 333d
00000280: c3f8 84be a7dc 9fbe 81fb 25be 0ab3 0ebd
00000290: 7d35 ecbd 6190 7bbe 119d 4fbe 5cb8 cbbe
000002a0: 3a29 2abe 9ede 943e 6dc4 393e 47cc 8ebe
000002b0: ac24 58be e292 b93e 4d65 34bd fe29 1d3e
000002c0: 53aa 49be e616 30be 35b4 cd3d be8e 9dbd
000002d0: 06a0 173d 56a3 fe3e 67ac fe3e 2402 9d3a
000002e0: dbd0 0fbe d237 33be 6b6f 18bd f39e aa3e
000002f0: 80ee c73c 4e6f d6bd 45a9 46bd 898d be3b
00000300: 79ca d2be e9b5 813e 5eeb 2cbe 3644 c3be
00000310: 78f0 2cbe 72ad ed3e c3c8 7a3d a48f 933e
00000320: 6130 cc3b 95c2 34be e0e6 8e3e d595 a73e
00000330: c8c3 33be 2291 ae3e 7d78 d1bd 2875 88be
00000340: 4a17 db3d 1d21 dbbe 4546 5a3e 8324 dc3c
00000350: b9dd bdbe c80a 08be 3cb6 d7be ab35 523e
00000360: f868 8f3e b8c8 b1be 5605 853e 3b93 83be
00000370: 98b7 ffbe 88a5 4dbe afea ebbd a958 873d
00000380: 7b2f c9be 7d47 103e 96f1 87be 6d47 ee3e
00000390: 4980 4abe 55b0 f7bd bb89 4d3d 95c8 e53c
000003a0: 5e18 603e e3e2 263e 8397 973d 326b 973d
000003b0: 878c d23d 2b4f 00be 8998 6cbc cccb 35be
000003c0: 9f9f 72be f432 a2bd 31de d9bd ba02 b9bd
000003d0: 9ef4 68be bc64 8d3e 4286 2dbe 4d8a 49be
000003e0: 93bf fdbc 2c06 dbbd 5df6 4a3d d899 f93b
000003f0: 7ab8 67be 1caf 4c3e de8d b7be bda4 b83d

bias f4 [20]
0.16622874 0.23383522 0.40252122 -0.044596456 0.06084941 -0.09103334 -0.065166384 0.06558198
-0.36320913 0.7735538 -0.14347678 -0.107392095 0.16562897 0.44118237 0.31935018 0.024790097
-0.2939476 -0.046826325 -0.18014032 -0.051786892
00000000: de37 2a3e 8072 6f3e 4317 ce3e c6aa 36bd
00000010: 3b3d 793d b06f babd f475 85bd d84f 863d
00000020: 8cf6 b9be 9f07 463f 94eb 12be 63f0 dbbd
00000030: a49a 293e a8e2 e13e de81 a33e 9a14 cb3c
00000040: 4d80 96be f6cc 3fbd b476 38be 7e1e 54bd

weight f4 [20, 20]
0.20611587 0.13685213 -0.11356569 0.3036638 -0.1326996 0.13984044 0.23322415 0.087158665
-0.05415373 0.07245842 -0.0049439776 0.17961672 0.18850432 0.03556704 -0.2713329 0.17825858
0.21818466 0.23009598 -0.011984305 -0.3990879 0.047387894 0.34182066 -0.26637545 -0.16110133
0.063760005 0.17100865 0.027367532 0.20373432 0.051786166 0.1793903 -0.21672487 -0.23636088
0.22731395 -0.0061473814 -0.14271902 -0.10480831 0.22973092 -0.29347524 -0.027491292 0.20716012
-0.2080836 -0.09790238 -0.07318436 -0.09567568 -0.29497203 -0.2806069 0.0025967562 -0.28144896
-0.13721387 0.034837477 -0.20679627 -0.22747585 -0.3260364 0.028863693 0.31490958 0.036258556
0.26103878 0.0049904496 -0.15410025 0.01856882 -0.16908655 -0.106176704 -0.18280062 -0.116596214
-0.15177162 -0.2243484 -0.29420945 -0.19022006 -0.11522756 0.16555263 0.031426385 0.2821703
-0.1551549 0.2672074 0.3384399 0.02110625 -0.276376 0.23959929 -0.24469528 -0.39311326
-0.12784801 -0.3058897 0.06423309 -0.24769403 -0.5296136 0.07591395 -0.24417156 -0.37583014
0.1788966 -0.36378664 0.43582228 -0.11461132 -0.0733016 -0.13232064 0.04664306 -0.066772036
-0.114074476 -0.22954793 -0.069943264 0.05973421 -0.25857824 -0.06624223 -0.5283728 -0.0064548124
-0.6512634 0.022980394 -0.022229921 -0.36362654 0.40631345 -0.2494843 0.07448936 0.29547223
-0.07243934 -0.4325287 0.1470662 0.375165 0.121845156 -0.19263084 0.08170601 0.70766217
-0.19262978 0.051677078 -0.0124282865 0.08858514 0.23406433 0.0724251 0.18655021 -0.28472602
0.18015851 0.0692933 0.22727396 -0.15350907 -0.035307933 -0.0790694 0.37435704 -0.41176948
-0.19469878 -0.32669783 0.105666995 -0.11667204 0.015123577 0.062793866 -0.047061637 -0.16001879
0.15960641 0.14799678 -0.022154184 -0.3726389 0.09949949 0.06493694 0.32055262 -0.2825193
0.39031094 -0.1774723 0.23339774 0.2000621 -0.45924374 -0.039614476 0.034596566 0.46032995
-0.17024857 -0.00303347 -0.01828791 0.38361785 0.43538707 0.1504167 0.21082605 0.6526233
0.4576954 0.33448085 -0.3740176 -0.22660558 0.0063042636 -0.040652722 -0.25837114 0.20012379
0.4702769 -0.34775683 0.08484193 -0.24011292 -0.18742904 -0.35329127 -0.016981876 0.28140613
0.017113943 -0.027561001 -0.027007686 -0.20842977 0.0522618 -0.15017316 0.06500641 -0.091830574
-0.25517166 -0.09870002 -0.12490148 -0.5166882 0.025952497 -0.41501707 -0.2073192 0.038226925
0.4070302 0.3318091 0.23591015 0.143788 0.06565491 -0.27702707 0.28269115 0.04587878
-0.23016405 0.4238585 -0.043493144 -0.33230507 -0.41521543 0.29055262 -0.21805844 0.15943018
0.061119333 -0.05247091 -0.13246264 -0.41862813 0.20121248 0.11912991 0.4188139 0.037263427
-0.2612291 0.19598752 -0.06206257 -0.32683972 0.21918039 -0.24152097 0.36279523 0.18865344
0.2630117 -0.054660704 -0.27491838 0.21700074 0.16123013 -0.2557684 0.4799143 -0.13604271
0.29431722 -0.45691347 0.44691482 -0.16517207 -0.41790524 -0.05692794 -0.478533 -0.5710145
0.27075335 0.04428598 -0.055569034 -0.023869883 -0.06515056 0.22176369 0.50678134 -0.013442579
00000000: 0a10 533e f722 0c3e 2195 e8bd d279 9b3e
00000010: 67e2 07be 5532 0f3e 50d2 6e3e 3e80 b23d
00000020: 4dd0 5dbd 1565 943d 1701 a2bb 72ed 373e
00000030: 4707 413e bfae 113d 25ec 8abe 6b89 363e
00000040: cd6b 5f3e 489e 6b3e d259 44bc 4055 ccbe
00000050: cf19 423d 1e03 af3e 5d62 88be bff7 24be
00000060: 9b94 823d e41c 2f3e e031 e03c bb9f 503e
00000070: bb1d 543d 17b2 373e 20ed 5dbe 9608 72be
00000080: fdc4 683e f96f c9bb ef24 12be bda5 d6bd
00000090: 953e 6b3e 6342 96be 6b35 e1bc c821 543e
000000a0: de13 55be 0b81 c8bd afe1 95bd 9cf1 c3bd
000000b0: 9306 97be b5ab 8fbe 572e 2a3b 141a 90be
000000c0: cb81 0cbe beb1 0e3d 67c2 53be 6eef 68be
000000d0: 3eee a6be 8d73 ec3c d43b a13e da83 143d
000000e0: e0a6 853e ed86 a33b 75cc 1dbe a31d 983c
000000f0: 0625 2dbe 2c73 d9bd 1630 3bbe ffc9 eebd
00000100: 056a 1bbe 96bb 65be 9fa2 96be 0cc9 42be
00000110: 6dfc ebbd a186 293e f4b8 003d a078 903e
00000120: ede0 1ebe 69cf 883e ff47 ad3e 04e7 ac3c
00000130: 2881 8dbe 8459 753e 6691 7abe 2446 c9be
00000140: 97ea 02be 939d 9cbe a38c 833d 81a3 7dbe
00000150: c294 07bf c678 9b3d 1c08 7abe cf6c c0be
00000160: ac30 373e 3e42 babe 1924 df3e 57b9 eabd
00000170: 261f 96bd 107f 07be cb0c 3f3d c7bf 88bd
00000180: e19f e9bd 9d0e 6bbe 6a3e 8fbd dcab 743d
00000190: 5e64 84be 02aa 87bd 7143 07bf e482 d3bb
000001a0: 33b9 26bf 6141 bc3c 861b b6bc 422d babe
000001b0: 5108 d03e d078 7fbe e18d 983d 2348 973e
000001c0: 145b 94bd 6774 ddbe 8698 163e a015 c03e
000001d0: f489 f93d 0541 45be 7b55 a73d 5929 353f
000001e0: be40 45be 58ab 533d 03a0 4bbc 206c b53d
000001f0: 8fae 6f3e 9c53 943d 0507 3f3e 9cc7 91be
00000200: 797b 383e a5e9 8d3d 81ba 683e 7b31 1dbe
00000210: 0d9f 10bd 23ef a1bd baab bf3e 73d3 d2be
00000220: 1e5f 47be f044 a7be f067 d83d c0f1 eebd
00000230: e1c8 773c 129a 803d b4c3 40bd f7db 23be
00000240: dd6f 233e 788c 173e b17c b5bc 87ca bebe
00000250: 63c6 cb3d a9fd 843d 791f a43e 5fa6 90be
00000260: d6d6 c73e 4cbb 35be d1ff 6e3e 14dd 4c3e
00000270: ff21 ebbe ca42 22bd 21b5 0d3d 5eb0 eb3e
00000280: a455 2ebe 2ecd 46bb 87d0 95bc 8f69 c43e
00000290: 0eeb de3e d606 1a3e c9e2 573e 5212 273f
000002a0: 0d57 ea3e 1341 ab3e 3c7f bfbe 4b0b 68be
000002b0: ff93 ce3b 7883 26bd 3949 84be 40ed 4c3e
000002c0: 22c8 f03e 2f0d b2be 9bc1 ad3d 29e0 75be
000002d0: 66ed 3fbe 98e2 b4be 931d 8bbc 7714 903e
000002e0: 8a32 8c3c 9cc7 e1bc 393f ddbc 9d6e 55be
000002f0: 7810 563d fec6 19be 1522 853d ab11 bcbd
00000300: dca5 82be 3c23 cabd 59cc ffbd ae45 04bf
00000310: 559a d43c 1e7d d4be 7c4b 54be d693 1c3d
00000320: 4366 d03e e2e2 a93e 6e92 713e 293d 133e
00000330: 1576 863d 7ed6 8dbe e5bc 903e 63eb 3b3d
00000340: 20b0 6bbe fb03 d93e de25 32bd e423 aabe
00000350: 1e97 d4be 50c3 943e b64a 5fbe aa41 233e
00000360: 4458 7a3d bdeb 56bd 49a4 07be 6d56 d6be
00000370: a50a 4e3e 62fa f33d c76e d63e 89a1 183d
00000380: d2bf 85be f4b0 483e 5235 7ebd 8957 a7be
00000390: d370 603e 4651 77be 4cc0 b93e 5e2e 413e
000003a0: 78a9 863e e7e3 5fbd 1ac2 8cbe 7135 5e3e
000003b0: 8319 253e 13f4 82be 54b7 f53e c84e 0bbe
000003c0: bfb0 963e 90f0 e9be 05d2 e43e de22 29be
000003d0: adf7 d5be 462d 69bd 4702 f5be 022e 12bf
000003e0: 2fa0 8a3e 3765 353d 5b9c 63bd c68a c3bc
000003f0: a86d 85bd 0516 633e 6cbc 013f 433e 5cbc

bias f4 [20]
0.3517763 0.09569142 -0.23615879 0.15607385 -0.3473664 -0.21681125 -0.0836614 -0.21057525
-0.004129063 -0.09798734 0.3082629 -0.30307472 0.22794953 -0.2240115 -0.41424862 0.017014613
-0.037981875 -0.08340441 -0.026090626 0.32957247
00000000: 061c b43e ddf9 c33d 9cd3 71be d3d1 1f3e
00000010: 02da b1be c503 5ebe ab56 abbd 0aa1 57be
00000020: 174d 87bb 96ad c8bd a3d4 9d3e 9c2c 9bbe
00000030: 9a6b 693e 4563 65be 6518 d4be 3b62 8b3c
00000040: e292 1bbd eecf aabd 02bc d5bc b9bd a83e

weight f4 [20, 20]
-0.13718121 0.016020374 -0.08526306 0.08994346 -0.40415287 -0.27128693 0.10937641 -0.3044087
0.44609943 0.13860701 0.3219694 0.058547672 0.03089612 -0.13102067 -0.022467114 0.4035067
-0.16467458 0.22644591 -0.29528397 -0.23922479 0.29609877 0.51138276 0.0135375885 0.048120994
-0.28234467 0.08371046 -0.20497476 -0.24314263 0.27056912 0.13024314 0.23145822 -0.34389734
-0.3852126 0.03627718 -0.17960007 0.02748461 0.24708827 0.25297713 0.30611533 0.13209023
-0.36796036 -0.16332018 0.44795308 0.16490656 0.31060025 0.1730657 -0.08236085 0.27271032
0.048167355 0.09297382 -0.13665213 0.17098075 -0.27876794 0.079940066 0.36924425 0.43861356
0.023791937 0.051235322 -0.2980553 0.13701744 0.041753385 0.031764243 0.31079394 -0.34660313
0.25706938 0.093277775 -0.31603718 0.00832843 -0.008252183 0.3473266 -0.4889856 0.34643117
0.06474063 0.14673232 0.21688251 0.12488762 0.35050854 -0.14859462 -0.19610973 -0.48138392
0.2090454 0.13651289 0.14718573 0.11518444 0.29486004 -0.4975521 0.33683228 0.14889218
0.22024006 -0.022202158 0.1293816 0.07535071 -0.37753963 0.08557513 -0.044166494 -0.62400395
-0.31210643 0.11285397 0.20138003 0.36032677 0.111806095 -0.23216735 0.066544406 -0.0005186404
-0.65237206 0.0165252 0.18471932 0.44281447 -0.18818375 -0.3772909 0.5168207 0.28884166
-0.35939538 0.09588132 0.048067156 0.19815893 0.0265679 -0.19282152 -0.2572375 0.17284715
-0.4772064 0.16709718 0.063995205 -0.07368837 -0.44479725 -0.21264195 -0.28386477 -0.25012678
0.07867258 -0.6710408 0.4546569 -0.016029838 -0.04767374 -0.37531945 0.028160125 -0.35134694
-0.23221765 -0.16504852 0.07901757 -0.113231316 0.6584059 -0.14934394 -0.32803622 -0.095046654
-0.37077776 0.116687045 0.10865134 -0.09915598 -0.1346223 -0.07053544 0.020376733 -0.49716944
-0.3986523 0.4592567 -0.18348207 -0.020794056 -0.11479888 0.40468127 0.21804507 0.020787938
0.06555748 0.08820361 -0.13427138 -0.07199997 -0.611951 -0.5238406 0.16503412 -0.0852827
0.25454307 0.03566278 0.31286815 -0.03687687 -0.24440783 0.25543648 -0.011806975 -0.73296034
-0.30019042 0.21048136 0.0300506 -0.20267084 0.008034738 0.15597314 -0.039294545 -0.22278157
0.2575236 0.24332713 0.13320324 0.2511735 -0.17032121 -0.16043945 -0.37169167 0.2582241
0.31607205 -0.1621568 0.45935407 0.4615694 0.2668721 -0.18188646 -0.09402945 -0.28951007
5.7581306e-05 -0.39016566 -0.013759595 0.016493136 0.19889395 -0.3669731 -0.09098481 0.071643025
0.15159807 0.002539053 -0.11329674 -0.23590204 0.2330202 -0.30722505 0.32492158 0.11376806
0.1159263 -0.35477832 0.28402674 0.006317186 0.23253886 0.015957687 0.20874903 -0.17130154
-0.3306083 -0.4822611 -0.1199009 -0.1407552 0.26190346 -0.012152006 0.686874 -0.164522
-0.12621385 -0.17859536 -0.29512158 -0.36685345 -0.21363798 0.15273996 0.3851648 0.16810969
-0.08571381 0.07839003 -0.024379382 -0.025693787 0.47078 0.41563702 0.33571014 0.25497705
-0.6581554 -0.34748283 -0.16469406 -0.30146018 0.38381484 -0.079004556 -0.18817453 -0.13296406
00000000: 3b79 0cbe 293d 833c 669e aebd 4734 b83d
00000010: 20ed cebe 1fe6 8abe bd00 e03d 75db 9bbe
00000020: 2567 e43e ffee 0d3e 2cd9 a43e afcf 6f3d
00000030: dc19 fd3c 482a 06be f40c b8bc 6e98 ce3e
00000040: 74a0 28be 70e1 673e 762f 97be 58f7 74be
00000050: 429a 973e fbe9 023f c3cc 5d3c 851a 453d
00000060: 7b8f 90be 6470 ab3d e7e4 51be 62fa 78be
00000070: 0988 8a3e 755e 053e 6203 6d3e 5013 b0be
00000080: 963a c5be 6197 143d 15e9 37be 6827 e13c
00000090: b504 7d3e 3886 813e 26bb 9c3e a942 073e
000000a0: 4d65 bcbe 683d 27be 1b5a e53e 44dd 283e
000000b0: ff06 9f3e 2338 313e ceac a8bd b0a0 8b3e
000000c0: 224b 453d 0f69 be3d 89ee 0bbe 9415 2f3e
000000d0: acba 8ebe 9eb7 a33d 950d bd3e f591 e03e
000000e0: 4fe7 c23c 21dc 513d b49a 98be 4d4e 0c3e
000000f0: 9905 2b3d 391b 023d 6220 9f3e f775 b1be
00000100: 999e 833e 6b08 bf3d a0cf a1be f873 083c
00000110: 2a34 07bc cbd4 b13e 525c fabe 6d5f b13e
00000120: bc96 843d ff40 163e 7316 5e3e 15c5 ff3d
00000130: db75 b33e 3029 18be fdd0 48be f477 f6be
00000140: ff0f 563e 09ca 0b3e dbb7 163e d2e5 eb3d
00000150: e5f7 963e 26bf febe 4875 ac3e 3177 183e
00000160: 9c86 613e 4de1 b5bc 9c7c 043e 7951 9a3d
00000170: e04c c1be 0442 af3d ede7 34bd b9be 1fbf
00000180: 6acc 9fbe fb1f e73d 9136 4e3e c07c b83e
00000190: 98fa e43d 47bd 6dbe 6f48 883d 5ef5 07ba
000001a0: db01 27bf db5f 873c 1027 3d3e 94b8 e23e
000001b0: 3eb3 40be 462c c1be 5d4e 043f 0ee3 933e
000001c0: ac02 b8be 6d5d c43d 11e2 443d 2dea 4a3e
000001d0: eda4 d93c 0173 45be a2b4 83be d8fe 303e
000001e0: 6654 f4be 861b 2b3e eb0f 833d eee9 96bd
000001f0: 77bc e3be d0be 59be b956 91be 9e10 80be
00000200: 171f a13d 54c9 2bbf cac8 e83e 0251 83bc
00000210: 8a45 43bd df29 c0be 10b0 e63c bfe3 b3be
00000220: 77ca 6dbe 7b02 29be f7d3 a13d d2e5 e7bd
00000230: 4a8d 283f 9eed 18be 5df4 a7be d2a7 c2bd
00000240: 95d6 bdbe 9ef9 ee3d 9884 de3d 4a12 cbbd
00000250: 6eda 09be e374 90bd 1bed a63c fe8c febe
00000260: 271c ccbe b223 eb3e b9e2 3bbe 4c58 aabc
00000270: ad1b ebbd 6232 cf3e 3547 5f3e 774b aa3c
00000280: 0043 863d 18a4 b43d 707e 09be b874 93bd
00000290: d2a8 1cbf 6b1a 06bf b4fe 283e b2a8 aebd
000002a0: 7853 823e 2313 123d 4130 a03e 330c 17bd
000002b0: 0c46 7abe 92c8 823e 0b72 41bc 4aa3 3bbf
000002c0: 8fb2 99be 6d88 573e ad2c f63c f288 4fbe
000002d0: 22a4 033c 6cb7 1f3e 51f3 20bd da20 64be
000002e0: 22da 833e bf2a 793e 6e66 083e d099 803e
000002f0: af68 2ebe 3d4a 24be 5f4e bebe f335 843e
00000300: 32d4 a13e 6f0c 26be 7530 eb3e d352 ec3e
00000310: 76a3 883e 7240 3abe 8392 c0bd aa3a 94be
00000320: 7583 7138 cbc3 c7be ed6f 61bc 9d1c 873c
00000330: dbaa 4b3e e6e3 bbbe 3e56 babd 94b9 923d
00000340: 863c 1b3e 3e66 263b 1f08 e8bd 4e90 71be
00000350: d99c 6e3e 9a4c 9dbe 1f5c a63e 3bff e83d
00000360: c56a ed3d 81a5 b5be f46b 913e 6600 cf3b
00000370: ab1e 6e3e b2b9 823c 4ec2 553e ac69 2fbe
00000380: 7e45 a9be edea f6be 9a8e f5bd 2222 10be
00000390: 3618 863e 3519 47bc f9d6 2f3f 7578 28be
000003a0: 343e 01be b4e1 36be 2d1a 97be 37d4 bbbe
000003b0: eac3 5abe dd67 1c3e 5234 c53e f224 2c3e
000003c0: b98a afbd f48a a03d 45b7 c7bc c77b d2bc
000003d0: 130a f13e 60ce d43e 33e2 ab3e 5a8c 823e
000003e0: df7c 28bf 45e9 b1be 8fa5 28be fd58 9abe
000003f0: 6183 c43e 24cd a1bd d3b0 40be bb27 08be

bias f4 [20]
0.3308595 0.07043171 -0.39132228 -0.51781726 0.19968775 0.0046133287 -0.0038760428 0.4634394
0.030799352 -0.30874985 0.026991904 0.44482017 0.071450956 0.084199235 -0.22356582 0.5146706
0.44766825 -0.23445332 -0.37107936 0.20886771
00000000: 6b66 a93e 803e 903d 655b c8be ac8f 04bf
00000010: f27a 4c3e 682b 973b 3505 7ebb ee47 ed3e
00000020: ec4e fc3c 7614 9ebe 201e dd3c 78bf e33e
00000030: e154 923d a670 ac3d 70ee 64be 74c1 033f
00000040: c634 e53e 8814 70be 1dfe bdbe 6be1 553e

weight f4 [20, 20]
-0.13574198 -0.31725892 0.29517853 0.20574851 -0.23260397 -0.6643365 -0.48194873 0.29595798
-0.7402115 0.4002103 -0.114079185 -0.6809543 0.43046868 -0.28344494 0.4115911 -0.21896383
-0.6622459 0.26343945 0.05765624 -0.30565378 0.10470163 -0.17230844 0.34960213 0.19058019
0.2885329 -0.22316091 0.0044815596 -0.28989398 -0.05894193 0.57981426 -0.17036702 -0.14279883
0.5231349 -0.2883617 -0.042948887 -0.57456106 -0.29134393 0.5097143 0.011285739 -0.06139058
-0.146236 -0.2305097 0.63083297 0.20793808 0.13241781 0.24180058 -0.38569653 -0.40231687
-0.2547146 -0.11240872 0.03797208 -0.20061088 0.28655198 -0.34638435 0.21301664 -0.4937729
-0.46215498 0.038138736 -0.11755667 -0.30927536 0.025075775 0.19500259 0.030783081 -0.1649173
-0.23578098 0.07144558 0.17817977 0.18261488 0.7272244 -0.801633 -0.027066099 0.6075256
-0.19114448 0.35902494 -0.22891554 -0.24044058 0.12909266 0.12219029 -0.3758339 -0.13254638
0.13766941 0.14582321 -0.0064823735 -0.03323984 -0.02197098 0.29492226 0.4245103 0.57907444
0.13288105 -0.68752134 -0.14391138 0.22114395 0.27069744 0.24869104 -0.397939 0.04205385
-0.09618635 -0.22578864 0.2801429 0.35991845 -0.2411248 -0.15547715 0.09079046 0.07570003
-0.07580985 -0.2663253 -0.27470744 -0.09182052 -0.54987293 0.17222384 0.21483162 -0.12314686
0.38812584 -0.7314934 0.30347845 0.04647377 0.02386306 0.8220376 0.059666358 -0.014875924
0.5474846 0.34337345 -0.34470177 0.11087335 -0.16353326 0.509223 0.072365575 0.4879062
0.0059368555 -0.4004085 -0.009165055 0.41168404 -0.2546993 0.21946117 -0.21680538 0.2400687
0.08419927 0.07988303 -0.026988434 0.30962718 -0.35007948 -0.5229969 -0.05540807 0.23629011
0.21089426 0.0830896 0.40305522 -0.23691253 -0.15001726 0.46607724 0.36736563 -0.67464185
-0.4831628 -0.04026775 0.101919934 0.020564707 -0.061953068 0.15748277 0.6426773 -0.35217386
-0.35134003 -0.104440205 0.6025676 0.56700134 -0.030659216 -0.28245234 0.04740372 -0.43839794
-0.6588787 0.061747473 -0.22013743 -0.20673153 0.6191823 -0.6868794 0.16486143 -0.01997624
-0.2834104 0.06441989 0.06697716 -0.29127437 0.39335483 0.8347906 -0.9354529 -1.1413656
0.5725819 0.6451367 0.85441345 0.20689455 0.6730334 0.20940083 0.035970263 1.0572977
-0.9441897 0.5060299 -0.83849525 0.61758703 1.0296391 -0.4717093 -0.06005286 0.84086496
-0.15598631 -0.16192453 0.3975622 -0.011689352 -0.5005671 -0.8331545 0.053751487 -0.12703373
-0.3341661 0.5932516 0.010694957 -0.46852738 0.43131292 -0.29773647 0.5780641 -0.56222224
-0.12758593 -0.17443402 0.33396754 -0.08669006 0.15908012 -0.2778245 0.35799634 -0.018711582
0.19414319 0.3430329 -0.4089185 -0.61832553 -0.06098676 0.07988992 0.3597318 0.08132512
0.7427324 0.1033419 0.4473418 -0.035595153 -0.56841546 0.54355234 -0.1457983 -0.17431207
0.39312717 0.32854939 -0.12369144 -0.10644615 0.086591475 0.03425773 0.25968993 -0.113365345
0.43897724 0.03713323 0.019066583 0.5112913 0.29392844 0.039691076 -0.19193245 0.53777725
00000000: f2ff 0abe c36f a2be a421 973e bdaf 523e
00000010: bc2f 6ebe f511 2abf fcc1 f6be ce87 973e
00000020: 807e 3dbf 5de8 cc3e 59a2 e9bd 0553 2ebf
00000030: 6466 dc3e b21f 91be 12bc d23e 0e38 60be
00000040: f388 29bf 89e1 863e f328 6c3d a77e 9cbe
00000050: cf6d d63d a071 30be 0dff b23e 7427 433e
00000060: 96ba 933e 4b84 64be 0cda 923b fc6c 94be
00000070: 186d 71bd b56e 143f b174 2ebe db39 12be
00000080: 2bec 053f 25a4 93be 2ceb 2fbd 6f16 13bf
00000090: 082b 95be a37c 023f d2e7 383c b074 7bbd
000000a0: e4be 15be bc0a 6cbe 457e 213f b8ed 543e
000000b0: 8998 073e 929a 773e 047a c5be 7afc cdbe
000000c0: f469 82be 8b36 e6bd 9d88 1b3d f06c 4dbe
000000d0: f1b6 923e 4a59 b1be 0921 5a3e cdcf fcbe
000000e0: 949f ecbe 5d37 1c3d 8dc1 f0bd 5759 9ebe
000000f0: b66b cd3c c2ae 473e cd2c fc3c 15e0 28be
00000100: 9270 71be 0f52 923d c274 363e 65ff 3a3e
00000110: 612b 3a3f d237 4dbf b9b9 ddbc cc86 1b3f
00000120: 61bb 43be 1ed2 b73e d668 6abe 0e36 76be
00000130: de30 043e e73e fa3d 4d6d c0be 3dba 07be
00000140: 36f9 0c3e ae52 153e 176a d4bb 8026 08bd
00000150: 7cfc b3bc 0d00 973e 6a59 d93e 393e 143f
00000160: f811 083e 6601 30bf 815d 13be 8f73 623e
00000170: db98 8a3e dda8 7e3e a9be cbbe a840 2c3d
00000180: 59fd c4bd 2335 67be e46e 8f3e 3b47 b83e
00000190: 6be9 76be 6735 1fbe 59f0 b93d 9e08 9b3d
000001a0: 3242 9bbd ca5b 88be 74a6 8cbe 660c bcbd
000001b0: 79c4 0cbf 725b 303e d2fc 5b3e 6c34 fcbd
000001c0: 6eb8 c63e 2743 3bbf 8761 9b3e 485b 3e3d
000001d0: 777c c33c 0e71 523f b664 743d 26ba 73bc
000001e0: f327 0c3f a5ce af3e c07c b0be 9111 e33d
000001f0: 4375 27be 705c 023f 6734 943d d7ce f93e
00000200: f489 c23b 5802 cdbe 0729 16bc 40c8 d23e
00000210: f267 82be 6eba 603e 3b02 5ebe 92d4 753e
00000220: ab70 ac3d b799 a33d d916 ddbc 7487 9e3e
00000230: 9e3d b3be 20e3 05bf 93f3 62bd 09f6 713e
00000240: aaf4 573e e12a aa3d 415d ce3e 3399 72be
00000250: 209e 19be ada1 ee3e 5917 bc3e 54b5 2cbf
00000260: 1d61 f7be ccef 24bd 66bb d03d 5177 a83c
00000270: 80c2 7dbd 2a43 213e 8086 243f 2250 b4be
00000280: d7e2 b3be bfe4 d5bd df41 1a3f 0027 113f
00000290: 0929 fbbc 989d 90be 672a 423d b275 e0be
000002a0: 46ac 28bf ebea 7c3d b56b 61be 6eb1 53be
000002b0: bb82 1e3f 54d7 2fbf 6fd1 283e 36a5 a3bc
000002c0: 2b1b 91be 93ee 833d 522b 893d ea21 95be
000002d0: ce65 c93e d6b4 553f d779 6fbf 4518 92bf
000002e0: ba94 123f ae27 253f d7ba 5a3f 2adc 533e
000002f0: eb4b 2c3f 2c6d 563e 8e55 133d 8855 873f
00000300: 6bb6 71bf 2d8b 013f a0a7 56bf 2f1a 1e3f
00000310: 37cb 833f e283 f1be fdf9 75bd ed42 573f
00000320: e0ba 1fbe 8bcf 25be 468d cb3e b284 3fbc
00000330: 2a25 00bf 9d49 55bf 852a 5c3d 2115 02be
00000340: d217 abbe 56df 173f e739 2f3c d2e2 efbe
00000350: 0cd5 dc3e ea70 98be 02fc 133f cced 0fbf
00000360: e3a5 02be d59e 32be cbfd aa3e 8f8a b1bd
00000370: e6e5 223e 033f 8ebe 4c4b b73e 0849 99bc
00000380: 79cd 463e 02a2 af3e c45d d1be 954a 1ebf
00000390: 41cd 79bd 549d a33d c42e b83e c98d a63d
000003a0: b623 3e3f eba4 d33d fc09 e53e 39cc 11bd
000003b0: ad83 11bf 3f26 0b3f 264c 15be dd7e 32be
000003c0: f747 c93e a037 a83e f051 fdbd 7000 dabd
000003d0: df56 b13d d551 0c3d 14f6 843e 172c e8bd
000003e0: a0c1 e03e 0419 183d 8631 9c3c fde3 023f
000003f0: ca7d 963e 1c93 223d f189 44be c5ab 093f

bias f4 [20]
-0.30292022 -0.61998194 -0.42554545 0.1807817 0.23835516 -0.0800278 0.8260468 -0.36618027
-0.5066859 1.2625105 -0.27507097 -0.22812027 -0.16603097 -0.47102997 -0.24454357 0.05704545
0.29053307 0.6963568 0.07252335 -0.25436845
00000000: 5c18 9bbe 23b7 1ebf 18e1 d9be d71e 393e
00000010: 6013 743e 9de5 a3bd ce77 533f fb7b bbbe
00000020: 2bb6 01bf f299 a13f 1ad6 8cbe 5c98 69be
00000030: 0604 2abe d72a f1be a169 7abe 7da8 693d
00000040: c0c0 943e 7044 323f 1f87 943d 953c 82be

weight f4 [1, 20]
-4.2831845 -2.3240173 -2.1102777 2.2707684 2.384889 -1.6945422 2.7175574 -2.5179904
-2.3160763 5.79385 -2.8943706 -2.5385053 1.7681952 -2.981198 -0.979004 2.977882
2.3927913 2.6270738 2.9765227 -2.1295686
00000000: d90f 89c0 b3bc 14c0 ca0e 07c0 4554 1140
00000010: 05a2 1840 c2e6 d8bf 76ec 2d40 c126 21c0
00000020: 983a 14c0 3867 b940 5e3d 39c0 df76 22c0
00000030: 3854 e23f f3cb 3ec0 02a0 7abf 9e95 3e40
00000040: 7e23 1940 fa21 2840 597f 3e40 da4a 08c0

u_b f4 [2]
1.1 39.96
00000000: cdcc 8c3f 0ad7 1f42

l_b f4 [2]
0.1 0.0
00000000: cdcc cc3d 0000 0000
