Trained/Iter_02/Models_02/Noise_5/toy_nostop/weak_ff_100.pt (torch, 36639 bytes, 23 tensors)

weight f4 [20, 2]
00000000: d0bc b33e f366 7a3e da58 cfbf 0e57 993e
00000010: ffa9 46bf 5c1a d83c 5655 d63e 6b8d b33f
00000020: 767c a03e 94d7 83bf 5600 673e 77d3 19bf
00000030: 5e4e 3d3f 1b85 28be cb5f cc3e dbe4 d7be
00000040: f299 19bf 90db 1b3e ad82 f33d 8bb7 953b
00000050: 0378 04bf c6b6 0e3f df10 9f3e 2d30 12bf
00000060: f06a 573f 91ca 03bf 64f5 343e 40b1 843e
00000070: a36b 90be d1c2 60bf 54da c53f 0031 a4be
00000080: 58d1 2b3f 5e6c f2bf 89dd 92bf 7e79 013e
00000090: ea88 793c ea2b f2be 22aa a6bf c0e8 123f
0.3510499 0.24453335 -1.619899 0.2994923 -0.77603143 0.026379757 0.4186198 1.4027532
0.31344956 -1.0300164 0.22558722 -0.60088295 0.73947704 -0.16457026 0.39916834 -0.4216679
-0.60000527 0.15220475 0.11890159 0.004568999 -0.51745623 0.5574764 0.3106756 -0.5710476
0.8414755 -0.51480967 0.17671734 0.2591648 -0.2820712 -0.87797266 1.5457253 -0.32068634
0.6711631 -1.8939321 -1.1473857 0.12644002 0.015230397 -0.4729913 -1.302067 0.573864

bias f4 [20]
00000000: 5b7d d1bc 3db2 2f3e 939b 303f a10b aabe
00000010: 7b9e 163e 376a 1e3d 6287 3d3f 8001 d13e
00000020: c70a ef3d 7a50 113f 0219 473e 394a 5ebd
00000030: c486 583f 190c f5bd d9f6 653f cdd4 0d3e
00000040: 5f10 3cbf e485 133b cef6 5fbe c9d3 cb3e
-0.02557247 0.17157836 0.6898739 -0.33211997 0.14708893 0.038675513 0.740347 0.40821457
0.116719775 0.5676342 0.19443133 -0.054270003 0.84580636 -0.11965198 0.89829785 0.13850708
-0.7346248 0.0022510225 -0.21871492 0.39810017

weight f4 [20, 20]
00000000: 9309 a03d 2b29 e8bd d471 14bd d053 0cbf
00000010: ef6f df3e e17e c73e dd89 3d3e 12b0 db3e
00000020: bb7f b53d 6e30 8a3e fded 583e 0fa5 f63d
00000030: e8d5 193f b99f 63bc 75dc 493f 9d5d cd3d
00000040: 7ac9 8e3d b926 51be 586d 14bd 62ed 643d
00000050: c47d 673e 64d7 253f 10cf ba3e 26bb 0abf
00000060: d17d 3ebd 968c 05bf 244a d7be d32c 55be
00000070: 84f5 d63e fcd8 263d 76af 093e 4705 9dbd
00000080: 35d8 b6be 589d 2b3e fd00 19be 5942 c2be
00000090: af85 7fbe 17d3 123f 3afa d63b 7953 9a3e
000000a0: 61f1 2a3e d041 00bf 80b2 fabe 1f49 7bbf
000000b0: bfac 833f 2670 f93e 7508 803d 2484 053f
000000c0: 7f78 51be 374a 97be 54dc fbbe 8386 f13e
000000d0: 18f2 363e a74b 83be 6323 733e c198 1f3f
000000e0: 66a7 973f 8e48 02bf a872 9d3e 4957 5bbf
000000f0: b5b2 573e c12b 85bd 80b9 a0be bf1c 4e3e
00000100: 6b88 073e 5c5b 223e a0f6 7dbe 2330 843d
00000110: 911d 01be 2955 2a3e 9910 393d 9857 2b3e
00000120: a673 023f 60ba 893d a809 5c3d ea86 633d
00000130: da14 34bf 50be 09bd 31b4 2c3e 5a73 c83d
00000140: 22c6 8e3e 14c1 5c3e dd55 cc3e f2a1 a33e
00000150: f576 c3be 7ed9 a5be 4b61 913e a475 493e
00000160: 25eb 1f3e 7749 613d ad9c 883e 933a efbd
00000170: 3b59 0a3c fbb7 fcbd 2295 3dbc a0a8 11be
00000180: 8c0c 2abf 4244 ee3d f879 e9bd 11b0 143f
00000190: 3eb9 8f3d 61d6 373f 808d e53e 734c 983d
000001a0: 8f95 433d 7558 08be 628f c3be 792e 34be
000001b0: 6bbd af3e 8489 4dbe dee1 b23e 264e 77be
000001c0: 0f10 28bf d7ee 1cbc 19b9 a43e 5c1f 22bf
000001d0: 5add 1fbf d374 083f dd06 a2bc c0cc 183f
000001e0: 9f74 c4be 14d1 bc3d 2861 a23e 236c 643e
000001f0: 425a a5be 0f9e 2abf 84d1 8c3e 6116 4ebd
00000200: 1e70 e33e 16f9 61be 6981 b63e 2253 8abe
00000210: 6e8b 173d 3fe7 1a3a bf72 623e e14c 703b
00000220: b398 24bf f369 9ebd e45f eebd d9e6 393e
00000230: 3948 733e 0a5b 4e3f 19c3 2c3f 732f ec3d
00000240: dec7 bf3b 2815 13be dde0 21bd 5b46 d2bd
00000250: 9100 403e e6bc 7c3e c052 8b3e 0130 7e3d
00000260: 8ce2 303e 5ba7 32be 8250 1e3d f436 15bf
00000270: 4a6a 46be 8d46 393e 1022 bebe 8313 2b3f
00000280: ea49 003e a381 8dbe 50b3 11be 1590 1b3f
00000290: c5c9 debe 7e03 843d 4acf 4cbe 286f 89be
000002a0: 4a0d 3dbe 3faf ffbd ad8b fc3d 98f1 b63d
000002b0: a76b d13d 45bd 19bd 8a20 f9bc ccef de3e
000002c0: de10 05bf 4eea 8ebd ffa7 003e 8f75 62be
000002d0: a869 ff3d 615c 033e 8f00 083f ae79 183d
000002e0: 244d e13e d55d 923e 8f06 ec3e ed9b f63d
000002f0: 389d e13e 89fc 9e3e 43ac d33d 1344 37be
00000300: 1320 aabd 2d80 4c3e fbed bb3c 4c35 c6bd
00000310: f4d6 333f 0b1f 3cbe c043 64be 514a 3a3e
00000320: 0921 81bd 85b2 b13e c20e 24bd ff7e 4bbe
00000330: 28b5 84bd 542e 83be d815 47be 5a5c 6bbb
00000340: 2c82 0c3f 6aad c0be ea79 72bd 35ae 2bbe
00000350: e72c 8ebe 8ee8 9bbd 4df9 0d3d 2da0 1ebe
00000360: 4451 62be 96eb 0a3f b578 2a3e ccf2 48be
00000370: 79f2 e0be c932 a23e 91d2 883e e251 333e
00000380: 288d ddbc 9a92 d73d a1f6 a9bd 7840 f1bd
00000390: cf2f 11be 2cde 9f3e f2d0 dd3d 9108 f93e
000003a0: 205d a3bd 70b2 f8bd 8e2c 7d3e eba2 bdbe
000003b0: 81f8 883d 6da8 363e 1891 6a3e 2e3a c13d
000003c0: cece c8be 390e 923e 3546 b53e 32d0 0bbe
000003d0: cb9b 56be f287 933e 4fba c6bd 0841 09be
000003e0: a02d 4b3e 7104 563e 457e 65bd 8f34 cb3d
000003f0: d023 033e 25aa 4eb9 98d4 873b d31e bbbd
0.07814326 -0.11335977 -0.036241367 -0.5481539 0.43640086 0.38963988 0.18509622 0.42907768
0.08862253 0.26990074 0.21184535 0.12043201 0.6009202 -0.013893061 0.78852016 0.10027621
0.06972022 -0.20424928 -0.03623709 0.05589045 0.2260657 0.64781785 0.364861 -0.54191816
-0.046506707 -0.5216764 -0.42048752 -0.2081788 0.4198419 0.040734276 0.1344584 -0.07667022
-0.35711828 0.1675924 -0.14941783 -0.37941244 -0.2495334 0.5735335 0.006560591 0.3014181
0.16693641 -0.5010042 -0.4896431 -0.9815845 1.0287093 0.48718375 0.06251613 0.52154756
-0.20456122 -0.2954881 -0.49191535 0.47172937 0.17865789 -0.25643656 0.23743968 0.6234246
1.1847961 -0.5089196 0.30751538 -0.8568006 0.21064265 -0.06502486 -0.31391525 0.20128153
0.13235633 0.15855163 -0.24801111 0.06454494 -0.12608935 0.16634049 0.045181844 0.16732633
0.50957716 0.06725001 0.053720146 0.055548586 -0.70344317 -0.03362876 0.16865613 0.097876266
0.27885538 0.21558028 0.39909258 0.31959492 -0.38176695 -0.32392496 0.2839454 0.19673783
0.15617044 0.055001702 0.26682034 -0.11681094 0.008444126 -0.12339779 -0.011571201 -0.14224482
-0.66425395 0.11634113 -0.11400217 0.58081156 0.07017754 0.7181149 0.44834518 0.074364565
0.047750052 -0.13314994 -0.3819533 -0.17595853 0.34324202 -0.2007199 0.34937948 -0.24150905
-0.65649503 -0.009578428 0.32172468 -0.633291 -0.6244713 0.5330326 -0.019778663 0.59687424
-0.38370225 0.09219566 0.3171475 0.22306876 -0.32295424 -0.6664743 0.27503598 -0.05031431
0.44421476 -0.22067675 0.35645607 -0.2701655 0.036998205 0.0005909092 0.22114085 0.0036666917
-0.642955 -0.07735052 -0.116393834 0.18154468 0.2375802 0.80607665 0.67485195 0.11532488
0.0058526834 -0.14363539 -0.039521087 -0.102673255 0.18750216 0.24681434 0.2721157 0.0620575
0.17273921 -0.17446654 0.038650997 -0.58286977 -0.19376484 0.18093319 -0.37135363 0.6682665
0.12528196 -0.27637967 -0.14228559 0.60766727 -0.43513313 0.064459786 -0.2000095 -0.26842618
-0.184621 -0.124845974 0.123313285 0.08932799 0.10225611 -0.037534017 -0.030411024 0.43542325
-0.5197886 -0.06978284 0.12564085 -0.22115158 0.12471324 0.12828209 0.5312585 0.037225418
0.44004166 0.28587213 0.46098754 0.12041459 0.4406526 0.31052044 0.10335591 -0.17897062
-0.08306899 0.1997077 0.022940626 -0.09678134 0.7024987 -0.18371217 -0.2229147 0.18192412
-0.06305129 0.34706512 -0.040053137 -0.19872664 -0.06479865 -0.25621283 -0.19441926 -0.00359132
0.54886127 -0.37632304 -0.059198298 -0.16765673 -0.27768633 -0.07612716 0.03466158 -0.1549079
-0.22101313 0.54265726 0.16647609 -0.1962387 -0.43934992 0.3167937 0.2672315 0.17511705
-0.027044848 0.10526009 -0.08298994 -0.117798746 -0.14178394 0.3122419 0.10830869 0.48639348
-0.079767466 -0.12143409 0.24724028 -0.3703836 0.06688023 0.17837687 0.22906911 0.09434925
-0.3922028 0.28526476 0.35405126 -0.13653639 -0.20957868 0.28814656 -0.09703504 -0.13403714
0.19841623 0.20900132 -0.056028623 0.09922134 0.1280663 -0.00019709075 0.004145216 -0.09136739

bias f4 [20]
00000000: 2966 723e 31e1 c33c 967a 393e ffa6 0cbf
00000010: bc0f 4b3f c677 ee3d 0fce a13e 385e 153f
00000020: 1dbc 5cbe f09f 783f e822 7bbf dcfb 883d
00000030: 9ccf 7cbe 9d63 e83e c66e 943e a2bb 803f
00000040: 30e5 e13e 3b42 453e 5be2 20bf a79a 253f
0.23671784 0.02391109 0.18113169 -0.54942316 0.79320884 0.11643939 0.31602523 0.5834689
-0.21556135 0.97119045 -0.9810014 0.06688663 -0.24688572 0.453885 0.28990763 1.0057261
0.4412017 0.19263546 -0.6284539 0.64689106

weight f4 [20, 20]
00000000: cb3a 213f daf8 04bf 9835 703f 1c60 95be
00000010: 1692 10bf cb14 bcbd c6ab 05bd c326 923e
00000020: f825 4bbf b9ac 443f bfb3 cdbe ef43 013f
00000030: 2b7e 0b3f a4a7 193f b0e8 3cbd fd80 d23e
00000040: c241 863f 84cf 363f aac2 8dbd b604 983e
00000050: ee23 0b3e bb79 d33e 876d 57be f961 e3bb
00000060: e909 dcbe 61f2 fa3e 141a e5bc 6b74 85be
00000070: 0a0e 633d 361d d83e 1cd8 3a3e 27e1 acbc
00000080: 2641 37be 1a69 fc3b 1c4e 38be 4a0c 0abe
00000090: 7dc8 8c3d ef95 1e3f fb7e d33e 45c9 a13d
000000a0: e0bb 4dbe 6cfc 833d b546 c0be 2705 eabe
000000b0: 9528 b13d 3f24 b53e 9d18 693e d176 473e
000000c0: e06a 9bbd b4ca 293f c68a ccbe f494 f93c
000000d0: 9655 7ebe d42f 773e 58b9 46be 90e6 913e
000000e0: 36f5 bf3e b23b 403e 8859 0cbf 66d0 d63e
000000f0: 1d37 3c3e 1f6c 843e 8bc8 83bd 13ca 91be
00000100: fdd7 6bbf 8bc2 ea3c 25c7 83bf 0cfb 74bf
00000110: f1e8 19be f400 6fbd 54d1 c13c 0c14 afbe
00000120: d532 8bbd 5b7f f73c e713 b0bd af9a c13d
00000130: bd2d 903e 841a 923e 88d9 f23d 7e28 383f
00000140: 784c 903e 5587 1fbf 00c4 52bc aadc 023e
00000150: 36d4 963e 74d4 48be a4cc 7f3d e39a 1ebe
00000160: bfc5 f83e f7c4 fabd 241a 31bf 479f 82be
00000170: 666d b3bc 9b82 fdbe 38ae 113f 203e 113f
00000180: 35ff 25bd bba9 79be b787 6abc cf04 023e
00000190: 7b94 aebe a4c5 6b3e 43e9 28be fdc2 583d
000001a0: c661 f33d 201c 7fbc c98f be3d 2b6b 24be
000001b0: 1f80 893d d3fa 54be 7256 303e 0498 0bbe
000001c0: 878b 3b3e 76ea 75bc fec6 c33e 3d15 f6be
000001d0: b192 57be ac6e 1abe dad8 d23e 351f 2abf
000001e0: ff1e d23e 78a8 31bd 88f1 0ebe 6e62 153e
000001f0: 1668 93be 3f0d 1839 9687 43be fcb1 193f
00000200: de95 12bd b9d9 383e a542 c43e 2479 4c3e
00000210: 2da4 8ebd 03d3 f93e 9c86 c9be 7eed ce3e
00000220: f0dd 6f3e 69ec 14bf 3b96 71be b0ca 653e
00000230: 00a6 b7b9 87c9 01bd bf09 c73e 0a71 743e
00000240: 27a6 26be cc43 88be ea7c 00be e1fc 233e
00000250: 302e f93e 7dfc 3d3e dfc4 82bd 4289 4ebe
00000260: 41f7 21be edba 67be 627b a53e 710b 783e
00000270: c1d9 29bd 8f96 6f3e e011 12be af9d 6e3d
00000280: 8005 2abe 8006 27be 436d 5c3e f14e 4c3f
00000290: ad55 113f fea4 4abd 396b a63c 219c c6be
000002a0: c25c bb3e e7b0 b5be 7206 babd 6eb6 64bd
000002b0: 20f7 efbe d2f8 42bf 92e4 4e3f f64e 51be
000002c0: dae4 abbe 5f0d 90be 9611 013f 989a 25bf
000002d0: b1c1 e23e dee7 3ebc 673f 70bf 4f22 4a3d
000002e0: 792b 77be c33d f33e 56a4 b5be 5bfb 7b3e
000002f0: 7382 40bb 0d05 51bd 6ba3 063e 8709 623e
00000300: 8c6a 80be f59b 53be 5521 fabe 4bfc 913e
00000310: d4b9 17be 220f 203e cdf9 9b3e b4b2 53be
00000320: 36e7 193e e7fd 33bd 20aa 2abd 673e 19be
00000330: a47f 89bc c9ec 173e 4a5e 893e 0d37 fabc
00000340: b256 41bd e732 673e 4951 6abe 6c6a a63e
00000350: b3cf e93c f98f 963e 4bca cabe b36d 453e
00000360: f250 843d 501d eebe ab1f e0be ee2b 9abe
00000370: 179f 7b3e 0f9b e5bc cc53 803d 30c5 77be
00000380: 6823 75be d952 afbe 8ee5 d23b 3e2d 92bd
00000390: 3d45 9abe da5c c93e dcd4 3fbe 45da 833d
000003a0: 6bdb 653e 061c 9d3e 07f9 103e 73e1 c53e
000003b0: d7d0 ab3e 0013 543f 2486 ffbe 0d77 923e
000003c0: c763 ecbe 719a a43e bbc6 6fbe 3c7f 21be
000003d0: 062b 283e 065e d1be 6c67 2a3d 73c8 933e
000003e0: 24ce c1bd ac02 573d 0f7c 4c3e 35c5 2dbe
000003f0: 4698 98be 4708 e0be 8562 2f3e 0b25 94bf
0.62980336 -0.5194222 0.9383178 -0.29174888 -0.5647291 -0.091836534 -0.03263452 0.28545198
-0.7935481 0.76826054 -0.40176198 0.50494283 0.5448939 0.60021424 -0.046120346 0.41114035
1.0488818 0.71410394 -0.06921895 0.29691094 0.13587925 0.4130381 -0.21037875 -0.0069391695
-0.4297631 0.49013045 -0.027966537 -0.26065382 0.05543331 0.42209786 0.18246502 -0.021103455
-0.17895946 0.007702959 -0.17998546 -0.1348125 0.068741776 0.6194753 0.41307816 0.07899717
-0.200912 0.0644463 -0.37553945 -0.45707056 0.086503185 0.35379216 0.22763295 0.19478919
-0.07588744 0.66324925 -0.39949626 0.030466534 -0.24837336 0.24139339 -0.1940664 0.28496218
0.3749177 0.18772772 -0.54824114 0.4195587 0.18380399 0.2586374 -0.06434735 -0.28474483
-0.92126447 0.028657218 -1.0295149 -0.9569557 -0.15030266 -0.05835052 0.023659386 -0.34194982
-0.06796805 0.030212095 -0.08597546 0.09453332 0.28159896 0.28535855 0.11857897 0.71936786
0.2818334 -0.62315875 -0.012864113 0.12779489 0.2945878 -0.19612294 0.06245102 -0.15488772
0.48588368 -0.12244599 -0.6918051 -0.25512144 -0.021902751 -0.49513707 0.5690646 0.5673542
-0.040526588 -0.24381153 -0.0143145835 0.12697147 -0.34097657 0.23024613 -0.16495232 0.05292033
0.11883883 -0.01557067 0.093047686 -0.16056506 0.0671389 -0.20798807 0.17220476 -0.13632208
0.18314944 -0.015009513 0.38237756 -0.4806308 -0.21052052 -0.1508128 0.4118107 -0.6645387
0.41039273 -0.043373555 -0.13959324 0.14588329 -0.2879035 0.00014500784 -0.1909469 0.6003721
-0.035787456 0.18051805 0.38332096 0.19968086 -0.06964908 0.48793802 -0.3936051 0.40415567
0.23424506 -0.58173233 -0.23592465 0.224406 -0.0003502816 -0.031686332 0.38874623 0.23871246
-0.1627432 -0.26614225 -0.12547651 0.16014434 0.4866805 0.18553348 -0.063852064 -0.20169547
-0.15816976 -0.226299 0.32320696 0.24223115 -0.041467432 0.23397277 -0.14264631 0.058255848
-0.1660366 -0.16311073 0.21526055 0.79807955 0.56771356 -0.049473755 0.0203148 -0.38790992
0.36594206 -0.35486528 -0.090832606 -0.05583804 -0.4686823 -0.7616092 0.8081752 -0.20440277
-0.33573037 -0.281352 0.5041746 -0.64689016 0.442884 -0.011651961 -0.93846744 0.049349125
-0.24137677 0.47508058 -0.3547694 0.24607603 -0.0029374629 -0.051030207 0.13148277 0.22073947
-0.2508129 -0.20664962 -0.48853555 0.28512797 -0.14816982 0.15630773 0.3046402 -0.20673639
0.15029606 -0.043943312 -0.04166615 -0.14965211 -0.016784497 0.1483642 0.2682975 -0.030543828
-0.04720182 0.22578011 -0.2288257 0.32503068 0.028541422 0.29406717 -0.39607462 0.19280128
0.064607516 -0.4650674 -0.4377416 -0.3011164 0.24572407 -0.02802804 0.06265983 -0.24196315
-0.23939288 -0.34242895 0.0064360565 -0.071375355 -0.3013095 0.39328653 -0.18733543 0.06438116
0.22446983 0.30685443 0.14157496 0.38648567 0.3355777 0.8284149 -0.4990703 0.28606454
-0.46169874 0.3214908 -0.23415653 -0.15771192 0.16422662 -0.40892047 0.041602537 0.28863868
-0.09463146 0.052492782 0.199692 -0.1696976 -0.29803675 -0.43756315 0.17127426 -1.1573805

bias f4 [20]
00000000: 796b ae3e 26dc b13e e8f3 2d3f 151d a8be
00000010: 7fd8 203f 645d 46be 5ac5 963e b8d8 a1bd
00000020: 3bab 06bf 3be0 80be eebc f83e 7ccc 003f
00000030: 6924 cfbe 3975 a83c eeb7 f9be aa52 baba
00000040: 334b 213f ec24 653f a549 8e3e fad0 a23e
0.3406637 0.34738272 0.67950296 -0.32834688 0.62830347 -0.19371563 0.29447442 -0.07902664
-0.52605027 -0.25171074 0.48581642 0.5031202 -0.40457466 0.020563709 -0.4877314 -0.001421531
0.6300537 0.89509463 0.2779056 0.3180006

weight f4 [20, 20]
00000000: 1a69 4f3d 5272 ccbd 5ff5 9b3e 0eaa 18bf
00000010: f3e6 423f 914d 933d fa1e af3e 866e 2dbe
00000020: 54e8 ae3e ccee cabd da8f 533e 9826 3bbd
00000030: 41c3 213e 0d65 a53d 6740 fabc d6a5 9a3e
00000040: c587 ae3e 3e29 0a3f b250 5dbe 443c 823e
00000050: 90f7 943e b2c8 dabd 319f bdbc 35ae 01bf
00000060: 5f58 4a3e 70fe 953a 1343 0c3f 55f5 083d
00000070: d998 99be 070a 013d 4b89 48be ccfd e7bd
00000080: aa7a 99be 95ac 443e 4e36 9bbe dd08 f53c
00000090: 3edd e73e 21f4 fa3e b60c afbe a360 3e3f
000000a0: 78b7 5dbf c13e 69be 9dd8 433e fd16 1abf
000000b0: 56f4 343e 9028 2a3d 68b8 16bf 55a2 043e
000000c0: 5e64 ae3e 6b07 db3e 71b7 13be b83d 71be
000000d0: ff47 d0be 4d76 a73d f4fd c73e 14a7 c33e
000000e0: aba6 8dbd 0b89 b33e 5393 953d 0f41 663e
000000f0: b6b2 183f 880c 9c3d e6b4 4b3d e2f2 0d3e
00000100: 7af2 1abf c5d7 54be 000c c13e caa0 e13d
00000110: a58c c7be ffc2 053f 0cd5 633e 0203 45be
00000120: 9837 533e 4b47 763d e0c4 46be 666a a73d
00000130: e5d9 7d3e dbbb 913e 9849 d63e 44e9 acbf
00000140: 8b1b 123f f9d1 0cbf 3318 e9be cb6f 32bf
00000150: 4d1d 383e 11e3 273f a663 b4be bcd8 e5bd
00000160: fe76 523e f37b a9be 5dc4 293e 51b1 99bd
00000170: 00a3 6fbd e15f 983e 15bd 403e 99b6 713e
00000180: e8d2 fcbe 1b50 31bf 9a93 97bf cb8a 39be
00000190: e878 a7be 327f 6bbe b475 36be eabc 94bd
000001a0: f17a a03d fdc8 d63e 3bc9 3ebf 7924 5d3d
000001b0: 2080 773f 482b 0bbf 66db abbe 3904 82bf
000001c0: e334 0b3f 7d0a 23bd 0606 4abe a228 63bd
000001d0: d720 34be baa6 243e 7845 0cbe a17e d8bc
000001e0: 6c3d 55be f3f6 aa3e e11a f6bc 9be9 fe3c
000001f0: 392f 1bbf aff3 ca3e 0bd5 0dbe c2e2 823b
00000200: 0692 72bd e295 a33e 561e 55be 26db 90be
00000210: 537e 993e 3461 e3be a289 9b3e db40 293f
00000220: 870f 063f 3544 3bbe 8c38 40bc 0b03 97be
00000230: faa6 03bf e8b9 6abe d8cb 27bf c994 3d3e
00000240: 9155 ecbe 5f26 103f c226 123e afa7 813e
00000250: f027 353e 3409 78be 2ee2 de3e 3f77 fcbe
00000260: 3f92 da3e 85ce aabe 481b bebd 49bf 1c3e
00000270: 712e f0bd 8dcd 79be 3528 ecbe 7d8f 66be
00000280: c9db 053f d1b1 6fbe 1ee4 1cbf 9e0b efbe
00000290: a03c 323e 818b 063f c704 f3be c08a 82bd
000002a0: dee6 67be 5ddc 8ebe 2f99 07bd 6637 59be
000002b0: 6fd9 5a3e 7b7f 603e 54e7 be3e ab4f 2bbe
000002c0: 5258 8abf 59bc 00bf 9af8 5c3e 8691 93be
000002d0: 688a 923e 492e 0dbe 28d4 67be 35a0 bbbe
000002e0: b7aa 933e 8c2e 66bd 9fc1 f0be e2e7 963e
000002f0: 7a1c 38be 59b3 6fbe 8409 92be d089 49be
00000300: 6b84 93be 4371 23bd 6eb9 113f aa70 a3be
00000310: 883c babe d0bf 51be 5acf d9be 3aee a33e
00000320: 8635 583e d267 6f3f 4f16 af3e 4c9c 303f
00000330: dccb 0cbf 1922 93bd bbbd e63c 71cb 21bc
00000340: 585b 1ebd b2f6 343f b874 fabd 614c 913e
00000350: 3aab 733c d18c 1c3f 30e1 44be 3182 dfbe
00000360: 5eba 22be fd0c 07bf 19b2 acbd 2b31 cf3e
00000370: 011e 163e f8cd d93d 5ff4 0d3d f384 c83d
00000380: b1ed 3dbe dc87 ba3d a3fc 0f3e 37b2 8cbd
00000390: 07db 56bf 2e74 343d 7a28 abbd ea67 633e
000003a0: 889d cbbe 1723 78be c2dd e03d cf3b 3c3e
000003b0: e510 c03b da7d 913d e870 5d3e cac2 12be
000003c0: 38e4 0bbe 59a1 0a3f 5fa6 233e 91f2 953e
000003d0: 71c6 31be 6904 83be 459a 753e 50b3 cdbe
000003e0: 2b03 13be 9c4e 1f3f 1359 873d f9e5 c03e
000003f0: 0e9d ffbe 9ae7 81bf 9d70 1f3e 9707 1740
0.050637342 -0.09982742 0.3046064 -0.5963448 0.7613365 0.07192529 0.3420332 -0.16936693
0.34161627 -0.09908828 0.20660344 -0.045691103 0.1579714 0.080759145 -0.030548288 0.30204648
0.3408796 0.5396918 -0.21612814 0.25436604 0.29095125 -0.10682811 -0.023147197 -0.50656444
0.19760273 0.0011443626 0.5478985 0.03343709 -0.29999426 0.031503703 -0.19583623 -0.11327705
-0.29976398 0.1920646 -0.3031487 0.029911453 0.45285982 0.4901438 -0.34189385 0.74366206
-0.86608076 -0.22777845 0.191256 -0.6019133 0.17671332 0.04154259 -0.5887513 0.1295255
0.3406095 0.42779097 -0.14425446 -0.235587 -0.4067993 0.08176861 0.39060938 0.38213408
-0.06916555 0.35065493 0.073034905 0.22485755 0.5964769 0.07619578 0.049733065 0.13862184
-0.6052624 -0.20785435 0.37704468 0.11016996 -0.3897449 0.52250665 0.2224924 -0.19239429
0.20626676 0.060126584 -0.1941104 0.08174591 0.24790151 0.28463635 0.41853023 -1.3508687
0.5707328 -0.5500789 -0.45526275 -0.6970183 0.17979927 0.6558085 -0.35232276 -0.112229794
0.20553204 -0.33102378 0.16578813 -0.075045235 -0.05850506 0.2976065 0.18822129 0.23604812
-0.4937966 -0.69262856 -1.184192 -0.18119352 -0.32709432 -0.2299774 -0.17818338 -0.07262595
0.07835949 0.41950217 -0.74525803 0.05398986 0.9667988 -0.54362917 -0.33565825 -1.0157539
0.54377574 -0.039804924 -0.1972886 -0.055458672 -0.17590652 0.16079226 -0.13698375 -0.026427569
-0.20824212 0.33391532 -0.030042114 0.031117251 -0.6061893 0.3963904 -0.138508 0.003994317
-0.05922129 0.3195029 -0.20812353 -0.28292197 0.2997919 -0.44410098 0.30378443 0.66114587
0.5236744 -0.18287738 -0.011732232 -0.2949451 -0.5142666 -0.2292248 -0.65545416 0.18513788
-0.46159032 0.5630855 0.14272597 0.25323245 0.17691016 -0.2422226 0.43531936 -0.49309728
0.42689702 -0.33360687 -0.09282547 0.15307344 -0.11727608 -0.24394818 -0.46124426 -0.22515674
0.5228849 -0.23407675 -0.6128558 -0.4668855 0.17405939 0.52556616 -0.47464582 -0.06374121
-0.22646663 -0.279025 -0.03310507 -0.21212539 0.21372007 0.2192363 0.37285864 -0.1672961
-1.0808203 -0.50287396 0.21579209 -0.28821963 0.2862122 -0.13787188 -0.22639525 -0.36645666
0.28841183 -0.056196734 -0.4702272 0.29473788 -0.17979613 -0.2340826 -0.28522885 -0.19681478
-0.28811964 -0.039902937 0.5692357 -0.31921893 -0.36374307 -0.20483327 -0.4254101 0.3201769
0.21114168 0.9351779 0.34196708 0.6898849 -0.54998565 -0.07184238 0.028166642 -0.009875164
-0.03866133 0.7068893 -0.122292936 0.28378585 0.014872367 0.6115237 -0.19226527 -0.43654016
-0.15891406 -0.52754194 -0.08432407 0.404672 0.14659883 0.106349885 0.03465688 0.09790983
-0.18547703 0.09107944 0.14061217 -0.06869929 -0.8392796 0.04405611 -0.0835733 0.22207609
-0.39768624 -0.24232136 0.10979797 0.1838219 0.005861389 0.071040824 0.21625102 -0.14332119
-0.13661277 0.54152447 0.15981434 0.29286626 -0.17360856 -0.25589302 0.2398463 -0.40175867
-0.14356677 0.62229323 0.066087864 0.37675455 -0.4992451 -1.0148804 0.15570302 2.3598382

bias f4 [20]
00000000: c270 e83e c488 183f c182 ecbd ef99 07be
00000010: 29fb dfbe 27dc c8be 1e2d 56be 6aff 593c
00000020: 1cad a0be 7d0f 5dbe 8185 7fbe 9a95 4b3e
00000030: 9593 bebe a6ea d03d 24f8 1fbf 1cbe cebe
00000040: 6bc7 d03e 960f 32bf 39f8 92be ea02 963e
0.45398527 0.5958369 -0.11548377 -0.13242315 -0.43746307 -0.39230463 -0.20915648 0.013305524
-0.31382072 -0.2158794 -0.24953271 0.19881287 -0.3722197 0.10201006 -0.6248801 -0.40379417
0.40777144 -0.6955503 -0.28705004 0.29299098

weight f4 [20, 20]
00000000: cc40 c73d c69b 0f3e 3f59 80bd 778d c0be
00000010: ac13 2a3f 27ef 143e 8f0b 293d 71c2 af3d
00000020: e2e4 363f 0f9b 833e 709a 3ebe 7a07 893e
00000030: 4d19 063f b89b 1c3e b300 443d 4e41 bfbe
00000040: acaf 523e aa5f a63e d96d 90be 8894 9abe
00000050: 78ab d5be f9c6 08bf 7d9d 653e f321 b33d
00000060: 89e7 92bb 791d 153d c4db c23e fc53 403e
00000070: d34d 2f3f e791 15bc c8dc 483e d943 aebc
00000080: d228 543e 4e92 47bd 462f 92bd 6e9b a2bd
00000090: ed59 07bf 4f08 b63d ea46 89be 281f 17be
000000a0: 977c 133d b11b f93d 3786 0fbf 48a5 fe3e
000000b0: 20bd d33d 1613 62bf 5e48 473f f1a0 893e
000000c0: 4b11 a03e a2dd 80bc f950 163e f3e2 233e
000000d0: df49 453f b094 c33e 5f47 c03d 6716 9fbd
000000e0: 6b4b b13e fec8 4cbe 815a dfbe 0ef3 023e
000000f0: bc53 95be 2667 893d a29a 6e3e 885b 12bb
00000100: 5e39 193e 61d3 e2bd 1b92 a8be bc77 e5bd
00000110: 1e3b c3bd 0ccf 8ebd a375 f13d a8b6 dfbd
00000120: fca8 923e 1c3f 7d3f 238c 21be 8bf9 fa3e
00000130: c3d6 4abe d3c6 a43f c492 d4bd 44e6 82be
00000140: f435 8ebe 8f53 87be 44b0 253f 9470 173f
00000150: 9f81 483e 0d56 a33e 6feb 6ebe 99e0 25be
00000160: b965 5e3f 8efb d83c e74f ca3d 641f b0be
00000170: 3370 14bd fb2a ff3e af3d 603e 01f9 b63e
00000180: 650c fcbe 0122 5c3f 28e7 b4be 5645 91bd
00000190: 91a2 5fbe 86ad f23d 6aa4 db3e 6be2 a6bc
000001a0: ebcd d83d 41f0 8e3e c668 35be 57e6 b53d
000001b0: ad5d a1bd db41 5dbe 6083 82be 556b 38be
000001c0: bcbf 4f3b 30b7 973e eacf 393d 6494 dd3e
000001d0: a521 03bf 3b35 f2bb 0c12 10bf c661 84be
000001e0: 9060 1d3e 5ebe 00be 3b0e 973e d1db 1b3d
000001f0: 29ea a3be 4afe aa3e f59e 6bbd e295 1e3e
00000200: e5b8 723e 5777 303e 7b67 2bbe 323b a33e
00000210: 6568 f43e 22ce 5b3f 0241 e63e e91f a33d
00000220: 8d35 90be 858c 123f 41dc 7c3e feea f83b
00000230: 2de5 dabe 16bc ddbe fc9c 883f dfc2 52be
00000240: d8a5 743e 8e6c 113f d67d 3bbe 1943 403e
00000250: 5a7d 823e b744 8f3e 7027 fbbd a694 bbbd
00000260: b00d 833e d36a a03e 243a babe 40b9 ff3e
00000270: 85c2 94bf 4ed7 703e 4460 f1bd 95c8 e1be
00000280: 6bcd d0be b5e3 43be 3303 dbbd 1d46 a63e
00000290: 528b 34be e194 8f3d 8e1d a9be 4580 3cbe
000002a0: 3f25 4dbe a3b1 b23e 0315 303f 9938 0fbf
000002b0: 9ea4 8d3d 2a4f ee3e 3d81 cc3d d9e6 bd3e
000002c0: 3762 75be e960 debe 711b ce3e 6cd0 13be
000002d0: c695 563e e5af f53e 5dae bf3e ae08 fbbd
000002e0: 86ae 5b3d 4f9d f2be 6b35 6f3d 6a26 cc3e
000002f0: 2c06 e63c 9353 86be 9211 d2be 8ce6 0b3d
00000300: 04c1 93be 52df 893e 7aed 8bbe 2955 4fbf
00000310: 17e2 02bd 8008 883e 5aaa ecba 60f9 123f
00000320: 519e 123e a07b 6c3e cdc4 5a3e 98e7 7f3e
00000330: 491a 8bbe 3a9c 4a3d b9ca 42be 4440 1fbf
00000340: 28d0 49be 6d56 8cbe 1754 2a3e 4b22 81be
00000350: cb89 0cbf 6675 18be 22be bebe ce20 debe
00000360: 0916 033f d8be 853d 1e79 133f 2d3b 3b3e
00000370: 6886 80be 952d 3c3e 3afe a2bd c156 083f
00000380: aad4 32bf c926 b83e 5fc4 16bf f3fa f63e
00000390: 2a05 aabe 87d1 c9be 1c8b f2bb 4d57 cabe
000003a0: d812 3f3e 8859 d43d d65a 80be f07c 37be
000003b0: f1e0 133e 2b07 1ebe 4821 cebe d1ad 8bbe
000003c0: 7d6e afbe 8e0c 8bbe b21d 0f3f faf8 e2be
000003d0: bb1a 91bf 90eb a93d ff47 393c d98d 8a3b
000003e0: 00bc 09bf 7435 19bf 7f03 a23e b217 773d
000003f0: bd56 a7bd 1b6a 5b3e 377b 3bbd 4f70 063f
0.09729156 0.14024267 -0.06267022 -0.3760793 0.66436267 0.14544354 0.04127079 0.08582009
0.71443 0.25704238 -0.186136 0.26763517 0.52382356 0.15293777 0.04785223 -0.3735451
0.20574826 0.3249486 -0.28208807 -0.30191445 -0.41732383 -0.5342861 0.22423358 0.0874671
-0.0044831675 0.03640506 0.38058293 0.18782037 0.68478125 -0.009129024 0.19615471 -0.021272587
0.20718697 -0.04872351 -0.07137923 -0.07939802 -0.5287159 0.088883035 -0.26811916 -0.14757979
0.03600749 0.12163485 -0.5606417 0.49735475 0.10338807 -0.8831037 0.778448 0.268806
0.31263193 -0.015730683 0.14679326 0.16004543 0.77065843 0.38199377 0.09388613 -0.07767945
0.34627852 -0.19998547 -0.43623737 0.1278803 -0.29165447 0.06709127 0.23301175 -0.002233239
0.1496329 -0.110754736 -0.3292397 -0.11204478 -0.0953276 -0.06973085 0.117900155 -0.10923511
0.2864455 0.9892442 -0.15776114 0.4901851 -0.19808488 1.2873176 -0.10379556 -0.25566304
-0.27775538 -0.26430938 0.64722085 0.59156156 0.19580697 0.3190159 -0.23331998 -0.16198958
0.86873966 0.026487138 0.098785214 -0.3439895 -0.036239814 0.4983748 0.2189853 0.3573685
-0.49228206 0.85989386 -0.35332608 -0.07093303 -0.21839358 0.11849503 0.42898875 -0.020371636
0.10586151 0.27917674 -0.17715749 0.088818245 -0.07879195 -0.21607153 -0.25490856 -0.18009694
0.0031699976 0.29631948 0.045364298 0.43277276 -0.5122321 -0.0073915995 -0.5627754 -0.25855845
0.15368867 -0.1257262 0.29503044 0.03805143 -0.32014588 0.33397132 -0.05752464 0.15486863
0.23703344 0.17233025 -0.16738693 0.318811 0.47735897 0.8586141 0.44971472 0.07965071
-0.28165856 0.57245666 0.24693395 0.0075963726 -0.42752972 -0.4330756 1.0672908 -0.2058215
0.2389139 0.56806266 -0.18309721 0.18775596 0.2548626 0.27982113 -0.122633815 -0.09159212
0.2559638 0.313315 -0.36372483 0.49946022 -1.1621863 0.23519632 -0.11785939 -0.44098344
-0.4078172 -0.19129832 -0.106939696 0.32475367 -0.17631271 0.07010818 -0.3303036 -0.18408306
-0.2003374 0.3490115 0.6878206 -0.55945736 0.06916164 0.46544772 0.09985588 0.37090185
-0.23963247 -0.43433312 0.4025531 -0.14434975 0.20955572 0.4798576 0.37437716 -0.12257515
0.053633235 -0.47385642 0.058400553 0.39873058 0.028079115 -0.26235637 -0.4102903 0.034155414
-0.28858197 0.26928192 -0.27329618 -0.8098932 -0.031953897 0.26568985 -0.001805614 0.57411766
0.14318205 0.23094034 0.21364136 0.2499069 -0.2716849 0.049465396 -0.19022645 -0.62207437
-0.19708312 -0.27409688 0.1663364 -0.25221476 -0.54897755 -0.14888534 -0.37254435 -0.43384403
0.512055 0.06530541 0.57606685 0.18284293 -0.25102544 0.18376763 -0.07958646 0.53257376
-0.6985575 0.3596709 -0.5889339 0.48238334 -0.33207065 -0.3941767 -0.007401837 -0.3951973
0.18659532 0.10368639 -0.25069302 -0.17918754 0.14441277 -0.15432422 -0.40259767 -0.2728105
-0.34263983 -0.27158016 0.55904686 -0.4433058 -1.1336282 0.08296883 0.011308669 0.0042283353
-0.5380249 -0.5984719 0.31643292 0.060325332 -0.08170841 0.21427195 -0.045771804 0.5251512

bias f4 [20]
00000000: 53ff 2fbd 84d2 8fbe 0d09 c83d 15ca b8be
00000010: db4d 5bbe 34a7 b0bd f1b1 d5be 88f4 9ebe
00000020: df1c acbe ade8 4d3f f4e8 4e3e 2bba 173e
00000030: e049 d73c 1edc 943e 7cd5 bc3e 4ca4 24be
00000040: 913c 03bf 91ae a63d 3716 c9be 39ff c3bd
-0.042968106 -0.28090298 0.09767351 -0.36091676 -0.21416418 -0.086256415 -0.4173732 -0.31045938
-0.33615777 0.8043316 0.20206052 0.14817111 0.026280344 0.29074186 0.36881626 -0.160783
-0.5126429 0.08138765 -0.3927476 -0.09570164

weight f4 [20, 20]
00000000: 6a97 163e c7a3 5f3e 0941 9dbe 09f6 143e
00000010: 9ea1 3c3b 0712 5b3c dc90 643e 3ad4 253e
00000020: bbf3 11be 2d61 df3d 0c99 323d f3cd c43d
00000030: 126e b63e df06 eb3d d89b f7bd 3bed 11be
00000040: 8a74 3a3e 089a 983d 678a 65be 923a 40bf
00000050: a8af 2fbf d7c7 0cbe ab78 33bf 0984 84bf
00000060: 2896 bd3f e0cd 003f 4435 f8be 9521 fd3e
00000070: a1d5 583e 1dd8 853e 9a4e 803e 6e3c a8be
00000080: c34a 213f e2e8 193e 084f 40be 93e8 9ebd
00000090: 28b7 07be d81d 2bbf a98a 9ebe 84d0 9abd
000000a0: b0bd edbc bf84 bcbd 1e1b 363f 330b fcbd
000000b0: 36c9 2fbf 5eed 17bf 255f 64be ab00 a4be
000000c0: a581 f2bc a19d 323e 91d8 bfbe cb63 debd
000000d0: a7fc cebe 15fd aa3c dc1b 243f d317 903d
000000e0: ab56 883e 3cd8 f73d a6bf 35be a88a b73e
000000f0: 5c8d 16be b983 22bc 7bc8 2ebe f72c ecbd
00000100: f88e 0abe fe43 7ebe a240 8abe 3bef 9ebd
00000110: a168 20be 5c7f 793e 0dae 82bc 6623 963e
00000120: 9eb2 36be ef40 9a3e ba9e a43e 5b77 98bd
00000130: 2d66 ffbd 184c df3e a013 6cbe f586 e0be
00000140: 268e 263d 133e f2be e0ff 843e 3ca4 4dbe
00000150: 948d abbf 1802 62bf 3a60 73be 9cc3 0cbf
00000160: 71e8 a9be a900 243f 2d61 423f da42 34bf
00000170: 994a 9dbe 2200 463f 8883 713f a85e 8bbc
00000180: 9c62 9bbf dd7d babf 38a6 13bf f2cf 72bf
00000190: 87dd 87bd 46fa 983e ab5b d1be 67f5 df3e
000001a0: 3ef2 89bf 07a4 c9be c88e 983e 2dd3 04bf
000001b0: 6e1f bf3e 88a2 9bbd bea7 123d 3ce1 763e
000001c0: 0347 723d 8226 81be 5022 a83e d885 0b3f
000001d0: 5b24 bc3d 0efa 2abe 00e3 4b3e ee27 673f
000001e0: 0365 153e d2f3 50bd 60e2 be3c 4820 7c3e
000001f0: 8e8c 9b3e ff21 213d a53e 7f3e 779d 2cbe
00000200: 2a21 203e c604 7a3e 3f0f d13d aa62 b1be
00000210: 9ef0 74be 4845 4b3d 4e7c bd3e 738c cbbe
00000220: 49df f8bd 7991 d5be 83ac b63c 0e40 2bbe
00000230: 3e52 e93b b190 eaba 6a8f 1abd e63c fdbd
00000240: ee8d ff3d 8039 b23d 9760 3bbd da9d a6be
00000250: 1559 8d3e f201 babd 72d1 6d3e c706 1fbe
00000260: 14f8 d33e a426 a2be 9219 0e3e c715 8d3e
00000270: d065 aabe 9b67 3d3d 0cbc 75bb 959b 6a3f
00000280: 0153 94be b3ad 7cbe 61ec 81bd acf6 b43e
00000290: f1cf 0a3f e6b0 e73e 08f0 583e 7f36 123f
000002a0: f300 103f 96f5 553d 2774 60be 869a 26bd
000002b0: a1ce f23d d71f 82be 5117 1dbf 1ccf 8a3e
000002c0: 623c ac3e 1bcf 86be 642c 373e e5e4 453e
000002d0: 856f 1cbe fd62 bfbe fc00 923d 9931 923e
000002e0: 4316 0dbe f281 d6bd eb81 d3bc 4e3d 9ebe
000002f0: 5c7f 9ebc 5075 a33c a56d 1e3e c211 77be
00000300: 9b71 97be 7920 093e 68f6 7e3d 1370 eebe
00000310: e353 84be 062a 18bf 8a4b 6cbe a591 97bd
00000320: d5b3 2f3f 2346 f13e 5965 ccbc 6028 d33e
00000330: edcf bd3d 65e0 27bd 5029 193f 4cb1 743e
00000340: 1e9f cebe 53c5 073f d892 e4bd 76b0 47bf
00000350: a411 67bf 2271 a23e 003d 04bf 9e7e 803c
00000360: f0b1 7e3e d4ae c23c 0c66 84be e90f 98bf
00000370: ccca 553f e393 613e ff80 543f d1f6 583e
00000380: b6eb 2cbf 5771 cabd 8ff5 fb3c bc45 dabe
00000390: 2172 9e3e b3ef b7be 6ce3 063e b7b7 803e
000003a0: 3e3b b23c 6a6c 1dbe 4ff1 0bbd b168 c83e
000003b0: 1bf2 2a3e 829a f3bd 169c 2a3f ee1d e23d
000003c0: e60e b93e 259e c4be 57f1 f73e f1fd f3bd
000003d0: 2ad1 21bf 176c a9be 264e 27bf 8630 1ebf
000003e0: 8193 2b3e e168 303e db6a 52be ccea 6fbd
000003f0: 8244 8ebe d061 943e fefd 3a3f d61d 9ebe
0.14706197 0.2183982 -0.3071368 0.1454698 0.0028782855 0.013370997 0.22320884 0.1619424
-0.14253132 0.10907207 0.043602988 0.09609594 0.35630852 0.1147592 -0.12090272 -0.14250652
0.18208519 0.07451254 -0.22416078 -0.7508937 -0.68627405 -0.13748108 -0.70106 -1.0352794
1.4811449 0.5031414 -0.48478138 0.49439684 0.21175243 0.26141444 0.25059968 -0.32858604
0.630047 0.15030244 -0.18780148 -0.07759204 -0.13253462 -0.6684241 -0.30965164 -0.075593024
-0.029021114 -0.09205007 0.7113513 -0.123068236 -0.686664 -0.5934657 -0.2230192 -0.3203176
-0.029602835 0.17442943 -0.37469915 -0.10858878 -0.40427133 0.020872632 0.6410501 0.07035794
0.26628622 0.1210179 -0.1774889 0.35847974 -0.14702362 -0.0099191 -0.17068665 -0.11532014
-0.13531101 -0.24830624 -0.27002436 -0.07760473 -0.15664913 0.2436499 -0.015952135 0.29323882
-0.17841575 0.30127665 0.3215235 -0.0744464 -0.1247066 0.43612742 -0.23054361 -0.43852964
0.040662907 -0.47312984 0.25976467 -0.20082182 -1.3402581 -0.88284445 -0.23767176 -0.54985976
-0.3318515 0.6406351 0.7592953 -0.7041451 -0.30720976 0.7734395 0.94341326 -0.017012909
-1.2139468 -1.456966 -0.57675505 -0.9484855 -0.0663405 0.29878443 -0.4089025 0.43741915
-1.0777051 -0.39382955 0.29796433 -0.5188473 0.37328666 -0.0759936 0.035804503 0.24109358
0.059149753 -0.25224692 0.32838678 0.54501104 0.09186622 -0.16696951 0.19910812 0.902953
0.14589314 -0.051013775 0.023301303 0.2462169 0.30380672 0.03933906 0.2492624 -0.16856943
0.15637651 0.24415883 0.10207986 -0.34645587 -0.23919913 0.04962662 0.370089 -0.39755592
-0.12151963 -0.4171255 0.022299057 -0.16723654 0.0071203997 -0.0017895905 -0.037734427 -0.12365131
0.12478243 0.087023735 -0.045746412 -0.32542306 0.27607027 -0.09082402 0.23224428 -0.15529929
0.41400206 -0.31670105 0.13876942 0.27555677 -0.33280802 0.046241384 -0.0037496118 0.9164365
-0.28969577 -0.24675636 -0.06343914 0.35344446 0.54223543 0.4525215 0.21185315 0.57114404
0.5625145 0.052236162 -0.21919309 -0.04067471 0.118558176 -0.25414917 -0.61363703 0.27111137
0.33639818 -0.26329884 0.17888027 0.19325598 -0.15276916 -0.3738021 0.07129094 0.28553465
-0.13778023 -0.10474004 -0.025818786 -0.30906147 -0.019347839 0.0199534 0.15471514 -0.24127868
-0.29578862 0.13391294 0.06224671 -0.4656988 -0.2584525 -0.5943912 -0.23075691 -0.07400826
0.68633777 0.47123823 -0.02495067 0.4124174 0.09268174 -0.040985484 0.5982866 0.23895758
-0.40355772 0.5303547 -0.11160821 -0.78003633 -0.9026129 0.31726938 -0.5165558 0.015685376
0.24872565 0.023765005 -0.25859106 -1.1879855 0.8351257 0.2202907 0.8300933 0.21187903
-0.67547166 -0.09884899 0.03075674 -0.42631328 0.30946448 -0.35925063 0.13172692 0.25140163
0.021756765 -0.15373388 -0.034165677 0.39142373 0.16693918 -0.118947044 0.6664442 0.11040865
0.3614418 -0.38401905 0.48426315 -0.1191367 -0.63209784 -0.33090279 -0.6535362 -0.6179279
0.16755487 0.17227508 -0.20548575 -0.05857353 -0.27786642 0.28980875 0.7304381 -0.30882138

bias f4 [20]
00000000: 92d0 cd3e ed87 ac3e 6786 61be 0a28 253e
00000010: 0ab0 243f 3dbf ffbc 7a6a c93d e200 8cbe
00000020: 01ff 4fbe 9d20 2e3e fc93 893d 10f7 73be
00000030: 6cf4 8a3e f0bc 76be 7374 70be 449f 173e
00000040: 5446 7e3c ab57 273e e337 2ebd 7a83 9c3e
0.4019819 0.33697453 -0.22023927 0.16128555 0.64331114 -0.03121912 0.09834762 -0.27344424
-0.2031212 0.17004628 0.06717679 -0.23824716 0.27139604 -0.24095511 -0.23481922 0.14806849
0.015519697 0.16342036 -0.042533766 0.3056906

weight f4 [20, 20]
00000000: 67ce 85be 9bea 233e 9c65 2bbe 064d 943d
00000010: 218d c1be 14ce c5be 58d9 223e 1818 77be
00000020: 263a c63e 4cc3 523e 73b0 5e3e 35d9 c83d
00000030: a070 97bc 22b9 e7bd 1274 b93d bcd1 de3e
00000040: 5e0a 39be 1862 e33d 7d63 a3be 5380 88be
00000050: 69ea 143e d458 8c3f 21d6 70be 9e13 a53d
00000060: 949c d6be ba9f b9bd de33 06be b9d2 90bd
00000070: 3f0a 5e3e 2412 343e 24dc d8bd c596 03bf
00000080: 391a c0be b911 0b3a 5504 33be 8c13 263e
00000090: 2e2c c13e 94ab 343e 77cd 8d3e 3083 e43c
000000a0: bce5 a4be 28b2 0cbf f875 5d3f 7947 833e
000000b0: c9cf dc3e d41e 053e 4ad5 03be 8f38 3a3e
000000c0: c07a 7dbc e38f 4c3d d832 173e 2d7b 893e
000000d0: 95e6 82be 5fba ddbd fde0 813e 1f7e d53e
000000e0: 984a 033e ad1d d53d 1664 b6be 01ba 763e
000000f0: 9ef3 c93c 8811 c4bd f785 e93e 4444 86be
00000100: c94b a13e 8c08 e33d a943 dabe d620 483d
00000110: 82ad dfbd 3dc1 793e c147 24bf b33c 043f
00000120: cdfa 513e aaf6 413d 7035 8a3e 9c1f 31bc
00000130: 0908 ae3e 046d 63be a5c7 8cbe 59ff c2be
00000140: 95aa 2d3e 8237 ab3e 4470 4ebe 40b6 28be
00000150: 783d 413e 3c94 16bf 12ac 293e f29c 913e
00000160: e4a3 223f 2903 69bc 4c0b 4e3c de68 be3b
00000170: dfa1 38bf 5dd1 803e 2aed eb3d 09ee 63bf
00000180: 4449 63be d79f b43c d117 d23e 4058 d43b
00000190: c206 4bbe 3110 46be 3939 813c a74a efbd
000001a0: 492f 5abf d70f 8a3e 4af2 ac3d 7573 353f
000001b0: 3b6f b2bd f1dc 86be 5e28 0f3e 7f1b 033f
000001c0: 4fb3 f7be b41b 853e d2a6 bb3e 000c cc3e
000001d0: fc22 073e 8acf 01bf e08d 86be 8384 98bc
000001e0: 2ca8 1cbf f7da ca3e 570b e7bd 2311 8cbe
000001f0: 4bc0 d0bf 4c21 f3bb b8ac ffbe 2f51 11be
00000200: 0251 d83e 97e3 4bbf 51b9 633e 0f5d 3a3d
00000210: 7a44 abbe a5fe 09be 4d79 783e 754e 36be
00000220: 5ee3 50be 58eb b1be 903f ca3e 79d2 78be
00000230: bd09 2b3f 690f 16be 8497 2fbe 109d 053e
00000240: da61 afbe 6997 93bd 7db3 9e3e afa9 98be
00000250: 5202 8dbe f490 f93c 8458 873e 36cc 32bf
00000260: 2289 6fbe 97e0 893e 0291 d5be 7fa9 b03d
00000270: 5845 9dbd bb05 033f 5ad0 3d3d d21c e93d
00000280: 4091 0fbe d2c1 df3e a87f edbe a591 edbe
00000290: 0cee 9abf 24d7 8abe e42e 0f3d cbcf f1bc
000002a0: 9a9d 593f 4e36 4e3e bd6d 9a3d 4d1a 513c
000002b0: 5dbd 63bf d161 ed3e 3564 333e bf7b 10bf
000002c0: 6ac8 17be d454 b53b 84a5 093e bcb8 15bf
000002d0: 0553 1bbe 4959 ef3d 936d 513d 9e17 b7be
000002e0: 6e24 633e 6e79 eb3e 503a 57bd 86d6 e33e
000002f0: dc23 86bd 96e6 65be 70d4 f3be 6fbe d63e
00000300: 094c 813e ba4d c9bd 5fa1 f63e 9357 ce3e
00000310: 8024 963e c1e0 39be 623e 58ba 945e 91be
00000320: 87ad 91bd 1b5d 00bf 981e 543d b848 68bd
00000330: 4642 853e b43e 8abe 9944 15be e0e0 163e
00000340: f9c1 243e a6b8 d8bb b861 a9bd a885 34be
00000350: 36b3 3b3e 5049 65be 7941 c63e 2256 c83d
00000360: 261c f33d 74f9 d1be 6bc3 c33e 5bbb 2ebd
00000370: 0d9a e33e 94ff d33d 21ef cfbd eccb 2bbe
00000380: 3d36 aabe edc4 11bf b31b 813d c54d 49be
00000390: 33e6 9e3e 808a 453d db06 793f a51d f0be
000003a0: 6419 2cbe d4b8 d5bd 0e72 c6be 4255 3dbe
000003b0: 3512 23be 0606 843e cf67 be3e 9ad1 953d
000003c0: 0f04 373e 10b0 3d3e d20e c8bc 22ca 983c
000003d0: bb96 213f a06a 583e d051 c63e b2f5 d23b
000003e0: 0ce4 f3be 549c eabe 1fdb 1f3e 8b2a 00bf
000003f0: 5be9 8f3e bcf0 4bbe 515e fcbe a9f5 45be
-0.26134035 0.16007464 -0.1673798 0.072412536 -0.37802985 -0.38633788 0.15903223 -0.24130285
0.3871624 0.20582312 0.21746998 0.09807054 -0.018486321 -0.11314608 0.09055342 0.4351939
-0.18070361 0.11102694 -0.3191184 -0.26660404 0.14542545 1.0964608 -0.23519184 0.08060382
-0.41916335 -0.090636685 -0.13105723 -0.07071442 0.21683596 0.17585045 -0.105888635 -0.5140193
-0.37520006 0.000530507 -0.17482121 0.16218394 0.3772902 0.17643577 0.2769582 0.027894586
-0.32206523 -0.54959345 0.8650813 0.25640467 0.43127277 0.13000041 -0.12874332 0.18185638
-0.01547116 0.04994191 0.14765489 0.26851788 -0.25566545 -0.10826563 0.25366965 0.41697785
0.12821424 0.10406051 -0.35623235 0.24094392 0.024652299 -0.09573656 0.4561002 -0.26223958
0.31503132 0.110856146 -0.42629746 0.04885944 -0.10921766 0.24390121 -0.6417199 0.5165512
0.20505829 0.047354378 0.26993895 -0.010810759 0.33990505 -0.22209555 -0.27496067 -0.3808544
0.16959603 0.33440787 -0.20160013 -0.16475773 0.18871105 -0.5881994 0.16569546 0.28440052
0.6353133 -0.014221945 0.012575936 0.005810841 -0.72121996 0.25159732 0.11519845 -0.8903509
-0.22195917 0.022048874 0.41033795 0.006480247 -0.19826797 -0.19342114 0.015774356 -0.11684161
-0.852284 0.2696521 0.084446505 0.708793 -0.08712622 -0.2634044 0.13980243 0.5121383
-0.4837899 0.25997698 0.3665071 0.39852905 0.13196939 -0.50707304 -0.26280117 -0.018617874
-0.6119411 0.39620182 -0.1128146 -0.27356824 -1.6308683 -0.007419741 -0.4993646 -0.14191125
0.42249304 -0.7964415 0.22238661 0.045498904 -0.3345068 -0.13476045 0.24265023 -0.17803366
-0.20399234 -0.34749866 0.3950162 -0.24299039 0.66811734 -0.14654316 -0.17147642 0.13048196
-0.34254342 -0.072066136 0.30996314 -0.29816958 -0.27540833 0.030464627 0.2643472 -0.6984285
-0.23392156 0.2692916 -0.41712195 0.08626079 -0.07679242 0.5118062 0.046341278 0.1138245
-0.14020252 0.4370256 -0.46386456 -0.4640018 -1.2103896 -0.27117264 0.034956828 -0.029518029
0.85006106 0.20137903 0.07540462 0.012762618 -0.8896082 0.4636369 0.17518695 -0.5643882
-0.14822546 0.005533794 0.13442045 -0.5848501 -0.15168388 0.11686952 0.05112989 -0.35760206
0.22181866 0.4599108 -0.052545846 0.44499606 -0.065498084 -0.22451243 -0.47623014 0.41942164
0.25253323 -0.09829278 0.4816999 0.4030119 0.29324722 -0.18152143 -0.0008249042 -0.2839247
-0.07113176 -0.5014207 0.05178699 -0.056709975 0.26027125 -0.27000964 -0.14576949 0.1473422
0.1608962 -0.0066138087 -0.082705915 -0.17629111 0.18330082 -0.22391248 0.38721827 0.097820535
0.11870603 -0.4101063 0.3823503 -0.042659145 0.4445347 0.10351482 -0.10153032 -0.16777009
-0.33244506 -0.5694111 0.06304111 -0.19658573 0.31035003 0.048227787 0.97276086 -0.46897617
-0.16806561 -0.10435644 -0.38758892 -0.18489555 -0.15924914 0.25785846 0.37188575 0.07315369
0.17872642 0.18524194 -0.02442113 0.018651072 0.6312062 0.21134424 0.38734293 0.0064379806
-0.47634923 -0.45822394 0.15610932 -0.50064915 0.28107724 -0.19916052 -0.49290708 -0.19331993

bias f4 [20]
00000000: e0cd 813e de9a 543d 7114 64be c7fe c6be
00000010: f242 1c3d 4219 9bbe 0de8 88be 1357 0f3f
00000020: ab8b 9abe 0b73 83be 7212 49bd 62ee c33e
00000030: aae4 913e e314 483d aeaa 1b3e f082 a03e
00000040: f9fe 82be cfb7 1fbe f67f 86be 2e9f 313e
0.25352383 0.051905505 -0.22273423 -0.38866255 0.03814978 -0.30292708 -0.2673954 0.5599224
-0.30184683 -0.25673708 -0.049089856 0.3826781 0.2849477 0.048848044 0.15201828 0.31349897
-0.25585154 -0.15597461 -0.262695 0.17345878

weight f4 [20, 20]
00000000: 8d33 993e 2ebf 803e 7193 99be 6f3d c1be
00000010: 7270 8d3d 5c50 72bf f30f 1cbf b233 5b3f
00000020: fedc 76bf 4316 12be 0396 b7be e703 8fbc
00000030: f16c 383f efff cbbd 3da9 ca3e d549 823e
00000040: f24c fdbe 9fed 843e 20eb ecbe 23c5 8e3e
00000050: 5b35 8d3c db44 a0be 5066 bb3e 5826 613e
00000060: fc2c ca3e 98d4 4ebe ce78 893d ef6b 8cbe
00000070: 0f39 36bc 81d7 143f b12c e2bd 5f20 3fbe
00000080: 217a f43e f777 98be ca8d c9bd 281b 46bf
00000090: 1ee7 3ebe 32aa ea3e 022d da3d 250f 073b
000000a0: d4af 53be 93b6 a6be 9c1a 193f a744 3c3e
000000b0: 6682 883e 981f 953e 6c4f a4be 83c3 c8be
000000c0: 6f75 3abe 5c8c 1ebe 8c43 d83d 6fe1 1abe
000000d0: b476 5e3e 4bd3 b3be 6dce 143e a61e 1ebf
000000e0: d4b2 adbe 35fd 00bd 0f9a 2bbd 0271 52be
000000f0: 4e47 173b 718d ef3d 7454 3f3e 2eee afbc
00000100: ac6f acbe 53b4 f83d 7477 693e 35a5 d13d
00000110: 5977 853f 35a3 26bf 1bc0 40bd 6330 ce3e
00000120: 12ab 62be bf2b a33e f97f 3dbe f455 80be
00000130: 2647 f6bd 2c97 4a3d 13c6 55be b4dc 9dbe
00000140: 7881 523e 4aad 093e 9d44 f9ba 5fcc b5bd
00000150: 4b89 0fbe 4c63 943e aebc db3e 9d37 1e3f
00000160: 8c66 2c3e 5421 3bbf e52d 5dbe 3868 8a3e
00000170: 46ae af3e 7f4a 3e3e 458b 9dbe a4cd 173e
00000180: 88c0 48be 9186 09be 144f 693e 1540 aa3e
00000190: 7510 16be 47e1 a83c 9c11 453d 5eec c13c
000001a0: dd54 d6bd 605b 85be 7f5f dfbe d71f 1a3c
000001b0: 6475 7ebf 989c d83d 4fce 703e 16c1 08bc
000001c0: 338f ea3e 529e 21bf 9904 033e 18ce 953d
000001d0: e586 333c 91ef 3e3f 991c 4e3c c8be d43d
000001e0: b31b 0b3f 684e a83e 7b72 a7be f582 983d
000001f0: 9ff8 11be bad8 093f 002d c23d 4797 cc3e
00000200: b878 da3c 46db aebe 165e a23c 920b e13e
00000210: 7cc1 71be a311 4c3e 8c38 24be 0310 a53e
00000220: c2a5 aa3d fa9a ae3d c0a2 03bd 2d89 613e
00000230: d634 c8be f6eb 01bf 7e94 83bd d1d6 703e
00000240: 3fe4 593e 56f6 b23c 45f4 c13e a9b5 25be
00000250: 49e0 02be 11ba b13e c1b3 b13e df52 20bf
00000260: 5084 debe e783 22bd c93c 073e cc2e 8cbb
00000270: e7f9 6abd 396c 363e e745 123f a083 a2be
00000280: a87e e2be 0d64 50be 5a50 293f c572 283f
00000290: 071d ac3d 024c 1bbe 2f13 5a3e 72d0 01bf
000002a0: 58dc f5be a62d de3d 23df 01be 449a 92be
000002b0: 3e61 e23e b12f 0abf 202c ff3b a73b 09be
000002c0: ccee 25bd f15d 70bd 3bb6 283e 1529 acbe
000002d0: da2e f43e 134a 8a3f 7f52 2cbf 508b 64bf
000002e0: cd78 de3e 3b4c 493f 3add 773f 8442 4c3e
000002f0: 9bb2 5b3f 8ff8 d93e 1bcf acbc f4ec 413f
00000300: 197c 98bf 540d 893f c914 86bf a68e 4c3f
00000310: c8ec 793f c041 73bf 3457 f53d f2f3 443f
00000320: 4f08 72be 23c8 cdbe 8d6b fe3e f739 bf3d
00000330: 4f96 a2be 8233 3bbf b23d 603e e853 43be
00000340: fd41 13be c166 183f f420 223e 3110 12bf
00000350: b032 673e 09d9 7fbd 6b71 b63e 765b 62bf
00000360: 0e44 e83d e1ce a1be 4e21 0e3f ccd1 3fbd
00000370: d8b2 113e 79aa a9be 3460 aa3e d36a 913b
00000380: 9359 e23e 3416 ce3e 7103 c4be cb23 34bf
00000390: 6436 94be 2ac1 803d 6f62 d93e 6cc4 ea3d
000003a0: 216c e63e 8b77 c73e 6eda 8f3e c085 76be
000003b0: 2f96 e5be 76e5 723e 0dae 0ebd aa5f 49bd
000003c0: 8bc3 053f 368b d43e 835c 2abe 4900 40be
000003d0: d8b8 eabc 6ed1 05bc 7059 1b3e 0d2e c8bc
000003e0: d7f3 af3e 6bba c5bc 0bb2 89bd 1dd8 0e3f
000003f0: da7f b93e 5749 aa3d 2e4d 2ebe dc91 1f3f
0.29922143 0.2514586 -0.299953 -0.37742183 0.06906213 -0.9465387 -0.60961837 0.85625756
-0.9643096 -0.14266305 -0.35856637 -0.017457915 0.7204123 -0.09960925 0.39582244 0.25446954
-0.49472767 0.2596254 -0.46273136 0.27884778 0.017237356 -0.31302533 0.36601496 0.21987283
0.39487445 -0.20198286 0.06712495 -0.27426097 -0.011122002 0.5814133 -0.110436805 -0.18664692
0.47749427 -0.29779026 -0.09841497 -0.7738519 -0.18642852 0.45832974 0.10653116 0.0020608392
-0.20672542 -0.32561168 0.5980623 0.18385564 0.26661986 0.29125667 -0.32091844 -0.39211664
-0.1820886 -0.1548323 0.105597585 -0.15125059 0.21724969 -0.3512214 0.1453187 -0.61765516
-0.33925498 -0.031491477 -0.04189497 -0.20550922 0.0023083272 0.116969 0.1868456 -0.021475878
-0.3367895 0.12143769 0.22799474 0.10236589 1.0427047 -0.65092784 -0.047058206 0.4027129
-0.2213557 0.31869313 -0.18505849 -0.25065577 -0.12025289 0.049460575 -0.2087634 -0.30832446
0.20557201 0.13445011 -0.0019017641 -0.08876871 -0.14017217 0.28982008 0.4291739 0.6180361
0.16835994 -0.7309773 -0.21599539 0.27032638 0.34312648 0.18583106 -0.30770317 0.1482454
-0.19604695 -0.1343024 0.22784072 0.33252016 -0.14654715 0.020615233 0.048112497 0.023672279
-0.10465405 -0.26046276 -0.43627545 0.009407005 -0.99397874 0.10576743 0.235162 -0.0083468165
0.45812377 -0.631322 0.12794723 0.073147 0.010957454 0.745843 0.01258006 0.10387951
0.5433914 0.3287232 -0.3270453 0.07446853 -0.14254998 0.53846323 0.09481239 0.39959165
0.026668891 -0.34151667 0.019820254 0.4395414 -0.23608965 0.19928603 -0.16037196 0.32238778
0.08332397 0.08525653 -0.032137632 0.22024985 -0.3910281 -0.5075067 -0.06424807 0.23519446
0.21278475 0.021845978 0.37881675 -0.16182579 -0.1278087 0.3471227 0.34707454 -0.6262645
-0.4346032 -0.039676573 0.13206781 -0.0042780396 -0.05736723 0.17814721 0.5713791 -0.31741047
-0.44237256 -0.20350666 0.6613823 0.65800124 0.08403974 -0.15165713 0.2129638 -0.5070869
-0.4801967 0.108485505 -0.12682776 -0.2863332 0.44214815 -0.5397902 0.0077872425 -0.13401662
-0.040510938 -0.05868334 0.16475765 -0.33625093 0.47691995 1.0803856 -0.6731338 -0.89275074
0.4345154 0.78631943 0.9682194 0.19947249 0.85819405 0.42572448 -0.02109485 0.75752187
-1.1912872 1.0707192 -1.0475093 0.79905164 0.97626925 -0.950222 0.11979523 0.7693473
-0.23635982 -0.40191755 0.4969143 0.09337228 -0.317553 -0.7312547 0.21898535 -0.19074976
-0.14380641 0.5953179 0.15832883 -0.57055956 0.2257793 -0.06246284 0.35633406 -0.8842081
0.113411054 -0.3160315 0.5551957 -0.046830937 0.1422838 -0.33137873 0.33276522 0.0044377833
0.44208965 0.40251315 -0.38283876 -0.70367116 -0.28947747 0.06286843 0.4245791 0.11463246
0.4500437 0.38958392 0.28096336 -0.24074459 -0.44841143 0.23720345 -0.034833957 -0.049163498
0.522515 0.4151246 -0.16636853 -0.18750109 -0.028652593 -0.008167608 0.15170836 -0.024436021
0.34365723 -0.024136743 -0.06723412 0.5579851 0.36230356 0.0831477 -0.17021629 0.6233194

bias f4 [20]
00000000: eb12 973e 7bac 12bf f839 bfbe 517e 633d
00000010: 21b4 6e3e 498f 86bc 3f88 373f cb77 8cbe
00000020: 110e 0bbf 1423 583f 5152 bdbe 4ffd a0be
00000030: bef8 a9bc af1e d9be a1e2 39be 2502 e6ba
00000040: 131e 993e f855 eb3e ec6f 113e 38c2 63be
0.2950662 -0.57294434 -0.37348914 0.055540387 0.23310901 -0.016425746 0.7169227 -0.27435145
-0.5431834 0.84428525 -0.36976865 -0.3144326 -0.020748492 -0.42406222 -0.18152858 -0.0017548247
0.29905757 0.45964026 0.14202851 -0.22242057

weight f4 [1, 20]
00000000: 722e 8bc0 2a27 10c0 675f f4bf a112 0640
00000010: abb0 0940 ba5e d7bf e09c 2040 ab0e 10c0
00000020: 5a37 03c0 511c a840 a8bc 26c0 6440 10c0
00000030: 6bb4 da3f 8341 2fc0 78fc 65bf daa4 4840
00000040: 2862 0740 28c7 2b40 6b24 2a40 61e0 00c0
-4.3494196 -2.2523904 -1.9091614 2.094887 2.151408 -1.6825783 2.509575 -2.2508953
-2.0502534 5.2534566 -2.6052647 -2.25393 1.7086309 -2.7383735 -0.8983836 3.1350617
2.115366 2.6840305 2.6584728 -2.013695

u_b f4 [2]
00000000: cdcc 8c3f 0ad7 1f42
1.1 39.96

l_b f4 [2]
00000000: cdcc cc3d 0000 0000
0.1 0.0
