Trained/Iter_00/Models_00/Noise_0/toy_nostop/weak_ff.pt (torch, 39583 bytes, 23 tensors)

weight f4 [20, 2]
00000000: 9194 3dbe 8c27 983d 92f3 adbd 7964 203e
00000010: aebf 9ebe 6d6d c9be 523b bd3e eada 0a3f
00000020: 874d b43d 14d0 9dbe c9ee c23e 8105 3dbe
00000030: 12e1 1abe 3b01 933d f1c0 8c3d b6e8 a9be
00000040: 39b1 8bbc 6e40 803e 24a6 89be d013 0d3d
00000050: 7037 39bd 2eb5 f23d 92c4 193e 5f33 e33d
00000060: 865d 163d 7740 81be 6b87 c0be a446 713d
00000070: 7af5 e83d 7f45 9fbe 5948 ec3d fce6 60be
00000080: 0248 c03e f4f0 39bf e581 1dbf 7cf6 a4be
00000090: ef2e 223d b01d 15bd 9523 1b3e 415b 93bc
-0.18513705 0.07429418 -0.08493723 0.15663327 -0.31005615 -0.39341298 0.3695932 0.54240286
0.0880385 -0.30822814 0.38072804 -0.18459131 -0.1512492 0.07177969 0.06872738 -0.33185357
-0.01705228 0.25049156 -0.26884568 0.034442723 -0.045218885 0.118509635 0.15016392 0.11093783
0.036710285 -0.25244495 -0.37603316 0.05890526 0.11374946 -0.3110771 0.11537237 -0.21963114
0.37554938 -0.7263329 -0.6152633 -0.32219303 0.03959554 -0.036405265 0.15150292 -0.01798785

bias f4 [20]
00000000: 31c1 113e ee23 e4bd 189f 05be b50a 91bd
00000010: 5708 bc3d f8eb b93d dbab 813d 9391 3d3e
00000020: c6b6 2abe 0a8f ba3d c8f4 9e3d 0425 45bd
00000030: 9daf ab3d 6dce 033e 076c 89be 481f e13d
00000040: ebb0 8a3d 2bed 88be ea5a 36be ccfa b6bd
0.14233853 -0.111396655 -0.1304897 -0.0708212 0.09181278 0.090782106 0.06331607 0.18512563
-0.16671285 0.09109314 0.07761532 -0.048131004 0.08383105 0.12871714 -0.2684023 0.109922945
0.06772026 -0.26743445 -0.17808118 -0.089345545

weight f4 [20, 20]
00000000: 792c 873e d762 043e f700 65be c121 acbc
00000010: 5813 ea3d a179 cbbc 88c8 443e 2ec3 bd3d
00000020: 636b b13e a99f bf3e 1aba b03e 267c 8d3d
00000030: 473d 883e 42b1 323e e280 fd3e 5e94 61be
00000040: cf87 29be 7dc3 90be bb93 1abe 446e 843d
00000050: ad72 873e db20 113e b483 abbb 2e3d 2dbd
00000060: 0476 f3bd 8fcd dbbe 5ff7 debe 3619 63be
00000070: 6a97 6f3e df29 62bd b903 51bd 40ed 59bd
00000080: 54d3 32be a2ca a33d 6123 3dbe 090d 233e
00000090: f7b2 0e3e fb56 213e a897 2a3d 5088 25bc
000000a0: 9838 ab3e 413f 013e 1e80 7abe 2525 0bbf
000000b0: 1c80 1f3f 3451 99bd a54f 2fbd 6c6d 643e
000000c0: 9661 373e 0594 6dbe d915 46be 888e 3e3e
000000d0: 522a 8bbe de11 8c3c b4d7 2ebc 6ebd 23bd
000000e0: d30b aa3d f87a 69bd 4026 bd3c 10d9 f5be
000000f0: 8075 533e ec3f 693d 519c 65be 2838 573e
00000100: 6d0b 0e3e 3631 603e b1c0 a5be bde4 1b3e
00000110: f6fe 15be 13cb a23d f6dc c83d c17a 2a3e
00000120: 4859 a73e af54 0fbc 3b25 803d 7617 08ba
00000130: 2113 73be da67 50bc 8da7 513e 159c 763e
00000140: 8cc4 af3e b667 403d 6854 003e 8646 263e
00000150: 2bad a5be 09c3 93be 610f 0f3e b7e2 b23e
00000160: a0f2 bfbc 0c22 a9bd 9e5f 013e 0d7c 2fbd
00000170: 9547 d1bd 9bb9 12be 52f8 21be 8eb8 073e
00000180: b005 f7be 63df 373e 3e5b 083d 2528 983e
00000190: c1dd 9ebd a63d 023e 1fb1 9d3e be59 a1bd
000001a0: da1a 273e 6fe2 813e f8f4 4cbe ad43 d0bd
000001b0: 9548 80bc a13f 7bbe 615c b83d cc74 babd
000001c0: a52d 74be ec55 7ebe a19b 173f 1fa3 043d
000001d0: e520 4fbe 62ac f73d a056 463e c543 963e
000001e0: 5502 d7be d3bc 28bd a805 0e3d 2b05 b1bb
000001f0: 02b0 08be b97f 07bf 2332 4f3e c614 4a3d
00000200: ad86 883e a456 84be b75f 243e 14e3 17be
00000210: 788c de3c 7866 8ebc 2887 7a3e 320d ba3d
00000220: e600 dabd e538 35be 508d 8e3d 9115 36be
00000230: eb93 2e3e 3db4 dd3e 7f00 533e cdce 683d
00000240: 5bef 953e 52c5 373e c4cd d6be 56ab 0c3e
00000250: ed0c 50bd e7d8 9cbd 47fe a83d 872a 0f3e
00000260: c9b5 863e ecd5 9fbe 95ce 1e3d b3a0 6bbe
00000270: 2ce1 1ebe 081e fcbd 7a1c 3abe 0603 873e
00000280: 0477 d63d ba2f 01be adf8 8fbc 5ce8 183e
00000290: 869b 8fbe 7e06 2c3e 43be 56be e438 d3bd
000002a0: 108a 8abe fbe9 e1bd 7ef2 e43d 237f c83d
000002b0: 97c7 c03d 48cd 55bd 8a68 f63c 8e8e b13e
000002c0: 3941 4c3e 08e5 9d3e df92 273e 3920 43be
000002d0: 9f59 ed3d 6942 173d 6d33 bb3e 9ee4 b33d
000002e0: d273 f73e ae85 853e a174 2c3e 6cd3 283e
000002f0: ed1e e13e 30d4 183e fd37 c43d 42d3 90be
00000300: 2ffc 94bd 87f9 883e ab03 ffbd 2eb6 3fbd
00000310: 4282 923e 67ed 803c 8a2b 55be 36f2 173d
00000320: d49f a5bc 7639 323e 379b 19be e59a 803e
00000330: 03d5 8ebe 359a 12be 265f 75be 44cb 893c
00000340: a9d0 c43e d8b0 0ebf 644e 80bc b7bb 17be
00000350: b063 efbe c29e 6cbe f4b1 92bd c183 153e
00000360: 33f2 cbbe 2f98 5c3e 1cd4 333e 24b8 61be
00000370: 03a5 d2be febd 243e f091 a53e b3f3 573e
00000380: 69ce fabd fbf7 853d 77e3 9a3c 7c35 06be
00000390: 17c7 83be 632a a93e 219b b93d 3f75 ec3e
000003a0: 4347 aabd 21f0 eabd f04f 683e 27b5 4cbe
000003b0: 34db 8cbd 5a1d 033e 8a76 6d3e 5e3f 253d
000003c0: ee08 b6be 05c4 f73d 5276 ea3d 74be 22bc
000003d0: d673 94be 0fe2 a63e 453d 3abc 7ad4 56be
000003e0: f625 2a3e edd3 553e 8ed5 febd 6edc 913e
000003f0: 07ec 453e 7744 cebd 277b 21bd 6790 a93d
0.26401117 0.1292833 -0.2236365 -0.021012189 0.11429471 -0.02483827 0.19217122 0.09265743
0.34652242 0.374265 0.34516984 0.06908445 0.2660925 0.17450431 0.49512392 -0.22029254
-0.16555713 -0.28274146 -0.15095417 0.06466344 0.26454678 0.1417269 -0.005234206 -0.042294674
-0.11887744 -0.42930266 -0.43548104 -0.22177586 0.23397604 -0.055215713 -0.05102894 -0.053204775
-0.17463428 0.079976335 -0.18470527 0.15922941 0.13935457 0.15755837 0.041648537 -0.0101033
0.33441615 0.12621786 -0.24462935 -0.54353553 0.62304854 -0.074861914 -0.042800564 0.22307366
0.1790832 -0.23200996 -0.19344272 0.18609059 -0.27180725 0.017098363 -0.010671545 -0.039975576
0.083030365 -0.057002038 0.023089528 -0.48017168 0.20650291 0.056945726 -0.22422911 0.21017516
0.13871546 0.21893772 -0.32373574 0.15223975 -0.14648041 0.079488896 0.0980777 0.1664839
0.32685304 -0.0087482175 0.06257101 -0.0005191484 -0.23737766 -0.012720073 0.20474072 0.24082978
0.3432964 0.046973906 0.12532198 0.1623784 -0.3235868 -0.28859738 0.1397071 0.34938595
-0.023431122 -0.08258447 0.12634131 -0.042842913 -0.10218731 -0.14328615 -0.15817383 0.13253996
-0.48246527 0.17956309 0.03329014 0.29718128 -0.0775714 0.1271883 0.30799195 -0.07878445
0.16318837 0.25368068 -0.20015323 -0.10169158 -0.01565961 -0.24535991 0.09001995 -0.091043085
-0.23845537 -0.24837464 0.59221846 0.032382127 -0.20227392 0.12093426 0.19368982 0.2934858
-0.41993967 -0.0411957 0.034673363 -0.0054022274 -0.13348392 -0.52929264 0.2023397 0.049336217
0.2666525 -0.25847352 0.16052137 -0.14832717 0.02716659 -0.017382845 0.2446562 0.09084548
-0.106447026 -0.17697485 0.06960547 -0.17781664 0.17048614 0.43301573 0.20605658 0.056837846
0.29284176 0.17946365 -0.41953862 0.13737234 -0.050793577 -0.07658558 0.082516246 0.13981067
0.26310566 -0.31217897 0.03877123 -0.2301052 -0.15515584 -0.123104155 -0.18174925 0.26369494
0.10471919 -0.12615862 -0.017574633 0.14932388 -0.28048342 0.16799352 -0.20971017 -0.103135854
-0.27058458 -0.11030956 0.11179064 0.097898744 0.09413069 -0.052197725 0.030079145 0.34679073
0.19946755 0.308388 0.1636462 -0.1905526 0.115893595 0.036928568 0.36562672 0.0878384
0.4833055 0.26078552 0.16841365 0.16486901 0.43968907 0.14924693 0.095809914 -0.28286177
-0.07274663 0.26752874 -0.124518715 -0.0468046 0.28615004 0.015738202 -0.2081739 0.037096225
-0.020217814 0.17404732 -0.15000616 0.25118175 -0.2789689 -0.14316638 -0.23962077 0.016820557
0.38440445 -0.5573859 -0.01566238 -0.14817701 -0.46755743 -0.23107436 -0.07162848 0.14601041
-0.3983322 0.21542428 0.17561382 -0.220429 -0.4114152 0.16088101 0.32337904 0.21089058
-0.12246401 0.06541439 0.018907292 -0.1310634 -0.2573783 0.3304015 0.090627916 0.46183202
-0.08314373 -0.11471582 0.22686744 -0.19990979 -0.06877747 0.12804165 0.2318975 0.040343635
-0.35553688 0.12097935 0.11448349 -0.009933103 -0.28994626 0.32594344 -0.011367147 -0.20979491
0.16616043 0.20881625 -0.12443076 0.28488487 0.19328319 -0.100716524 -0.039424088 0.08279496

bias f4 [20]
00000000: 26a6 ccbb da53 23be 38a2 cb3d 98f2 3abd
00000010: e3a4 ae3c bee7 0abe cbff 973b 02cb 0c3d
00000020: f2be 9f3d b4ee 7d3d b71c 75bd 68fa 1ebd
00000030: b471 27bd 03f7 48bd c197 6f3e 6730 37be
00000040: a545 4c3d ff5c 833c a668 c4bd 6770 a83c
-0.0062453924 -0.15949956 0.0994305 -0.04564151 0.021318858 -0.13564965 0.004638647 0.03437329
0.07800092 0.061995223 -0.059841838 -0.038813025 -0.04087992 -0.049063694 0.23397733 -0.17889558
0.049871106 0.016035555 -0.095902726 0.02056141

weight f4 [20, 20]
00000000: c25d 923e a578 82be bff7 dd3d d81a 443e
00000010: f249 26be 2552 28be 8a89 2b3e 1d51 b73e
00000020: 2a55 1bbf b52c 293e 972e 0e3e 5597 883e
00000030: 871b 133e 1386 373e 400b b23e cf08 5ebe
00000040: 0ccc cb3e 0816 0fbe 171f 093e d4b3 a2be
00000050: 09df 883e 7014 d53c d8bc 323d d624 503c
00000060: c3a4 883d 7f6c 843e 8591 6c3e 528b 88be
00000070: 935f 9abd e3ec 303e 6ad4 54be 4d17 ad3e
00000080: ddef 3fbd a45f 7f3a 3b02 5fbd 3a14 ab3e
00000090: 1a9e 57bd 81eb cc3e c113 a53e 10c0 26bd
000000a0: 48a2 80be 18c7 e8bc 5d75 233c 8097 87be
000000b0: 24b6 3a3e ea87 073e 866c 983e 9d8f b53c
000000c0: ad28 f63d 981d 573e caba 30be faa9 6abe
000000d0: 3006 e4bd e452 ce3d 27c7 47bc 4d85 bf3e
000000e0: 677c 513e dad6 5d3d dc48 33be 4248 c13d
000000f0: 6607 ba3e dfde 943d 67c6 32be 3ae8 c5bd
00000100: 337c 8dbe ffba a0be e710 fdbe 15d1 f7be
00000110: d17c 29be 66f5 89be 6253 9dbc e6b9 63bd
00000120: c5c3 0abe 115e 983d 03be f6bc 241c 533e
00000130: b149 afbd 4c04 00be b254 7f3d 4dd6 ba3e
00000140: 0817 b53e cac7 d4bc 0211 3d3d 85be 42bd
00000150: 9a75 6f3e d8db a6be 1ba2 02be 5231 3dbe
00000160: 6931 dc3d 3ee6 64bb 690c c4be f098 acbe
00000170: 8262 97bd 43ff 19bf aaf9 f13e 692a 123e
00000180: 5403 93be f545 87be bdfe ca3e 2608 253e
00000190: bac5 21be af39 52bd 7bef d53c 6e99 52be
000001a0: dedc 9cbe 75a9 92bd a9f4 ae3d 158f ddbe
000001b0: 30b7 d23d f8e3 04bd 06e5 70be fe7e b9bd
000001c0: a08b d83e 64aa 103e 2a26 d73e 0abc 4abc
000001d0: 6907 573c 3369 453e 45c3 3a3e 7436 05bf
000001e0: 3484 8c3e 4996 0dbd 38c2 b03c 5902 793e
000001f0: bd0c 053e 4dff 2bbd 55fe 34be f87d 7e3e
00000200: 9b79 54bd e8e3 803d 4eb0 783e 825d 033e
00000210: 0aa4 4fbe e1c5 973e 3fc5 5bbe 221f 933e
00000220: 525f 1e3e 9849 21bf 1f6c 6fbe fd10 ac3d
00000230: 3bd3 c1bd 0f7f 303e d4f0 91bd b2f7 743e
00000240: 6fb9 3dbd eebe c2bd aa24 22be 8676 903e
00000250: 5fea b63e a5b4 a63d aa31 2a3e f3ea 29be
00000260: 927e dcbd a824 4abd d979 fb3d 5713 fc3d
00000270: 7c93 40be a5de b23e 8649 9a3b 2543 ff3c
00000280: c94d dabd e553 58bd fc62 88be c3cc da3e
00000290: 29fd 913e 47a1 413e 34ae afbc 5d02 a63c
000002a0: 99ae 2a3e 25a1 a03d 1a01 10bc 4222 a23e
000002b0: eec4 85be 7bf9 bcbe 3793 503e d1a4 c6bd
000002c0: cbc6 7dbd 8676 4bbe 63c6 a63e 087c 8bbe
000002d0: 06cf f53e 5b3b 55be ac6c 55be 07f9 5b38
000002e0: 1acb 92be 8c78 983e c4e8 85be edb7 f13d
000002f0: 0bf3 113d 83dc 03bd fcfb 0b3e 5373 eb3d
00000300: d0ad 9cbd b954 a13c a638 02be 0ff1 963e
00000310: 426c ec3a 7b12 c13d cd48 d73d b29d 63be
00000320: 9335 583e 8e29 803c 7d31 1f3e 5f7d f5bb
00000330: c546 343d f9f7 c83d 84b8 c53d 5402 d1bd
00000340: 68af 0abe d453 2e3e bd91 4cbe 7a46 043e
00000350: 787a 67ba f65d 5b3e 1244 b5be 855c 883e
00000360: b220 d33d b843 a2be 16d8 c0bd 7f32 82be
00000370: 50c8 263d dd6b c03d e3d4 c3bd 468e 4bbe
00000380: 9f9a 1c3e c7da 80be 0b79 6a3d 10e7 a0bd
00000390: 069f b6be b84c 1c3e 0674 51be b73a bfbd
000003a0: 120c 9c3e 0a15 a73e ff01 a3b9 a92d a03e
000003b0: 90bf 1a3d 7f9d 333f 6f96 02be b295 593d
000003c0: 5ada a0be f4be c63d 30e9 84be c85e fd3c
000003d0: 3956 723e 3678 b0be 0996 97bc 45a8 a13e
000003e0: 8b62 2d3d 0184 843d 7be3 1c3e 3b20 d3bd
000003f0: 441b 8ebe 70cf d7be 1a55 763e 1d0b 39bf
0.28587157 -0.2548267 0.108382694 0.19150865 -0.16239145 -0.16437586 0.16751686 0.35804072
-0.60676825 0.1652096 0.1388496 0.26677957 0.1436597 0.17922239 0.34774208 -0.21683048
0.39804113 -0.13973248 0.13390766 -0.31777823 0.26732662 0.026010722 0.043637127 0.012704095
0.06672051 0.25864026 0.23102386 -0.26668793 -0.075377606 0.17277865 -0.20784155 0.3380684
-0.04685961 0.00097417296 -0.054445487 0.3341387 -0.05264101 0.40023425 0.32241634 -0.04071051
-0.2512381 -0.028415248 0.009976712 -0.26482773 0.18233544 0.13235441 0.29770297 0.022163207
0.12019477 0.21007383 -0.17258754 -0.22916403 -0.11133993 0.10074404 -0.012193478 0.37406388
0.20457612 0.054159977 -0.17508262 0.0943761 0.3633377 0.07269072 -0.17458497 -0.09663434
-0.2763382 -0.31392667 -0.49426958 -0.48401704 -0.1655152 -0.26945037 -0.0192048 -0.05559721
-0.13551243 0.07439817 -0.030119902 0.20616204 -0.085589774 -0.12501639 0.06233663 0.36491624
0.35369134 -0.025974173 0.046158798 -0.047544975 0.23384705 -0.32589602 -0.12757151 -0.18475845
0.10751612 -0.0034927274 -0.38290718 -0.33710432 -0.07391836 -0.60155123 0.4726079 0.1427399
-0.28713477 -0.2642056 0.39647475 0.1611639 -0.15798083 -0.051324543 0.02611517 -0.20566341
-0.30637258 -0.071612276 0.08542759 -0.43273225 0.102888465 -0.03244397 -0.23524866 -0.09057425
0.42294025 0.14127499 0.42021304 -0.012373934 0.013124325 0.19278412 0.18238552 -0.52036214
0.27444613 -0.03456715 0.021576986 0.24317302 0.1299314 -0.04199152 -0.17675145 0.24852741
-0.051873785 0.0629347 0.24286005 0.12828639 -0.2027742 0.29643157 -0.21461962 0.2873469
0.1546605 -0.6300292 -0.23381089 0.08401678 -0.09464117 0.17235969 -0.071260124 0.23922613
-0.04631942 -0.09509073 -0.15834299 0.28215426 0.35725686 0.08139924 0.16620508 -0.16593532
-0.10766329 -0.049351364 0.122791 0.12308376 -0.18806261 0.3493549 0.0047084717 0.031159947
-0.106593676 -0.052814383 -0.2663802 0.42734346 0.28513458 0.18909179 -0.021445371 0.020264799
0.16668166 0.07843236 -0.008789325 0.31666762 -0.26126808 -0.36909088 0.20368658 -0.09699405
-0.061957162 -0.19869432 0.32573232 -0.27243066 0.4800951 -0.20823424 -0.20842236 5.2445594e-05
-0.2867058 0.2977947 -0.2615415 0.11802659 0.035632174 -0.03219272 0.13670343 0.11496606
-0.076503396 0.01969372 -0.12716922 0.29480788 0.0018037634 0.09427353 0.105119325 -0.22228125
0.21114187 0.015644815 0.15546222 -0.007491752 0.044012804 0.09812922 0.09654334 -0.10205522
-0.13543475 0.17024165 -0.1997747 0.1291751 -0.00088302 0.21422562 -0.35403496 0.26633087
0.103089705 -0.3169229 -0.09416215 -0.2542915 0.040718377 0.09395573 -0.09562089 -0.19878492
0.15293358 -0.25166914 0.05724434 -0.07856572 -0.356682 0.15263641 -0.20454416 -0.09337371
0.3047796 0.3263324 -0.0003109127 0.31284836 0.037780344 0.70162195 -0.12752698 0.053121276
-0.3141659 0.0970439 -0.25959158 0.030928984 0.23665704 -0.34466714 -0.01850416 0.31573692
0.042330306 0.0647049 0.15321152 -0.10308882 -0.27755177 -0.4215045 0.24055901 -0.7228258

bias f4 [20]
00000000: 7b97 feb9 a8e8 3fbc d6d8 07bd 0126 59bb
00000010: c5b3 b53d 6c8d ed3b 1eb3 c0bc 6363 8d3d
00000020: b79f 79bc 2429 5ebd ccac 6cbc 0194 983c
00000030: 36d5 aa3d e652 203d f103 0fbd 0eff 42be
00000040: 9c61 0a3d d6b4 dd3d 79f4 08be 0164 59bd
-0.00048559517 -0.011713184 -0.033165775 -0.0033134224 0.08872179 0.007249525 -0.02352291 0.06903722
-0.015235833 -0.054238454 -0.014445495 0.018625261 0.08341448 0.039141558 -0.03491587 -0.19042608
0.033784494 0.10825507 -0.13374509 -0.053073887

weight f4 [20, 20]
00000000: a488 453c f319 193e cfc2 913e 1d0e 17be
00000010: 5846 0d3f 67e2 1bbd df13 bc3e daef 86be
00000020: a9d0 803e e35c a73d 94de 473e 96e9 183c
00000030: eb92 d23d 3674 8e3e b899 10be 885c 7e3e
00000040: 4352 4d3e 8f20 be3e 9e49 8f3e ad1f 76bd
00000050: 5d6e 58bd 701c 693c e53d 49be 1a6f 10bc
00000060: 7694 1d3e d55f 953e dbe2 ab3e 0788 21bd
00000070: 4d41 c3bd f485 5a3d 7008 8bbe 9e7f 65be
00000080: 49ff 84be a917 ee3e 667c 92be d3ed 14be
00000090: 6788 c13e 3329 923e c0f9 7abe 3213 793e
000000a0: f163 cebe f2c0 9ebe a07c 2e3e 02c3 a5bd
000000b0: 0bca d7be 7600 6c3e e9c3 06bf 5202 453e
000000c0: 5bc7 4b3e 1aea 0a3f 6b82 25be 95c3 b7bd
000000d0: e3f0 64bd 0fb8 a7bb 8d01 903d 21f7 36be
000000e0: 0e25 8cbe b98a ce3e d398 df3c 86f9 ab3e
000000f0: 8e93 15be 5255 87bd 59ea ebbd 9fe7 0a3e
00000100: e511 76bd 4f2e 1fbe 4689 1f3e 328c 3a3e
00000110: 27fc 683d e622 233e 5bf1 843e bec7 06bf
00000120: 68f7 723d eebe 8d3e b221 803c 529b d73c
00000130: f418 34be 4822 1a3f e535 853d 6891 edbe
00000140: 998a 9a3e c702 90be 91fa 8ebe 7455 5ebd
00000150: 1cba 253e bc95 103e 78f7 18be a525 bb3a
00000160: b784 343d ee6e a3be 1327 fd3d 4b8f 233d
00000170: 19e6 043e 3468 633e f13b 57be b1c3 a0bd
00000180: b74b 3cbe 2f65 84be 6b47 03bf 1b91 0ebb
00000190: 3a1e b83d b2f2 21bc df0c 623d 2b65 3f3e
000001a0: 1c46 983e a527 0d3d f2f7 84be 0cb5 ebbc
000001b0: e9f6 5e3e 2462 983d 21a9 55be f34d a6be
000001c0: e4a5 dbbd 8bb9 593e 8db2 afbe 7f8a cdbd
000001d0: 327f a8be 5aca 03bd e64c b13e f55f 7a3d
000001e0: 57ac 38be 8f78 aa3e 874a 5f3d 3a1d 3ebe
000001f0: 1770 e3be a499 9e3e b03a 0a3d c931 71bd
00000200: f03b 47be 7aa5 6c3e 2fcd 58be 2504 d9be
00000210: c721 833e f573 9cbe 39d0 8c3e 7678 333d
00000220: af15 293f c423 e43d b418 1dbd 03d3 32be
00000230: 1d35 a9be fb74 d1bd f9ed cebe c49e 4f3e
00000240: 8aae 23bf 774d bd3e 22e7 a23e c194 5d3e
00000250: 7646 43bd 6030 febd 2339 d73e 8126 84be
00000260: f69b a13e 1a5c aebe fb19 5bbe 0f43 333e
00000270: e023 94bc 4808 75be 4ba0 cdbe cade f6bd
00000280: 654f 8c3e ea94 8fbd e9c6 77be 8520 90be
00000290: afdb 4f3e 1cb2 053e ea21 61be 37cb 1ebe
000002a0: db83 2a3d 92c5 10be 9e95 9d3d 33ff 01be
000002b0: 9c90 953e 06b1 373e b1c0 333e 9dcb 16bd
000002c0: 9ce6 41be fa8b 4dbe 17d9 183e a42b 95bd
000002d0: 4819 a13e 084c 6b3d bc9a fa3c dee2 5fbe
000002e0: 5380 cfbd 0a34 43bd 73bf 53be b6fa 293e
000002f0: 9d80 5fbd a44b 933e 896e 80be dd91 febd
00000300: 7e2d aabe def1 203e 2c68 d63e 3b06 a8be
00000310: c76e 1fbe b227 e2be 7558 07be a2ae 523d
00000320: d671 a53c ff90 893e 795a 343e 4d1f 6d3e
00000330: 1cc0 b9bd 4dc5 1a3e 5930 1ebd 0747 2f3c
00000340: 43a7 b93e 4b05 e23c 5348 90be 1374 e8bd
00000350: b65b 823e bb84 8d3e 2d4d 0b3e d049 ccbe
00000360: 3f6c 5dbe a4ac e4be afa8 53bd e35b fdbc
00000370: 3511 c7bc 9d3f 073e 5058 eebb 3d57 36be
00000380: 15c7 2ebe 2ff6 223e c023 323d c697 07be
00000390: d135 60be 4ac2 61be 0ead 1cbe 9d6b e1bd
000003a0: 01ab 02be e6dd 47be f73f df3c 5ace 003e
000003b0: bc0c 543e f279 833e 728c 95be b611 8a3e
000003c0: 0d5f 523e 3d3d 64bc b477 953d 5200 493d
000003d0: 8617 39be 9802 01bf 8f52 5f3e 133c afbe
000003e0: 7842 663e 7e10 a6bc f661 873b 1ad7 26be
000003f0: 6c11 bfbd d13a 8ebd 6aae 163e 6fb6 143f
0.012056503 0.14951305 0.2846894 -0.14751478 0.5518546 -0.03805771 0.3673391 -0.26354867
0.25159195 0.081720136 0.195185 0.009333035 0.10281929 0.27823037 -0.14121139 0.24839985
0.20050912 0.37134215 0.27985853 -0.060088802 -0.052839626 0.014227971 -0.19652517 -0.008815551
0.15388665 0.29174677 0.33571514 -0.039436366 -0.095339395 0.053350404 -0.27154875 -0.22411963
-0.25976017 0.46502426 -0.28610533 -0.14543848 0.3779938 0.28547058 -0.24509335 0.24323729
-0.40310624 -0.3100658 0.17039728 -0.080938354 -0.42146334 0.23047051 -0.52642685 0.19239166
0.19900267 0.5426346 -0.16163032 -0.08972851 -0.05589379 -0.005118377 0.07031546 -0.1786771
-0.2737202 0.40340212 0.027294552 0.3358881 -0.14607069 -0.066080704 -0.11519308 0.13564919
-0.06007566 -0.15545009 0.1557971 0.18217543 0.056881096 0.15931281 0.2596539 -0.5264853
0.059317976 0.2768473 0.015641067 0.02631918 -0.17587644 0.6020856 0.0650442 -0.464
0.30183867 -0.2812712 -0.27925542 -0.054280713 0.16184276 0.14119619 -0.14938152 0.0014278187
0.04407188 -0.3192057 0.123609684 0.039931577 0.129784 0.22207719 -0.2101896 -0.07849825
-0.18388258 -0.25858447 -0.5128085 -0.002175397 0.0899014 -0.009884523 0.055188056 0.18690936
0.2974099 0.034461636 -0.25970417 -0.028772853 0.21773876 0.07440594 -0.20865299 -0.32481346
-0.107250005 0.21262185 -0.3431591 -0.10036182 -0.32909542 -0.0321754 0.3462898 0.061126668
-0.18034492 0.33295104 0.054514434 -0.18565837 -0.44421455 0.30976593 0.033747375 -0.05888537
-0.19456458 0.2311 -0.21172021 -0.42385975 0.25611708 -0.30557218 0.2750261 0.043816052
0.6604871 0.11139634 -0.038353637 -0.17463307 -0.33048335 -0.102273904 -0.40415934 0.20275408
-0.639382 0.36973163 0.31816965 0.21638776 -0.04767462 -0.124115705 0.4203578 -0.25810626
0.315643 -0.34054643 -0.2139663 0.1750605 -0.018083513 -0.2392894 -0.40161356 -0.120542124
0.27404323 -0.07010825 -0.24196972 -0.2814981 0.20298646 0.13056225 -0.21985593 -0.15507208
0.041629653 -0.14137867 0.07694553 -0.12695007 0.2921189 0.17938623 0.17553975 -0.036815275
-0.18935627 -0.20072928 0.14926563 -0.072837144 0.314646 0.057445556 0.030591361 -0.21863887
-0.10131898 -0.04765705 -0.20678501 0.16599545 -0.054566015 0.28768647 -0.25084332 -0.12430165
-0.33237833 0.15717265 0.41876352 -0.32817253 -0.15569602 -0.4417091 -0.13217337 0.051436074
0.020195883 0.26868436 0.17612638 0.23156472 -0.09069845 0.15114327 -0.038620327 0.010698087
0.36260423 0.027590415 -0.2818018 -0.113502644 0.25460595 0.27640328 0.13603659 -0.39900064
-0.21623324 -0.44662964 -0.05167454 -0.030927604 -0.024300197 0.1320786 -0.0072737113 -0.17806716
-0.17068131 0.15914224 0.043491125 -0.1324149 -0.2189553 -0.22046772 -0.1530039 -0.11006854
-0.12760545 -0.19518241 0.02725218 0.12578717 0.20707983 0.25678974 -0.29208714 0.26966637
0.20544071 -0.013930616 0.07298222 0.04907257 -0.1807538 -0.5039458 0.21808837 -0.3422552
0.22486293 -0.020271536 0.004131551 -0.16292992 -0.09329495 -0.06944812 0.14714971 0.5809087

bias f4 [20]
00000000: c90b fd3c f2a9 fabb f931 5b3d b75b 1b3c
00000010: a612 843d cda0 1bbd e269 ca3c fcde 48bd
00000020: 8d7a 953d 5bd7 ec3c 276d 74bd 0db1 3c3d
00000030: 29bd 3abd e2cd f0bc 5d7e 21bc 087c c83c
00000040: af69 e7bc a87e ad3c 6758 18be 30a3 353c
0.030889409 -0.0076496536 0.053514455 0.009482316 0.064488694 -0.03799515 0.024708692 -0.04904078
0.07298765 0.028911283 -0.05967441 0.046067286 -0.045590553 -0.029395048 -0.0098567875 0.024473205
-0.028248636 0.021178558 -0.14877473 0.01108627

weight f4 [20, 20]
00000000: 7178 7c3e aa2c 323d 0377 babc 4f3e c3bd
00000010: 6aac 4e3e 120c 643d ce39 8cbd 5c0f 00be
00000020: 8cac cd3e 45fb 1f3d 84b8 b5bd f71d 183e
00000030: 4a58 563e 0c85 67be a704 333e 0bd8 1fbe
00000040: e247 a23e 7a7d 0fbe 4326 30be 5d40 1abe
00000050: ba54 413c 2e34 6fbe c7dc 283e c523 e2bd
00000060: 8220 ddbd cb30 6bbd 560a cdbc 92f8 81be
00000070: b5d8 b03e b92c 51be 776e af3b e703 4fbe
00000080: afca 2ebe 6baa 773d f4aa acbe 68db adbe
00000090: 2d72 d4bd 7700 b03e 5d7b f33d 5088 09bd
000000a0: 81b3 a53e 9f38 123e c91f 9abe 1b5b e53d
000000b0: d57e dfbe e279 31be ec06 8bbd 87d5 963d
000000c0: 80c8 99bd 950e 083d 149a 9abc 324f cbbd
000000d0: da2d d53d 792a e73e 6b59 373c 4946 863d
000000e0: 92ec 8b3d 2c2e a1be d572 95be d44b 06bd
000000f0: b9be 0ebb ceed 8d3e 4f45 a43d 524d 493d
00000100: 149f 9e3d c439 6cbe 8da1 90bd 4596 9f3d
00000110: 40f0 f9bd e6e5 6abe df8c 63be 7fba acbd
00000120: d8c9 e73e 9947 803e 3368 463e c9a7 9f3e
00000130: 42f4 5fbd 3de0 863e 5051 743d 1618 813e
00000140: 5aa4 a5be e5ea 9abc f2eb d63e e923 c33d
00000150: 266c 7c3c cb6d e1bd 0f85 de3c cf3d 6abe
00000160: 87ff d93d 4b91 c0bd fa10 42be 8eed cd3c
00000170: f8bc 8ebe eca3 23be 3465 b2be be84 ff3d
00000180: b9ee 03be 9e5b 243e 0345 07bd d7bd 0fbe
00000190: 316f c9be 9a6f 83bc 0480 ee3d d1c9 49bd
000001a0: f325 b13e be72 083e 01e3 f1be c655 04bd
000001b0: 5e59 163e 0121 b5bc 78a2 1ebe 0c37 e8be
000001c0: 9de4 6bbe 4c52 4b3e 5851 01bd 1a94 223f
000001d0: aa37 01be d133 04be 4b4c 95be c095 bbbe
000001e0: 7107 843e 1a62 213b 69f5 35bb ead9 c33c
000001f0: 9dc5 c0be d809 193e 6597 08be 665a 5a3e
00000200: 106a 843d 88a4 0a3e d590 95be cc75 34bc
00000210: 4152 ad3d 7bc2 043e c14c 4e3e 6969 703c
00000220: 8e38 043e 9d66 2c3e 9eb9 35bc aeb0 133e
00000230: 8bf6 6fbe 6608 9c3b 8a0a 1f3e 9493 b6bc
00000240: 4ed7 963d 1ff0 6fbe d315 233e 03b9 513c
00000250: e516 73bd c4e0 ed3d d8d0 c2bd ea4f 83bd
00000260: 21c1 9b3e 64fc 9fbd 3bc2 f8bd 5284 42be
00000270: edf5 81be bf84 c63d e82d 943d c3cd 133e
00000280: 9cf3 99be 1cce 49be e37c 973d 4303 273e
00000290: 761f 59bd 4406 a3be ea20 003c 22bd c1be
000002a0: 3cf2 c8bd 3aff 873e aa40 593e 55ce 4abe
000002b0: 4c48 69be 7d68 463e d327 03bd 9c6a 6fbd
000002c0: 31dc 2abe 9db0 56be 7b5c 23bd 31ab 973d
000002d0: 3828 9bbd ea60 163e 41ca 803e c07b 4dbe
000002e0: 1482 26be 35d6 25be 369a 5abd 2bd5 993e
000002f0: 8017 b6bd 79f6 e0bd 1285 b03c 8cdb 44bc
00000300: 69a0 bcbe 2a53 c73e 3b2d 18be 0ee6 43be
00000310: cf06 a5bd ab09 bf3e b09d 1c3d 1068 003e
00000320: 8811 ccbd 93ef 59be ff1f d63e 0a39 933e
00000330: 7410 01be 1403 a93e 882b dcbd d963 85be
00000340: de63 223e db1b b5be 74e4 8f3e ae97 bf3c
00000350: a934 d3be 4da7 11be 84af d6be 79cb a73d
00000360: 89b2 513e fa8c aabd 7cf4 943e 3186 83be
00000370: 9244 c7be f1df 63bd f514 67bd 693c 333e
00000380: dc19 c2be da18 8b3d c936 3cbe e176 ed3e
00000390: 78ef 32be 7d26 54be b0c7 14bd c239 d93d
000003a0: 0ba2 8d3e 09b1 023e cb17 733d 77e3 14bd
000003b0: 29c8 d23d b5c8 0ebe 75b2 8dbd 2509 60bd
000003c0: fd78 6ebe 3f2f abbd 93b3 5cbd c19c cdbd
000003d0: 4dcf 6dbe 4d70 a53e 4850 2ebe dd24 45be
000003e0: a01c 1a3d d8ea 85bd bdfc 8d3d f55c 50bd
000003f0: 955e 75be b2f5 853e 44be bbbe 4b54 e43d
0.2465532 0.043499626 -0.022761827 -0.09533369 0.20182958 0.055675574 -0.06846963 -0.12505859
0.40170705 0.03905799 -0.08873084 0.1485518 0.20932117 -0.22609347 0.17482243 -0.15609758
0.31695467 -0.1401271 -0.17202096 -0.15063615 0.011799986 -0.23359749 0.1649047 -0.11041979
-0.10797216 -0.05741958 -0.025029343 -0.25384957 0.34540334 -0.20427217 0.0053537446 -0.20216332
-0.17069505 0.060465258 -0.33724177 -0.33956456 -0.1037334 0.34375355 0.11888764 -0.033577263
0.32363513 0.14279412 -0.30102375 0.111990176 -0.43651453 -0.17331651 -0.067884296 0.07364946
-0.075089455 0.03321703 -0.018872298 -0.09927215 0.10409136 0.45149592 0.0111907525 0.065563746
0.068322316 -0.3148054 -0.29189172 -0.03278716 -0.002178116 0.27720493 0.08021032 0.049146004
0.077451855 -0.23068911 -0.07062063 0.077923335 -0.12204027 -0.22939262 -0.22221707 -0.08434009
0.45271182 0.25054625 0.19375686 0.31182697 -0.0546763 0.26342955 0.05964786 0.2521369
-0.32351953 -0.018910835 0.41976887 0.09528334 0.015406644 -0.110072695 0.027163057 -0.2287514
0.10644441 -0.094027124 -0.18951789 0.025137689 -0.27878547 -0.159805 -0.34842837 0.124764904
-0.12884034 0.16050574 -0.0330248 -0.14037262 -0.39342645 -0.016044427 0.11645511 -0.049264733
0.34599265 0.1332502 -0.47243503 -0.032308362 0.14682528 -0.022110464 -0.15491664 -0.45354497
-0.23036428 0.19855613 -0.031571716 0.63507235 -0.1261889 -0.12910391 -0.2915977 -0.36637688
0.25786927 0.0024625123 -0.0027764684 0.02390762 -0.37650767 0.14945161 -0.13339002 0.21323547
0.06465542 0.13539326 -0.2921206 -0.011014413 0.08462954 0.12964813 0.20146467 0.014673569
0.12912199 0.16836019 -0.011091618 0.14422867 -0.23433892 0.0047617434 0.15531364 -0.022287168
0.07365285 -0.23431443 0.15926294 0.012800458 -0.059348006 0.11615136 -0.0951249 -0.06411727
0.30420783 -0.078118116 -0.121464215 -0.18995789 -0.2538294 0.09693288 0.072353184 0.1443396
-0.30068672 -0.1970753 0.07396867 0.16309838 -0.05300852 -0.31840718 0.007820347 -0.3783961
-0.098118275 0.2656191 0.21216074 -0.19805272 -0.22781485 0.19375797 -0.0320204 -0.05845128
-0.16685559 -0.2096581 -0.039883118 0.07405699 -0.075760305 0.14685407 0.25154307 -0.20066738
-0.16260558 -0.16194995 -0.053369723 0.30045447 -0.08891201 -0.10984511 0.021547828 -0.012015235
-0.36841133 0.38930637 -0.14861004 -0.19130728 -0.08057939 0.37312064 0.03823632 0.12539697
-0.09964281 -0.21282797 0.41821286 0.28754455 -0.12603933 0.3301016 -0.107504904 -0.2605274
0.15858409 -0.35372815 0.28103983 0.023387756 -0.41251114 -0.14223976 -0.41930783 0.08193106
0.20478262 -0.083276704 0.29092777 -0.25688317 -0.38919502 -0.05563349 -0.05641647 0.17503513
-0.37910354 0.067918494 -0.18380274 0.4637976 -0.17474163 -0.20717807 -0.03632325 0.106067196
0.2766269 0.12762846 0.059348863 -0.03634974 0.10292084 -0.13943751 -0.069188036 -0.05469622
-0.23288341 -0.08358621 -0.053882193 -0.10039664 -0.2322361 0.3231224 -0.17022812 -0.19252343
0.037624955 -0.065389335 0.069329716 -0.0508699 -0.23961861 0.26164013 -0.366686 0.1114889

bias f4 [20]
00000000: 5365 9aba 0883 24bc c050 19bc 468d cdbd
00000010: 6273 4a3d d487 593d 3b64 3cbc 9337 0bbc
00000020: dab5 7a3d 4be4 cdbc de94 0dbd f479 cfbc
00000030: fa36 0f3c 1bec 57bc 6712 36bd aa6b 22bc
00000040: 5441 8a3d b876 993d 3e58 cdbb ea48 2bbe
-0.0011779465 -0.010041006 -0.009357631 -0.100367114 0.049426444 0.05310805 -0.011498506 -0.008497137
0.061208583 -0.025133273 -0.0345658 -0.025326706 0.008741135 -0.0131788505 -0.044451144 -0.009913364
0.067507416 0.07493347 -0.006266623 -0.16727033

weight f4 [20, 20]
00000000: 5220 6d3e 653c d33d 4c24 a1bd 9edb 033e
00000010: 8afd a0bd 2e5b 383c db89 823d a89e 0c3d
00000020: bc5b d0ba 7653 d83d c56b 083e 6787 f73c
00000030: 1733 863e 58b2 8c3e 9b73 cdbd 64da ef3d
00000040: 4dcf e73d 9329 a53e cc1e cf3d cb31 ecbe
00000050: a463 073e 9259 603e 4c65 92be 4f28 78be
00000060: 36b4 5d3d ea22 813d cf3a 11be 30d4 6a3e
00000070: 7bc4 5a3e da71 ed3d 7df3 e9bd 4dac 8ebe
00000080: e350 7e3e 029e 0d3e 239c 8abd e810 81be
00000090: f30b 803e 44e0 1cbe 72f7 26be 7fe5 753d
000000a0: 7817 c0be 986d 3bbc f4b0 c0bd 19fa 5abe
000000b0: cf52 92be faa0 68bc ee55 993d d656 c9be
000000c0: df6a 21be e46a 793d d3b7 a6bd fb62 8ebe
000000d0: 15a8 1bbe 6f40 dbbd 7778 bf3e 51bf 843e
000000e0: 73df c23d c279 28be 7e73 1f3e def6 913e
000000f0: 21b2 99be ae05 d23d 2727 70be 6295 57be
00000100: 57bd 5cbd 948b 8a3c a6a4 5bbe 5ae5 45be
00000110: e9ec 22be 2c20 a03e 64f4 083e b29b 213e
00000120: abd7 fa3c 2e8b 2c3e 591d 943e af01 5c3e
00000130: 1f34 adbe 2406 b83d e518 373c dd23 15be
00000140: e118 0fbe a0df 50be e938 04be 7940 33be
00000150: 6942 d7be 3262 0dbe 67f7 86be 620a 86be
00000160: 043d d23d 935f 90be b5cb bd3e 8f77 1fbd
00000170: f49d 81be a23b 1dbd e6eb 80bc 92b1 3abe
00000180: cd28 2abd 7e3e 3ebd 1de8 f938 8677 57be
00000190: 518c e4bd fe40 babc 471c 01bf a132 323e
000001a0: 3a6f 13bf 6d75 80be d646 923c b8ff 6cbe
000001b0: 78a6 943e 0ace 07be 2e59 8ebd 7e0f 973e
000001c0: 3124 7cbe f16d 4ebe d055 94bc 7b3a 813e
000001d0: 36f3 8b3e 869b 69bd 110a 0fbe 50a4 fa3e
000001e0: 28df 1abe 3609 bfbc ab6e c2bd be54 223e
000001f0: 2416 6d3e dfab 54bd b377 1b3e ab87 5bbe
00000200: 4877 5d3e 80b1 a6bc f8eb 283e cb25 9cbd
00000210: 4df9 20be 9385 91bd a8cd 963e 9044 05bf
00000220: 098b a0bd 896a 7fbe d42f e03b bad4 80be
00000230: bae4 213e 0483 b6bb 4789 1fbe ea46 503d
00000240: 515e 763e 4f5a d7bd fd51 53bd 7b9b 1abe
00000250: 56d7 0b3e 12f0 9ebc b37a 1d3e 4cff 2dbe
00000260: 66ff 083e 027e 82bd 02c9 bc3d 612b a2bd
00000270: 6c1a 46be 6ecd 213e 8e81 96be 3ef1 c73d
00000280: 80c4 32be ac0b 49be 04f2 a9bc 2872 003e
00000290: 0793 983e 18bf fa3d 1db4 d6bc e9ba d33e
000002a0: e0ac 1b3f 5a79 3d3e 0e28 05be 6425 48be
000002b0: e67f 3b3d de0b 17bc 1b6a 13bd 9ff1 043e
000002c0: a239 8b3e 187f aabe f397 103e 4131 73be
000002d0: 5800 41be 04eb adbe 10cb 043c 0aab 983e
000002e0: 17d1 a53d 5a0e 173e b81d c3bc 746b 7abe
000002f0: 23aa 8b3c 5a14 07be 0a1a d83d 1df3 d8bd
00000300: 47ad 72be 2400 c1bd 66e4 1ebe 9a53 ebbe
00000310: 2778 b63c 4563 cabe 7cf8 16be 7f9c 393e
00000320: 6286 a33e b783 573e f235 943e c88c 1f3d
00000330: 9b57 d3bd cb65 f9bc e2dc 893e d50e a6bd
00000340: f484 00be 0e20 833e bf39 1cbc 1501 90be
00000350: 78c7 96be 6bbb e83c a0ee f9bd 91b1 993e
00000360: 8d7b 20bd 55d7 fbbd 1836 eb3a baab 1bbe
00000370: 1934 383e 25ec 3d3e 011f c83e f497 4e3d
00000380: 816d 6dbe d61f ab3e e30d 343c 5a8a a6be
00000390: e5ae 5e3e f3e5 8bbe 67d1 bf3e 87d3 573e
000003a0: 3b65 9f3e 892c 49be 58b1 a8be 2f23 903e
000003b0: 6391 2f3e 7143 b4be 02a1 0e3f e2f2 67bd
000003c0: f0df 383e 5381 cebd 1cd0 b13e 7cdf 1ebd
000003d0: 3ab5 53be 80ab 1f3e f488 85be 3236 b5be
000003e0: fb60 d13d b26f a33e 4231 02be 1118 25be
000003f0: 1a3c 493d 62d7 1e3e 312b 4c3e 2975 2d3e
0.2315686 0.10314254 -0.07868251 0.12876746 -0.07860859 0.011252208 0.0637395 0.034330994
-0.001589648 0.10562794 0.13322361 0.030215932 0.26210853 0.27479815 -0.100318156 0.117115766
0.11318836 0.3225828 0.10113296 -0.4613174 0.13221604 0.21909168 -0.28592908 -0.24234127
0.05412694 0.063054875 -0.1418259 0.22932506 0.21364014 0.11593981 -0.11423395 -0.2786583
0.24835543 0.13829806 -0.06768062 -0.2520821 0.25009117 -0.15319926 -0.1630533 0.060033318
-0.37517905 -0.011439703 -0.09408751 -0.21384467 -0.28578803 -0.014198536 0.07487093 -0.39324063
-0.15763424 0.060892954 -0.081405304 -0.2780989 -0.15200837 -0.10705649 0.37396595 0.25927213
0.09515276 -0.16452697 0.155714 0.28508657 -0.30018714 0.102549896 -0.23452435 -0.21053079
-0.053891506 0.01691226 -0.21449527 -0.19325772 -0.15910687 0.31274545 0.13374478 0.1578205
0.030620417 0.16849968 0.2892864 0.21485017 -0.33828828 0.08985546 0.011175369 -0.14564462
-0.13974334 -0.20397806 -0.12912335 -0.17505063 -0.42042854 -0.1380699 -0.26360628 -0.26179796
0.10265544 -0.28197917 0.3706948 -0.03893238 -0.2531582 -0.03838695 -0.015737485 -0.182318
-0.041542817 -0.046446316 0.0001191648 -0.21041688 -0.11159576 -0.022736069 -0.5043377 0.17402126
-0.57591593 -0.2508959 0.017856043 -0.23144424 0.29033256 -0.13262191 -0.069506034 0.29504007
-0.24623181 -0.20159127 -0.018107325 0.2523993 0.27333993 -0.057033084 -0.13968684 0.48953485
-0.1512419 -0.023319822 -0.094937645 0.15852639 0.23152977 -0.05192172 0.1518238 -0.21438472
0.21627533 -0.02034831 0.16496265 -0.07624396 -0.157201 -0.071055554 0.29453778 -0.52057743
-0.07839019 -0.24942984 0.006841639 -0.25162297 0.15809909 -0.0055698175 -0.15579711 0.05084888
0.24059416 -0.10515272 -0.051591862 -0.15098374 0.13656363 -0.019401584 0.15378837 -0.1699192
0.13378677 -0.0637169 0.09218027 -0.0791843 -0.19346017 0.15801021 -0.29395717 0.0976281
-0.17457771 -0.19633359 -0.020745285 0.12543547 0.29799673 0.122434795 -0.026208932 0.4135354
0.6081066 0.18503323 -0.13003561 -0.19545513 0.04577627 -0.009219138 -0.035989862 0.12982796
0.27192408 -0.3330009 0.14120464 -0.23749258 -0.18847787 -0.33968365 0.0081050545 0.29817992
0.08096521 0.14751568 -0.023817882 -0.24455053 0.017048901 -0.13191357 0.105518416 -0.10593245
-0.23698913 -0.09423855 -0.15516815 -0.4596222 0.02227409 -0.39528862 -0.14743227 0.18126105
0.31938463 0.21046339 0.28947407 0.03895262 -0.10319444 -0.030444046 0.26926333 -0.08108298
-0.12550718 0.25610393 -0.009535252 -0.28125826 -0.29449058 0.02840968 -0.12203717 0.30018285
-0.039180327 -0.12296931 0.0017945198 -0.15202227 0.17988624 0.18547113 0.39086154 0.050437883
-0.23186304 0.33422726 0.010989639 -0.3252743 0.21746404 -0.27323875 0.3746445 0.21076785
0.3113192 -0.19645895 -0.32947803 0.28151843 0.17145304 -0.35207704 0.5571443 -0.056628115
0.18054175 -0.100832604 0.34729087 -0.03878735 -0.20674601 0.15592766 -0.2608105 -0.3539291
0.10223576 0.31921154 -0.12714103 -0.16122462 0.049129583 0.1551185 0.19938351 0.16939224

bias f4 [20]
00000000: af6c 643d 0c8d 343d 7165 e9bc 52be b43c
00000010: dc5b 5f3b 8f1b debc 9379 cfbb e0ee 93bd
00000020: 5d7d 933d f384 063d 723c 25bc f8ef a3bc
00000030: 1722 353d 4d8c f5bd acdc b23d 8ffe 3a3d
00000040: 1f85 35bb 0712 a4bc ece0 d93d 0be2 a0bd
0.05576771 0.044079825 -0.028490754 0.022063408 0.0034081852 -0.02711275 -0.0063316314 -0.07223296
0.072016455 0.032841634 -0.010085212 -0.020011887 0.044221964 -0.11989651 0.08733496 0.045652922
-0.0027697755 -0.020028127 0.106386036 -0.07855614

weight f4 [20, 20]
00000000: 364b f5bd a8e0 8e3d 5e1a 88be 99bb a6bd
00000010: bca0 1bbd a223 ccbc d8a9 7e3e 2291 d4bd
00000020: 859f ba3e 48bf 6a3e 060d b13d bea0 b9bd
00000030: 55a7 04bb a4fb f0bc 296d 54be 9ac8 953e
00000040: 4f9b a0be fcfa a83e 3c95 01be 2aa3 b5bd
00000050: 1ec5 623e 39e2 053f 1831 a93d 6e73 2b3e
00000060: 0b72 8bbe 4032 9d3d 41ab 8dbe 007b 59be
00000070: fe48 7a3e 2236 953d e100 443e b62f 74be
00000080: b82d 67be fe0c cabd 004d e1bd cf9b f53d
00000090: 3f34 a73e 476c ea3d 5546 463e 3353 a33d
000000a0: 9c60 bdbe 9bfc 23be 348b e13e b1fa 053e
000000b0: 44d3 803b 6e43 953d 81ce eabd c8aa 243e
000000c0: af8f 9d3d a35b 183e bb24 5d3d 90c7 3c3e
000000d0: 36c4 b8be d57c 113e 0277 893e 21d1 023f
000000e0: 18c3 8b3d bde7 063e 49d1 9dbe 4d6b 7a3d
000000f0: 25c5 173e 0012 6d3d fe9b 623e 39ed d3be
00000100: 1adc bebd 010e 2ebe 9ebd b9be 2d79 48bd
00000110: cb38 47bd d56a a43e 37f3 44be 47b5 a23e
00000120: 1985 5fbc 286c 603e b079 ac3d 2062 983d
00000130: c75e 913e cc20 42bc 6ea6 3dbe b096 dcbe
00000140: 5b0d 2e3e 2c1c 463d 392a 543e 7409 813e
00000150: b3c0 4c3f fee3 babd e0eb b13e 5a8b 2e3e
00000160: b70e 273e 62db 8d3d 1cf0 82be b024 a93d
00000170: 87b5 83be 0deb 0ebb fc5a d73d 735d 02bf
00000180: 10e6 39be 9555 3aba ccd3 283e 8d08 8b3e
00000190: 714a e23d c348 55be f01d 19be b06d 47be
000001a0: cb4f c3be 7782 553e 346c 963e 3ffe 173f
000001b0: 4264 81be 7722 6ebe 9811 af3e c1b7 533e
000001c0: 2d38 cfbe 144a 863e f4d7 12bd eea7 393e
000001d0: 2fc1 87bd 6f62 e0bd 414a 01be 0f55 643e
000001e0: 049b c2be 227f 613e d69d 1dbe 99ec d3bd
000001f0: 0317 1f3d d55d 083e 445b d9bd 50f5 04be
00000200: 801a 88bb 0377 0ebf 4384 143e 6c43 83be
00000210: 3893 f7bc 607d afbe 0ae6 60be cff5 96be
00000220: ca04 73be f33e c5bd 1bc6 823e 189a 6cbd
00000230: 7910 b93e 87e6 b8be 262f 823d ddaf 253e
00000240: 2146 7cbe e4b5 193e a599 383c 50e7 20be
00000250: 8e57 24be 5f48 d3bd bf7d 49bd a94b 0bbe
00000260: 0019 c2bd 0f65 803e e762 a23c 8559 443e
00000270: 3030 df3d 4876 c03d 1031 38be 76a5 34be
00000280: 654b e6bd 8c96 9bbd f765 22bd 8e56 463d
00000290: 9f2a 86bd 035f 63bd e154 6a3e 77b7 4abd
000002a0: a026 a33d e0b9 463e 18b4 9bbd b1be c63d
000002b0: 5d9e e0bc f705 403e 192e 423d 5e5d e3be
000002c0: 443b 1abe 5124 fe3c 0a7f e5bd 8eb4 a4be
000002d0: 208f 783e f77c a93e 787b 99be 6822 c3be
000002e0: 7ed5 fa3d 2aa0 413e 2a6a 553e 0616 983e
000002f0: dec8 1fbe 5216 2fbe e9c0 65be 7ec5 c8ba
00000300: de88 163e 7635 55bd b3b8 673e 3763 913e
00000310: 28b9 d43d 5136 683d 827d 173e 7289 08be
00000320: 746d f23d 6c32 8cbe c5a0 31be 4bc9 8ebd
00000330: 6696 813e a334 b0be 06ed 083c 3ae2 ea3d
00000340: 1ef5 4d3e ebe3 6a3a 026b fdbd b9f1 e3be
00000350: 4813 b33d 02a2 91be 1a67 083e eef4 093c
00000360: df6f 013d d1eb 77be 4789 d43e c50c c53d
00000370: ba39 fd3d 659b 96bd 2649 923e 2426 41bd
00000380: ed49 263e 10a3 20be 1f32 a8bd 1c35 25bd
00000390: cf93 543e 2ff8 4bbc 307a 983e c62d d6bd
000003a0: 8f91 1a3d cf61 8ebe e5ab 03be ad7f 92be
000003b0: 45ca 34be 1b9e 7ebb bf13 b33e 2426 2f3e
000003c0: 0c82 81be 2e98 78bc a763 8a3e 275a 153d
000003d0: 601e 1e3e 6df8 ac3e 3206 eb3d e606 a4bb
000003e0: 7aeb f5be 4fa5 cbbe 0be0 a4bb 79ba 76bc
000003f0: 9ba0 643e ee91 aebd fcde 313b dfe0 be3d
-0.11977236 0.069764435 -0.26582617 -0.0814125 -0.037995085 -0.024919335 0.24869478 -0.103792444
0.3644983 0.2292453 0.08645062 -0.09063862 -0.002024134 -0.029416867 -0.20744766 0.2925461
-0.3136849 0.33003986 -0.12654585 -0.08869012 0.22145507 0.52298313 0.08261317 0.16743252
-0.27235445 0.076756 -0.2766972 -0.21238327 0.24441907 0.07285716 0.1914096 -0.23846325
-0.22576034 -0.09865759 -0.11001015 0.11992609 0.32657048 0.114464335 0.19362767 0.07974853
-0.3698777 -0.1601433 0.44051516 0.13083912 0.003931435 0.07288252 -0.11465169 0.16080773
0.07693421 0.14878707 0.053990107 0.18435502 -0.36087197 0.14207776 0.26848608 0.51100355
0.068243206 0.13174339 -0.30823734 0.061137486 0.14821298 0.057878494 0.22129819 -0.41391924
-0.09319325 -0.1699753 -0.3627748 -0.048943687 -0.048638146 0.32112756 -0.19233404 0.3177893
-0.013642573 0.21916258 0.084216475 0.07440591 0.28392622 -0.01184864 -0.18520519 -0.43083715
0.16997282 0.04836671 0.20719232 0.25202525 0.79981536 -0.09125517 0.3475027 0.17045346
0.16314207 0.069266096 -0.25573814 0.08258951 -0.25724432 -0.0021807582 0.10515401 -0.5092384
-0.18154168 -0.00071080896 0.16487044 0.2715496 0.11049355 -0.20828538 -0.14952826 -0.19475436
-0.38146815 0.2085055 0.29379427 0.59372324 -0.25271803 -0.23255335 0.3419311 0.20675565
-0.40472546 0.26228392 -0.03585048 0.18130466 -0.06628644 -0.10956275 -0.12625982 0.22298072
-0.38008893 0.22021154 -0.15392241 -0.10347862 0.038840305 0.13317044 -0.10613111 -0.12984204
-0.0041535497 -0.5565035 0.14503579 -0.25637376 -0.030221567 -0.3427534 -0.21962753 -0.29484412
-0.23732296 -0.09631147 0.25541767 -0.057764143 0.3614538 -0.36113378 0.06356649 0.16180368
-0.24636127 0.15010792 0.0112671 -0.15713239 -0.16049024 -0.10316538 -0.049192186 -0.13603081
-0.094774246 0.25077102 0.019822551 0.19174774 0.10897863 0.0939756 -0.17987466 -0.17641243
-0.11244849 -0.07597074 -0.039648023 0.04842239 -0.06551098 -0.055510532 0.22883941 -0.049491372
0.079663515 0.19406843 -0.076027095 0.0970434 -0.027419263 0.18752275 0.047407243 -0.4440717
-0.1506167 0.031023176 -0.112058714 -0.32169002 0.24273348 0.33103153 -0.29977012 -0.38112187
0.12247752 0.18908754 0.2084128 0.29704303 -0.15603969 -0.17098358 -0.2243687 -0.0015317646
0.14700648 -0.052052937 0.22629051 0.28396007 0.10386878 0.056692425 0.14793971 -0.13333681
0.11837283 -0.2738222 -0.17346485 -0.06971987 0.25310057 -0.3441516 0.008357292 0.114689305
0.20113036 0.0008960354 -0.12373926 -0.44520357 0.08743912 -0.28443915 0.1332058 0.008420212
0.03160083 -0.2421105 0.41510984 0.09621576 0.12364526 -0.07353858 0.28571433 -0.047155514
0.16239138 -0.15687203 -0.08212685 -0.040333852 0.2075951 -0.012449308 0.29780722 -0.10457949
0.03773647 -0.27808997 -0.12858541 -0.28613034 -0.17655285 -0.0038851562 0.34976003 0.17104393
-0.2529453 -0.015173001 0.27029154 0.03646293 0.15441275 0.33783284 0.11475791 -0.005005705
-0.48031217 -0.39774558 -0.005031591 -0.015059107 0.22326891 -0.08523928 0.0027140966 0.093202345

bias f4 [20]
00000000: 5dc9 313c b5d6 de3c 1616 04bc 2a8f 5b3c
00000010: 3f3a 66bc 18cd bbbd ff05 9b3a e5cc ef3c
00000020: cd7f 193b a44e a03c f238 7cbd c211 0e3c
00000030: 687c c7bc fb20 92bc 73e2 c83a 4266 8ebd
00000040: 69ba 0cbc 7eec 7bbc 3b72 25bb bfb5 b6bc
0.010851231 0.02720199 -0.008061906 0.013400832 -0.014051973 -0.09169978 0.0011827348 0.029272506
0.0023422122 0.019568749 -0.061577745 0.008671226 -0.024351314 -0.017837992 0.0015326276 -0.06953098
-0.0085893655 -0.015376208 -0.0025245089 -0.02230346

weight f4 [20, 20]
00000000: f851 193e b9d8 86bd 4d5b 1bbd 1ca1 b8bd
00000010: c596 debc a6fb 9cbe 1da6 13be 3ac7 d23e
00000020: b86e 87be 6f89 8d3e f0b9 babd d307 93be
00000030: fabf 0d3e 8a1f 943a 59b6 1a3e 35d7 a53d
00000040: 7015 a5be 29ce 343e f3d5 1d3d 53c4 0fbc
00000050: d3f4 173e 4fb8 f93d e891 853e 73dd 213e
00000060: 4679 d7bb 1539 05bc d2fb 6dba 8f68 963d
00000070: 5a87 603e 2b3f 393e cd85 b7be e59b 603d
00000080: 7a0d da3e 4005 1abe 42e0 f1bd 953f 0dbf
00000090: 0646 99bd 3221 dc3e a8fe 88be e62c 453d
000000a0: da9a 033c 22cd 943d 772a fc3e 3e1e ed3d
000000b0: 049a 1f3c f829 013f dbee 8cbe dbbf 20be
000000c0: a6aa b23d f12c cdbe ad60 71bd 31e6 f93c
000000d0: 8927 a73d bf6d b9bd c95c 1d3d 30dc bcbe
000000e0: db64 70be de40 74bd eff6 94be da0c 06be
000000f0: 9f76 623d d7eb adbd cfa1 f83a edae 3fbe
00000100: 3986 0cbd 1626 2cbc 8663 e63d f77c 15be
00000110: 3694 943e 3253 79be 307d 1a3e 35c0 a33e
00000120: 2924 69be 776d 263e f514 a2be 2b11 63be
00000130: 4975 67bd b06d 473e 4e7d 593d cf82 b2bd
00000140: 749b 393e 0781 cabd 9bc9 c0bc c53c 65bd
00000150: b8d8 143e 737c 503e f7fb d73e 4483 b33e
00000160: e021 d3bd 27ca d0be 8775 2ebd d7a8 983d
00000170: 56d2 ac3e 3227 223e e04c d6be fcd1 b63d
00000180: 0fd1 4cbe e542 04be 86e6 f93e 0ab5 b53e
00000190: b872 14be cc98 313e ca48 fa3d 9f6d e33d
000001a0: 8e31 3bbe 6a7f febd 38e9 2fbe 9735 3a3e
000001b0: 6267 64be 08c4 21be 4d9e 923a 06a7 333d
000001c0: f2d5 7b3e 8d88 bbbe bbad 063e 5466 973d
000001d0: f9cb da3d cc13 053f 22b4 65be 2131 9f3c
000001e0: 0012 e33e 1329 733d dd5b 8cbe 6307 e93d
000001f0: 2ee5 763e 4d6a 973e 8036 263e f0b5 783d
00000200: 0ebd 35be e3a4 8ebd 819c 543e b6eb aa3e
00000210: 04ae 1abe a320 fa3d 4aa7 f3bd 87ee 423e
00000220: 4219 25bd f6b0 f23d d4ae 143e aaba 2e3e
00000230: c0fa d5be 2f07 8cbe d832 2f3d e940 c03e
00000240: 6bc6 86be 524e b23d 6df0 733e 5b2e 003e
00000250: fb1a 8bbc 7b39 933c 8016 f63d 276a 25bf
00000260: 83d3 cdbe d7a2 5e3d 5030 313e 5be0 c2bd
00000270: 23c6 64bc d0f0 fc3d 37d1 aa3e b20a c1be
00000280: 5cce e3bd 1896 953e 3b12 863e d28a 903e
00000290: bc8a a23b 0b43 fc3d 61ef b53e 07bd 4bbe
000002a0: e91b f2bd 6c9a 96be e527 5ebe 6a14 8a3e
000002b0: 6e76 8a3e a309 9bbe 7610 05be 5d65 893e
000002c0: fdb5 203e a71c c0bd 1955 ccbd 29f8 283d
000002d0: b84a b9be 69f3 ae3e af93 acbd d8d0 d7be
000002e0: 7e5b 243e 4652 adbe df04 6c3e e169 cf3d
000002f0: bf41 ca3c 9a72 243e 99ad 1bbe 64ae da3e
00000300: 8c80 b1bc 9e8f f3bc ef93 333d 6cdf 3dbe
00000310: 5368 873e f2cf 9bbe 21af 86be 7474 113d
00000320: 7de1 ae3d 7936 563e ee57 e13d ce33 76be
00000330: c508 d7be 3fa5 09bf f0a0 b53e d09d c13c
00000340: 0dbf ef3d 8291 b73e 19da fe3c 06fa 9dbd
00000350: 63b3 b93d 58f1 a13d aa03 8b3e a6bd 94be
00000360: 9137 493e 4411 bdbe ba55 8b3e 78b7 753e
00000370: bc5d 573e aab6 edbc c6cf bf3e c23e 163c
00000380: 7332 023d f158 f73e 7d45 bcbe 9943 dcbe
00000390: 6ac8 693e f611 4cbe 190d 753e 6eb9 6c3e
000003a0: 0b81 093f 3538 af3e 4221 c93e 8eac 9dbd
000003b0: 42a9 f0be bd61 9f3e 76e1 90be c66c bdbd
000003c0: c25b ce3e 6e8c 6f3e fae8 26be 7147 0abe
000003d0: e0cf 7a3d 997e a73d 4c9a 513e f4dc 5abe
000003e0: 51ce 813e 1a93 623e fe54 b53d e237 d13e
000003f0: b315 813e ef9b 20bd 9646 78be be2f 0b3f
0.14972675 -0.06584305 -0.037928868 -0.09015104 -0.027171502 -0.30660743 -0.14418836 0.41167623
-0.2645166 0.27643916 -0.09117496 -0.28716907 0.13842764 0.0011300903 0.15108623 0.08097688
-0.32242918 0.17656769 0.038534116 -0.008774835 0.14839487 0.12193357 0.2608788 0.15807132
-0.006575736 -0.008131285 -0.00090783567 0.07344162 0.21926633 0.18090503 -0.3584427 0.054836173
0.42588407 -0.15041065 -0.11810352 -0.55175143 -0.07484059 0.42994076 -0.26756787 0.04813852
0.008032525 0.072656885 0.49251148 0.11578034 0.00974131 0.50454664 -0.27525982 -0.15698187
0.08723955 -0.4007335 -0.058930088 0.030505272 0.081618376 -0.090541355 0.038418565 -0.3688674
-0.23475973 -0.059632175 -0.29094645 -0.1309084 0.055288907 -0.084922485 0.0018969121 -0.18719073
-0.034307692 -0.010507127 0.11249451 -0.14598452 0.29019326 -0.24348143 0.15086818 0.3198258
-0.227677 0.16252695 -0.31656614 -0.22174518 -0.056508336 0.19475436 0.053098015 -0.08716356
0.18125707 -0.09887891 -0.023533633 -0.055966157 0.14535797 0.20359974 0.4218442 0.35061085
-0.103091955 -0.4077923 -0.04259255 0.07454079 0.33754224 0.15835264 -0.41855526 0.0892677
-0.20001625 -0.12916143 0.48808688 0.35489684 -0.14496887 0.17343444 0.12220915 0.11104893
-0.18280622 -0.12426646 -0.1717881 0.18184505 -0.22305062 -0.15797436 0.0011186093 0.043860458
0.24593332 -0.36627617 0.1315221 0.073925644 0.10683436 0.5198333 -0.22431996 0.019432606
0.4434967 0.059365343 -0.27413836 0.11378362 0.24110863 0.2957329 0.16231728 0.060720384
-0.177479 -0.069650434 0.20762827 0.33382958 -0.15105444 0.12213256 -0.11897142 0.19036303
-0.04030729 0.11850159 0.14519817 0.17063394 -0.4179287 -0.2734923 0.042773098 0.37549523
-0.26323256 0.08706345 0.23822184 0.12517683 -0.016980639 0.017971745 0.1201601 -0.646151
-0.40200433 0.054354515 0.17303586 -0.09515449 -0.013963255 0.12350619 0.33362743 -0.37703472
-0.11123344 0.29216075 0.26185784 0.28230911 0.004960386 0.12317475 0.35534194 -0.19896327
-0.1182173 -0.2941469 -0.21694906 0.269687 0.2704348 -0.3028079 -0.1299456 0.26835147
0.15694423 -0.09380465 -0.099771686 0.04125229 -0.36189818 0.34170082 -0.08426606 -0.42151523
0.16050526 -0.33851832 0.23048733 0.10127617 0.024689553 0.16059342 -0.15202941 0.42711174
-0.021667741 -0.029731568 0.043842252 -0.1854226 0.2644678 -0.30432087 -0.26305488 0.03551145
0.08539102 0.20919217 0.110030994 -0.240432 -0.41998878 -0.5376777 0.35474348 0.023634821
0.11706362 0.358532 0.031109856 -0.07713704 0.090674184 0.07907361 0.27151233 -0.2905094
0.19650103 -0.36927235 0.27213842 0.23995769 0.2103185 -0.029017765 0.37463206 0.009170236
0.031786393 0.48310044 -0.36771765 -0.43020323 0.22830358 -0.19928727 0.23930778 0.23117611
0.5371253 0.3422257 0.39283186 -0.07698928 -0.47004133 0.31129256 -0.28297013 -0.092492625
0.4030438 0.23393413 -0.16299811 -0.13503815 0.0612334 0.081784435 0.20469016 -0.2137335
0.2535272 0.22126427 0.088541016 0.40862948 0.25211868 -0.03921121 -0.24245676 0.54369724

bias f4 [20]
00000000: 9124 d9bc eeee 763d 008f 47bc 34e4 133d
00000010: c3b7 0b3c b54b 4cbc 4b74 e63c 1289 ffbb
00000020: 8d50 8d3b 90b8 463d d608 e73c e937 68bd
00000030: 3197 2d3b 9050 a4bc 3b17 b3bb 4ac5 ecbc
00000040: b60a 82bb fadd 89bc 4381 f63c d33f a6bc
-0.026506694 0.060286455 -0.01218009 0.036106303 0.008527699 -0.012469222 0.028131625 -0.0077983225
0.004312581 0.048515856 0.028202455 -0.056693945 0.0026487822 -0.020057946 -0.005465416 -0.028902669
-0.003968562 -0.01682948 0.030090934 -0.020294106

weight f4 [1, 20]
00000000: e21e 37be 64f4 2abf a8e6 0bbf 528f 863e
00000010: f915 fa3e f667 a6be 3a19 553f 7df1 34bf
00000020: 1ad0 09bc cbb8 fd3e d3e6 473e 728f 00bf
00000030: 581f 673e eb1b 78bf a033 fbbe fdfe 5fbe
00000040: 7034 1a3f 2bf4 513f aeb3 873e 99d7 06bf
-0.17882875 -0.6677916 -0.5464883 0.2628122 0.4884489 -0.3250119 0.8324162 -0.7068098
-0.008411432 0.49555048 0.19521646 -0.5021888 0.2257055 -0.969176 -0.49062824 -0.21874614
0.60236263 0.82013196 0.26504272 -0.52672726

u_b f4 [2]
00000000: cdcc 8c3f 77be 7f40
1.1 3.996

l_b f4 [2]
00000000: cdcc cc3d 0000 0000
0.1 0.0
