Models/Noise_0/simulation_nostop/weak_ff_400.pt (torch, 36191 bytes, 23 tensors)

weight f4 [20, 2]
-0.19782683 0.07497428 -0.16580999 0.10293744 -0.40011728 -0.3953222 0.3317038 0.5221584
0.016703928 -0.34430248 0.32654017 -0.18439075 -0.13597155 0.02516726 0.030269688 -0.32554162
-0.057829224 0.16926925 -0.2316382 0.030105002 -0.017616926 0.13694294 0.15693176 0.082652636
0.0110192625 -0.23999988 -0.34016448 0.054215338 0.11503217 -0.48622683 0.28410137 -0.09330875
0.4824769 -0.7920855 -0.71071166 -0.3459291 0.06357228 -0.09737277 0.107463695 -0.014448039
00000000: 1e93 4abe 1e8c 993d 18ca 29be ddd0 d23d
00000010: 2cdc ccbe ac67 cabe 15d5 a93e 2cac 053f
00000020: add6 883c 6a48 b0be 4630 a73e eed0 3cbe
00000030: 203c 0bbe 922b ce3c 23f8 f73c 64ad a6be
00000040: 56de 6cbd eb54 2d3e 9032 6dbe c49e f63c
00000050: 5f51 90bc c53a 0c3e b8b2 203e c945 a93d
00000060: 238a 343c 87c2 75be 0a2a aebe e710 5e3d
00000070: fd95 eb3d b9f2 f8be bc75 913e a818 bfbd
00000080: 3607 f73e 1ec6 4abf 33f1 35bf 9e1d b1be
00000090: 2f32 823d 606b c7bd ed15 dc3d 78b7 6cbc

bias f4 [20]
0.09598374 -0.00969143 -0.09018489 -0.0017879622 0.054792725 -0.02048669 -0.03528123 0.100212865
-0.028827047 0.029988717 0.07167901 -0.08738279 -0.05309037 0.1550101 -0.123022914 -0.013982983
-0.069233365 -0.05679232 -0.11762168 -0.031547118
00000000: 2093 c43d cec8 1ebc dbb2 b8bd 0e5a eaba
00000010: 566e 603d b4d3 a7bc 0d83 10bd 673c cd3d
00000020: b326 ecbc e6aa f53c 72cc 923d c0f5 b2bd
00000030: 4a75 59bd f8ba 1e3e 70f3 fbbd e218 65bc
00000040: 39ca 8dbd 109f 68bd a3e3 f0bd 8d37 01bd

weight f4 [20, 20]
0.24675223 0.13664839 -0.19142574 0.0006990023 0.12809844 -0.013988786 0.19032112 0.11867897
0.33154237 0.35426208 0.3217258 0.05138917 0.27497983 0.15887149 0.54984504 -0.24896911
-0.01403718 -0.25101966 -0.12397993 0.080654025 0.26679462 0.13466613 -0.013067347 -0.053080972
-0.09464858 -0.43463662 -0.42152265 -0.2049031 0.2258402 -0.04148692 -0.054747194 -0.062164128
-0.16150832 0.10397369 -0.17609127 0.13880844 0.22518647 0.1459844 0.037202846 -0.0141826505
0.3266859 0.13448393 -0.24023794 -0.5146801 0.603764 -0.06748517 -0.052001826 0.2149897
0.18072766 -0.25099275 -0.19721045 0.18810898 -0.2843257 -0.0050694305 -0.009871482 -0.041071657
0.06905669 -0.061717935 0.034317005 -0.4705098 0.20793512 0.041947108 -0.21116476 0.17072013
0.16858262 0.22400245 -0.3180133 0.17295414 -0.16414985 0.093869284 0.09619337 0.16269073
0.35367033 0.0034175725 0.07344308 0.013744284 -0.2028042 0.0013782682 0.19789207 0.23644456
0.3427094 0.02369546 0.12342404 0.10388931 -0.30148637 -0.2631506 0.13414982 0.36717904
-0.044507295 -0.07577427 0.13410927 -0.036371466 -0.08387691 -0.1405701 -0.16116525 0.17727332
-0.5157411 0.15128213 0.019320017 0.2926073 -0.08395631 0.11009533 0.27972165 -0.098811686
0.1851181 0.26329228 -0.19842672 -0.09650485 -0.017994719 -0.23703946 0.0912215 -0.081730016
-0.22498117 -0.24393709 0.5947088 0.045895055 -0.18316956 0.09200033 0.18407859 0.28822255
-0.42261234 -0.050666884 -0.009137589 0.033012155 -0.14620294 -0.5095023 0.1920644 0.042867348
0.26968127 -0.27593338 0.16685547 -0.1353025 0.018059993 -0.041609623 0.23066282 0.11698503
-0.12888601 -0.27405572 0.06840733 -0.17593488 0.17777957 0.41983974 0.21401855 0.02430483
0.30294332 0.17670497 -0.41586488 0.1378752 -0.061655924 -0.058437206 0.09078525 0.14234355
0.2791733 -0.29855406 0.01827842 -0.20636675 -0.19752814 -0.09286862 -0.1956487 0.2579052
0.110190295 -0.14069337 -0.03363909 0.13621677 -0.28360695 0.19132306 -0.22473349 -0.10220858
-0.27139845 -0.12011924 0.12221499 0.111087345 0.09675126 -0.074760064 0.024392247 0.4015289
0.13348776 0.25140873 0.15747182 -0.19634065 0.11450411 0.029865732 0.3843674 0.060867384
0.4915181 0.26873112 0.17132789 0.17585826 0.4206116 0.15539543 0.09587019 -0.28565532
-0.06270763 0.27321956 -0.12794366 -0.035535175 0.28142738 0.027168643 -0.21094757 0.038690764
-0.025399817 0.16843423 -0.15268868 0.21271154 -0.25885546 -0.15674162 -0.22987412 0.013783343
0.3876346 -0.538576 -0.013481032 -0.14469923 -0.45843297 -0.2084477 -0.07283824 0.13939573
-0.41157484 0.25892493 0.16587982 -0.22490406 -0.42257276 0.14014442 0.32211024 0.17042212
-0.09938954 0.09364003 0.01300468 -0.11336255 -0.27514848 0.32843414 0.089437336 0.46890172
-0.06678112 -0.123822205 0.23883344 -0.16730936 -0.07062642 0.115672685 0.22699712 0.039713204
-0.34414935 0.14097077 0.09521095 0.04209587 -0.321051 0.30256605 -0.013597796 -0.23775052
0.20357838 0.20041323 -0.12056768 0.288502 0.16679211 -0.10967265 -0.05006441 0.0613608
00000000: 9eac 7c3e 8eed 0b3e 1c05 44be 403d 373a
00000010: 3d2c 033e 3931 65bc 8ae3 423e f60d f33d
00000020: ecbf a93e d761 b53e 3eb9 a43e 737d 523d
00000030: 28ca 8c3e 35af 223e a5c2 0c3f c2f1 7ebe
00000040: 33fc 65bc a685 80be 31e9 fdbd f02d a53d
00000050: 4e99 883e ebe5 093e 6d18 56bc 6f6b 59bd
00000060: 1dd7 c1bd b188 debe d1d1 d7be 1ed2 51be
00000070: a742 673e 30ee 29bd 983e 60bd d09f 7ebd
00000080: 7062 25be 28f0 d43d 4551 34be cd23 0e3e
00000090: 4897 663e ef7c 153e 0362 183d 595e 68bc
000000a0: 6043 a73e 28b6 093e ef00 76be 13c2 03bf
000000b0: 4790 1a3f aa35 8abd deff 54bd 4326 5c3e
000000c0: ac10 393e 1f82 80be 89f1 49be a49f 403e
000000d0: 2393 91be 771d a6bb ffbb 21bc c13a 28bd
000000e0: 986d 8d3d f2cb 7cbd fd8f 0c3d a9e6 f0be
000000f0: f2ec 543e bbd0 2b3d 933b 58be 42d1 2e3e
00000100: eca0 2c3e e660 653e a4d2 a2be e41a 313e
00000110: e616 28be 8a3e c03d 0801 c53d 6698 263e
00000120: 4714 b53e 5af9 5f3b 5369 963d b52f 613c
00000130: e7ab 4fbe 02a7 b43a 38a4 4a3e 861e 723e
00000140: 9b77 af3e fb1c c23c bec5 fc3d ebc3 d43d
00000150: 6c5c 9abe adbb 86be 925e 093e e4fe bb3e
00000160: 484d 36bd 8a2f 9bbd f153 093e 3ffa 14bd
00000170: a8c7 abbd 9cf1 0fbe 8108 25be 2387 353e
00000180: 9c07 04bf b4e9 1a3e 0345 9e3c a0d0 953e
00000190: 49f1 abbd a979 e13d ad37 8f3e c85d cabd
000001a0: 998f 3d3e 3fce 863e 6030 4bbe 56a4 c5bd
000001b0: a969 93bc 79ba 72be 56d2 ba3d 1162 a7bd
000001c0: 7761 66be a5ca 79be d63e 183f 74fc 3b3d
000001d0: cd90 3bbe ab6a bc3d 197f 3c3e e891 933e
000001e0: a560 d8be 1488 4fbd d3b5 15bc c137 073d
000001f0: 39b6 15be be6e 02bf 88ac 443e ac95 2f3d
00000200: aa13 8a3e 2447 8dbe 29dc 2a3e bd8c 0abe
00000210: 8df2 933c da6e 2abd e032 6c3e d995 ef3d
00000220: b2fa 03be 0851 8cbe 2419 8c3d 4628 34be
00000230: d90b 363e 3cf5 d63e ae27 5b3e ec1a c73c
00000240: 631b 9b3e 26f2 343e 3eec d4be 282f 0d3e
00000250: ec8a 7cbd da5b 6fbd 9eed b93d 82c2 113e
00000260: ceef 8e3e 14dc 98be a0bc 953c ce51 53be
00000270: d144 4abe e731 bebd 2258 48be 260c 843e
00000280: 73ab e13d ec11 10be 24c9 09bd 697c 0b3e
00000290: ee34 91be 31ea 433e 8920 66be bb52 d1bd
000002a0: bdf4 8abe 1301 f6bd da4b fa3d c381 e33d
000002b0: 8625 c63d ce1b 99bd 40d2 c73c 3295 cd3e
000002c0: 04b1 083e a5b8 803e 4b40 213e 860d 49be
000002d0: 2181 ea3d fba8 f43c cecb c43e 1450 793d
000002e0: 43a8 fb3e 2097 893e 9470 2f3e 3014 343e
000002f0: 675a d73e fb1f 1f3e 9757 c43d 6a41 92be
00000300: dc6c 80bd 6fe3 8b3e aa03 03be 558d 11bd
00000310: 4017 903e c690 de3c a402 58be 357a 1e3d
00000320: 4713 d0bc 067a 2c3e 6c5a 1cbe 0ed1 593e
00000330: b488 84be e080 20be 1f64 6bbe 88d3 613c
00000340: 0b78 c63e 1ee0 09bf 8cdf 5cbc 092c 14be
00000350: bab7 eabe 5073 55be 372c 95bd c1bd 0e3e
00000360: f0b9 d2be cf91 843e 66dc 293e 404d 66be
00000370: 755b d8be 0582 0f3e a2eb a43e 2383 2e3e
00000380: be8c cbbd 58c6 bf3d 9511 553c a02a e8bd
00000390: 43e0 8cbe 8528 a83e ec2a b73d e313 f03e
000003a0: 8ac4 88bd 7f96 fdbd c190 743e 2553 2bbe
000003b0: 96a4 90bd cde5 ec3d ef71 683e 50aa 223d
000003c0: 5834 b0be a45a 103e f5fd c23d b86c 2c3d
000003d0: cc60 a4be f0e9 9a3e 4ac9 5ebc df74 73be
000003e0: da76 503e 2039 4d3e 30ec f6bd 89b6 933e
000003f0: 8dcb 2a3e 0e9c e0bd 5710 4dbd 7655 7b3d

bias f4 [20]
0.03484199 0.0051857135 0.027411971 -0.01645852 -0.0028608686 -0.04362256 0.0029315834 0.039230693
-0.047777306 0.011529476 -0.010553165 -0.037513252 -0.056886695 -0.056543164 0.036163434 -0.13460234
0.043932725 -0.046012208 0.023875577 0.013927883
00000000: 79b6 0e3d ebec a93b 128f e03c 05d4 86bc
00000010: 697d 3bbb 92ad 32bd cf1f 403b 5db0 203d
00000020: 23b2 43bd 21e6 3c3c 2fe7 2cbc 7fa7 19bd
00000030: 0602 69bd ce99 67bd 1c20 143d 32d5 09be
00000040: cdf2 333d 4c77 3cbd b796 c33c c631 643c

weight f4 [20, 20]
0.2784019 -0.24030456 0.08462804 0.18661883 -0.1747462 -0.14901257 0.16309334 0.35644698
-0.61430186 0.16942361 0.15766586 0.28010458 0.15217796 0.18502285 0.3258597 -0.18462639
0.38456637 -0.13476467 0.16318084 -0.3155286 0.27304667 0.024124423 0.047961626 0.008149899
0.06386956 0.26227525 0.22896077 -0.26357362 -0.09472798 0.1757429 -0.21028739 0.3405594
-0.051491156 0.0072409287 -0.0632559 0.33076087 -0.050435994 0.39667478 0.32916838 -0.033505406
-0.24534301 -0.011177116 -0.018391436 -0.2572083 0.18998802 0.10844141 0.308381 0.013820923
0.12408874 0.2014574 -0.15656807 -0.23176286 -0.11472953 0.10917468 -0.002502902 0.37567648
0.17478484 0.037018523 -0.17477202 0.07078813 0.3657945 0.12591645 -0.22877759 -0.10570135
-0.27757156 -0.30902603 -0.4916626 -0.49290925 -0.20043333 -0.27970406 0.055552423 -0.03694018
-0.12914756 0.08327612 -0.07643134 0.23920678 -0.14237215 -0.15733998 0.1255925 0.35616365
0.32455915 -0.040327605 0.042739622 -0.045418244 0.232453 -0.29186043 -0.14384241 -0.16782036
0.12641728 0.013750307 -0.39737445 -0.32038417 -0.065623194 -0.5963901 0.4656595 0.1765683
-0.261125 -0.23701194 0.38878343 0.18677154 -0.14681575 -0.035454247 0.0070326854 -0.19560677
-0.26071456 -0.08298517 0.11239702 -0.42681387 0.082280315 -0.07070586 -0.1560947 -0.095549256
0.41119358 0.15435524 0.4172674 -0.047007013 -0.025259525 0.13795444 0.17310013 -0.53454983
0.25892422 -0.04607911 0.027977103 0.23160462 0.100897074 -0.0390835 -0.19210848 0.24216536
-0.046230692 0.07426719 0.21729527 0.13129213 -0.18371935 0.29289758 -0.21189344 0.28379008
0.16751158 -0.59569824 -0.22400548 0.09197834 -0.09298006 0.20370416 -0.077936806 0.22799653
-0.02516733 -0.085119165 -0.16891561 0.28384617 0.34123588 0.09247608 0.18502304 -0.15413211
-0.11448557 -0.07313692 0.09784348 0.12703508 -0.19772394 0.33464903 0.033876777 0.025341107
-0.10958453 -0.07929469 -0.26638374 0.44609118 0.2775729 0.17631352 -0.008384217 0.02311513
0.19866945 0.0685085 -0.025561316 0.30245763 -0.26287416 -0.3489451 0.24125004 -0.10561755
-0.05202332 -0.18647374 0.29142225 -0.27711838 0.5045594 -0.16606152 -0.21988764 -0.019642357
-0.28474608 0.28694758 -0.26943412 0.100071855 0.00729891 -0.0115234405 0.14192341 0.1256437
-0.08296726 -0.006786301 -0.1583706 0.3310127 -0.0329344 0.080633454 0.14597102 -0.24094646
0.20306449 0.02442157 0.1332513 -0.004498366 0.04580367 0.09217312 0.098037556 -0.106570296
-0.13390952 0.16183454 -0.17237003 0.13293155 0.0007785407 0.21885538 -0.35662493 0.26061186
0.089234985 -0.32976815 -0.08808048 -0.26061252 0.039165013 0.121065445 -0.11690395 -0.20356376
0.17737463 -0.25553855 0.055126924 -0.07912391 -0.3669696 0.15431745 -0.17667148 -0.08296574
0.3038253 0.31605798 -0.014624976 0.31884965 0.01350103 0.6822871 -0.11688525 0.041459233
-0.31528312 0.1076423 -0.2701056 0.030294059 0.27620482 -0.35438266 -0.014825901 0.32156646
0.022018017 0.052251704 0.191551 -0.10244566 -0.29172367 -0.42762306 0.24341442 -0.79010004
00000000: b28a 8e3e 6612 76be 7751 ad3d 0219 3f3e
00000010: abf0 32be c096 18be f101 273e 3880 b63e
00000020: e342 1dbf 627d 2d3e 2973 213e de69 8f3e
00000030: 8ad4 1b3e a176 3d3e 15d7 a63e b30e 3dbe
00000040: e2e5 c43e c0ff 09be e118 273e f78c a1be
00000050: c6cc 8b3e 95a0 c53c 6973 443d 2787 053c
00000060: 0bce 823d f148 863e b174 6a3e 1ff3 86be
00000070: be00 c2bd f2f5 333e 9455 57be cd5d ae3e
00000080: 64e8 52bd 5045 ed3b 4f8c 81bd 7d59 a93e
00000090: f995 4ebd f518 cb3e c288 a83e f73c 09bd
000000a0: 333b 7bbe 3920 37bc a3a9 96bc ceb0 83be
000000b0: 388c 423e 8816 de3d 1de4 9d3e 2771 623c
000000c0: 3d22 fe3d d94a 4e3e 6153 20be 3e53 6dbe
000000d0: 51f7 eabd fa96 df3d ba07 24bb ab58 c03e
000000e0: ccfa 323e bca0 173d 70f7 32be 5ef9 903d
000000f0: 6b49 bb3e 3ef0 003e ac44 6abe f379 d8bd
00000100: dc1d 8ebe a938 9ebe 33bb fbbe 9a5e fcbe
00000110: 653e 4dbe 5f35 8fbe f08a 633d 964e 17bd
00000120: 423f 04be ac8c aa3d 0988 9cbd 9ff2 743e
00000130: 01ca 11be bb1d 21be 529b 003e 155b b63e
00000140: 9e2c a63e 8f2e 25bd be0f 2f3d 7b08 3abd
00000150: 2908 6e3e bb6e 95be 6d4b 13be 1ad9 2bbe
00000160: 8873 013e f848 613c aa74 cbbe 6509 a4be
00000170: 7465 86bd 06ad 18bf ec6a ee3e 52ce 343e
00000180: 2db2 85be 42b3 72be 9f0e c73e 0a41 3f3e
00000190: de56 16be 7938 11bd 7172 e63b 244d 48be
000001a0: 617c 85be 21f4 a9bd 6930 e63d 5987 dabe
000001b0: 9582 a83d 3cce 90bd 4ad7 1fbe 54af c3bd
000001c0: f787 d23e 4d0f 1e3e 13a4 d53e 6d8a 40bd
000001d0: 10ed cebc ee43 0d3e 2941 313e 42d8 08bf
000001e0: b791 843e 73bd 3cbd 3d30 e53c c329 6d3e
000001f0: 20a3 ce3d 0516 20bd 16b8 44be 32fa 773e
00000200: 655c 3dbd 6619 983d a782 5e3e 7271 063e
00000210: ed20 3cbe acf6 953e 98fa 58be ef4c 913e
00000220: 2888 2b3e ae7f 18bf b161 65be 245f bc3d
00000230: 546c bebd d397 503e 559d 9fbd ec77 693e
00000240: b72b cebc f552 aebd 37f8 2cbe 4954 913e
00000250: 78b6 ae3e 1964 bd3d ae76 3d3e cfd4 1dbe
00000260: 6977 eabd cfc8 95bd 2a62 c83d 7c15 023e
00000270: 2578 4abe 1e57 ab3e 60c2 0a3d 2798 cf3c
00000280: db6d e0bd 4165 a2bd 7363 88be 1066 e43e
00000290: 091e 8e3e 888b 343e f45d 09bc f15b bd3c
000002a0: 0170 4b3e 2f4e 8c3d f765 d1bc badb 9a3e
000002b0: 7197 86be efa8 b2be 400a 773e 044e d8bd
000002c0: 6816 55bd f9f2 3ebe 4c35 953e 76e2 8dbe
000002d0: ce2a 013f 080c 2abe 3a2a 61be 02e9 a0bc
000002e0: 3dca 91be cbea 923e 45f3 89be 79f2 cc3d
000002f0: b22b ef3b d0cc 3cbc 5f54 113e bea8 003e
00000300: bdea a9bd 9e5f debb e72b 22be 7f7a a93e
00000310: 39e6 06bd 2723 a53d 6d79 153e abba 76be
00000320: 23f0 4f3e bf0f c83c 0773 083e 0767 93bb
00000330: a19c 3b3d 43c5 bc3d eac7 c83d 8741 dabd
00000340: 941f 09be f4b7 253e c581 30be 351f 083e
00000350: fb16 4c3a a01b 603e 8b97 b6be eb6e 853e
00000360: d5c0 b63d 5fd7 a8be 8a63 b4bd 016f 85be
00000370: 7e6b 203d 29f1 f73d 576b efbd 0573 50be
00000380: b2a1 353e f3d5 82be c5cc 613d b70b a2bd
00000390: 70e3 bbbe 6505 1e3e 5ee9 34be f1e9 a9bd
000003a0: fd8e 9b3e 5ad2 a13e 989d 6fbc 4340 a33e
000003b0: 6d33 5d3c 5eaa 2e3f 8961 efbd 28d1 293d
000003c0: ca6c a1be 9173 dc3d 484b 8abe 3f2b f83c
000003d0: b86a 8d3e a571 b5be 56e8 72bc 5ca4 a43e
000003e0: 215f b43c e205 563d f225 443e 08cf d1bd
000003f0: ce5c 95be 69f1 dabe a141 793e ff43 4abf

bias f4 [20]
0.014876175 0.004737711 -0.023432555 0.04099241 0.0010546391 0.012067599 0.027842956 0.024722481
-0.019107312 -0.04627815 0.019536303 -0.023165964 0.06266261 -0.025134228 -0.06759642 0.00054599385
-0.004739878 0.026384657 -0.039785244 -0.081340455
00000000: 33bb 733c cd3e 9b3b a1f5 bfbc a8e7 273d
00000010: d13b 8a3a 2eb7 453c e916 e43c cd86 ca3c
00000020: f086 9cbc 288e 3dbd 990a a03c 8cc6 bdbc
00000030: 4155 803d 4ce6 cdbc fe6f 8abd 0721 0f3a
00000040: fa50 9bbb a324 d83c daf5 22bd d395 a6bd

weight f4 [20, 20]
0.0018679431 0.17216179 0.31106445 -0.1731648 0.55387855 -0.02549059 0.32967985 -0.2535227
0.24285889 0.07405125 0.18523793 0.038528733 0.10963845 0.2600815 -0.15656774 0.17741379
0.19569746 0.4075268 0.29757765 -0.057162203 -0.05451366 0.018315827 -0.16123113 -0.047543272
0.15512222 0.32250458 0.29408 -0.029682714 -0.11584005 0.019916244 -0.29341516 -0.210986
-0.25352868 0.45472205 -0.31853816 -0.27123317 0.34454536 0.3409235 -0.24110045 0.22008121
-0.41643992 -0.3173706 0.1930117 -0.12111384 -0.42490044 0.21189046 -0.5113537 0.20018953
0.20873494 0.5306305 -0.16649155 -0.10509618 -0.080892704 -0.0006390586 0.065181755 -0.22849873
-0.26615828 0.43949553 0.028580664 0.3457284 -0.13326566 -0.083330095 -0.13041596 0.13723353
-0.058646232 -0.15971449 0.15840594 0.17303744 0.06567445 0.14673181 0.25814617 -0.5413923
0.09516349 0.27028275 0.0007937612 0.040537547 -0.187953 0.6105683 0.043642946 -0.4702932
0.29238427 -0.28529927 -0.2579089 -0.0727189 0.11475306 0.11285219 -0.120598875 0.014281921
0.03679052 -0.31139272 0.11920688 0.027719824 0.105647445 0.21308151 -0.20347334 -0.09913193
-0.1574967 -0.25230512 -0.49262154 0.02474072 0.08704299 -0.03602485 0.02441191 0.21146609
0.27366397 0.028408155 -0.22231041 -0.017883705 0.23639381 0.09617762 -0.21157497 -0.3434752
-0.1010638 0.21329346 -0.28052285 -0.03912367 -0.27572453 -0.07962519 0.3479955 0.10556768
-0.16314045 0.342741 0.05942327 -0.18697503 -0.42156 0.301519 0.020234492 -0.08054907
-0.20721632 0.2179832 -0.20032981 -0.41888082 0.25894082 -0.2967964 0.21971098 0.05115939
0.61225665 0.13339406 -0.05349755 -0.21703626 -0.32332247 -0.10792494 -0.40671262 0.19765732
-0.63682777 0.40489998 0.28375596 0.21877249 -0.057000425 -0.14509773 0.40255436 -0.25653452
0.3535631 -0.35366315 -0.22194256 0.110963956 -0.03959406 -0.21967627 -0.41211477 -0.14184137
0.2722585 -0.08533349 -0.22599599 -0.30795342 0.16735104 0.11241813 -0.19849873 -0.14529754
0.041471083 -0.14227483 0.06826064 -0.13604581 0.28838608 0.1711314 0.18028893 -0.07182085
-0.16517192 -0.1818727 0.15606633 -0.044942275 0.30188784 0.112204656 0.048136093 -0.20186186
-0.091765866 -0.06753359 -0.20916702 0.16175807 -0.0670822 0.3238067 -0.22414638 -0.09026227
-0.38483945 0.16377468 0.40765366 -0.28476098 -0.15365745 -0.47245273 -0.10200272 0.052580453
0.042012345 0.24215285 0.13800094 0.2716868 -0.086725175 0.15362279 -0.014942649 0.00018937547
0.36801404 0.03599848 -0.27419764 -0.13028085 0.27076548 0.28846306 0.14922495 -0.32215574
-0.22252578 -0.48811582 -0.070219666 -0.046648405 -0.00012699777 0.11755985 -0.00016292353 -0.19551736
-0.17920001 0.14326987 0.04257996 -0.1427884 -0.23802224 -0.2488432 -0.15790978 -0.122647256
-0.09198127 -0.20331335 -0.03909913 0.08590834 0.1689901 0.29880884 -0.30801213 0.23975451
0.20015804 -0.010164544 0.101918295 0.025959946 -0.1919868 -0.43570164 0.15735891 -0.31930247
0.19901603 -0.04183756 -0.031759214 -0.13774192 -0.089703456 -0.08086551 0.16028282 0.40727612
00000000: c5d5 f43a 2e4b 303e d743 9f3e 1d52 31be
00000010: fcca 0d3f a4d1 d0bc cccb a83e bacd 81be
00000020: 00b0 783e 2fa8 973d 03af 3d3e 4ed0 1d3d
00000030: 208a e03d 6729 853e 4b53 20be f6ab 353e
00000040: ea64 483e 5aa7 d03e 195c 983e ea22 6abd
00000050: b749 5fbd 130b 963c c619 25be bcbc 42bd
00000060: 5cd8 1e3e 521f a53e a791 963e 2a29 f3bc
00000070: 8c3d edbd 6427 a33c 833a 96be b70c 58be
00000080: 83ce 81be 54d1 e83e 6f17 a3be 13df 8abe
00000090: 4068 b03e 868d ae3e 09e3 76be f85c 613e
000000a0: 9d37 d5be 667e a2be dca4 453e 880a f8bd
000000b0: 8d8c d9be d0f9 583e 13e8 02bf 7cfe 4c3e
000000c0: 9dbe 553e 67d7 073f c37c 2abe ab3c d7bd
000000d0: 13ab a5bd 7f86 27ba 037e 853d 92fb 69be
000000e0: e645 88be 8f05 e13e ff21 ea3c 5003 b13e
000000f0: cb76 08be f8a8 aabd c38b 05be f286 0c3e
00000100: 0837 70bd 328c 23be 2b35 223e ba30 313e
00000110: 5380 863d dd40 163e bc2b 843e b098 0abf
00000120: 13e5 c23d 8062 8a3e 6a14 503a b30a 263d
00000130: c076 40be 344e 1c3f f2c2 323d 45ca f0be
00000140: 64b3 953e bf12 92be a30c 84be a6ed 94bd
00000150: a703 eb3d 0d1f e73d 8bfc f6bd b8fe 693c
00000160: a8b1 163d de6e 9fbe bd22 f43d af14 e33c
00000170: b05d d83d 0a32 5a3e 515b 50be ae05 cbbd
00000180: d146 21be 232e 81be e438 fcbe 0dad ca3c
00000190: 9843 b23d cb8e 13bd 7cfb c73c 918a 583e
000001a0: af1d 8c3e 38b8 e83c 57a5 63be d980 92bc
000001b0: 3811 723e c6f8 c43d 1ca7 58be fbdb afbe
000001c0: 8afa cebd 9a69 5a3e b1a0 8fbe 2440 20bd
000001d0: c42b 8dbe 8812 a3bd 772c b23e de33 d83d
000001e0: 4a0e 27be c07b af3e d165 733d 6276 3fbe
000001f0: b6d6 d7be b360 9a3e cec2 a53c e9f6 a4bd
00000200: 8430 54be fd36 5f3e 4223 4dbe 8c77 d6be
00000210: e493 843e b3f5 97be eafb 603e 828c 513d
00000220: dabc 1c3f 7498 083e 3f20 5bbd c13e 5ebe
00000230: 868a a5be c007 ddbd a33c d0be ae66 4a3e
00000240: 2507 23bf 0d4f cf3e 7648 913e e505 603e
00000250: 4779 69bd 8094 14be 9b1b ce3e 7e58 83be
00000260: 3906 b53e 5613 b5be e944 63be 1241 e33d
00000270: 622d 22bd d1f2 60be b500 d3be dd3e 11be
00000280: 7765 8b3e 53c3 aebd 7e6b 67be 12ac 9dbe
00000290: 125e 2b3e 7a3b e63d 4043 4bbe e1c8 14be
000002a0: 95dd 293d 7eb0 11be 3ccc 8b3d 984f 0bbe
000002b0: 57a7 933e 123d 2f3e a99d 383e cf16 93bd
000002c0: d422 29be d63c 3abe dacf 1f3e 6415 38bd
000002d0: 0b91 9a3e 8ecb e53d 5a2a 453d e0b4 4ebe
000002e0: beef bbbd 0d4f 8abd e12f 56be e8a3 253e
000002f0: 6462 89bd fec9 a53e a186 65be 6ddb b8bd
00000300: ad09 c5be 8db4 273e fbb7 d03e 31cc 91be
00000310: 6158 1dbe 53e5 f1be cde6 d0bd 9a5e 573d
00000320: 2315 2c3d ebf6 773e 1e50 0d3e 881a 8b3e
00000330: f89c b1bd 4b4f 1d3e 03d2 74bc 1793 4639
00000340: 566c bc3e 2473 133d a263 8cbe 5868 05be
00000350: c6a1 8a3e 6eb1 933e 6dce 183e 99f1 a4be
00000360: ccdd 63be 51ea f9be 54cf 8fbd 6612 3fbd
00000370: b42a 05b9 38c3 f03d 74d6 2ab9 b435 48be
00000380: 3580 37be 56b5 123e 5368 2e3d 1f37 12be
00000390: 1abc 73be c0d0 7ebe 1ab3 21be 7c2e fbbd
000003a0: ad60 bcbd 6031 50be 6926 20bd b6f0 af3d
000003b0: be0b 2d3e 79fd 983e c4b3 9dbe 3582 753e
000003c0: 3bf6 4c3e 3089 26bc 8aba d03d f4a9 d43c
000003d0: 3098 44be 4914 dfbe b222 213e 9d7b a3be
000003e0: dcca 4b3e dc5d 2bbd f315 02bd 380c 0dbe
000003f0: 72b6 b7bd d19c a5bd 2e21 243e 7f86 d03e

bias f4 [20]
-0.005221898 0.0065782964 -0.018314041 0.01873859 0.035769824 0.012767263 -0.0029224672 0.017399797
0.013833156 -0.034927737 0.00844317 0.043754853 0.014085165 0.008992452 0.031952668 0.047067944
0.016575303 -0.034552272 -0.042177398 -0.016451253
00000000: 751c abbb c08e d73b 5407 96bc ac81 993c
00000010: 6183 123d c82d 513c dd86 3fbb 058a 8e3c
00000020: 76a4 623c 6310 0fbd 3955 0a3c 4a38 333d
00000030: 77c5 663c 1455 133c cde0 023d 51ca 403d
00000040: eec8 873c af86 0dbd 35c2 2cbd c7c4 86bc

weight f4 [20, 20]
0.21903192 0.11290759 0.05039256 -0.08326423 0.19655007 0.03710258 -0.032278355 -0.10522385
0.3967947 0.06900527 -0.0763513 0.17729868 0.19013275 -0.27930257 0.1625085 -0.20653613
0.3142833 -0.13962205 -0.18177626 -0.11927581 0.010370651 -0.19683288 0.19209097 -0.11243327
-0.12482647 -0.07353965 -0.012153514 -0.26059103 0.33841336 -0.1770997 -0.005237466 -0.18942636
-0.16865154 0.03978283 -0.32988298 -0.37448615 -0.10370404 0.37370482 0.12933615 -0.01636949
0.30650443 0.142474 -0.26428273 0.098555125 -0.42941368 -0.18328607 -0.047545876 0.07284413
-0.06700667 0.04254209 -0.006436114 -0.09260966 0.07421163 0.44026572 -0.0126402285 0.031225797
0.06098347 -0.29690838 -0.29852214 -0.024020012 -0.06509575 0.3161727 0.1668336 0.04928252
0.12913297 -0.24017587 -0.023870325 0.08531117 -0.08636749 -0.19688699 -0.16339338 -0.063410096
0.35557467 0.19395865 0.14382912 0.24673894 -0.09430116 0.27051908 0.0074579436 0.26309362
-0.29938462 -0.0064896047 0.41523752 0.12780423 0.03372328 -0.09853045 -0.008317516 -0.193545
0.120560996 -0.13935208 -0.20992897 0.03337669 -0.24105781 -0.15105279 -0.34446937 0.14678109
-0.12351155 0.12907387 -0.041920036 -0.122462556 -0.39363742 -0.020291043 0.11318394 -0.09387316
0.27357882 0.09649885 -0.41267252 -0.03831606 0.09609518 0.02059773 -0.16932961 -0.44858113
-0.18581915 0.22635391 -0.0177521 0.5866576 -0.11043874 -0.052113146 -0.23214495 -0.34848312
0.26336718 -0.015232441 0.01840039 -0.011639648 -0.38621768 0.14817806 -0.115163624 0.1529115
0.060912628 0.16473593 -0.2794609 -0.021324798 0.019490324 0.11957758 0.17314452 -0.025922164
0.11152498 0.18829888 -0.017480716 0.13901594 -0.22396763 0.029617446 0.20830879 -0.021545632
0.07555195 -0.19880301 0.11225024 -0.044335686 -0.054772947 0.13278842 -0.08369927 -0.07465888
0.2432412 -0.12821056 -0.16221197 -0.17055286 -0.26220676 0.0149351135 0.058784384 0.13998017
-0.25635874 -0.20739225 -0.022683907 0.19563162 -0.071447045 -0.30575863 -0.035492163 -0.3461595
-0.12059486 0.23286422 0.17223473 -0.21296504 -0.1142033 0.25770357 0.031945214 0.020031529
-0.14215194 -0.22492394 -0.0066795982 0.06920785 -0.049265664 0.19088773 0.26837236 -0.16856506
-0.15865442 -0.12404741 -0.12853207 0.2682013 -0.086173825 -0.11793136 0.007896459 -0.016501512
-0.3780215 0.34362695 -0.15004893 -0.13039467 -0.07514917 0.2775863 0.024462875 0.12246812
-0.09265067 -0.22177531 0.35235572 0.31874925 -0.10430856 0.3324499 -0.118434645 -0.21391346
0.17455797 -0.3801912 0.2761981 0.019686136 -0.35599488 -0.09640541 -0.37284923 0.12248345
0.20033224 -0.06405415 0.28238702 -0.2688057 -0.4226707 -0.031984344 -0.023269197 0.18496628
-0.35479674 0.057972595 -0.15578318 0.49085474 -0.1618856 -0.19757946 -0.012012916 0.120595604
0.2485436 0.09961194 0.04700636 -0.06327387 0.09563729 -0.13578041 -0.08825625 -0.047976192
-0.23939689 -0.06134986 -0.03006467 -0.10849047 -0.24192607 0.30844876 -0.14906892 -0.18641144
0.03293683 -0.044288304 0.07169648 -0.038456194 -0.23744313 0.25813115 -0.37263545 0.08097812
00000000: e749 603e 183c e73d 6e68 4e3d 7086 aabd
00000010: 6c44 493e e0f8 173d 4f36 04bd 9a7f d7bd
00000020: ad28 cb3e a352 8d3d 125e 9cbd c98d 353e
00000030: 29b2 423e bf00 8fbe a168 263e 357e 53be
00000040: bee9 a03e 15f9 0ebe 8e23 3abe e046 f4bd
00000050: aae9 293c 8f8e 49be 7fb3 443e 6a43 e6bd
00000060: 05a5 ffbd f59b 96bd 881f 47bc 306c 85be
00000070: 8444 ad3e a059 35be 0d9f abbb fcf8 41be
00000080: fdb2 2cbe 52f3 223d 6ce6 a8be a6bc bfbe
00000090: c962 d4bd 3d56 bf3e b270 043e 4f19 86bc
000000a0: 26ee 9c3e b4e4 113e 1150 87be 45d7 c93d
000000b0: 1cdc dbbe 58af 3bbe 77bf 42bd 4e2f 953d
000000c0: cb3a 89bd 9d40 2e3d 0ae6 d2bb 22aa bdbd
000000d0: 44fc 973d 826a e13e f618 4fbc 3ecd ff3c
000000e0: cec9 793d 6004 98be e5d7 98be 9ec5 c4bc
000000f0: ec50 85bd 63e1 a13e 6dd6 2a3e 78dc 493d
00000100: 6f3b 043e aaf0 75be b38b c3bc 9fb7 ae3d
00000110: 70e1 b0bd be9c 49be 9850 27be 27dd 81bd
00000120: e20d b63e 199d 463e f147 133e 22a9 7c3e
00000130: f720 c1bd 7a81 8a3e c461 f43b 35b4 863e
00000140: f148 99be c0a6 d4bb 039a d43e 1ddf 023e
00000150: 6c21 0a3d 55ca c9bd 3146 08bc a930 46be
00000160: afe8 f63d 50b2 0ebe 9ff7 56be ffb5 083d
00000170: dcd7 76be 95ad 1abe 4a5e b0be c84d 163e
00000180: a0f3 fcbd f12b 043e 58b4 2bbd a6cd fabd
00000190: d88a c9be 6739 a6bc fbcc e73d 9240 c0bd
000001a0: 8612 8c3e 30a1 c53d d049 d3be 4df1 1cbd
000001b0: 8dcd c43d 92bc a83c be64 2dbe 6dac e5be
000001c0: 6047 3ebe 52c9 673e da6c 91bc 312f 163f
000001d0: b52d e2bd 9874 55bd 68b7 6dbe 616c b2be
000001e0: 10d8 863e 7d91 79bc 6abc 963c 39b4 3ebc
000001f0: 53be c5be fdbb 173e e8da ebbd d594 1c3e
00000200: 857f 793d 89b0 283e 8015 8fbe 58b1 aebc
00000210: 2caa 9f3c 17e5 f43d cc4c 313e b85a d4bc
00000220: 3567 e43d 6cd1 403e b833 8fbc 325a 0e3e
00000230: c557 65be 49a0 f23c e64e 553e 7780 b0bc
00000240: fbba 9a3d 0493 4bbe 74e3 e53d 5699 35bd
00000250: 9959 60bd b0f9 073e 866a abbd c1e6 98bd
00000260: 3914 793e a149 03be e51a 26be 69a5 2ebe
00000270: f73f 86be 68b2 743c e5c7 703d f656 0f3e
00000280: 7441 83be a25e 54be 9ad3 b9bc a853 483e
00000290: d452 92bd 658c 9cbe 3b60 11bd d13b b1be
000002a0: 70fa f6bd f573 6e3e 4d5e 303e 8213 5abe
000002b0: 6be3 e9bd b9f1 833e fcd8 023d 2919 a43c
000002c0: 4790 11be 7652 66be 88e0 dabb d8bc 8d3d
000002d0: cbca 49bd 1378 433e 1a68 893e 529c 2cbe
000002e0: 4e76 22be 920c febd e99d 03be ae51 893e
000002f0: e77b b0bd ff85 f1bd 2660 013c 2e2e 87bc
00000300: 098c c1be dfef af3e 6da6 19be 2e86 05be
00000310: cfe7 99bd cb1f 8e3e 5e66 c83c 91d0 fa3d
00000320: a2bf bdbd 1119 63be f867 b43e 1a33 a33e
00000330: ba9f d5bd e036 aa3e dd8d f2bd 210c 5bbe
00000340: 53bf 323e 6ca8 c2be d669 8d3e d244 a13c
00000350: f644 b6be 3370 c5bd 18e6 bebe 9ad8 fa3d
00000360: e523 4d3e d22e 83bd 0895 903e e7a0 89be
00000370: 4b68 d8be 0402 03bd 0b9f bebc cd67 3d3e
00000380: eba7 b5be ac74 6d3d a085 1fbe 5051 fb3e
00000390: 57c5 25be 4552 4abe d2d1 44bc d4fa f63d
000003a0: 3782 7e3e 5801 cc3d be89 403d bb95 81bd
000003b0: 7cdd c33d 050a 0bbe b1bf b4bd af82 44bd
000003c0: 7524 75be fe49 7bbd 2f4a f6bc 4030 debd
000003d0: 78bb 77be ffec 9d3e 86a5 18be a4e2 3ebe
000003e0: c5e8 063d a767 35bd 9bd5 923d 3e84 1dbd
000003f0: 4b24 73be c429 843e 13ca bebe dbd7 a53d

bias f4 [20]
0.02303125 -0.018370312 0.0010146966 0.027309746 -0.020070277 0.014524207 -0.022349112 -0.039415468
0.035767946 -0.034267526 0.0420984 0.027577018 -0.01134859 -0.0014888516 -0.043714408 -0.006809923
0.021724645 0.03973943 0.033031017 -0.04164642
00000000: 08ac bc3c 567d 96bc 91ff 843a b0b8 df3c
00000010: 6c6a a4bc f1f6 6d3c 7c15 b7bc 1d72 21bd
00000020: 6981 123d 1b5c 0cbd 5f6f 2c3d 33e9 e13c
00000030: 70ef 39bc 9225 c3ba e10d 33bd c625 dfbb
00000040: e2f7 b13c d0c5 223d 884b 073d 7095 2abd

weight f4 [20, 20]
0.27421376 0.046810534 -0.046496484 0.20922548 -0.10707823 -0.0268864 0.10128242 0.047180273
-0.052691087 0.07474364 0.08159426 0.07255392 0.22977623 0.33911166 -0.07569829 0.094302915
0.08074043 0.2508651 0.05663151 -0.4911749 0.16025205 0.15827611 -0.2462437 -0.13789107
0.0011642255 0.07650906 -0.10652656 0.22499129 0.14902543 0.08041644 -0.17619967 -0.20685454
0.21365298 0.13293287 -0.08633381 -0.24359666 0.24720368 -0.1891914 -0.21731535 0.10508775
-0.40868658 0.015546681 -0.10217266 -0.23256989 -0.3027965 -0.035303935 0.085534275 -0.38823134
-0.14081837 0.080962606 -0.10100942 -0.29454663 -0.16489762 -0.1692347 0.37568295 0.2693322
0.113355756 -0.15168032 0.1567392 0.2632347 -0.30982533 0.090880305 -0.21590425 -0.20974308
-0.082634114 0.00228163 -0.18995228 -0.20040326 -0.15614863 0.29947114 0.112481415 0.15814452
0.027343139 0.13670978 0.30306095 0.22883578 -0.3538074 0.057899334 0.015295863 -0.13877767
-0.14518262 -0.22893193 -0.10214703 -0.15987837 -0.4557572 -0.12369563 -0.2489563 -0.28180623
0.099236555 -0.3050044 0.35202178 -0.021004526 -0.25428814 -0.090134926 -0.031100528 -0.15614729
-0.040846273 -0.03772323 -0.0033769086 -0.17882557 -0.10691293 -0.017636823 -0.51223105 0.16641875
-0.5643075 -0.26780695 0.005370088 -0.22148778 0.29616848 -0.12335338 -0.07070547 0.28246382
-0.2585336 -0.1823726 -0.012176965 0.23576918 0.29063493 -0.022797719 -0.13983163 0.42375973
-0.14170806 -0.031171788 -0.09969326 0.1691334 0.23370782 -0.059797067 0.14472724 -0.2110861
0.20738895 -0.02105222 0.16100475 -0.0639043 -0.16730459 -0.066878125 0.28642792 -0.5329358
-0.068240754 -0.22741434 -0.004279923 -0.274827 0.16374113 -0.039950017 -0.15870753 0.08786771
0.23056205 -0.0660883 -0.07772079 -0.15956719 0.119713336 -0.030096905 0.13646862 -0.12869434
0.11558922 -0.09746808 0.05477146 -0.07108781 -0.15135331 0.21597172 -0.30942664 0.15610574
-0.16762215 -0.27975282 0.05230951 0.19914617 0.21886893 0.17681569 0.023960918 0.36833212
0.58268386 0.10543976 -0.16671816 -0.13836242 0.0673528 -0.07049676 -0.04740656 0.189302
0.22079909 -0.39361498 0.13720539 -0.11299984 -0.21144313 -0.32512507 -0.0016282509 0.2894791
0.07219341 0.10911043 -0.02451441 -0.23484807 0.02539413 -0.11332046 0.094341695 -0.1003624
-0.24684529 -0.13303334 -0.16975491 -0.46455395 0.037307788 -0.36160824 -0.16168192 0.16883662
0.32230467 0.23544554 0.26854768 0.009931599 -0.07578608 -0.0544282 0.26694092 -0.06599559
-0.113482475 0.27310774 0.0041458076 -0.314555 -0.29780403 0.06940361 -0.09080378 0.27482867
-0.045988884 -0.13759767 0.01213627 -0.22359644 0.15078296 0.21386999 0.3447137 0.05312039
-0.23353018 0.3318291 0.0022130788 -0.30185592 0.21717283 -0.2280682 0.3516332 0.21018435
0.2622503 -0.246756 -0.34649894 0.26502037 0.22949979 -0.2848132 0.53092134 -0.046571806
0.16875206 -0.06763409 0.33717328 -0.04992144 -0.19706774 0.098766156 -0.2453573 -0.33302075
0.10503802 0.34467614 -0.1324813 -0.17821719 0.049456608 0.1770392 0.21795781 0.15525834
00000000: bf65 8c3e 67bc 3f3d 1973 3ebd 343f 563e
00000010: d54b dbbd de40 dcbc 286d cf3d 1a40 413d
00000020: 9cd2 57bd 3213 993d e41a a73d 2697 943d
00000030: 764a 6b3e 0ba0 ad3e b407 9bbd e321 c13d
00000040: 3d5b a53d 6471 803e 71f6 673d 477b fbbe
00000050: 1d19 243e 2213 223e 4f27 7cbe 5133 0dbe
00000060: ed98 983a c8b0 9c3d 992a dabd 1e64 663e
00000070: 1f9a 183e 60b1 a43d b06d 34be add1 53be
00000080: d9c7 5a3e 8e1f 083e c8cf b0bd 6771 79be
00000090: f622 7d3e 64bb 41be ea87 5ebe 3f38 d73d
000000a0: 5e3f d1be 82b7 7e3c e63f d1bd cd26 6ebe
000000b0: 2508 9bbe dc9a 10bd 982c af3d 42c6 c6be
000000c0: b132 10be b9cf a53d 07de cebd d1ce 96be
000000d0: ecda 28be dc4b 2dbe 8459 c03e e9e5 893e
000000e0: 1027 e83d 1652 1bbe 3e80 203e b3c6 863e
000000f0: 6da1 9ebe 741f ba3d 0116 5dbe e4c6 56be
00000100: 133c a9bd 6687 153b da82 42be 8336 4dbe
00000110: 6de5 1fbe 4854 993e a85c e63d a3f0 213e
00000120: b8fe df3c a6fd 0b3e ce2a 9b3e ed53 6a3e
00000130: 3e26 b5be da27 6d3d 809b 7a3c bc1b 0ebe
00000140: c1aa 14be 226d 6abe 7632 d1bd 28b7 23be
00000150: 0259 e9be 2254 fdbd 66ee 7ebe e848 90be
00000160: 893c cb3d 8929 9cbe 333c b43e af11 acbc
00000170: 0e32 82be a998 b8bd 89c6 febc 13e5 1fbe
00000180: 6c4e 27bd ac83 1abd 204f 5dbb 0d1e 37be
00000190: 2bf5 dabd 197b 90bc 9321 03bf ad69 2a3e
000001a0: 7576 10bf fe1d 89be 90f7 af3b b1cd 62be
000001b0: 65a3 973e b2a0 fcbd 08ce 90bd 199f 903e
000001c0: 845e 84be e2bf 3abe e581 47bc 7a6d 713e
000001d0: 1ace 943e 48c2 babc 0630 0fbe 09f7 d83e
000001e0: eb1b 11be fa5b ffbc fb2b ccbd 4e31 2d3e
000001f0: 1a51 6f3e c5ed 74bd 6133 143e f426 58be
00000200: c55d 543e b575 acbc 6ede 243e 42e0 82bd
00000210: e551 2bbe 66f7 88bd aea6 923e 7b6e 08bf
00000220: cfc1 8bbd 4edf 68be 993e 8cbb 20b6 8cbe
00000230: c1ab 273e a1a2 23bd 3a84 22be fcf3 b33d
00000240: 7518 6c3e 4d59 87bd 142c 9fbd 9565 23be
00000250: 442c f53d c98d f6bc 6ebe 0b3e 73c8 03be
00000260: 0aba ec3d 589d c7bd 0a58 603d 7c96 91bd
00000270: 5dfc 1abe b127 5d3e 2b6d 9ebe 2fda 1f3e
00000280: 24a5 2bbe c33b 8fbe 7f42 563d f9ec 4b3e
00000290: 2d1f 603e 2c0f 353e b049 c43c 0796 bc3e
000002a0: c52a 153f cdf0 d73d 2ab8 2abe e1ae 0dbe
000002b0: 44f0 893d 9b60 90bd 622d 42bd 62d8 413e
000002c0: 2819 623e e787 c9be 927f 0c3e 766c e7bd
000002d0: 8c84 58be cb76 a6be 096b d5ba 9b36 943e
000002e0: 23da 933d 4a75 df3d 72d2 c8bc 037c 70be
000002f0: 5a07 d03c 8f14 e8bd 3836 c13d cd8a cdbd
00000300: 03c5 7cbe e439 08be 3bd4 2dbe 04da edbe
00000310: 0dd0 183d b724 b9be f28f 25be 82e3 2c3e
00000320: 1e05 a53e a318 713e 157f 893e 25b8 223c
00000330: bb35 9bbd 1bf0 5ebd 7bac 883e b228 87bd
00000340: 8069 e8bd c7d4 8b3e 8ed9 873b 5a0d a1be
00000350: c579 98be 7b23 8e3d 55f7 b9bd 58b6 8c3e
00000360: d75e 3cbd 67e6 0cbe 35d7 463c 77f6 64be
00000370: d966 1a3e bc00 5b3e 507e b03e c494 593d
00000380: 8922 6fbe 81e5 a93e 4d09 113b dc8c 9abe
00000390: 8e62 5e3e b68a 69be 4409 b43e 913a 573e
000003a0: ac45 863e 9bad 7cbe 4f68 b1be c0b0 873e
000003b0: fe01 6b3e 09d3 91be 76ea 073f 14c2 3ebd
000003c0: 57cd 2c3e be83 8abd faa1 ac3e 6d7a 4cbd
000003d0: 20cc 49be e945 ca3d f23e 7bbe b281 aabe
000003e0: 2c1e d73d 6479 b03e 2ea9 07be 917e 36be
000003f0: 0393 4a3d c449 353e 5530 5f3e 0bfc 1e3e

bias f4 [20]
0.017223794 0.011752241 -0.00995672 0.00021185359 0.020624662 -1.0794961e-05 0.030178316 0.018194979
0.027114753 0.028929671 -0.0058734245 0.030374454 -0.014877494 -0.0030752132 0.029467128 -0.04028389
-0.051977135 0.014469083 0.023859318 0.0018124933
00000000: ea18 8d3c 798c 403c 8321 23bc 0425 5e39
00000010: 0df5 a83c 011c 35b7 8438 f73c a30d 953c
00000020: c21f de3c ebfd ec3c db75 c0bb d9d3 f83c
00000030: bcc0 73bc 8489 49bb 0c65 f13c b800 25bd
00000040: fae5 54bd bc0f 6d3c 9e74 c33c 2f91 ed3a

weight f4 [20, 20]
-0.095145285 0.065965466 -0.30581784 -0.08945011 -0.05464641 -0.048113402 0.25554293 -0.091093734
0.33124402 0.24308279 0.08297955 -0.08683248 0.011916732 -0.0065084416 -0.18826963 0.2852504
-0.3403524 0.36188033 -0.11151117 -0.07161184 0.19171643 0.50462407 0.11177654 0.16191845
-0.27094406 0.08780609 -0.27426514 -0.22220941 0.25167805 0.09808237 0.19202892 -0.2009519
-0.21524405 -0.09095383 -0.06944036 0.148098 0.35050902 0.091680095 0.12426282 0.03309541
-0.3493766 -0.12699878 0.45649713 0.16360876 0.02401349 0.043902427 -0.119247526 0.15898363
0.11217501 0.091698155 0.05956335 0.14415205 -0.37007144 0.08647621 0.304801 0.48515013
0.07009869 0.07601114 -0.25770614 0.086747825 0.17104006 0.09144922 0.22885513 -0.38072535
-0.07342061 -0.20450526 -0.3519612 -0.05073125 -0.015267074 0.27340773 -0.18072104 0.27397233
-0.025738735 0.1652168 0.08363345 0.04401737 0.28943676 -0.05192702 -0.14814435 -0.4118513
0.14526734 0.0056480323 0.20459695 0.20696037 0.7913876 -0.024176884 0.3164957 0.17388971
0.13242064 0.11483802 -0.27968156 0.13574459 -0.25472662 0.06933039 0.1320572 -0.48328978
-0.19752334 0.028832568 0.16563135 0.26648438 0.14186002 -0.17992024 -0.18965691 -0.19720037
-0.38319317 0.19735649 0.28996122 0.6191148 -0.25363237 -0.24651453 0.31579664 0.1803805
-0.4151969 0.26717633 -0.03149184 0.13597874 -0.10871228 -0.090636015 -0.02341765 0.29297343
-0.4225157 0.15751493 -0.13534376 -0.16047084 0.02201372 0.21295115 -0.15251893 -0.13595451
-0.042494 -0.49214998 0.1247714 -0.1686061 -0.0096998075 -0.25415272 -0.12397491 -0.2521712
-0.2437444 -0.07305606 0.22846416 -0.08862343 0.39821446 -0.3356119 0.036727615 0.1917629
-0.24971236 0.08900225 0.046016406 -0.15685402 -0.16025272 -0.13185276 -0.023685036 -0.18840389
-0.096722655 0.2112438 -0.037146017 0.17327072 0.106745504 0.10461328 -0.17236917 -0.16232896
-0.11637164 -0.080542654 -0.038068507 0.043890882 -0.06535027 -0.04870983 0.22422971 -0.048050065
0.074995466 0.19846484 -0.0801802 0.105546005 -0.026225133 0.19628266 0.05788233 -0.4397845
-0.15143192 0.030062575 -0.1146632 -0.3240402 0.24722078 0.3326009 -0.30685085 -0.3786445
0.116070524 0.18392524 0.2111267 0.29622996 -0.16458672 -0.17365403 -0.21676497 -0.012189764
0.14387965 -0.05464038 0.20471177 0.28981566 0.10501017 0.068376146 0.14282261 -0.13575362
0.09089865 -0.2879974 -0.16936664 -0.10155459 0.2404401 -0.30227602 -0.025692347 0.12808555
0.18286586 0.036977362 -0.15890178 -0.3769968 0.09922074 -0.24728326 0.19977205 0.013219557
0.01978548 -0.23749362 0.41636717 0.098785974 0.07310011 -0.12046266 0.3039129 -0.08820427
0.15005578 -0.1017927 -0.09762164 -0.038654335 0.18632287 0.058911618 0.27118 -0.023142936
0.05412393 -0.20825528 -0.06792545 -0.23970525 -0.16649547 0.009402873 0.27087632 0.12132149
-0.21567613 0.041071687 0.2680677 0.08898722 0.16660425 0.25188705 0.14926162 -0.0072054807
-0.4400429 -0.45891303 0.018814854 -0.073128656 0.22510129 -0.17688279 -0.006828372 0.05408316
00000000: 88db c2bd e718 873d 2894 9cbe 9f31 b7bd
00000010: ead4 5fbd 8f12 45bd 86d6 823e 5a8f babd
00000020: d198 a93e b2ea 783e 2ff1 a93d 3ad5 b1bd
00000030: 663e 433c c444 d5bb c1c9 40be 570c 923e
00000040: ab42 aebe 6148 b93e f85f e4bd 3aa9 92bd
00000050: 5051 443e 0b2f 013f 19eb e43d f3cd 253e
00000060: 2eb9 8abe aed3 b33d 7b6c 8cbe dd8a 63be
00000070: f2db 803e 69df c83d 3ba3 443e 56c6 4dbe
00000080: f068 5cbe 0046 babd bf36 8ebd 01a7 173e
00000090: eb75 b33e c6c2 bb3d 817d fe3d 0d8f 073d
000000a0: 7de1 b2be f80b 02be feb9 e93e 0e89 273e
000000b0: f0b7 c43c 08d3 333d 0c38 f4bd 9bcc 223e
000000c0: 03bc e53d 3ecc bb3d b3f8 733d 989c 133e
000000d0: 017a bdbe 701a b13d e00e 9c3e 9965 f83e
000000e0: e78f 8f3d bbab 9b3d 0ff2 83be d8a8 b13d
000000f0: 2025 2f3e bb49 bb3d 0059 6a3e 6fee c2be
00000100: 8b5d 96bd d469 51be 4234 b4be 92cb 4fbd
00000110: c022 7abc 19fc 8b3e f00e 39be 1a46 8c3e
00000120: 0ada d2bc 982e 293e 0448 ab3d 8f4b 343d
00000130: 0e31 943e 6db1 54bd 27b3 17be 2cde d2be
00000140: f6c0 143e 2113 b93b dd81 513e 6bed 533e
00000150: 6198 4a3f 9a0e c6bc b90b a23e 2510 323e
00000160: 4799 073e 3230 eb3d 6c32 8fbe a100 0b3e
00000170: 876b 82be 17fd 8d3d 013a 073e c271 f7be
00000180: 8f43 4abe 4732 ec3c 449b 293e a470 883e
00000190: c143 113e 033d 38be 6c35 42be e5ee 49be
000001a0: e531 c4be d217 4a3e cc75 943e 4f7e 1e3f
000001b0: 1adc 81be 4e6e 7cbe 19b0 a13e aab5 383e
000001c0: b094 d4be 56cb 883e 96fd 00bd 033e 0b3e
000001d0: 8ba4 debd 609f b9bd 5fd6 bfbc 9d00 963e
000001e0: fa53 d8be 984b 213e 8e97 0abe 7852 24be
000001f0: 1e56 b43c de0f 5a3e ec2d 1cbe a937 0bbe
00000200: 300e 2ebd 15fb fbbe 2688 ff3d 14a7 2cbe
00000210: f1eb 1ebc 4e20 82be 8fe6 fdbd 951c 81be
00000220: 2298 79be 6a9e 95bd 82f2 693e 3380 b5bd
00000230: c4e2 cb3e 53d5 abbe b26f 163d 7e5d 443e
00000240: 99b4 7fbe d046 b63d b37b 3c3d 579e 20be
00000250: 4a19 24be 6904 07be 1f07 c2bc f3ec 40be
00000260: 8716 c6bd 4b50 583e 6c26 18bd e16d 313e
00000270: 639d da3d 7d3f d63d 8b81 30be 9039 26be
00000280: 4154 eebd 8cf3 a4bd b9ed 1bbd edc6 333d
00000290: 5dd6 85bd f583 47bd 799c 653e 25d0 44bd
000002a0: 3997 993d 5e3a 4b3e 8435 a4bd 8128 d83d
000002b0: 17d6 d6bc 52fe 483e 0616 6d3d 6f2b e1be
000002c0: f810 1bbe ca45 f63c 8ad4 eabd 99e8 a5be
000002d0: 7227 7d3e aa4a aa3e 8e1b 9dbe b1dd c1be
000002e0: 62b6 ed3d e656 3c3e 9931 583e 74ab 973e
000002f0: 6c89 28be 5dd2 31be a3f7 5dbe 93b7 47bc
00000300: 3055 133e 97ce 5fbd f69f 513e b862 943e
00000310: 920f d73d cb08 8c3d 1740 123e ff02 0bbe
00000320: 1229 ba3d 6574 93be 736e 2dbe dafb cfbd
00000330: ee35 763e ecc3 9abe c278 d2bc dc28 033e
00000340: 3041 3b3e 9375 173d 26b7 22be b905 c1be
00000350: 3e34 cb3d d337 7dbe 0b91 4c3e d796 583c
00000360: 2915 a23c 8731 73be 142e d53e 4d50 ca3d
00000370: 83b5 953d 21b5 f6bd 799a 9b3e 71a4 b4bd
00000380: 39a8 193e b178 d0bd dbed c7bd 0254 1ebd
00000390: 6ccb 3e3e 4f4d 713d 1bd8 8a3e 4196 bdbc
000003a0: 0eb1 5d3d df40 55be 801c 8bbd 4b75 75be
000003b0: ca7d 2abe 820e 1a3c 4db0 8a3e 6777 f83d
000003c0: 34da 5cbe c93a 283d 2b40 893e ee3e b63d
000003d0: 4e9a 2a3e 57f7 803e 0ad8 183e f41b ecbb
000003e0: 4e4d e1be a6f6 eabe 9c21 9a3c 7ac4 95bd
000003f0: f480 663e c320 35be 89c0 dfbb 4e86 5d3d

bias f4 [20]
0.01941257 0.0020146936 -0.026681837 -0.019437306 0.033952907 0.014766653 0.013847764 -0.01454002
0.010365883 0.0034640594 0.0061945403 0.0394158 -0.042913023 -0.0043146973 -0.0050449586 0.029073503
-0.011342528 0.015985763 0.009309772 -0.014190746
00000000: 1c07 9f3c f308 043b de93 dabc fc3a 9fbc
00000010: 3412 0b3d d5ef 713c bbe1 623c 4439 6ebc
00000020: aad5 293c 4605 633b 92fb ca3b 7672 213d
00000030: 91c5 2fbd 4e62 8dbb 2e50 a5bb 8e2b ee3c
00000040: 03d6 39bc 93f4 823c 0488 183c 4d80 68bc

weight f4 [20, 20]
0.16325374 -0.04277134 -0.08363254 -0.133156 -0.0050282897 -0.29917127 -0.11537377 0.4015197
-0.2782663 0.28239968 -0.06221852 -0.2632395 0.12219911 0.026324917 0.11806639 0.11535284
-0.28395015 0.1532943 0.05902399 0.03517315 0.13780749 0.18173024 0.24184895 0.112178124
0.006532915 -0.07695085 0.047248032 0.05262265 0.19978714 0.14752848 -0.31989706 0.10362924
0.45803857 -0.09630274 -0.1341414 -0.54838836 -0.032801908 0.36570862 -0.24135126 0.08429413
-0.0121686505 0.10858244 0.4654682 0.076333605 0.04324191 0.4728175 -0.22571085 -0.18765119
0.06870248 -0.4034026 -0.012778671 0.07599148 0.08235948 -0.08241753 0.024306288 -0.34565493
-0.20609234 -0.10931912 -0.27118525 -0.11821305 0.062437087 -0.12485371 0.032342948 -0.14849004
-0.06920393 0.020871032 0.06458433 -0.1124017 0.30564356 -0.23763213 0.11112082 0.2753247
-0.22645535 0.13418524 -0.29078057 -0.24990028 -0.09178783 0.24246818 0.03645984 -0.11763448
0.17159915 -0.14500211 -0.015269902 -0.0342859 0.12721916 0.23528416 0.38133347 0.37591922
-0.08796502 -0.3894633 -0.05870107 0.047421735 0.32101426 0.08972564 -0.3688052 0.065475695
-0.23426244 -0.08594512 0.47906223 0.319657 -0.1482485 0.20757556 0.08832147 0.07351212
-0.15728472 -0.14878085 -0.13187699 0.1578644 -0.23838091 -0.16458663 0.034960467 0.08037524
0.24862057 -0.33495727 0.10755758 0.097649604 0.14443566 0.48129317 -0.20877443 0.051821426
0.4687893 -0.016813708 -0.247291 0.1652728 0.20705055 0.37778023 0.08915577 0.11183754
-0.1461027 -0.050543416 0.14982016 0.26776993 -0.18929844 0.06370819 -0.09951948 0.16393633
-0.098042205 0.19939508 0.13833582 0.14969283 -0.47137856 -0.25041008 0.064172275 0.38008723
-0.23604506 0.036307152 0.28897774 0.08292779 -0.03441911 0.0077189202 0.15275313 -0.6013052
-0.38027036 0.043723732 0.18135929 -0.105931476 -0.020846691 0.07128527 0.3330443 -0.41626617
-0.12959513 0.301088 0.28333235 0.29476467 0.009082453 0.08959624 0.36270416 -0.21440282
-0.11607388 -0.30620387 -0.2157433 0.2799046 0.28738016 -0.3039318 -0.11680027 0.25573817
0.14649118 -0.10725952 -0.10736529 0.022405984 -0.37076104 0.2850982 -0.011549263 -0.34257984
0.11128257 -0.32210857 0.16430075 0.13592458 0.05119075 0.1601502 -0.21438716 0.36777937
-0.003873812 -0.07824217 0.09538865 -0.24342822 0.1966288 -0.24172899 -0.3005035 -0.035995573
0.07116057 0.19521086 0.14897837 -0.20552036 -0.4382192 -0.556343 0.33284718 0.029080326
0.12879819 0.34773093 0.008230923 -0.092844464 0.11122458 0.0623295 0.30278668 -0.32223505
0.16654642 -0.35403746 0.25416 0.20452546 0.18244168 0.0058854707 0.3530567 -0.022378046
0.07861436 0.43858504 -0.32191256 -0.47932953 0.21600321 -0.19803537 0.2899171 0.27604368
0.54390264 0.34925684 0.39312172 -0.03814081 -0.44137985 0.26322383 -0.27943286 -0.09605893
0.3987307 0.22372389 -0.13213938 -0.11042497 0.05003947 0.07945766 0.18962984 -0.20991746
0.2612421 0.21967773 0.07044998 0.39422235 0.2589205 -0.050811935 -0.22806586 0.526965
00000000: fd2b 273e 0031 2fbd 8a47 abbd 0c5a 08be
00000010: 5ac4 a4bb fa2c 99be 1549 ecbd fd93 cd3e
00000020: ec78 8ebe b196 903e d9d8 7ebd 54c7 86be
00000030: 8743 fa3d 5aa7 d73c cbcc f13d 1c3e ec3d
00000040: ea61 91be 2ef9 1c3e 24c3 713d b911 103d
00000050: 681d 0d3e 7e17 3a3e 40a7 773e a5bd e53d
00000060: 1012 d63b 6898 9dbd 2787 413d d98a 573d
00000070: 0095 4c3e b511 173e 8cc9 a3be 913b d43d
00000080: 0884 ea3e 5f3a c5bd 5d5c 09be 2e63 0cbf
00000090: 4b5b 06bd 293e bb3e c924 77be 67a2 ac3d
000000a0: 055f 47bc 7860 de3d d951 ee3e cb54 9c3d
000000b0: 6e1e 313d 2315 f23e bf20 67be a227 40be
000000c0: e3b3 8c3d c98a cebe a25d 51bc 6ca1 9b3d
000000d0: 16ac a83d 86ca a8bd fb1d c73c aff9 b0be
000000e0: df09 53be b4e2 dfbd cbd8 8abe af19 f2bd
000000f0: 08be 7f3d 4db3 ffbd 0a7a 043d c60d 18be
00000100: caba 8dbd baf9 aa3c ca44 843d dd32 e6bd
00000110: 507d 9c3e d655 73be 5093 e33d 5cf7 8c3e
00000120: e9e3 67be db67 093e 31e1 94be dce5 7fbe
00000130: 42fb bbbd 9449 783e ea56 153d 59ea f0bd
00000140: b0b7 2f3e 6f7b 14be 9c2e 7abc 5f6f 0cbd
00000150: bd45 023e 55ee 703e 243e c33e 7c78 c03e
00000160: 0127 b4bd bc67 c7be 8870 70bd 4b3d 423d
00000170: fb5b a43e 14c2 b73d 09d4 bcbe 1f18 863d
00000180: 7ee2 6fbe ff03 b0bd a547 f53e 15aa a33e
00000190: 74ce 17be b08e 543e e3e1 b43d 868d 963d
000001a0: 3f0f 21be 025a 18be c30a 07be 35a7 213e
000001b0: 201a 74be 6689 28be b532 0f3d c69b a43d
000001c0: 6496 7e3e 857f abbe 2647 dc3d 84fc c73d
000001d0: f1e6 133e 0f6c f63e f7c8 55be b442 543d
000001e0: 2705 f03e e7bc 89bc da39 7dbe 463d 293e
000001f0: 0f05 543e 696c c13e 4d97 b63d 150b e53d
00000200: f29b 15be 9d06 4fbd 756a 193e 2419 893e
00000210: 73d7 41be 7179 823d ded0 cbbd edde 273e
00000220: 5aca c8bd 392e 4c3e e8a7 0d3e 1449 193e
00000230: 8858 f1be c035 80be c16c 833d cb9a c23e
00000240: ccb5 71be cfb6 143d e4f4 933e 0cd6 a93d
00000250: 0dfb 0cbd ffee fc3b 516b 1c3e 23ef 19bf
00000260: ccb2 c2be a817 333d 40b6 393e 9af2 d8bd
00000270: aec6 aabc 03fe 913d c884 aa3e d720 d5be
00000280: 96b4 04be 3528 9a3e f010 913e 65eb 963e
00000290: 92ce 143c 3c7e b73d 5cb4 b93e 6a8c 5bbe
000002a0: 24b8 edbd c1c6 9cbe d0eb 5cbe a84f 8f3e
000002b0: 7e23 933e f39c 9bbe fb34 efbd 1df0 823e
000002c0: c901 163e e1aa dbbd 55e2 dbbd c18c b73c
000002d0: 64d4 bdbe 64f8 913e 1f39 3dbc a066 afbe
000002e0: 1ee8 e33d 6aeb a4be 753e 283e d02f 0b3e
000002f0: 64ad 513d 6afe 233e 4f88 5bbe 944d bc3e
00000300: c8df 7dbb 6e3d a0bd 205b c33d 3f45 79be
00000310: 0f59 493e ce87 77be 98db 99be 1870 13bd
00000320: a2bc 913d 5be5 473e c98d 183e ee73 52be
00000330: 445e e0be 7f6c 0ebf f26a aa3e dd39 ee3c
00000340: ace3 033e ca09 b23e feda 063c 3d25 bebd
00000350: b6c9 e33d 384d 7f3d db06 9b3e fefb a4be
00000360: 258b 2a3e 6644 b5be 4221 823e 1f6f 513e
00000370: fed1 3a3e e8da c03b d9c3 b43e 2a52 b7bc
00000380: 9100 a13d 388e e03e b9d1 a4be ae6a f5be
00000390: f22f 5d3e c9c9 4abe 0470 943e 9955 8d3e
000003a0: 343d 0b3f cbd1 b23e 4047 c93e 8a39 1cbd
000003b0: 8afc e1be 46c5 863e d311 8fbe 8bba c4bd
000003c0: 6e26 cc3e e017 653e 8c4f 07be 7d26 e2bd
000003d0: 30f6 4c3d b3ba a23d 532e 423e 9af4 56be
000003e0: 86c1 853e 33f3 603e 1448 903d 83d7 c93e
000003f0: 3a91 843e 2d20 50bd 198a 69be 2ee7 063f

bias f4 [20]
0.0030066834 -0.023106294 -0.020821387 0.023192829 0.022053828 -0.018900204 0.04473956 -0.041437987
-0.022558715 0.014445105 -0.010651343 -0.026649622 0.0041924543 0.019779608 -0.03497961 -0.0062095844
0.01484642 0.048461113 0.01698967 -0.03971738
00000000: c70b 453b 6949 bdbc 9d91 aabc e3fe bd3c
00000010: 3baa b43c 9ad4 9abc d440 373d e1ba 29bd
00000020: 0ecd b8bc 29ab 6c3c f882 2ebc 4f50 dabc
00000030: db60 893b d808 a23c c846 0fbd c579 cbbb
00000040: 663e 733c 297f 463d ec2d 8b3c b1ae 22bd

weight f4 [1, 20]
0.03407357 -0.5134143 -0.37469724 0.17132829 0.31305692 -0.16999817 0.74923056 -0.5503074
-0.19250868 0.103099294 -0.06256974 -0.35229823 0.04061989 -0.8292307 -0.3088501 -0.055965178
0.44714168 0.69090825 0.13784775 -0.31370825
00000000: ba90 0b3d 1f6f 03bf 51d8 bfbe af70 2f3e
00000010: ff48 a03e 0014 2ebe 93cd 3f3f f2e0 0cbf
00000020: ff20 45be b925 d33d 9024 80bd 6f60 b4be
00000030: 0b61 263d 7748 54bf 9a21 9ebe be3b 65bd
00000040: c1ef e43e 5ddf 303f f627 0d3e 5e9e a0be

u_b f4 [2]
2.4637163 1.56
00000000: 87ad 1d40 14ae c73f

l_b f4 [2]
1.45981 0.0
00000000: 0edb ba3f 0000 0000
