Models/Noise_0/toy_nostop/internal_o3_200.pt (torch, 48863 bytes, 23 tensors)

weight f4 [20, 2]
00000000: 0c92 10be d434 863e 43f3 65be 9a79 4abd
00000010: bebc 05bd 5940 46be 62ac 86be 1f91 9f3f
00000020: bf8b a23d fee7 cbbe 33c9 2a3e 5432 b2be
00000030: 08c7 063f 8d56 62be fd6b 333e 921d 99be
00000040: fde3 cbbe 0a8c f73d f66b babc 2c06 17be
00000050: 2fce 9abc 7308 083e d0a3 203e 84b4 6c3c
00000060: fce6 0d3e 1594 0ebf 0416 90be 3cde b43d
00000070: a766 923e 72bc 30bf 32af cc3e 8cfa 91be
00000080: b720 c83e 3925 94bf 408c 9cbe cdb6 1dbe
00000090: af13 52bd 7310 1a3c 34e4 50be c0a0 81be
-0.14118212 0.2621218 -0.22456078 -0.049432375 -0.0326507 -0.19360484 -0.26303393 1.2466162
0.07936811 -0.39825433 0.16678314 -0.34804022 0.5264745 -0.22103329 0.17521663 -0.29905373
-0.3982238 0.12087257 -0.022756558 -0.14748448 -0.018897144 0.13284473 0.1568749 0.014447335
0.13857645 -0.55694705 -0.28141797 0.0883145 0.28593943 -0.69037545 0.39977413 -0.28511465
0.3908746 -1.157386 -0.30575752 -0.15401764 -0.051288303 0.009403336 -0.20399553 -0.25317955

bias f4 [20]
00000000: f49d 813d a3fc 88be 5108 de3e 8929 8fbe
00000010: eae6 ee3e 4311 fa3d 9f21 4a3f d44a e43e
00000020: 9bc7 48be eb1c a93e 7082 2e3d 80c7 08be
00000030: f8b9 d53d d3a6 d13d 3539 143f c006 71be
00000040: 6081 69bf 9d21 933c 6558 11be 661e ebbd
0.06328955 -0.26755247 0.4336572 -0.27961376 0.46660548 0.12210324 0.7895755 0.4458834
-0.19607393 0.33029875 0.042604864 -0.13357353 0.10435861 0.10236897 0.5789979 -0.23537731
-0.91213036 0.017960364 -0.14193876 -0.114804074

weight f4 [20, 20]
00000000: b4d2 673e 716a 913d 6d9e 09be 6606 19bd
00000010: 624f 723e 09d2 013e b483 973d dc20 8c3e
00000020: 276d 663e 8820 8e3e 4b43 ab3e 3074 483c
00000030: 61a4 763e 5c24 2d3e 6509 113f f489 86be
00000040: 1a06 473e 6863 14be 2013 16be 80a8 a53d
00000050: 2987 883e 2792 3d3e 39f2 99bc f7a6 723c
00000060: 2f91 48be f334 f7be 5e9b 0bbf def6 a3be
00000070: 3d36 8f3e 520d 4bbd faa9 49bd 4a9d 8abd
00000080: 57c8 5abe caa1 413e a9c8 aabe 9f70 a03d
00000090: 1fb6 9f3e 43f6 803d c80f 643d 6b0e 01bc
000000a0: 715c b03e e029 fe3d 3621 43be a33c 00bf
000000b0: f79c 313f afb7 08bd ce67 c9bd ab6e a83e
000000c0: 6111 2b3e 772b 89be 0187 22be 81cc 0f3e
000000d0: 13ec aabe b545 ae3c e5fa 123d 8a54 b8bd
000000e0: 0681 fd3d a01c 643c e9c0 6dbc e829 e6be
000000f0: d48f 743e 1ba3 1b3e 6958 18be 7afe d23c
00000100: 84a3 863d a647 273c bc93 0dbe be4b 07bd
00000110: 4fb9 6cbd d12d 843e e87a a33d defb 473e
00000120: 7494 bd3e b3ad f53d 6e97 e1bc 3472 2fbe
00000130: 0822 16bf bf6a 1f3e c803 4d3e 440a 503e
00000140: 3f45 af3e 73b3 b13d 8734 003e fa68 4c3e
00000150: 1d50 90be 089b 3fbe be22 963d fd03 b53e
00000160: c1d5 8b3d d7a0 41bd 7813 243e 265d 81bd
00000170: aee6 84bd 3dc9 1bbe 53d3 dcbd 0f92 7a3e
00000180: 76ff 06bf 5f86 3dbe ced3 68bc 79cc d83e
00000190: dbee 40bd 4bd6 393e e907 903e d5e5 213b
000001a0: 047c 073e a3a2 3a3e dcc4 8abe 494b 1abe
000001b0: 12f9 913d 55bc 5bbe fc38 f03d 818a 04be
000001c0: 3f63 8abe 247c 34be 39a3 093f 2f00 693d
000001d0: d5ab 55be a082 9dbd 8970 253e 00fb a63e
000001e0: b710 d9be a91f 8ebc 6fb7 973d f0b4 83bb
000001f0: 561c 9fbd 6f86 e9be 4eba 183e 0d4b d73d
00000200: c7e5 8d3e e6a1 82be c59c 323e 6a08 44be
00000210: 935b 123d ccb9 013b 8ba7 983e bf9b d43d
00000220: 92e4 40bd 1bb1 8cbe 77d4 383d 7c2b c9bd
00000230: a683 713e e003 043f c957 803e ecc6 633d
00000240: 3210 973e a994 52bc 2c10 cebe 2fe8 ba3d
00000250: f72f 2d3d fa41 9b3c 82fd ed3d c724 b13d
00000260: f451 883e 835b 3cbe 3f69 cbbc 9913 a9be
00000270: 3e42 08be 2ce5 8ebd fa09 6cbe 9729 823e
00000280: 2896 623d acea 09be cbcf d1bd 042a 5f3c
00000290: b7d5 a6be 6793 603e 3dd9 62bd 87d0 55be
000002a0: d8da 85be 7da8 80bd db68 673d 0939 633e
000002b0: 2efe 6e3e 79b6 4abe f9b0 f03d 67ae f63e
000002c0: 89d2 69bd ab34 773e 9c10 613e 423d 49be
000002d0: 8db6 173e 4bb8 9f3d fd45 b13e 78ab 843e
000002e0: 13d3 093f ac2c 843e 9514 b93d 447f 5f3e
000002f0: b508 043f f2b7 183e f9cc 243e b941 a5be
00000300: 4263 f7bd 288f a53e 661e 10be 742e 2abe
00000310: 2d46 ed3e 6462 d8bd 8d2a 8cbe 640e 973d
00000320: b141 1fbd 5e17 3f3e 8900 54be e112 f1bc
00000330: 9440 b9be 0db6 a8be 0497 793d 9ed1 5fbe
00000340: f0d0 da3e 0bb3 d1be cd0f c3bd 5da7 8ebc
00000350: 90da 91be 5546 6dbe f977 e3bd 9cc5 0a3e
00000360: 0d15 1fbf bf64 663e 1ac0 703e fd37 9bbe
00000370: 050a c8be 18d5 373e 7aaa 4e3e 4023 983e
00000380: ab83 36be e973 ab3b bcdf 2c3d 333c 5abe
00000390: 5c87 34be f2ef a73e 81be c03d 1fe0 013f
000003a0: e2da 8fbd 2910 23be 5015 433e 63cc 2fbe
000003b0: 200b 5cbe 177c 1a3d d454 753e 9a40 db3c
000003c0: d323 bcbe bb19 143e 597d 7e3e 672a 50be
000003d0: 1f8d 8ebe 67ce b23e 8567 33bd 89a6 29be
000003e0: a384 b83d 4e95 643e a988 19be 0ae8 593e
000003f0: 73e5 3b3e d680 9abc 5df1 863b 7f7a e83d
0.2263897 0.0710038 -0.13439341 -0.037359618 0.23663095 0.12677778 0.07398167 0.2736882
0.22502576 0.27759194 0.33449778 0.0122347325 0.24086143 0.16908401 0.5665496 -0.26277125
0.19435921 -0.14491045 -0.14655733 0.080887794 0.2666562 0.18512784 -0.018792259 0.014810315
-0.19586633 -0.48282585 -0.54533947 -0.32024282 0.27971068 -0.04957325 -0.049234368 -0.06768282
-0.21365486 0.18909374 -0.33356217 0.07833981 0.31193635 0.06296971 0.055679113 -0.007876973
0.34445527 0.12410331 -0.19055638 -0.50092524 0.69380134 -0.0333783 -0.09834252 0.32896933
0.16705848 -0.26790974 -0.15871812 0.14042856 -0.33383235 0.021273473 0.035883803 -0.090004995
0.12378125 0.01392284 -0.014511325 -0.44953847 0.23882991 0.15198939 -0.14877476 0.02575611
0.06574157 0.010209953 -0.13825887 -0.033031218 -0.05779391 0.25816205 0.07982427 0.19529673
0.37027323 0.11996021 -0.027538028 -0.17133409 -0.5864568 0.15568064 0.20020974 0.20316416
0.34232518 0.08676805 0.12520038 0.1996192 -0.28186122 -0.18711483 0.07330845 0.35354605
0.0682788 -0.04727253 0.16023052 -0.06316595 -0.06489311 -0.15213485 -0.107824944 0.2446978
-0.5273355 -0.1850829 -0.014210654 0.423435 -0.04710279 0.18148153 0.28131035 0.002470364
0.13230902 0.18226103 -0.27103317 -0.15067782 0.071275845 -0.21458562 0.11729619 -0.1294346
-0.27028844 -0.17625481 0.53764683 0.05688494 -0.2086633 -0.0769093 0.1615621 0.32613373
-0.42395565 -0.017349081 0.07408034 -0.004019372 -0.077690765 -0.45610377 0.1491482 0.10512362
0.2771437 -0.25514144 0.17442615 -0.19143835 0.035731863 0.0019794581 0.29815325 0.10381269
-0.04709298 -0.2747887 0.045124497 -0.09822747 0.23585376 0.5156841 0.25066975 0.05560963
0.29504544 -0.012852826 -0.40246713 0.09126317 0.04228207 0.018952359 0.116206184 0.08649593
0.26625025 -0.18394284 -0.024830459 -0.33022764 -0.1330652 -0.06977305 -0.23050681 0.25422356
0.05531898 -0.13468426 -0.102447115 0.013620857 -0.32584926 0.2193123 -0.055382956 -0.20880328
-0.26143527 -0.062821366 0.056496482 0.22189726 0.2333915 -0.1979617 0.11752505 0.48179933
-0.057085548 0.24141185 0.21978992 -0.19652274 0.14815731 0.07798823 0.3462371 0.2591207
0.538377 0.25815332 0.09037129 0.21825892 0.51575786 0.1491392 0.16093816 -0.32276705
-0.12079479 0.32335782 -0.14074096 -0.16619283 0.46342602 -0.105656415 -0.27376214 0.07375792
-0.038881008 0.18661258 -0.20703329 -0.029427947 -0.36182082 -0.32951394 0.060935035 -0.21857306
0.42737532 -0.4095691 -0.09524498 -0.01741379 -0.28487062 -0.23171361 -0.11106867 0.13551944
-0.62141496 0.22499369 0.23510781 -0.30316153 -0.39070144 0.17952383 0.20182219 0.29714394
-0.17823665 0.0052323234 0.042205557 -0.21312027 -0.1762976 0.3280025 0.09411336 0.50732607
-0.070241705 -0.15924133 0.19051099 -0.17167811 -0.21488619 0.037715998 0.2395814 0.026764203
-0.36746082 0.1446294 0.24852504 -0.20328675 -0.27842042 0.34923097 -0.043799896 -0.16567434
0.090096734 0.2232258 -0.14993538 0.21279922 0.18349247 -0.018860262 0.004118128 0.11351489

bias f4 [20]
00000000: 31b6 3a3e 1da3 9abe 10c9 a83e 7204 8abe
00000010: fe0a 1d3f f952 9e3c 3bff 183e ce59 84bd
00000020: 96a9 16be 7b37 ee3e 5ea0 26bf 0340 613d
00000030: 46b7 dcbe 29b0 4fbe 90a1 6cbc 74d7 9a3e
00000040: 04f2 a83e 14ed 73be 7346 fbbe 0c1e 9b3e
0.18233563 -0.3020257 0.329659 -0.26956517 0.613449 0.019326674 0.14941113 -0.064624414
-0.1471313 0.46526703 -0.6508845 0.054992687 -0.43108577 -0.20282044 -0.014442816 0.30242503
0.32997143 -0.23820907 -0.49077186 0.3029636

weight f4 [20, 20]
00000000: 9706 2d3e f852 5cbe d3aa 283e 69c6 fe3d
00000010: eec5 96be f312 e9bd 48b4 623d 4145 9c3e
00000020: 90cc 13bf 44b0 973e 36fb 3b3c 4dcf 9a3e
00000030: 460e dc3d bbd8 a83d c5b9 893e 7b53 d6bd
00000040: d936 dc3e e526 ddbd 3a78 5b3e 872a 87be
00000050: 146d 633e e778 4f3d c3fd c33d 3f7a 1b3e
00000060: 80d3 a6bc 81f3 a23e d8bc 293e cea8 bebd
00000070: 65bd 95bb def6 af3e a55a 27be f362 a13e
00000080: 01e9 2abe 4379 4a3b 231d f0bd 4e02 853e
00000090: 48f9 c53d 4718 cd3e 53af 8f3e 0aa6 953d
000000a0: 2f32 92be 54d1 d2bc 2ed1 be3d cf37 3bbe
000000b0: 100d ea3d 5865 a83e f478 3d3e 9e81 7b3e
000000c0: a669 b33d 5551 133f c8c8 86be 593e 4cbe
000000d0: 8392 a0be cd9c bc3c f876 51be 3cf1 6f3e
000000e0: 939d f33e df74 bf3d 1104 70be 1a12 823e
000000f0: 2b2b 3e3e 43f8 3c3e 8639 b8bd ec07 b4bd
00000100: 93cd cbbe c50b 7dbe 5746 21bf 0384 09bf
00000110: efaf 18bc 0932 5bbe e0a8 c8bd 12d3 dd3c
00000120: dd60 87be f4b8 89bd a161 66be d2e3 6e3e
00000130: 2bb4 213d 80ee 03be c369 8f3d 4e8e 0e3f
00000140: d1cf 6d3e 264f 0abe 0fa3 4ebc 7629 043e
00000150: 0143 873e 3a6f 4abe 367e 05be c638 dc3c
00000160: b017 973e 41bb 8b3d cffc 5bbe 3bd1 a2be
00000170: 968d edbd ac75 05bf 48f8 043f 7e28 b93d
00000180: 7953 e1bd 9422 83be 91b5 713e bb3c 853e
00000190: 4201 89be 5f96 8cbe 47a0 33bd 3d95 eabd
000001a0: 23a2 41be 6576 eebd 9bda 393e 5092 00bf
000001b0: b7ef a33e 4fbf 14be 9343 45bd b554 6ebd
000001c0: 8e40 b73e 77b0 293e bd5e 233f 0d87 3a3d
000001d0: a731 093d 8f99 933d 28dd ebbd d47f 10bf
000001e0: 5c27 b03e 2a58 be3d f512 4b3d 0d5d 753e
000001f0: 7582 0d3d 372b e7bc b38b 43be 0eef b33e
00000200: f2f2 17be 0869 6e3e a59f 5d3e 8052 993d
00000210: a4e2 55be e57d af3e 2468 9ebe 1083 953e
00000220: ead8 643e 7970 09bf 878e 34be c985 073e
00000230: 645f 9dbd f877 3c3e 5d72 0fbc 070e 163e
00000240: 72e1 4abd 4453 c5bd 49f7 39be d530 603e
00000250: 3087 a63e 976e 033e 178c 853d a82c 03be
00000260: e962 0ebe 671b d2bd c140 a93d 5c75 493e
00000270: 15d2 15be 8da5 ba3e b63b e5bb e476 6c3d
00000280: 5590 0d3d 2c18 92bd 27ca b2be 427d b43e
00000290: 9137 c53e 8c31 1d3e 2f4e 793d 0100 4fbb
000002a0: 0e6b a3bb 719c 20bc 020d c3bc 1fcd b93e
000002b0: 3a17 2ebe 3828 97be f554 443e 3272 a3bd
000002c0: c43c 47be baf8 6cbe adc5 7b3e 3ff6 a9be
000002d0: 8e1e d23e c12d 16be 5743 4ebe b82e 56bd
000002e0: 7cbb 29be 0a25 b63e fed9 adbe beb1 bd3d
000002f0: ef9c 26bd 51c7 4a3d 486f b73d 02a7 443e
00000300: e926 47be 63ae 26be 845f 88be 39de 533d
00000310: 2ee8 3b3c 5201 15ba db62 033e 22c3 61be
00000320: 3588 1a3e fa8f 843d 198f ac3d f738 863d
00000330: 64c4 15bc 16b7 f83d b00f e43d 9e2d 45bd
00000340: b572 6fbd 0fa7 623e 5946 99bd 8c2a 0e3e
00000350: 233f 1cbd ac44 773e 0044 b0be 3bbb 953e
00000360: 8a78 0f3e 7333 adbe b334 4dbe b927 57be
00000370: eadb 0fbe e533 8f3c 20aa ffbd 02f9 41bd
00000380: 6ada 823d d20b 0ebe fe86 0cbd 1fc0 133d
00000390: 5e96 3fbe 409a 513e ee9e ccbd 67da bdbd
000003a0: 3d26 983e d742 a13e 5ff2 833c 7d44 8f3e
000003b0: 6c9c 123e f24a 393f 0c17 27bd 1d26 e43d
000003c0: be3a 87be 4720 083e 5a4a 9bbe 3f89 f23c
000003d0: b882 073e 4543 cdbe 1d0b 58bd 9a0e 903e
000003e0: 25af 3fbd dcec 1cbd 5e71 433e eb03 3dbd
000003f0: 9991 c7bd 6713 a8be 7f9f 3d3e b05d 03bf
0.16897045 -0.21516025 0.16471414 0.124401875 -0.29447883 -0.113805674 0.05534771 0.30521587
-0.5773401 0.29626667 0.011473468 0.30236283 0.1074491 0.08244463 0.26899543 -0.104651414
0.43010595 -0.10798434 0.21432582 -0.26399633 0.22209579 0.05065241 0.095698856 0.15183352
-0.020364523 0.31826404 0.16575944 -0.09309541 -0.0045696967 0.34368032 -0.16343172 0.31520805
-0.16690446 0.0030895032 -0.117243074 0.2597832 0.09666687 0.40057585 0.2806345 0.0730706
-0.28553912 -0.025734581 0.093172416 -0.18283008 0.11428273 0.3288982 0.18503171 0.24561164
0.08760385 0.5754598 -0.2632506 -0.19945659 -0.3136178 0.023023987 -0.20455539 0.23431867
0.47581157 0.09348463 -0.23439051 0.25404435 0.18571155 0.1845408 -0.08995347 -0.087905735
-0.39805278 -0.24711521 -0.62997955 -0.5371706 -0.00931929 -0.21405806 -0.09797835 0.027078185
-0.26441088 -0.0672473 -0.2249818 0.23329094 0.039478462 -0.1288395 0.07002594 0.5568589
0.23223807 -0.13506755 -0.012612118 0.12906441 0.26418307 -0.19768992 -0.13036427 0.02688254
0.2951026 0.06822825 -0.21483158 -0.31800255 -0.11599271 -0.5213268 0.5194135 0.090409264
-0.11002249 -0.2561232 0.23604418 0.26022896 -0.26758772 -0.27458474 -0.043854024 -0.11454246
-0.18909506 -0.11643676 0.18149798 -0.50223255 0.32018825 -0.14526103 -0.048160147 -0.05818625
0.3579144 0.16571222 0.63816434 0.04553895 0.033494618 0.07207023 -0.115167916 -0.5644505
0.3440503 0.0929416 0.049578626 0.23961277 0.03454824 -0.028218849 -0.1909626 0.35143322
-0.1483877 0.23282254 0.21642931 0.07486439 -0.20887238 0.34275737 -0.30938828 0.29201555
0.22348371 -0.53687245 -0.17632495 0.13234629 -0.0768421 0.1840514 -0.008755294 0.14653789
-0.049531408 -0.09635022 -0.18160738 0.21893628 0.32525015 0.12835155 0.06520861 -0.12810004
-0.13904919 -0.10259133 0.08264304 0.19673675 -0.14630921 0.3645443 -0.0069956435 0.05773057
0.034561474 -0.07133517 -0.34919855 0.35251814 0.38518956 0.15350932 0.060865577 -0.0031585696
-0.004987127 -0.009802924 -0.023809914 0.36289307 -0.17001048 -0.29522872 0.19173034 -0.079807654
-0.19456774 -0.23141757 0.24587126 -0.33195683 0.41038936 -0.14665891 -0.20142876 -0.05229065
-0.16575426 0.35575134 -0.33955377 0.09262417 -0.040677007 0.04950649 0.08956772 0.19204333
-0.19448437 -0.16277461 -0.26635373 0.0517256 0.01146893 -0.00056840957 0.12830679 -0.22047094
0.15091021 0.06472774 0.08425731 0.06553834 -0.009141061 0.12144296 0.11135805 -0.048139207
-0.058459003 0.2213404 -0.07484121 0.13883418 -0.03814615 0.2414729 -0.3442688 0.29244408
0.14010826 -0.33828315 -0.20039634 -0.21011247 -0.14048734 0.0174808 -0.12483621 -0.047356613
0.063893154 -0.13871697 -0.034308426 0.036071893 -0.18709704 0.20468998 -0.09991251 -0.092701726
0.29716673 0.31496307 0.016106782 0.2798194 0.14317483 0.7237998 -0.040793464 0.11140082
-0.26412004 0.13293563 -0.30330163 0.02960646 0.13233459 -0.40090385 -0.052744973 0.2813614
-0.04679789 -0.038311824 0.19086215 -0.046146315 -0.097445674 -0.32827303 0.18517874 -0.5131483

bias f4 [20]
00000000: 3871 57be 2e73 f03e bba3 8f3e 634a 54be
00000010: 990f 133f 9fab e03d 15bb a73e b3d0 3abe
00000020: 6e7a d43c efd2 9cbe ec8a 6f3e 5971 e0bd
00000030: e71d 88be a5e5 893d f8c9 afbe a70e aebd
00000040: 6aaf c43e 4694 0f3f 14e1 cebd 7a45 78bd
-0.21039283 0.46962875 0.28054604 -0.20731501 0.57445675 0.10970234 0.3275992 -0.18243675
0.025937285 -0.3062968 0.23392838 -0.10959119 -0.26585314 0.06733254 -0.34333777 -0.084988885
0.3841508 0.5608562 -0.10101524 -0.060613133

weight f4 [20, 20]
00000000: 93c8 0b3e e93b 843c 74e6 8e3e 9e41 a4be
00000010: df66 c83e 50aa 4bbe 0ad9 e13e c018 31be
00000020: 7fc2 bc3e 377f a23d 109a 133e 07f5 98bd
00000030: a1c3 823e 6899 8c3d 7124 76bd e559 953e
00000040: 6268 943e 88c7 e03e c3eb 913e c9a3 1ebd
00000050: 0d00 693d 0737 a9bd ce68 3dbe d05f 4cbd
00000060: 4060 203e e04b be3e be43 bf3e 6556 173d
00000070: 7395 c2bd b4d4 c13d 2339 a6be e108 18be
00000080: fafd aabe 217e d33e 6313 05be d4c7 40be
00000090: 2395 9c3e 1999 833e 4399 2ebe 651e 873e
000000a0: 86b3 cfbe 282e d6be c204 f2bb 8e0f dbbd
000000b0: 1a3d 97be 0c10 ea3e 7bed 19bf cb2a ab3d
000000c0: 5282 903e 5ef0 143f dba1 2ebe 42ac 71bd
000000d0: 9e35 9dbd c7c0 423e 776a 333e 570d 97be
000000e0: 2160 b8be 832a a83e ff3e a0bd 050e 0a3f
000000f0: 8f45 10be 2c58 a5bb 885a 07be 8157 8b3e
00000100: eba3 90bc 09f7 3dbe 01cc b23d da23 5c3e
00000110: 2c06 72bb 56eb 193e 15d1 863e d664 00bf
00000120: cd62 343e 823c 413e 7a0c 13bc 74b6 413e
00000130: 9ab4 aebe 85cb 033f 5769 e63d a2b9 16bf
00000140: 882a 803e f02b 5cbe c89a bcbe eefb 2c3e
00000150: c72a 9a3e b295 e63e 45eb 89be ebea ab3b
00000160: 0fc3 5bbc 8a0d ffbd a0cb 063e db8a 4f3e
00000170: 6ade cfbd 9045 7f3e 6b87 b63a 1f30 c63a
00000180: 03d6 cbbe acdd 22bf 2e52 a5be f5eb bd3d
00000190: cfb0 0bbd 46c9 953c ae2d a93d e031 013e
000001a0: 30eb 563e 4360 2ebe f446 92be 6c99 86bc
000001b0: 5722 913e 9980 f6bc fcfa 80be ef66 03bf
000001c0: 834b 2d3e 1cdf 923d 2196 c7be d299 14be
000001d0: 1d6e 70be 6170 ca3d 975d 8f3e 01f7 833d
000001e0: 6cb5 0bbe 86c1 c13e 03c8 a1bc cf1a 93bc
000001f0: d5d8 8abe d558 fc3e 716b a3bd 87d3 cebd
00000200: 27a5 7abe 904a a53e ea0c 2bbe 3d29 9abe
00000210: 9218 283e dc94 89be a90e 9e3e 0bb5 213e
00000220: aa29 c83e 5684 eebd 3789 0b3d 2a35 8fbe
00000230: dd07 a1be 1bf0 03be 866c ebbe f1ab 8f3e
00000240: a92c 19bf 3d73 063f 8ad7 923e 885b 4f3e
00000250: 0ff8 a8bd aa36 e4bd 1315 d73e 2d25 37be
00000260: 8a1c 093e e125 5cbe 85f7 15be a5b2 3e3e
00000270: 58fb e0bc 3435 a3be 053b c9be 0ef9 b8bd
00000280: 03af 5f3e 00dd e7bd b3c1 acbe a354 62be
00000290: 2f52 743e b8f9 b23e b0fc 52be 1cc1 33be
000002a0: 09b5 823d 2c53 533b c26b 9e3d aff4 7cbd
000002b0: e665 283d 5794 a73e 10e6 9d3e eb19 013d
000002c0: 7e72 04be 4585 bfbe 97ee 613e a605 153e
000002d0: e3eb 963e 069e 033e d77e 293d 1be0 6dbe
000002e0: af78 83bd 5db8 77bd b592 7abe ea71 cb3d
000002f0: a13f 5ebd 800d 913e c05f 53be 0254 e2bd
00000300: 8214 aabe 5ef1 2b3e 8875 ab3e 3611 a1be
00000310: c6a3 36be d0ef dcbe 84c3 33be 3ecb 4c3d
00000320: 7a47 fdbd 53d3 c13e 4d80 583e 2c3e a43e
00000330: 4a66 18bd 2a9f e33d 7980 a7bd 0216 a9bc
00000340: f49d 9b3e c178 dabc dc66 84be 79c5 29be
00000350: 0eb6 8e3e 3fce a73e 3eee b83c a130 c7be
00000360: 8152 4fbe 8166 cfbe 9dd9 97bd 01ca b7bd
00000370: bd1f f03d 1dd0 ed3d 5b37 59bd 5b9f 51bd
00000380: b01d 45be 8cf3 093e 0bd2 973c af56 fbbc
00000390: 936f 8fbe 2dbe a8bd cd1f 1abe af19 f13b
000003a0: b5f7 14be 976b c6be 07be 0a3e 8f64 df3e
000003b0: db5d 04bd 22c9 61bc 928a cabd 9295 023e
000003c0: 61ad a63e 741c 8e3e e31f ef3d 2cfb d53e
000003d0: c492 883d 3139 74be 5fb7 6e3d 0a3a 05bf
000003e0: 8e2e d7bd 4e88 023e 79d8 5d3e c132 823e
000003f0: 084b acbe e8eb a13c b1d5 a0bd ede1 393f
0.13650732 0.016141849 0.27910197 -0.32081312 0.39140984 -0.19889188 0.441109 -0.17294598
0.3686714 0.079344206 0.14414239 -0.0746861 0.25539878 0.068651974 -0.060093347 0.29170147
0.28985888 0.4390223 0.28500184 -0.038730416 0.056884814 -0.08262449 -0.18497011 -0.04989606
0.15661716 0.37167263 0.3735637 0.036947627 -0.095011614 0.09464398 -0.32465467 -0.14847137
-0.33396894 0.41307166 -0.12995677 -0.18826228 0.30582532 0.25702742 -0.17050652 0.26390377
-0.40566653 -0.4183209 -0.007385821 -0.10696326 -0.29538804 0.45715368 -0.6012799 0.083577715
0.28224427 0.5817927 -0.1705393 -0.05900217 -0.07676242 0.19018851 0.17521082 -0.29502365
-0.3601084 0.32844934 -0.078245156 0.5392764 -0.14089034 -0.0050459113 -0.13218129 0.27215198
-0.017656287 -0.18551268 0.08730317 0.21498051 -0.0036929948 0.1503118 0.26331392 -0.50153863
0.17615815 0.18870738 -0.008975143 0.18917257 -0.34122163 0.5148242 0.11250561 -0.58877003
0.2503245 -0.21501136 -0.3683684 0.16892979 0.30110762 0.45036083 -0.2693731 0.0052465103
-0.013413205 -0.12453754 0.13163614 0.20267813 -0.10149844 0.2492888 0.0013925856 0.0015120542
-0.39811715 -0.63619494 -0.3228926 0.09273521 -0.034104165 0.018284451 0.08260666 0.12616682
0.20988154 -0.17028908 -0.28569758 -0.01643058 0.28346512 -0.030090617 -0.25191486 -0.5132894
0.16923337 0.07171461 -0.38981727 -0.14511803 -0.23479505 0.09884716 0.2800109 0.06443597
-0.13643426 0.3784296 -0.019748693 -0.01795712 -0.27118555 0.49286523 -0.07979477 -0.100989394
-0.24477063 0.3228345 -0.16704145 -0.30109587 0.16415623 -0.26871383 0.3087056 0.15791719
0.39094287 -0.11646335 0.034066405 -0.27970248 -0.31451312 -0.12884562 -0.45981234 0.28060868
-0.5983377 0.5251959 0.28680068 0.2024976 -0.082504384 -0.11143239 0.42008266 -0.17885275
0.13389793 -0.21498825 -0.14645202 0.18622835 -0.0274636 -0.31876528 -0.3930284 -0.090318784
0.21844105 -0.11321449 -0.3374153 -0.22102599 0.23859476 0.34956145 -0.20604205 -0.17554134
0.06382186 0.003224562 0.07735397 -0.061756786 0.041112803 0.32730362 0.30839586 0.031518858
-0.129343 -0.37406364 0.22063671 0.14552936 0.29476842 0.1285325 0.04138073 -0.2323002
-0.06419503 -0.060478557 -0.24470027 0.09933837 -0.0542599 0.28330612 -0.20641994 -0.110511795
-0.3321877 0.16791293 0.33488107 -0.31458443 -0.17835912 -0.43151712 -0.17555052 0.049998514
-0.12367149 0.3785654 0.21142693 0.32078683 -0.037206925 0.111143425 -0.08178801 -0.020640377
0.30393946 -0.026668908 -0.25859725 -0.16579236 0.27873272 0.3277454 0.02257454 -0.38904288
-0.20246316 -0.40507892 -0.07414553 -0.08974076 0.117248036 0.1161196 -0.053031307 -0.051177364
-0.19249606 0.13471812 0.018532773 -0.030680982 -0.28014812 -0.08239398 -0.15051194 0.007357798
-0.14547618 -0.3875396 0.13549052 0.43631408 -0.03231607 -0.013780864 -0.098897114 0.12752369
0.32554153 0.27756083 0.11676004 0.4179319 0.06668618 -0.23849942 0.058280345 -0.52041686
-0.105069265 0.12747309 0.21664609 0.25429347 -0.33650994 0.01976581 -0.078532584 0.7261036

bias f4 [20]
00000000: 104c 6a3e 7c05 e73e c898 5abe 6b2a babd
00000010: 2af9 dabe 846f 7fbe 348e 32be 6462 e03b
00000020: 86fe 39be 8933 00be 1ff2 3fbe 78bb 15bb
00000030: 6fce e33c 3671 703e 344d 32be df93 04be
00000040: 3651 d8bd 2fc0 09be 178d 92be 2d2f ec3e
0.22880578 0.45121372 -0.21347344 -0.09090122 -0.42768222 -0.24944884 -0.17437059 0.0068476666
-0.18163499 -0.12519659 -0.18744706 -0.0022847336 0.027808396 0.23480687 -0.17412263 -0.12947033
-0.10562365 -0.13452218 -0.28623268 0.46129742

weight f4 [20, 20]
00000000: 4159 833e bad8 a73d 185c 42be 90d1 74be
00000010: c773 bd3d 1ce8 b13d 50d6 81be c726 6bbe
00000020: ce91 9f3e 6fc2 213e 9057 24be 91ad 0e3e
00000030: 93b2 303e dca9 59be be45 0e3e 3104 35be
00000040: 51ec c53e dd5c 6dbe 65cf e13d 2a6f 81be
00000050: b96e 803d 16dc 9cbd d2c6 9a3e 700c 89bd
00000060: 6354 c7bd 8725 27be 938b a63d 7dcb 84be
00000070: 811c a03e d2c3 69be 8aae bebd dec4 02bc
00000080: 47a4 d1bd 6f2c 6ebc 5578 a5be a444 20bf
00000090: 7d89 c6bd ac4d 043f eea2 5c3e eef7 a03c
000000a0: 1953 a23e 4b21 523e 404c 1cbe 51c8 5f3e
000000b0: 3132 c3be 0e90 eebe a777 4b3e 5f9a 253e
000000c0: c88b 87bd 1300 84bd d46b 64be a0c4 193e
000000d0: 0bd8 be3e cee1 b03e 7c3a 083d c94f 7abe
000000e0: 36f9 213e 337e 90be 7079 efbe adae 5d3e
000000f0: 018f 04be b940 773e dbd3 503d f24c c6bd
00000100: 7d96 813d b3ca 13be 0bd1 3ebe ba31 df3b
00000110: 1fa5 ffbd a9d7 3ebd e626 bbbd ca25 3abe
00000120: fbba 783e 6574 0d3e 20c2 273e ca29 bd3e
00000130: 5b06 bebd 059c 9b3e d00d 4e3e 59e7 843d
00000140: b7d7 c8be c403 be3d 8b37 213f 0ffe 06be
00000150: f4fe d23d e0d4 a63c 47ee 1ebe 73bc 9fbe
00000160: 595c 7e3e b15c c63d 1454 32bd 504f 71bd
00000170: 2ecd 0abf 21af 23be faeb debe 6444 4dbd
00000180: 612b b2be de90 283f d5b0 a13e 655f babe
00000190: d0eb b5be 5b68 c13c e7dc 173e 4339 c8bc
000001a0: 91a2 a23e f768 c83c 946d 9fbe 56f3 e73c
000001b0: fd61 9f3d 2cf6 d5bd 8dfa 57be 57b0 afbe
000001c0: e4df 10be eb47 503e 73ed d8bc 0893 083f
000001d0: 8d9a 10be d6a9 18bd 1137 afbe ff33 8fbe
000001e0: 7ccc 9b3e c0ca 2a3e 74c9 ba3d 3e52 b33c
000001f0: bfbc 7bbe 3e0d 433e 9bc0 05be 9789 1d3e
00000200: 95f4 df3d d9d4 b13d 87d7 51be 4133 2d3d
00000210: a8b1 07be 9c20 933d e5de 9f3d 0087 eebd
00000220: ee88 7dbc 38f9 8a3e 3eb5 ca3c bccf 163e
00000230: b60c 7ebe a68f ed3d db9f 813e 1d6a 8cbe
00000240: 4db2 633e 2407 aa3d 3b7e 70be e6d5 2ebe
00000250: 7189 6c3d bb01 9f3e d6ff 2c3e e64c 36be
00000260: 4558 9fbe 9cec bcbd 262d aabe d0c9 00be
00000270: 6281 f9be 5dcb ac3e 2996 003f e9d7 99be
00000280: 9720 95be 4447 b1be c1e6 33be c7d8 0e3e
00000290: a2a6 e1bd 441f 0dbe b686 34be af39 b2be
000002a0: 1523 11be 7c29 a33e 9dbe a33e d631 dbbe
000002b0: bb2f 3dbe bd4c e93e e851 493d 5411 a13e
000002c0: 825d 56be b488 98be 0d28 033d 881b b5bd
000002d0: ac49 b43c df02 013f ee62 db3e ed53 13be
000002e0: dc8e be3c 29b9 46be e6c8 59bd c3cb 8c3e
000002f0: 94e3 9e3d addf f8bd e68c fbbd 5610 253e
00000300: 89b8 8ebe b0e8 c93e aa90 8ebe 1ab6 17bf
00000310: 82c0 acbe 8bb0 f73e 55ae 043e a96c a63e
00000320: a28d e5bd 43aa a8be 24cd 003f 442a d43e
00000330: 30d9 18be fc19 8c3e 6524 8b3d b78b 7abd
00000340: 1d0b 723e 84bb e3be 84ab 703e 6068 a0bb
00000350: e1d2 50be e1e5 263d 56d5 adbe b1c3 003e
00000360: 5df2 6d3e cdf0 70bd 3f10 563d c53b c2bd
00000370: 66f6 e6be b2ac 96bd ae4e 5abe 6add 133e
00000380: 71aa c9be 8d6c 033e d6d6 86be 49ed e63e
00000390: 418c 5ebe b417 04be 7623 1c3d f83e 4d3c
000003a0: 297d 413e 004a 683d b652 9e3d aa97 be3d
000003b0: e9eb 043e f199 8ebe 9523 71bd f344 07be
000003c0: 2806 70be 4ef3 7f3d 2cc5 c5bc 1f4f 9abd
000003d0: c490 4dbe 826b 963e 1dec fabd 95e4 95be
000003e0: 6c8a 16bd 7de2 52bd 9c07 ee3d 5c4a 363d
000003f0: 3288 90be 52e9 a23d be41 bcbe 7a35 413d
0.25654033 0.08195634 -0.18980443 -0.23908067 0.092505984 0.086868495 -0.2535882 -0.22964011
0.31165928 0.15796827 -0.16049027 0.13933398 0.1725562 -0.21256202 0.13893792 -0.1767738
0.38656858 -0.23179956 0.110258855 -0.25280124 0.06271119 -0.076591656 0.30229813 -0.066918254
-0.09732892 -0.1632291 0.081320904 -0.259365 0.31271747 -0.22828606 -0.093106344 -0.007981507
-0.102364115 -0.014536961 -0.3231837 -0.6260474 -0.096941926 0.5168102 0.21546528 0.019649472
0.31704023 0.20520513 -0.15263462 0.21853758 -0.3812423 -0.4659428 0.19869862 0.16172169
-0.06618458 -0.06445327 -0.22306758 0.15016413 0.37274203 0.34547275 0.0332589 -0.24444498
0.15817723 -0.28221282 -0.46772337 0.21648665 -0.12945177 0.24145783 0.05098329 -0.09682645
0.063275315 -0.14432792 -0.18634431 0.006811348 -0.12482666 -0.04659239 -0.09138279 -0.18178478
0.24290077 0.13813932 0.16382647 0.36945945 -0.09278556 0.3039247 0.20122457 0.064894386
-0.39227077 0.09278062 0.62975377 -0.13182853 0.10302535 0.020365179 -0.15520583 -0.31198463
0.24839915 0.09685648 -0.043537214 -0.05891353 -0.5421933 -0.15984775 -0.4353941 -0.05011405
-0.3479872 0.6584605 0.31580225 -0.36400905 -0.35531473 0.02360933 0.14830361 -0.024441367
0.31764653 0.024464114 -0.3113829 0.028314274 0.07782362 -0.10447344 -0.21091671 -0.34314224
-0.14147907 0.20339935 -0.026480412 0.5334935 -0.14121456 -0.037271343 -0.342217 -0.27969357
0.30429447 0.16678905 0.091204554 0.021889802 -0.2458372 0.1904802 -0.13061754 0.15384518
0.10935322 0.086831756 -0.20492373 0.042285208 -0.13251364 0.07183954 0.07806186 -0.11646843
-0.015474541 0.27143264 0.024744626 0.14727682 -0.24809536 0.115996644 0.25317273 -0.27424708
0.22235985 0.08302143 -0.23485653 -0.17073783 0.05774826 0.31056008 0.16894469 -0.17802772
-0.31122032 -0.09224817 -0.3323757 -0.12576985 -0.48731524 0.33748904 0.50229126 -0.3004754
-0.29126427 -0.34624684 -0.17568494 0.13949881 -0.11018111 -0.13781458 -0.17629513 -0.34809634
-0.14173539 0.31867588 0.31981364 -0.4281146 -0.18475239 0.4556636 0.049150378 0.31458533
-0.20934108 -0.29791796 0.032020617 -0.08843142 0.022007786 0.50395006 0.42848915 -0.14387484
0.02326148 -0.1940657 -0.053170107 0.27499208 0.07758251 -0.12152038 -0.122827336 0.16119513
-0.27875164 0.3943534 -0.27844745 -0.5926224 -0.33740622 0.4837688 0.12957127 0.32504776
-0.11208655 -0.329424 0.5031302 0.41438496 -0.149266 0.27363575 0.06794051 -0.0611684
0.23637052 -0.44479 0.23502928 -0.004895255 -0.20392944 0.040746573 -0.33951825 0.1257465
0.23236986 -0.058823396 0.052261587 -0.094840564 -0.45109862 -0.07357158 -0.21319076 0.14439932
-0.3938785 0.12834378 -0.26335782 0.4510291 -0.2173319 -0.12899667 0.038119756 0.01252722
0.18895401 0.056711197 0.077306196 0.093062714 0.12980618 -0.27851823 -0.058871824 -0.13209896
-0.23439848 0.062487893 -0.02414187 -0.075346224 -0.20074755 0.29378897 -0.12252066 -0.29275957
-0.036753103 -0.051485527 0.11622545 0.04450451 -0.2822891 0.079546586 -0.36768907 0.04717014

bias f4 [20]
00000000: 11fe 283e 5f62 d13d 2fff 6f3e 98bf 853d
00000010: 099c babd 9de8 10be 0504 e0bd fc6d b73d
00000020: 97aa a2be 0626 173f c4f0 5bbe c7cf 1e3d
00000030: 1d27 5f3e ae82 583e 67ee cc3e 5aaf 323e
00000040: 16d4 55be 2220 f73d 2aae 09bf 92f8 513d
0.16503169 0.10223841 0.23437189 0.06530684 -0.091117926 -0.14151235 -0.10938267 0.08956525
-0.31770775 0.59042394 -0.21478564 0.03877237 0.21792264 0.211436 0.40025637 0.17449704
-0.20881686 0.12066676 -0.5378138 0.051262446

weight f4 [20, 20]
00000000: f3f7 8c3e 2c5e a33e 956e 42be bdc3 8f3e
00000010: 63cd 01bd 58d2 123d 69e2 623e 0892 2f3e
00000020: 2d06 c3bd 9fea 8a3e 99bb d0bb 5676 fc3d
00000030: 357a 4d3e 9773 c13d 2ca4 58be 7f7c 073e
00000040: 842f 8b3e ba86 283d 5696 d83c 6749 15bf
00000050: 5807 bfbd f446 c93e 58af 9cbe 0ed7 a8be
00000060: b374 df3d 4560 b73e 2028 fd3b 25c8 153e
00000070: 6601 ff3d 580c 2e3e 401f 823d b2ad b0be
00000080: cb0c d13e f121 debd 892c 8fbd 3ef2 8e3c
00000090: edfb 443e 0523 babe f4f0 8b3e 1573 9a3e
000000a0: 440f aebe 75c3 b2bd d988 01be 97b5 82bd
000000b0: fb21 9cbe ed94 08be efad a03d 65ef 86be
000000c0: 3208 debd 782e 393d 8035 66be 98c0 d8bd
000000d0: 2ba0 a0be 3466 04be 8e5e 0f3e 23ff ed3d
000000e0: e98d 843e 505e 66bc e616 28be d7b2 553e
000000f0: e531 a5bd 6328 e13c 7640 85be fd93 683d
00000100: faa5 bbbc 0423 b4be c468 64be c09e 3abb
00000110: 385c 33be d55a ad3e 2224 0ebe 4c8a 9c3e
00000120: 88ef 91be 02ec a23e c1a6 3c3e 96de b8bd
00000130: a557 03be e6a9 873e 3bcc ccbe fab0 10bf
00000140: 25b9 4cbe 3812 97be aa08 bd3d 7fa7 bdbd
00000150: 851f 19bf 0771 d83d a919 54be 63f9 8abe
00000160: fc62 5d3e 2721 75be 4122 963e 175f 653d
00000170: cb0d 96bd 5b6b f1bd 4d92 3ebe a93e 90bd
00000180: b233 d7bd 3b54 31bd bbbe e1be 4c9d 963e
00000190: 98a3 6fbe fcfa e4bd 6cd1 d5be e185 973d
000001a0: 4537 33bf 56dc 07be d725 e2bb 0ad0 bdbe
000001b0: 95be b33e d437 2fbe 4fd3 b13c 2ab9 873e
000001c0: f7a1 fcbd 7621 71be bcd9 a13d 65ad b63e
000001d0: 3ae1 ec3d c065 21bd 045b 7bbd 5af4 233f
000001e0: 3deb 86be 9883 933c 7a02 f1bd d02e cc3d
000001f0: c72a 6b3e ad50 433e 8d59 5d3e 6803 5fbe
00000200: 58bb 993e 6255 0abc 921a 373e 3061 61bd
00000210: 9a43 7fbd b9d3 93be 1e52 593e 385d c4be
00000220: 01a3 cdbd a804 cdbe 720f 893d 768e 253b
00000230: 8901 08bd 82e8 dfbd aadb e1bd b4eb 28be
00000240: d8ac 853d 7b68 853e 02f4 3bbd bcb5 b9be
00000250: 4f4e 8d3e 7bfe 1ebe 1232 933e db90 3cbe
00000260: aca5 c03e 2adf c3be 84a1 733e 6fba 433e
00000270: 3b5d dfbe 8488 92bd 8374 28bd a300 253f
00000280: 731e a3be 5de3 2b3e 7bf3 55bd 26f2 3c3e
00000290: 5a85 153f 44a4 cb3e ab8d 373e 4bda 163f
000002a0: b77f fc3e b59e ba3e 1b2a 97bd 0d59 bfbe
000002b0: defa 563e 0aff f4bd 6093 3ebe 5031 af3e
000002c0: 37bb de3e b4f9 04bf 0254 a93e afff b7bd
000002d0: 3d18 42be 22f6 d2be 2bf2 cdbd 9b43 af3e
000002e0: 3cc5 a33d 32ee 1a3d 3d63 1bbd 1764 3dbe
000002f0: 716c be3d bb4a 63be bfd5 a33a a061 c93b
00000300: e671 cfbe a25b 64be 3463 1cbe bc86 18bf
00000310: d2fe d53d f2f7 b8be efd1 78be 9aeb a33c
00000320: 624c e73e d9fd b63e 7ba6 be3e bbd6 173e
00000330: d021 eabd 3781 9fbe 47f1 a53e c42a 9dbc
00000340: 436e 9fbe 0078 023f 0f20 b3bd f4e7 9dbe
00000350: 0ff4 a5be f407 ba3e b740 66be 67ab 773e
00000360: dfe0 08bd a864 c2ba 292c 56be 2a8c f4be
00000370: fe33 043e ae54 683c 0a47 d63e c227 c13d
00000380: d3e0 a3be f0ea 793e ccd6 20bd ea6c a7be
00000390: ff1c 8f3e feed aabe 62a9 a83e fbce 983e
000003a0: d173 603e e602 04be 6d48 c3be b5c5 5f3e
000003b0: 9ee5 243e 6829 27be 0760 dc3e fd38 c8bc
000003c0: 4c12 1a3f c663 1cbf caec d83e 0c27 343e
000003d0: 3f93 0dbf 03a0 dcbe 4644 dfbe bd6c cdbe
000003e0: 5369 603e 2ffe a53d 4cfc 10bf 21af 3d3e
000003f0: fc31 cfbe 0104 a23e 9101 b33e c8f2 6cbe
0.2753292 0.31907785 -0.18987496 0.28079024 -0.031690013 0.03584513 0.22156681 0.1714555
-0.09522662 0.27132127 -0.0063700196 0.12327258 0.2006615 0.09445875 -0.21156377 0.13231085
0.2718469 0.04114411 0.026438873 -0.5831513 -0.093275726 0.39311945 -0.30602527 -0.32976574
0.109109305 0.35815635 0.0077257305 0.1462713 0.124514386 0.16996896 0.06353617 -0.3450752
0.40830073 -0.108463176 -0.06990916 0.017449494 0.19236727 -0.36354843 0.2733227 0.30165926
-0.33996022 -0.08728687 -0.1264986 -0.06382292 -0.30494675 -0.1333806 0.07845675 -0.2635452
-0.10841407 0.04521033 -0.22481346 -0.10583609 -0.31372198 -0.12929612 0.14000914 0.11620929
0.2588952 -0.014060572 -0.16414985 0.20869003 -0.08066157 0.027485078 -0.26025742 0.056781758
-0.022906292 -0.35182965 -0.2230559 -0.002847597 -0.17515647 0.33858362 -0.13880971 0.30574262
-0.2850306 0.31820685 0.18422987 -0.0902683 -0.12826402 0.2649681 -0.39999565 -0.56520045
-0.19992502 -0.29506087 0.09230168 -0.09260463 -0.5981372 0.10568433 -0.20712914 -0.27143392
0.21619791 -0.23938428 0.2932301 0.055998888 -0.073268496 -0.117880546 -0.18610497 -0.070432015
-0.10507907 -0.04329322 -0.44090828 0.29416883 -0.2340225 -0.11180684 -0.4176134 0.07398582
-0.7000621 -0.13267645 -0.0069014835 -0.37072784 0.3510634 -0.1711114 0.021707205 0.26508456
-0.1233558 -0.2354792 0.07902858 0.35679165 0.11566396 -0.039403677 -0.061366096 0.64044726
-0.26351348 0.018007085 -0.117680505 0.09969866 0.22965537 0.19073744 0.21616192 -0.21778643
0.30025744 -0.008443208 0.1788123 -0.055024326 -0.06232033 -0.2887247 0.21222731 -0.3835237
-0.10040856 -0.40042615 0.06692399 0.0025261915 -0.03320459 -0.10933019 -0.11028226 -0.16496164
0.06527108 0.26056275 -0.045887 -0.36271465 0.27598807 -0.15526764 0.28749138 -0.18414633
0.37626398 -0.38256198 0.23792082 0.19114088 -0.43625817 -0.071549445 -0.04112674 0.64454097
-0.31859168 0.16785951 -0.052234154 0.18451747 0.58406603 0.39773762 0.17925136 0.5892684
0.4931619 0.3644921 -0.07381078 -0.37372628 0.20994136 -0.11962707 -0.18610907 0.3421731
0.4350221 -0.51943517 0.33071905 -0.08984315 -0.18954559 -0.4120341 -0.100559555 0.34231266
0.07996604 0.037824817 -0.037936438 -0.18495212 0.09298027 -0.22196476 0.0012499614 0.006145671
-0.40516585 -0.2230058 -0.15272218 -0.5958059 0.10448994 -0.36126667 -0.24298833 0.020009805
0.45175463 0.35740545 0.3723639 0.14828007 -0.114322305 -0.3115327 0.32410643 -0.019185431
-0.3113881 0.50964355 -0.08746349 -0.3084103 -0.32412764 0.36334193 -0.22485624 0.24186479
-0.03341758 -0.0014831023 -0.20915283 -0.47763187 0.12910458 0.014180345 0.41851074 0.09431411
-0.32007465 0.24406028 -0.039267346 -0.32700282 0.2795181 -0.333847 0.3294173 0.29845414
0.2191918 -0.1289173 -0.38141194 0.21852763 0.16103217 -0.16324389 0.43042013 -0.024441237
0.6018417 -0.6108974 0.42368156 0.1759302 -0.55302805 -0.4309083 -0.43606776 -0.40122023
0.21915178 0.08105122 -0.56634974 0.18523838 -0.40467823 0.3164368 0.34962133 -0.23139489

bias f4 [20]
00000000: 4fbf 823e dac7 063d 19e4 c7be 8b92 1e3e
00000010: d277 92be 553b b63d 2f96 9cbe bbdc 9fbe
00000020: cb1d eabd de6b 04be e3fd 8a3e 2d94 87be
00000030: 1eee 9f3e 8aa4 98be a480 f0be b6d9 673e
00000040: 0fdc 79bc a01d f2bc a9f6 e4bc dfef 893e
0.25536582 0.032905437 -0.39041212 0.15485589 -0.2860704 0.088980354 -0.3058333 -0.3122309
-0.11431464 -0.12931773 0.27146825 -0.26480237 0.31236356 -0.29813033 -0.46973145 0.22641644
-0.01525022 -0.029555142 -0.027949648 0.2694082

weight f4 [20, 20]
00000000: 4ced 14be 24ac 583d 5337 08be 7d26 c93d
00000010: 6aac 9cbe 0634 85be 0e15 103e 759f a6be
00000020: 2548 eb3e b8c3 e63d 0748 933e ce39 593d
00000030: 13e6 15bd adfb 66be 2968 b0bd 91df f13e
00000040: e572 29be f979 543e b757 77be 68fe 3bbe
00000050: aacd 9f3e 5710 fe3e 945a c23d dc3b e63d
00000060: eb49 39be 6265 973d 8ae6 2fbe 2962 4fbe
00000070: 7783 873e fc3d d03d 49bf 6a3e 77f6 87be
00000080: d67f a1be 1959 2b3c f89c d7bd ce5d 083c
00000090: e1a1 793e 74dd 4c3e c2ac 833e 7824 0a3e
000000a0: 3952 b1be fb06 4bbe 6968 f13e 88b6 363e
000000b0: ac01 a23e 2114 c33d 0e42 b4bc d465 913e
000000c0: 37b9 1dbc 8172 1c3e 4747 0dbe 2702 dc3d
000000d0: f313 55be 80c0 e13d 44bf ae3e 0922 b33e
000000e0: aa20 1d3d e58f b53d 1410 8ebe 5e76 fd3d
000000f0: 593f 913d e967 853d fc1a 9c3e 8cf2 cdbe
00000100: e226 823e 0188 84bd a7b0 31be cb6b a03d
00000110: b532 debc 3e2e bc3e 339c f5be 69b1 9a3e
00000120: a72d 6b3d 1232 333e 8e39 273e a5fe e23b
00000130: c97a a73e f477 05be 3967 d5bd c9fd d4be
00000140: c4db c23d 8e34 c43c abc0 963e 033d 613e
00000150: a6a0 de3e 18b6 60be 33cf 013e 9f32 5b3d
00000160: 7c45 803e 8bd0 2d3b 6e03 24bd 1af8 8e3e
00000170: b840 9ebe 4be6 193d 1723 853e 719f efbe
00000180: ae46 2dbe 4b36 46bd 56da 883d a789 4a3e
00000190: ada7 0f3e 50ea 5bbe ee65 2e3d 943f 953d
000001a0: bbc0 f9be 2c70 adbc 13fa 113e daae c23e
000001b0: b9ee 0ebe 5a1c e7be 18dc ff3e c143 903e
000001c0: 43fb dbbe 8852 88bd 71ea 2b3c 6fb0 583e
000001d0: 6ab5 223d 8fe9 46be 62a0 7bbe e5aa 783e
000001e0: c1bd 04bf dfea 82bc 2022 773e bf47 363e
000001f0: 080d 2bbe bb0c 61bd 667a ffbe 94dd d0be
00000200: 5b5a 513d 2bf1 40bf 94f3 c53e ca34 f73d
00000210: 6d59 b63d 69bc 0fbf 266f 233e 2458 69be
00000220: 1db7 e4bd 97c7 76be 9318 04be 5209 26be
00000230: 04e8 2d3f e309 99bd f875 8abe a1d5 0bbd
00000240: 484b 14bf 3ed7 babd f903 353e 09a9 37be
00000250: 2cd2 c0bc 0c04 34be fbc9 8a3e 4b44 f6be
00000260: 90f2 ebbe 529d 943e 007f d8be 1a87 153d
00000270: 3923 bfbd 2ae3 c23e 7cfa 283e 7866 373d
00000280: b87c a0bd 3b33 5c3d aed0 793d 993c 0a3e
00000290: 866a 03bf a6cf ebbe f670 3d3d cb5e 9fbe
000002a0: 3de8 e53e e31a 30bd e0a7 903e 1ab2 523e
000002b0: cdcb babe 299f e6bc 63dd 023e d909 fdbe
000002c0: bc37 adbd aa66 1abd 7be5 45be f8a3 b4be
000002d0: 1988 1c3d 6956 783d c1a0 e8bd 8757 5cbe
000002e0: 2d28 b63e ba6d a63e cbc2 7b3d ce04 b63e
000002f0: 82c0 b0be f87f dbbd 939f e1be 2a84 433e
00000300: 1df4 e63e b648 aabc ed86 0c3f ece7 b03e
00000310: e257 433e 85db 97bd 24a2 d8bd 4b7c 74be
00000320: 9983 9bbd 2fc5 afbe 508a 13bd f370 b9bd
00000330: 21c1 833e 8a79 79be 665e 9abb a08b f13d
00000340: d685 383e 46a8 b63d 5504 6dbe cc6e 64be
00000350: 158b 1f3e d5fd 60be 28b4 b73e f715 433e
00000360: 6f12 1b3e 5473 d7be 6019 b43e 5edb 61bd
00000370: 957e 273e 0a3f e4bd d140 903e 38b2 75bc
00000380: dc1d 75be 27c7 81be 6362 b6be 9a23 82be
00000390: 5abf 843e 248c 9dbd 7b92 1d3f c979 173d
000003a0: be2d 4ebd 7ce7 83be 0417 9abd 8014 5dbe
000003b0: c76f 3cbe d61d 423d 25c6 323e b91d c93d
000003c0: 4c05 dbbd f80d 4c3e 4d6b a2bd 6431 58be
000003d0: e6bf 823e 3855 cf3e e4a8 ae3e 4ac0 963e
000003e0: 11e5 15bf 7583 9ebe df17 06be 9a7b aebe
000003f0: 2af5 7e3e 845f a43d 7b8a 7cbe 6e79 04be
-0.14543647 0.05289854 -0.13302355 0.09821794 -0.30600291 -0.26016253 0.14070532 -0.3254353
0.4595348 0.11267799 0.2876589 0.053033642 -0.03659637 -0.22556944 -0.08613617 0.4724088
-0.16547735 0.20749654 -0.24154554 -0.18358767 0.31211597 0.4962184 0.09489933 0.11241886
-0.18094604 0.07392384 -0.17177787 -0.20252289 0.26467487 0.101680726 0.22924532 -0.26555225
-0.31542844 0.010458254 -0.10527986 0.008323146 0.24378158 0.20006353 0.2571774 0.13490474
-0.34633043 -0.19826882 0.4714997 0.17843068 0.316419 0.09525324 -0.022004154 0.28398
-0.009626678 0.15278055 -0.13796721 0.10742598 -0.20808391 0.110230446 0.341303 0.34986904
0.03836123 0.08865336 -0.27746642 0.123760924 0.07092161 0.0651396 0.30489337 -0.4022411
0.2542029 -0.06471253 -0.17352544 0.0783306 -0.027123788 0.3675403 -0.47970733 0.30213478
0.057416584 0.17499569 0.16330549 0.0069273286 0.32710865 -0.1303404 -0.10420079 -0.41599873
0.09514573 0.023950841 0.2944387 0.2199593 0.4348194 -0.21944463 0.12676696 0.053515073
0.25053012 0.0026522006 -0.040042333 0.2792366 -0.3090875 0.03757314 0.26003334 -0.46801332
-0.16921493 -0.04839162 0.06682269 0.19779073 0.14028807 -0.21476102 0.042577676 0.07287517
-0.48779854 -0.021171652 0.14255552 0.38024026 -0.13958253 -0.45138818 0.49972606 0.28176692
-0.42965135 -0.066563666 0.010492907 0.21161054 0.03972379 -0.19425033 -0.245729 0.24283941
-0.5185204 -0.015981136 0.24134111 0.17800806 -0.1670419 -0.05494378 -0.4989807 -0.4079405
0.05111156 -0.75367993 0.38662398 0.120706156 0.08903775 -0.56146866 0.15960369 -0.22787529
-0.111677386 -0.24099575 -0.129 -0.16214493 0.6793215 -0.07472589 -0.27043128 -0.03413928
-0.5792737 -0.091230854 0.17677297 -0.17935576 -0.023537718 -0.17579669 0.27107224 -0.48098978
-0.46083498 0.29026276 -0.42284393 0.036505796 -0.0933289 0.38063937 0.16501802 0.044775456
-0.07836288 0.053759795 0.060990028 0.13499679 -0.51334417 -0.4605686 0.046250306 -0.3112701
0.44903746 -0.04299439 0.28253078 0.20575753 -0.36483613 -0.028152065 0.12779765 -0.49421576
-0.08457896 -0.037695564 -0.19325821 -0.35281348 0.03821573 0.060629282 -0.113587864 -0.21517764
0.35577527 0.3250559 0.061465066 0.3555054 -0.34521872 -0.107177675 -0.44067058 0.19093385
0.4510812 -0.020786624 0.5489338 0.34551942 0.19076493 -0.07414917 -0.10577801 -0.23875539
-0.0759346 -0.34330127 -0.036020577 -0.090547465 0.25733283 -0.2436277 -0.00471096 0.117942095
0.18019804 0.08918814 -0.23146184 -0.2230789 0.155804 -0.21971829 0.35879636 0.19051348
0.1514375 -0.42080176 0.3517561 -0.055140845 0.16356881 -0.11144836 0.2817445 -0.014996104
-0.23937172 -0.25347254 -0.35621938 -0.25417787 0.2592724 -0.07692745 0.61551636 0.036981378
-0.050336592 -0.25762546 -0.07523921 -0.21589851 -0.18402015 0.047391735 0.17458399 0.09820122
-0.1069437 0.19927204 -0.07930622 -0.21112591 0.25537032 0.40494704 0.34113228 0.2944358
-0.5855265 -0.3095967 -0.13095044 -0.34078676 0.2489821 0.08026031 -0.24662201 -0.12936947

bias f4 [20]
00000000: dd02 a73e 4d35 923d 4701 68be 10b2 bbbe
00000010: cb70 24bd 166e 9b3d e392 03bd a0df bd3e
00000020: 611c 6dbe deae cbbd 2dc7 a1bd fb1c 5f3e
00000030: b6c4 08bb 82f1 ddbd fe80 a6be 2735 bc3e
00000040: 9dc1 9d3e eb09 e9bd a3f0 cfbe 2f5a 6c3e
0.32619372 0.071390726 -0.22656737 -0.36659288 -0.04014663 0.075893566 -0.032122504 0.37084675
-0.23155357 -0.09945463 -0.07899318 0.21788399 -0.0020869202 -0.108370796 -0.32520288 0.36759302
0.30811778 -0.11378845 -0.4061328 0.23081277

weight f4 [20, 20]
00000000: a335 c33d 889d 5abe 13cd 933c df5d 95bc
00000010: 1d05 f8bd 8080 b2be 5cbe 92be 0e4e 773e
00000020: 21b9 08bf 98cd 053f f58b 52bd 51ce ffbe
00000030: 6e8c 4b3e fd9b 31be 0554 043e 7be9 8d3c
00000040: bf45 e5be a0e6 c73e 4820 763e f47c a5bd
00000050: 7916 bd3d 2d78 62be 80a3 883e 2c9c e63d
00000060: 8e30 d53e 0ad5 00be 7be9 803d cb24 b0be
00000070: 80e6 0c3e 682f 0f3f edf0 06be 5df4 953c
00000080: 613a ec3e aa75 9fbe ccb2 afbd a597 0cbf
00000090: 02f5 2fbe 67f6 293f e9fe 853d eabf c4bc
000000a0: d61d efbd 566c 9abe 0c4b fa3e 88ce ee3d
000000b0: a21d 883e db7d aa3e aa62 a7be 579f ecbe
000000c0: dd20 fcbd 4008 9cbd 7946 cf3d bd70 9abd
000000d0: c196 633e 4991 adbe e90a 153e 00c9 ddbe
000000e0: 96ba babe c5f4 3a3e 2d0b 20bd fae7 6cbe
000000f0: 426f 4c3c a864 953e 029b e23d 0f9d d5bd
00000100: 00d6 c7be 9ed2 19bd 40cd e13d 7cee 993e
00000110: 1606 053f 2bfd 55bf 0531 babd aaf8 ee3e
00000120: 064a 17be ae7e b43e 2a31 56be 873a 95be
00000130: 10a3 143d 879f 49bd fdf5 f3be 07c4 09be
00000140: 43fe 2b3e f627 523e 989c 523d 8ce2 173c
00000150: 797f 21be 3a96 6c3e 4e8b d73e 82ba 2d3f
00000160: 3627 4d3d 5f56 4cbf 6549 65be 39fd 1b3e
00000170: de44 ab3e 47ed 993e 05c5 b4be 8baf 7d3d
00000180: c071 16be 38fa bcbe 8afd fb3d 6916 a83e
00000190: d29c 30be d82b 24be 0303 273d a6e5 303d
000001a0: aee2 fd3c 6921 0dbe 1e94 52be 53cc 14be
000001b0: a0b3 f9be 16f9 933e 87f2 5f3e 090c 9cbd
000001c0: 32e9 943e 81c1 2bbf 9d82 e23d d024 6e3d
000001d0: d5b5 af3d 6d7e 823f 801c 563e 5210 bc3c
000001e0: 5bc0 153f ee70 c03e 5050 9dbe dea5 ee3d
000001f0: ff9a 64be f6ce 093f 519b d93d cbbe eb3e
00000200: d08e 1ebe 009d abbe 8c44 21bc 9163 a93e
00000210: 9a19 95be 9f53 533e 9e04 78be 6837 733e
00000220: 7942 8e3d 022e d2bc 8d23 7bbd 7b4b a03e
00000230: 7ea6 cfbe 7b4c 14bf 57e0 b9bd 2b79 643e
00000240: cf4e 9a3e f890 9e3d 71de d23e 732f 74be
00000250: 2100 b43c cfff c23e 93e6 bf3e 9abd 0bbf
00000260: 6062 f2be 462a 0abd 4f93 013e 9c16 0f3a
00000270: 3b25 fdbc 9622 873e 59bc 253f 2bd8 b3be
00000280: 5570 7fbe be8f 48be 51a2 b03e e25c b23e
00000290: d5a9 203e 4608 afbd 7ac4 333e 94c1 02bf
000002a0: 8a96 e5be 4cd9 973d 8176 febd b8d5 d43c
000002b0: 5a96 ff3e 8b2d 3abf 5949 013d d99e 273e
000002c0: 64cd 45bd 19c3 a63e 16d6 283e 4aa4 e6bd
000002d0: 5657 0e3d 4db9 3b3f 1449 25bf 6dda 73bf
000002e0: 1ee9 773e 0918 803e 997a 093f 823e 123f
000002f0: 3086 ad3e 9774 c8bd d42a 52be df63 5d3f
00000300: 2c3e f6be bb09 d13d c23f f8be 94da 3f3e
00000310: 33bb 623f d4dd 9fbe 044d dcbe 8f7a 0c3f
00000320: d314 88bd 0bd8 7cbe 7d9e 8b3e 034b a7bd
00000330: 8a36 bebe 5ffa 36bf 76de cd3d e5cf 85be
00000340: 9fde 3cbe 9e82 3c3f 4d9f bd3d c109 cbbe
00000350: efa5 8c3e 54a7 83be 7b3d e93e 420f f2be
00000360: d6e6 98bd dc01 80bd 97e1 0b3f 02df e93c
00000370: 3238 3e3e 2a58 97be ead7 a13e 544a 2bbc
00000380: 9a81 9c3e 1620 e83e d375 c2be 94dd 49bf
00000390: a0c2 563d ff1d 6f3e 1be9 de3e d915 bf3d
000003a0: b3ad fb3e 1c5d 5c3e 661a ab3e a012 d8bc
000003b0: 7826 13bf f036 fd3e 2c9d a23d 6c04 0bbe
000003c0: 7f10 d63e c3d7 c23e e2ed 0dbe c6d4 0ebe
000003d0: 02d5 323d 6d6c 333d 35f5 913e 8bed 6bbd
000003e0: c8ce db3e 27f4 0ebd ee39 e13a 2054 073f
000003f0: b845 853e f226 ba3d fc48 5bbe d960 0d3f
0.09531715 -0.21349156 0.018042123 -0.018233238 -0.1211035 -0.34863663 -0.28660858 0.24150869
-0.53407484 0.52266836 -0.051403005 -0.49962094 0.19877788 -0.17344661 0.12922676 0.017323246
-0.44779775 0.3904314 0.24035752 -0.080804735 0.09232802 -0.22116156 0.2668724 0.11260256
0.41638607 -0.12581268 0.06294533 -0.3440307 0.13759804 0.5593171 -0.13177843 0.018304998
0.4613829 -0.31144458 -0.08579025 -0.5491889 -0.17183307 0.66391605 0.06542761 -0.024017293
-0.11675613 -0.3016078 0.4888538 0.116604865 0.26585108 0.33299145 -0.32692462 -0.46215317
-0.12310956 -0.07618761 0.101208635 -0.07541034 0.22225477 -0.33899906 0.14554943 -0.43317413
-0.3647048 0.18257435 -0.039073158 -0.23135367 0.012477698 0.29178357 0.11064722 -0.10430347
-0.39030457 -0.037554376 0.110254765 0.30064762 0.5196241 -0.8358943 -0.09091381 0.4667409
-0.14774331 0.352529 -0.20917192 -0.29146215 0.03628832 -0.049224403 -0.47648612 -0.13453685
0.16796212 0.20523056 0.05141887 0.009270322 -0.15771283 0.23104182 0.4209847 0.67862713
0.050086223 -0.7981929 -0.22391279 0.15233316 0.3345098 0.3006384 -0.35306564 0.06193499
-0.1469183 -0.36909652 0.12304218 0.32829598 -0.17247322 -0.1603235 0.040774357 0.04318776
0.030991878 -0.13782276 -0.20564315 -0.14531069 -0.48769855 0.28900975 0.2186986 -0.07619483
0.29084164 -0.6709214 0.11060069 0.058140576 0.085796036 1.0194832 0.2090931 0.022957
0.58496636 0.3758616 -0.30725336 0.116527304 -0.22324751 0.5383142 0.106253274 0.46044
-0.15484166 -0.3351822 -0.009843003 0.33083776 -0.29121095 0.20637368 -0.24220511 0.23751605
0.069462724 -0.025656704 -0.0613132 0.31307587 -0.4055671 -0.579292 -0.090759926 0.22311847
0.3013825 0.07742494 0.41185334 -0.23846225 0.021972718 0.3808579 0.37480602 -0.54586184
-0.4734068 -0.03373172 0.1265385 0.0005458386 -0.030901542 0.26393574 0.6474052 -0.3512586
-0.24945195 -0.19586083 0.34498838 0.3483649 0.15689786 -0.085465 0.17555419 -0.51076627
-0.44841415 0.07414493 -0.124249466 0.025980815 0.49919397 -0.72725743 0.03156409 0.1636919
-0.04829158 0.32570723 0.16487917 -0.112618044 0.03475126 0.7332962 -0.64564633 -0.95255166
0.24210021 0.25018337 0.53702694 0.5712663 0.3389144 -0.09787863 -0.2052415 0.86480516
-0.48094308 0.10206934 -0.48486143 0.18735725 0.88566893 -0.3122393 -0.43027508 0.5487451
-0.06644597 -0.24691789 0.27269354 -0.08168604 -0.37150985 -0.71475786 0.10052197 -0.26135173
-0.18444298 0.73636806 0.092589 -0.3965588 0.27470347 -0.257136 0.45554718 -0.47277266
-0.074659035 -0.06250355 0.546411 0.028548721 0.18576124 -0.2955945 0.31610042 -0.010454733
0.30567628 0.4533698 -0.37980518 -0.78853726 0.052431703 0.23351286 0.4353722 0.09330339
0.4915596 0.21519893 0.33418578 -0.026376069 -0.57480574 0.49455976 0.079401344 -0.13575906
0.4180946 0.38055238 -0.13860276 -0.13948354 0.04366017 0.043804575 0.2850739 -0.057599586
0.429312 -0.03490081 0.0017183402 0.5286274 0.26029754 0.090894595 -0.2141456 0.552259

bias f4 [20]
00000000: 9afa bf3c bb14 e4be 5222 6fbe 59c2 753d
00000010: ef24 f53d b756 cdbc 1f53 2f3f 3bff 8bbe
00000020: 6f73 1bbe 9a0a 703f 0545 b6bd f69a 17be
00000030: 6b4b 04be 85e5 fbbe a082 55be 1f34 a0bd
00000040: 948f 4f3e fb39 173f 6250 fdbd 857b 48be
0.023434926 -0.44547066 -0.23352936 0.059999797 0.11969935 -0.025065763 0.6848621 -0.27343163
-0.15180753 0.93766177 -0.08899883 -0.14805207 -0.12919395 -0.49198547 -0.2085061 -0.07822441
0.20269614 0.59072846 -0.123688474 -0.19578369

weight f4 [1, 20]
00000000: ba80 57c0 313b 26c0 61f6 18c0 34b4 0d40
00000010: 2781 2540 073f 01c0 47ce 3a40 5f76 25c0
00000020: 61dc 28c0 c1e5 c740 297d 33c0 21ff 34c0
00000030: 5f69 f93f 787f 47c0 f04b 90bf de8d 2140
00000040: ce49 2440 d28d 3340 9fb7 3a40 f1f8 0dc0
-3.3672318 -2.5973628 -2.3900378 2.2141237 2.5860078 -2.019472 2.9188402 -2.5853498
-2.6384509 6.246796 -2.8045142 -2.8280718 1.9485282 -3.117155 -1.1273174 2.524284
2.5670047 2.805531 2.9174573 -2.2183192

u_b f4 [2]
00000000: cdcc 8c3f 0ad7 1f42
1.1 39.96

l_b f4 [2]
00000000: cdcc cc3d 0000 0000
0.1 0.0
