Models/Noise_0/toy_nostop/weak_ff_200.pt (torch, 39071 bytes, 23 tensors)

weight f4 [20, 2]
-0.30641124 0.2821159 -0.3939975 0.0066209105 -0.012959475 -0.20450112 -0.054759037 0.82091177
0.0060542156 -0.4234782 0.4414016 -0.37020272 0.4780484 -0.02013979 0.06728344 -0.22774515
-0.34791726 0.13541606 0.0538015 -0.058979116 -0.15035248 0.16566391 0.22320989 -0.009212512
0.31334203 -0.40530887 -0.37928176 0.09207241 0.3254071 -0.5963186 0.46138015 0.0034395214
0.50576603 -1.2677789 -0.7177512 -0.17238927 0.12258621 -0.06579312 -0.0055976864 -0.0621143
00000000: efe1 9cbe 7f71 903e 0aba c9be 39f4 d83b
00000010: fa53 54bc be68 51be 034b 60bd 4627 523f
00000020: 7162 c63b 22d2 d8be 64ff e13e 368b bdbe
00000030: c3c2 f43e 33fc a4bc e6cb 893d 0636 69be
00000040: 3622 b2be 82aa 0a3e f65e 5c3d 1694 71bd
00000050: 00f6 19be cda3 293e 2291 643e 13f0 16bc
00000060: 5e6e a03e a584 cfbe 3831 c2be 7690 bc3d
00000070: c29b a63e 56a8 18bf 053a ec3e 9869 613b
00000080: e279 013f 9446 a2bf 8bbe 37bf d086 30be
00000090: 7b0e fb3d 8bbe 86bd cc6c b7bb 906b 7ebd

bias f4 [20]
0.040061787 -0.052268967 0.5371928 -0.56277156 0.4866196 0.24017702 0.6056819 0.33014306
0.006038752 0.41944596 -0.010780145 -0.024699198 0.26409268 0.112479046 0.48359317 -0.19656195
-0.26214033 -0.08368642 -0.23648962 0.17873268
00000000: d417 243d fc17 56bd 7885 093f cc11 10bf
00000010: 3426 f93e f7f0 753e f80d 1b3f 8308 a93e
00000020: b9e0 c53b 9fc1 d63e 359f 30bc f955 cabc
00000030: 2837 873e 6a5b e63d 8699 f73e 8947 49be
00000040: 4237 86be c963 abbd 562a 72be b305 373e

weight f4 [20, 20]
0.25334927 0.09899728 -0.09750884 -0.047669988 0.19064634 0.036255274 0.153033 0.21304081
0.27997908 0.31811294 0.3386679 0.0042139674 0.23648748 0.17466111 0.54919255 -0.21013364
0.07847823 -0.13914458 -0.16344246 0.10268527 0.277929 0.20132947 0.06917044 -0.13945882
-0.13599841 -0.5274922 -0.39992577 -0.26940125 0.26766703 0.022797545 -0.03793861 -0.08642778
-0.21292993 0.20520023 -0.24250816 0.017109772 0.15201908 0.29875168 0.010740571 -0.018141396
0.3350866 0.08679845 -0.26627895 -0.41638073 0.6192846 -0.030783083 -0.103535935 0.26938474
0.16006528 -0.31842086 -0.18705557 0.17872079 -0.3099592 -0.050493423 -0.021156222 0.040566105
0.20533906 -0.11513341 0.029615214 -0.46232936 0.20947808 0.13164282 -0.171566 0.023280581
0.13635895 0.12830973 -0.21689731 0.058666956 -0.08005488 0.20635754 0.084309936 0.1942372
0.40213495 0.062612616 0.0699926 -0.13863258 -0.40946573 0.07236662 0.20120879 0.24593055
0.3574905 0.019408466 0.006497072 0.32117388 -0.35292488 -0.24606867 0.17884174 0.2986649
0.04078835 -0.061199833 0.16319741 0.020853536 -0.11715869 -0.1952997 -0.18144703 0.20219967
-0.64547336 -0.1476208 -0.0017586227 0.28299424 -0.074158356 0.12792498 0.201491 0.018281901
0.1380098 0.23250641 -0.23822139 -0.12993911 0.0027838435 -0.25468484 0.10030391 -0.07954129
-0.25244 -0.24571404 0.54695314 0.046511687 -0.17115252 0.020038472 0.19507399 0.26428336
-0.41965112 -0.07342454 -0.051581398 0.11916376 -0.15315689 -0.48321214 0.18430355 0.052685138
0.26425424 -0.29784864 0.1718778 -0.124313235 0.013151553 -0.075004496 0.22625189 0.16279592
-0.1425126 -0.3272275 0.06932123 -0.1813227 0.23626418 0.5164093 0.2865826 -0.02227102
0.34615445 0.06634478 -0.37447104 0.112942405 0.053004898 0.021010343 0.11093215 0.10926277
0.27207416 -0.20262825 0.027222497 -0.36724186 -0.25109684 -0.027849514 -0.24270096 0.27474776
0.077475704 -0.11805942 -0.14977777 0.18119015 -0.37034503 0.18466529 -0.20712177 -0.20663004
-0.24356057 -0.10589229 0.103483535 0.17253733 0.13933985 -0.12196748 0.017410558 0.3883129
0.049392913 0.14180624 0.20842233 -0.20770857 0.16835931 0.07785053 0.33792493 0.22451276
0.49515504 0.21715294 0.10165795 0.16843553 0.5378436 0.1226534 0.14378694 -0.30963635
-0.134196 0.28703743 -0.17610559 -0.08589916 0.33739308 -0.07092975 -0.25768968 0.06521125
-0.06274211 0.2837411 -0.0792164 -0.086973615 -0.24583529 -0.24778345 -0.089761294 -0.10755113
0.46675235 -0.3879561 -0.07445987 -0.09112978 -0.2818531 -0.1651242 0.009940108 -0.057315614
-0.47282264 0.38669783 0.21075852 -0.19627163 -0.40670073 0.17102945 0.20133442 0.29131016
-0.13917203 0.0641745 -0.007864857 -0.17098528 -0.20056543 0.3082102 0.09355725 0.50140214
-0.048396416 -0.16604456 0.21554944 -0.17629479 -0.09569103 -0.0022845145 0.2460192 0.0376321
-0.384001 0.027691694 0.1405222 -0.04609216 -0.3026201 0.39632502 0.05382178 -0.1647703
0.030494077 0.20691225 -0.14965893 0.29250783 0.18562949 -0.124847144 -0.017867768 0.19553034
00000000: ffb6 813e 16bf ca3d b7b2 c7bd 9b41 43bd
00000010: cb38 433e 6980 143d afb4 1c3e 5f27 5a3e
00000020: 6b59 8f3e b3df a23e e165 ad3e 5215 8a3b
00000030: c629 723e 5dda 323e e297 0c3f 462d 57be
00000040: 32b9 a03d eb7b 0ebe 765d 27be a84c d23d
00000050: b64c 8e3e 5029 4e3e 3ba9 8d3d 4bce 0ebe
00000060: 2b43 0bbe bb09 07bf 12c3 ccbe f6ee 89be
00000070: a70b 893e ebc1 ba3c 8465 1bbd 0c01 b1bd
00000080: 4e0a 5abe 0220 523e 0f54 78be cb29 8c3c
00000090: e4aa 1b3e fbf5 983e 38f9 2f3c 449d 94bc
000000a0: 7990 ab3e 63c3 b13d b755 88be db2f d5be
000000b0: 6f89 1e3f ce2c fcbc a60a d4bd ccec 893e
000000c0: 27e8 233e 0f08 a3be 7f8b 3fbe 9502 373e
000000d0: f9b2 9ebe 31d2 4ebd d04f adbc a528 263d
000000e0: 6744 523e 11cb ebbd 9b9b f23c 6fb6 ecbe
000000f0: 6c81 563e 60cd 063e ffae 2fbe ebb6 be3c
00000100: aea1 0b3e a063 033e 541a 5ebe c34c 703d
00000110: d0f3 a3bd 644f 533e b0aa ac3d 1ee6 463e
00000120: a2e4 cd3e 0b3b 803d 4858 8f3d b3f5 0dbe
00000130: 7ea5 d1be f334 943d ad09 4e3e 38d5 7b3e
00000140: ff08 b73e 81fe 9e3c 64e5 d43b e770 a43e
00000150: 92b2 b4be 6df9 7bbe 4a22 373e 9bea 983e
00000160: af11 273d adac 7abd 391d 273e 09d5 aa3c
00000170: e5f0 efbd a5fc 47be 40cd 39be 6e0d 4f3e
00000180: be3d 25bf e829 17be 9681 e6ba 9fe4 903e
00000190: 56e0 97bd c4fe 023e a853 4e3e edc3 953c
000001a0: 7152 0d3e 2916 6e3e 4ff0 73be c20e 05be
000001b0: 2571 363b 0d66 82be 236c cd3d 8be6 a2bd
000001c0: d13f 81be 769c 7bbe 1f05 0c3f 0a83 3e3d
000001d0: 9b42 2fbe b927 a43c 7ac1 473e 2650 873e
000001e0: 83dc d6be 9b5f 96bd 0447 53bd 210c f43d
000001f0: 29d5 1cbe 9567 f7be 12ba 3c3e 5fcc 573d
00000200: 554c 873e 9e7f 98be bc00 303e f097 febd
00000210: 9d79 573c f59b 99bd 93ae 673e f9b3 263e
00000220: d3ee 11be 5d8a a7be 4af8 8d3d a8ac 39be
00000230: 3def 713e 6633 043f f4ba 923e b771 b6bc
00000240: 283b b13e c6df 873d abba bfbe 594e e73d
00000250: aa1b 593d e21d ac3c 6530 e33d 29c5 df3d
00000260: 4e4d 8b3e c87d 4fbe b701 df3c 2007 bcbe
00000270: c48f 80be aa24 e4bc 9a86 78be bdab 8c3e
00000280: 95ab 9e3d 23c9 f1bd 585f 19be e989 393e
00000290: dd9d bdbe e618 3d3e bb17 54be d396 53be
000002a0: f167 79be 0fde d8bd 2def d33d a0ad 303e
000002b0: 1baf 0e3e 16ca f9bd 96a0 8e3c f3d0 c63e
000002c0: 3950 4a3d a835 113e aa6c 553e 8eb1 54be
000002d0: 6266 2c3e 1970 9f3d 7f04 ad3e ace6 653e
000002e0: f684 fd3e 575d 5e3e 0b32 d03d 5d7a 2c3e
000002f0: 1eb0 093f b531 fb3d e23c 133e a888 9ebe
00000300: ad6a 09be 92f6 923e 0655 34be e6eb afbd
00000310: c9be ac3e 9e43 91bd e7ef 83be 7a8d 853d
00000320: ef7e 80bd 8346 913e 353c a2bd 391f b2bd
00000330: 3fbc 7bbe f2ba 7dbe c5d4 b7bd c443 dcbd
00000340: 2afa ee3e 2fa2 c6be 6b7e 98bd 40a2 babd
00000350: 0d4f 90be 5116 29be d6db 223c c7c3 6abd
00000360: cf15 f2be 42fd c53e 15d1 573e 6efb 48be
00000370: 143b d0be 5822 2f3e 9c2a 4e3e 9b26 953e
00000380: 1d83 0ebe ec6d 833d 9adb 00bc c416 2fbe
00000390: 0661 4dbe bacd 9d3e f29a bf3d e45b 003f
000003a0: 523b 46bd 9607 2abe feb8 5c3e 9f86 34be
000003b0: a9f9 c3bd cbb7 15bb 75ec 7b3e 1e24 1a3d
000003c0: c79b c4be b1d9 e23c 0de5 0f3e 22cb 3cbd
000003d0: 06f1 9abe 1deb ca3e 3a74 5c3d 8cb9 28be
000003e0: b7ce f93c cee0 533e 3140 19be 96c3 953e
000003f0: a815 3e3e dcaf ffbd 6d5f 92bc 1b39 483e

bias f4 [20]
0.24966027 -0.008000365 0.17472756 -0.3042025 0.46380493 -0.03434121 0.033325225 0.13789624
-0.31092986 0.43594697 -0.6497595 -0.029704798 -0.30854386 -0.07910681 -0.0464873 0.37414232
0.2401652 -0.023799358 -0.41637176 0.3983798
00000000: f1a6 7f3e f713 03bc c8eb 323e 6ec0 9bbe
00000010: d777 ed3e 5ea9 0cbd 0880 083d ac34 0d3e
00000020: 3332 9fbe 7134 df3e a356 26bf 7a57 f3bc
00000030: 76f9 9dbe c002 a2bd 7869 3ebd 958f bf3e
00000040: deed 753e dff6 c2bc ae2e d5be 70f8 cb3e

weight f4 [20, 20]
0.28092316 -0.26924598 0.17615914 0.13452104 -0.1891526 -0.09066285 0.091692604 0.38983318
-0.6469324 0.30783528 0.015016276 0.28320044 0.109646134 0.12567487 0.24615161 -0.16631776
0.4719435 -0.05144 0.13269418 -0.23745175 0.16958833 0.13381495 0.030432824 0.10158771
-0.027338361 0.27672428 0.18556347 -0.17220958 0.014208242 0.23791754 0.019718233 0.27255535
-0.11943892 -0.012629579 -0.06352605 0.18417521 -0.02338884 0.3561272 0.37739858 -0.034405723
-0.3737171 -0.009971288 0.047194216 -0.21528997 0.16763292 0.20102803 0.21888053 0.0886408
0.21697378 0.38839826 -0.12994605 -0.23888789 -0.27799547 0.0019563872 -0.05846063 0.18200503
0.33446357 0.026665209 -0.2328668 0.15077119 0.2233361 0.14062732 -0.09645408 -0.13933344
-0.35857928 -0.16580495 -0.6474109 -0.4248446 -0.17357796 -0.08691026 -0.059239335 -0.01874804
-0.19244432 -0.012335204 -0.20942263 0.19347326 0.033652764 -0.0970522 0.08946126 0.4983542
0.22692445 -0.07809373 -0.045029763 0.07944212 0.35533175 -0.28840366 -0.09297568 -0.1198245
0.26895076 -0.01917227 -0.22970515 -0.3227195 -0.16034903 -0.6264248 0.54957485 0.032881413
-0.22839181 -0.32730415 0.27404776 0.1583961 -0.27247307 -0.13944043 -0.056379654 -0.11060216
-0.21888386 -0.0756493 0.13223933 -0.4811217 0.2556198 -0.20151228 -0.08591985 -0.042279627
0.4270185 0.15870552 0.52605844 -0.039607674 0.004466305 0.079324454 0.12909395 -0.55859303
0.30220228 0.035209585 0.048855647 0.25727984 0.017016264 -0.017938077 -0.22620519 0.3511679
-0.09161656 0.1557384 0.2769448 0.06889448 -0.19955124 0.31374648 -0.27343935 0.28089112
0.1857484 -0.54504365 -0.15326661 0.11843012 -0.09633791 0.19879535 -0.028262192 0.17661639
-0.08557677 -0.038601976 -0.2164133 0.2824474 0.30116862 0.13962674 0.08618317 -0.12615514
-0.09122031 -0.07620504 0.040535223 0.19006984 -0.14038347 0.37372237 0.05438531 0.08067102
-0.017349375 -0.11538259 -0.27909377 0.39750293 0.32356074 0.15342905 0.045183744 -0.028295312
0.090131365 -0.033429746 -0.13415599 0.33732283 -0.17824455 -0.29240566 0.2453093 -0.012109652
-0.10673724 -0.18834428 0.2897099 -0.29524657 0.45281085 -0.2445193 -0.12882316 -0.089580946
-0.27600685 0.34095255 -0.33172795 0.07928776 -0.009094042 0.099835925 -0.031898566 0.1756381
-0.17006731 -0.08292396 -0.20416634 0.27255762 0.09960342 0.08068317 0.07527167 -0.16398509
0.14415441 0.095781736 0.107520066 0.030415172 0.0778333 0.09533222 0.088597596 -0.061308857
-0.1080929 0.18606359 -0.050678708 0.11965293 -0.039783187 0.19221045 -0.36772856 0.16632335
0.08100474 -0.37826818 -0.10700215 -0.27473134 -0.029011572 0.038281526 -0.10193498 -0.15505151
0.2569179 -0.21520509 0.051936492 -0.05160898 -0.28146237 0.23795688 -0.16540332 -0.06626812
0.16561326 0.23713475 0.007411684 0.16535585 0.111836866 0.65020835 -0.26543126 0.069216624
-0.23522706 0.20003659 -0.23569101 -0.048251644 0.1597376 -0.35082558 -0.04233698 0.30151972
-0.10500359 0.0075060995 0.114671655 -0.10149647 -0.13739555 -0.35391286 0.16812587 -0.5744594
00000000: 29d5 8f3e 9cda 89be 1063 343e e2bf 093e
00000010: 38b1 41be 72ad b9bd 55c9 bb3d 3798 c73e
00000020: 5d9d 25bf 969c 9d3e d406 763c a6ff 903e
00000030: 278e e03d eab0 003e 2b0f 7c3e 344f 2abe
00000040: 94a2 f13e c0b2 52bd fce0 073e 8d26 73be
00000050: 90a8 2d3e c906 093e 424e f93c 380d d03d
00000060: b3f4 dfbc ceae 8d3e 5a04 3e3e b557 30be
00000070: b0c9 683c a8a0 733e 2288 a13c 608c 8b3e
00000080: 649c f4bd 4bec 4ebc f219 82bd 6d98 3c3e
00000090: f499 bfbc 4e56 b63e 633a c13e 04ed 0cbd
000000a0: d957 bfbe 9d5e 23bc b94e 413d f974 5cbe
000000b0: f7a7 2b3e 4bda 4d3e 3822 603e 4f89 b53d
000000c0: 602e 5e3e 23dc c63e 9410 05be 079f 74be
000000d0: 6c55 8ebe bb36 003b 6a74 6fbd 875f 3a3e
000000e0: cf3e ab3e ff70 da3c a274 6ebe c363 1a3e
000000f0: 38b2 643e 9c00 103e b789 c5bd 6dad 0ebe
00000100: b497 b7be c6c8 29be b9bc 25bf 3b85 d9be
00000110: 6cbe 31be 02fe b1bd f2a4 72bd 7d95 99bc
00000120: 2010 45be 9819 4abc e372 56be db1d 463e
00000130: 7bd7 093d 4ec3 c6bd 7737 b73d 4828 ff3e
00000140: e25e 683e 9bef 9fbd 2171 38bd 8db2 a23d
00000150: 0bee b53e a5a9 93be 096a bebd 8c66 f5bd
00000160: eab3 893e 2a0f 9dbc d437 6bbe 7e3b a5be
00000170: 8932 24be 605d 20bf f0b0 0c3f a9ae 063d
00000180: 8bdf 69be 6994 a7be fd4f 8c3e 9632 223e
00000190: 9781 8bbe 79c9 0ebe 5aee 66bd 6383 e2bd
000001a0: 1723 60be 05ee 9abd bf69 073e 9555 f6be
000001b0: 99e0 823e 3c59 4ebe bff6 afbd 672d 2dbd
000001c0: 2ba2 da3e b383 223e c4ab 063f a83b 22bd
000001d0: 155a 923b dc74 a23d 3431 043e f4ff 0ebf
000001e0: 42ba 9a3e ed37 103d dc1c 483d 2fba 833e
000001f0: b165 8b3c e0f2 92bc 55a2 67be 47cc b33e
00000200: 77a1 bbbd e379 1f3e b5cb 8d3e 8d18 8d3d
00000210: 2957 4cbe 61a3 a03e 3e00 8cbe f6d0 8f3e
00000220: d434 3e3e fb87 0bbf ecf1 1cbe 7e8b f23d
00000230: cf4c c5bd 0291 4b3e 1d86 e7bc edda 343e
00000240: e042 afbd 1b1d 1ebd 739b 5dbe f29c 903e
00000250: c632 9a3e 50fa 0e3e cd80 b03d d02e 01be
00000260: b7d1 babd 6311 9cbd 4308 263d aba1 423e
00000270: afc0 0fbe 8a58 bf3e 21c3 5e3d d936 a53d
00000280: 4720 8ebc b54d ecbd 61e5 8ebe 8185 cb3e
00000290: c1a9 a53e 811c 1d3e 9712 393d 92cb e7bc
000002a0: cb96 b83d a1ed 08bd 3060 09be 94b5 ac3e
000002b0: bd85 36be 32b6 95be 5c32 7b3e 9067 46bc
000002c0: 0e99 dabd 53dd 40be db54 943e 8f2a 97be
000002d0: d3d6 e73e 4463 7abe 38ea 03be 3776 b7bd
000002e0: c550 8dbe 5591 ae3e 3fd8 a9be 9f61 a23d
000002f0: 2dff 14bc c776 cc3d 12a8 02bd 79da 333e
00000300: 2026 2ebe 0ad4 a9bd fb10 51be ac8c 8b3e
00000310: e1fc cb3d 383d a53d 0928 9a3d b5eb 27be
00000320: 379d 133e 3729 c43d 7b33 dc3d 3d29 f93c
00000330: 1167 9f3d 8a3d c33d a872 b53d ff1e 7bbd
00000340: cf5f ddbd 7487 3e3e 7a94 4fbd 980c f53d
00000350: b2f3 22bd d1d2 443e eb46 bcbe ab50 2a3e
00000360: d0e5 a53d 5eac c1be f123 dbbd 96a9 8cbe
00000370: ada9 edbc 17cd 1c3d 49c3 d0bd d3c5 1ebe
00000380: be8a 833e b95e 5cbe 5cbb 543d f063 53bd
00000390: d61b 90be f8aa 733e 7d5f 29be 95b7 87bd
000003a0: 8696 293e 74d3 723e b6dd f23b 0b53 293e
000003b0: ba0a e53d 0e74 263f 9be6 87be 72c1 8d3d
000003c0: 5ddf 70be 64d6 4c3e fc58 71be 84a3 45bd
000003d0: 4192 233e 699f b3be 8b69 2dbd cb60 9a3e
000003e0: 1f0c d7bd baf5 f53b f9d8 ea3d 62dd cfbd
000003f0: 6bb1 0cbe 1134 b5be 3029 2c3e c50f 13bf

bias f4 [20]
-0.11092368 0.29537055 0.22697888 -0.10362607 0.44030213 -0.06720427 0.2671601 -0.15033124
-0.11152199 -0.13685866 0.13712561 0.2163607 -0.3020792 0.0014113653 -0.341308 0.08219077
0.3678145 0.66443324 -0.019562362 -0.12909232
00000000: f42b e3bd cf3a 973e 276d 683e e839 d4bd
00000010: 486f e13e 64a2 89bd 35c9 883e 6ff0 19be
00000020: a465 e4bd ad24 0cbe a86a 0c3e a98d 5d3e
00000030: 20aa 9abe 90fd b83a ecbf aebe a253 a83d
00000040: 2f52 bc3e 4c18 2a3f 3f41 a0bc c730 04be

weight f4 [20, 20]
0.025025604 0.050408486 0.2632337 -0.25337994 0.5403489 -0.11185893 0.37558487 -0.1835184
0.36558136 0.039828647 0.12831701 -0.09412626 0.265789 0.172227 -0.07613609 0.2481062
0.23501924 0.5233703 0.26528907 -0.038830075 0.104759365 0.018905774 -0.1181304 0.069169894
0.13829885 0.27965325 0.40956676 0.052714318 -0.13717024 0.15765296 -0.29077825 -0.15706651
-0.35178483 0.48427618 -0.2610591 -0.24385454 0.2869922 0.30550814 -0.11400068 0.16531964
-0.418725 -0.27006462 0.20418288 -0.055049893 -0.2708779 0.38794842 -0.5292022 0.11469713
0.20903252 0.5122714 -0.12864876 -0.00062342023 -0.2408074 0.07898257 0.09959071 -0.30942237
-0.35688934 0.36692852 -0.06429388 0.51293916 -0.10933623 -0.03238949 -0.14135537 0.22789711
-0.10021137 -0.1609771 0.14683446 0.2220696 -0.034667965 0.24388131 0.2734474 -0.46917394
0.044501454 0.24507502 0.0066658906 0.15756172 -0.23729938 0.4982585 0.17897688 -0.59346414
0.30130303 -0.19681302 -0.27156228 0.098490745 0.26530826 0.28163332 -0.17898187 0.03790667
-0.014842503 -0.177064 0.13702726 0.21952125 -0.10047316 0.21213551 -0.07369648 0.039070614
-0.3273218 -0.51245254 -0.3502728 0.096730046 -0.044057168 -0.02292905 0.07285958 0.10696796
0.2153706 -0.021818336 -0.27791086 -0.028747952 0.2486472 0.020142494 -0.23428802 -0.40353185
-0.03357349 0.21678239 -0.3431373 -0.18357624 -0.150329 0.005715274 0.34492183 0.078195736
-0.07377372 0.44298413 0.06304664 0.0060418556 -0.3250614 0.37746716 -0.0025886786 -0.03972237
-0.29966456 0.36489815 -0.16965966 -0.26683182 0.09004004 -0.2957687 0.240536 0.21694772
0.42014796 -0.06919513 0.084560364 -0.27400643 -0.27529293 -0.06617616 -0.4175784 0.28594217
-0.6305718 0.47836474 0.28806734 0.20799197 -0.11661839 -0.08381212 0.42660642 -0.16603158
0.22013551 -0.33088776 -0.20633753 0.10857114 -0.10286587 -0.32534587 -0.3706339 -0.10052118
0.3019272 -0.01724685 -0.21132539 -0.22011925 0.25925094 0.23858677 -0.20318308 -0.18583365
-0.0005980208 -0.097659275 0.10006658 0.0011747367 0.103617035 0.21510595 0.21298508 -0.09413067
-0.2508922 -0.29311427 0.16508602 0.08343219 0.3083415 0.15395275 0.08828459 -0.19900389
-0.05001506 -0.08908892 -0.2036228 0.11377762 -0.095237106 0.295623 -0.19302858 -0.05880681
-0.40274844 0.19281007 0.319026 -0.3015626 -0.1590196 -0.43347445 -0.13989559 0.036105886
-0.04600635 0.30760872 0.14441733 0.28411904 -0.18035825 0.23473768 -0.11440107 -0.000627719
0.29005754 0.052021604 -0.27759218 -0.11803786 0.22947764 0.32135087 0.10606178 -0.43298385
-0.20865224 -0.61072737 -0.005350098 -0.12121672 0.061502475 0.09622423 -0.07142139 -0.052158233
-0.1927551 0.19006434 0.037083887 0.014387958 -0.23122907 -0.07779867 -0.20962624 -0.103610404
-0.13734354 -0.29620978 0.1517707 0.30887252 0.050432563 0.08823029 -0.10092478 0.19059226
0.37676057 0.22856699 0.20036693 0.28920245 -0.020821331 -0.40506184 0.19428125 -0.41092944
-0.10314088 0.12614384 0.13884644 0.28612453 -0.39306533 -0.004416106 -0.006278457 0.66989434
00000000: 7f02 cd3c 2179 4e3d 91c6 863e 04bb 81be
00000010: 4e54 0a3f 4b16 e5bd a94c c03e 3fec 3bbe
00000020: 7b2d bb3e 5d23 233d 8965 033e 45c5 c0bd
00000030: 7f15 883e 465c 303e 3ded 9bbd 8d0f 7e3e
00000040: e2a8 703e 99fb 053f f8d3 873e 490c 1fbd
00000050: 148c d63d 48e0 9a3c 5aee f1bd f2a8 8d3d
00000060: 379e 0d3e b62e 8f3e bcb2 d13e f8ea 573d
00000070: 5b76 0cbe c76f 213e e3e0 94be 0bd6 20be
00000080: 241d b4be 0cf3 f73e 8aa9 85be 01b5 79be
00000090: a4f0 923e 906b 9c3e 3079 e9bd 8d49 293e
000000a0: 2063 d6be e945 8abe 5115 513e ff7b 61bd
000000b0: 82b0 8abe 2da1 c63e cc79 07bf 54e6 ea3d
000000c0: 9f0c 563e 3824 033f 80bc 03be 066d 23ba
000000d0: 3796 76be 9dc1 a13d 37f6 cb3d 9c6c 9ebe
000000e0: 33ba b6be 0ede bb3e 82ac 83bd fb4f 033f
000000f0: aceb dfbd d8aa 04bd 76bf 10be dc5d 693e
00000100: 9e3b cdbd 2ed7 24be c65b 163e 3766 633e
00000110: ffff 0dbd 06bc 793e 4c01 8c3e 9137 f0be
00000120: 2847 363d f2f4 7a3e 8b6d da3b dc57 213e
00000130: 9cfe 72be bd1b ff3e b745 373e 44ed 17bf
00000140: 6444 9a3e 5a89 49be 360a 8bbe 84b5 c93d
00000150: 7cd6 873e 3e32 903e 0647 37be 0644 1b3d
00000160: f82d 73bc 4450 35be e050 0c3e 2eca 603e
00000170: dfc4 cdbd 0d3a 593e 2eee 96bd 8208 203d
00000180: b996 a7be 1730 03bf f556 b3be 671a c63d
00000190: 4a75 34bd b4d5 bbbc 6737 953d 0512 db3d
000001a0: 1c8a 5c3e 5ebc b2bc 554a 8ebe d380 ebbc
000001b0: 5f9d 7e3e df01 a53c 33e9 6fbe ba9b cebe
000001c0: 5b84 09bd 34fc 5d3e b1af afbe 69fb 3bbe
000001d0: d8ef 19be 3147 bb3b 9899 b03e 1625 a03d
000001e0: ad16 97bd d1ce e23e 991e 813d c2fa c53b
000001f0: 736e a6be 6043 c13e d2a6 29bb edb3 22bd
00000200: a26d 99be eed3 ba3e 43bb 2dbe 2e9e 88be
00000210: ea66 b83d ff6e 97be 124f 763e 8b27 5e3e
00000220: a21d d73e 2db6 8dbd fc2d ad3d 924a 8cbe
00000230: 32f3 8cbe 5e87 87bd d6cc d5be 0367 923e
00000240: 276d 21bf 39ec f43e 907d 933e d9fb 543e
00000250: 9fd5 eebd b0a5 abbd 286c da3e 2f04 2abe
00000260: 346b 613e 1f6a a9be 254a 53be 8c5a de3d
00000270: 57ab d2bd bc93 a6be bac3 bdbe 0cde cdbd
00000280: 3496 9a3e 4449 8dbc af65 58be f166 61be
00000290: 8abc 843e 1750 743e 3a0f 50be 2d4b 3ebe
000002a0: 7fc4 1cba 9601 c8bd b5ef cc3d 9ff9 993a
000002b0: 2b35 d43d bc44 5c3e c318 5a3e 95c7 c0bd
000002c0: f174 80be 1313 96be 4f0c 293e 7fde aa3d
000002d0: f0de 9d3e caa5 1d3e 8dce b43d adc7 4bbe
000002e0: 97dc 4cbd 4074 b6bd 7f82 50be 3e04 e93d
000002f0: ac0b c3bd e65b 973e 49a9 45be 69df 70bd
00000300: 0b35 cebe 0170 453e 6057 a33e 6a66 9abe
00000310: 09d6 22be 5df0 ddbe ca40 0fbe c4e3 133d
00000320: 2871 3cbd e47e 9d3e 23e2 133e 0d78 913e
00000330: d5af 38be 135f 703e 1c4b eabd 828d 24ba
00000340: 6c82 943e 9b14 553d 9020 8ebe d5bd f1bd
00000350: 30fc 6a3e 1a88 a43e eb36 d93d 0fb0 ddbe
00000360: efa8 55be a158 1cbf e04f afbb 7940 f8bd
00000370: 05ea 7b3d 3611 c53d 6145 92bd dfa3 55bd
00000380: 9861 45be 3aa0 423e 46e5 173d 78bb 6b3c
00000390: 50c7 6cbe e954 9fbd 43a8 56be b131 d4bd
000003a0: c9a3 0cbe cfa8 97be c769 1b3e 8a24 9e3e
000003b0: 6092 4e3d 15b2 b43d a7b1 cebd 9e2a 433e
000003c0: c3e6 c03e 770d 6a3e fd2c 4d3e 5812 943e
000003d0: 7f91 aabc 4464 cfbe aaf1 463e 5865 d2be
000003e0: 873b d3bd da2b 013e c32d 0e3e ea7e 923e
000003f0: dc3f c9be fbb4 90bb 84bb cdbb 327e 2b3f

bias f4 [20]
0.29113725 0.46666616 -0.10952097 -0.07801078 -0.32947657 -0.2522731 -0.10886695 -0.014125298
-0.13018298 -0.0726387 -0.37143448 0.09330055 -0.008207993 0.025097748 -0.11473293 -0.06479039
-0.107819594 -0.0962968 -0.21119785 0.35454914
00000000: f10f 953e deee ee3e 884c e0bd 1ec4 9fbd
00000010: 27b1 a8be f129 81be a3f5 debd cb6d 67bc
00000020: b04e 05be 99c3 94bd a92c bebe 5c14 bf3d
00000030: d17a 06bc cb99 cd3c 19f9 eabd d3b0 84bd
00000040: 85d0 dcbd 4237 c5bd 4044 58be 7787 b53e

weight f4 [20, 20]
0.17449205 0.023099419 0.008494604 -0.17494181 0.18226138 0.09531062 -0.1212882 -0.123055145
0.42102784 0.1391867 -0.05410531 0.104655676 0.16283825 -0.2350856 0.153097 -0.21185166
0.28818217 -0.061033305 -0.1140872 -0.18714385 -0.0021713672 -0.14132892 0.31337002 -0.08692889
0.013193993 -0.10522894 0.047310803 -0.20663595 0.40926242 -0.26872146 -0.0034887015 -0.073176324
-0.21707104 0.019197881 -0.41278955 -0.5538681 -0.19109789 0.48092428 0.1294447 0.04989784
0.31433505 0.241623 -0.12232763 0.27942872 -0.31546846 -0.30598992 0.15122417 0.21130885
0.015735522 -0.06699135 -0.055832736 0.025890317 0.21196127 0.43751752 -0.007179332 -0.16206549
0.031231299 -0.22035545 -0.47462544 0.17104107 -0.046000414 0.24894115 -0.057704218 -0.029238863
0.04666092 -0.1783441 -0.18367971 -0.005901036 -0.1888339 -0.14371723 -0.18013953 -0.11599306
0.30060318 0.16079734 0.17255126 0.40202343 -0.0006919945 0.13508126 0.16784629 0.096068345
-0.2907737 0.025516449 0.39133513 -0.047668636 0.08524758 -0.0053835195 -0.1877638 -0.26777005
0.14626841 -0.079289846 -0.17291631 0.046048656 -0.5249626 -0.13977675 -0.51199275 0.08053104
-0.252866 0.24355252 0.18505737 -0.30110115 -0.34740615 0.05786223 0.136046 -0.07177852
0.28810555 0.035411723 -0.35273668 -0.00812636 0.07560028 -0.053830583 -0.21106136 -0.35422426
-0.18179229 0.21745878 -0.059158742 0.5172931 -0.123562194 -0.030503646 -0.24600054 -0.29065177
0.32502997 0.08348739 -0.0099473465 -0.028638743 -0.3317262 0.12331499 -0.16856366 0.087583646
0.021326125 0.0788511 -0.32606325 0.07053538 -0.059710503 0.029948425 0.10129137 -0.09376031
0.09484308 0.16126023 0.013707809 0.1700224 -0.18906924 -0.008220338 0.036008734 -0.29821977
0.07842087 -0.036114242 -0.24682464 -0.24082468 -0.083785586 0.21096537 -0.031459223 -0.13540511
-0.12572098 -0.13437358 -0.33066997 -0.12407753 -0.33776587 0.023196107 0.34886456 -0.12902619
-0.28454423 -0.26749784 -0.11649713 0.08668697 -0.16388375 -0.23891133 -0.1271266 -0.35724664
-0.15603454 0.33849955 0.22813424 -0.30122492 -0.18940303 0.33620912 0.03406922 0.1972463
-0.13068964 -0.25210658 0.13708693 -0.115532264 -0.17805791 0.2386855 0.5776351 -0.17058794
0.07771729 -0.09020844 -0.03520594 0.45317048 0.1513157 -0.11165837 0.100618206 0.06352847
-0.5590423 0.4384291 -0.3404361 -0.44878572 -0.35314018 0.6343971 0.057461154 0.1472225
-0.09932159 -0.23751216 0.48427233 0.3894127 -0.14021209 0.2804592 0.03030496 -0.14941981
0.20863405 -0.38248694 0.2772265 0.0005951769 -0.22634771 -0.027715785 -0.3208213 0.11460023
0.1886715 -0.012599857 0.13173021 -0.14653464 -0.4601935 -0.08723817 -0.08933296 0.13072847
-0.42267883 0.10438852 -0.21865562 0.47495243 -0.20189734 -0.111402094 0.013993278 0.061375737
0.23869835 0.10149833 0.08593303 0.032880194 0.13613556 -0.1599848 0.016135491 -0.14971407
-0.19880906 0.013701105 -0.06060415 -0.11014765 -0.2364815 0.3115666 -0.17703716 -0.21794502
-0.016763652 -0.069175765 0.077057935 0.026872963 -0.3213709 0.18631677 -0.41498667 0.05841723
00000000: 0bae 323e fe3a bd3c f42c 0b3c f223 33be
00000010: baa2 3a3e 3732 c33d f365 f8bd 5604 fcbd
00000020: f690 d73e f586 0e3e 889d 5dbd b755 d63d
00000030: 12bf 263e 48ba 70be 76c5 1c3e a4ef 58be
00000040: 9d8c 933e 0ffe 79bd 8da6 e9bd a3a2 3fbe
00000050: 7f4d 0ebb 87b8 10be 0972 a03e c607 b2bd
00000060: 9e2b 583c 4582 d7bd f9c8 413d 6098 53be
00000070: d88a d13e dc95 89be b3a2 64bb 78dd 95bd
00000080: df47 5ebe e044 9d3c 2759 d3be 4dca 0dbf
00000090: 2aaf 43be b53b f63e 278d 043e ad61 4c3d
000000a0: 86f0 a03e 056c 773e e986 fabd 4811 8f3e
000000b0: 1585 a1be b6aa 9cbe 82da 1a3e 5961 583e
000000c0: c8e7 803c c332 89bd deb0 64bd ee17 d43c
000000d0: 600c 593e 4c02 e03e 9a40 ebbb 7ff4 25be
000000e0: c8d8 ff3c dca4 61be 1b02 f3be 6425 2f3e
000000f0: ee6a 3cbd 6eea 7e3e 425b 6cbd 5786 efbc
00000100: 851f 3f3d d69f 36be 8916 3cbe 7a5d c1bb
00000110: ad5d 41be 9c2a 13be 7f76 38be c58d edbd
00000120: a9e8 993e 0fa8 243e 47b1 303e 04d6 cd3e
00000130: f766 35ba be52 0a3e e6df 2b3e 7bbf c43d
00000140: 4ae0 94be df07 d13c 145d c83e 3040 43bd
00000150: 4996 ae3d 3c68 b0bb 2745 40be 2819 89be
00000160: 63c7 153e b762 a2bd f910 31be 849d 3c3d
00000170: f363 06bf a321 0fbe f511 03bf 75ed a43d
00000180: a777 81be d565 793e ae7f 3d3e ee29 9abe
00000190: 38df b1be f200 6d3d a54f 0b3e 9e00 93bd
000001a0: 9282 933e e20b 113d e799 b4be 6d24 05bc
000001b0: 52d4 9a3d 757d 5cbd 7820 58be e25c b5be
000001c0: c227 3abe 84ad 5e3e 7050 72bd 526d 043f
000001d0: 2d0e fdbd c8e2 f9bc 91e7 7bbe 4fd0 94be
000001e0: 546a a63e 70fb aa3d 32fa 22bc cc9b eabc
000001f0: 04d8 a9be 928c fc3d f49b 2cbe 0e5f b33d
00000200: 20b4 ae3c af7c a13d c3f1 a6be da74 903d
00000210: 0093 74bd 6656 f53c da71 cf3d 6805 c0bd
00000220: 173d c23d 6721 253e b896 603c 5a1a 2e3e
00000230: 5e9b 41be 99ae 06bc e57d 133d 43b0 98be
00000240: 1f9b a03d 87ec 13bd 99bf 7cbe bf9a 76be
00000250: c797 abbd 4e07 583e 63db 00bd a3a7 0abe
00000260: 00bd 00be 3a99 09be 934d a9be 5c1c febd
00000270: a6ef acbe c305 be3c 609e b23e 711f 04be
00000280: c8af 91be 7af5 88be 0c96 eebd f088 b13d
00000290: 24d1 27be 2ca5 74be 7a2d 02be 08e9 b6be
000002a0: 85c7 1fbe d04f ad3e 069c 693e 273a 9abe
000002b0: def2 41be 9a23 ac3e 2b8c 0b3d effa 493e
000002c0: 81d3 05be 1d14 81be 8460 0c3e 2e9c ecbd
000002d0: d054 36be f969 743e e5df 133f 9bae 2ebe
000002e0: 3e2a 9f3d 34bf b8bd 1b34 10bd f605 e83e
000002f0: 81f2 1a3e 25ad e4bd eb10 ce3d 371b 823d
00000300: 651d 0fbf c779 e03e a44d aebe 3ec7 e5be
00000310: cace b4be d967 223f 635c 6b3d 7fc1 163e
00000320: 1e69 cbbd 6336 73be 8bf2 f73e 1a61 c73e
00000330: c293 0fbe 5998 8f3e 1c42 f83c 8201 19be
00000340: 2aa4 553e 54d5 c3be a2f0 8d3e a505 1c3a
00000350: b2c7 67be 370c e3bc b042 a4be 86b3 ea3d
00000360: 1a33 413e a16f 4ebc 49e4 063e 2d0d 16be
00000370: 7c9e ebbe eda9 b2bd 33f4 b6bd afdd 053e
00000380: 5c69 d8be a6c9 d53d 42e7 5fbe f72c f33e
00000390: 2dbe 4ebe c826 e4bd 1044 653c 2065 7b3d
000003a0: 576d 743e 5bde cf3d a8fd af3d 62ad 063d
000003b0: 1f67 0b3e 0ed3 23be 942e 843c a54e 19be
000003c0: 9a94 4bbe 997a 603c 0f3c 78bd 1795 e1bd
000003d0: 3528 72be a885 9f3e 3b49 35be fb2c 5fbe
000003e0: ed53 89bc 06ac 8dbd 8dd0 9d3d b024 dc3c
000003f0: ba8a a4be d3c9 3e3e 2279 d4be e846 6f3d

bias f4 [20]
0.1017941 0.042048078 0.22808218 0.10703964 0.016233189 -0.10958788 -0.0705195 0.04400965
-0.26339322 0.3351301 -0.1444992 0.0040752706 0.1753179 0.25476563 0.3583388 -0.017942788
-0.2591397 0.0693421 -0.350128 -0.14045748
00000000: 6d79 d03d 9b3a 2c3d 608e 693e 9937 db3d
00000010: 77fb 843c 9c6f e0bd 876c 90bd 7643 343d
00000020: 7adb 86be 2c96 ab3e 99f7 13be d989 853b
00000030: 8986 333e a470 823e 2f78 b73e c1fc 92bc
00000040: f5ad 84be 3b03 8e3d fa43 b3be 16d4 0fbe

weight f4 [20, 20]
0.2568343 0.18688515 -0.043358754 0.30155396 -0.08371194 0.0051717167 0.19296686 0.07972974
-0.10602607 0.16449018 -0.003389177 0.08214848 0.22524786 0.28321105 -0.103218794 0.076615304
0.10909434 0.25145447 -0.076790944 -0.5453773 0.046288174 0.40263754 -0.22333916 -0.3054302
0.041497875 0.2311914 -0.0133086555 0.1449059 0.07720224 0.29581404 -0.052682705 -0.3491365
0.3957474 0.042593725 0.017717034 -0.07172664 0.08550321 -0.32983935 0.04728534 0.30037752
-0.32576406 -0.05163769 -0.1421662 -0.050395757 -0.23174964 -0.14223206 0.06947618 -0.22817297
-0.12688014 0.058006283 -0.23866646 -0.20075485 -0.29798785 -0.080664456 0.20850886 0.13183877
0.30514818 -0.038382094 -0.10707119 0.10645925 -0.17113477 0.04311439 -0.20447034 0.004324375
-0.010276365 -0.23680684 -0.21781231 -0.047958817 -0.19995025 0.3165146 -0.04002416 0.21708335
-0.16174671 0.34816548 0.20318164 0.017221428 -0.16497521 0.28375554 -0.31604284 -0.48942217
-0.14737685 -0.4478661 0.07411313 0.041015033 -0.5663372 -0.09055211 -0.1518263 -0.26035976
0.16067407 -0.6631835 0.15679178 0.024742447 -0.27754703 -0.072649226 -0.06351171 -0.20354766
-0.060671125 -0.08033892 -0.36947328 -0.21884425 -0.19617906 -0.09229357 -0.5129532 0.05326888
-0.65209967 -0.15324853 -0.010801971 -0.35024822 0.34019503 -0.20662248 0.04493234 0.30690008
-0.18194272 -0.31176686 0.04929814 0.37123597 0.17706645 -0.1312353 0.04278665 0.59543365
-0.19952086 -0.07074072 -0.019154057 0.16973369 0.16568656 0.027399132 0.2056136 -0.28881213
0.21676397 -0.08870411 0.13874696 -0.061011802 -0.13923536 -0.12688336 0.30944994 -0.4433673
-0.1457202 -0.31007108 0.01921307 -0.15773019 0.007880681 -0.07720495 -0.12439444 -0.11810081
0.110029995 0.1413443 -0.0517295 -0.3389684 0.20500208 -0.12775822 0.2839115 -0.15656938
0.28554398 -0.30612668 0.1442978 0.1453006 -0.33763647 -0.0199082 -0.014462905 0.4718989
-0.21894068 -0.017179193 0.06685019 0.16330606 0.35001057 0.24525754 0.12548184 0.41695347
0.49456072 0.3734833 -0.15891105 -0.26039702 0.15048094 -0.057861418 -0.037742484 0.27120498
0.18995601 -0.44570726 0.24337967 -0.032073945 -0.18875793 -0.56101406 0.0742193 0.30204478
-0.11636254 -0.013651387 -0.074149184 -0.3648634 0.038494866 -0.36035597 0.07490133 -0.0018338365
-0.33880243 -0.08101992 -0.1449203 -0.51130754 -0.009540144 -0.27575526 -0.1977761 0.071246855
0.40603822 0.36058822 0.25446773 0.15345837 0.022993507 -0.1564875 0.31815296 0.07082746
-0.19098198 0.38246313 -0.12957364 -0.34290293 -0.3645017 0.19487734 -0.12039329 0.13197137
0.039188482 -0.04372534 -0.2211297 -0.42623273 0.18348894 0.07302956 0.36299577 0.077429265
-0.27354237 0.22452056 -0.039658908 -0.29008472 0.24453358 -0.33443633 0.32468724 0.2439259
0.2157023 -0.16553317 -0.34148163 0.21988505 0.2376413 -0.26934314 0.49053162 -0.10626627
0.3227535 -0.3913578 0.32144868 0.12918693 -0.28094566 -0.099399604 -0.40342355 -0.31118459
0.19471788 0.11062322 -0.241147 0.034906536 -0.2322484 0.2501133 0.07022584 -0.05101186
00000000: c97f 833e d25e 3f3e f398 31bd 4865 9a3e
00000010: 2a71 abbd 8177 a93b 1b99 453e 5949 a33d
00000020: 3224 d9bd 1d70 283e f41c 5ebb 763d a83d
00000030: 60a7 663e 0a01 913e 6064 d3bd 7ce8 9c3d
00000040: da6c df3d a4be 803e 9244 9dbd d99d 0bbf
00000050: ab98 3d3d 8226 ce3e 05b3 64be 5961 9cbe
00000060: adf9 293d 70bd 6c3e 8c0c 5abc 3662 143e
00000070: 351c 9e3d f074 973e d2c9 57bd 05c2 b2be
00000080: 679f ca3e c276 2e3d 5023 913c 6be5 92bd
00000090: 4f1c af3d b4e0 a8be 46ae 413d 15cb 993e
000000a0: 8cca a6be 0b82 53bd 0494 11be c86b 4ebd
000000b0: c74f 6dbe 48a5 11be 8749 8e3d 2da6 69be
000000c0: deec 01be ff97 6d3d fb64 74be ae92 4dbe
000000d0: dd91 98be 6833 a5bd 5983 553e be00 073e
000000e0: 623c 9c3e 8b36 1dbd 2448 dbbd 4f07 da3d
000000f0: f43d 2fbe b798 303d ac60 51be 7db3 8d3b
00000100: 335e 28bc 7e7d 72be 310a 5fbe 7770 44bd
00000110: c2bf 4cbe 340e a23e 60f0 23bd 194b 5e3e
00000120: eea0 25be bf42 b23e d90e 503e f413 8d3c
00000130: 43ef 28be 6848 913e 5ed0 a1be 8b95 fabe
00000140: f5e9 16be b54e e5be a0c8 973d 61ff 273d
00000150: 7afb 10bf 6273 b9bd 5b78 1bbe e04d 85be
00000160: be87 243e 65c6 29bf 068e 203e acb0 ca3c
00000170: a51a 8ebe 1ec9 94bd 6d12 82bd cc6e 50be
00000180: 4982 78bd bb88 a4bd 9a2b bdbe b518 60be
00000190: 2ae3 48be 6904 bdbd e750 03bf 7830 5a3d
000001a0: 01f0 26bf 2fed 1cbe c0fa 30bc bc53 b3be
000001b0: 0b2e ae3e d894 53be f90a 383d 0222 9d3e
000001c0: 314f 3abe e89f 9fbe d9ec 493d a412 be3e
000001d0: e850 353e 8c62 06be 0e41 2f3d 576e 183f
000001e0: 324f 4cbe 83e0 90bd f8e8 9cbc abce 2d3e
000001f0: bda9 293e 2574 e03c 5f8c 523e 2fdf 93be
00000200: 60f7 5d3e 80aa b5bd af13 0e3e 83e7 79bd
00000210: b793 0ebe b6ed 01be 3970 9e3e 0a01 e3be
00000220: ad37 15be a3c1 9ebe ba64 9d3c 0684 21be
00000230: f91d 013c a11d 9ebd 83c2 febd d6de f1bd
00000240: 6857 e13d 8fbc 103e 50e2 53bd 448d adbe
00000250: 11ec 513e 0dd3 02be d95c 913e b953 20be
00000260: d232 923e a3bc 9cbe cdc2 133e aec9 143e
00000270: b0de acbe 8516 a3bc d2f5 6cbc bc9c f13e
00000280: fc31 60be 61bb 8cbc c1e8 883d b439 273e
00000290: 9634 b33e cb24 7b3e 507e 003e ed7a d53e
000002a0: 1037 fd3e 3439 bf3e 94b9 22be c252 85be
000002b0: ad17 1a3e 1800 6dbd dd97 1abd 61db 8a3e
000002c0: d483 423e be33 e4be 8538 793e f85f 03bd
000002d0: c249 41be 9e9e 0fbf 4a00 983d 9da5 9a3e
000002e0: 7c4f eebd 11aa 5fbc 87db 97bd 60cf babe
000002f0: cbac 1d3d 9480 b8be de65 993d 585d f0ba
00000300: 8377 adbe c6ed a5bd fd65 14be 0de5 02bf
00000310: 444e 1cbc cb2f 8dbe d185 4abe dfe9 913d
00000320: 3ee4 cf3e 059f b83e 9849 823e 3124 1d3e
00000330: e15c bc3c 423e 20be f2e4 a23e fd0d 913d
00000340: c890 43be 35d2 c33e f4ae 04be f990 afbe
00000350: f89f babe ed8d 473e c290 f6bd 8123 073e
00000360: 1a84 203d 5819 33bd d36f 62be 2d3b dabe
00000370: 86e4 3b3e 8690 953d 95da b93e 3c93 9e3d
00000380: bf0d 8cbe b8e8 653e 6171 22bd fc85 94be
00000390: 0367 7a3e 3d3b abbe 683d a63e b6c7 793e
000003a0: 10e1 5c3e 8781 29be aed6 aebe 8c29 613e
000003b0: 3e58 733e 58e7 89be f626 fb3e 21a2 d9bd
000003c0: f23f a53e 0d60 c8be ec94 a43e 9449 043e
000003d0: 1cd8 8fbe 0592 cbbd 888d cebe 9653 9fbe
000003e0: 2064 473e 6d8e e23d 3def 76be 28fa 0e3d
000003f0: 86d2 6dbe da0e 803e 91d2 8f3d d0f1 50bd

bias f4 [20]
0.46454605 0.10882204 -0.3050707 0.20180978 -0.19202472 -0.059062883 -0.081023514 -0.25165737
-0.0059649916 0.0133936815 0.13303658 -0.2760752 0.22374155 -0.1771802 -0.34633923 0.11019626
-0.010457142 -0.04450033 0.0033112662 0.21484567
00000000: fbd8 ed3e 17de de3d 3a32 9cbe 39a7 4e3e
00000010: 21a2 44be eceb 71bd a8ef a5bd 3cd9 80be
00000020: fa75 c3bb 2c71 5b3c be3a 083e bb59 8dbe
00000030: 811c 653e ba6e 35be 6053 b1be 94ae e13d
00000040: 6f54 2bbc fa45 36bd d401 593b 8100 5c3e

weight f4 [20, 20]
-0.13556989 -0.032749336 -0.12643526 0.09782621 -0.1432717 -0.17740034 0.18057667 -0.22469558
0.29162404 0.15219674 0.21835637 0.028117517 0.13030034 -0.14987221 -0.06423073 0.39020607
-0.24746768 0.2655195 -0.28073916 -0.14481473 0.28921443 0.5660492 0.07919239 0.13111068
-0.3523588 0.014294906 -0.23479344 -0.19528504 0.24043575 0.03815336 0.27336553 -0.29119086
-0.28334272 -0.09899062 -0.1435222 0.051710337 0.2596473 0.1998018 0.2208971 0.1481037
-0.3825282 -0.16816208 0.47437575 0.14431465 0.22097996 0.15703605 -0.10525082 0.23946047
0.07015916 0.12131157 -0.08906372 0.18311253 -0.33211076 0.109625965 0.35558894 0.41216487
0.04701239 0.039415564 -0.23559393 0.10744734 0.062768914 0.041861735 0.3241146 -0.37382263
0.18525629 -0.004308331 -0.34980604 0.07585232 -0.05281903 0.26961544 -0.42829466 0.37474436
0.035292532 0.12466683 0.20867725 -0.029211849 0.27576283 -0.14265813 -0.10999202 -0.3905769
0.15604363 0.051476464 0.23634964 0.18131101 0.4737645 -0.26444736 0.26933822 0.05285636
0.25014487 0.08118699 -0.038849324 0.16276684 -0.33626285 0.09285995 0.1336319 -0.46990186
-0.16880661 0.016942471 0.13168994 0.2343286 0.118065245 -0.14388408 0.004500612 0.05701826
-0.59105635 0.049384274 0.23559433 0.46547472 -0.16538225 -0.45796594 0.45543385 0.25450954
-0.3446525 -0.03890221 0.028458044 0.21581092 -0.0028784587 -0.16947712 -0.265092 0.22115552
-0.48156828 0.29249313 0.1134359 0.08748972 -0.4720391 -0.09964439 -0.28325203 -0.3620251
0.21721576 -0.8003563 0.3915057 -0.0095754275 -0.02978975 -0.6423887 0.03590076 -0.19720896
-0.114845194 -0.2151112 -0.021828683 -0.1822325 0.64021856 -0.13284014 -0.25787866 0.014533066
-0.49766356 -0.07152088 0.12712957 -0.115969665 -0.11067859 -0.16556698 0.1708483 -0.48852196
-0.31228015 0.31559828 -0.3090525 -0.0002785485 -0.1017618 0.3914063 0.11311527 0.0353317
-0.109956734 0.09527692 0.05951706 0.12995112 -0.53572685 -0.38593745 0.16198164 -0.17286824
0.31105757 -0.04106724 0.17875615 0.14679745 -0.1443381 -0.03364289 0.09059039 -0.48531532
-0.115800224 -0.0048829103 -0.19508937 -0.33053112 0.09014746 0.12526213 -0.10766077 -0.2627957
0.34783548 0.33049166 0.15889405 0.25049868 -0.2586811 -0.06268842 -0.34995607 0.18885979
0.3436434 -0.041580208 0.40335307 0.44196588 0.24568525 -0.11069008 -0.066454075 -0.26564422
0.0031810598 -0.3902008 -0.06681074 -0.08449293 0.30353823 -0.27738795 -0.07290334 0.118218265
0.13104907 0.06584923 -0.18389313 -0.2603047 0.15608248 -0.22509478 0.31103542 0.07182207
0.07406562 -0.34081233 0.38991413 0.03963226 0.17591323 -0.08192203 0.2632956 -0.01711212
-0.14029008 -0.36409467 -0.09947049 -0.22271094 0.24445409 0.048860993 0.5627046 -0.12044797
0.03285898 -0.22452231 -0.19430561 -0.120873615 -0.10788655 0.09364011 0.118701175 0.06951988
-0.11855956 0.17124562 -0.046711292 -0.20238863 0.2545531 0.37038872 0.25112087 0.18629742
-0.41303214 -0.32063735 -0.10929977 -0.25184315 0.044701926 0.059752356 -0.15479092 -0.13069947
00000000: d5d2 0abe 2b24 06bd 3f78 01be 1c59 c83d
00000010: d1b5 12be 6fa8 35be 17e9 383e 9916 66be
00000020: bf4f 953e 76d9 1b3e d098 5f3e b556 e63c
00000030: 746d 053e 1a78 19be 678b 83bd 17c9 c73e
00000040: 2b68 7dbe 2cf2 873e 0bbd 8fbe 504a 14be
00000050: ea13 943e 9ae8 103f 9f2f a23d e141 063e
00000060: 5f68 b4be 2e35 6a3c b16d 70be cdf8 47be
00000070: ca34 763e b346 1c3d 91f6 8b3e f816 95be
00000080: 4c12 91be 98bb cabd 7cf7 12be 38ce 533d
00000090: 7ef0 843e d898 4c3e d932 623e 7fa8 173e
000000a0: bcda c3be ae32 2cbe 61e1 f23e 38c7 133e
000000b0: 9248 623e 0fce 203e be8d d7bd 2035 753e
000000c0: 9baf 8f3d 3372 f83d 0a67 b6bd da81 3b3e
000000d0: 6c0a aabe 9483 e03d c10f b63e 4607 d33e
000000e0: 1090 403d 3772 213d 893f 71be 5a0d dc3d
000000f0: fd8c 803d 3677 2b3d 59f2 a53e ae65 bfbe
00000100: d3b3 3d3e e62c 8dbb c719 b3be 7658 9b3d
00000110: c458 58bd 090b 8a3e 7049 dbbe 7ede bf3e
00000120: e78e 103d 5351 ff3d 7daf 553e b04d efbc
00000130: c930 8d3e f914 12be 7f43 e1bd b2f9 c7be
00000140: e7c9 1f3e fcd8 523d a405 723e 98a9 393e
00000150: 4391 f23e a565 87be b3e6 893e e97f 583d
00000160: fd12 803e 5d45 a63d 7820 1fbd 5aac 263e
00000170: a52a acbe 5c2d be3d cdd6 083e fa96 f0be
00000180: a4db 2cbe f0ca 8a3c bad9 063e d6f3 6f3e
00000190: 31cc f13d 5956 13be df79 933b fb8b 693d
000001a0: 784f 17bf 2a47 4a3d a43f 713e b452 ee3e
000001b0: f759 29be 837a eabe a02e e93e 134f 823e
000001c0: 4b76 b0be ec57 1fbd d820 e93c 8afd 5c3e
000001d0: 86a4 3cbb 698b 2dbe 23ba 87be 9876 623e
000001e0: 1e90 f6be a9c1 953e 1551 e83d cf2d b33d
000001f0: 1caf f1be 5c12 ccbd 6906 91be 5b5b b9be
00000200: cf6d 5e3e 27e4 4cbf 6f73 c83e 41e2 1cbc
00000210: a209 f4bc 9673 24bf ad0c 133d 25f1 49be
00000220: f533 ebbd 1c46 5cbe 11d2 b2bc 289b 3abe
00000230: 5de5 233f 3f07 08be ac08 84be 191c 6e3c
00000240: c2cd febe 8a79 92bd 412e 023e 8181 edbd
00000250: 75ab e2bd 648a 29be dbf2 2e3e 8d1f fabe
00000260: 2fe3 9fbe 1996 a13e 213c 9ebe 260a 92b9
00000270: 7e68 d0bd 6866 c83e fba8 e73d f9b7 103d
00000280: ff30 e1bd 8c20 c33d 29c8 733d e811 053e
00000290: 6525 09bf 9899 c5be 84de 253e 5f04 31be
000002a0: f042 9f3e 1f36 28bd da0b 373e 1252 163e
000002b0: 5ecd 13be 21cd 09bd 7487 b93d 407b f8be
000002c0: ab28 edbd d200 a0bb 82c5 47be 603b a9be
000002d0: 3b9f b83d b744 003e 407d dcbd 288d 86be
000002e0: 7e17 b23e 3436 a93e 1fb5 223e 5d41 803e
000002f0: d971 84be c962 80bd 712d b3be 7664 413e
00000300: 07f2 af3e 0250 2abd 4b84 ce3e 5a49 e23e
00000310: ea94 7b3e 7bb1 e2bd 1319 88bd 8502 88be
00000320: 5479 503b 66c8 c7be 12d4 88bd a10a adbd
00000330: 5d69 9b3e cb05 8ebe 594e 95bd 6b1c f23d
00000340: ba31 063e f6db 863d 7b4e 3cbe a846 85be
00000350: 16d4 1f3e 3f7f 66be 0940 9f3e 7317 933d
00000360: b7af 973d f47e aebe d3a2 c73e 7055 223d
00000370: 9922 343e bdc6 a7bd aece 863e b72e 8cbc
00000380: 34a8 0fbe 9e6a babe 2fb7 cbbd 560e 64be
00000390: 2c52 7a3e 7722 483d 690d 103f 6dad f6bd
000003a0: 2397 063d 2de9 65be 0df8 46be 968c f7bd
000003b0: a0f3 dcbd 63c6 bf3d 9a19 f33d 7060 8e3d
000003c0: 5bcf f2bd 035b 2f3e 5754 3fbd f73e 4fbe
000003d0: c954 823e 97a3 bd3e ea92 803e c0c4 3e3e
000003e0: f378 d3be 942a a4be 8fd8 dfbd 96f1 80be
000003f0: 5e19 373d e3be 743d 8381 1ebe 15d6 05be

bias f4 [20]
0.34587103 0.08947925 -0.29988828 -0.33050084 0.026964445 0.05416287 -0.076022044 0.3846087
-0.13915928 -0.14803812 0.024128152 0.26363572 -0.065191984 -0.05564883 -0.23866093 0.43470383
0.25176805 -0.18355213 -0.23894346 0.25435773
00000000: 0216 b13e e640 b73d f58a 99be 6837 a9be
00000010: 8ae4 dc3c e3d9 5d3d 72b1 9bbd 6eeb c43e
00000020: c57f 0ebe 4e97 17be 67a8 c53c 43fb 863e
00000030: 6083 85bd 07f0 63bd 8863 74be 8091 de3e
00000040: bee7 803e 17f5 3bbe 98ad 74be 2d3b 823e

weight f4 [20, 20]
0.113298394 -0.24838626 0.018114535 0.00078900036 -0.06217325 -0.3843341 -0.38365898 0.26173273
-0.49001086 0.4876177 -0.035505127 -0.4881361 0.17737046 -0.12352936 0.14949003 -0.017493939
-0.45605406 0.32212207 0.20677944 -0.06156699 0.15365885 -0.13851309 0.3023398 0.16659355
0.2839456 -0.13154769 0.01495455 -0.27328843 0.11174319 0.5133277 -0.1895976 -0.019745272
0.4068151 -0.19851278 -0.13153249 -0.582468 -0.2184752 0.5092834 0.016474122 0.006644598
-0.08365809 -0.21479273 0.5444828 0.14608324 0.18313874 0.33575985 -0.34684178 -0.39713898
-0.10213671 -0.16374503 0.0649971 -0.07556638 0.17080209 -0.26957467 0.12595908 -0.44755307
-0.37855223 0.06706044 -0.10303229 -0.20884949 0.01606974 0.19566686 0.05758966 -0.1497084
-0.28953665 -0.009758055 0.115523115 0.20269217 0.49792388 -0.69427043 -0.039728004 0.44937375
-0.14091958 0.27308172 -0.21294214 -0.26648733 0.041288815 0.07610139 -0.32934862 -0.13554768
0.15310127 0.120193645 -0.0008254897 -0.031242868 -0.087499104 0.23697273 0.4337761 0.6121763
0.03214232 -0.70467097 -0.19695957 0.15302859 0.36480993 0.20182255 -0.33822513 0.07928432
-0.12831117 -0.2416285 0.2069327 0.3107336 -0.13575101 -0.07390003 0.058930717 0.07080251
0.045937993 -0.16993484 -0.2710351 -0.044714347 -0.3763236 0.11261039 0.21094096 -0.030876921
0.21563739 -0.49588317 0.112045445 0.07969868 0.062882334 0.69483423 0.039559945 0.061364308
0.5159996 0.22832319 -0.3279999 0.08786854 -0.06994155 0.45513934 0.060908895 0.40404186
-0.14798234 -0.30088228 0.041609444 0.33117935 -0.1802023 0.098684214 -0.1483864 0.21510187
0.05143981 0.11609853 -0.018791823 0.25483972 -0.3954936 -0.47190508 -0.03792391 0.2730072
0.14721347 0.08313641 0.40325153 -0.16998719 0.0023664003 0.29552215 0.3256043 -0.5602124
-0.48795304 0.026433488 0.11308408 -0.0053701703 -0.019587738 0.16613847 0.5665199 -0.34432238
-0.24358907 -0.12895699 0.44469726 0.4517346 0.07369517 -0.09556698 0.16131501 -0.51395684
-0.4341207 0.07242899 -0.16021723 -0.020160422 0.42940578 -0.57445693 0.016112344 0.10110729
-0.1222738 0.11138344 0.13856155 -0.14384578 0.22432984 0.7749931 -0.56029093 -0.83222216
0.1818771 0.12057544 0.42516768 0.54136735 0.3607687 -0.03478322 -0.17732684 0.7778777
-0.48638248 0.25830564 -0.44766414 0.2359388 0.6569584 -0.4298773 -0.2973039 0.5405614
-0.0418733 -0.15094294 0.27995712 -0.0678431 -0.41835192 -0.6915961 0.1424296 -0.19509166
-0.14878331 0.6396271 0.058272608 -0.35398114 0.2370202 -0.17628676 0.4122167 -0.46820384
-0.05349182 -0.1641128 0.46703273 0.072590016 0.2225934 -0.23828174 0.34371278 -0.0015784709
0.22946438 0.42968422 -0.39458317 -0.7040237 0.080336064 0.112360865 0.39609364 0.13520828
0.47784892 0.26026288 0.3418981 -0.051095374 -0.5642359 0.40005115 -0.039037567 -0.096816696
0.4058885 0.31007656 -0.16105862 -0.15820187 0.038093265 0.030851912 0.25734124 -0.09860795
0.37754488 0.03423338 0.009166971 0.5124412 0.3011415 0.008606867 -0.18264666 0.5633545
00000000: fd08 e83d f858 7ebe ef64 943c ebd4 4e3a
00000010: 61a9 7ebd 70c7 c4be f36e c4be d501 863e
00000020: b4e2 fabe 07a9 f93e d36d 11bd faec f9be
00000030: 9aa0 353e f6fc fcbd ea13 193e 734f 8fbc
00000040: eb7f e9be 2fed a43e fdbd 533e ab2d 7cbd
00000050: bf58 1d3e 60d6 0dbe 48cc 9a3e 8097 2a3e
00000060: 5161 913e 70b4 06be ee03 753c 76ec 8bbe
00000070: 9dd9 e43d 7269 033f e025 42be d6c0 a1bc
00000080: 124a d03e ef46 4bbe 74b0 06be 9f1c 15bf
00000090: f6b7 5fbe 6660 023f bdf4 863c eeba d93b
000000a0: ef54 abbd a0f2 5bbe 3a63 0b3f d896 153e
000000b0: b988 3b3e b7e8 ab3e 3f95 b1be cd55 cbbe
000000c0: 0d2d d1bd c7ac 27be 331d 853d 8cc2 9abd
000000d0: bee6 2e3e b105 8abe 6bfb 003e ad25 e5be
000000e0: 99d1 c1be fc56 893d 9802 d3bd a4dc 55be
000000f0: b0a4 833c e55c 483e 23e3 6b3d 294d 19be
00000100: 263e 94be 40e0 1fbc 6297 ec3d 898e 4f3e
00000110: e1ef fe3e b5bb 31bf d5b9 22bd 5114 e63e
00000120: 394d 10be 5ed1 8b3e 810d 5abe 0771 88be
00000130: 761e 293d 0cdb 9b3d 62a0 a8be 03cd 0abe
00000140: 94c6 1c3e 1628 f63d ad65 58ba 0bf1 ffbc
00000150: bb32 b3bd fba8 723e e717 de3e 96b7 1c3f
00000160: aaa7 033d 5165 34bf c5af 49be 87b3 1c3e
00000170: 5ec8 ba3e 92aa 4e3e d82b adbe d15f a23d
00000180: 0164 03be 766d 77be 2ae6 533e 7918 9f3e
00000190: 5002 0bbe e658 97bd 5661 713d e800 913d
000001a0: 7a29 3c3d 6603 2ebe 1dc5 8abe 6426 37bd
000001b0: 7dad c0be 47a0 e63d e800 583e 99f1 fcbc
000001c0: 0cd0 5c3e 66e4 fdbe 1578 e53d 1039 a33d
000001d0: 74c8 803d a8e0 313f 9c09 223d 2459 7b3d
000001e0: 8d18 043f 8ecd 693e 9aef a7be 6cf4 b33d
000001f0: 843d 8fbd 0608 e93e 9b7b 793d 93de ce3e
00000200: af88 17be 3e0d 9abe aa6e 2a3d 5790 a93e
00000210: f486 38be f31a ca3d 9bf2 17be aa43 5c3e
00000220: 8db2 523d 11c5 ed3d 4ff1 99bc 5a7a 823e
00000230: 237e cabe 8b9d f1be 1a56 1bbd 9ac7 8b3e
00000240: 21bf 163e 6c43 aa3d fc76 ce3e 1f11 2ebe
00000250: 9c15 1b3b ae4e 973e 9bb5 a63e 146a 0fbf
00000260: fbd4 f9be 0b8b d83c a098 e73d 41f8 afbb
00000270: 7776 a0bc 3420 2a3e 7307 113f 064b b0be
00000280: 6a6f 79be 4d0d 04be 5caf e33e c249 e73e
00000290: 7eed 963d 9fb8 c3bd c32f 253e ad92 03bf
000002a0: 1245 debe a655 943d fc0f 24be 7827 a5bc
000002b0: 13db db3e 9c0f 13bf 09fe 833c 5711 cf3d
000002c0: b06a fabd 001d e43d 14e3 0d3e 4f4c 13be
000002d0: b9b6 653e f365 463f 3a6f 0fbf 830c 55bf
000002e0: fe3d 3a3e 42f0 f63d 94af d93e 0d97 0a3f
000002f0: adb6 b83e da78 0ebd 2b95 35be fe22 473f
00000300: 2007 f9be a340 843e 3c34 e5be f199 713e
00000310: 6d2e 283f e118 dcbe 3738 98be 3b62 0a3f
00000320: 5683 2bbd c990 1abe 8a56 8f3e 53f1 8abd
00000330: 3932 d6be 710c 31bf 11d9 113e 1cc6 47be
00000340: a75a 18be 9abe 233f 42af 6e3d 043d b5be
00000350: 6cb5 723e 8484 34be 110e d33e 6ab8 efbe
00000360: 3d1a 5bbd 300d 28be ea1e ef3e 13aa 943d
00000370: 86ef 633e 2100 74be 1ffb af3e b2e4 ceba
00000380: b6f8 6a3e 92ff db3e ce06 cabe e63a 34bf
00000390: 3c87 a43d 741d e63d c9cc ca3e 0a74 0a3e
000003a0: 9da8 f43e 2d41 853e 450d af3e 6249 51bd
000003b0: c471 10bf 81d3 cc3e dbe5 1fbd d547 c6bd
000003c0: 9ed0 cf3e 5bc2 9e3e 8dec 24be acff 21be
000003d0: af07 1c3d 26bd fc3c 3bc2 833e f7f2 c9bd
000003e0: 904d c13e 4d38 0c3d 1031 163c 592f 033f
000003f0: 382f 9a3e d103 0d3c ba07 3bbe 0038 103f

bias f4 [20]
-0.042210076 -0.4401453 -0.25135204 0.105970114 0.14826383 -0.05080784 0.656121 -0.27640787
-0.27301806 0.73445505 -0.13528803 -0.16638564 -0.07248906 -0.38860694 -0.19820775 -0.13552718
0.19119737 0.53567576 -0.014148928 -0.15802413
00000000: 79e4 2cbd ba5a e1be 37b1 80be dc06 d93d
00000010: 79d2 173e e21b 50bd 8cf7 273f 5585 8dbe
00000020: 06c9 8bbe 3f05 3c3f f288 0abe ff60 2abe
00000030: 2575 94bd 7df7 c6be f9f6 4abe a3c7 0abe
00000040: 3ec9 433e 0c22 093f e8d0 67bc 14d1 21be

weight f4 [1, 20]
-2.5620182 -2.0306234 -1.880156 1.7086565 2.0172393 -1.3453796 2.3616285 -2.121169
-1.9895782 5.0208826 -2.170796 -2.1917121 1.4815055 -2.5125003 -0.92058545 2.0248914
2.0656054 2.2851207 2.2597768 -1.7617666
00000000: 1bf8 23c0 bcf5 01c0 f4a8 f0bf 42b5 da3f
00000010: 731a 0140 6635 acbf ec24 1740 3cc1 07c0
00000020: 80aa febf 12ab a040 52ee 0ac0 0345 0cc0
00000030: f9a1 bd3f cecc 20c0 7dab 6bbf d297 0140
00000040: e132 0440 6b3f 1240 2fa0 1040 9181 e1bf

u_b f4 [2]
1.1 39.96
00000000: cdcc 8c3f 0ad7 1f42

l_b f4 [2]
0.1 0.0
00000000: cdcc cc3d 0000 0000
