Models/Noise_0/toy_nostop/weak_ff_400.pt (torch, 43935 bytes, 23 tensors)

weight f4 [20, 2]
0	0xbea57eb1	-0.3232322
1	0x3ea98726	0.33110923
2	0xbeb1ab59	-0.3470104
3	0x3ce63d75	0.028105477
4	0x3c9ac06a	0.018890578
5	0xbe8b8aa5	-0.27254215
6	0xbcbe2998	-0.023213193
7	0x3f5edf82	0.87059796
8	0xbc6c019d	-0.0144046815
9	0xbef47486	-0.4774515
10	0x3ee68789	0.4502528
11	0xbecea9ed	-0.40364018
12	0x3ece758d	0.4032406
13	0xbd8d6c71	-0.06905449
14	0x3daa21fc	0.08307263
15	0xbe776c85	-0.2416249
16	0xbe9b0440	-0.3027668
17	0x3dda6229	0.10663254
18	0x3cefa653	0.029254114
19	0xbdc6f76a	-0.09715159
20	0xbe0a0438	-0.13478172
21	0x3e1f09f4	0.1553114
22	0x3e6caea6	0.23113498
23	0x3d1a977e	0.03774213
24	0x3e80371e	0.2504205
25	0xbebef9a5	-0.3729984
26	0xbea2e346	-0.3181402
27	0x3cffd875	0.031231144
28	0x3ea8408b	0.32861742
29	0xbf3e01c2	-0.7422143
30	0x3eb6baec	0.35689485
31	0x3daffc33	0.08593025
32	0x3f00f965	0.50380546
33	0xbf97bd13	-1.1854576
34	0xbf225a17	-0.63418716
35	0xbe59b7e2	-0.21261552
36	0x3dedf099	0.11618156
37	0xbd037ab0	-0.032099426
38	0x3cb24d18	0.021765277
39	0xbd45216b	-0.048127573

bias f4 [20]
0	0x3da4917a	0.0803556
1	0x3c8b65d4	0.017016329
2	0x3f0d70c8	0.55250216
3	0xbf11d785	-0.5696948
4	0x3eedb42a	0.46426517
5	0x3e5853c2	0.21125701
6	0x3f0fe78a	0.56212676
7	0x3eb8645f	0.36014077
8	0xbb956173	-0.004558736
9	0x3ed1b305	0.40956894
10	0xbbc4cda3	-0.006005959
11	0xbcc53dd5	-0.024077335
12	0x3e89867c	0.26860416
13	0x3df01c3d	0.11724136
14	0x3ebc972a	0.3683408
15	0xbe72098e	-0.23636457
16	0xbe41b2d7	-0.18915878
17	0xbdd4cb2f	-0.10390317
18	0xbe81fe37	-0.25389263
19	0x3e6cf167	0.23138963

weight f4 [20, 20]
0	0x3e86f9f9	0.2636259
1	0x3dd94302	0.10608484
2	0xbdd36066	-0.10321121
3	0xbd8f8078	-0.07006925
4	0x3e3e51f6	0.18585953
5	0x3c8e0b7e	0.017339464
6	0x3e123b7b	0.14280502
7	0x3e5c06b7	0.21486937
8	0x3e85473b	0.26030907
9	0x3ea0eb75	0.3142964
10	0x3ea9a9a6	0.33137244
11	0xb8cd743f	-9.796814e-05
12	0x3e848bcc	0.25887907
13	0x3e2f3001	0.17108156
14	0x3f04cb7a	0.5187298
15	0xbe4561be	-0.19275567
16	0x3d18b860	0.03728521
17	0xbde12bb3	-0.10994663
18	0xbe1f9831	-0.155854
19	0x3dcec633	0.10096397
20	0x3e93103d	0.28723326
21	0x3e495345	0.19660671
22	0x3d806f83	0.06271269
23	0xbde940d9	-0.11389322
24	0xbdf64a74	-0.120259196
25	0xbf049668	-0.51792
26	0xbed45483	-0.41470727
27	0xbe7db917	-0.24777637
28	0x3e89d59d	0.26920786
29	0x3c262ba4	0.010142241
30	0xbd0da74c	-0.034583375
31	0xbdbe6c6a	-0.09298022
32	0xbe574bdd	-0.21025033
33	0x3e48d764	0.19613415
34	0xbe79e26e	-0.24402782
35	0x3d056066	0.032562636
36	0x3e3bb773	0.18331699
37	0x3e8c2436	0.27371377
38	0x3b98c32f	0.0046619396
39	0xbc32ee2c	-0.010921042
40	0x3eae8835	0.34088293
41	0x3dc56364	0.09638098
42	0xbe8121a0	-0.25220966
43	0xbee6b6ed	-0.45061436
44	0x3f1ea762	0.61974156
45	0xbd581c45	-0.052761335
46	0xbdca46be	-0.09876774
47	0x3e897970	0.26850462
48	0x3e1b5a6d	0.15171213
49	0xbe9e243c	-0.3088702
50	0xbe438636	-0.19094166
51	0x3e32886f	0.17434858
52	0xbe992753	-0.29912814
53	0xbd27b0d8	-0.040940136
54	0xbd131e9a	-0.035917856
55	0x3d14ae2f	0.036298927
56	0x3e31117e	0.17291829
57	0xbdba0be1	-0.09084297
58	0x3cf8ec26	0.030386042
59	0xbeec31ac	-0.46131647
60	0x3e53611a	0.2064251
61	0x3e01374d	0.12618752
62	0xbe3bc9bd	-0.18338676
63	0x3d8d4371	0.06897629
64	0x3e04bef7	0.12963472
65	0x3e10f3a4	0.14155442
66	0xbe57a929	-0.21060623
67	0x3d4dae50	0.050215065
68	0xbd8005ae	-0.06251083
69	0x3e54bb72	0.2077463
70	0x3dc1f58e	0.09470664
71	0x3e501bcb	0.20323102
72	0x3ec11dd0	0.37718058
73	0x3d73e476	0.05954405
74	0x3d904a1b	0.070453845
75	0xbe1150e4	-0.14191014
76	0xbece691d	-0.4031457
77	0x3d07e49e	0.03317701
78	0x3e443347	0.19160186
79	0x3e79be23	0.24388938
80	0x3eba9097	0.36438438
81	0x3cd53db3	0.026030397
82	0x3cc135e7	0.023585273
83	0x3ea68a58	0.32527423
84	0xbeae5c69	-0.34054878
85	0xbe76b4f4	-0.24092466
86	0x3e3e6beb	0.18595855
87	0x3e9fa166	0.31177825
88	0x3d61cd13	0.055127215
89	0xbd755480	-0.05989504
90	0x3e2b288a	0.16714683
91	0x3c53404f	0.01289375
92	0xbe077a8c	-0.13230342
93	0xbe3b51be	-0.18292901
94	0xbe2de738	-0.16982734
95	0x3e3335cb	0.17500989
96	0xbf1c8d5a	-0.61153185
97	0xbe16d66b	-0.14730231
98	0xbc5a25ec	-0.013314705
99	0x3e96433a	0.29348165
100	0xbda3efe4	-0.0800474
101	0x3e07b073	0.13250904
102	0x3e45f06b	0.19329993
103	0x3ccde7c3	0.025134927
104	0x3e1068f5	0.14102538
105	0x3e776e4f	0.24163173
106	0xbe86ae53	-0.26304874
107	0xbdff4c5b	-0.124657355
108	0x3bfd3d3c	0.007728247
109	0xbe8a7055	-0.27038828
110	0x3dc7b770	0.09751785
111	0xbdb6c195	-0.089236416
112	0xbe80afa7	-0.25134012
113	0xbe7c292f	-0.24625085
114	0x3f12232f	0.57084936
115	0x3d1e50ab	0.03865115
116	0xbe0317ff	-0.12802123
117	0x3d4efd77	0.05053469
118	0x3e503189	0.20331396
119	0x3e877746	0.26458186
120	0xbed6fc65	-0.41989437
121	0xbd7494c1	-0.059712175
122	0xbd2cec2e	-0.042217426
123	0x3dcf675b	0.10127135
124	0xbe17fe79	-0.14843167
125	0xbefae386	-0.49001712
126	0x3e328d71	0.17436768
127	0x3d64bc94	0.055843905
128	0x3e88f610	0.2675023
129	0xbe98a9a8	-0.29816937
130	0x3e2db347	0.1696292
131	0xbe098be1	-0.13432266
132	0x3c5bbee3	0.01341221
133	0xbd80467d	-0.062634446
134	0x3e703367	0.23457108
135	0x3e113862	0.14181665
136	0xbde94766	-0.11390571
137	0xbe949e25	-0.29026905
138	0x3d90ccf3	0.07070341
139	0xbe386231	-0.18006207
140	0x3e845b41	0.2585087
141	0x3f06d009	0.52661186
142	0x3e9919d9	0.29902533
143	0xbc80a16d	-0.015701974
144	0x3eb34cd6	0.3501956
145	0x3d329ce2	0.043606646
146	0xbeb87f37	-0.36034557
147	0x3decbfc3	0.11560013
148	0x3d890011	0.06689466
149	0x3d0df8fb	0.034661274
150	0x3dfa19e8	0.122119725
151	0x3dc8e20d	0.09808741
152	0x3e7d0a2b	0.2471091
153	0xbe3ae812	-0.1825259
154	0x39ad1e4c	0.00033019704
155	0xbec42edc	-0.38317
156	0xbe99d09a	-0.30041963
157	0xbd3c6266	-0.045992278
158	0xbe88643d	-0.26638976
159	0x3e8dd7ed	0.277038
160	0x3d6ddb5a	0.058070518
161	0xbe0013e0	-0.12507582
162	0xbe219672	-0.15780047
163	0x3e5b160d	0.2139513
164	0xbebda50c	-0.37039983
165	0x3e56cbca	0.20976177
166	0xbe54a184	-0.20764738
167	0xbe59a5d7	-0.21254669
168	0xbe658b20	-0.22416353
169	0xbde1f2b0	-0.11032617
170	0x3dd872ae	0.105687484
171	0x3e3a5278	0.18195522
172	0x3e02eb81	0.1278515
173	0xbe0297dd	-0.12753244
174	0x3d580389	0.052737746
175	0x3ebfc9bc	0.374586
176	0x3dd1ce4a	0.10244425
177	0x3e0ceddb	0.1376261
178	0x3e592c94	0.21208411
179	0xbe559b51	-0.2086003
180	0x3e3ad65a	0.18245831
181	0x3d95fb42	0.07323314
182	0x3eac18f5	0.3361279
183	0x3e5f42be	0.21802804
184	0x3f0049c7	0.50112575
185	0x3e54d1b6	0.20783123
186	0x3dd10f2c	0.10207972
187	0x3e3aeb5c	0.18253845
188	0x3f058d54	0.52168775
189	0x3df1606e	0.11785971
190	0x3e11f59f	0.14253853
191	0xbea1e8a7	-0.31622812
192	0xbdff12ac	-0.12454733
193	0x3e901ed3	0.28148517
194	0xbe489d03	-0.19591145
195	0xbd7fe4ff	-0.062474247
196	0x3eabbf10	0.33544207
197	0xbd9e9a52	-0.07744278
198	0xbe85d93b	-0.26142296
199	0x3d87c64f	0.06629621
200	0xbd913310	-0.070898175
201	0x3e8f54c0	0.27994347
202	0xbd9be1c9	-0.076114245
203	0xbd7a64da	-0.061131336
204	0xbe7274d9	-0.23677386
205	0xbe6c793d	-0.23093124
206	0xbd96a3a4	-0.07355431
207	0xbde7cc53	-0.113182686
208	0x3efb8d2d	0.49131146
209	0xbebff15e	-0.37488836
210	0xbd7f0841	-0.06226373
211	0xbda66047	-0.08123832
212	0xbe9e7d6a	-0.30955058
213	0xbe255073	-0.1614397
214	0x3ce82324	0.028337069
215	0xbd96ef46	-0.073698565
216	0xbef577fb	-0.479431
217	0x3eb54234	0.3540207
218	0x3e46506e	0.19366619
219	0xbe49e00f	-0.19714378
220	0xbed24830	-0.410707
221	0x3e2a2df1	0.16619088
222	0x3e4df630	0.20113444
223	0x3e985fb1	0.29760507
224	0xbe14acca	-0.14519039
225	0x3d977e8c	0.07397184
226	0x3b1ccd55	0.0023926098
227	0xbe3500bf	-0.17676066
228	0xbe4cebc0	-0.20011806
229	0x3ea06501	0.3132706
230	0x3dc1cef3	0.094633006
231	0x3f018c7f	0.50605005
232	0xbd55a076	-0.05215498
233	0xbe2b1214	-0.16706115
234	0x3e66f5dd	0.22554727
235	0xbe36ee33	-0.17864303
236	0xbdf824db	-0.121164046
237	0xbc340699	-0.010987901
238	0x3e7c0574	0.24611455
239	0x3d1485ad	0.036260296
240	0xbec6b608	-0.38810754
241	0x3d1368ff	0.035988804
242	0x3e1081ea	0.14112058
243	0xbd3cb407	-0.046070125
244	0xbe9f858e	-0.31156582
245	0x3ec8867e	0.3916511
246	0x3d4c7bee	0.049922876
247	0xbe355d7d	-0.17711444
248	0x3d2d6b50	0.04233867
249	0x3e53250e	0.20619604
250	0xbe183f8a	-0.14867988
251	0x3e97e2c6	0.29665202
252	0x3e344113	0.17602949
253	0xbdf42254	-0.1192061
254	0xbc9235b0	-0.017847866
255	0x3e3513b9	0.17683305

bias f4 [20]
0	0x3e3419e7	0.17588006
1	0x3b236f4a	0.002493816
2	0x3e1b466a	0.1516358
3	0xbe7c006f	-0.2460954
4	0x3f06e981	0.5270005
5	0xbd7ddde8	-0.061979204
6	0x3ce2109c	0.02759581
7	0x3e5c1f45	0.21496303
8	0xbea607a8	-0.32427716
9	0x3eda38b5	0.4262139
10	0xbf151afd	-0.58244306
11	0xbc9b7c88	-0.01898028
12	0xbe99938e	-0.29995388
13	0xbd6239f1	-0.05523104
14	0xbce7664d	-0.028247023
15	0x3eab9aac	0.33516443
16	0x3e59c2ab	0.21265666
17	0xbbf2fdfd	-0.0074155317
18	0xbedfdf30	-0.43724966
19	0x3ecca11b	0.39966664

weight f4 [20, 20]
0	0x3e8d168f	0.27556273
1	0xbe7dd328	-0.24787581
2	0x3e449a75	0.19199546
3	0x3e035fb3	0.12829475
4	0xbe304684	-0.172144
5	0xbdcb2557	-0.099192314
6	0x3db8ddaa	0.09026654
7	0x3ed2e5ef	0.4119105
8	0xbf2b2584	-0.6685412
9	0x3e9dfe33	0.30858
10	0x3c1f4634	0.009721328
11	0x3e8acf1c	0.27111137
12	0x3de1f406	0.11032872
13	0x3e0b328a	0.13593498
14	0x3e822d0c	0.25424993
15	0xbe38d51d	-0.18050046
16	0x3ef09579	0.4698904
17	0xbd62970a	-0.055319823
18	0x3e157b67	0.14597856
19	0xbe805ea9	-0.2507222
20	0x3e30bd44	0.17259699
21	0x3e10df4d	0.14147682
22	0x3d3dd26a	0.046343245
23	0x3dd382b0	0.10327661
24	0xbd3c2b25	-0.045939583
25	0x3e93578d	0.28777733
26	0x3e32589c	0.17416614
27	0xbe2db299	-0.16962661
28	0x3c967b1f	0.018369256
29	0x3e5eaf6b	0.21746604
30	0x3ca313a5	0.019906828
31	0x3e854f4c	0.2603706
32	0xbdd861f4	-0.10565558
33	0xbc258aab	-0.010103862
34	0xbd691e9c	-0.056913957
35	0x3e610c04	0.2197724
36	0xbc33d2ef	-0.010975583
37	0x3eb7dcc2	0.35910612
38	0x3ed43563	0.4144698
39	0xbd34d2bc	-0.044146284
40	0xbece1ad2	-0.40254837
41	0xbc4c9117	-0.012485764
42	0x3d6ed5ff	0.05830955
43	0xbe4f4b3a	-0.2024354
44	0x3e21cb1f	0.15800141
45	0x3e48fff3	0.19628887
46	0x3e588863	0.21145777
47	0x3db7279a	0.089431
48	0x3e7e4348	0.24830353
49	0x3eb8cebe	0.36095232
50	0xbe11b1c9	-0.14227976
51	0xbe83c440	-0.25735664
52	0xbe874004	-0.26416028
53	0x3c4f0cd9	0.01263734
54	0xbc85d839	-0.016338455
55	0x3e5c8fde	0.21539256
56	0x3eacc7e2	0.33746248
57	0x3d03abf9	0.032146428
58	0xbe59b7d5	-0.21261533
59	0x3e0b0865	0.13577421
60	0x3e57a558	0.21059167
61	0x3dfc7b08	0.12328154
62	0xbdddca0d	-0.10829554
63	0xbdfa1778	-0.122115076
64	0xbea940ec	-0.33057344
65	0xbe3e42e3	-0.18580203
66	0xbf23909a	-0.6389252
67	0xbee2b432	-0.44278103
68	0xbe1a5889	-0.15072836
69	0xbe0cbb8a	-0.13743415
70	0xbd0f7a1c	-0.035028562
71	0xbc7c9d5e	-0.015418379
72	0xbe28d0e3	-0.16485934
73	0x3aa3cba4	0.0012496603
74	0xbe1cdce2	-0.15318635
75	0x3e40c273	0.18824176
76	0x3cc4e555	0.024035135
77	0xbdd639df	-0.10460257
78	0x3d521254	0.05128701
79	0x3eec5d98	0.46165156
80	0x3e65fc01	0.22459413
81	0xbd88dd75	-0.066828646
82	0xbd2701b0	-0.040773094
83	0x3d8c5bae	0.06853424
84	0x3eae9c9d	0.3410386
85	0xbe968402	-0.2939759
86	0xbdd44218	-0.10364169
87	0xbe0300b7	-0.12793241
88	0x3e86f20d	0.26356545
89	0xbcd5da44	-0.026105054
90	0xbe6a66d8	-0.22890794
91	0xbea53fb8	-0.32275176
92	0xbe170e6e	-0.14751598
93	0xbf1f58bb	-0.62244767
94	0x3f0adc7b	0.54242676
95	0x3d131f83	0.035918724
96	0xbe705af5	-0.23472197
97	0xbea9073f	-0.3301334
98	0x3e970e1f	0.2950296
99	0x3e209db2	0.15685156
100	0xbe843061	-0.2581816
101	0xbdf02c74	-0.11727229
102	0xbd713068	-0.058884054
103	0xbdf4f9a7	-0.1196168
104	0xbe856754	-0.26055396
105	0xbd826f27	-0.06368857
106	0x3df07b65	0.11742286
107	0xbefab947	-0.4896948
108	0x3e762f58	0.24041498
109	0xbe467a4a	-0.19382587
110	0xbd8d9c7d	-0.069146134
111	0xbd18a013	-0.037262034
112	0x3ee1bf05	0.4409105
113	0x3e1faecb	0.15594022
114	0x3ef79c9b	0.48361668
115	0xbd269d42	-0.040677316
116	0xbb8d9e12	-0.004321822
117	0x3db12ac9	0.08650739
118	0x3e2549a0	0.16141367
119	0xbf0a6337	-0.5405764
120	0x3e9f91c5	0.311659
121	0x3d4fb8f5	0.0507135
122	0x3d6cc5c3	0.057805788
123	0x3e7ccaee	0.24686787
124	0x3d453cf4	0.048153833
125	0xbcae1e36	-0.02125464
126	0xbe61a016	-0.22033724
127	0x3eb9f2f2	0.36318165
128	0xbde90e64	-0.11379698
129	0x3e260e5b	0.16216414
130	0x3e8dbdb2	0.2768379
131	0x3d7f91ff	0.062395092
132	0xbe5b8b7e	-0.21439931
133	0x3e9bbb96	0.30416554
134	0xbe8c6f06	-0.27428454
135	0x3e85b8bc	0.26117504
136	0x3e3c48e8	0.18387187
137	0xbf107a3a	-0.564365
138	0xbe1b14bf	-0.15144633
139	0x3dcb559a	0.099284366
140	0xbdb2d42e	-0.08731876
141	0x3e3c6b3f	0.18400286
142	0xbcf4e618	-0.029894873
143	0x3e36ef89	0.17864813
144	0xbda06785	-0.07832245
145	0xbd164b8c	-0.03669314
146	0xbe56bb42	-0.2096987
147	0x3e901a57	0.28145096
148	0x3e9c07ec	0.30474794
149	0x3e1bb71d	0.15206571
150	0x3da51391	0.080603726
151	0xbdfd018b	-0.1235381
152	0xbdc409ac	-0.09572157
153	0xbd9d8307	-0.07691007
154	0x3d2b98d6	0.041893803
155	0x3e4f2ca6	0.20231876
156	0xbe096c47	-0.13420211
157	0x3ec3b31a	0.3822258
158	0x3c957ada	0.018247057
159	0x3db284fe	0.087167725
160	0xbc3005f9	-0.0107436115
161	0xbe0d5562	-0.13802102
162	0xbe998421	-0.2998362
163	0x3ec8d507	0.39225027
164	0x3e9ce312	0.3064199
165	0x3e1999d8	0.15000093
166	0x3d556fb4	0.05210848
167	0xbd503e53	-0.050840687
168	0x3dc40330	0.095709205
169	0xbce3f0a7	-0.027824713
170	0xbe0a3407	-0.1349641
171	0x3eb72f42	0.35778242
172	0xbe3370f9	-0.17523564
173	0xbe95aaf2	-0.29231983
174	0x3e755e7d	0.23961826
175	0xbc85c677	-0.016329987
176	0xbddbf185	-0.107394256
177	0xbe428236	-0.18994984
178	0x3e898e07	0.2686617
179	0xbe91de33	-0.28489837
180	0x3ee06022	0.43823344
181	0xbe7234e5	-0.2365299
182	0xbe080788	-0.13284123
183	0xbd9d588c	-0.076829046
184	0xbe8c64ba	-0.27420598
185	0x3eab2ca8	0.33432508
186	0xbea99b73	-0.3312641
187	0x3da75738	0.081709325
188	0x3b50ff38	0.0031890403
189	0x3da6fdcb	0.08153876
190	0xbc544fda	-0.012958491
191	0x3e289351	0.16462447
192	0xbe2e5660	-0.17025137
193	0xbdad3c74	-0.08458796
194	0xbe43a65a	-0.19106427
195	0x3e7ac7fe	0.24490353
196	0x3da93daf	0.08263718
197	0x3d982c5d	0.074303366
198	0x3dc0ae99	0.09408302
199	0xbe37b7c7	-0.17941199
200	0x3e12eb29	0.14347519
201	0x3dd8dd35	0.10589067
202	0x3dbdda9d	0.09270213
203	0x3cdf9b26	0.02729566
204	0x3dc95172	0.098299876
205	0x3d9f23f3	0.07770529
206	0x3dc5bf9f	0.096556894
207	0xbd8790fc	-0.066194504
208	0xbdf0ed4a	-0.11764009
209	0x3e34dc8f	0.17662261
210	0xbcf1a611	-0.029498132
211	0x3dfbd52d	0.122965194
212	0xbd3368de	-0.04380118
213	0x3e3e30ed	0.18573351
214	0xbeb45148	-0.35218263
215	0x3e230175	0.15918525
216	0x3d823d8e	0.06359397
217	0xbeceddf6	-0.40403718
218	0xbdf046b6	-0.11732237
219	0xbe988c1d	-0.29794398
220	0xbd482abc	-0.04886888
221	0x3d426e11	0.04746825
222	0xbdc78e73	-0.09743967
223	0xbe20da7c	-0.15708345
224	0x3e8d340d	0.27578774
225	0xbe659b4c	-0.22422522
226	0x3d65c0b8	0.056091994
227	0xbd49bed6	-0.04925426
228	0xbe8d21b3	-0.27564773
229	0x3e6d9483	0.23201184
230	0xbe321a9a	-0.1739296
231	0xbd98138d	-0.07425604
232	0x3e25bfab	0.16186397
233	0x3e74f997	0.23923336
234	0x3cc66992	0.024220262
235	0x3e1bbfa5	0.15209825
236	0x3dd26789	0.10273654
237	0x3f23fdfb	0.6405942
238	0xbe88c1b9	-0.267103
239	0x3d6e01fb	0.058107357
240	0xbe46de5e	-0.19420764
241	0x3e29ed44	0.16594416
242	0xbe7228d7	-0.23648392
243	0xbd7eb155	-0.062180836
244	0x3e28ff4f	0.16503642
245	0xbeaaeec9	-0.33385304
246	0xbcfac506	-0.030611526
247	0x3e975a4f	0.29561087
248	0xbe03b218	-0.12860906
249	0x3d0cf145	0.03440978
250	0x3da6d05d	0.08145211
251	0xbdae812c	-0.08520731
252	0xbe110ac0	-0.14164257
253	0xbeb6d8b6	-0.35712212
254	0x3e14c789	0.14529242
255	0xbf085d4e	-0.5326737

bias f4 [20]
0	0xbde11ca4	-0.10991791
1	0x3e7bcccc	0.24589843
2	0x3e3f73c0	0.18696499
3	0xbe21db9b	-0.15806429
4	0x3ed1dc23	0.40988263
5	0xbdd3f677	-0.10349744
6	0x3e91b06d	0.28454915
7	0xbdfce56f	-0.123484485
8	0xbdc8933b	-0.09793707
9	0xbe284477	-0.16432367
10	0x3e09a104	0.13440329
11	0x3e624d71	0.22099854
12	0xbe84da6a	-0.25947887
13	0xbaa02367	-0.0012217582
14	0xbe8fc272	-0.28078038
15	0x3d85b325	0.0652831
16	0x3ed6035a	0.41799432
17	0x3f2bff87	0.6718678
18	0xbaa72053	-0.0012750722
19	0xbdcf3ea1	-0.101193674

weight f4 [20, 20]
0	0x3cb77326	0.022393774
1	0x3d48f77c	0.049064144
2	0x3e847cd6	0.25876492
3	0xbe8e69c8	-0.2781508
4	0x3f0c4584	0.5479357
5	0xbdda55bf	-0.10660886
6	0x3ebf5e28	0.37376523
7	0xbe40dc99	-0.18834151
8	0x3ebf7efb	0.37401566
9	0x3cb785f6	0.022402745
10	0x3e04a152	0.12952164
11	0xbdd33ef1	-0.103147395
12	0x3e944186	0.2895624
13	0x3e1310e1	0.14361908
14	0xbdae641c	-0.08515188
15	0x3e891ab2	0.2677818
16	0x3e6fac1d	0.234055
17	0x3f07f776	0.5311197
18	0x3e7baf8a	0.24578682
19	0xbd1b4cb6	-0.037914954
20	0x3de15896	0.110032246
21	0x3d4dc27c	0.050234303
22	0xbdce4e2d	-0.100735046
23	0x3d269c20	0.040676236
24	0x3e037818	0.12838781
25	0x3e863e29	0.262193
26	0x3ed1802d	0.40918103
27	0x3d1f41a9	0.038880978
28	0xbe1b22e3	-0.15150027
29	0x3e2c7ded	0.16844912
30	0xbe8f8fd4	-0.2803942
31	0xbe20221d	-0.15638013
32	0xbea4e177	-0.32203266
33	0x3ee58ab7	0.44832394
34	0xbe91f1a7	-0.2850468
35	0xbe7635e2	-0.24043992
36	0x3e87cf86	0.26525515
37	0x3e9df006	0.30847186
38	0xbdfc974d	-0.12333546
39	0x3e1ca03f	0.15295504
40	0xbef04f43	-0.46935472
41	0xbe8e3250	-0.2777276
42	0x3e54b38c	0.20771617
43	0xbd84be0e	-0.064815626
44	0xbe8415d0	-0.25797892
45	0x3ec8da75	0.3922917
46	0xbf0b01db	-0.54299706
47	0x3dfce212	0.12347807
48	0x3e6b930c	0.23005313
49	0x3efc9082	0.49329
50	0xbe1248c0	-0.14285564
51	0xbc45144e	-0.012028767
52	0xbe414da5	-0.18877275
53	0x3dc25d0a	0.09490402
54	0x3e060f64	0.13091809
55	0xbe9fa9ca	-0.31184226
56	0xbeb0ac46	-0.34506434
57	0x3ecab122	0.39588267
58	0xbd695abc	-0.056971297
59	0x3f0af3ca	0.5427824
60	0xbdd788fa	-0.10524173
61	0xbd0e746f	-0.03477901
62	0xbe093ccc	-0.13402098
63	0x3e5ada3a	0.2137231
64	0xbdba5080	-0.090973854
65	0xbe126b78	-0.14298809
66	0x3e13a190	0.144171
67	0x3e605f3b	0.21911328
68	0xbce25616	-0.02762894
69	0x3e7480ec	0.23877305
70	0x3e8abdf4	0.27098048
71	0xbeef41f9	-0.4673002
72	0x3c248754	0.01004203
73	0x3e800d1d	0.25010005
74	0x3c3ea96c	0.011637073
75	0x3dcd141a	0.100136
76	0xbe6ac826	-0.22927913
77	0x3eff3abf	0.49849507
78	0x3e2b7d43	0.16747002
79	0xbf17780c	-0.5916755
80	0x3ea1378b	0.31487688
81	0xbe32b868	-0.17453158
82	0xbe881394	-0.26577437
83	0x3df6fb72	0.12059678
84	0x3e770e89	0.24126638
85	0x3e85b43c	0.2611407
86	0xbe3210ce	-0.17389223
87	0x3d2ec6dc	0.042670116
88	0xbd3b645f	-0.04575002
89	0xbe20b8fc	-0.15695566
90	0x3e161960	0.14658117
91	0x3e750182	0.23926356
92	0xbdc16a0f	-0.09444057
93	0x3e4985b2	0.19679907
94	0xbdc66ece	-0.09689103
95	0x3d8784a6	0.066170976
96	0xbeb2661a	-0.34843522
97	0xbf09170b	-0.53550786
98	0xbea6e66a	-0.32597667
99	0x3da04cb5	0.07827131
100	0xbc423f74	-0.011855949
101	0xbd2a246c	-0.04153864
102	0x3d5f6b18	0.054545492
103	0x3e074f1b	0.1321377
104	0x3e52cc0a	0.20585647
105	0xbc532cd6	-0.012889108
106	0xbe8ecf78	-0.2789266
107	0xbca2fd98	-0.019896314
108	0x3e7afba0	0.2451005
109	0x3cf3dee9	0.029769378
110	0xbe7730c9	-0.24139704
111	0xbecc66b3	-0.39922103
112	0xbd449ddb	-0.048002105
113	0x3e582335	0.2110718
114	0xbea9de61	-0.33177474
115	0xbe50de31	-0.2039726
116	0xbe2331c7	-0.15936957
117	0xbccae345	-0.024766574
118	0x3eb783f1	0.3584285
119	0x3d78da3a	0.060754992
120	0xbd7c098a	-0.061532535
121	0x3ef6463c	0.4810046
122	0x3da1f8e2	0.07908799
123	0x3c153beb	0.009108524
124	0xbeac1be4	-0.3361503
125	0x3eb55665	0.35417476
126	0x3b3bf7d2	0.0028681648
127	0xbd200cf5	-0.039074857
128	0xbea5d048	-0.32385468
129	0x3ec587ce	0.38580173
130	0xbe25196b	-0.16122977
131	0xbe7f8397	-0.24952541
132	0x3dd367e1	0.10322548
133	0xbeab343e	-0.33438295
134	0x3e581f2b	0.2110564
135	0x3e843165	0.25818935
136	0x3ec7c651	0.3901849
137	0xbdab6090	-0.08368027
138	0x3dc62f8f	0.0967704
139	0xbe91b9a2	-0.2846194
140	0xbe87a2cc	-0.26491392
141	0xbd61a599	-0.055089567
142	0xbed57a3e	-0.41694826
143	0x3e949835	0.29022375
144	0xbf2543bb	-0.64556473
145	0x3ee6bfef	0.4506831
146	0x3e9a8a6c	0.30183733
147	0x3e495bc6	0.19663915
148	0xbdff6d28	-0.12471992
149	0xbd98ee66	-0.07467346
150	0x3ee03492	0.43790108
151	0xbe2d88d2	-0.16946724
152	0x3e5d0d8c	0.21587199
153	0xbe9beccb	-0.30454096
154	0xbe6781cc	-0.22608107
155	0x3e1401eb	0.14453857
156	0xbdcf175c	-0.10111877
157	0xbe9da5d1	-0.3079057
158	0xbec3575b	-0.38152584
159	0xbdded9d3	-0.108813904
160	0x3ea2b842	0.31781203
161	0xbc171126	-0.009220397
162	0xbe617b93	-0.22019796
163	0xbe4f30ac	-0.2023341
164	0x3e6c7ba8	0.23094046
165	0x3e4f2acd	0.20231171
166	0xbe448ef2	-0.19195154
167	0xbe401494	-0.1875785
168	0xbc91348a	-0.017725248
169	0xbda6d057	-0.081452064
170	0x3ddde98b	0.108355604
171	0x3ba140a5	0.0049210363
172	0x3e0f2284	0.1397801
173	0x3e645a37	0.22300039
174	0x3e477349	0.19477572
175	0xbca0c5e7	-0.019625617
176	0xbe85f707	-0.2616503
177	0xbe9477ff	-0.289978
178	0x3e36b339	0.17841806
179	0x3d814e09	0.06313712
180	0x3e99e1bc	0.30055034
181	0x3e1e10e3	0.1543613
182	0x3da4856b	0.0803326
183	0xbe3b99fa	-0.18320456
184	0xbd791234	-0.060808375
185	0xbda5f4a5	-0.08103303
186	0xbe563dc0	-0.20921993
187	0x3df57af8	0.11986345
188	0xbdd2c5bc	-0.10291621
189	0x3e9983e4	0.29983437
190	0xbe487c5e	-0.19578692
191	0xbd7d5716	-0.06185063
192	0xbecff236	-0.4061448
193	0x3e3ce4e4	0.1844669
194	0x3ea85b80	0.3288231
195	0xbe96360a	-0.29338104
196	0xbe2627ad	-0.16226073
197	0xbeebde1f	-0.46067902
198	0xbe0856f1	-0.13314416
199	0x3d133a36	0.035944186
200	0xbca586c6	-0.020205867
201	0x3ea168ec	0.31525362
202	0x3e13cec7	0.14434348
203	0x3eab847d	0.33499518
204	0xbe3ec1d4	-0.18628627
205	0x3e817d2e	0.25290817
206	0xbdfa6089	-0.12225444
207	0xbb350d3a	-0.0027626292
208	0x3e89c329	0.26906708
209	0x3db53c72	0.0884942
210	0xbe8d8ce9	-0.27646568
211	0xbdc9a428	-0.098457634
212	0x3e495a62	0.19663385
213	0x3eb2e204	0.3493806
214	0x3dc97d14	0.0983831
215	0xbef274c4	-0.4735471
216	0xbe6d1023	-0.23150687
217	0xbf2562e7	-0.6460404
218	0x3c7ddad1	0.015494064
219	0xbe0995e1	-0.1343608
220	0x3d7b78c8	0.061394483
221	0x3de2cde6	0.11074428
222	0xbd833ef7	-0.06408494
223	0xbd914124	-0.07092503
224	0xbe519e9c	-0.20470661
225	0x3e469575	0.19392951
226	0x3cf86755	0.03032271
227	0x3c3a7656	0.011380753
228	0xbe70203b	-0.23449795
229	0xbd77af92	-0.06047017
230	0xbe56e87c	-0.20987123
231	0xbdd0e964	-0.10200766
232	0xbe1d7b82	-0.15379146
233	0xbe9d8cf9	-0.30771616
234	0x3e1327a8	0.14370596
235	0x3e8ee5a9	0.27909592
236	0x3d257792	0.040397234
237	0x3daa0097	0.08300894
238	0xbdbf22a2	-0.093327776
239	0x3e4868dd	0.19571252
240	0x3ebf7a17	0.37397835
241	0x3e551e74	0.20812398
242	0x3e54cef5	0.20782073
243	0x3e71a143	0.23596673
244	0xbc99e67c	-0.018786661
245	0xbed50d61	-0.4161177
246	0x3e542c28	0.2071997
247	0xbed3cd1f	-0.41367432
248	0xbdc7a973	-0.09749117
249	0x3dab1ae8	0.08354741
250	0x3e112ff5	0.1417845
251	0x3e8f0f7f	0.2794151
252	0xbeb4554c	-0.35221326
253	0xbd3c1273	-0.045916032
254	0xbd0d4fc4	-0.0344999
255	0x3f20688a	0.62659514

bias f4 [20]
0	0x3e96e0b9	0.29468325
1	0x3ef2715b	0.47352108
2	0xbd9aaea2	-0.0755284
3	0xbdb10c94	-0.08644977
4	0xbeab2216	-0.33424443
5	0xbe9655c8	-0.2936232
6	0xbdd8c019	-0.10583515
7	0x3c85ce51	0.01633373
8	0xbdf162f1	-0.1178645
9	0xbdb59f1f	-0.088682406
10	0xbed3b220	-0.41346836
11	0x3d97f300	0.074193954
12	0x3d908e79	0.070584245
13	0x3d22ceb3	0.039747905
14	0xbdbb92da	-0.09158869
15	0xbd8347c2	-0.06410171
16	0xbde9657e	-0.11396311
17	0xbd83e77c	-0.064406365
18	0xbe8770c9	-0.26453236
19	0x3ebf2aae	0.3733725

weight f4 [20, 20]
0	0x3e3ecda0	0.18633127
1	0x3c6fe6d3	0.014642435
2	0x3c2daf51	0.010600881
3	0xbe1f57bd	-0.15560813
4	0x3e341f14	0.1758998
5	0x3dbb918a	0.09158619
6	0xbdc8b88a	-0.09800823
7	0xbde1ea50	-0.1103102
8	0x3ed24308	0.41066766
9	0x3e0e4d02	0.13896564
10	0xbd783636	-0.060598575
11	0x3dd9f29e	0.10641979
12	0x3e2904fd	0.16505809
13	0xbe6b6cab	-0.22990672
14	0x3e16bcde	0.14720485
15	0xbe3b359f	-0.18282174
16	0x3e9562ea	0.29177028
17	0xbd879968	-0.06621057
18	0xbdd5f5c0	-0.10447264
19	0xbe38eb66	-0.18058547
20	0xbba78ce1	-0.0051132296
21	0xbe10d583	-0.14143948
22	0x3ea7af63	0.32750997
23	0xbd664334	-0.056216434
24	0x3caafd54	0.02087275
25	0xbdda9737	-0.10673373
26	0x3d895002	0.067047134
27	0xbe35a871	-0.17740037
28	0x3ed6ccef	0.41953227
29	0xbe9cab65	-0.30599514
30	0xbc70eada	-0.0147044305
31	0xbd8d1a37	-0.06889766
32	0xbe34ce4d	-0.17656823
33	0x3d10750e	0.035267882
34	0xbec70349	-0.38869694
35	0xbf079160	-0.529562
36	0xbe4863bc	-0.19569296
37	0x3f000cf8	0.5001979
38	0x3de82ee2	0.11337067
39	0x3d77c197	0.060487356
40	0x3eabf1f8	0.33583045
41	0x3e84abe5	0.25912395
42	0xbdd8581c	-0.105636805
43	0x3e89bd82	0.26902395
44	0xbe9a9342	-0.30190474
45	0xbe9da0b6	-0.30786675
46	0x3e1aea89	0.1512853
47	0x3e55e4ae	0.20888016
48	0x3cc6a4d5	0.02424852
49	0xbd97b380	-0.07407284
50	0xbd826aeb	-0.06368049
51	0x3d095fef	0.033538755
52	0x3e466375	0.19373877
53	0x3ee853db	0.45376477
54	0xbd0f553c	-0.034993395
55	0xbe3bf963	-0.18356852
56	0x3aabce7b	0.0013107801
57	0xbe419fc5	-0.18908603
58	0xbef66219	-0.48121718
59	0x3e4bb054	0.19891483
60	0xbd50886a	-0.050911345
61	0x3e788271	0.2426851
62	0xbd1d9ccf	-0.038479622
63	0xbca1356c	-0.019678794
64	0x3d3b6f0d	0.045760203
65	0xbe3258f8	-0.17416751
66	0xbe305a1c	-0.17221874
67	0xb96c3364	-0.00022525858
68	0xbe403788	-0.18771183
69	0xbe085abd	-0.13315864
70	0xbe349ccc	-0.17637938
71	0xbde9bf23	-0.114134096
72	0x3e99c400	0.3003235
73	0x3e26df61	0.1629615
74	0x3e2e6458	0.17030466
75	0x3ed34416	0.41262883
76	0xbb8545ae	-0.0040671444
77	0x3e109f1c	0.14123195
78	0x3e38b823	0.18038993
79	0x3dbe2c58	0.09285802
80	0xbe8f4733	-0.27984008
81	0x3d1ddf2e	0.03854292
82	0x3edc2638	0.4299791
83	0xbc331366	-0.010929918
84	0x3d834ed0	0.06411517
85	0x3b67c480	0.0035364926
86	0xbe33edb7	-0.1757115
87	0xbe867d8b	-0.26267657
88	0x3e0f77d6	0.14010558
89	0xbdd86f53	-0.105681084
90	0xbe38a052	-0.18029907
91	0x3d60965b	0.05483089
92	0xbf074b47	-0.5284924
93	0xbde0a917	-0.10969751
94	0xbf044d9d	-0.5168093
95	0x3e0ec63a	0.13942805
96	0xbe927c27	-0.28610346
97	0x3e8cb80f	0.27484176
98	0x3e39c90e	0.18143103
99	0xbe9a3679	-0.30119684
100	0xbeaf604b	-0.34253153
101	0x3d9f6677	0.077832155
102	0x3e14bd2b	0.14525287
103	0xbd9624e3	-0.07331254
104	0x3e93c714	0.28862822
105	0x3d090a3d	0.03345703
106	0xbebb440e	-0.3657536
107	0xbbeb9e38	-0.007190492
108	0x3da705b1	0.081553824
109	0xbd61e53e	-0.055150263
110	0xbe59e8f4	-0.21280271
111	0xbeb3a0fc	-0.3508376
112	0xbe3b33f3	-0.18281536
113	0x3e6d552f	0.23177026
114	0xbd74b60d	-0.05974393
115	0x3f00ec20	0.503603
116	0xbe0d86cf	-0.13820957
117	0xbc35e33c	-0.01110154
118	0xbe81e08c	-0.25366628
119	0xbe9431f0	-0.2894435
120	0x3ea3efc2	0.32018858
121	0x3db5ed28	0.088831246
122	0x3c8aaea1	0.016928973
123	0x385b090f	5.2222105e-05
124	0xbea89e92	-0.3293348
125	0x3dd8d896	0.105881855
126	0xbe0f052a	-0.13966814
127	0x3df355f9	0.11881632
128	0x3d0cd926	0.034386776
129	0x3d53b7c6	0.051688932
130	0xbeb03397	-0.3441436
131	0x3da96129	0.08270485
132	0xbd1ea617	-0.038732614
133	0x3d1df1fd	0.038560856
134	0x3de8cc15	0.113670506
135	0xbdb9bec0	-0.09069586
136	0x3da6a6a4	0.08137253
137	0x3e40f144	0.18842036
138	0xbc48bc76	-0.012251964
139	0x3e3c676f	0.18398832
140	0xbe314ff5	-0.17315657
141	0xbcca8693	-0.024722373
142	0x3d29c986	0.041451953
143	0xbe95ff1b	-0.29296193
144	0x3d5327ac	0.051551506
145	0xbd019f87	-0.031646278
146	0xbe7d2681	-0.2472172
147	0xbe6c9990	-0.23105454
148	0xbddfd06b	-0.109284244
149	0x3e2895f8	0.16463459
150	0xbd304beb	-0.04304115
151	0xbde84ef7	-0.11343186
152	0xbe217a72	-0.15769365
153	0xbdf9b2ad	-0.12192283
154	0xbeb9878b	-0.36236224
155	0xbdd0fbcc	-0.102042764
156	0xbeb10bb4	-0.3457924
157	0x3ccb3425	0.024805138
158	0x3eb4b95c	0.35297668
159	0xbe1d5d0a	-0.15367523
160	0xbe8da3db	-0.27664074
161	0xbe64ff24	-0.22362953
162	0xbdfbcfd4	-0.122954994
163	0x3d9794ba	0.07401414
164	0xbe3ae577	-0.18251596
165	0xbe691244	-0.22760874
166	0xbe348177	-0.17627512
167	0xbeceeeb4	-0.4041649
168	0xbe2c79e3	-0.16843371
169	0x3ebc6752	0.36797577
170	0x3e7126bb	0.23549931
171	0xbe9fc9b9	-0.3120859
172	0xbe4a9e7c	-0.1978702
173	0x3ea178d8	0.3153751
174	0x3d224332	0.039614864
175	0x3e3a5ef1	0.1820028
176	0xbe017b4e	-0.12644693
177	0xbe83f361	-0.2577162
178	0x3e1a12f2	0.1504629
179	0xbe0524d6	-0.13002333
180	0xbe3a07dd	-0.18167062
181	0x3e85c065	0.26123348
182	0x3f223621	0.63363844
183	0xbe0bfeab	-0.13671367
184	0x3d9264b2	0.07148112
185	0xbd727b82	-0.059199817
186	0xbc881944	-0.01661361
187	0x3ee2627a	0.44215757
188	0x3e15d7b1	0.14633061
189	0xbdcfad9a	-0.10140534
190	0x3de23b2b	0.11046442
191	0x3d75e71a	0.06003485
192	0xbf0a13ea	-0.53936636
193	0x3ee745ea	0.45170528
194	0xbea8171a	-0.32830125
195	0xbec68ec1	-0.38780788
196	0xbec7c34c	-0.39016187
197	0x3f2ef663	0.68344706
198	0x3da3de97	0.0800144
199	0x3e1f4c98	0.15556562
200	0xbe106c81	-0.14103891
201	0xbe88d261	-0.26723006
202	0x3f00694c	0.5016067
203	0x3eb62ad6	0.35579556
204	0xbdfc7a78	-0.123280466
205	0x3e97b5fa	0.29631025
206	0x3d0265c8	0.031835347
207	0xbe0de70d	-0.1385767
208	0x3e70de64	0.23522335
209	0xbeaf857a	-0.34281522
210	0x3ea017da	0.31268197
211	0xbc98dbd3	-0.018659508
212	0xbe713dc9	-0.23558725
213	0xbcbc439c	-0.022981457
214	0xbea39924	-0.31952775
215	0x3da5a8be	0.08088826
216	0x3e38b264	0.180368
217	0x3bee7e56	0.007278244
218	0x3e0f50b8	0.13995636
219	0xbe283308	-0.16425717
220	0xbee410c6	-0.44544047
221	0xbd56382f	-0.052299675
222	0xbdc19496	-0.09452169
223	0x3e142391	0.14466693
224	0xbedb6354	-0.4284922
225	0x3dc2d6e4	0.095136434
226	0xbe70a605	-0.23500831
227	0x3ee7ac83	0.45248803
228	0xbe58cab7	-0.2117108
229	0xbddf97d2	-0.10917629
230	0xbc26cf63	-0.010181281
231	0x3d8c0bf6	0.06838219
232	0x3e81a091	0.25317815
233	0x3dc2c357	0.09509914
234	0x3dc10325	0.09424428
235	0x3cdecad1	0.02719632
236	0x3e11c1c7	0.14234076
237	0xbe31b861	-0.17355491
238	0x3c9eec74	0.019399859
239	0xbe0da2a5	-0.13831575
240	0xbe3d4eb0	-0.18487048
241	0x3d49e864	0.04929389
242	0xbd828ac6	-0.06374125
243	0xbdc6b404	-0.09702304
244	0xbe7aabc6	-0.24479589
245	0x3ea04cce	0.31308597
246	0xbe47b42b	-0.19502322
247	0xbe6dc258	-0.23218668
248	0xbcb70942	-0.022343282
249	0xbdb2acfe	-0.08724402
250	0x3d84089e	0.06446956
251	0x3d0b5cae	0.034023933
252	0xbea1b6e6	-0.31584853
253	0x3e42db53	0.19028978
254	0xbecfa8df	-0.40558526
255	0x3d89f45a	0.067360595

bias f4 [20]
0	0x3dfadb52	0.12248863
1	0x3d5e3b43	0.054255735
2	0x3e7bd3c5	0.24592502
3	0x3de318dc	0.11088726
4	0x3cff6d31	0.031179996
5	0xbdc5f12c	-0.096651405
6	0xbd491071	-0.049087945
7	0x3d8a4cb0	0.06752908
8	0xbe86007a	-0.2617224
9	0x3ea5bbce	0.32369846
10	0xbe524925	-0.20535715
11	0x3cde450d	0.027132535
12	0x3e405530	0.18782496
13	0x3e6d3cd5	0.23167737
14	0x3ea999b2	0.33125073
15	0xbc89f8a8	-0.016842201
16	0xbe87c936	-0.265207
17	0x3d42b8f5	0.04753967
18	0xbebe7684	-0.37199795
19	0xbe235cd6	-0.15953383

weight f4 [20, 20]
0	0x3e798f72	0.24371126
1	0x3e468bf6	0.19389328
2	0xbd0901a5	-0.033448834
3	0x3e969f60	0.29418468
4	0xbd9f2310	-0.077703595
5	0xbb71890c	-0.0036855368
6	0x3e4a808d	0.197756
7	0x3d9f305a	0.07772894
8	0xbdd3cff2	-0.10342397
9	0x3e1f7005	0.15570076
10	0xbba8a572	-0.0051466757
11	0x3db57174	0.0885953
12	0x3e6045fc	0.21901697
13	0x3e9c1cf2	0.30490834
14	0xbdc779a4	-0.09739998
15	0x3da58d12	0.08083548
16	0x3dd7f8bd	0.1054549
17	0x3e80984a	0.25116187
18	0xbda57233	-0.080784224
19	0xbf0da794	-0.5533383
20	0x3cf39e68	0.02973862
21	0x3ecc49b1	0.39899972
22	0xbe3a2608	-0.1817857
23	0xbea4a62c	-0.3215803
24	0x3d26a2a6	0.040682457
25	0x3e754205	0.23950966
26	0xbb65f302	-0.003508747
27	0x3df07418	0.11740893
28	0x3d9f5bce	0.07781182
29	0x3e96a2e3	0.29421148
30	0xbd2e0ac1	-0.042490724
31	0xbeb26635	-0.34843603
32	0x3ed100c9	0.40820912
33	0x3d382e6a	0.04496614
34	0x3d2be315	0.04196461
35	0xbd6cb276	-0.05778738
36	0x3d18b6a7	0.037283566
37	0xbeb47ef6	-0.35253114
38	0x3d760737	0.060065474
39	0x3eaaddeb	0.33372435
40	0xbea05851	-0.3131738
41	0xbcffa365	-0.031205842
42	0xbe2860cb	-0.16443174
43	0xbd50cdf4	-0.050977662
44	0xbe63eb53	-0.22257738
45	0xbe059003	-0.13043217
46	0x3d899051	0.06716979
47	0xbe5494f4	-0.20759946
48	0xbe009222	-0.12555745
49	0x3d98644c	0.07441005
50	0xbe7ca695	-0.24672921
51	0xbe517e8f	-0.20458435
52	0xbe95df40	-0.2927189
53	0xbdddddfd	-0.108333565
54	0x3e3ff7f9	0.18746938
55	0x3e00a4d5	0.12562878
56	0x3ea817c4	0.32830632
57	0xbd1dfc59	-0.038570736
58	0xbddc6d71	-0.10763062
59	0x3dcdf5c3	0.10056641
60	0xbe290e93	-0.16509466
61	0x3d70e09e	0.05880796
62	0xbe5a7b60	-0.21336126
63	0x3c3c3c47	0.011488981
64	0x39887aeb	0.00026031522
65	0xbe764288	-0.24048817
66	0xbe5e2d4c	-0.21696967
67	0xbd0c3411	-0.034229342
68	0xbe5a7e18	-0.21337163
69	0x3ea9b567	0.33146212
70	0xbd3b7e4f	-0.045774754
71	0x3e57a981	0.21060754
72	0xbe28e1e3	-0.16492419
73	0x3eb72de2	0.35777193
74	0x3e45105c	0.19244522
75	0x3c47d734	0.0121973045
76	0xbe16e776	-0.14736733
77	0x3e9a3f35	0.30126348
78	0xbea6f728	-0.3261044
79	0xbf029c21	-0.51019484
80	0xbdf95a13	-0.121753834
81	0xbeecc5e5	-0.46244732
82	0x3d5306a6	0.051520012
83	0xbd06310c	-0.03276162
84	0xbf283ab2	-0.6571456
85	0xbdbb3836	-0.09141581
86	0xbe272405	-0.16322334
87	0xbe84fb62	-0.2597304
88	0x3e3a2a66	0.18180236
89	0xbf48a5fe	-0.78378284
90	0x3e0591da	0.13043919
91	0x3d2da6cc	0.042395398
92	0xbe7b5e71	-0.24547745
93	0xbdeb2ff3	-0.11483755
94	0xbd68cd25	-0.056836266
95	0xbe4f7117	-0.20257984
96	0xbd9c7b53	-0.0764071
97	0xbdf2d000	-0.11856079
98	0xbec3a859	-0.38214377
99	0xbe6b6d32	-0.22990873
100	0xbe376229	-0.17908539
101	0xbde499b8	-0.11162132
102	0xbf03c76d	-0.51476175
103	0x3d84f104	0.064912826
104	0xbf27eea4	-0.6559851
105	0xbe238583	-0.159689
106	0xbbfb50db	-0.007669551
107	0xbebb586b	-0.36590895
108	0x3eaa8f4e	0.33312458
109	0xbe4e133c	-0.20124525
110	0x3d5599f0	0.05214876
111	0x3e9e1591	0.3087583
112	0xbe4842b8	-0.19556701
113	0xbea26369	-0.3171647
114	0x3d4b877e	0.049689762
115	0x3ebe5c94	0.37180007
116	0x3e28fd50	0.16502881
117	0xbdf64328	-0.12024528
118	0x3d80678b	0.06269749
119	0x3f14019f	0.57814974
120	0xbe5017c1	-0.20321561
121	0xbd89ad72	-0.06722535
122	0xbcdcea60	-0.026967227
123	0x3e25f8c7	0.16208182
124	0x3e2509c5	0.16117008
125	0x3d092d65	0.033490557
126	0x3e59adc2	0.2125769
127	0xbe93affd	-0.28845206
128	0x3e6524f2	0.22377375
129	0xbdc103c2	-0.09424545
130	0x3e16b037	0.14715658
131	0xbd819582	-0.063273445
132	0xbe0c4678	-0.13698757
133	0xbe152c1f	-0.14567612
134	0x3ea012e4	0.31264412
135	0xbedc7ed3	-0.4306551
136	0xbe1d4340	-0.15357685
137	0xbea7ada9	-0.3274968
138	0x3d2046b6	0.039129935
139	0xbe1dc5e4	-0.1540752
140	0x3aa1ed0e	0.0012353973
141	0xbdbb93fc	-0.09159085
142	0xbe05bc71	-0.13060166
143	0xbe13b328	-0.14423811
144	0x3dbeec47	0.0932241
145	0x3e2603e2	0.16212419
146	0xbd637932	-0.055535503
147	0xbeb8c786	-0.36089724
148	0x3e63ee6d	0.22258921
149	0xbe1b0da1	-0.15141918
150	0x3ea1a69f	0.31572434
151	0xbe2bfc9e	-0.16795585
152	0x3e9f3bfe	0.31100458
153	0xbeacf95c	-0.33783996
154	0x3e204d8a	0.15654579
155	0x3e2456d9	0.16048755
156	0xbeb74d33	-0.35801086
157	0xbd41e046	-0.047333024
158	0x3d00cd98	0.03144607
159	0x3f00fcf1	0.5038596
160	0xbe6874dc	-0.22700828
161	0xbc0136c6	-0.007886594
162	0x3ddf8375	0.10913745
163	0x3e23f3f4	0.1601103
164	0x3eb79dc4	0.35862553
165	0x3e74d4b0	0.23909259
166	0x3e08e0c4	0.13366991
167	0x3ece5da6	0.40305823
168	0x3ef82990	0.4846921
169	0x3ec7e0ab	0.39038596
170	0xbe23c12a	-0.15991655
171	0xbe87b4e7	-0.26505205
172	0x3e18baa9	0.14914955
173	0xbd2ec6f1	-0.042670194
174	0xbc996ffa	-0.018730152
175	0x3e8bd581	0.27311328
176	0x3e21a9a1	0.15787365
177	0xbee34f4a	-0.4439643
178	0x3e774401	0.24147035
179	0xbcce6a16	-0.02519707
180	0xbe29022b	-0.16504733
181	0xbf0cd1bf	-0.5500755
182	0x3d1d6887	0.038429763
183	0x3e99cd25	0.30039325
184	0xbdef150a	-0.11673935
185	0xbcce103c	-0.025154226
186	0xbdaa7576	-0.08323185
187	0xbeb1f5f3	-0.34757957
188	0x3d0e0393	0.034671377
189	0xbeb68037	-0.35644695
190	0x3d933b1c	0.071890086
191	0xbbce9e4c	-0.0063054916
192	0xbeae9856	-0.34100598
193	0xbdacf341	-0.084448345
194	0xbe1e3b2e	-0.15452263
195	0xbf052bf3	-0.52020186
196	0x3c912bd5	0.017721096
197	0xbe8da2b7	-0.27663204
198	0xbe506ab3	-0.20353203
199	0x3d848ce4	0.06472185
200	0x3ec51ea9	0.38499954
201	0x3ec01bb3	0.37521133
202	0x3e82225f	0.25416848
203	0x3e149a03	0.14511876
204	0x3d066c91	0.03281838
205	0xbe1ab05d	-0.1510634
206	0x3ea0f49a	0.31436616
207	0x3dafa3e3	0.08576181
208	0xbe3a6849	-0.18203844
209	0x3ec5ff0d	0.3867115
210	0xbe10d2b5	-0.14142878
211	0xbea7afe9	-0.32751396
212	0xbebf7d4b	-0.37400278
213	0x3e48995b	0.1958975
214	0xbe017be2	-0.12644914
215	0x3e0f5351	0.13996626
216	0x3d5f6a6d	0.054544855
217	0xbd6e7bdb	-0.058223587
218	0xbe716ea2	-0.2357736
219	0xbed09ffc	-0.40747058
220	0x3e4ffdc9	0.20311655
221	0x3d95e402	0.0731888
222	0x3eb3fa34	0.35151827
223	0x3dc38116	0.095461056
224	0xbe8d1cb0	-0.2756095
225	0x3e65a6b5	0.22426875
226	0xbd1bfced	-0.038083006
227	0xbe8d6de3	-0.276229
228	0x3e73c634	0.23806077
229	0xbea495eb	-0.32145628
230	0x3e9e2e00	0.3089447
231	0x3e78758e	0.24263594
232	0x3e56683a	0.20938197
233	0xbe3ae630	-0.18251872
234	0xbeb7d884	-0.35907376
235	0x3e5a06db	0.21291678
236	0x3e81f8fc	0.25385273
237	0xbe846661	-0.2585936
238	0x3ef2c4a5	0.47415653
239	0xbdffe4ca	-0.1249481
240	0x3ea6875d	0.3252515
241	0xbec23d1c	-0.37937248
242	0x3e8c2de9	0.27378777
243	0x3e10ef04	0.14153677
244	0xbe8bdc25	-0.27316394
245	0xbdcff14d	-0.10153446
246	0xbed080c1	-0.4072323
247	0xbe922bab	-0.2854894
248	0x3e45f603	0.19332127
249	0x3df65825	0.12028531
250	0xbe643f10	-0.22289681
251	0x3a807184	0.0009799455
252	0xbe5acec1	-0.21367933
253	0x3e81b4fe	0.253334
254	0x3d7889de	0.060678355
255	0xbd5d907b	-0.054092865

bias f4 [20]
0	0x3ef4d631	0.47819665
1	0x3ddd60c2	0.10809471
2	0xbea72602	-0.32646185
3	0x3e549d86	0.20763215
4	0xbe69be33	-0.22826461
5	0xbd5e8513	-0.05432613
6	0xbdc8bc6c	-0.098015636
7	0xbe8fbb77	-0.28072712
8	0x3c1a402c	0.009414714
9	0x3ca63bd0	0.020292193
10	0x3dff9522	0.12479617
11	0xbe907bf0	-0.28219557
12	0x3e65386b	0.22384803
13	0xbe35a536	-0.17738804
14	0xbea9e379	-0.3318136
15	0x3e1530a0	0.1456933
16	0x3b0fef28	0.0021962617
17	0xbd81f81e	-0.06346153
18	0x3c40a5aa	0.011758247
19	0x3e588a80	0.21146584

weight f4 [20, 20]
0	0xbe0e847e	-0.1391773
1	0xbd1b0db8	-0.03785488
2	0xbdfff4a0	-0.124978304
3	0x3dc4908c	0.09597883
4	0xbe10503f	-0.14093111
5	0xbe34a2d5	-0.1764024
6	0x3e393770	0.18087554
7	0xbe68e15f	-0.22742222
8	0x3e927afa	0.2860945
9	0x3e21305f	0.15741108
10	0x3e594827	0.2121893
11	0x3ce23df9	0.027617441
12	0x3e0e5d06	0.13902673
13	0xbe22fb6f	-0.15916227
14	0xbd8f6005	-0.07000736
15	0x3ec53d96	0.3852355
16	0xbe7b2775	-0.2452677
17	0x3e871d8d	0.26389733
18	0xbe95954c	-0.29215467
19	0xbe17b59b	-0.1481537
20	0x3e8a1f1e	0.26976866
21	0x3f1732ea	0.59062064
22	0x3db986ff	0.090589516
23	0x3debeeff	0.11520194
24	0xbed8f5c0	-0.42374992
25	0x3c317d29	0.010833063
26	0xbe7a31d3	-0.24433069
27	0xbe363f1a	-0.17797509
28	0x3e898f4c	0.2686714
29	0x3c631e41	0.013862194
30	0x3e870157	0.2636821
31	0xbe8f62f9	-0.28005198
32	0xbe9a9f02	-0.30199438
33	0xbe0388f8	-0.12845218
34	0xbe0ae0f0	-0.1356237
35	0x3cb3f927	0.021969391
36	0x3e835044	0.25647175
37	0x3e3dea02	0.18546298
38	0x3e783232	0.24237898
39	0x3e22856d	0.1587121
40	0xbec02cc3	-0.3753415
41	0xbe2562b1	-0.16150929
42	0x3eef2edd	0.4671544
43	0x3e0a99ce	0.13535234
44	0x3e5bcbe2	0.21464494
45	0x3e22592e	0.15854332
46	0xbdcdcfb9	-0.100493856
47	0x3e81dacb	0.25362238
48	0x3d915316	0.070959255
49	0x3dfc467a	0.1231813
50	0xbda84e64	-0.08218077
51	0x3e37ee2e	0.17961952
52	0xbeb07eed	-0.34471837
53	0x3e0240ec	0.12720078
54	0x3eb572b1	0.35439065
55	0x3ecd407c	0.4008826
56	0x3cda343d	0.026636237
57	0x3d3c161b	0.04591952
58	0xbe5c45d4	-0.21511012
59	0x3df8e54c	0.1215311
60	0x3d90b8ea	0.070665196
61	0x3d447044	0.047958627
62	0x3e9fe8ac	0.31232202
63	0xbecbcc9b	-0.3980454
64	0x3e332a67	0.17496644
65	0x3c4526e3	0.012033197
66	0xbea75ce7	-0.32688066
67	0x3ddff496	0.10935323
68	0xbd697dcc	-0.057004735
69	0x3e908113	0.28223476
70	0xbed942a6	-0.4243366
71	0x3ebf0e2b	0.37315497
72	0x3c53d426	0.012928998
73	0x3e25b9a2	0.16184095
74	0x3e4ca570	0.19984984
75	0xbd633562	-0.05547083
76	0x3e75031d	0.23926969
77	0xbe07e2aa	-0.13270059
78	0xbd959d2e	-0.0730537
79	0xbebd9d13	-0.370339
80	0x3e0e8246	0.13916883
81	0x3d41365a	0.047170974
82	0x3e7bf224	0.24604088
83	0x3e4553bf	0.19270228
84	0x3ef0a4a9	0.47000626
85	0xbe8fab14	-0.2806021
86	0x3e7f6295	0.2493995
87	0x3c93a405	0.018022547
88	0x3e87e8d8	0.26544833
89	0x3da62b3c	0.08113715
90	0xbd126e5c	-0.03574978
91	0x3e408d41	0.18803884
92	0xbea9c690	-0.33159304
93	0x3d8a01e1	0.067386396
94	0x3e249002	0.1607056
95	0xbee17ef2	-0.44042164
96	0xbe0f53ab	-0.1399676
97	0xbc400ab1	-0.011721299
98	0x3df09c63	0.117485784
99	0x3e5c9097	0.21539532
100	0x3df02b2d	0.11726985
101	0xbe19b229	-0.15009369
102	0xbbfb3698	-0.00766642
103	0x3d5b7e6d	0.053587366
104	0xbf221d01	-0.63325506
105	0x3d2bcf25	0.041945595
106	0x3e6e8184	0.23291594
107	0x3ee8fb08	0.45504022
108	0xbe1d3da7	-0.1535555
109	0xbee42969	-0.44562843
110	0x3eec3b71	0.461391
111	0x3e82700b	0.25476107
112	0xbea9f97b	-0.3319815
113	0xbd3b2121	-0.04568589
114	0x3c6b5f39	0.014365965
115	0x3e5a9ce6	0.21348915
116	0xba7d5730	-0.0009664176
117	0xbe306ffc	-0.17230219
118	0xbe9140ea	-0.28369838
119	0x3e52d5e0	0.205894
120	0xbf0017fb	-0.5003659
121	0x3e87eaf3	0.2654644
122	0x3e080482	0.1328297
123	0x3de05082	0.10952856
124	0xbf0490f9	-0.5178371
125	0xbddfcdb7	-0.10927909
126	0xbe9a61b4	-0.30152667
127	0xbeca1436	-0.39468545
128	0x3e6bbe4d	0.23021813
129	0xbf4a90d9	-0.7912727
130	0x3eca8120	0.3955164
131	0x3c6cc40d	0.014451039
132	0x3aa979be	0.0012929959
133	0xbf2c8b68	-0.6740022
134	0x3d403a20	0.046930432
135	0xbe418b62	-0.18900827
136	0xbdc48678	-0.095959604
137	0xbe73fe06	-0.23827371
138	0xbd77eebc	-0.06053041
139	0xbe546839	-0.20742883
140	0x3f298d24	0.6623099
141	0xbddd805e	-0.108155
142	0xbe9059e5	-0.28193584
143	0xbb76d939	-0.0037666096
144	0xbf0b6616	-0.54452646
145	0xbde0952c	-0.10965952
146	0x3e047ee5	0.12939031
147	0xbdf864ad	-0.121285774
148	0xbdbc5dce	-0.09197579
149	0xbe383698	-0.17989576
150	0x3e4d6a24	0.2006002
151	0xbf03546a	-0.5130068
152	0xbead30aa	-0.3382619
153	0x3ea24e70	0.31700468
154	0xbeabda04	-0.3356477
155	0xbcb52723	-0.022113388
156	0xbdf22385	-0.11823181
157	0x3ed5e306	0.41774768
158	0x3e0d93e1	0.13825943
159	0x3d46a98c	0.048501536
160	0xbe1d4a04	-0.15360266
161	0x3de1b7a6	0.11021356
162	0x3dad4a30	0.08461416
163	0x3e092d56	0.133962
164	0xbf204913	-0.626115
165	0xbebf72c2	-0.3739224
166	0x3e085a25	0.13315637
167	0xbe4e1945	-0.20126827
168	0x3ebcb17e	0.36854166
169	0xbd3e8fe6	-0.04652395
170	0x3e2c5868	0.168306
171	0x3e46825e	0.19385669
172	0xbe20cc0e	-0.1570284
173	0xbdac96c0	-0.08427191
174	0x3e0087e4	0.12551838
175	0xbeeb6743	-0.4597722
176	0xbda6add0	-0.08138621
177	0xbd654f64	-0.055983916
178	0xbe5b8ae2	-0.21439698
179	0xbebd5c18	-0.36984324
180	0x3d88b96c	0.066759914
181	0x3de22365	0.11041907
182	0xbda4e5c5	-0.080516376
183	0xbe741feb	-0.238403
184	0x3ec1c9b8	0.37849212
185	0x3eaf8757	0.34282944
186	0x3e14aac7	0.14518271
187	0x3e770461	0.24122764
188	0xbe833409	-0.25625637
189	0xbd9fdfce	-0.07806359
190	0xbebc8c03	-0.3682557
191	0x3e5df556	0.2167562
192	0x3eba041c	0.3633126
193	0xbd8e8257	-0.06958454
194	0x3ee15bc6	0.4401533
195	0x3ee8e64f	0.45488212
196	0x3e888a69	0.266681
197	0xbe133215	-0.14374574
198	0xbda3a2ba	-0.07990022
199	0xbe8b8cf8	-0.27255988
200	0x3b95741f	0.004560962
201	0xbec7354f	-0.3890786
202	0xbd8a1e45	-0.06744055
203	0xbdbf4d92	-0.09340967
204	0x3ea433ee	0.3207087
205	0xbe8b71f3	-0.27235374
206	0xbd82527b	-0.06363388
207	0x3dfb3db4	0.12267628
208	0x3e012462	0.12611535
209	0x3d9bdafa	0.07610126
210	0xbe3c86ba	-0.18410769
211	0xbe844225	-0.25831714
212	0x3e1702a3	0.147471
213	0xbe57f611	-0.2108996
214	0x3ea05e96	0.31322163
215	0x3d89c47c	0.067269295
216	0x3d85894b	0.06520327
217	0xbeadcd4f	-0.339457
218	0x3ecddd78	0.4020803
219	0x3d44caf7	0.048045125
220	0x3e005066	0.1253067
221	0xbd980090	-0.07421982
222	0x3e9609cc	0.2930435
223	0x3bb4ae01	0.005513907
224	0xbe1de4e5	-0.15419348
225	0xbeb16dbd	-0.34654036
226	0xbe0c42b0	-0.13697314
227	0xbe873afe	-0.26412195
228	0x3e8f615c	0.28003967
229	0x3d08234d	0.03323679
230	0x3f0780e2	0.52931035
231	0xbd97fc14	-0.07421127
232	0x3d425129	0.04744068
233	0xbe943252	-0.2894464
234	0xbe16fcdf	-0.147449
235	0xbd53aa12	-0.051675864
236	0xbce9450e	-0.02847531
237	0x3d011aac	0.031519577
238	0x3d86ebfc	0.06587979
239	0x3c0afae4	0.008482669
240	0xbddc6077	-0.10760587
241	0x3e4b94bf	0.19880961
242	0xbd77da41	-0.060510878
243	0xbe5ae762	-0.21377328
244	0x3e76ee6e	0.24114391
245	0x3ebe1310	0.3712392
246	0x3e85000e	0.25976604
247	0x3e4d8d3d	0.2007341
248	0xbecbf5d0	-0.39835978
249	0xbeaa49f4	-0.33259547
250	0xbdcc7060	-0.09982371
251	0xbe83bcd8	-0.25730014
252	0x3c141a85	0.009039526
253	0x3d983dd2	0.07433666
254	0xbe1d30b4	-0.1535061
255	0xbe0f2cd2	-0.13981941

bias f4 [20]
0	0x3eb4af5c	0.3529004
1	0x3da87356	0.082251236
2	0xbe9c50ee	-0.30530494
3	0xbea8701d	-0.32898036
4	0x3b02926d	0.0019923702
5	0x3d828d66	0.06374626
6	0xbdbbe00e	-0.091735944
7	0x3ecdd618	0.40202403
8	0xbe44c4b7	-0.19215666
9	0xbe3cfa04	-0.18454748
10	0x3cdbc54b	0.026827475
11	0x3e5b1536	0.2139481
12	0xbd8dff62	-0.06933476
13	0xbd90f0d5	-0.07077185
14	0xbe804278	-0.25050712
15	0x3edf646e	0.4363131
16	0x3e7ce53b	0.2469682
17	0xbe45b04b	-0.19305532
18	0xbe6f67c7	-0.23379432
19	0x3e7d6950	0.24747205
