Models/Noise_1/simulation_stop/weak_ff.pt (torch, 39583 bytes, 23 tensors)

weight f4 [20, 2]
00000000: 81be b3bd 5c73 503f b132 0cbf 393b 263e
00000010: 5b39 bcbd 7a37 7fbf bed4 1b3f c82d 7a3f
00000020: 1bbf 83bd 7d16 5cbe 3958 f23e 8dcf dcbe
00000030: fe2e aabd c83e f5be cbc0 02bf 0792 aebf
00000040: a39d 77bc 6b47 913f fa8a 8dbe 9f1b 50bd
00000050: dad9 18be 9b27 af3e d507 6d3e 0dda d4bd
00000060: 3c62 053e 9c07 5dbf bd4b 50bf 5860 3e3d
00000070: b177 ffbd e75b 06be 6799 7c3f 2834 5bbe
00000080: 1e81 303f da3f 9cbf 60f5 1bbf 5ab6 59bd
00000090: 9ec8 443d c89c b9be 81dd 6d3d 2d46 6fbe
-0.0877657 0.81426024 -0.5476485 0.16233529 -0.09190627 -0.99694026 0.60871494 0.97726107
-0.06432935 -0.21492954 0.47332934 -0.431271 -0.08309744 -0.4789946 -0.5107543 -1.3638314
-0.015113267 1.134992 -0.27645093 -0.05080759 -0.14926854 0.34209904 0.23147519 -0.103931524
0.13025755 -0.86339736 -0.8136557 0.0464786 -0.12474001 -0.13120995 0.98671573 -0.21406615
0.6894702 -1.2206986 -0.6092129 -0.05315242 0.048042886 -0.36252427 0.05807257 -0.23366614

bias f4 [20]
00000000: 37b2 863d a85a 02be b106 3abe aba1 abbd
00000010: 0289 8dbc eb18 2fbe 7995 c63d 7710 1bbf
00000020: 8613 703e f055 5e3e 6b57 3d3d db0a c4bc
00000030: 18de 463d 22b8 403e 3842 e5bd 2501 9abd
00000040: 4d9b 22bb ab5e 2b3e 89b8 42bd 3324 00be
0.065769605 -0.12729895 -0.18166615 -0.08380445 -0.017277244 -0.17099349 0.096964784 -0.60572
0.23444948 0.2171247 0.046225946 -0.023930958 0.04855165 0.18820241 -0.11194271 -0.075197496
-0.0024811805 0.16735332 -0.047539268 -0.12513809

weight f4 [20, 20]
00000000: 0e4d 6a3e 0df7 853e f5a2 84be df95 1f3f
00000010: d97f 2e3c 92cc 59be ee4a ba3e 828a 31be
00000020: 9ebc df3e ce24 123f 169d 9c3e 87da a43c
00000030: 7221 683e 3075 ad3e e7d1 d53e 5d5b f7be
00000040: 28f3 f3be ad8c 27be 17bb 20be 4167 283d
00000050: bcf1 9f3e 5fe0 753e 941d 8dbd b482 8d3e
00000060: 2052 8cbe 7cc7 19bf d8c0 b9be 154e debe
00000070: 5a76 c33e 5a1c 2c3d ec45 7abc 6560 fb3a
00000080: 6c6a 7dbe de4d 0d3e 502b b9be 4550 053d
00000090: cf93 13be f585 f53d d50e cb3c ea7c fbbc
000000a0: 8e13 a53e a2ab 033e 7c16 4ebe 59df 25bf
000000b0: 64fc 133f ad6b 2fbd 9274 0ebd 8f85 273e
000000c0: 10e9 533e d6e7 77be b067 4abe faca 5e3e
000000d0: 50dd 88be b4f4 ecbc 072e 17bd babd 95bc
000000e0: 9f2c a13b 7157 84bd 3132 443d 450c eabe
000000f0: c463 853e 6a4e c23d f3a3 7cbe d248 803e
00000100: 3f02 9c3d aa50 e13d 9e17 a2be 0014 60ba
00000110: 73ee 71bd 968c ed3d 0ef9 fa3d ac4d 4b3e
00000120: fe7c 913e eb7f b73c 94ba ebbc 3926 f3bc
00000130: fbee d2be 1ed9 113c 56d3 453e c95f 4d3e
00000140: 6a39 d63e 1a5c 8fbd e9b1 623e 4734 f5be
00000150: 4640 6bbe 1543 37be 6896 163b 8628 ca3e
00000160: 8620 b0bd 0058 61be 4f5f 0a3e d4e5 03bc
00000170: ef94 90bd ce3d 84be 7d24 02be ef31 bf3e
00000180: a928 a9be f6a6 163e 9407 283d b2ec 833e
00000190: 53e8 d2bc f867 f43d 16c9 203e 6d47 f23d
000001a0: 6bd7 cc3d 1df2 413e 9dfc 94be bab9 4abe
000001b0: e56c 8d3d ee58 b1be 7d49 f53d 6680 55bd
000001c0: 3637 adbe be88 9ebe 3ad0 013f 87e0 a23d
000001d0: d889 cabe 1032 a2bd aa48 373e 308d 883e
000001e0: 89ec c4be a5fc 77bd 9e0c 36bd b45a 8ebc
000001f0: 9926 43be 7bc0 00bf 1c65 233e 5432 04bd
00000200: 481f a63e cf62 9ebe c098 3c3e 0ded d3bd
00000210: 3ccb a0bc cdcb a5bd bbc3 3a3e b51b 1c3e
00000220: 12b5 63be 191a b2be 4a85 853d 9dc2 3bbe
00000230: d105 9f3e 4610 e63e 2580 ce3d 70fc 3fbd
00000240: 87e6 ca3d 0b3f 5d3d 9d95 0fbf f8ea 1ebe
00000250: 39a0 203e 1f89 56be d190 253e 69ad 8b3e
00000260: 04cd db3d d3ce ddbe 374a 3fbe ef5e 01be
00000270: 4cd1 0abf ed64 68be 78b7 36be bedd 553e
00000280: 3fe0 083e 128b 8ebe 295e b1bd 1c94 13be
00000290: feb2 47be 61b2 b53e 20aa c9be fc49 dc3d
000002a0: cf0e a4be 764a a3be 400b fe3d ef75 ee3d
000002b0: 797b 9f3d cd33 69be bdd0 f73d 6526 1f3f
000002c0: ef14 133f e307 423e 1791 333e 039d 32be
000002d0: 1c12 773d 4303 6fbc 79f3 1e3f 8082 e8be
000002e0: 1e34 333f 2be4 b43e 5c9c 8f3e 0342 053f
000002f0: 3578 1e3e 98b9 813e 27d6 963d b621 b1be
00000300: 1638 423e db19 af3e 66f5 a93c 38fa 07bd
00000310: fea7 2c3f a98a 373e 7399 72be fe8f 883d
00000320: f74f 953d 8276 3f3e bb9b cbbe f1ae 1c3f
00000330: b14d babe 1c3f 78be b9e8 b0be f356 3cbe
00000340: 041c 183f 36fc 1ebf 9c14 833c cc92 dcbd
00000350: 7ba0 25bf 1237 7cbe affc 1abe 4f2c 0b3e
00000360: 972f 0ebf c7ca 1b3e f40e 243e e858 87be
00000370: 254b ccbe 99bb 0f3e 0ebc a43e 85d9 1e3e
00000380: 1f66 79bd 9a8d 3f3d a976 39bc 5f58 92bd
00000390: 50c7 98be a4ae 9d3e 1b04 a63d 61bf d83e
000003a0: 6285 a9bd 7dfa abbd 072f 883e b1b0 42be
000003b0: c079 3dbc 6cb0 2a3e ed5b 5e3e c82f 923c
000003c0: a616 ddbe 381f 013e 6236 7c3e 3bbc b2bd
000003d0: 5f47 0fbe 79ed ba3e 892a d03d 8ba3 a2bd
000003e0: 1e12 c63c 7809 a83e e48d 38be 7da5 2d3e
000003f0: 8c16 9c3e 24b6 f03c cd17 fe3d 86ad dabc
0.22880957 0.26165047 -0.25905576 0.6233806 0.010650598 -0.21269444 0.36385292 -0.17337993
0.4369859 0.5708741 0.30588597 0.020123733 0.22669008 0.3387847 0.41761705 -0.48311892
-0.4764645 -0.16362257 -0.15696369 0.041114096 0.31239116 0.24011372 -0.06890407 0.2763878
-0.27406406 -0.60070014 -0.3627994 -0.43418947 0.38176233 0.042019226 -0.01527546 0.0019178508
-0.24747628 0.13799235 -0.36165857 0.032547254 -0.14411853 0.11988441 0.024787346 -0.030699212
0.32241482 0.12858441 -0.20125765 -0.64793926 0.5780699 -0.042827297 -0.03477914 0.16359542
0.20694375 -0.24209532 -0.19766116 0.21757117 -0.26731348 -0.028925277 -0.03690913 -0.018278945
0.0049186493 -0.064619906 0.04789943 -0.45712486 0.26052678 0.094876125 -0.24671917 0.25055557
0.07617616 0.110017136 -0.31658643 -0.0008547902 -0.059065294 0.1159908 0.12254535 0.19853848
0.28415674 0.022399863 -0.02877549 -0.029681312 -0.41197953 0.008901862 0.193189 0.2005607
0.41840678 -0.06999989 0.2213818 -0.47891447 -0.22973737 -0.17896684 0.0022977833 0.39484042
-0.08599953 -0.22006226 0.1351292 -0.008050401 -0.07059657 -0.25828403 -0.12709232 0.37342784
-0.33038834 0.14712128 0.041022852 0.25766522 -0.025745546 0.11933893 0.15701708 0.1183003
0.10002025 0.18940015 -0.2909898 -0.19797412 0.069055356 -0.3463816 0.119769074 -0.052124403
-0.33831185 -0.309637 0.50708354 0.079529814 -0.3955829 -0.07919705 0.17898813 0.26670218
-0.38461712 -0.060543675 -0.044445626 -0.017377235 -0.19057693 -0.502937 0.15956539 -0.03227456
0.3244574 -0.3093476 0.18417645 -0.10347948 -0.01962816 -0.080955125 0.18238728 0.15244944
-0.22237042 -0.34785536 0.065195635 -0.18335958 0.31059125 0.4493429 0.100830354 -0.046871603
0.09907251 0.0540152 -0.56087667 -0.15519321 0.1568612 -0.20950745 0.16168524 0.2728074
0.10732463 -0.43321857 -0.18680654 -0.1263387 -0.5422561 -0.2269475 -0.17843425 0.20885369
0.13366793 -0.27840477 -0.08660538 -0.14411968 -0.19501874 0.35487655 -0.39387608 0.10756299
-0.32042548 -0.31892747 0.124044895 0.11643588 0.077872224 -0.22773667 0.121003605 0.6216796
0.5745382 0.18948321 0.17535816 -0.17442708 0.060320005 -0.01458818 0.6209026 -0.45412064
0.700014 0.35330328 0.2804898 0.5205385 0.15475543 0.2533691 0.07365065 -0.34596032
0.18966708 0.34199414 0.020746898 -0.03319761 0.67443836 0.17923988 -0.23691349 0.06668089
0.07290643 0.18697551 -0.3976725 0.6120444 -0.363874 -0.24242824 -0.34552553 -0.18392543
0.5941775 -0.62103593 0.016001038 -0.10770187 -0.64698 -0.24630383 -0.15135454 0.13591121
-0.55541366 0.15214072 0.16021329 -0.26435018 -0.3990108 0.14036407 0.32174724 0.15512665
-0.060888406 0.0467659 -0.011319795 -0.07145762 -0.29839563 0.30797303 0.08106252 0.4233351
-0.08277394 -0.08397386 0.2659838 -0.19012715 -0.011564672 0.16668862 0.21714754 0.01784505
-0.43181342 0.12609565 0.2463012 -0.08727308 -0.1399207 0.36509302 0.10164363 -0.079413496
0.02417856 0.32819724 -0.18022877 0.1695766 0.30485952 0.029383726 0.124068834 -0.02669407

bias f4 [20]
00000000: 9298 8c3d da1b 1dbe 1b5e 703d d095 25be
00000010: bee6 06be cf31 debd bc32 263d 756c 48be
00000020: d6d1 8b3d 7c85 35be 5d5e 1e3d 2e95 5cbd
00000030: ee48 be3d b43b 003d 4cc3 933e c80b 19be
00000040: f629 503b ef64 ff3d 5fd4 9f3d e4d2 2abe
0.06865038 -0.15342656 0.058683496 -0.1617043 -0.13173959 -0.10849344 0.040575728 -0.19572623
0.068271324 -0.17726701 0.03866421 -0.053853206 0.09291254 0.031306937 0.28859937 -0.149459
0.0031763292 0.124704234 0.078041784 -0.16682011

weight f4 [20, 20]
00000000: e28c d93e 3748 59be f6bb eebd 31b1 1f3e
00000010: 3409 0dbe 5166 6abe 0cdf 693e f7b4 963e
00000020: b7cd 44bf e7e0 b13c 04db 6f3e 1eab c73e
00000030: 5ab6 733e 0e90 683e 65dc 783e b992 9bbe
00000040: ceab 483e 4aaa 8bbe 0ba7 c43d 20ba 02bf
00000050: 08dc 993e f693 0cbd 97df a53d 5a2c 913b
00000060: 6373 643d 0577 643e edd3 693e 5473 8ebe
00000070: 5a96 c8bd db73 553e 60c1 31be 21c9 a63e
00000080: fbd4 37bd 3bdf ef3c 569b 26bd 4a8f 9e3e
00000090: 3202 953c 6e11 ef3e 2048 c23e 86f5 1a3c
000000a0: 123c a7be eef1 5abe 588b 443d 18c5 3fbe
000000b0: d2d2 f93d c24d 1f3e d3a6 873e 20fc 733d
000000c0: e4b7 8a3e 1c9a 933e f9d7 d9be 10af 8bbe
000000d0: 977c 0abe 7edd 3d3e da78 de3d 4e3c e73e
000000e0: 1300 e43e 26bc 643e b89c 64be 79b6 8c3e
000000f0: 4762 0c3f 75fc 003d 021a e6be 4eca 04be
00000100: 237d bbbe 0a0b d4be 6737 0dbf 3864 15bf
00000110: 87e3 aabe b722 4cbe 388f cc3e ab86 3b3e
00000120: 324c 473c 1e0f 7c3e 287e 05be 9910 843e
00000130: 17f2 0ebe 225b b0bd eb54 093e 5d89 013f
00000140: 6a82 753e 6275 05be d078 643e d4ee aabd
00000150: 453d 313e 36a3 4dbe 3e1a 26be f850 14be
00000160: 852b 883e a9b1 e43c 6f34 39bf 9d0d d2be
00000170: 981e 67bd 04df 25bf a9b8 023f 330e 763e
00000180: 0f04 cfbd 94f1 fabd aad4 a43e 8aa2 613e
00000190: fb1c bdbd 4574 b5bd 5fe5 223d 7afe 5dbe
000001a0: 54f8 a0be 9bfe 87bd 87d7 de3d 9bfc dfbe
000001b0: 1272 523d 5156 43bd e1ca 4abe a56c a8bd
000001c0: 2557 d43e 331a 283e 5b2c ca3e 0f33 edbc
000001d0: fe97 f7ba 6b95 373e 241a 473e e22a 07bf
000001e0: d2c5 853e 8425 15bd 3c4f 013d 7d4c 613e
000001f0: f060 263e 8fae 41bd fe34 02be 581c 823e
00000200: 5ccc 5fbd 4f8d f1bb c853 8b3e 9a5e de3d
00000210: e024 17be a520 903e 49f8 43be 33db 853e
00000220: cf96 dc3d 6653 1dbf d881 96be 4a9b 71bd
00000230: f49f 76bd c419 233e 2ae6 b3bd 6e89 5c3e
00000240: 3b7f 92bd bdb1 aabd 767a 5dbe dfa3 8d3e
00000250: d7b1 a83e 6524 233e 0f3d 273e 783d cdbd
00000260: 9d44 c1bd 5178 61bd 0773 ac3d d2a6 183e
00000270: d9c5 fbbd ef4d c73e 5281 183d 18c9 e23d
00000280: 7fc7 2abe f0c7 09bd c752 94be 68b7 f83e
00000290: 0cd7 7f3e 501d 2d3e 1ff5 70bc 1065 ed3c
000002a0: 263a 8d3e d8ca 523d 7477 e43c 90eb 873e
000002b0: 0b4f 95be ab85 b6be 79bf 893e f432 c4bd
000002c0: dfc8 56bd 4a4f 5ebe 1b38 923e c206 7bbe
000002d0: a0f7 fe3e 0912 6bbe d25d a9be 65af 933d
000002e0: a12a adbe 9cbf 813e 3e3f a9be 1f8a 983d
000002f0: 04bc e3bc 1b09 763d 4d92 b33e 082d 503e
00000300: 09ea 12be 6ca0 953d 004e 3fbe cc02 a83e
00000310: cd4f 3d3c 0907 ab3d 10f7 833e 4a30 b8bd
00000320: 1e1d 893e b3f5 1e3d f190 1f3d 0361 7ebc
00000330: b8ec 563d 954c da3a 27c8 d23d 232f 1cbe
00000340: e535 3cbe deba 323e 9f7a 133d 2616 3f3e
00000350: f502 643d ed6f 923e 3c43 b2be 0bc5 733e
00000360: 1461 173d 1d3d adbe 659f 7fbd 5862 6abe
00000370: 8f6c 24bc be7c c2bd 9a2d 283d 6d18 59be
00000380: 52a8 af3d 01ef 07be e820 44bd 420e 0cbd
00000390: 7fa2 97be fd8c a23e 7562 22bf 423e 88bd
000003a0: b55e 8c3e 0104 ac3e 2ee2 cfba eab3 d93e
000003b0: 1f18 9f3e a553 613f 54a6 1bbe 943a 773e
000003c0: 801d 95be e6f2 603e add3 8cbe 1ee6 3c3d
000003d0: 622b 703e 8311 b1be 2f9b 1f3b e9a9 983e
000003e0: eb50 3f3d 82ee cc3b dcb3 c13e 080d 17be
000003f0: 15cb 94be abb2 f5be dbf8 3d3e 50be 41bf
0.42490298 -0.21218954 -0.116569445 0.15594937 -0.13773042 -0.22890593 0.22838992 0.2943494
-0.76876396 0.021713687 0.23423392 0.3899774 0.2380003 0.22711203 0.24302824 -0.30385378
0.19596788 -0.27278358 0.096021734 -0.51065254 0.30050683 -0.034320794 0.08099287 0.004430336
0.055774104 0.22311027 0.2283475 -0.27822363 -0.09794302 0.20844977 -0.17358923 0.32575324
-0.04488085 0.02928125 -0.040675484 0.30968696 0.018189523 0.46692985 0.37945652 0.009457951
-0.32663018 -0.21381351 0.04798445 -0.18727529 0.12198414 0.15557006 0.26494464 0.059566617
0.27093422 0.28828514 -0.42547587 -0.27282 -0.1352409 0.18541524 0.10862894 0.45163196
0.44531307 0.22337398 -0.22325408 0.27482966 0.5483746 0.03149076 -0.44941717 -0.12967798
-0.3661891 -0.41414672 -0.5516266 -0.58356047 -0.33376715 -0.19935118 0.39953017 0.1831309
0.0121641625 0.24615142 -0.13036406 0.25793913 -0.13959537 -0.08611132 0.134113 0.50600225
0.2397553 -0.13033059 0.22311711 -0.08346334 0.17308529 -0.20081791 -0.16220948 -0.14484012
0.26595703 0.027916746 -0.7234563 -0.4102601 -0.05642566 -0.6479342 0.5106302 0.24028854
-0.10108196 -0.122531086 0.321935 0.2203466 -0.09234043 -0.08860067 0.039769527 -0.21679106
-0.3143946 -0.06640359 0.10880952 -0.4374741 0.051378317 -0.04768974 -0.19803955 -0.08223847
0.41472736 0.16416244 0.39486966 -0.02895501 -0.0018889902 0.17928092 0.19443566 -0.5279981
0.26127487 -0.03641273 0.031569704 0.22001834 0.16247916 -0.047285613 -0.12715527 0.2541225
-0.05463825 -0.0073715816 0.27212358 0.108578876 -0.1476016 0.28149906 -0.19137682 0.26143798
0.10770952 -0.6145538 -0.29395938 -0.058985986 -0.060211137 0.15927798 -0.08784135 0.215368
-0.071531735 -0.08334682 -0.21628746 0.27664086 0.3294818 0.15931852 0.16331886 -0.1002149
-0.09436915 -0.055046383 0.08420377 0.14907387 -0.12293596 0.38926646 0.037232704 0.11073512
-0.16677664 -0.03363794 -0.28969404 0.48577428 0.24984378 0.16905713 -0.014706879 0.028978854
0.27583426 0.051462978 0.027888991 0.26546907 -0.29161867 -0.35648856 0.26903895 -0.09580031
-0.05243766 -0.21709934 0.2855843 -0.24514297 0.49798298 -0.22956099 -0.33079392 0.07211188
-0.33821586 0.253415 -0.33056062 0.074482195 -0.027799614 0.060067277 0.35072556 0.20329678
-0.1434709 0.07305989 -0.18682098 0.32814634 0.0115546705 0.08350951 0.2577443 -0.089935854
0.26780027 0.038808536 0.038956586 -0.015526059 0.052471846 0.0016654903 0.10292082 -0.15252356
-0.18379934 0.17454097 0.036005612 0.18660793 0.055666883 0.28601018 -0.3481692 0.23805635
0.036957815 -0.33835688 -0.06240787 -0.22889078 -0.010035648 -0.09496449 0.041059114 -0.21200724
0.085770264 -0.13274767 -0.047882944 -0.034193285 -0.29616162 0.3174819 -0.63431484 -0.066525
0.27416006 0.33596805 -0.0015860253 0.42520076 0.3107309 0.88018256 -0.15200168 0.2414344
-0.2912407 0.21967658 -0.27505246 0.046117894 0.23454049 -0.34583673 0.0024353971 0.2981713
0.04670803 0.0062540183 0.37832534 -0.14751065 -0.2906119 -0.47987875 0.18551962 -0.7568102

bias f4 [20]
00000000: d2f4 4f3b dcf3 c73d 7e2d b23d e07f ec3d
00000010: 67a8 f03d 6b1f 023e e2a2 a0bd a894 47bd
00000020: c6ed 123c 2869 6f3d 4f40 6b3d 3005 02bc
00000030: 550f 283e ebb9 233c f1be 65bc 12fe babe
00000040: 3053 18be 8e89 e8bd b764 a7bc df9d 283c
0.0031731618 0.09763309 0.08700083 0.11547828 0.1175087 0.12707298 -0.078435674 -0.048725754
0.008967822 0.058449894 0.057434376 -0.007935807 0.16412099 0.009993057 -0.014022575 -0.36521965
-0.14875484 -0.113543615 -0.020433767 0.010291546

weight f4 [20, 20]
00000000: 8ce2 a0bd 5dec ab3e a047 fc3e 609e b9be
00000010: 5746 2e3f a26c 553d 51bb 4d3e 9ef4 39be
00000020: 66c3 003e 9ab7 52bd 281c 173e fda5 383e
00000030: ab6d 053d 67cd 9d3e 0db8 34be 1caf 9fbd
00000040: 3dfc 043e 9e12 e33e b55a ac3e f325 10be
00000050: 3e58 1bbe 5cfd e13c cd20 a3bd e3b1 2fbe
00000060: 356f 853e 90e4 933e fa99 7e3e ea8f d73d
00000070: e96c e9bd fdad c0bd ecfb c6be e079 89be
00000080: 12bc 17be 5b1a c33e cde9 50be ff81 78be
00000090: 7f5b c03e 58f3 c83e 05fa 17be a6cc 213e
000000a0: c8aa 16bf 7b98 a3be 2d6e 8d3e 7ddd 10be
000000b0: 2bca 9ebe 9574 233e 5fba 07bf 6306 ad3e
000000c0: 098c 553e 04b7 c63e c866 8fbe 4186 57be
000000d0: e2ae 01bd 0e40 fcbd 4a8d eb3d afdb a7be
000000e0: a8fe 60be 2839 053f 5fd6 363e 1f74 a53e
000000f0: 2f70 d3bd ce2a c2bd 58d1 f4bd ac91 013e
00000100: bd44 a9bd 8ab1 18be 50a1 293e e296 313e
00000110: 61d7 6d3d 1779 273e e15e 833e 7723 04bf
00000120: 2865 b33d 2363 923e 5118 ba3c 992f ad3d
00000130: d046 31be 225e 193f 6e12 5c3d cb4a ecbe
00000140: ef5e 8f3e de35 a7be 113c 9ebe f3a5 d03b
00000150: d32f 003e d994 a53d 70a9 e7bd fb2d 443d
00000160: b2f1 333d df49 94be cc24 ce3d bf06 9ebc
00000170: 55a1 1e3e 77ee 5f3e d53a b2bd bf7e ba3e
00000180: 4dda 12be 3567 bbbe e426 debe fbac 5a3d
00000190: c76b 6f3e f89b f0bd e643 07be 7d9d dc3e
000001a0: 3494 c73d 7e0d 683d 00dc 0dbe 92a0 03be
000001b0: 5ca2 823e 4410 933e 2b56 1abe a0e9 a8be
000001c0: ae3c 16be 1c08 993e 3e6d 80be 806b 8d3d
000001d0: 692d 88be b09c ffbd c9f2 963e d1bb 1d3e
000001e0: dbc1 8cbe b2ef af3e 6c41 893d f760 87be
000001f0: 14c5 a4be 48b4 683e 4caf 973b 975f 173c
00000200: 47cc 22be 6d68 013e abaf 63be 6b24 0fbf
00000210: 9730 ad3e 2861 debe f57d 813e 781b b03d
00000220: 3c82 163f 834f 863d a470 f8bc cf48 89be
00000230: 6598 7dbe b09f 70be 03f1 15bf 3562 803e
00000240: ed79 32bf ad5e d23e 1758 aa3e 415f 4d3e
00000250: 4c57 613c 21fd 9bbd 5cad d83e 9001 c7be
00000260: 6505 f23e 1367 b8be d1e4 8abd 98fc c23e
00000270: 7fa1 07bd 2d64 97be 67e2 f7be 3b30 1ebe
00000280: e817 843e 6815 a6bc a2d7 61be ca19 95be
00000290: 3290 443e 6850 1b3e 8497 79be 2774 2bbe
000002a0: 26f2 31bb f03d d7bd 558d db3d 3217 aebd
000002b0: f843 743e 6b25 723e 1d3f 4a3e 0193 053e
000002c0: c310 5abe b9f4 8cbe 82cd f23d ff9e f7bd
000002d0: 1215 b13e c292 f13d d4ab 3b3c e716 34be
000002e0: 5a65 eabd e9a4 bfbd acdc 3cbe 0af7 e13d
000002f0: 9582 67bd 2790 b13e 4d55 45be 7f93 babd
00000300: 7e5c c8be aad8 333e d40c a63e 2248 bfbe
00000310: 9d39 24be 2f3b dbbe c143 0bbe ce08 b23d
00000320: e7aa 5c3e a9d9 673e 0217 8c3d 02b0 d43e
00000330: 83f0 5dbe b9c6 313e c370 453d 4907 00be
00000340: 48b1 b53e 3e87 483e b166 5abe 34a3 ecbc
00000350: 1c6b 433e 37f5 cb3e 3e2d a23d 1e1b bebe
00000360: 786b 73be 60c8 e2be 5784 e7bd 340e 87bc
00000370: 3239 a03c a9db 813e dd75 a53d daaa fabe
00000380: b1fe 68bc 2fdf 9f3e a228 0fbe 6319 4fbe
00000390: d5ad 9ebe 731a b9be a8a8 88bd 76ae 003e
000003a0: 85ca 18be 2797 8dbd bb07 b8bd bef9 6b3e
000003b0: 63da adbb 1896 e63d 8127 ffbe 8131 083e
000003c0: 84e9 1f3e 3a4f 6abe c04c 9abd edb9 193d
000003d0: e07b 74be c532 e5be d27d 583e edef 90be
000003e0: 5f11 b03e efd9 15bd 1975 23bd 8efd b5be
000003f0: 4124 cd3d 1e2d 43be b453 c73e ebb2 403f
-0.078557104 0.33578768 0.49273396 -0.36253643 0.6807608 0.052105553 0.20090987 -0.1815972
0.12574539 -0.051444627 0.14756835 0.1803207 0.03257529 0.30820772 -0.17648335 -0.07797071
0.12986846 0.4435014 0.33662954 -0.14076976 -0.1517038 0.027586631 -0.07965241 -0.17157702
0.26061407 0.28885317 0.24863425 0.10525496 -0.11397726 -0.09408186 -0.38864076 -0.26850796
-0.14817837 0.38106045 -0.20401688 -0.2426834 0.37569806 0.39248157 -0.14841469 0.15800723
-0.5885434 -0.3195227 0.2762312 -0.14146991 -0.31013617 0.15962441 -0.53018755 0.33793935
0.208542 0.38811505 -0.28008103 -0.21047308 -0.031660922 -0.12316905 0.11501558 -0.32784793
-0.21972144 0.5204034 0.17855214 0.32315156 -0.10324132 -0.094808206 -0.11953992 0.12653226
-0.08265064 -0.14911476 0.16565442 0.17342713 0.05806673 0.16354786 0.25658324 -0.51616615
0.087595284 0.2859126 0.022716673 0.08456344 -0.17312169 0.5990926 0.053728513 -0.46150813
0.28002116 -0.32658285 -0.30905202 0.006367439 0.12518243 0.08085031 -0.113116145 0.047895413
0.04393167 -0.2896261 0.10065612 -0.019290326 0.15491231 0.21868311 -0.087026276 0.36424825
-0.14341088 -0.36602178 -0.43389046 0.053387623 0.23380958 -0.11748499 -0.13209495 0.43088904
0.097450644 0.056653492 -0.13853455 -0.12854221 0.25514495 0.28723347 -0.15071933 -0.32990742
-0.14671585 0.29889 -0.25083345 0.069052696 -0.26597145 -0.12481058 0.29482105 0.15403678
-0.2749165 0.3436256 0.06701931 -0.26441166 -0.3218161 0.22725022 0.0046290513 0.009239099
-0.15898238 0.12637492 -0.22234981 -0.55914944 0.33826134 -0.434335 0.2529141 0.08598989
0.5879247 0.065581344 -0.030327149 -0.2681336 -0.24765165 -0.23498416 -0.5857088 0.25074926
-0.69717294 0.41087857 0.33270332 0.20055868 0.013753723 -0.0761664 0.42319763 -0.3886838
0.4726974 -0.3601614 -0.067819245 0.3808334 -0.033113 -0.29568616 -0.4841492 -0.15448086
0.2579949 -0.02027388 -0.22054914 -0.29121238 0.19195631 0.15167391 -0.24374205 -0.16743527
-0.0027152388 -0.105098605 0.10720316 -0.08500518 0.23854053 0.23647086 0.19750638 0.13044359
-0.21295457 -0.2753046 0.11855604 -0.12090873 0.34586388 0.1179557 0.011454541 -0.17586862
-0.114451125 -0.09357626 -0.18443555 0.11033447 -0.056521017 0.34680292 -0.19270821 -0.09110164
-0.39133066 0.1756312 0.32431662 -0.3735972 -0.16037603 -0.4281859 -0.13600065 0.086930856
0.21549569 0.22641625 0.06840326 0.41540533 -0.21673779 0.17360963 0.04820324 -0.12502779
0.35486817 0.19582841 -0.21328236 -0.028886415 0.19083828 0.39835522 0.079187855 -0.37130064
-0.23771465 -0.442935 -0.11304539 -0.016486265 0.019558523 0.253629 0.08079121 -0.48958474
-0.014220879 0.31224963 -0.13980344 -0.20224528 -0.30991998 -0.36152992 -0.066727936 0.12566552
-0.14921005 -0.06913596 -0.089858495 0.23044488 -0.0053055747 0.11259097 -0.49834827 0.13300134
0.15616423 -0.22881785 -0.0753417 0.03753083 -0.2387538 -0.44765297 0.21141747 -0.2830805
0.34388253 -0.03658479 -0.039906595 -0.3554501 0.100166805 -0.1906018 0.38931048 0.7527301

bias f4 [20]
00000000: cbb8 0d3d 603d 90bc bd58 e13c fe2f b53b
00000010: b6c3 803d 53e6 be3d c72b b63c dccc f6bc
00000020: 4fca 5b3d b872 e4bd 58c9 443d 0608 00be
00000030: a8a1 04be 8094 56bd 87cf f8bd 68eb 213e
00000040: 8c36 69bd e74f 39be 2596 533d c1be 3abb
0.03460006 -0.01760739 0.027508134 0.0055294028 0.06287329 0.093212746 0.022237672 -0.030126981
0.053659733 -0.11154693 0.04804358 -0.1250306 -0.12952292 -0.052387714 -0.12148958 0.15812457
-0.056936786 -0.18096887 0.05165686 -0.0028495046

weight f4 [20, 20]
00000000: ce4c 8c3e f11c 6fbd bd26 d13c e455 3bbe
00000010: 74b2 0c3e 18f0 1c3d 0df0 353d ae4e 17be
00000020: 57f3 d93e 8d97 683d e3d1 04be aacc 383e
00000030: f8bd 953e f69f a6bd 6807 553e e7a1 3cbe
00000040: 0af9 8f3e f443 1abe ffca 8fbe 8c84 a5bd
00000050: 7e2e df3b 415f 55be 92ab 4a3e 1976 82bd
00000060: fa02 15be 7ee9 10bd 0005 60bb 80b9 91be
00000070: 1ca8 a53e 4283 45be 2209 703c 2da3 59be
00000080: 8933 2cbe cef4 7f3d 46c9 9abe 6e62 8ebe
00000090: 7dbf f6bd a7d4 b23e e690 8e3d 5611 f9bb
000000a0: ab19 cc3e e0dc 5c3e fd28 25be e948 62bc
000000b0: f8b6 00bf 0e7f 47be 6fc9 38bd 0407 45be
000000c0: b645 d9bd b4c0 933d a59f 94bc 9768 25bd
000000d0: 43e7 a0bd cb5a aa3e 113c fcbd 3c74 a7bd
000000e0: a693 9f3d 85b5 c9be 2e71 a8be feea ac3c
000000f0: e179 07be b150 183e 7bf0 163e 5687 b53d
00000100: 7c99 013e fc7b 8abe dd9a 8d3d 09ef aa3e
00000110: e89a 30bd 435f 85be d111 4fbe eeec d1bd
00000120: ff14 0f3f 26c4 ce3e e260 833e a5ea 683e
00000130: 6034 96bd 6989 cc3e 11d2 2dbd 3d86 8c3e
00000140: 5d55 7bbe 8fec 253d 439a c43e 2a95 bb3d
00000150: d33c be3d 2e61 abbd aa18 6fbd 1009 a9be
00000160: 1e25 223e 7aba 0fbe 1c71 49be c008 4a3d
00000170: f985 b0be be3d 49be 6cb8 ddbe 2f7e aa3d
00000180: 5f0d 24be 7254 ff3c dc47 a6bd 66d0 07be
00000190: 2e9e d0be a975 bfbd 4b1c f63d 24f6 01bd
000001a0: cd81 eb3d 95ed d13d bd11 babe ae8a 653e
000001b0: 912f f6bb 6d2c 4cbd 2ea2 7dbe 22e2 ebbe
000001c0: c4bf 353c 8e3e ae3e 52bb 243e e6e1 3c3f
000001d0: 19c0 71bd 4095 653d 5192 39be 8680 adbe
000001e0: 7719 393e 3bf9 a03c e1fd ee3c 683a a03d
000001f0: 96b9 93be 25ae 233e 09af f2bd 6342 7b3e
00000200: 5358 923d cca3 293e 4827 63be 108e 4bbd
00000210: 6427 8e3c 31a2 a23d 34d7 2c3e a939 aabc
00000220: 86d7 c63d 0239 833e 8186 cc3c 0b68 d83d
00000230: 0881 3dbe e8c6 b33c 5b75 343e 9b70 b73c
00000240: 4571 f23d be92 41be a841 d23d 7eab 34bd
00000250: a096 06bc d097 5d3d 2a7f ccbd 3cd3 6bbd
00000260: 72f2 613e e788 c3bd 269f 3abe a66a 92be
00000270: 3f5c 93be 3f2e cb39 4bdc 57bd b002 203e
00000280: f138 6abe 8443 8abe 63c7 4ebc 1cfa 493e
00000290: d9b7 24be c70e a7be cde9 68bb 376c 86be
000002a0: 87b0 20be 3dd8 3d3e b979 d13d 846c 4fbe
000002b0: b100 3abc 81e7 a63e eaac f03d 4add 0e3d
000002c0: 642c cdbd bc4d 22be dfbb afbb 19a9 c63d
000002d0: 7271 a33d d460 863e b530 7b3e 0840 98be
000002e0: 1c7d f9bd aab4 eebd 76d5 2bbe 3b51 54bd
000002f0: 403d 82ba cb94 afbd a5c5 bc3c 0528 653d
00000300: 88d5 15bf 2711 8e3e 6f42 a3be f0b4 86be
00000310: 49d9 20be 4a6e 7a3d 3a9b d4bd df95 093e
00000320: 8833 c3bd 1bdb 7abe 8e21 b63e dff1 aa3e
00000330: ca8f 45be f28b a63e d4e1 9bbd f9e2 51be
00000340: 91a0 d33d c868 c2be c91c 763e 01cf f53b
00000350: 3fcb 98be 3683 b0bd d41f 9cbe 0c60 863e
00000360: 39f6 713e daa9 3fbd 0968 9d3e b6d0 84be
00000370: 46db 00bf da52 4ebe a760 98bd 053b 5a3e
00000380: 5fad a1be 2577 2c3d 6681 bbbd b397 3d3f
00000390: 881a d5bd ac39 67be e019 cfbc 5659 933d
000003a0: dc83 d93e 11f7 983e 74de 1d3e 0cc8 18bd
000003b0: af79 bd3d f17c 2e3c 526a bbbd a407 65bd
000003c0: 6e86 54be 412f 53bd a083 b6bc 7e98 f4bd
000003d0: e7e6 88be 9877 9b3e 6358 13be 1485 3ebe
000003e0: f05e 7c3c 2ae1 67bd 3259 2f3d 4258 70bc
000003f0: b49c 70be 4e9a 853e 605b b4be 9b05 883d
0.27402347 -0.05837721 0.025531167 -0.18294483 0.1373995 0.03831491 0.044418383 -0.14776108
0.42568466 0.056785155 -0.1297069 0.18046823 0.29246497 -0.08135979 0.20803607 -0.18421136
0.2811969 -0.15064985 -0.2808456 -0.08081922 0.006810962 -0.20837118 0.19792011 -0.063701816
-0.14551917 -0.035378926 -0.0034182668 -0.28461838 0.3235482 -0.19288352 0.014650615 -0.21253653
-0.16816534 0.062489323 -0.30231684 -0.2780947 -0.12048242 0.34927866 0.06961231 -0.0076009436
0.39863333 0.21568632 -0.16128917 -0.013811328 -0.5027919 -0.19482061 -0.045113977 -0.19240957
-0.106089994 0.072144896 -0.01814253 -0.040382948 -0.0785661 0.33272395 -0.12316144 -0.08176467
0.077918336 -0.393963 -0.3289885 0.021108147 -0.13230087 0.14874531 0.14740174 0.08863704
0.12656206 -0.27047718 0.069143035 0.33385494 -0.04311648 -0.2604924 -0.2022164 -0.10250269
0.5589141 0.40384024 0.25659853 0.2274576 -0.073342085 0.39948586 -0.042436663 0.27446166
-0.24544282 0.040508803 0.38398942 0.0915931 0.09288945 -0.08368145 -0.05837313 -0.33014727
0.15834472 -0.14035979 -0.19672054 0.04932475 -0.34477213 -0.19652459 -0.43304765 0.08324849
-0.16020726 0.031168196 -0.08119175 -0.13263091 -0.40745682 -0.09348614 0.12017115 -0.03172888
0.11499367 0.10250393 -0.36341658 0.22416183 -0.0075129946 -0.049847055 -0.24768898 -0.46070963
0.011093084 0.340321 0.16087082 0.73782194 -0.05902109 0.05605054 -0.18122222 -0.33887118
0.1807612 0.019650092 0.029173793 0.0782364 -0.28852528 0.159844 -0.118497916 0.24537043
0.07145753 0.1656639 -0.22182953 -0.04969603 0.017352767 0.07941092 0.16878968 -0.020779448
0.097090766 0.2562943 0.02496648 0.105667196 -0.18506253 0.021945432 0.17622893 0.022392562
0.11838011 -0.18903634 0.10266429 -0.04410886 -0.008214623 0.054099858 -0.09985192 -0.057574496
0.22065142 -0.095475964 -0.18224773 -0.2859699 -0.28781316 0.00038753633 -0.052700322 0.15626025
-0.22873284 -0.27004635 -0.01262078 0.19724315 -0.16085757 -0.32628462 -0.0035539747 -0.26254436
-0.1569234 0.1853952 0.10228295 -0.20256239 -0.011352704 0.32598498 0.11751731 0.034879006
-0.100182325 -0.15849966 -0.005362972 0.097002216 0.07980622 0.2624575 0.24530299 -0.29736352
-0.12182066 -0.11655553 -0.16780648 -0.05183528 -0.0009936467 -0.08573302 0.023043463 0.05594637
-0.5852895 0.2774746 -0.31886622 -0.2630992 -0.15707888 0.061140336 -0.103811696 0.13436078
-0.09531313 -0.24497645 0.35572475 0.33387658 -0.19293132 0.32528645 -0.07611433 -0.2049674
0.1033336 -0.37970567 0.24034418 0.0075014834 -0.29842564 -0.086187765 -0.30493033 0.26245153
0.23629083 -0.046792842 0.30743435 -0.25940484 -0.50334585 -0.20148793 -0.0744031 0.21311577
-0.31577584 0.042105813 -0.0915554 0.740596 -0.10405451 -0.22580594 -0.025280893 0.07194774
0.42483413 0.29875997 0.1541689 -0.037300155 0.09251725 0.010649906 -0.09151138 -0.05591549
-0.20754406 -0.051558737 -0.02227956 -0.11943148 -0.26738665 0.3036468 -0.14389186 -0.18605453
0.015403494 -0.056611218 0.042809673 -0.01466948 -0.23497277 0.26094288 -0.35225964 0.06641694

bias f4 [20]
00000000: 0226 4c3d 133c 2e3e 4bb5 18bc dde5 5bbd
00000010: 8b16 bfbd 40e6 913d 4507 81bd fab8 0abe
00000020: 05ce 6dbd 11e8 7ebd 4057 9e3d a914 133d
00000030: c594 62bd ea50 663e 05fb 3b3d e6c6 b83d
00000040: 870e 07bd 884e 90bd f947 9fbd b0c5 963e
0.049840935 0.17015104 -0.009320567 -0.05368601 -0.093304716 0.07123995 -0.06300215 -0.13547125
-0.058057804 -0.062233035 0.07731485 0.035908375 -0.05531766 0.22491804 0.045893688 0.09022312
-0.03297284 -0.07046229 -0.077773996 0.294477

weight f4 [20, 20]
00000000: 5444 913e d565 0c3e b072 f03d bae1 943e
00000010: cbba 62be 09a8 13be 471f 783e 7f28 b5ba
00000020: 586b 89bd 499d a23d 230e 48bd 118e 823e
00000030: 589c 6f3e a4aa 083e 9840 b6be d463 a73d
00000040: 6379 853d ab96 ab3e a0fe 2fbe 6d06 2fbf
00000050: 6390 523e 691f 4b3e 5a17 04be dffc 2abe
00000060: df18 94bc e9c4 3e3d 0bd8 6abd 8ed8 3d3e
00000070: 2e61 253e 9c47 8e3d e834 4abe f86f 45be
00000080: 803c 803e 70f3 eb3d 56cc 11be e6ea 92be
00000090: d32c 413e bab3 1cbe f49f 95be dc8b 6e3d
000000a0: 5d9d edbe 2c0d b0bd 9b4e 6abe cfe3 32be
000000b0: 5ae1 8dbe bedc 983d 1f08 b43c 7da8 adbe
000000c0: 601d 1bbe da6b b83d c2ff 99bd ece9 a1be
000000d0: c5d7 63be 0df9 f9bd 9ecc f93e 68c1 a53e
000000e0: 93f3 4e3e 88fc 5bbe 4cd6 7e3e b32e dc3e
000000f0: 6e83 a9be 180b f53c 4d2e 66be d4b2 40be
00000100: aeda 78bd 8d44 0f3d cb1a 44be 4465 3fbe
00000110: 2245 31be 597f 9f3e ff9a d33d e620 083e
00000120: 1fae 8fbb cf9f 253e 53ba be3e 410a 733e
00000130: f712 aebe e939 0b3d 4eda 223d 45be 87bd
00000140: ebf4 25be 06fc 97be cfd7 80bd 8aed 07be
00000150: 7f82 edbe dc08 09be 171c 54be 4650 8fbe
00000160: a17d d53d 7263 98be e0b5 ae3e 303e 74bc
00000170: 974b 86be cb80 41bd b53c 513b 4dce 31be
00000180: 4346 7cbd 0138 b5bd 0acf 71bc 0d15 14be
00000190: 96be 06be c723 4ebc 3c86 fcbe a7d9 8f3e
000001a0: bf6a 22bf cd16 a9be 1652 9d3d ed41 4bbe
000001b0: c1fb 8a3e 464f bfbd 7f08 38be 10ce d73e
000001c0: 97cc a5be 7775 a6be cbd9 1ebe e6d8 703e
000001d0: 1d88 bc3e 60d7 50bb b3ca 8dbe 367b 9b3e
000001e0: 5e85 2cbe 8d29 b6bd 46fc eebc ed29 683e
000001f0: fe1c 353e 7a33 05bd caa7 473e 58f4 69be
00000200: 814e 663e abbf 31bd 7760 d83d 62e8 d33b
00000210: 4a05 2fbe 876a f5bd 2a0c 5f3e 1628 ffbe
00000220: dca4 58bd 9677 53be 9c26 77bd 0792 77be
00000230: e174 383e 9c8d 1bbd 948a 2fbe 7ef7 843d
00000240: 7428 563e 8d1d 01bd 37c3 c9bd ecda 36be
00000250: 22eb 1c3e 7fa6 a6bd 4aec 1a3e 661b 0bbe
00000260: ad63 133e c911 f9bd 5142 fb3c 173b 6abc
00000270: 3c2b 2ebe 3188 623e 1a3c 86be e2ea 463e
00000280: 2bd6 43be 2baf a1be 71ac a83d 3bb1 963e
00000290: 6d4c 233e 5ad2 163e 5b06 a33d 16d6 b93e
000002a0: 187f 073f 9812 f83d bc3f 72be 398d 76bd
000002b0: 9913 df3b bf4b 32be d9b3 dbbd 9e61 593e
000002c0: 174a 8b3e 09e3 cabe e6d0 793d 0d30 21be
000002d0: 4a60 89be 26b3 b2be dc1e 96bd 4571 ac3e
000002e0: ca7f a33d 6af8 c73d 97f4 d7bc 7ad1 4ebe
000002f0: 3323 ffbc 3287 64bd 6f41 963d ba0e e6bd
00000300: aafc 9bbe b946 36be c566 dbbd 2f4b ccbe
00000310: 79c6 923d 62c6 e7be 8f15 debd 3992 333e
00000320: 78c6 a43e 2985 7a3e bd3e 823e 1cad 313c
00000330: 2337 7dbd 10cb 18bd 4046 803e 4e9f 75bd
00000340: e35d d8bd 5304 8b3e 36be b53c 2614 9dbe
00000350: 9795 96be d430 be3d 997a d3bd abcb 843e
00000360: 68a5 f3bc 7398 eabd ffc7 8bbb bc62 5ebe
00000370: 5245 793c 2f9d aa3d a83f 8d3e 52b9 403e
00000380: ef69 8abe c40a b83e 31aa 143d 5037 85be
00000390: 1869 593e 8e21 42be 1e2c 953e 5b58 923e
000003a0: 78b0 383e a7b9 9dbe 5dda afbe 9f5f ab3e
000003b0: 1b00 9f3e ef5b babe ea71 143f 4f7e 283d
000003c0: 3dae 683e bf62 1d3d e63e a23e 59a7 3dbe
000003d0: 1ba8 cfbd 0eb5 9a3d a495 96be 3440 a5be
000003e0: a3b2 eb3d 4b30 bf3e a53f 21bd f3d9 97be
000003f0: 3801 f83d 12b6 a83e 4241 a13e e09a ce3d
0.28372443 0.13710721 0.11740625 0.29078466 -0.22141568 -0.14419569 0.24230681 -0.0013821273
-0.06709927 0.07940156 -0.048841607 0.25499013 0.23399484 0.13346344 -0.35596156 0.081733376
0.06517293 0.33513388 -0.17186975 -0.6836918 0.20562892 0.19836201 -0.12899533 -0.16698025
-0.018078266 0.046574507 -0.05733494 0.1853964 0.16150352 0.06947252 -0.19746745 -0.19280994
0.25046158 0.115210414 -0.14238104 -0.28694838 0.18864755 -0.15302935 -0.29223597 0.05823885
-0.4640912 -0.08596262 -0.22881548 -0.17469715 -0.27710992 0.07463978 0.021976529 -0.3391761
-0.15147924 0.09004946 -0.07519485 -0.3162378 -0.22250278 -0.12205706 0.48788923 0.3237412
0.20210104 -0.21483052 0.24886435 0.4300438 -0.33108085 0.029912516 -0.224786 -0.18818218
-0.060755424 0.034977484 -0.19150846 -0.18690974 -0.17311528 0.31151846 0.103322975 0.132938
-0.0043847705 0.16174243 0.3725153 0.2373438 -0.33998844 0.033990774 0.039758973 -0.06628088
-0.1620671 -0.29684466 -0.06291162 -0.13274208 -0.46388623 -0.13382286 -0.2071384 -0.2799093
0.104243524 -0.2976337 0.34123135 -0.014907405 -0.26229545 -0.047241967 0.0031927053 -0.17363854
-0.061590444 -0.088485725 -0.014758835 -0.14461155 -0.1315864 -0.012581772 -0.49321163 0.28095743
-0.6344413 -0.33025208 0.07681672 -0.19849367 0.27145198 -0.09341292 -0.17971991 0.421494
-0.32382652 -0.32511494 -0.15512769 0.2352024 0.36822596 -0.0031866655 -0.2769371 0.3036744
-0.1684775 -0.08894644 -0.029173028 0.22672243 0.17686841 -0.032519795 0.194976 -0.22847116
0.22490884 -0.04339568 0.10565274 0.006466911 -0.17091861 -0.11983209 0.21781984 -0.4983527
-0.052891597 -0.20651087 -0.060339555 -0.24176799 0.18013336 -0.037976846 -0.17142707 0.06492518
0.20913869 -0.031522322 -0.098516874 -0.1785695 0.15324071 -0.08137225 0.151292 -0.1358467
0.14393492 -0.121615954 0.03067127 -0.014296315 -0.1700868 0.22122265 -0.2621773 0.19425538
-0.19124667 -0.31578955 0.082360156 0.2943209 0.15947123 0.1472868 0.079601966 0.36296147
0.52928305 0.121129215 -0.23657125 -0.060193274 0.006807756 -0.17411707 -0.107276626 0.21228644
0.27204964 -0.3962634 0.060990237 -0.15740986 -0.26831275 -0.34902304 -0.07330105 0.33680168
0.07983358 0.09764178 -0.026361747 -0.20197096 -0.031144714 -0.055792995 0.07336699 -0.112332776
-0.30466205 -0.17800416 -0.10712961 -0.3990111 0.07166762 -0.45268542 -0.10843956 0.17536248
0.3218267 0.24464859 0.2543849 0.010844495 -0.06182016 -0.03730303 0.25053596 -0.059966378
-0.105647825 0.27151737 0.022185426 -0.30679435 -0.29411003 0.09286657 -0.10326118 0.25936636
-0.029741958 -0.11454859 -0.0042657848 -0.21717352 0.015214281 0.08330762 0.27587628 0.18820694
-0.27033946 0.35945714 0.03629512 -0.26018763 0.21231496 -0.18958113 0.2913522 0.28583035
0.18036067 -0.30805704 -0.34346285 0.3347139 0.31054768 -0.36398265 0.5798632 0.041136082
0.22722717 0.03842425 0.31688613 -0.1852087 -0.101394854 0.07554065 -0.29411042 -0.32275546
0.115086816 0.37341532 -0.039367337 -0.2965847 0.121096075 0.3295141 0.314951 0.10088134

bias f4 [20]
00000000: 71ca 78be 828a 55bd 89ad 393e cf90 13bc
00000010: 6ff3 7d3d 64d6 f13c d2fb 813c 1253 383d
00000020: b815 debd 1159 c8bd 54d6 603c 8842 3d3e
00000030: c2eb 1bbd 3e9c e93b b4e5 7b3d f4f8 b8bc
00000040: 57f0 83bd 7c5d a93d 0305 cbbd b825 813c
-0.24295975 -0.052134044 0.18132605 -0.009006693 0.061999734 0.029521175 0.015867148 0.045001097
-0.10843986 -0.09782613 0.013722975 0.18482411 -0.038066633 0.007129221 0.06149836 -0.022579648
-0.064423256 0.08269784 -0.09913065 0.015765056

weight f4 [20, 20]
00000000: 5f74 b9bc 8619 cb3c b6a1 debe 7a1a 25be
00000010: 1131 0dbd 84c5 113c 5883 763e 2ed1 94bd
00000020: 2a53 573e 7fb3 713e bd9f 123e a7e6 5abd
00000030: a432 653d 37ec 9d3d 4744 50be dbb6 513e
00000040: 4d41 cebe 0d06 c83e b302 92bd 7197 adbd
00000050: 6c17 453e 9e3b 023f 5f26 053e 431f 363e
00000060: 0b2e 9dbe b8e7 3b3d 9fc3 78be 71ec 80be
00000070: 51f8 8b3e ee50 e23d ab9c 4e3e 70e5 78be
00000080: 7dd0 6abe 4d65 f9bd 61f2 b3bd 671e 463e
00000090: 5501 c13e 58d5 d33d dec5 a73d b489 083d
000000a0: 0ae2 b8be f53f c8bd f159 063f 17b1 2a3e
000000b0: ff52 5f3c 7ec7 81bd 6c7f 97bd a54e 153e
000000c0: ee3a 653e 38ec 173e 4163 85bd 5234 df3d
000000d0: f262 e9be 7f15 1b3d eb26 d03e 9d25 053f
000000e0: 7b77 b83d 28a0 a83d 140d afbe 6636 1e3e
000000f0: 57eb 393e 7ef3 a03d 67fa 883e 8b40 c5be
00000100: df24 b2bd 7684 47be d889 aabe 8631 babd
00000110: e14b 653d e80a a13e 1ecd 5bbe 15f5 723e
00000120: 6895 e6bd cf57 393e bdeb 183d df63 c83d
00000130: 6f75 903e 81ed bcbc 7ca2 f0bd 4efc c4be
00000140: 9851 2c3e 5518 07bd 7ea8 263e 021a 263e
00000150: a88a 4a3f 5759 8b3d 615c 923e eca7 253e
00000160: d9c7 d63d 4581 013e 4ccb 6dbe 46de 1e3e
00000170: bfdd 76be ea19 003e 4fd0 b03d 1c51 fdbe
00000180: 2ea4 5cbe d3cc f33c de03 4c3e 7d41 623e
00000190: 97de 123e 5954 52be 0482 4dbe 120f 6abe
000001a0: c8e9 b8be 04f1 973e 8fac 6e3e 3f41 203f
000001b0: c06c 86be b46b 82be e222 9e3e a309 823e
000001c0: 48af d5be 58ca ad3e 7a85 373c 0587 da3d
000001d0: a815 17be 5e43 dabd 4e18 6e3d c721 923e
000001e0: 6204 d3be 817b f63d 4b18 37be 0e53 63be
000001f0: 5871 8c3d 4648 a43e d0bc 4cbe f1c0 efbd
00000200: a39b 8cbd 9b5c f2be b2a9 003e 0bff c1bd
00000210: 083c d7bb b345 2bbe 3d13 e6bd 4861 9abe
00000220: d4de 94be 9b19 a8bd 164f 973e c7e0 ddbd
00000230: 39a9 da3e c6bc b6be f82f 59bb 352b 263e
00000240: cfb5 6abe 70af e03d 0d54 5f3d bb44 1dbe
00000250: 9601 50be eb03 03be 0181 4cbb 37bb 3bbe
00000260: c03c e6bd 8a76 843e 78ad a7bd 1178 203e
00000270: 0fbb 8e3d eecb 0a3e d3a8 eabd 7575 16be
00000280: e928 03be a33a 89bd 4f13 12bd 3e9e 853d
00000290: 6b7d 89bd bb7d a7bd 1b32 663e 85fa 05bd
000002a0: 533c 7b3d 1f2c 363e 2a6f 99bd 2ab1 d63d
000002b0: 195f aa3c 3276 243e de5e b63d 3d2a ebbe
000002c0: f855 08be 9865 2f3c fbcf 21be 5b47 abbe
000002d0: 9e6c 6d3e d6d0 b33e e182 92be c8be aebe
000002e0: b5a3 003e 1f9d fe3d 6ca2 783e dd1e 9a3e
000002f0: 0023 27be e130 47be c195 54be 5284 9abc
00000300: 193e 2d3e 8b1b d9bd d181 4c3e 6a31 943e
00000310: 02fa 053e 5686 523d ad87 ab3d 2bdb 0ebe
00000320: efc9 a43d c7d7 94be ba96 28be 2ad1 adbd
00000330: c982 823e 3bde 95be 90b3 64bd 1f91 173e
00000340: b37e 143e 0032 95bb 7326 13be 862c adbe
00000350: 27bf 213e 23db 7abe db25 803e 1f00 cabc
00000360: 57d4 653c e549 82be 9a36 dc3e 41dd b83d
00000370: 4134 963d f217 0ebe fa08 903e ee9a d0bd
00000380: fe5e 1e3e 01fc 52bd d9d1 01be 6906 01bd
00000390: cdee 063e 4b1a 273d 10cd a03e ed98 253c
000003a0: 9b2b ab3d 8eca 37be a6b8 83bd 2086 82be
000003b0: e76b 33be 5b5e b73b 4e39 943e f792 bc3d
000003c0: 2a53 6cbe de20 dd3d d16d 893e 745a 203e
000003d0: 8b79 223e 6f0a e23c 003d 5b3e 11ea 673d
000003e0: 6cd0 f0be 5742 f7be 70f2 ddbc d418 f7bd
000003f0: 9e7f af3e b256 a6be 59ec 123e f335 92bc
-0.022638498 0.024792444 -0.4348275 -0.16123381 -0.03447062 0.008897189 0.24073541 -0.0726646
0.21027818 0.23603629 0.14318748 -0.053442623 0.055956498 0.0771107 -0.20338546 0.2047991
-0.40284196 0.39067116 -0.07129421 -0.08476151 0.19247216 0.5087222 0.13002919 0.17785363
-0.3069919 0.04587528 -0.24293374 -0.2518039 0.27337888 0.11050592 0.20176952 -0.24306273
-0.22931094 -0.12177525 -0.087864645 0.19347535 0.3769633 0.103434265 0.08192037 0.03333445
-0.36109954 -0.09777824 0.5248099 0.16669117 0.013630628 -0.06336878 -0.07397351 0.14580782
0.22385761 0.14836204 -0.06513072 0.10898651 -0.45583302 0.037862297 0.40654692 0.5201052
0.09007164 0.082336724 -0.34189665 0.15450439 0.18156181 0.078589424 0.26753542 -0.38525805
-0.08698439 -0.19484124 -0.3330829 -0.09091477 0.055980567 0.31453633 -0.21464965 0.23726304
-0.11258966 0.18099903 0.037334193 0.09784674 0.28214595 -0.02306247 -0.117497414 -0.38473743
0.16828 -0.03298219 0.16275212 0.16220859 0.7911782 0.068041496 0.28586105 0.16177338
0.10487337 0.12646969 -0.23222083 0.15514478 -0.24108027 0.12509885 0.08633482 -0.49475944
-0.21547005 0.029760754 0.1992335 0.22095294 0.14342724 -0.20539989 -0.20069128 -0.22857311
-0.3611586 0.29676068 0.23308013 0.6259956 -0.26254845 -0.25472796 0.30885988 0.25397977
-0.4173529 0.3394344 0.011201257 0.10670284 -0.14754355 -0.106573805 0.058128648 0.28541395
-0.4121428 0.12035275 -0.17880361 -0.22199652 0.06857556 0.3208639 -0.19993901 -0.117067225
-0.06865623 -0.47336277 0.12564734 -0.09472474 -0.0065684356 -0.16725807 -0.11234138 -0.30152345
-0.29076254 -0.08208009 0.29552525 -0.108338885 0.42707232 -0.35690898 -0.0033140164 0.1622742
-0.22920917 0.10970962 0.054523516 -0.1535825 -0.20313105 -0.12794463 -0.0031204822 -0.18333136
-0.11242056 0.25871688 -0.081873834 0.15670802 0.06969272 0.13554356 -0.11457982 -0.14693244
-0.12808575 -0.06700637 -0.035662945 0.06524323 -0.06713375 -0.08178278 0.22480051 -0.032709617
0.061336827 0.17790268 -0.07491906 0.1048301 0.0207973 0.16060713 0.08904813 -0.45930663
-0.13314044 0.010705374 -0.15801995 -0.33452877 0.23185965 0.35120267 -0.28615478 -0.3412993
0.1256245 0.12432312 0.24280709 0.30101672 -0.16321945 -0.1945224 -0.20760252 -0.018861923
0.1691822 -0.106009565 0.19971396 0.2894395 0.13083652 0.051397644 0.083754875 -0.13950793
0.08046328 -0.29070875 -0.16463748 -0.084871605 0.25490406 -0.2927111 -0.055835307 0.14801453
0.14501457 -0.0045530796 -0.14370136 -0.3382303 0.15795575 -0.24497657 0.2502888 -0.02465826
0.014027677 -0.25447002 0.43010408 0.09026576 0.073341854 -0.13876322 0.2813185 -0.101858005
0.15465924 -0.05150986 -0.12677707 -0.031500254 0.13177033 0.04079656 0.3140645 0.010107261
0.083579265 -0.17948362 -0.06431703 -0.25492954 -0.1752163 0.005595965 0.2894997 0.09207719
-0.230786 0.107972845 0.26841596 0.15659505 0.15866677 0.027592866 0.21409988 0.056619707
-0.47034013 -0.482928 -0.027093142 -0.120652825 0.34277052 -0.32488018 0.14347972 -0.01784799

bias f4 [20]
00000000: 6471 7fbd a1cd 38bd 4ea4 6b3e 8997 3b3d
00000010: 3db5 bebc aa2f ed3c 71e1 903d d26a 3ebd
00000020: 8b02 1c39 ee57 1b3c ac1d 51bd d947 d4bd
00000030: 814c d53d b094 74bd 9929 0fbd 2a17 e6bd
00000040: 6681 5cbe 8d1c d43d 1430 f53c cfff b2bd
-0.062363997 -0.045117978 0.23011896 0.045798812 -0.02327978 0.028953392 0.070742495 -0.04648859
0.00014878267 0.009481413 -0.051053688 -0.10365266 0.104149826 -0.059712112 -0.03495178 -0.11234887
-0.21533737 0.10357008 0.029930152 -0.08740198

weight f4 [20, 20]
00000000: a784 233e 1708 47bd 52c7 b7bd f20e 06be
00000010: 0abb 08bc 1ba2 95be a81f e7bd 40ae ce3e
00000020: 8911 8ebe 360b 933e d9e9 7fbd 4a61 87be
00000030: 26e1 ef3d f99d 913c f4cb ed3d 2561 e33d
00000040: 9f27 92be da5a 1e3e 9e01 713d 7e62 163d
00000050: 0efb 613e f48b 843e 6634 8c3e 402b f43d
00000060: 8324 c33c 7bb2 f3bd 884a 9cbc 41a5 a23d
00000070: 36d6 523e 7ba4 fa3d 086f 9ebe 73c9 d33d
00000080: 9ee1 e53e a346 33bd 8e51 e2bd 03b4 f6be
00000090: bc18 02bd 0234 a53e 8194 70be ead6 c93d
000000a0: 735f 1b3d 847d 293e 2a78 013f dac5 af3d
000000b0: 6e05 aa3d 49d9 e83e 06df 85be d5eb 35be
000000c0: fca0 873d c672 d5be 252d 353b 23af a83d
000000d0: 573c 853d fad9 65bd 0963 c73c 3dc0 93be
000000e0: 4822 70be 6e32 12be 23d0 7cbe a395 eabd
000000f0: b773 b93c bfa3 2fbe dc39 ac3b ca1a 18be
00000100: 4430 b6bd 3467 363d b252 c23d fb45 f6bd
00000110: 2f9e 9d3e b5b5 63be 321e ce3d 4922 8b3e
00000120: f0ff 66be c66d cb3d 5701 98be a8cc 94be
00000130: b7c2 b4bd 8e9a 893e 2b60 dc3c e99e f3bd
00000140: 1465 123e d4b6 5bbe 4f6d 7fbd ab51 8cbb
00000150: 16f6 063e 4374 983e acde d23e 6c44 bf3e
00000160: d312 74bd 60b9 b3be 3766 97bd 604d 153d
00000170: 4fc9 803e 4e89 e2bb 6eee dabe 33f7 be3c
00000180: cddc 85be ba29 66bd 5653 ff3e 5c02 a23e
00000190: 8e0e 02be 14e1 663e c89b b53d f505 7e3d
000001a0: 5e6f 16be 04b7 29be c6df 17be 818c 243e
000001b0: 4de3 75be 1df0 2fbe ee60 3e3d cf78 aa3d
000001c0: 6cca 843e 6f94 9ebe ff7d fa3d cd07 003e
000001d0: 9c0c 223e edfc f33e 6539 59be 603b 6b3d
000001e0: 67cb dc3e 9aa8 0fbe a457 c9be b847 313e
000001f0: d8d8 3b3e 02db 143f 386e 583e ed87 1a3e
00000200: 3d2e 04be 4857 843c 0ff6 ae3d 47a4 8b3e
00000210: 1cf1 bcbe 4c66 c2bd 2994 a2be b66e b13c
00000220: 385a 1bbe 6cf4 6c3e 02fb 7c3e bdbf 963e
00000230: 7903 d5be e6ef 3abe dbbb ea3d 2181 cc3e
00000240: 2db1 34be 0668 a03a 4634 823e d93e b43d
00000250: fdb4 e5bc 994a 75bc e589 3b3e b591 12bf
00000260: 3404 dbbe 1df1 763d eb8f 403e a11c 26bd
00000270: 1e55 4cbd c251 9b3b 2622 bc3e 3ed8 dabe
00000280: 86ec c2bd adf8 ac3e fe84 9a3e 3515 953e
00000290: 8cd0 e93c e0ff 993d 8054 ad3e c90c 54be
000002a0: bbfd f3bd b114 a2be 1624 53be 72f6 903e
000002b0: c0a3 913e cfdf 8cbe 3780 ecbd d063 963e
000002c0: b943 143e f9aa 01be 223f c7bd 4c8a f63c
000002d0: 81c5 c9be fe97 853e 9e57 d8bc f83c aebe
000002e0: 534b cc3d a4d0 9abe 86d0 3c3e 8b82 0a3e
000002f0: f647 543d 8f2e 2d3e eb90 63be b6e9 bb3e
00000300: 9041 63bc 6b78 d8bd a3fa ad3d ccf9 89be
00000310: fa9d 443e 5f17 6dbe c33d 99be f31c 0abd
00000320: f150 b43d 27c6 593e 6d43 223e 4576 4abe
00000330: 110a dcbe 0471 0ebf ab70 a53e a29d 083d
00000340: 77dc 043e 321a b33e 702b 673c ac27 bdbd
00000350: 018a c23d d31d 853d 258a 973e 6651 9cbe
00000360: 066d 213e 148e bebe c3c7 853e 32a8 503e
00000370: 5e77 293e 2572 263d f7d6 c43e 06e5 e6bc
00000380: a480 a43d 9e41 ba3e c50f b9be cb24 fbbe
00000390: 1240 573e 82a5 4dbe fb42 aa3e b6a5 8a3e
000003a0: ae12 1d3f 3997 be3e c2b6 ff3e 5a7e 193d
000003b0: 2859 d2be 1caa 893e ec1b adbe 24b8 34be
000003c0: 6ef6 d43e 828e 7a3e a68b d0bd da13 c7bd
000003d0: 5315 633d 3bdc 663d 2b67 2a3e 6e0c 54be
000003e0: 73f0 873e f7f7 4f3e d7cf 863d 5e18 c93e
000003f0: 393f 893e 6095 0cbd 9009 5bbe e618 093f
0.15968572 -0.0485917 -0.08973564 -0.13091639 -0.008345375 -0.2922524 -0.11285335 0.40367317
-0.27747753 0.2871949 -0.062478874 -0.26441413 0.117128655 0.017775523 0.116111666 0.11102513
-0.28545853 0.15464345 0.058839433 0.036715023 0.22068426 0.25888026 0.27383727 0.11922312
0.023821121 -0.11899277 -0.019078508 0.07941676 0.20589527 0.122384034 -0.30944085 0.10341158
0.44898695 -0.043768536 -0.110507116 -0.48184213 -0.03176187 0.3226624 -0.2349415 0.09855445
0.037932824 0.16551787 0.5057398 0.08582659 0.08301817 0.45478275 -0.26146716 -0.17765744
0.06622502 -0.41689128 0.0027645316 0.0823653 0.065056495 -0.05611608 0.024339216 -0.28857604
-0.23450577 -0.1427705 -0.24688773 -0.11454322 0.022638185 -0.17152308 0.005255921 -0.14853969
-0.08895925 0.044532016 0.09488429 -0.120250665 0.30784747 -0.22237284 0.10064353 0.27174595
-0.2255857 0.09933047 -0.29688522 -0.2906239 -0.088262014 0.26875728 0.026901325 -0.11895544
0.1429637 -0.21456462 -0.062360104 -0.0042821965 0.13179812 0.297762 0.4118551 0.3735689
-0.059588265 -0.35102367 -0.07392543 0.036450744 0.25153586 -0.0069133407 -0.42760032 0.023311233
-0.2614502 -0.056192137 0.49868268 0.31642425 -0.12700865 0.22546798 0.088676035 0.0620174
-0.1469092 -0.16573721 -0.14831457 0.16069223 -0.2401249 -0.1718144 0.046479158 0.08323824
0.25935686 -0.3097262 0.12231063 0.12502976 0.15825123 0.47653905 -0.212133 0.05742967
0.43123934 -0.1402916 -0.39324677 0.17312515 0.18344438 0.5814668 0.21135795 0.15090914
-0.12908264 0.0161549 0.08543026 0.2727377 -0.36902702 -0.09492168 -0.31753662 0.021659236
-0.15171134 0.23140115 0.24705127 0.2944316 -0.41604212 -0.18255576 0.11461612 0.39942268
-0.17645712 0.0012238033 0.25430506 0.0880105 -0.028040404 -0.014971399 0.18314321 -0.5725358
-0.42776644 0.060288537 0.188049 -0.040554646 -0.04988586 0.004739971 0.36744803 -0.42743105
-0.095177695 0.33783475 0.3017959 0.29117742 0.028541826 0.075195074 0.3385353 -0.20708002
-0.119136296 -0.3165641 -0.20619234 0.28313023 0.28445244 -0.27514502 -0.115478925 0.29373026
0.14478959 -0.12662877 -0.097288385 0.030095242 -0.39408496 0.26092523 -0.026408967 -0.3403089
0.099753045 -0.30237305 0.1843892 0.1352636 0.05182644 0.16912292 -0.2222325 0.36701745
-0.013870612 -0.10569843 0.08495071 -0.26948392 0.19200888 -0.23153447 -0.29929933 -0.033719014
0.08804501 0.21266995 0.15846033 -0.19771679 -0.4297643 -0.556412 0.3231252 0.033353455
0.12974726 0.34980923 0.014109477 -0.092360824 0.094989784 0.06499829 0.29597583 -0.30530852
0.15764245 -0.37217772 0.2612897 0.20376661 0.16549441 0.0406362 0.38445255 -0.028185379
0.08032349 0.36378187 -0.36144844 -0.49051508 0.21020535 -0.20082667 0.33254227 0.27079552
0.6135663 0.3722475 0.4994412 0.037474014 -0.41083646 0.26887596 -0.33810365 -0.17648369
0.4159426 0.24468425 -0.10182886 -0.09720583 0.05544026 0.056362372 0.16640918 -0.20707867
0.26550636 0.20309435 0.06582611 0.39276403 0.26806048 -0.034322143 -0.21390367 0.53553617

bias f4 [20]
00000000: 1ba5 2cbc 6ac5 233e e877 e03d 759b a2bd
00000010: 09c1 d23c 0816 a13c 3ddd 1bbe 50b3 5a3e
00000020: 0c85 8e3d ebb1 27bd e8c4 a83c 280b 913d
00000030: 3e53 433d bf81 403e e741 8ebd 512b 8b3c
00000040: 1cc8 dfbd 080a 63be b417 0abd d85c ce3d
-0.010537411 0.15993276 0.1096037 -0.07939807 0.025726812 0.019663826 -0.15221114 0.21357465
0.069589704 -0.04094116 0.020601705 0.07082206 0.047686808 0.18799494 -0.069461636 0.016988428
-0.1092684 -0.22171795 -0.03371401 0.10076302

weight f4 [1, 20]
00000000: fc38 48bd 87b1 bcbe ac40 c1be 7a7f 693e
00000010: b175 9c3e 7001 24be ee13 3a3f 45d5 9cbe
00000020: 3abe 45be 6192 0a3e a88a c6bd b9ca 0dbf
00000030: 08e0 bcbd e155 34bf 149f b8be f267 e83d
00000040: 76b3 e63e ef92 3a3f c234 963c 9a8c e3bd
-0.04888247 -0.36854193 -0.37744653 0.22802535 0.3055854 -0.16016173 0.7268666 -0.30631462
-0.19310847 0.13532402 -0.09694415 -0.55387455 -0.09222418 -0.7044354 -0.36058867 0.11347951
0.45058793 0.7288045 0.018335704 -0.11110802

u_b f4 [2]
00000000: 0000 803f 77be 7f40
1.0 3.996

l_b f4 [2]
00000000: 0000 0000 0000 0000
0.0 0.0
