Trained/Models_00/Noise_2/toy_nostop/internal_o3.pt (torch, 51615 bytes, 23 tensors)

weight f4 [20, 2]
0.12593646 0.19190986 -0.25097346 0.0233669 -0.40794116 -0.47235602 0.5338508 0.5223248
0.0059109745 -0.2290958 0.07323742 -0.45724124 -0.25298545 -0.012128925 -0.18968423 -0.57510865
-0.1866557 0.14270818 -0.29468125 0.056659218 -0.05603909 0.17576657 0.13828018 0.052381907
0.16139191 -0.3125178 -0.17277892 0.046335448 -0.019910756 -0.11495246 0.21038191 -0.08189878
0.43479234 -0.38429737 -0.51791406 -0.27897507 0.03155957 -0.051162086 0.036005966 -0.13104668
00000000: 7df5 003e 0584 443e 987f 80be f16b bf3c
00000010: aadd d0be a6d8 f1be 72aa 083f 14b7 053f
00000020: d9b0 c13b 1798 6abe 80fd 953d 861b eabe
00000030: 4f87 81be 66b8 46bc 953c 42be 523a 13bf
00000040: ac22 3fbe 1822 123e 76e0 96be 7f13 683d
00000050: 3f89 65bd 27fc 333e 5299 0d3e 698e 563d
00000060: ec43 253e 5502 a0be f5ec 30be 3dca 3d3d
00000070: e21b a3bc 326c ebbd 5b6e 573e 8cba a7bd
00000080: 1a9d de3e a0c2 c4be 0496 04bf d2d5 8ebe
00000090: 9c44 013d 568f 51bd fe7a 133d 1a31 06be

bias f4 [20]
-0.002207098 -0.047432058 -0.49837166 0.0884876 -0.17066601 -0.3558963 0.008913514 -0.32345748
0.02149358 -0.1785094 -0.12955357 -0.09987915 -0.49342945 0.12064553 -0.17518416 -0.30028298
-0.2980102 -0.29684955 -0.054043576 -0.30711234
00000000: f6a4 10bb 1e48 42bd 922a ffbe fd38 b53d
00000010: 12c3 2ebe 0a38 b6be fd09 123c 389c a5be
00000020: 4e13 b03c 2bcb 36be b1a9 04be 718d ccbd
00000030: c9a2 fcbe 0115 f73d 7a63 33be b1be 99be
00000040: cb94 98be aafc 97be cc5c 5dbd d43d 9dbe

weight f4 [20, 20]
0.24437845 0.24562748 -0.3506781 0.24260388 0.06119631 0.05993998 0.20711632 0.02022035
0.35946253 0.35572568 0.3601606 0.0523299 0.27478525 0.2112007 0.42743045 -0.3592343
-0.15111516 -0.28795725 -0.124506526 0.09466428 0.26308167 0.11378934 -0.06853779 0.009847726
-0.12239493 -0.37407658 -0.4361562 -0.21944502 0.24662802 -0.07429593 -0.031828023 -0.0124035105
-0.1673271 0.039448474 -0.21992461 0.1983973 0.17761931 0.033487353 0.035633054 -0.005633662
0.33144167 0.16985032 -0.22041512 -0.5200242 0.5929709 -0.1300789 -0.043065324 0.18495704
0.1985843 -0.23518892 -0.19535041 0.17106009 -0.3020093 0.028554475 -0.033471867 -0.094507776
-0.015584912 -0.047382455 0.036004335 -0.47496998 0.20093806 -0.021715991 -0.26235008 0.2493126
0.17542551 0.274274 -0.35045925 0.19171807 -0.18652393 0.048588146 0.092840694 0.19575186
0.37090954 -0.06678138 0.09975154 0.10653188 -0.09452148 -0.16239327 0.20107093 0.24563244
0.3573091 -0.023839062 0.19277701 0.03608537 -0.27647838 -0.29856032 0.09731271 0.43447414
-0.036617685 -0.1036388 0.12530908 -0.013790681 -0.08439864 -0.19562577 -0.10983275 0.24259992
-0.45160213 0.10328447 0.0265932 0.29686102 -0.033049967 0.1541573 0.33174843 -0.12246852
0.16373335 0.11287763 -0.1666893 -0.12108554 0.029441463 -0.16487683 0.11110172 -0.10071608
-0.24826756 -0.18079007 0.5455787 -0.022952646 -0.37083057 0.040955715 0.16754825 0.2725964
-0.3809248 -0.0055462965 0.07349394 -0.04924672 -0.16630639 -0.59974617 0.2048622 0.04240043
0.32029355 -0.2271391 0.19522639 -0.12938482 0.0046942905 -0.008561082 0.17883092 0.071492456
-0.27374586 -0.19757006 0.057959184 -0.17360039 0.2031517 0.4246578 0.3327888 -0.050105605
0.33774203 0.15656641 -0.4282906 0.22022396 -0.04383803 -0.040340144 0.09773306 0.15848672
0.30914915 -0.30919346 0.041002657 -0.19375363 -0.20080663 -0.08432208 -0.19453448 0.28099108
0.0975043 -0.23398319 0.013858832 0.08781534 -0.2891893 0.11623276 -0.24704404 -0.11204239
-0.29662007 -0.12740363 0.08689992 0.13966517 0.10953853 -0.13263753 0.0929247 0.4847282
0.17023925 0.22079799 0.16278026 -0.1905653 0.09421725 0.05472093 0.47621498 0.078953974
0.55025476 0.3286957 0.16647263 0.2688601 0.40197042 0.16716932 0.094104804 -0.2844005
0.014334213 0.25883183 -0.063116595 -0.016276922 0.34302628 -0.030532049 -0.18627585 0.08727084
-0.031056618 0.15656582 -0.15059692 0.1652988 -0.21608722 -0.18633024 -0.23762242 0.057330117
0.38121185 -0.55649525 -0.027430715 -0.1734571 -0.48475572 -0.21242432 -0.03271761 0.14267598
-0.35882998 0.14323254 0.1700735 -0.24216424 -0.3970115 0.15454619 0.3541983 0.13988988
-0.08565516 0.04164517 0.018930687 -0.09335813 -0.26476443 0.35423988 0.09139473 0.44058734
-0.06456126 -0.0894714 0.25021437 -0.1838595 -0.05843973 0.12592016 0.22017646 0.036724523
-0.36409023 0.20313065 0.10405387 0.0059388303 -0.3032844 0.30298465 0.047420025 -0.26735064
0.17098567 0.26745376 -0.13740368 0.2249711 0.17590868 0.006134146 -0.035592075 -0.053124618
00000000: 583e 7a3e c585 7b3e 148c b3be 276d 783e
00000010: fba8 7a3d a083 753d 4d16 543e 26a5 a53c
00000020: 790b b83e ad21 b63e f866 b83e e157 563d
00000030: a7b0 8c3e ff44 583e 2ad8 da3e 8fed b7be
00000040: efbd 1abe 226f 93be 47fd febd 59df c13d
00000050: a4b2 863e 630a e93d 8a5d 8cbd 5b58 213c
00000060: 31aa fabd f786 bfbe de4f dfbe 32b6 60be
00000070: 0e8c 7c3e 7728 98bd 1a5e 02bd 1838 4bbc
00000080: cc57 2bbe b994 213d eb33 61be a928 4b3e
00000090: d6e1 353e 092a 093d f7f3 113d 959a b8bb
000000a0: b9b2 a93e 3eed 2d3e 80b4 61be 4e20 05bf
000000b0: f1cc 173f 6733 05be 4465 30bd 6165 3d3e
000000c0: af59 4b3e 5dd5 70be f009 48be 602a 2f3e
000000d0: f7a0 9abe 13eb e93c cc19 09bd 4b8d c1bd
000000e0: dc57 7fbc 1b14 42bd 4879 133d 442f f3be
000000f0: b5c2 4d3e bce5 b1bc c052 86be cd4b 7f3e
00000100: bfa2 333e a46d 8c3e 656f b3be be51 443e
00000110: 2100 3fbe 5d04 473d 4323 be3d 2d73 483e
00000120: dbe7 bd3e adc4 88bd 894a cc3d 632d da3d
00000130: 7a94 c1bd 6c4a 26be 8ae5 4d3e 1287 7b3e
00000140: 38f1 b63e 234a c3bc 5667 453e 41ce 133d
00000150: 938e 8dbe e6dc 98be e34b c73d 6573 de3e
00000160: 6dfc 15bd 9440 d4bd 0651 003e 4ff2 61bc
00000170: 32d9 acbd 1f52 48be feef e0bd 1d6c 783e
00000180: 6538 e7be cf86 d33d fcd9 d93c 2bfe 973e
00000190: 675f 07bd 69db 1d3e eeda a93e c7d0 fabd
000001a0: b7a9 273e 632c e73d 9ab0 2abe b2fb f7bd
000001b0: 392f f13c 79d5 28be 4c89 e33d 3b44 cebd
000001c0: da39 7ebe 0821 39be 0cab 0b3f 3007 bcbc
000001d0: 81dd bdbe 2ec1 273d c591 2b3e c191 8b3e
000001e0: 9308 c3be b5bd b5bb fe83 963d eeb6 49bd
000001f0: 394c 2abe f788 19bf 66c7 513e 13ac 2d3d
00000200: 84fd a33e 2797 68be 6de9 473e 747d 04be
00000210: 90d2 993b c843 0cbc 741f 373e a36a 923d
00000220: 6b28 8cbe ce4f 4abe 9c66 6d3d 4dc4 31be
00000230: 0007 503e bf6c d93e 4b63 aa3e 893b 4dbd
00000240: 86ec ac3e f252 203e e848 dbbe 6482 613e
00000250: 828f 33bd b53b 25bd 4528 c83d 584a 223e
00000260: cc48 9e3e 9b4e 9ebe 67f2 273d 5a67 46be
00000270: 41a0 4dbe 0eb1 acbd 0c34 47be 10de 8f3e
00000280: 56b0 c73d 4a99 6fbe 2810 633c 87d8 b33d
00000290: 9f10 94be 710b ee3d 1df9 7cbe 7b76 e5bd
000002a0: 96de 97be 1976 02be 96f8 b13d 6304 0f3e
000002b0: bd55 e03d 22d2 07be 4e4f be3d 4b2e f83e
000002c0: 3353 2e3e de18 623e deaf 263e 8d23 43be
000002d0: f9f4 c03d 0e23 603d 73d2 f33e 9fb2 a13d
000002e0: 7fdd 0c3f ce4a a83e cd77 2a3e 08a8 893e
000002f0: 11cf cd3e 6f2e 2b3e 05ba c03d f19c 91be
00000300: 0cda 6a3c 9b85 843e 4643 81bd 2e57 85bc
00000310: 24a1 af3e 591e fabc 19bf 3ebe 0ebb b23d
00000320: 736a febc ca52 203e 1436 1abe 1744 293e
00000330: f845 5dbe 5bcd 3ebe 4b53 73be fcd2 6a3d
00000340: 332e c33e 7976 0ebf 61b6 e0bc bd9e 31be
00000350: e731 f8be c385 59be e702 06bd a719 123e
00000360: 90b8 b7be 8dab 123e bf27 2e3e e7f9 77be
00000370: 1745 cbbe 5b41 1e3e 7b59 b53e 4b3f 0f3e
00000380: f96b afbd 2094 2a3d 8714 9b3c 8c32 bfbd
00000390: 348f 87be ee5e b53e 292d bb3d aa94 e13e
000003a0: b238 84bd c83c b7bd 191c 803e aa45 3cbe
000003b0: 805e 6fbd 37f1 003e f075 613e 746c 163d
000003c0: 096a babe 7b01 503e 321a d53d 859a c23b
000003d0: 1848 9bbe ce20 9b3e 803b 423d 2fe2 88be
000003e0: de16 2f3e b3ef 883e 8db3 0cbe d35e 663e
000003f0: 6821 343e f200 c93b ffc8 11bd 3399 59bd

bias f4 [20]
0.022917517 0.13443446 0.11486852 -0.0440214 -0.12643479 -0.07673443 -0.10032566 -0.2030879
-0.17343938 -0.35805684 0.17873839 -0.11308719 -0.036081407 0.04924837 -0.35355675 -0.23349024
-0.016156256 -0.35857135 0.03013636 -0.17374262
00000000: 84bd bb3c 30a9 093e 3040 eb3d c94f 34bd
00000010: 1f78 01be f126 9dbd 8a77 cdbd 46f6 4fbe
00000020: 189a 31be 3a53 b7be 3207 373e 429a e7bd
00000030: 19ca 13bd a9b8 493d 6405 b5be 1118 6fbe
00000040: 205a 84bc aa96 b7be 87e0 f63c 96e9 31be

weight f4 [20, 20]
0.30929774 -0.30180854 0.07681481 0.22308181 -0.16773976 -0.17761223 0.097873494 0.39977014
-0.64370763 0.18082139 0.14433764 0.31556845 0.20141156 0.22275415 0.32553652 -0.1524292
0.39491385 -0.09491787 0.23735408 -0.2660962 0.29957893 0.0062443465 0.055875402 0.012927515
0.087790586 0.3144236 0.21838999 -0.1942584 -0.122965775 0.28958547 -0.23335488 0.376444
-0.03559675 0.0021987297 -0.052685756 0.3284684 -0.032328192 0.45432693 0.32692254 0.04215406
-0.28469533 -0.009778484 -0.08071023 -0.2484878 0.28633493 0.068819486 0.2731786 0.025365146
0.11890942 0.21988346 -0.14064413 -0.19811037 -0.070528135 0.08682223 0.025224315 0.33199447
0.16225746 0.054569237 -0.16025229 0.065108374 0.35500374 0.022666924 -0.20625986 -0.08286625
-0.34521845 -0.3248371 -0.60129267 -0.47819793 -0.2374614 -0.3072572 0.002667152 0.030767934
-0.037277184 0.14864805 -0.14001766 0.34672317 -0.10318277 -0.113070354 0.2503139 0.4350108
0.31946126 -0.09232236 0.012477481 0.0014281479 0.18600196 -0.2566102 -0.12788974 -0.15333517
0.1610317 0.0013472904 -0.39053085 -0.32068038 -0.054030765 -0.5531961 0.46867344 0.21665794
-0.23218976 -0.2340746 0.3605496 0.22297253 -0.12978253 -0.005344241 0.019395048 -0.21616818
-0.28211808 -0.11336916 0.14000435 -0.47236913 0.059873868 -0.15909535 -0.11528119 -0.10912836
0.39971194 0.16088052 0.38525826 -0.051301442 -0.0722437 0.07941472 0.1895 -0.5929738
0.27077097 -0.071188994 -0.0041005616 0.29322648 0.055802073 -0.03772874 -0.16397318 0.2805182
-0.0013344727 0.05109543 0.22284482 0.10848555 -0.2024677 0.33937308 -0.15473308 0.29400846
0.1790206 -0.58510023 -0.310942 0.09665357 -0.11469973 0.16216265 -0.076575704 0.24532175
-0.041809674 -0.05922308 -0.20988019 0.3032612 0.3527683 0.13070892 0.1364621 -0.1222959
-0.08443679 -0.06550283 0.08230893 0.18965389 -0.16230105 0.3784405 0.052092843 0.07772359
-0.14359085 -0.111263506 -0.27172285 0.46729028 0.26209491 0.2037222 -0.01852684 0.030929789
0.25584024 0.10705761 -0.07952042 0.30140108 -0.25189117 -0.34668493 0.2559272 -0.044879697
-0.0044534723 -0.14067093 0.26278308 -0.23853739 0.4695728 -0.18945104 -0.2837891 -0.026371442
-0.27505872 0.21723111 -0.34601197 0.042454306 0.008395583 -0.087201856 0.10646035 0.16958763
-0.024025902 -0.011778922 -0.20113312 0.3627883 -0.030980917 0.09936283 0.20815781 -0.29577336
0.20266645 0.028049026 0.1444037 -0.002129997 0.051512107 0.10369607 0.0805492 -0.09420189
-0.14637752 0.19411059 -0.15399225 0.14576876 0.013362066 0.2178198 -0.36165273 0.2575517
0.079674125 -0.33829516 -0.06941653 -0.23198552 0.003947659 0.06424937 -0.13251856 -0.18541706
0.12682642 -0.241774 -0.009805901 -0.095233776 -0.3372246 0.1506676 -0.2506632 -0.057184123
0.3389014 0.32602626 -0.047402088 0.40271726 0.07455965 0.7374655 -0.07658055 0.07318721
-0.32379085 0.06972114 -0.14634581 0.015942004 0.21149792 -0.20216003 -0.066402614 0.40369236
0.0072662816 0.24301699 0.08822782 -0.06062385 -0.2762954 -0.4499859 0.17849629 -0.66470873
00000000: 465c 9e3e a686 9abe 1551 9d3d 8f6f 643e
00000010: f9c3 2bbe fbdf 35be e671 c83d acae cc3e
00000020: 06ca 24bf 3e29 393e 3fcd 133e 3092 a13e
00000030: d53e 4e3e aa19 643e b9ac a63e 6616 1cbe
00000040: 2632 ca3e 4d64 c2bd f30c 733e c33d 88be
00000050: 6962 993e 609d cc3b 9bdd 643d eecd 533c
00000060: 8dcb b33d 21fc a03e a0a1 5f3e adeb 46be
00000070: 7bd5 fbbd 8c44 943e 95f4 6ebe 45bd c03e
00000080: e6cd 11bd 9018 103b 05cd 57bd 032d a83e
00000090: 916a 04bd 8a9d e83e 6462 a73e bca9 2c3d
000000a0: 96c3 91be ef35 20bc 684b a5bd 9673 7ebe
000000b0: 7e9a 923e 3bf1 8c3d 11de 8b3e 91ca cf3c
000000c0: c886 f33d 2129 613e 0405 10be 72dd 4abe
000000d0: 0e71 90bd dacf b13d 39a3 ce3c 2efb a93e
000000e0: d226 263e fe83 5f3d 2d19 24be 8a57 853d
000000f0: 0dc3 b53e fcaf b93c c935 53be c8b5 a9bd
00000100: 79c0 b0be 0c51 a6be 51ee 19bf 5cd6 f4be
00000110: 1529 73be d150 9dbe 63cb 2e3b 090d fc3c
00000120: f6af 18bd 3237 183e ca60 0fbe b385 b13e
00000130: 7d51 d3bd 6e91 e7bd 2529 803e bcb9 de3e
00000140: 6d90 a33e 8113 bdbd 596e 4c3c b130 bb3a
00000150: 4c77 3e3e 6a62 83be 87f5 02be e503 1dbe
00000160: 7ee5 243e 9097 b03a a9f3 c7be 3830 a4be
00000170: 5d4f 5dbd 429e 0dbf f7f5 ef3e 94db 5d3e
00000180: 27c3 6dbe 40b1 6fbe f599 b83e e952 643e
00000190: b6e5 04be be1e afbb 5de2 9e3c 315b 5dbe
000001a0: c871 90be 172e e8bd 4d5d 0f3e 5eda f1be
000001b0: 4d3e 753d e4e9 22be 8b18 ecbd b17e dfbd
000001c0: 0ba7 cc3e ddbd 243e 9240 c53e 7621 52bd
000001d0: 81f4 93bd 2fa4 a23d 4a0c 423e 22cd 17bf
000001e0: 7ea2 8a3e 89cb 91bd 015e 86bb c821 963e
000001f0: b790 643d 7489 1abd 96e8 27be 15a0 8f3e
00000200: 79e9 aeba 7149 513d 6f31 643e ac2d de3d
00000210: b153 4fbe 4fc2 ad3e 5972 1ebe 4788 963e
00000220: 2d51 373e 21c9 15bf ca33 9fbe 4ff2 c53d
00000230: b1e7 eabd f70d 263e b9d3 9cbd a035 7b3e
00000240: 9f40 2bbd e693 72bd d5ea 56be 0d45 9b3e
00000250: 0c9e b43e 8fd8 053e b9bc 0b3e 4676 fabd
00000260: 32ed acbd 5926 86bd 9691 a83d a134 423e
00000270: 3f32 26be f4c2 c13e 4e5f 553d 8c2d 9f3d
00000280: 7b09 13be 1fde e3bd 421f 8bbe ac40 ef3e
00000290: 4e31 863e 8d9c 503e 99c5 97bc 7860 fd3c
000002a0: 7efd 823e 0541 db3d 9adb a2bd 3e51 9a3e
000002b0: e1f7 80be b080 b1be e408 833e c6d3 37bd
000002c0: 6fee 91bb 0a0c 10be 818b 863e 2543 74be
000002d0: d96b f03e 74ff 41be ce4c 91be ec08 d8bc
000002e0: 7fd4 8cbe d571 5e3e 7b28 b1be 91e4 2d3d
000002f0: a18d 093c e396 b2bd e207 da3d 61a8 2d3e
00000300: f8d1 c4bc 61fc 40bc d7f5 4dbe 63bf b93e
00000310: b1cb fdbc bd7e cb3d 5227 553e 9b6f 97be
00000320: cb87 4f3e 12c7 e53c 90de 133e 6b97 0bbb
00000330: 5cfe 523d 9b5e d43d fbf6 a43d ecec c0bd
00000340: fde3 15be edc4 463e 25b0 1dbe 6844 153e
00000350: 91ec 5a3c 270c 5f3e 8c2a b9be d1dd 833e
00000360: 302c a33d 0635 adbe 412a 8ebd 9d8d 6dbe
00000370: 5d5b 813b 2c95 833d f2b2 07be f8dd 3dbe
00000380: c9de 013e 9a93 77be eea8 20bc ed09 c3bd
00000390: b4a8 acbe 9b48 1a3e ed56 80be e639 6abd
000003a0: 7c84 ad3e eaec a63e b128 42bd f530 ce3e
000003b0: bbb2 983d 8aca 3c3f 43d6 9cbd 2de3 953d
000003c0: eac7 a5be f5c9 8e3d addb 15be ce98 823c
000003d0: e992 583e 0a03 4fbe 18fe 87bd c4b0 ce3e
000003e0: fd19 ee3b 72d9 783e cab0 b43d b750 78bd
000003f0: 9776 8dbe 8d64 e6be bbc7 363e 5a2a 2abf

bias f4 [20]
-0.020996395 -0.080008246 -0.23677622 0.015935523 0.01797576 0.18824391 0.11079623 -0.07092625
-0.13637364 -0.19946378 0.06437131 -0.15586475 0.016446467 0.017208368 -0.0512506 0.22201024
0.23276648 -0.15565683 -0.08047311 -0.058370918
00000000: a200 acbc 5ddb a3bd 7775 72be 378b 823c
00000010: e741 933c 03c3 403e 22e9 e23d c841 91bd
00000020: 88a5 0bbe 3c40 4cbe 1bd5 833d 029b 1fbe
00000030: beba 863c 90f8 8c3c 26ec 51bd a756 633e
00000040: 565a 6e3e 8164 1fbe 16cf a4bd 5816 6fbd

weight f4 [20, 20]
-0.00177512 0.18015337 0.30943215 -0.2457129 0.5513102 -0.07324114 0.33079466 -0.22692865
0.2843346 0.04932916 0.15963893 0.01582908 0.1677821 0.18452977 -0.15892173 0.18166989
0.19874991 0.46254852 0.29053628 -0.04706548 -0.07968286 -0.031013148 -0.15214296 -0.110612996
0.13763352 0.33999437 0.30865785 -0.0002998464 -0.05607681 0.014577575 -0.337367 -0.2434317
-0.20561002 0.43293697 -0.29242805 -0.23062333 0.39419588 0.39918816 -0.27718502 0.22614771
-0.4583635 -0.28948393 0.2130846 -0.16564088 -0.39387563 0.19869284 -0.5564569 0.23913854
0.26657864 0.49879694 -0.19556108 -0.088248275 0.034470584 -0.06654701 0.067952864 -0.1727163
-0.28048873 0.48331103 0.043395545 0.3636021 -0.13992152 -0.068683855 -0.12506899 0.11309811
-0.05751081 -0.16422158 0.16079892 0.18358691 0.06881962 0.13616027 0.24847738 -0.5525663
0.09466786 0.25814664 0.0065109227 0.021036245 -0.17276399 0.64036965 0.04051472 -0.4723622
0.31191468 -0.22705641 -0.29150975 -0.09540786 0.12589902 0.058818977 -0.10071697 -0.013923051
0.014102663 -0.32344863 0.15635076 -0.0424853 0.10029022 0.17230695 -0.26372752 0.009624158
-0.17599492 -0.28524697 -0.52776664 -0.022653757 0.13222153 -0.08167336 0.0029238155 0.3332446
0.2565439 0.058692235 -0.19156961 -0.03596507 0.20183852 0.1663265 -0.1835512 -0.296166
-0.21899536 0.286837 -0.22511332 -0.06769056 -0.28433955 -0.17177862 0.4092047 0.15014572
-0.18186907 0.40787244 0.05152874 -0.25982857 -0.39430362 0.25196016 -0.0065918816 -0.09488128
-0.2009285 0.1744372 -0.19146723 -0.45526987 0.3370135 -0.3569764 0.13267119 0.12924111
0.58138865 0.16298807 -0.106883936 -0.27933282 -0.31760362 -0.10223857 -0.413145 0.17483161
-0.6377269 0.39773628 0.30553997 0.20967856 -0.071196765 -0.15590884 0.4116787 -0.2969844
0.31035167 -0.34955114 -0.23811565 0.10161209 -0.027202096 -0.20687799 -0.44767222 -0.17836832
0.24969022 -0.0527315 -0.2083367 -0.318538 0.15369244 0.10351579 -0.16943341 -0.13621481
0.0083976975 -0.14081566 0.07190017 -0.16761135 0.21213728 0.18499674 0.18566056 -0.09057395
-0.120602295 -0.17566283 0.15849182 -0.0683404 0.3223586 0.06038724 0.016087336 -0.14753078
-0.0726152 -0.022236824 -0.21515854 0.13245045 -0.07285669 0.3193382 -0.21250746 -0.10582111
-0.36353463 0.20195565 0.40059802 -0.2632861 -0.19572704 -0.5111677 -0.12942238 0.029865338
0.04437662 0.23858424 0.14343983 0.32790163 -0.07310757 0.18091433 -0.026656771 0.009060827
0.3560976 0.062735505 -0.25880232 -0.08431049 0.222418 0.3275513 0.20671377 -0.3960034
-0.23765129 -0.5437426 -0.014823638 -0.016708715 -0.0041201767 0.10408178 -0.015903221 -0.2939387
-0.19157559 0.117149405 0.0802299 -0.14313951 -0.22411773 -0.3041069 -0.18233499 -0.22710614
-0.07738325 -0.23560469 -0.076730154 0.11218715 0.22165297 0.40681478 -0.3964146 0.18771975
0.1433408 -0.01034227 0.16047513 -0.051903896 -0.19904158 -0.44677454 0.16745459 -0.2478437
0.22736357 -0.065696135 -0.097007334 -0.12759227 -0.09657924 -0.1031484 0.18964536 0.28721943
00000000: 25ab e8ba 207a 383e e46d 9e3e 2a9c 7bbe
00000010: aa22 0d3f 73ff 95bd eb5d a93e fc5f 68be
00000020: 4e94 913e 600d 4a3d 6378 233e fdab 813c
00000030: 12cf 2b3e 5ff5 3c3e 61bc 22be ac07 3a3e
00000040: 1985 4b3e 29d3 ec3e 2cc1 943e bcc7 40bd
00000050: c430 a3bd 490f febc 5dcb 1bbe 1189 e2bd
00000060: cdef 0c3e be13 ae3e 6708 9e3e b434 9db9
00000070: ccb0 65bd c8d6 6e3c 5ebb acbe 2946 79be
00000080: 6f8b 52be eaa9 dd3e 21b9 95be 8628 6cbe
00000090: 0bd4 c93e 6462 cc3e 32eb 8dbe 4493 673e
000000a0: 9fae eabe 3d37 94be d932 5a3e c39d 29be
000000b0: 11aa c9be 2376 4b3e f673 0ebf bce0 743e
000000c0: ff7c 883e 5062 ff3e 2a41 48be 83bb b4bd
000000d0: 0731 0d3d cc49 88bd df2a 8b3d 8bdc 30be
000000e0: 389c 8fbe 8b74 f73e 87bf 313d 0e2a ba3e
000000f0: 9647 0fbe 1faa 8cbd 1612 00be fb9f e73d
00000100: 7590 6bbd b429 28be 79a8 243e 35fe 3b3e
00000110: 4df1 8c3d 996d 0b3e db70 7e3e fc74 0dbf
00000120: 39e1 c13d cc2b 843e 9459 d53b 3454 ac3c
00000130: 0be9 30be 44ef 233f c3f2 253d 75d9 f1be
00000140: 48b3 9f3e 7a81 68be c440 95be 3265 c3bd
00000150: aceb 003e 2bec 703d b344 cebd 821d 64bc
00000160: db0e 673c 0f9b a5be 6a1a 203e 1105 2ebd
00000170: f564 cd3d 3c71 303e 4b07 87be a5ae 1d3c
00000180: 0338 34be e40b 92be b71b 07bf 5f94 b9bc
00000190: 1565 073e 5d44 a7bd 7c9d 3f3b 099f aa3e
000001a0: b959 833e 4567 703d d32a 44be 1c50 13bd
000001b0: c2ae 4e3e 7e51 2a3e d9f4 3bbe 12a3 97be
000001c0: 5240 60be 4ddc 923e 1b84 66be 59a1 8abd
000001d0: f494 91be bce6 2fbe 4783 d13e cdbf 193e
000001e0: e33b 3abe a8d4 d03e cd0f 533d 4008 85be
000001f0: 2ae2 c9be ec00 813e b600 d8bb 1e51 c2bd
00000200: 33c0 4dbe aa9f 323e fc0f 44be 2219 e9be
00000210: 098d ac3e 9cc5 b6be f5da 073e c857 043e
00000220: e3d5 143f 58e6 263e f7e5 dabd b604 8fbe
00000230: f19c a2be 7562 d1bd be87 d3be 0f07 333e
00000240: 1242 23bf 17a4 cb3e bc6f 9c3e fab5 563e
00000250: 9ccf 91bd 91a6 1fbe 8dc7 d23e 570e 98be
00000260: 6ae6 9e3e 5ef8 b2be 97d4 73be 001a d03d
00000270: eed6 debc d3d7 53be 4b35 e5be 2fa6 36be
00000280: cbae 7f3e fcfc 57bd 3756 55be 6a17 a3be
00000290: 8d61 1d3e 1600 d43d f47f 2dbe e57b 0bbe
000002a0: 7f96 093c fb31 10be 6540 933d 4fa2 2bbe
000002b0: 843a 593e c96f 3d3e cd1d 3e3e d67e b9bd
000002c0: 56fe f6bd f5e0 33be ae4b 223e 0df6 8bbd
000002d0: 300c a53e 9c58 773d 97c9 833c 4f12 17be
000002e0: 47b7 94bd 002a b6bc 8552 5cbe 17a1 073e
000002f0: e335 95bd 4c80 a33e 8e9b 59be bdb8 d8bd
00000300: 3621 babe 76cd 4e3e 2f1b cd3e 70cd 86be
00000310: ab6c 48be e3db 02bf 4d87 04be 27a8 f43c
00000320: 42c4 353d 6d4f 743e e4e1 123e b9e2 a73e
00000330: 6cb9 95bd 9b41 393e 4d5f dabc dd73 143c
00000340: 6d52 b63e 797b 803d bd81 84be faaa acbd
00000350: 8bc1 633e ceb4 a73e c6ac 533e f5c0 cabe
00000360: dc5a 73be b732 0bbf d8de 72bc b7e0 88bc
00000370: 8c02 87bb d428 d53d 7947 82bc 227f 96be
00000380: 642c 44be 07ec ef3d 934f a43d 2a93 12be
00000390: 1e7f 65be e6b3 9bbe 06b6 3abe 838e 68be
000003a0: 1c7b 9ebd 5b42 71be b324 9dbd 60c2 e53d
000003b0: fff8 623e 074a d03e dbf6 cabe 9b39 403e
000003c0: eec7 123e a072 29bc 9853 243e 2e99 54bd
000003d0: 8ed1 4bbe a2bf e4be 3779 2b3e bdca 7dbe
000003e0: ffd1 683e b28b 86bd c8ab c6bd 8ca7 02be
000003f0: 56cb c5bd 783f d3bd 6532 423e 6d0e 933e

bias f4 [20]
-0.04799349 -0.009896481 -0.19038516 0.053813223 0.14922366 0.0341775 -0.009903831 0.11891729
0.11018485 0.0033032785 -0.0066490746 0.21924984 -0.021388143 0.093943305 0.03078383 0.11114962
-0.10397018 0.092031956 0.06565745 -0.108558275
00000000: d294 44bd da24 22bc 54f4 42be 416b 5c3d
00000010: 16ce 183e b5fd 0b3d ae43 22bc e88a f33d
00000020: 98a8 e13d d17b 583b 7be0 d9bb 0883 603e
00000030: 3036 afbc 5965 c03d 5f2e fc3c 69a2 e33d
00000040: 51ee d4bd 407b bc3d 6a77 863d cd53 debd

weight f4 [20, 20]
0.3158843 0.1422852 0.096659504 -0.061150257 0.09719902 -0.02633405 0.08599772 -0.12746741
0.3247699 0.0387798 -0.18363504 0.24368669 0.23349087 -0.26570714 0.1705415 -0.2669538
0.3539903 -0.1296428 -0.23491795 -0.028072728 0.019725434 -0.23693296 0.16203587 -0.12887855
-0.14195748 -0.06854745 -0.02832372 -0.27259415 0.3312282 -0.17971662 -0.014273282 -0.19772056
-0.14949413 0.047158513 -0.32306358 -0.3411168 -0.08797867 0.34008968 0.13368876 -0.020332016
0.3112817 0.13237473 -0.21084759 0.084423214 -0.46597606 -0.18926689 -0.04325197 0.03241425
-0.07299944 0.04501704 -0.0024224655 -0.10718563 0.05710936 0.40737692 -0.019093674 -0.0020928322
0.066524304 -0.29322895 -0.35111856 0.0015913845 0.011088193 0.3226609 0.20411709 0.056147356
0.03603516 -0.28229684 0.05851904 0.042433217 -0.14921643 -0.21344802 -0.23983444 -0.030936327
0.3923356 0.19696566 0.15005642 0.20161219 -0.055231523 0.26622966 -0.04543538 0.33521006
-0.27230674 0.047443397 0.52342355 0.1684735 0.03517719 -0.13297294 0.083737865 -0.18209602
0.128292 -0.19504747 -0.19494177 0.08629557 -0.29246256 -0.13950364 -0.3763308 0.103083625
-0.15970232 0.1609876 -0.14962322 -0.08915208 -0.4388186 0.026927786 0.07998392 -0.12868112
0.27492207 0.114950076 -0.4537547 -0.030578967 0.07048694 0.08892988 -0.14369948 -0.47741377
-0.18514962 0.1945084 -0.00973316 0.56932724 -0.12238421 0.0025913618 -0.14412485 -0.3957993
0.21032877 0.029402593 0.05714941 -0.016016763 -0.36556 0.1562702 -0.1269859 0.15576856
0.064218014 0.19310349 -0.22938368 -0.036845084 -0.01810869 0.08147324 0.15559483 -0.0557649
0.07765928 0.24670407 -0.005977328 0.108962305 -0.18051806 0.07841229 0.310678 0.039423507
0.08339829 -0.24001278 0.22573791 -0.009663301 -0.045850784 0.046409756 -0.08490715 -0.0030987358
0.21122925 -0.105739355 -0.18643446 -0.2110028 -0.28183812 0.02635208 -0.07134542 0.19357549
-0.260361 -0.18607 -0.0320087 0.18881635 -0.07165983 -0.311118 -0.024549568 -0.32979515
-0.12814325 0.24450526 0.1776574 -0.2052402 -0.12092721 0.26854154 0.024668882 0.012689563
-0.16150868 -0.2061136 0.01345791 0.0577463 -0.01551314 0.18166646 0.33457837 -0.15953517
-0.20877104 -0.15771562 -0.048477918 0.24790646 -0.10893438 -0.13948469 -0.02523509 0.019132484
-0.37463546 0.36371934 -0.16114797 -0.16068068 -0.047442976 0.2774938 -0.001468412 0.15511464
-0.10072313 -0.23893505 0.30347615 0.28072086 -0.13433945 0.34460887 -0.1524973 -0.24060737
0.15108101 -0.33688375 0.26922527 -0.00773493 -0.33299926 -0.103211924 -0.3590976 0.13663614
0.20975776 -0.06819129 0.33783883 -0.28696367 -0.37572682 -0.016756445 -0.040580723 0.19977018
-0.3845101 0.04092151 -0.13243777 0.48253566 -0.19177245 -0.20741047 -0.067664616 0.14188361
0.28109336 0.10425482 0.06220026 -0.0713276 0.12295199 -0.14813924 -0.08816354 -0.013899835
-0.22340721 -0.035531506 -0.03765188 -0.09927307 -0.26499414 0.30210584 -0.13160281 -0.18306153
0.010094858 -0.042117022 0.05285584 -0.015414932 -0.22900027 0.25584787 -0.3675454 0.08662694
00000000: 96bb a13e 36b3 113e 6bf5 c53d b178 7abd
00000010: 4810 c73d 81ba d7bc 931f b03d d186 02be
00000020: 3e48 a63e 91d7 1e3d d30a 3cbe 0189 793e
00000030: 3b18 6f3e c40a 88be 6ea2 2e3e 2bae 88be
00000040: 373e b53e 15c1 04be 558e 70be c7f8 e5bc
00000050: 3c97 a13c 8e9e 72be bbec 253e bdf8 03be
00000060: 4d5d 11be 9b62 8cbd 2507 e8bc 7691 8bbe
00000070: be96 a93e a207 38be 7cda 69bc 4277 4abe
00000080: fd14 19be 4929 413d 9768 a5be dca6 aebe
00000090: 292e b4bd 3c20 ae3e b5e5 083e 548f a6bc
000000a0: 5160 9f3e 3e8d 073e 6ee8 57be 14e6 ac3d
000000b0: 6a94 eebe 2ecf 41be fa28 31bd cec4 043d
000000c0: bb80 95bd ca63 383d 3ac2 1ebb 2484 dbbd
000000d0: 81eb 693d b593 d03e 566a 9cbc e627 09bb
000000e0: e53d 883d 1b22 96be d0c5 b3be 0196 d03a
000000f0: 41ab 353c cf33 a53e 1204 513e c5fa 653d
00000100: 9b99 133d 3689 90be a9b1 6f3d 74ce 2d3d
00000110: 31cc 18be 1e92 5abe 2997 75be 2e6e fdbc
00000120: 36e0 c83e 5eb1 493e 64a8 193e 6d73 4e3e
00000130: 733a 62bd 414f 883e 731a 3abd a7a0 ab3e
00000140: ca6b 8bbe 0254 423d 16ff 053f 5184 2c3e
00000150: f515 103d 0f2a 08be c27e ab3d 6177 3abe
00000160: fa5e 033e 86ba 47be d19e 47be bbbb b03d
00000170: a7bd 95be 0bda 0ebe 6eae c0be 821d d33d
00000180: 0189 23be efd9 243e d436 19be 5e95 b6bd
00000190: d5ac e0be a997 dc3c 9cce a33d fcc4 03be
000001a0: 96c2 8c3e f26a eb3d 8952 e8be be80 fabc
000001b0: 755b 903d de20 b63d f525 13be 946f f4be
000001c0: dd97 3dbe 362d 473e d577 1fbc 6ebf 113f
000001d0: 93a4 fabd d6d3 293b 7795 13be 35a6 cabe
000001e0: 6d60 573e b5dd f03c 8015 6a3d 9635 83bc
000001f0: ae2a bbbe 4c05 203e 9708 02be cb81 1f3e
00000200: bc84 833d ecbc 453e 8ee3 6abe dfea 16bd
00000210: ad58 94bc 71db a63d 4054 1f3e bc69 64bd
00000220: d40b 9f3d fe9f 7c3e 76dd c3bb a127 df3d
00000230: bad9 38be 9f96 a03d 3011 9f3e 8b7a 213d
00000240: b9cc aa3d e9c5 75be d727 673e d252 1ebc
00000250: 08ce 3bbd 2818 3e3d cde3 adbd 2914 4bbb
00000260: 7b4c 583e e08d d8bd ade8 3ebe 1e11 58be
00000270: 164d 90be 51e0 d73c 8c1d 92bd a738 463e
00000280: 094e 85be 2289 3ebe 8e1b 03bd 1359 413e
00000290: 64c2 92bd dc4a 9fbe 2d1c c9bc e9da a8be
000002a0: fc37 03be 965f 7a3e d2eb 353e 7d2a 52be
000002b0: afa8 f7bd 477e 893e 6516 ca3c e3e7 4f3c
000002c0: 8862 25be 720f 53be 917e 5c3c 6287 6c3d
000002d0: d32a 7ebc c606 3a3e db4d ab3e 305d 23be
000002e0: 13c8 55be 3480 21be c890 46bd 31db 7d3e
000002f0: fd18 dfbd 13d5 0ebe d2b9 cebc babb 9c3c
00000300: 38d0 bfbe 6c39 ba3e f903 25be 7a89 24be
00000310: 9153 42bd ab13 8e3e bb77 c0ba 5fd6 1e3e
00000320: ee47 cebd 64ab 74be 3a61 9b3e a5ba 8f3e
00000330: 4890 09be 9370 b03e 4128 1cbe c761 76be
00000340: fbb4 1a3e 077c acbe e5d7 893e 4c75 fdbb
00000350: e17e aabe c660 d3bd a4db b7be 58ea 0b3e
00000360: bdca 563e e0a7 8bbd 36f9 ac3e e7ec 92be
00000370: 445f c0be d044 89bc f937 26bd 8e90 4c3e
00000380: 82de c4be 509d 273d c49d 07be ea0e f73e
00000390: ff5f 44be 6963 54be bf93 8abd f049 113e
000003a0: 78eb 8f3e 8d83 d53d b3c5 7e3d 3414 92bd
000003b0: 41ce fb3d d0b1 17be 168f b4bd 22bc 63bc
000003c0: dcc4 64be 7c89 11bd dc38 1abd ae4f cbbd
000003d0: 50ad 87be 9ead 9a3e e3c2 06be 7b74 3bbe
000003e0: e764 253c e682 2cbd 5e7f 583d e98e 7cbc
000003f0: 0c7f 6abe 7efe 823e e92e bcbe 7769 b13d

bias f4 [20]
-0.049293566 -0.069335274 -0.035921115 -0.039823808 0.029919727 0.08346978 -0.00072571676 -0.0020185844
0.05859493 -0.09067527 0.01665063 -0.0031401566 -0.029182883 -0.077099375 -0.09095578 0.028375994
0.041734688 0.3217804 0.14479028 -0.101022765
00000000: 0de8 49bd a7ff 8dbd 0522 13bd 4a1e 23bd
00000010: 371a f53c 34f2 aa3d 073e 3eba 3a4a 04bb
00000020: 3d01 703d f5b3 b9bd e766 883c 16cb 4dbb
00000030: f110 efbc 47e6 9dbd 0647 babd c674 e83c
00000040: fef1 2a3d 67c0 a43e e743 143e 06e5 cebd

weight f4 [20, 20]
0.2734502 -0.009239071 0.03657895 0.36322647 -0.16206408 -0.16390005 0.20847964 0.049656924
-0.12470422 0.100752324 -0.07295808 0.1501129 0.12214373 0.37588552 -0.08470653 0.065377
0.11115099 0.4061532 -0.033583738 -0.59721476 0.16053446 0.1615794 -0.2065106 -0.07991807
0.0036048596 -0.0005968686 -0.07460671 0.22959271 0.11981219 0.11372744 -0.21291934 -0.1811103
0.1683199 0.19079588 -0.13101006 -0.29601437 0.26190117 -0.12757106 -0.29607978 0.0072356695
-0.4604307 0.0030855641 -0.2018373 -0.26409867 -0.3157224 0.10681882 0.022807231 -0.40347016
-0.12771249 0.07843484 -0.046895936 -0.30189702 -0.1405758 -0.30902398 0.40820724 0.37737548
0.1436903 -0.16969787 0.31031966 0.40033355 -0.3212304 0.06679558 -0.2182365 -0.2280584
-0.117841735 0.03208694 -0.19126028 -0.21787937 -0.14646913 0.26877183 0.11162238 0.16188048
0.04830766 0.082730435 0.3198999 0.28503603 -0.36409983 0.041200228 0.0719498 -0.072152324
-0.14577445 -0.2267612 -0.12066582 -0.19034995 -0.4650036 -0.0731263 -0.26963618 -0.29222795
0.11170016 -0.3257354 0.3765658 -0.03474128 -0.22682554 -0.12697412 -0.025663242 -0.11854657
-0.046422295 -0.058650665 0.03363312 -0.11068168 -0.10017929 -0.023770476 -0.47885522 0.14528978
-0.59947956 -0.27763727 0.036707833 -0.23925436 0.31041154 -0.159658 -0.07955411 0.2850693
-0.23053049 -0.20531212 -0.0015191634 0.26184914 0.25499502 -0.057454467 -0.13980143 0.46792945
-0.14952497 -0.023380402 -0.092309155 0.20252445 0.23300897 -0.09042847 0.1489469 -0.20166513
0.19284433 -0.0027026846 0.12874343 -0.05562872 -0.18926553 -0.039978985 0.2706008 -0.54635864
-0.046176773 -0.18878523 -0.038995817 -0.3273636 0.1704388 -0.06765637 -0.117027044 0.11995501
0.20665234 -0.08999066 -0.050147712 -0.16849431 0.10825422 -0.03752078 0.0900488 -0.10628266
0.09758616 -0.08106211 0.025509177 -0.07914111 -0.14086305 0.26525593 -0.3482611 0.107308656
-0.18739116 -0.27593732 0.041781917 0.23760274 0.23442468 0.16624142 0.008073532 0.3824347
0.5643603 0.14901201 -0.18187718 -0.12933889 0.031357907 -0.047011435 -0.075368516 0.16642955
0.26289773 -0.32383117 0.11982194 -0.17193371 -0.23136874 -0.30831838 -0.022847014 0.24991222
0.066875525 0.113823906 -0.021400956 -0.22864038 0.043697316 -0.120147675 0.104955144 -0.12551592
-0.22024107 -0.16556378 -0.11088459 -0.42548385 0.009454185 -0.4330607 -0.088904336 0.16975258
0.3299339 0.24602665 0.28288257 -0.015303866 -0.08354958 -0.05941428 0.27730393 -0.06852178
-0.09433475 0.25704488 0.008691323 -0.32103923 -0.27111414 0.066040605 -0.0952944 0.27201033
-0.07050605 -0.17562106 -0.0050936174 -0.20419107 0.1085505 0.24666314 0.29266316 -0.03562415
-0.1938751 0.35741478 -0.018528458 -0.2667465 0.2697852 -0.2095228 0.39857465 0.13766441
0.31807205 -0.27287444 -0.22170897 0.30099657 0.17228846 -0.4314602 0.67238325 -0.042789083
0.17794067 -0.03235256 0.32124934 -0.11286395 -0.18624154 0.11676395 -0.25127065 -0.3300491
0.13558708 0.3235204 -0.08257186 -0.2016393 0.09939936 0.14765584 0.24298719 0.17520717
00000000: aa01 8c3e 795f 17bc cfd3 153d d2f8 b93e
00000010: 20f4 25be 6ad5 27be b07b 553e 0f65 4b3d
00000020: ed64 ffbd 3c57 ce3d 0c6b 95bd 32b7 193e
00000030: 7e26 fa3d 1174 c03e 9e7a adbd 60e4 853d
00000040: 21a3 e33d 50f3 cf3e 1a8f 09bd 11e3 18bf
00000050: 2563 243e 1275 253e 8477 53be 16ac a3bd
00000060: 823f 6c3b 2c77 1cba 67cb 98bd 5a1a 6b3e
00000070: 1860 f53d efe9 e83d 8707 5abe fa74 39be
00000080: 0d5c 2c3e ff5f 433e 8027 06be 328f 97be
00000090: e917 863e fda1 02be c597 97be 3219 ed3b
000000a0: 93bd ebbe 2d37 4a3b 70ae 4ebe f137 87be
000000b0: 5ea6 a1be d3c3 da3d 3bd6 ba3c a493 cebe
000000c0: 10c7 02be 72a2 a03d f415 40bd 3f92 9abe
000000d0: 1af3 0fbe 6438 9ebe 8a00 d13e 5c37 c13e
000000e0: 8d23 133e 47c5 2dbe 38e2 9e3e 85f8 cc3e
000000f0: 5078 a4be 1fcc 883d 6479 5fbe 2488 69be
00000100: 0257 f1bd 986d 033d bcd9 43be c51b 5fbe
00000110: 01fc 15be 769c 893e 469a e43d ffc3 253e
00000120: 41de 453d 936e a93d ebc9 a33e 3ef0 913e
00000130: 4b6b babe 92c1 283d 6b5a 933d 99c4 93bd
00000140: e645 15be 1734 68be a41f f7bd 19eb 42be
00000150: f414 eebe 3ec3 95bd c10d 8abe e79e 95be
00000160: 0ec3 e43d cac6 a6be 3ccd c03e df4c 0ebd
00000170: f444 68be 8105 02be b83b d2bc 8bc8 f2bd
00000180: 4e25 3ebd ae3b 70bd e2c2 093d 14ad e2bd
00000190: cd2a cdbd 4dba c2bc 832c f5be d8c6 143e
000001a0: 7e77 19bf 7926 8ebe f45a 163d 18ff 74be
000001b0: 43ee 9e3e 637d 23be 44ed a2bd 9af4 913e
000001c0: 2f10 6cbe 573d 52be aa1e c7ba 1711 863e
000001d0: b58e 823e 6055 6bbd 1b28 0fbe 7394 ef3e
000001e0: 131d 19be 4288 bfbc 950c bdbd 9262 4f3e
000001f0: e799 6e3e 9032 b9bd 8985 183e 4e81 4ebe
00000200: fc78 453e 861f 31bb 51d5 033e f1da 63bd
00000210: d3ce 41be 01c1 23bd 308c 8a3e 29de 0bbf
00000220: db23 3dbd ea50 41be 14ba 1fbd 349c a7be
00000230: 8287 2e3e 6c8f 8abd e0ab efbd f9aa f53d
00000240: ac9c 533e 064d b8bd b067 4dbd c689 2cbe
00000250: 63b4 dd3d 64af 19bd 816b b83d b9aa d9bd
00000260: 41db c73d e403 a6bd 9ff8 d03c bc14 a2bd
00000270: 673e 10be a0cf 873e 474f b2be a4c4 db3d
00000280: 78e3 3fbe a847 8dbe 8423 2b3d 224e 733e
00000290: 060d 703e 313b 2a3e d946 043c 7bce c33e
000002a0: eb79 103f 9b96 183e 033e 3abe 6a71 04be
000002b0: 2671 003d 108f 40bd cf5a 9abd 826c 2a3e
000002c0: 889a 863e 33cd a5be 3565 f53d 640f 30be
000002d0: edeb 6cbe e8db 9dbe a929 bbbc fde8 7f3e
000002e0: 09f6 883d 821c e93d 0f51 afbc b420 6abe
000002f0: f5fb 323d fc0f f6bd b9f2 d63d 3f87 00be
00000300: e086 61be 8d89 29be 7617 e3bd 05d9 d9be
00000310: bae5 1a3c 22ba ddbe 7a13 b6bd 9fd3 2d3e
00000320: 19ed a83e 69ee 7b3e fcd5 903e 11bd 7abc
00000330: 0b1c abbd 635c 73bd c8fa 8d3e 2655 8cbd
00000340: 9432 c1bd 639b 833e 0d66 0e3c 415f a4be
00000350: 79cf 8abe 4c40 873d b629 c3bd f044 8b3e
00000360: 7a65 90bd 02d6 33be 5ce8 a6bb 7717 51be
00000370: b94f de3d 4395 7c3e f2d7 953e a1ea 11bd
00000380: 3287 46be 12ff b63e fec8 97bc ff92 88be
00000390: 4921 8a3e 258d 56be fa11 cc3e e6f7 0c3e
000003a0: 57da a23e 33b6 8bbe ad07 63be 391c 9a3e
000003b0: 636c 303e 5ae8 dcbe 4f21 2c3f 9b43 2fbd
000003c0: 1436 363e 1e84 04bd cb7a a43e 3725 e7bd
000003d0: 1ab6 3ebe f021 ef3d 8ca6 80be 32fc a8be
000003e0: 57d7 0a3e 77a4 a53e 6f1b a9bd 887a 4ebe
000003f0: e491 cb3d 1833 173e a2d1 783e 8269 333e

bias f4 [20]
-0.01610014 0.0032858395 0.10934633 -0.009790248 0.024369963 -0.10767137 0.05515768 0.020542437
0.12929933 0.03564838 -0.07027487 0.047851663 -0.0993668 0.0026985265 0.07855099 -0.08794786
-0.05503298 0.037666634 0.094728656 -0.08822106
00000000: 71e4 83bc 3d57 573b f8f0 df3d 4767 20bc
00000010: 84a3 c73c cf82 dcbd 05ed 613d 9d48 a83c
00000020: 0b67 043e 0904 123d 45ec 8fbd 1b00 443d
00000030: d280 cbbd c3d9 303b 57df a03d 021e b4bd
00000040: 436a 61bd 5448 1a3d 1901 c23d 3ead b4bd

weight f4 [20, 20]
0.002785314 0.09384607 -0.45213345 -0.12814926 -0.06613859 -0.11211862 0.3232243 -0.07828941
0.29098094 0.25909218 0.13556969 -0.18101573 0.0043563386 0.00016139542 -0.32557872 0.1990501
-0.39656293 0.43659586 -0.13006212 -0.05110638 0.17197146 0.51408666 0.12282126 0.16909277
-0.27097544 0.08240994 -0.2715762 -0.22363327 0.26715478 0.096697524 0.18705355 -0.19191323
-0.21725416 -0.104664296 -0.069379695 0.15810308 0.36727875 0.07341226 0.09900605 0.020951174
-0.4145536 -0.095003754 0.5275777 0.18899085 0.037369937 0.05258766 -0.16930671 0.17389941
0.14830416 0.0846235 -2.5442565e-05 0.21140416 -0.383142 0.07163902 0.4122062 0.5117001
0.10128742 -0.023044268 -0.28427833 0.09233926 0.09566175 0.09017399 0.3202151 -0.34406883
-0.062170178 -0.1971951 -0.37638527 -0.052038703 0.012336865 0.2612104 -0.22298355 0.3272431
-0.021127868 0.13809916 0.15208952 0.09711934 0.33841985 -0.119558156 -0.16702773 -0.426214
0.21777782 -0.016913032 0.14795293 0.1793399 0.78674257 -0.004496947 0.30513385 0.17546487
0.10428088 0.11273551 -0.2681849 0.09452331 -0.25576252 0.12240259 0.111418486 -0.53814024
-0.26086262 0.094695024 0.26198736 0.31138486 0.20452978 -0.19737466 -0.24185295 -0.22215384
-0.3841376 0.19698946 0.29844797 0.61468464 -0.27073246 -0.24828687 0.33503875 0.14308499
-0.40008155 0.29878268 -0.056854345 0.102021016 -0.13699181 -0.05597963 -0.00484581 0.29027084
-0.34357524 0.14244293 -0.20340818 -0.18517303 0.00875783 0.22260015 -0.1383607 -0.13367473
-0.061635725 -0.48741224 0.13964057 -0.23385027 -0.012782687 -0.21667364 -0.16267459 -0.30836737
-0.31238577 0.015671644 0.31348273 -0.034390617 0.4549801 -0.3361687 -0.012403255 0.17819643
-0.2575081 0.08188018 0.0683576 -0.15114464 -0.17964123 -0.12555242 -0.015705755 -0.24521327
-0.110403605 0.23019217 -0.068882614 0.13146096 0.054064497 0.17543982 -0.11952312 -0.10675261
-0.066929184 -0.059421103 -0.09546588 0.034599457 -0.08192107 -0.07499438 0.24039888 -0.042711828
0.07067877 0.1920368 -0.068192 0.052369706 -0.04430066 0.2064043 0.00783602 -0.4721857
-0.18448643 0.071087554 -0.07853354 -0.29369438 0.25591728 0.3549382 -0.3364386 -0.3860388
0.110477366 0.15593591 0.22615609 0.30347684 -0.16160789 -0.17120777 -0.21517181 -0.027855717
0.1358487 -0.065827385 0.17322007 0.2720881 0.100962676 0.07510711 0.12496531 -0.1308134
0.1589237 -0.29928115 -0.23635456 -0.13191774 0.23121834 -0.29282552 -0.025217544 0.13275182
0.16115104 0.03909741 -0.14649542 -0.41985697 0.103813976 -0.20786986 0.17796844 -0.031378783
-0.028294815 -0.18471375 0.47581103 0.12229254 0.14077207 -0.12443415 0.22537786 -0.11719837
0.13915393 -0.1070046 -0.08365131 -0.039515164 0.16252244 0.06412992 0.30679092 -0.07133805
0.050511308 -0.17731646 -0.12503313 -0.2875808 -0.21184762 0.06483906 0.30535638 0.135736
-0.34817144 0.072292425 0.34190762 0.10711572 0.19251603 0.2566966 0.107980594 0.009771002
-0.43054458 -0.44700688 -0.02207505 0.043596357 0.22931345 -0.22512433 0.07981947 0.11429167
00000000: d189 363b 5e32 c03d 097e e7be 8f39 03be
00000010: ab73 87bd 729e e5bd a87d a53e 3356 a0bd
00000020: 74fb 943e bba7 843e c8d2 0a3e 305c 39be
00000030: 9ebf 8e3b 413c 2939 41b2 a6be cad3 4b3e
00000040: 4c0a cbbe 7e89 df3e 012f 05be ec54 51bd
00000050: 4919 303e 2f9b 033f b689 fb3d a826 2d3e
00000060: 4bbd 8abe 8bc6 a83d 090c 8bbe 1f00 65be
00000070: 83c8 883e 5a09 c63d f78a 3f3e e784 44be
00000080: e077 5ebe 3c5a d6bd f116 8ebd c6e5 213e
00000090: f60b bc3e 2b59 963d afc3 ca3d cca1 ab3c
000000a0: 5f40 d4be 5491 c2bd 550f 073f d186 413e
000000b0: 3811 193d 2866 573d bd5e 2dbe b012 323e
000000c0: 0cdd 173e 164f ad3d 7e6d d5b7 557a 583e
000000d0: 302b c4be 7bb7 923d b10c d33e c7fe 023f
000000e0: c76f cf3d 55c7 bcbc ee8c 91be 5e1c bd3d
000000f0: 4fea c33d 24ad b83d 3cf3 a33e ca29 b0be
00000100: 28a6 7ebd 83ed 49be 92b5 c0be 8926 55bd
00000110: 9020 4a3c 5fbd 853e cd55 64be 688c a73e
00000120: 5a14 adbc de69 0d3e 5bbd 1b3e 81e6 c63d
00000130: 5e45 ad3e e8da f4bd 5109 2bbe b938 dabe
00000140: 2601 5f3e 338d 8abc f980 173e e1a4 373e
00000150: f667 493f 205b 93bb 813a 9c3e 10ad 333e
00000160: 3791 d53d e0e1 e63d 884f 89be 7095 c13d
00000170: 4ef3 82be 36ae fa3d 602f e43d 8fc3 09bf
00000180: c98f 85be 77ef c13d 3523 863e d66d 9f3e
00000190: 4170 513e 951c 4abe 4da8 77be 4c7c 63be
000001a0: afad c4be 9bb7 493e 2cce 983e f95b 1d3f
000001b0: 729d 8abe ea3e 7ebe 338a ab3e df84 123e
000001c0: 7dd7 ccbe 0bfa 983e 1ae0 68bd 65f0 d03d
000001d0: 9547 0cbe e64a 65bd 9ac9 9ebb 619e 943e
000001e0: 18e9 afbe 8fdc 113e 3c4a 50be 009e 3dbe
000001f0: 007d 0f3c 4bf1 633e 6dae 0dbe 07e2 08be
00000200: be75 7cbd 198e f9be f0fd 0e3e 7276 6fbe
00000210: 7a6e 51bc b2df 5dbe 2b94 26be 54e2 9dbe
00000220: 07f1 9fbe d261 803c cf80 a03e 2ddd 0cbd
00000230: 27f3 e83e 4e1e acbe 0637 4bbc 2079 363e
00000240: 1ad8 83be ccb0 a73d 12ff 8b3d a9c5 1abe
00000250: dff3 37be d090 00be 5ba9 80bc 3019 7bbe
00000260: 491b e2bd 7fb7 6b3e 5412 8dbd b49d 063e
00000270: bc72 5d3d 7fa6 333e 8ac8 f4bd 1da1 dabd
00000280: 2b12 89bd 8b63 73bd 9e83 c3bd 29b8 0d3d
00000290: 3cc6 a7bd a796 99bd 202b 763e 99f2 2ebd
000002a0: 08c0 903d 4ba5 443e 3fa8 8bbd 9e81 563d
000002b0: 9c74 35bd a65b 533e a662 003c 53c2 f1be
000002c0: 03ea 3cbe 5a96 913d 31d6 a0bd 1c5f 96be
000002d0: 9707 833e 76ba b53e ae41 acbe e1a6 c5be
000002e0: f541 e23d aaad 1f3e 7695 673e 5161 9b3e
000002f0: 8a7c 25be 1751 2fbe 0056 5cbe ac31 e4bc
00000300: ec1b 0b3e 82d0 86bd 9a60 313e 224f 8b3e
00000310: 85c5 ce3d c2d1 993d d0ed ff3d f3f3 05be
00000320: e5bc 223e 613b 99be ee06 72be 7215 07be
00000330: 80c4 6c3e 3aed 95be 0695 cebc 18f0 073e
00000340: c704 253e 9b24 203d e502 16be 7ef7 d6be
00000350: 6c9c d43d d6db 54be 5c3d 363e 0a87 00bd
00000360: 87ca e7bc 9a25 3dbe 819d f33e 8374 fa3d
00000370: 8e26 103e 55d7 febd 74c9 663e b305 f0bd
00000380: 5e7e 0e3e 3a25 dbbd 6151 abbd a7da 21bd
00000390: 486c 263e 8c56 833d b313 9d3e af19 92bd
000003a0: f2e4 4e3d 7292 35be af08 00be ca3d 93be
000003b0: 95ee 58be 57ca 843d ac57 9c3e 61fe 0a3e
000003c0: 8743 b2be 0d0e 943d 840e af3e 7d5f db3d
000003d0: ec22 453e bd6d 833e ee24 dd3d 8e16 203c
000003e0: 5770 dcbe 16de e4be bcd6 b4bc 1892 323d
000003f0: 25d1 6a3e fe86 66be 6478 a33d c011 ea3d

bias f4 [20]
0.016013235 -0.018209321 0.014118664 -0.03848652 0.08901515 -0.012259791 0.07774825 0.049059194
0.055342853 0.009333615 0.02974478 0.060610343 -0.16955638 0.13124448 -0.018233081 0.043625154
0.008501903 -0.024531225 0.0062054223 -0.036480647
00000000: 302e 833c b72b 95bc f851 673c 0ba4 1dbd
00000010: 934d b63d 4add 48bc 793a 9f3d 4bf2 483d
00000020: 30af 623d 05ec 183c 53ab f33c 8d42 783d
00000030: 30a0 2dbe f464 063e 8b5d 95bc 4ab0 323d
00000040: 914b 0b3c b5f5 c8bc db56 cb3b bb6c 15bd

weight f4 [20, 20]
0.16366087 -0.04620952 -0.08767342 -0.13185453 -0.005271345 -0.29866698 -0.116779886 0.40345013
-0.2747248 0.2802879 -0.06501851 -0.2636425 0.12202808 0.023842407 0.1186623 0.110548556
-0.28455505 0.1583979 0.05851566 0.037878655 0.07689723 0.19993316 0.40703952 0.17216036
-0.043020483 -0.15148993 0.017600711 -0.0026897804 0.16559543 0.11502802 -0.3559401 0.0672377
0.566243 -0.06792904 -0.04273185 -0.58168584 -0.0983139 0.3373974 -0.29586047 -0.03159906
-0.0749457 0.10975421 0.58018255 0.12338614 0.014422294 0.41262203 -0.25856227 -0.22086278
0.048630495 -0.4331199 -0.035754003 0.05062238 0.16031517 -0.086917244 0.09673093 -0.3736565
-0.26112908 -0.119266585 -0.30661473 -0.2003274 0.14137854 -0.11093818 -0.11051251 -0.23430008
-0.017656323 0.09307856 0.10729319 -0.075755365 0.32187042 -0.21010269 0.1558839 0.32136452
-0.33026168 0.13694939 -0.39035836 -0.18206078 -0.0139398435 0.24333178 0.09253774 -0.00518243
0.22361502 -0.14410254 -0.13294807 -0.09215716 0.16902073 0.29143643 0.41067514 0.41104847
-0.067497425 -0.3628644 -0.027015258 0.081030205 0.23720889 0.077207714 -0.44199055 0.105510354
-0.18142456 -0.07669548 0.520778 0.40371677 -0.20102136 0.19919267 0.18517035 0.12792534
-0.1965946 -0.19716114 -0.16432191 0.1321062 -0.25065508 -0.1870602 0.0010260555 0.046947494
0.3246532 -0.33628708 0.17630337 0.051516064 0.09232604 0.4846882 -0.24836303 -0.02003171
0.5157522 -0.05933634 -0.42731494 0.117822506 0.25003728 0.4546524 0.10987052 0.18809614
-0.10554473 -0.017790122 0.17492159 0.29479745 -0.291987 0.014074 -0.1825697 0.16185153
-0.035583623 0.25128 0.19551332 0.26747897 -0.5596182 -0.25727957 0.1893791 0.4282036
-0.2590226 -0.024687394 0.2656835 0.043976422 -0.069621325 -0.006703326 0.1525379 -0.62458605
-0.31236407 0.027500093 0.26653808 -0.12739815 -0.096395195 0.04254437 0.30686033 -0.51135206
-0.21155198 0.28629208 0.42758125 0.38357973 -0.049431555 0.015466418 0.31502694 -0.25128853
-0.13223197 -0.3354752 -0.26541707 0.22958659 0.3978412 -0.3083432 -0.012125986 0.18211327
0.066821516 -0.10461777 -0.16734341 -0.092624955 -0.33797368 0.2900279 -0.07194055 -0.38047212
0.13469099 -0.2912674 0.18246146 0.15229073 0.058730807 0.16886652 -0.19603674 0.38898838
-0.048909202 -0.08063409 0.05313948 -0.21603051 0.22677003 -0.23953243 -0.27510247 0.012782935
0.04087921 0.19038652 0.19488198 -0.17282099 -0.46023452 -0.5793375 0.31789935 0.016203403
0.12144936 0.34117377 -0.009010992 -0.11217722 0.14771593 0.05984501 0.33722934 -0.3471842
0.14043076 -0.35264584 0.2325445 0.1644572 0.13550363 0.003516042 0.4119508 0.052123655
0.023394028 0.40371966 -0.34220606 -0.5162923 0.20520198 -0.1834774 0.26452017 0.22374935
0.6091921 0.33872142 0.4404225 -0.061586585 -0.46917933 0.25430173 -0.33528557 -0.1803159
0.41064197 0.2306757 -0.13983552 -0.12223666 0.06704527 0.083630316 0.20247726 -0.20618732
0.26203594 0.22555399 0.084700376 0.407276 0.23936574 -0.045116555 -0.24362639 0.54310566
00000000: b796 273e 3246 3dbd 1f8e b3bd e004 07be
00000010: 3fbb acbb e1ea 98be 4b2a efbd 0491 ce3e
00000020: bba8 8cbe e581 8f3e 6d28 85bd 26fc 86be
00000030: dce9 f93d 2751 c33c 3805 f33d 4867 e23d
00000040: 33b1 91be 0f33 223e 1eae 6f3d a626 1b3d
00000050: 4c7c 9d3d 47bb 4c3e 7c67 d03e ce4a 303e
00000060: 3f36 30bd 2d20 1bbe 5e2f 903c 0747 30bb
00000070: d991 293e d093 eb3d c83d b6be ebb3 893d
00000080: 4df5 103f 611e 8bbd 9807 2fbd 5de9 14bf
00000090: cc58 c9bd 5abf ac3e 067b 97be 046e 01bd
000000a0: 227d 99bd d1c6 e03d d886 143f dfb1 fc3d
000000b0: 7c4b 6c3c 3243 d33e 4662 84be da29 62be
000000c0: c530 473d e4c1 ddbe ca72 12bd 6a59 4f3d
000000d0: a929 243e ab01 b2bd de1a c63d e84f bfbe
000000e0: b6b2 85be 0a42 f4bd 9bfc 9cbe a022 4dbe
000000f0: 89c5 103e 8e33 e3bd 6254 e2bd 5cec 6fbe
00000100: fea3 90bc f99f be3d 88bc db3d a125 9bbd
00000110: 33cc a43e 2925 57be 07a0 1f3e e489 a43e
00000120: 0f18 a9be 763c 0c3e 0ddd c7be 246e 3abe
00000130: f163 64bc f72b 793e 6d84 bd3d 60d1 a9bb
00000140: 56fb 643e 9e8f 13be 8a23 08be e5bc bcbd
00000150: c513 2d3e 2837 953e 0344 d23e f274 d23e
00000160: 173c 8abd 5dc9 b9be 1a4f ddbc 2af3 a53d
00000170: e3e6 723e 141f 9e3d 964c e2be d015 d83d
00000180: 5cc7 39be 8512 9dbd b551 053f f7b3 ce3e
00000190: 8bd8 4dbe 2af9 4b3e 4c9d 3d3e dcfe 023e
000001a0: 1850 49be 9ce4 49be 0144 28be d946 073e
000001b0: dd55 80be b68c 3fbe b67c 863a 044c 403d
000001c0: f238 a63e d22d acbe df88 343e 8202 533d
000001d0: 6f15 bd3d 0d29 f83e e152 7ebe 8a19 a4bc
000001e0: 5608 043f a90a 73bd 06c9 dabe ed4c f13d
000001f0: e304 803e 33c8 e83e cc03 e13d 469c 403e
00000200: d627 d8bd 97bc 91bc a51e 333e b1ef 963e
00000210: 527f 95be a296 663c 8df3 3abe 68bc 253e
00000220: 22c0 11bd c6a7 803e a534 483e 01f3 883e
00000230: 2343 0fbf 26ba 83be 98ec 413e 813d db3e
00000240: 9c9e 84be 383d cabc ab07 883e 9f20 343d
00000250: a095 8ebd 93a7 dbbb e532 1c3e dfe4 1fbf
00000260: 2fee 9fbe e047 e13c ae77 883e a974 02be
00000270: d86a c5bd 0143 2e3d cc1c 9d3e f8e7 02bf
00000280: 15a1 58be e094 923e eeeb da3e 9064 c43e
00000290: be78 4abd dc66 7d3c 364b a13e e4a8 80be
000002a0: d167 07be 68c3 abbe bfe4 87be bf18 6b3e
000002b0: d7b1 cb3e 29df 9dbe 12ac 46bc e77b 3a3e
000002c0: b8d9 883d d741 d6bd 125c 2bbe 27b2 bdbd
000002d0: e30a adbe 897e 943e 9155 93bd 3ecd c2be
000002e0: 6fec 093e 0021 95be 2dd7 3a3e 1af2 1b3e
000002f0: b78f 703d 58eb 2c3e dbbd 48be 7c29 c73e
00000300: 0455 48bd 7c23 a5bd c9a8 593d 1a37 5dbe
00000310: 6736 683e fd47 75be 3bda 8cbe 846f 513c
00000320: f570 273d aff4 423e 248f 473e fcf7 30be
00000330: dca3 ebbe 764f 14bf b4c3 a23e 00bd 843c
00000340: 71ba f83d 54ae ae3e d7a2 13bc 2cbd e5bd
00000350: d842 173e 0b20 753d 53a9 ac3e 21c2 b1be
00000360: 15cd 0f3e ff8d b4be 2520 6e3e 7867 283e
00000370: 77c1 0a3e 656d 663b 37eb d23e 9d7f 553d
00000380: d5a4 bf3c 58b4 ce3e a235 afbe bb2b 04bf
00000390: 7820 523e 80e1 3bbe 306f 873e 8d1e 653e
000003a0: 03f4 1b3f e56c ad3e 0f7f e13e 3742 7cbd
000003b0: 4638 f0be d633 823e 8daa abbe bba4 38be
000003c0: aa3f d23e 4036 6c3e 0b31 0fbe 3757 fabd
000003d0: 084f 893d 5f46 ab3d 3356 4f3e c522 53be
000003e0: 9329 863e a0f7 663e 6477 ad3d 7b86 d03e
000003f0: 4b1c 753e 23cc 38bd 3279 79be f908 0b3f

bias f4 [20]
0.0021293864 -0.089610346 -0.057307858 0.12287261 0.07052889 -0.080943584 0.047949594 -0.08575583
-0.12976065 0.062256783 -0.05074917 -0.12169632 0.016207244 -0.08054127 -0.11894292 -0.02286185
0.058653563 0.117779605 0.08903574 -0.16058499
00000000: 2d8d 0b3b a185 b7bd a5bb 6abd a3a4 fb3d
00000010: 7371 903d c0c5 a5bd cb66 443d c1a0 afbd
00000020: fadf 04be f800 7f3d 5dde 4fbd ec3b f9bd
00000030: 0ec5 843c d2f2 a4bd 5898 f3bd c648 bbbc
00000040: b83e 703d 6f36 f13d 5f58 b63d 6470 24be

weight f4 [1, 20]
-0.05117724 -0.877792 -0.8751855 0.51563203 0.7658607 -0.5138409 1.2737112 -0.98606926
-0.58622414 0.08323752 -0.31161404 -0.90171486 0.4282884 -1.2666225 -0.6017604 -0.04798036
0.9903243 1.132449 0.44590464 -0.54864895
00000000: 3a9f 51bd fab6 60bf 280c 60bf 7600 043f
00000010: 720f 443f 148b 03bf f808 a33f 096f 7cbf
00000020: c912 16bf 6f78 aa3d e08b 9fbe c9d6 66bf
00000030: 9e48 db3e b020 a2bf f80c 1abf 0e87 44bd
00000040: e585 7d3f 17f4 903f 9d4d e43e 4274 0cbf

u_b f4 [2]
1.1 3.996
00000000: cdcc 8c3f 77be 7f40

l_b f4 [2]
0.1 0.0
00000000: cdcc cc3d 0000 0000
