Trained/Models_00/Noise_2/toy_nostop/weak_ff.pt (torch, 39583 bytes, 23 tensors)

weight f4 [20, 2]
00000000: 1ae0 4bbe c964 953d 636f 4fbd 1cfc 333e
00000010: 73fb a2be a583 c0be 83cd b43e 40a2 0f3f
00000020: ffb0 813d fa9a a4be 5ee7 c73e aab8 2fbe
00000030: 6dde 12be 6c63 813d 2f5b 513d 545b b5be
00000040: 6109 dfbb f7a3 813e fb6f 8dbe 5f3b fa3c
00000050: 9a57 88bd 67e1 c73d 5b4e 253e 86a9 f23d
00000060: c7e3 263d d438 70be cc98 cabe e1b3 fa3c
00000070: 535a 133e 6c2b 8fbe faa7 993d fb0a 70be
00000080: fcbd b63e e2e7 2bbf 7042 23bf f47d b2be
00000090: 0741 583d aabc dabc 762c 373e e810 833c
-0.19909707 0.07294614 -0.050643336 0.17576641 -0.31832466 -0.37600437 0.35313043 0.5610695
0.063325875 -0.32149488 0.39043707 -0.17160287 -0.14342661 0.06317791 0.05111235 -0.3542124
-0.006806538 0.25320408 -0.27624497 0.030545888 -0.06657334 0.09759789 0.16143171 0.1184874
0.04074457 -0.23459178 -0.395697 0.030603351 0.14389925 -0.27962816 0.07502742 -0.23441689
0.35691822 -0.671507 -0.6377325 -0.3486172 0.05279639 -0.02670129 0.17888054 0.015999272

bias f4 [20]
00000000: ae2d 293e 75c3 e9bd 51e5 febd a3d9 5cbd
00000010: 3fa3 8c3d b00a 773d be95 833d 1526 3f3e
00000020: 105e 2bbe 0074 b63d 9996 963d 09ce 84bd
00000030: 58fc b93d aa11 fb3d 2a48 a4be 87a7 003e
00000040: 8679 bd3d 1d24 88be 06bc 41be 289a acbd
0.16521332 -0.114142336 -0.124460824 -0.053918492 0.06867074 0.060312927 0.064250454 0.18666871
-0.16735101 0.08908844 0.07352943 -0.064846106 0.09081334 0.122592285 -0.32086307 0.12563907
0.092516944 -0.26590052 -0.18919381 -0.084278405

weight f4 [20, 20]
00000000: be7f 833e 04cd fd3d f3d2 69be da39 90bc
00000010: 55b8 e73d 4ce6 9ebc 8acc 423e a8a9 b83d
00000020: 63a2 ae3e 7a43 bd3e a51d af3e 290f 983d
00000030: cf4d 8b3e 7230 283e 3a0a fd3e 6c87 57be
00000040: ed17 29be 0b3a 9bbe 4ca1 14be 653a 8e3d
00000050: 8456 893e 4884 103e 49d7 51bc 7c40 fdbc
00000060: bf58 02be aec8 dfbe d47b ddbe 0755 6abe
00000070: b18c 713e 8c94 55bd 84be 41bd 74db 54bd
00000080: f3e8 36be 58ee ac3d 3af3 4abe 3c33 253e
00000090: 7bce ec3d 3ac9 123e 3bfd 243d 1e68 5abc
000000a0: 91ae a93e 4771 003e d779 6cbe 3bcb 0fbf
000000b0: d380 213f b4b8 94bd 38d6 2ebd 865c 6a3e
000000c0: 1346 313e 679e 6bbe 8509 4abe 8f08 3c3e
000000d0: 905d 87be bed1 933c cd8e fab9 a1c3 24bd
000000e0: 9c47 c03d a2f9 33bd fbdc d53c a2fa f4be
000000f0: 66a5 543e bb73 763d 154e 63be 5a7a 583e
00000100: f03f 0c3e 507c 5a3e 1c81 a5be 53d7 193e
00000110: 9663 13be 408e a53d 7df1 c73d 5d2b 283e
00000120: 2939 a63e cfe7 ccbb 44cb 843d 0867 9abb
00000130: d0d3 76be 7a17 bbba f381 523e 2814 753e
00000140: 0f3e b23e 0210 3e3d 43e1 f53d 19a9 2a3e
00000150: b7dd a5be a72d 93be 7e2f 0f3e 0f22 b43e
00000160: d8ed b4bc f0c8 a8bd ea4e 043e 2feb 35bd
00000170: 739e d7bd 8ed4 0fbe 535a 26be 07c4 073e
00000180: 83d5 f6be 1529 373e 374b e73c b47f 963e
00000190: 11f6 9dbd fab0 053e 832a 9d3e 0980 89bd
000001a0: 7a95 1f3e 1be7 7f3e 7b42 4fbe 05bf dbbd
000001b0: cfac 28bc 8875 7ebe eade b93d 5188 b8bd
000001c0: 22cf 79be fde8 80be 5a43 183f 0b79 083d
000001d0: c4eb 57be a8ed 013e 670d 493e 455e 963e
000001e0: 2488 d5be 1641 25bd 530d 613d 9fc1 f9bc
000001f0: e1ff 00be 4f6f 08bf 6602 523e 4f90 6c3d
00000200: 7692 853e b8ce 80be 7a14 233e 8327 1fbe
00000210: ce73 023d 82ee d9bb 8d4b 813e 1198 b33d
00000220: 7c4e d3bd fee6 16be 0495 8d3d 2572 39be
00000230: 831b 2f3e 7ac0 df3e 7e47 3f3e 7936 a23d
00000240: 68ee 8e3e 6a4e 2e3e 52c0 d6be 784e f93d
00000250: b9f1 1fbd 9efb a1bd f1b0 ad3d b622 133e
00000260: 0d22 813e 1348 a1be d4b0 f93c b0e2 6fbe
00000270: bbed 2dbe 3d87 12be 0533 39be 0c9b 863e
00000280: e32f de3d 8031 f4bd 4fdb bd3b 0d2d 063e
00000290: 68ab 8cbe 844b 263e b337 54be 93d3 c3bd
000002a0: a7e1 8abe c68e d5bd 9027 e23d 45e8 b53d
000002b0: c97c bf3d 4df8 27bd 0afc 2e3d 7e93 ab3e
000002c0: e5fb 503e b5c3 b63e 7e97 263e fa96 46be
000002d0: 8ae5 f23d 9352 203d 200f bf3e c4ff 9b3d
000002e0: 8b75 f73e 3f05 813e 26ed 2f3e 02e3 273e
000002f0: c514 e13e 29ef 1e3e d6ee c33d ebfe 92be
00000300: e3c1 95bd 8c8a 8d3e b2ac fdbd 899f 54bd
00000310: d6b9 8e3e 0bdb ef3c 4356 55be 80b2 093d
00000320: 926c a6bc 5c00 2c3e d02b 2bbe 428a 893e
00000330: 77ce 8cbe ba7d 06be 7dba 7abe 731d ba3c
00000340: 9a85 c53e 1baa 10bf fd1a 6abc 7290 14be
00000350: 6b0d efbe 23e8 76be 28c5 90bd bb38 203e
00000360: e3d1 bdbe 51a2 493e ff88 313e 4c91 61be
00000370: 24f6 d1be 96f1 253e ff70 aa3e 553d 503e
00000380: 5714 f3bd 2e10 873d 60a3 8f3c 9928 01be
00000390: da2e 84be a02b a93e 1948 b83d 90cf ea3e
000003a0: e2a2 a8bd 628c e8bd 6d7b 6f3e 9186 4dbe
000003b0: 5932 7cbd 17ce 183e 37e0 6c3e 4fad 223d
000003c0: 30d9 b7be 958f f43d fc1a e93d c5e2 00bc
000003d0: f0e7 93be 1564 ab3e 3441 6abc 9040 54be
000003e0: b9b8 283e 4e76 503e c020 00be e684 933e
000003f0: d693 463e 8fc6 dcbd cff1 15bd 3a64 b13d
0.25683397 0.12392619 -0.22834377 -0.01760571 0.113144554 -0.019396923 0.19023338 0.09016734
0.34108266 0.36965543 0.34202304 0.074247666 0.272078 0.1642473 0.49421865 -0.21047753
-0.16513033 -0.3031772 -0.14514655 0.069447316 0.2682382 0.14112961 -0.012807676 -0.030914538
-0.12729166 -0.43707794 -0.43258536 -0.22883998 0.23588826 -0.05214362 -0.04730083 -0.0519671
-0.178623 0.08443898 -0.19819346 0.16132826 0.115628205 0.14334574 0.040280562 -0.013330488
0.33140996 0.12543212 -0.23093353 -0.5616948 0.63087195 -0.07261792 -0.042684764 0.22886857
0.17311887 -0.23009644 -0.19730194 0.1836264 -0.2643857 0.018044349 -0.0004779011 -0.04022563
0.093886584 -0.04393924 0.026106348 -0.47847468 0.2076622 0.060168963 -0.22197755 0.21140423
0.13696265 0.21336484 -0.32325065 0.15023546 -0.14393458 0.08083773 0.09762857 0.16422792
0.32465485 -0.0062532197 0.06484082 -0.0047119893 -0.24104238 -0.0014273964 0.20557384 0.2393347
0.34812972 0.046401985 0.12005856 0.16666068 -0.32395718 -0.28745767 0.1398296 0.35182235
-0.022086069 -0.08241451 0.12920728 -0.04441374 -0.10528269 -0.14045927 -0.16245393 0.13258372
-0.48209772 0.17886765 0.028234107 0.29394305 -0.07712949 0.13055792 0.30696496 -0.06713874
0.15584365 0.24990503 -0.20240204 -0.107297935 -0.010295107 -0.24849522 0.090757206 -0.09010375
-0.24395421 -0.25177756 0.5947777 0.03331856 -0.21086031 0.12688315 0.19634019 0.29368797
-0.4170543 -0.040345274 0.054944348 -0.030487834 -0.1259761 -0.53294843 0.20508727 0.05775481
0.26088303 -0.25157714 0.1592578 -0.15542416 0.03184872 -0.006650747 0.25252953 0.08769239
-0.10317704 -0.14736554 0.06913188 -0.18109949 0.17100339 0.43701535 0.18679616 0.07920546
0.27916265 0.170221 -0.41943604 0.1217317 -0.039048884 -0.0790932 0.084810145 0.1436871
0.2522129 -0.315003 0.030479826 -0.23426318 -0.16985218 -0.14309402 -0.18085869 0.26290166
0.108489774 -0.11923504 0.005793966 0.13103123 -0.27474523 0.16239744 -0.20724373 -0.09561839
-0.27125284 -0.104276225 0.11042702 0.088821925 0.09349973 -0.041008282 0.042720832 0.33510965
0.2040859 0.35696188 0.16268727 -0.1939353 0.11860187 0.03914125 0.37316227 0.07617143
0.48331866 0.25199315 0.17180309 0.1639519 0.43961158 0.1552092 0.09567039 -0.28710112
-0.073123716 0.27644765 -0.12386455 -0.051909957 0.27876157 0.029279253 -0.20833687 0.033617496
-0.020315442 0.16797012 -0.16715932 0.26863295 -0.2750127 -0.13133898 -0.24485202 0.02271912
0.38578492 -0.5650956 -0.014288661 -0.14508227 -0.46689925 -0.2411199 -0.070688546 0.15646641
-0.37074193 0.19690825 0.17337416 -0.22028083 -0.41008103 0.16205439 0.33289334 0.20335896
-0.11869114 0.06594883 0.017533958 -0.12613143 -0.25816995 0.33041096 0.089981265 0.45861483
-0.082341924 -0.11354901 0.23386927 -0.20070864 -0.061571453 0.14922367 0.23132406 0.03971606
-0.35907888 0.119414486 0.113821 -0.007866566 -0.28887892 0.33474794 -0.014297772 -0.20727754
0.16476716 0.2035763 -0.12512493 0.2881233 0.19392332 -0.107800595 -0.03660756 0.08661695

bias f4 [20]
00000000: bb41 b7bc 04cc 24be 7171 b03d d936 68bd
00000010: 3654 2a3d aad9 24be 76c7 25bb d7a9 173d
00000020: 5e12 7e3d 781b 623d 2a48 19bd 7fc6 59bd
00000030: 343a fcbc 3d0b 26bd ba41 853e 1402 3fbe
00000040: d9be 633d 40f2 963c 0a89 ccbd ae3a 953b
-0.02237021 -0.16093451 0.08615387 -0.05669293 0.041584216 -0.16098657 -0.002529589 0.037027206
0.062029235 0.055201977 -0.037422337 -0.053167816 -0.030789472 -0.04053806 0.26026708 -0.18653136
0.05560193 0.01842606 -0.099870756 0.0045541143

weight f4 [20, 20]
00000000: df83 913e 2003 85be c4d5 e23d 0aa0 453e
00000010: 3aa4 2cbe c73b 25be 1f19 2c3e 761e b83e
00000020: 4e41 1bbf 345e 263e 06c3 003e 52ca 883e
00000030: 947e 183e 7885 3f3e c029 b43e cffa 5bbe
00000040: d879 cc3e d14e 08be 79bf 043e bac3 a1be
00000050: 5cd1 863e a79d e33c c3ca 523d 0074 f93b
00000060: fb0a 8b3d 2d3f 8a3e f02e 613e 81a2 86be
00000070: 7ff9 9cbd 8c01 403e 88af 60be 8a3f b03e
00000080: ae87 45bd dea6 38bc 9f78 7bbd 63ba af3e
00000090: 4cf2 27bd afcd d13e 0087 a83e 7b27 11bd
000000a0: 6309 80be 8185 bcbc 3b8d ea3b d057 89be
000000b0: 5f5c 413e 2164 0b3e c318 9b3e 67ca 8a3c
000000c0: e28f e43d 9cc6 4f3e 61a7 2fbe ad74 64be
000000d0: 007b e1bd ab6d cb3d a00c 9bbc a5b7 bf3e
000000e0: 2406 4b3e 296c 3b3d a161 32be 1682 bb3d
000000f0: 49fa b73e 95f8 843d 3333 36be 9aaa babd
00000100: 038b 90be e2e8 9dbe 529b fcbe 227d f5be
00000110: 5fc6 28be cb1d 8dbe 5764 f7bc 5dd0 53bd
00000120: 3adf 01be d028 b63d 2e64 d1bc f717 563e
00000130: 0fd5 b2bd 238d edbd 76a9 5d3d 8e35 bd3e
00000140: e85f b63e 94e2 e4bc 27ba 4b3d 7d40 49bd
00000150: a8a8 6a3e feb1 a9be fb58 06be 388a 3cbe
00000160: d71d d33d 5e9a b6ba 8f0f c4be b3ff adbe
00000170: 7a4b 97bd 74ae 19bf b7bc f23e c695 083e
00000180: 0d46 94be 20a1 86be 8457 cc3e 5ffb 263e
00000190: 4545 1dbe d7cd 5fbd 2431 df3c 718b 51be
000001a0: 2558 9cbe 892f a0bd 5208 a03d 3e66 dbbe
000001b0: 66a9 cf3d 07ab ccbc 687d 6abe ab11 c0bd
000001c0: 1f72 d63e 192d 0e3e 076e d83e bf2b bbbc
000001d0: a37c 593c f3ad 473e 5e5a 3c3e f9dd 03bf
000001e0: c57c 8d3e 74fd 01bd aaa3 873c 13c2 7c3e
000001f0: caef 053e dbdc 4bbd f18c 2fbe f674 7e3e
00000200: a52e 5dbd 4499 5f3d 86f3 7d3e 5e8f ff3d
00000210: 695c 4fbe 1577 9c3e 0bed 56be db83 8f3e
00000220: 4aac 123e 2817 23bf 9600 72be 6e10 9e3d
00000230: 3f80 c0bd 638f 2e3e 7f8f a1bd 32fc 783e
00000240: 4d83 45bd e6c5 cdbd 9529 1ebe ec07 913e
00000250: c8db b63e fb1b 923d 6347 303e 4149 2cbe
00000260: e13a d4bd c70d 17bd 72a9 013e 3502 ed3d
00000270: acfd 47be f781 b13e b47b 81ba 13da ed3c
00000280: 6512 d3bd 633e 51bd 9436 83be c6a6 d73e
00000290: 5c65 913e c16e 423e fb2d ddbc 04b6 863c
000002a0: 48e4 253e 6e1e b53d 56e1 9cbc 025d a23e
000002b0: d8de 87be a268 c2be 7277 4b3e 7c08 c1bd
000002c0: f75d 62bd 64ee 49be 1093 ab3e 3087 8abe
000002d0: e675 f43e c7f2 54be bc32 66be 7b3a 013c
000002e0: fa70 8ebe b207 993e 0793 7dbe bcc4 ef3d
000002f0: 1650 1b3d 29d1 5fbd 3124 1d3e 11bc f13d
00000300: 1be1 91bd a4f8 073d d00d 01be d07e 983e
00000310: b840 29bc ef65 a63d 039a be3d c0e8 67be
00000320: b71a 593e 6b6b 733c e9d3 1e3e d333 d4bb
00000330: 8422 373d c59b c93d f588 c93d 9721 d3bd
00000340: 733f 0dbe 40b0 2a3e b90e 50be ff55 053e
00000350: efa1 2439 65fd 5e3e fe9e b4be 2244 883e
00000360: 17e4 cb3d 89f7 a2be 8629 c5bd bb69 82be
00000370: 50e5 243d f4cf b43d 3c0e c4bd 34c2 49be
00000380: 5778 183e 3789 84be 57ff 7e3d 7a09 a5bd
00000390: 4686 b5be 8db4 153e 25bb 54be d0c7 c9bd
000003a0: 8adf 9c3e 748e ab3e c2d7 073c 3757 9b3e
000003b0: 1eca 163d 8662 333f c5d3 09be 73aa 533d
000003c0: cb1f 9fbe 244c c13d a283 7fbe c0cc e13c
000003d0: 7d1e 6d3e 234c b3be 182f d4bc e7b4 a13e
000003e0: 03d4 263d 0d58 9c3d ecb0 0f3e e8fa ddbd
000003f0: b846 90be 7968 d9be 54f3 7a3e b7f1 3abf
0.28420922 -0.25978947 0.11075929 0.19299331 -0.16859522 -0.16136084 0.16806458 0.3596074
-0.6064652 0.16246873 0.12574396 0.26716858 0.14892036 0.18703258 0.35188103 -0.21482395
0.3993671 -0.13311316 0.12963666 -0.3159464 0.26331604 0.027785135 0.0514629 0.007612705
0.06789204 0.27001324 0.21990561 -0.26295856 -0.07664775 0.1875059 -0.2194196 0.34423476
-0.048225097 -0.011270253 -0.06139433 0.3432189 -0.041002557 0.40977237 0.32915497 -0.035438042
-0.25007161 -0.023012878 0.0071579493 -0.26824808 0.18882893 0.13612415 0.3029233 0.016942216
0.11160256 0.20290607 -0.17153694 -0.22310133 -0.110097885 0.09933027 -0.018926919 0.37444797
0.19826561 0.045757446 -0.17420055 0.09155671 0.3593314 0.06492726 -0.17792968 -0.09114571
-0.28231058 -0.30841738 -0.4933725 -0.4794703 -0.16481923 -0.27561793 -0.030199213 -0.051712383
-0.1268281 0.08894503 -0.025560465 0.2090758 -0.08732044 -0.11599185 0.05411669 0.3695492
0.35620046 -0.027940072 0.049738076 -0.049133766 0.229159 -0.3314361 -0.13119881 -0.18412101
0.10308426 -0.0013931503 -0.3829312 -0.33984146 -0.07387443 -0.6003182 0.47409603 0.13338384
-0.28959695 -0.26294804 0.3991052 0.16306828 -0.15358455 -0.054639664 0.027245112 -0.20463349
-0.30536 -0.078215666 0.07814087 -0.42851442 0.10139732 -0.024983896 -0.22899401 -0.0937837
0.41883942 0.13884391 0.42271444 -0.022848008 0.013274345 0.1949995 0.18393847 -0.5151058
0.27634254 -0.031735852 0.016557533 0.24683408 0.13079754 -0.04977117 -0.17143609 0.24849305
-0.05399956 0.054589525 0.24799928 0.12478517 -0.20250095 0.30559602 -0.20988862 0.28030285
0.14323536 -0.6370721 -0.23633036 0.077179775 -0.09399461 0.17046885 -0.07888698 0.24314955
-0.04822092 -0.10047512 -0.1544555 0.28326356 0.35714555 0.07134243 0.17214732 -0.16824819
-0.10362793 -0.036878373 0.12662295 0.115726866 -0.19530362 0.34669468 -0.0009878785 0.02903465
-0.10306243 -0.051084887 -0.25627577 0.42119426 0.28397644 0.18987562 -0.026999464 0.016444214
0.16200364 0.088436946 -0.019150417 0.31711584 -0.26537204 -0.37970454 0.19869784 -0.094254464
-0.055265393 -0.19719845 0.33510637 -0.27056265 0.477462 -0.20795737 -0.22480291 0.007887478
-0.2782057 0.29888684 -0.24763118 0.11707446 0.037918173 -0.05464283 0.15345837 0.11803449
-0.071230136 0.033196107 -0.12602925 0.2978425 -0.010330372 0.08124911 0.09306719 -0.22647381
0.21201597 0.014857153 0.15510525 -0.0064759045 0.04471065 0.09844164 0.098405756 -0.10309141
-0.13793735 0.16668797 -0.20318116 0.13021086 0.00015700584 0.2177635 -0.3527755 0.2661448
0.09955614 -0.3182948 -0.096270606 -0.2547129 0.040257752 0.088287264 -0.095730275 -0.19702989
0.14889656 -0.25885937 0.06225523 -0.08058448 -0.35454005 0.14619656 -0.20774515 -0.09852564
0.30639297 0.3350712 0.008291187 0.30339977 0.036813848 0.7007221 -0.1345969 0.051676225
-0.31078944 0.09438351 -0.24952558 0.027563453 0.23156162 -0.35019025 -0.025901362 0.3158333
0.040729534 0.07633982 0.14032334 -0.10838872 -0.28178954 -0.4246252 0.24506885 -0.7302508

bias f4 [20]
00000000: 594c aa39 10b5 20bd 52cb 3fbd bdd7 75bc
00000010: 320d dc3d 655b ef3c 03d7 98bc 029d a93d
00000020: e706 63bc f37d 7dbd e430 97bc 0071 273d
00000030: a7c4 c53d 55bb 543d 2ddf 71bd 00b1 44be
00000040: b908 303d c6cf b73d 0cb1 06be 01ba 08bd
0.0003248181 -0.039235175 -0.04682476 -0.015005049 0.10744704 0.029218385 -0.018657213 0.082819
-0.013856626 -0.061887693 -0.01845593 0.04087925 0.09656649 0.051936466 -0.059050728 -0.19208145
0.04297707 0.089751765 -0.13153476 -0.033380512

weight f4 [20, 20]
00000000: 59fd 553c 1ee4 123e d85f 8e3e 18e3 12be
00000010: 2176 0c3f b482 2cbd 5054 c03e c28b 88be
00000020: afdd 813e 556d a93d ef02 4a3e 2910 393b
00000030: 65c2 d33d d207 8f3e 68cb 0dbe 0987 863e
00000040: 7514 503e 4f56 bb3e a2a6 8d3e c8a6 77bd
00000050: 6756 59bd a9f0 063c 6f3f 52be 3c06 dcbb
00000060: 0cf9 1c3e efa6 913e d349 b03e 4f4b 2ebd
00000070: 5556 b2bd 95fd 5a3d d71f 8abe 06ea 71be
00000080: 8340 80be 4893 ee3e d302 90be b197 febd
00000090: f548 c43e 560a 913e 7d63 80be 24d1 783e
000000a0: c885 cebe f147 9fbe d9d2 273e bb5b 9bbd
000000b0: bbe3 d5be 40ce 663e 3981 05bf 73df 3f3e
000000c0: 18af 503e d49a 0a3f 4c43 23be da76 c8bd
000000d0: ef9b 59bd d925 073b c29d 8d3d 5a2a 2bbe
000000e0: 09b1 8abe 077c cc3e 408b 753c b3c3 ac3e
000000f0: 14a5 15be d501 78bd 9eec e4bd 8d79 0b3e
00000100: 69c6 6ebd cdce 21be e52d 1e3e 9564 3d3e
00000110: 17cb 5e3d cb18 253e f3f3 843e 82cc 05bf
00000120: d56c 6c3d 9ef6 8c3e ce4f 503c bd03 d43c
00000130: d8f7 34be d2b1 1a3f 3af9 913d 1737 eebe
00000140: 0e04 9c3e ce99 8bbe 2634 8cbe 4ee8 5abd
00000150: c4ae 343e 4216 183e 59f3 28be c6b8 d13b
00000160: 7f4d 1a3d 774c a5be 277e f63d c2a5 463d
00000170: 4334 0c3e ec78 623e 3d3d 61be 041d bdbd
00000180: 7dc3 4abe 9662 80be 7d67 01bf c598 a8bc
00000190: b86a c23d ced5 51bc 075e 593d 92cb 3f3e
000001a0: 1ace 983e e12e 153d ea17 87be dc6e f3bc
000001b0: 52cf 5a3e bb75 933d a35c 58be 9b18 a4be
000001c0: f6d8 d5bd b9ca 5a3e e983 b0be 4361 e2bd
000001d0: 822d abbe 35a1 d6bc 7cb5 af3e 4092 803d
000001e0: 962e 3cbe c84c ad3e be84 703d b968 40be
000001f0: 63c9 e0be 1d2b 9c3e 3fa7 163d f96c 66bd
00000200: 130f 43be 9186 6d3e 607a 57be 621f dabe
00000210: b901 833e ccaf 9cbe 7517 8b3e 77b2 453d
00000220: f3d8 293f 6b8b e73d b831 12bd eafb 34be
00000230: 10fd a8be a7dc dbbd f403 d0be 9e56 513e
00000240: f429 25bf 49d4 ba3e 2c14 a73e bcf3 5e3e
00000250: a260 41bd 453f f5bd e5e0 d73e 7eaa 84be
00000260: bef1 9f3e b794 aebe f9e9 54be 1bd6 403e
00000270: 7840 64bc 4df9 77be b3a8 cabe 1bcd f3bd
00000280: d398 8d3e bc57 72bd 6d53 73be d21b 8fbe
00000290: d6bd 5d3e d4e5 073e 140e 6cbe 03ee 1cbe
000002a0: 9c08 1d3d ba14 12be dfde 9d3d 9d3a fabd
000002b0: eb06 983e 2751 383e bd07 283e 6fbc 21bd
000002c0: 9306 4ebe ec9c 48be a719 1d3e 2602 b2bd
000002d0: 75c4 9f3e b849 5c3d 4117 083d 55b3 63be
000002e0: 8c26 dabd 3391 31bd f9ba 53be ec43 2b3e
000002f0: 2b3c 5abd 9e57 933e 47e0 80be a97e febd
00000300: ec30 acbe 7b4f 1e3e bf0b d93e 86bd aabe
00000310: f5ac 1dbe cb5e e3be 5328 06be 8dda 603d
00000320: 438a 8e3c 8dc3 913e 0cc6 403e cd86 6b3e
00000330: 1c50 c2bd 8941 183e 9180 31bd 8ce2 8d3c
00000340: 63b0 b43e 4605 103d 02de 8fbe eca7 c7bd
00000350: c970 773e 6d1a 8b3e 918b 073e 0259 d1be
00000360: 506b 5abe 9bc2 e3be cce1 09bd 7877 c6bc
00000370: 1c90 d1bc 8db5 093e a8d5 f4bb 7476 3bbe
00000380: d268 2abe 3f0a 193e 432f 373d 1795 00be
00000390: d558 58be 3736 62be 07d8 20be ba86 efbd
000003a0: e992 e1bd 78b4 4dbe a775 f33c 342f 063e
000003b0: 15f4 5b3e d08b 8a3e e0a5 92be b1f0 893e
000003c0: cbaa 4e3e a1c7 c4bb 9b6b 9d3d d943 513d
000003d0: 263c 32be 7b23 00bf 1f19 5b3e 181c b3be
000003e0: e5d7 6a3e 30bd 94bc 46dc 5c3c 9023 27be
000003f0: f2bb d5bd 8982 8abd b18f 103e 7ac9 193f
0.013060891 0.14344832 0.27807498 -0.14344442 0.5486775 -0.042116836 0.37564325 -0.26669127
0.25364444 0.082728066 0.19727682 0.0028238392 0.10339812 0.27935654 -0.13847125 0.262749
0.20320304 0.36589286 0.27666193 -0.06046179 -0.053060915 0.008236089 -0.2053201 -0.0067146104
0.15329379 0.28447673 0.34431323 -0.04255229 -0.08707873 0.05346449 -0.26977417 -0.23624429
-0.2504922 0.46596742 -0.28127155 -0.124312766 0.38336912 0.28328198 -0.25075904 0.24298531
-0.40336442 -0.31109574 0.16389026 -0.075858556 -0.41775307 0.22539616 -0.52150303 0.18737583
0.20379293 0.541425 -0.1594364 -0.09788294 -0.053127225 0.0020621924 0.069148555 -0.16715375
-0.27088192 0.39938375 0.014986813 0.33743057 -0.14613754 -0.060548622 -0.11177944 0.13620587
-0.058294687 -0.15801544 0.15447195 0.184954 0.0543929 0.16122739 0.25967368 -0.5226518
0.057720978 0.27531904 0.012714339 0.025880689 -0.1767267 0.6042758 0.07127614 -0.46526405
0.30471843 -0.2726578 -0.27383536 -0.0534442 0.17644793 0.1485224 -0.1649908 0.0064002005
0.037671562 -0.322849 0.120357804 0.048497923 0.13691811 0.2211644 -0.21996017 -0.0923405
-0.19801135 -0.25075215 -0.50548536 -0.020580659 0.09493011 -0.012807323 0.053068187 0.1873
0.29844743 0.03642166 -0.26385432 -0.029715948 0.21368149 0.0720019 -0.21129088 -0.32050022
-0.10441773 0.21366395 -0.3447564 -0.110537075 -0.33433157 -0.026199916 0.3431815 0.06277895
-0.18377146 0.33847642 0.058720343 -0.18789949 -0.43903646 0.30501643 0.036780592 -0.05625627
-0.19048719 0.23195864 -0.21042776 -0.42602068 0.25587252 -0.30602872 0.27166334 0.0482659
0.66346663 0.11305889 -0.035691947 -0.17674223 -0.3300557 -0.107354455 -0.40628016 0.20443198
-0.6451714 0.36490086 0.32632577 0.21772665 -0.047211297 -0.11974958 0.42163768 -0.25911325
0.31239122 -0.34097835 -0.20792378 0.18831675 -0.013931386 -0.24216194 -0.39581832 -0.11904355
0.27655658 -0.0591657 -0.23762293 -0.27950913 0.21654448 0.13271266 -0.23052245 -0.1532517
0.03833829 -0.14265719 0.07708525 -0.12218211 0.29692778 0.17999707 0.16409202 -0.039486345
-0.20119695 -0.19591111 0.15341817 -0.08691816 0.31204572 0.05378124 0.0332253 -0.22236378
-0.106518835 -0.043351363 -0.20676793 0.16725129 -0.053280037 0.28777784 -0.2517111 -0.12426502
-0.33631074 0.15460007 0.42391774 -0.3334772 -0.15398009 -0.4440826 -0.1310132 0.054895926
0.017399913 0.28469506 0.18825549 0.23000641 -0.09487936 0.1486875 -0.0433355 0.01731994
0.35290822 0.03516128 -0.28099066 -0.097488254 0.24164118 0.271686 0.13236834 -0.4088822
-0.21329999 -0.4448441 -0.033662602 -0.024226889 -0.025581412 0.13448162 -0.007471759 -0.18306905
-0.16641548 0.14945315 0.044722807 -0.12556873 -0.21127637 -0.22090994 -0.15707408 -0.11695619
-0.11014349 -0.20088375 0.029719187 0.13103944 0.21479829 0.27059793 -0.28642178 0.26941445
0.2018234 -0.006005243 0.0768654 0.051090095 -0.17405757 -0.5005414 0.21396302 -0.3498237
0.2293392 -0.018156618 0.013480252 -0.1632216 -0.10436238 -0.06763179 0.14117314 0.60073054

bias f4 [20]
00000000: ad28 003d cd8a 70bc c6f3 5c3d 10c7 df3b
00000010: 8e95 a33d 081f f7bc 290a a63c 39ac 6bbd
00000020: b0f6 b03d 42a9 ea3c d05d 91bd 4025 283d
00000030: c386 8fbd 4921 e6bc 5309 21bc d127 543c
00000040: 3e18 a0bc 96d1 433d 7e8e 1ebe e351 5abc
0.03128879 -0.01468153 0.053943418 0.00682915 0.0798751 -0.030166164 0.020268517 -0.05753729
0.08640802 0.028645162 -0.070979714 0.04105115 -0.07008126 -0.028092043 -0.009828883 0.012948946
-0.01954281 0.0478073 -0.15484044 -0.013325187

weight f4 [20, 20]
00000000: fae3 813e dc76 103d b3c5 0cbd ab5b babd
00000010: daba 503e 1910 723d b155 8dbd 0c43 02be
00000020: 8abb ce3e cd91 023d 6242 b4bd 535c 133e
00000030: c402 5a3e e3e4 5cbe 297e 363e 7aad 1abe
00000040: d2ca a03e d708 0dbe 858f 32be 5fd3 1abe
00000050: 0849 d73c 036a 71be 67c2 1c3e cceb d6bd
00000060: ea28 d9bd 97da 46bd 69ff 0bbd 0d81 86be
00000070: 87e5 b13e a650 5abe 199d d23b 3a46 53be
00000080: c1e7 2fbe 70a0 843d d4e3 acbe 52f4 a8be
00000090: edd5 dcbd 7a0b ac3e 62e3 e83d 9dc4 10bd
000000a0: 0d0b a53e d4b7 0d3e 966d 9ebe ac17 e03d
000000b0: 2b02 debe ab21 30be 4927 91bd 384f a73d
000000c0: 6bc9 9bbd ef70 003d 2a4b 8bbc aa10 cdbd
000000d0: 580a de3d 2e27 eb3e d23f 1b3c 272f 903d
000000e0: adb5 893d c285 a1be a717 92be 0edd 0bbd
000000f0: a8c4 febb ff89 8c3e 9f14 913d a4b5 533d
00000100: 4b12 a83d 282f 6bbe a40a 9cbd 67d3 af3d
00000110: 9987 f3bd 09a0 6abe f65f 63be 5afd b1bd
00000120: f33b eb3e 0ed2 823e de4c 4c3e 4305 a63e
00000130: ba77 61bd f5e1 863e b7f0 7c3d dee1 7d3e
00000140: b806 a0be 6f7d ccbc 4df4 d23e 1133 bc3d
00000150: c82a 2a3c 3255 d5bd 106c c93c c1ea 72be
00000160: b1ce d53d f709 c7bd a54b 41be 9542 b53c
00000170: 516b 8cbe b724 1abe 7132 b3be eb33 053e
00000180: ed43 04be b507 203e 132b edbc eb4e 13be
00000190: 6c91 d0be 2a63 70bc 9cc3 033e ede8 45bd
000001a0: 63df b93e 5bf8 0c3e e1cd f4be 8ecc f3bc
000001b0: 6ce0 213e 690e 98bc 1265 13be 91de e8be
000001c0: 4316 81be 416b 3f3e 64a0 28bd 73ea 213f
000001d0: baf0 07be f4d1 09be d342 99be 9dfc bdbe
000001e0: c447 813e 3acc 133c 34f5 02bc 6218 e03c
000001f0: 60ba bdbe fd96 153e d078 0fbe ddb5 6b3e
00000200: acfa 863d 4b5c 0a3e 5aee 97be 3fbf fcbb
00000210: 65e9 c93d a02e 083e b602 533e 77f8 af3c
00000220: d7b8 033e 5ba9 2d3e 43f7 85bb 66dc 173e
00000230: 3f1b 66be cf6b e4ba 524f 143e a913 d2bc
00000240: 1ef0 7b3d daeb 6dbe cfbe 223e 253e 4b3c
00000250: 4be6 85bd 48c6 eb3d 7aa1 c9bd e678 89bd
00000260: 2646 a63e dd50 7ebd 5260 f3bd 7130 3abe
00000270: 0a68 7fbe 7caf c33d a591 ac3d 37d6 123e
00000280: f4ff 99be 645a 48be 4b36 b83d 2026 203e
00000290: 6ba2 6bbd 7f8f a3be 2128 873c d7db c8be
000002a0: 6f0a cebd 37ce 8a3e 0d4f 5d3e 35bd 49be
000002b0: 9bb7 77be 62d0 3c3e 8b4f 24bd 9c4b 98bd
000002c0: 854a 2cbe dae1 52be 9bbc 33bd 774a 9b3d
000002d0: 88fd 65bd ab2d 143e 40e9 743e 3087 47be
000002e0: 698d 32be 3fc9 2abe 9bb6 2abd f3ea 973e
000002f0: 304c c2bd 7a37 f7bd d642 413c d985 33bc
00000300: 9794 b2be accc cd3e 36dc 0abe aa02 4cbe
00000310: dad7 9bbd 405a c63e 0ded 113d 0911 073e
00000320: d320 d3bd 6e7b 4fbe 9bf4 da3e aa54 943e
00000330: 95d5 f7bd 9c30 a53e 807d ccbd cc3c 86be
00000340: 699b 213e 3b55 b4be 9a96 8f3e d422 ef3c
00000350: e5ed d9be 7a31 20be 6b9e d6be 1bda 823d
00000360: 1c19 4f3e c5f5 90bd 48f8 903e 4edc 7fbe
00000370: 566a c7be d6f5 66bd 8a5d 71bd c6c2 353e
00000380: 7ee5 c0be 54fa 883d 246f 3bbe 11d1 ee3e
00000390: df93 31be d4a3 55be c256 16bd 91b8 d73d
000003a0: e6e8 8d3e a794 043e 60e6 7d3d 4b1a 19bd
000003b0: c751 d03d 9ab8 0abe 9bf9 90bd b5fd 59bd
000003c0: 7d92 6fbe d505 abbd 1aa5 6cbd e42c d1bd
000003d0: 4079 69be 3c9d a53e 117d 2ebe 0430 3ebe
000003e0: 1fac 1f3d 8be2 87bd bc05 933d edfd 4bbd
000003f0: 7f53 73be 4d5d 893e 0a79 bdbe de98 e03d
0.25369245 0.035269603 -0.03436823 -0.090995155 0.20383778 0.059097383 -0.0690111 -0.12720889
0.40377456 0.031877328 -0.08801724 0.14390688 0.21290118 -0.21571688 0.17821564 -0.15105239
0.3140474 -0.13772903 -0.17437561 -0.15119694 0.026279941 -0.23575597 0.15308534 -0.104941934
-0.10603507 -0.048548307 -0.034179125 -0.26270333 0.34745428 -0.21319827 0.006427419 -0.20632258
-0.17178251 0.064759135 -0.3376757 -0.32998902 -0.107829906 0.33602506 0.11371495 -0.035343755
0.32234994 0.13839656 -0.30942982 0.10942015 -0.4336103 -0.17200343 -0.07087571 0.08169407
-0.07606777 0.031357702 -0.017003614 -0.10012944 0.10841817 0.4592833 0.009475665 0.070402436
0.06724105 -0.31547362 -0.2853367 -0.03414636 -0.007774908 0.27449033 0.07084011 0.051686898
0.08206614 -0.22967207 -0.07619217 0.08585244 -0.118910976 -0.22912611 -0.22204575 -0.08690901
0.45944175 0.25550884 0.19951198 0.3242589 -0.05504582 0.26344267 0.061753 0.24793193
-0.31255126 -0.024962155 0.41202012 0.09189428 0.010386176 -0.1041664 0.024587661 -0.23722364
0.10439814 -0.097186975 -0.18876512 0.022126475 -0.27425626 -0.15053068 -0.3499942 0.13008086
-0.12916537 0.1562794 -0.028951203 -0.14385574 -0.40735948 -0.01467208 0.12867588 -0.04831784
0.36303243 0.13766615 -0.47813323 -0.029760625 0.15808266 -0.018561559 -0.14394024 -0.45482305
-0.25212297 0.18693258 -0.041168585 0.63248366 -0.13275424 -0.13458997 -0.29933795 -0.3710679
0.25250065 0.009020859 -0.007993031 0.027355377 -0.37056255 0.14608379 -0.1401093 0.23018594
0.065907806 0.1351177 -0.29674035 -0.007713228 0.098589696 0.13299036 0.20606503 0.021480782
0.1286348 0.16959135 -0.004088314 0.14830169 -0.22471331 -0.0017427149 0.14483383 -0.02564414
0.06150829 -0.23234501 0.158931 0.012404953 -0.065380655 0.115124285 -0.09845252 -0.06712513
0.32475394 -0.062088836 -0.11883606 -0.18182541 -0.24942032 0.09554955 0.08426217 0.14339529
-0.3007809 -0.19565731 0.089947306 0.15639544 -0.05752794 -0.31945416 0.016498627 -0.39230224
-0.10060584 0.27110454 0.21612187 -0.19701083 -0.24191134 0.18438867 -0.04011492 -0.07436296
-0.16825302 -0.20593968 -0.04388104 0.075825624 -0.05614999 0.14470546 0.23917103 -0.19485164
-0.17436756 -0.16678332 -0.041678052 0.2967144 -0.09487188 -0.12071128 0.01179572 -0.010957205
-0.3487899 0.40195215 -0.13560566 -0.19922891 -0.0760953 0.3874073 0.03562646 0.13190092
-0.10308995 -0.20261928 0.42764744 0.28970844 -0.121012844 0.3226365 -0.09984875 -0.2621826
0.1578194 -0.35221276 0.28044587 0.029191412 -0.42564312 -0.15643874 -0.41917738 0.063892566
0.20224422 -0.07078127 0.28314424 -0.24986383 -0.38948315 -0.05638679 -0.058927096 0.17750081
-0.3767509 0.06688371 -0.18304116 0.4664388 -0.17341565 -0.20863277 -0.036703832 0.1053325
0.2771675 0.12947331 0.06198728 -0.03737859 0.10171848 -0.13546982 -0.070788585 -0.05322047
-0.23395725 -0.08350722 -0.05777464 -0.1021364 -0.2280016 0.32346523 -0.17039897 -0.18573004
0.038982507 -0.066350065 0.07178828 -0.04980271 -0.2376232 0.26828995 -0.37006408 0.10966657

bias f4 [20]
00000000: 4e09 5fbc 62a8 b7bb e70f 6cbc 70b9 e0bd
00000010: c3e7 323d 2ba5 923d 216f 34bc 690c e7bc
00000020: a6b7 773d e487 31bd c776 e7bc 57fc edbc
00000030: 5a53 023c c23c 1abd d34c 32bd 951e 163b
00000040: 41e5 863d 6067 ac3d aeca 093c b285 52be
-0.013613058 -0.0056047896 -0.014408088 -0.109728694 0.043678056 0.071604095 -0.011012823 -0.02820416
0.060477875 -0.043342486 -0.02825488 -0.02905099 0.007954443 -0.0376556 -0.043530297 0.0022906412
0.065866955 0.08418155 0.008410139 -0.20558813

weight f4 [20, 20]
00000000: 1723 6d3e 9d04 d93d f87b 79bd 8a54 013e
00000010: d7f5 b6bd 86b5 d43b c37b 8a3d a703 df3c
00000020: 217b 573b 38a5 c63d 9879 093e 19d7 b33c
00000030: 60bc 863e be99 893e c5cc dbbd 0116 f53d
00000040: 1995 ec3d 9f23 a83e 603d c83d 4801 f5be
00000050: 4e62 073e 1bc6 643e 3235 8cbe c286 81be
00000060: c830 4d3d b3df 663d d157 11be ed23 623e
00000070: 5aef 643e 9a41 d83d 2ade d6bd a55f 94be
00000080: 86bf 843e 9d9a 083e c477 87bd 2007 7fbe
00000090: 2ab2 763e ac26 2bbe 7bcf 1cbe 257c 4b3d
000000a0: 3cd5 bdbe a54b 70bc c7b9 d0bd 87a5 5ebe
000000b0: 2029 8dbe 1380 c9bb 731c 923d 519c c9be
000000c0: bead 1fbe c4b8 703d a2b1 9ebd b8c0 8ebe
000000d0: 765d 17be 71df c7bd d87b c23e 1643 833e
000000e0: fee3 bb3d 737b 2bbe 94ca 233e 179b 963e
000000f0: a067 97be ab65 d53d ca76 76be 2585 5cbe
00000100: c4d4 3cbd cfbf ae3c 6596 61be 6fd5 46be
00000110: 0ce4 23be 55cf a03e 014d 0b3e 7ff9 1d3e
00000120: 83b3 da3c afc0 323e 98a7 943e 3d25 563e
00000130: 8f7d a9be b9a0 d23d 109e 4e3c e5ef 21be
00000140: 202e 0dbe 9d5d 4abe 9373 0ebe cefa 3cbe
00000150: 6da1 d1be 167b 0fbe a8c8 89be fb52 84be
00000160: c015 db3d 2379 8ebe aceb c03e 6107 37bd
00000170: c12a 81be a50c f5bc 8544 16bc e467 43be
00000180: ce96 2dbd af73 3ebd fe6f d23b 0e0f 62be
00000190: fc4e e0bd 9711 e0bc 5117 01bf 6b3b 383e
000001a0: ce28 14bf 2ac6 7ebe 93a0 b63c 4a11 6cbe
000001b0: 932b 943e 1238 0cbe af73 99bd d8c9 973e
000001c0: 7f3d 80be 31bf 4dbe 089a 70bc 5950 803e
000001d0: f1e3 8b3e 5659 72bd f4c8 12be 44e4 fd3e
000001e0: ed95 18be ac9e bebc 67e0 c5bd a8ee 1f3e
000001f0: f01c 6f3e 9032 4abd bde8 193e ae70 5cbe
00000200: fd46 5e3e 7410 b2bc 6d00 293e 9a34 a2bd
00000210: 75ec 23be 946e 8dbd 17a6 973e 8e1c 06bf
00000220: 6600 9abd 7d9b 7bbe f68f f43b 91ef 82be
00000230: 90b2 203e 12b8 1cba 60c8 21be 5573 453d
00000240: f4c1 783e a6b0 e9bd 7931 4bbd b61a 17be
00000250: 78e7 0c3e 3c9f 5fbc 86f0 1a3e cb7a 31be
00000260: f14d 063e f3ee 78bd ba35 c63d 3f7c abbd
00000270: fe73 48be b091 1e3e e022 97be 28aa 9a3d
00000280: 8eba 30be 011d 3dbe 8d2b b8bc 41be e83d
00000290: d90c 9c3e df10 eb3d ca9d f5bc a79c d43e
000002a0: 6d59 1d3f f5e8 3f3e dde6 f8bd b72b 53be
000002b0: d5aa 423d ae12 2cbb 5bee 03bd 9d09 f63d
000002c0: 2779 8a3e ecbd aebe 25dd 143e 1e76 86be
000002d0: d83b 40be f87e aebe 0f6b 73bb a55a 963e
000002e0: f792 bb3d 7d1c 1f3e dff3 f3bc dcf6 77be
000002f0: 7786 a53c 587f 02be ed4d df3d 7a17 d7bd
00000300: 6166 70be 9e52 b9bd ba0d 1bbe b9f4 ebbe
00000310: 6297 b23c c53b cabe c773 12be 0e6c 3f3e
00000320: 73dd a53e 64da 4f3e f590 963e 3351 1d3d
00000330: 2235 d7bd c476 aabc 71cf 893e f4c0 b3bd
00000340: b0ed fdbd 8867 7a3e 597c 00bc d58e 90be
00000350: 339a 96be e8f5 e93c 32f8 fbbd e853 9a3e
00000360: dcdf 14bd c16a f0bd 50bc 093b f4e7 0cbe
00000370: 7d17 383e 0113 3d3e 830d c53e 3f02 423d
00000380: 283c 68be 3e1f af3e 6e8b e53b 47f4 a6be
00000390: 541a 5d3e 0195 89be 38e6 bd3e ee45 553e
000003a0: b941 a23e 400f 44be b65a a7be a7c0 913e
000003b0: 85ee 2b3e e280 b2be 2ec7 0f3f 7870 82bd
000003c0: 528e 363e 1dc5 cfbd e2cf b03e d5e3 07bd
000003d0: 38dc 54be cda2 243e aab9 86be fb0f b4be
000003e0: 8580 c63d 0935 a73e 238f 07be c7db 1ebe
000003f0: d141 343d b942 193e 97cf 443e 398a 303e
0.23157917 0.10596583 -0.06090924 0.12629905 -0.08933609 0.006491366 0.06761887 0.027223421
0.0032879787 0.09699482 0.1342529 0.021953152 0.26315594 0.26875108 -0.10732416 0.119670875
0.115518756 0.32839677 0.09777331 -0.4785254 0.13221094 0.22341196 -0.27384335 -0.25298125
0.05009535 0.05636568 -0.14193656 0.22084017 0.2235693 0.105593875 -0.10491593 -0.2897922
0.2592737 0.1334023 -0.0661464 -0.24905062 0.24091402 -0.16713971 -0.15313523 0.04967894
-0.37076747 -0.014666473 -0.10191684 -0.21742831 -0.27570438 -0.006149301 0.071343325 -0.39377072
-0.15593621 0.058769956 -0.077487245 -0.27881408 -0.14781746 -0.09759415 0.3798511 0.2563712
0.091743454 -0.16746311 0.15995246 0.294152 -0.29571247 0.10419782 -0.24068752 -0.21535166
-0.046101347 0.021331696 -0.22030027 -0.19417356 -0.16004962 0.31408182 0.13603593 0.15427206
0.026696926 0.17456315 0.29034114 0.20912643 -0.33103606 0.10284562 0.012610927 -0.15814169
-0.13787127 -0.19762273 -0.13911276 -0.1845505 -0.4094347 -0.14011797 -0.269109 -0.2584456
0.10697508 -0.27826795 0.37679803 -0.04468477 -0.2522793 -0.029913256 -0.00917161 -0.190826
-0.042380147 -0.046497043 0.006422042 -0.22076055 -0.10952565 -0.027352137 -0.50426203 0.17991416
-0.57874763 -0.24880281 0.022293365 -0.2305347 0.28939494 -0.13693264 -0.07492768 0.29646182
-0.25046918 -0.20092465 -0.014685161 0.250613 0.27322343 -0.05916723 -0.1433447 0.49588215
-0.14900942 -0.02326902 -0.09661942 0.15618384 0.23350883 -0.049364626 0.15030189 -0.21527359
0.21706767 -0.021736361 0.16504069 -0.07920189 -0.1600817 -0.06905857 0.29618904 -0.5238732
-0.07519607 -0.24571033 0.0074634505 -0.255734 0.15693116 -0.00059783563 -0.15799093 0.048205692
0.24292737 -0.11410646 -0.049607728 -0.14756283 0.13760173 -0.013648804 0.15130815 -0.17331998
0.1311567 -0.060774755 0.09678216 -0.083733074 -0.19575498 0.15485263 -0.29518795 0.07551986
-0.17258665 -0.18468095 -0.022481704 0.11364413 0.30478552 0.11477827 -0.029982466 0.41525766
0.6146458 0.1874121 -0.12153409 -0.20622145 0.0475262 -0.002625625 -0.032209735 0.12013552
0.27045557 -0.34129274 0.14537485 -0.2626199 -0.18772829 -0.34081244 -0.003714267 0.2936603
0.09158891 0.15538211 -0.029779373 -0.24215263 0.02020572 -0.1274389 0.10903535 -0.10502525
-0.23476554 -0.09048961 -0.15141955 -0.46085146 0.0218007 -0.39498726 -0.14301978 0.18693563
0.32395515 0.20298153 0.29407468 0.038407516 -0.10508181 -0.020808585 0.26916078 -0.08777037
-0.12398851 0.24453557 -0.007842147 -0.28233972 -0.2941452 0.02855964 -0.12303199 0.3014214
-0.0363463 -0.11739112 0.0021016784 -0.13760358 0.1797771 0.1846428 0.3848687 0.047365423
-0.22679198 0.34203523 0.0070051467 -0.32608244 0.21592075 -0.26871493 0.37089705 0.20827457
0.31690767 -0.19146442 -0.32686394 0.28467295 0.16790207 -0.34863955 0.561633 -0.06369108
0.17827728 -0.10145018 0.34533602 -0.033176262 -0.20787132 0.16077729 -0.26313525 -0.35168442
0.09692482 0.3265765 -0.13238196 -0.15513526 0.04400808 0.14966859 0.19219814 0.17240228

bias f4 [20]
00000000: 5d51 263d cffc 0c3d 67bd 5bbc d45c 1c3d
00000010: 694a 273c ac8f febc 5fef aebb 8180 a8bd
00000020: 4ef2 9a3d a653 2a3d 43db 50bb 342d 09bc
00000030: 3f83 563d e1b0 f5bd 80fe e63d de1b 843d
00000040: 64a6 bf3b ea9b 94bc bddf eb3d 7ed3 bcbd
0.040604938 0.034420785 -0.013411856 0.038174465 0.010210612 -0.031074367 -0.005338594 -0.08227635
0.07565747 0.04158368 -0.0031868971 -0.008372594 0.05237126 -0.119966276 0.11279011 0.06450628
0.0058486927 -0.018140752 0.11517284 -0.092200264

weight f4 [20, 20]
00000000: ab48 02be dcfe 873d 258f 84be bfa1 abbd
00000010: 0c86 03bd f46a a4bc 8732 803e c0a7 d7bd
00000020: 0254 bc3e 38f3 6d3e 487c b13d ba16 b1bd
00000030: 2b1c 82bb 3e19 08bd db54 57be be20 973e
00000040: b13f 9ebe 9c3c a53e 4ac4 0abe c39a c0bd
00000050: 1872 663e 703f 063f 52c0 a63d bbee 293e
00000060: 023a 89be 4caa 923d 5002 8cbe 2c0b 59be
00000070: ed89 7a3e 94e4 963d 25c7 443e 1ad9 71be
00000080: 1f7d 65be d2de cfbd e09a e2bd 0c8a ed3d
00000090: a637 a63e 733b e43d 95be 4a3e 779c a53d
000000a0: f8e7 c1be b455 1dbe 2f8c e33e 701c 0a3e
000000b0: 430c 5cbb 5da9 9a3d 4159 ebbd 3181 293e
000000c0: c1cb 9b3d e112 1e3e adc8 343d 6bfd 4a3e
000000d0: de7c b8be ff9c 0e3e 9386 8e3e 88a4 033f
000000e0: 7e99 953d e765 023e 4bf6 9dbe d011 6b3d
000000f0: 2e0b 0d3e e21e 693d d036 653e 67e6 d4be
00000100: 860c d4bd 9df6 23be 4f66 bdbe 0998 3cbd
00000110: 1835 5dbd 2f78 a73e 9b09 4abe b72c a73e
00000120: 45bc 53bc 1b0b 653e 6167 ad3d 16a1 ab3d
00000130: e4d2 943e 4c7a 00bc eb0e 44be 3ab4 e0be
00000140: d838 353e 9a13 5c3d a5ac 513e 5130 853e
00000150: c7d4 4e3f f887 d8bd cc0a b93e 6d4c 2d3e
00000160: e6e0 2e3e 7881 803d d5bc 80be e407 8d3d
00000170: 8404 85be c93e 55bc 2827 c03d 99e4 03bf
00000180: 053c 3abe eb37 c3bb 216b 243e 8cd1 8b3e
00000190: 9b2a e03d 2256 56be 7b3f 18be 061d 48be
000001a0: 2eee c2be 8e4b 563e be8f 973e e4af 173f
000001b0: 8dba 80be 4d99 6cbe 5dd4 af3e 31a8 4f3e
000001c0: 2117 cfbe d1a8 863e 81e1 1bbd 79ce 3b3e
000001d0: 3629 81bd 6204 e1bd 5fa0 08be f352 5f3e
000001e0: c654 bebe 71c7 623e b899 20be 2b3d cebd
000001f0: d778 433d 7ca9 f53d f3d0 c4bd f42a 07be
00000200: 4b4c c9ba 11ae 0fbf 7306 1d3e df96 88be
00000210: 0596 f4bc 10c9 b3be 4dfb 72be bff6 99be
00000220: 031c 74be d0d1 c9bd af5c 803e 146d 67bd
00000230: 4806 b53e 6cb3 bbbe 4b70 8d3d aaef 213e
00000240: c7eb 7ebe 5483 253e 3edb 663b a0c2 21be
00000250: 71c6 26be 7b4e ccbd ace8 51bd 2263 01be
00000260: e354 c3bd a1a8 823e 24d3 d13c 407d 4a3e
00000270: 5c98 e43d 3064 be3d f085 3cbe 99e0 37be
00000280: 4ecf e3bd 7fed 96bd a62e 27bd d5a4 4b3d
00000290: 5120 84bd 0e97 6fbd e940 6c3e e811 47bd
000002a0: 617f a53d 62c1 453e 4d37 9dbd 3aa6 c13d
000002b0: 166e dfbc 6ac9 3d3e 043c 3e3d 49b9 e4be
000002c0: 2aec 1abe a955 fa3c 5120 e0bd 0d10 a4be
000002d0: 3dee 763e cfa0 a93e d59c 98be 5884 c2be
000002e0: dd5d fa3d e27f 423e e5c2 543e 82e9 973e
000002f0: 099a 1dbe 7495 2fbe b53b 67be 4c38 283a
00000300: 8fe2 153e ca0c 5abd 3d15 6b3e ff62 913e
00000310: 1c7a d43d d9e5 5f3d 2589 173e 02d5 07be
00000320: a171 fc3d 5ba8 8cbe 1ce5 31be efed 88bd
00000330: 79c5 843e ed19 b4be 6b56 6a3c 30b8 e53d
00000340: 9db0 4f3e 04e2 32bb 41ef f0bd 539d e8be
00000350: b5d5 b43d e7c7 93be 3e15 fb3d b4d5 ba3b
00000360: 0308 003d 0855 78be ccf7 d13e 75f1 c23d
00000370: f6cc 093e 16dc 90bd 8fc6 8f3e e0ba 40bd
00000380: 2af2 313e f66a 2fbe 122d 93bd 92d6 2abd
00000390: 5fed 583e eb0f 89bc f0b3 9b3e 8bac eabd
000003a0: e68c 1d3d 4a75 92be 209e 0cbe 9f9f 97be
000003b0: 3365 39be 4d0f 0ebc dd11 b53e f1f2 323e
000003c0: 8146 87be b228 9ebc c175 8d3e f662 013d
000003d0: d91f 163e b15e b53e 48a6 d73d 81f6 69bb
000003e0: efe3 f8be 208b c7be 4bf9 37bc 27b7 27bb
000003f0: 0a86 643e 08f3 9abd ea3c 623c b92c d23d
-0.12723033 0.066404074 -0.2589046 -0.0838046 -0.03211026 -0.02007053 0.2503855 -0.10530043
0.36782843 0.23237312 0.08666283 -0.08646913 -0.003970643 -0.033227198 -0.21028464 0.29517168
-0.30907968 0.32272804 -0.13551441 -0.094045185 0.22504461 0.5244055 0.08142151 0.16594975
-0.2680207 0.07161388 -0.27345514 -0.21195668 0.24466677 0.073678166 0.19216593 -0.23617974
-0.22411011 -0.101499215 -0.11064696 0.11598596 0.3246433 0.111441515 0.19799264 0.08086484
-0.3787229 -0.15364724 0.4444289 0.1348741 -0.0033576644 0.07551835 -0.11491633 0.16553189
0.07607222 0.15436889 0.04413669 0.19823234 -0.36032766 0.13927077 0.27837047 0.5142293
0.07304667 0.12734185 -0.3085197 0.057390034 0.13773796 0.056914218 0.2238419 -0.41582033
-0.10353951 -0.16012044 -0.36992118 -0.04604343 -0.054005712 0.3270888 -0.19730227 0.32651302
-0.012923305 0.22367518 0.084669836 0.08380334 0.29067147 -0.007841658 -0.19146316 -0.43887502
0.17697465 0.05372963 0.20476015 0.26013425 0.8079342 -0.10572809 0.3614105 0.16923685
0.1707798 0.06274694 -0.25144067 0.06886271 -0.25980008 -0.013015457 0.093824685 -0.5152069
-0.18186958 -0.0059575937 0.16056491 0.2730831 0.10945626 -0.20931295 -0.14867966 -0.19542322
-0.38072342 0.2092726 0.29601854 0.5925276 -0.25142327 -0.23105355 0.34341708 0.20279004
-0.40447333 0.26300672 -0.038056854 0.18340482 -0.063066885 -0.10987164 -0.13342427 0.21808986
-0.37174052 0.22146393 -0.15683639 -0.100702606 0.047722664 0.11995217 -0.096101664 -0.13199979
-0.001535782 -0.5612498 0.15334491 -0.26677606 -0.029856691 -0.35114336 -0.23728676 -0.30071065
-0.2383881 -0.09854472 0.25070712 -0.05650051 0.35356355 -0.36660326 0.06906184 0.15814081
-0.2489463 0.16163379 0.0035225893 -0.157969 -0.16286637 -0.099759065 -0.051247284 -0.12635472
-0.09537675 0.2551928 0.025613375 0.19774342 0.11161873 0.09296453 -0.18410468 -0.17956771
-0.111235246 -0.073695175 -0.04081597 0.049717743 -0.06451476 -0.058493666 0.23071636 -0.04860106
0.08080936 0.19312051 -0.076765634 0.09455533 -0.027274173 0.18533865 0.046443954 -0.4467261
-0.15129152 0.030558424 -0.10943664 -0.32043496 0.24114318 0.331305 -0.29807153 -0.37991595
0.12224934 0.18994096 0.20777471 0.2967034 -0.15390791 -0.17146856 -0.2258137 0.00064170803
0.14637206 -0.053234853 0.2295732 0.2839584 0.10374853 0.05466256 0.1479841 -0.1326485
0.123263605 -0.27472195 -0.17372555 -0.06686007 0.2593191 -0.3517603 0.01430283 0.112167716
0.20282216 -0.002729536 -0.11764384 -0.4543253 0.08829824 -0.2886345 0.12259911 0.005701745
0.03125764 -0.24251187 0.41009367 0.095187105 0.13457093 -0.07073228 0.28081176 -0.047053218
0.17377535 -0.17130646 -0.07186331 -0.041708536 0.211843 -0.016731223 0.3041072 -0.11458691
0.03846445 -0.2860511 -0.13732195 -0.2961397 -0.1810501 -0.00867064 0.3536519 0.17475487
-0.26420978 -0.019306514 0.27628902 0.031588517 0.14660586 0.35423806 0.105297625 -0.0035699906
-0.486114 -0.3897333 -0.01122887 -0.0025591345 0.22316757 -0.07565886 0.013808468 0.102624364

bias f4 [20]
00000000: c17b 85bb e2c9 0b3d 81d1 6a3c ef70 a83c
00000010: c11d cbbc 54f4 d3bd bb64 1bbc d178 bd3c
00000020: b52a a33b ab9c b73c 9c5b 95bd 9caa 763b
00000030: 5e15 5cbc 9f33 0bbd 90cb 913c aeea c4bd
00000040: 82bd 03bd 2985 8dbc d55c cfbb 2b70 f2bc
-0.0040735905 0.034128077 0.014332176 0.020561663 -0.024794461 -0.10349336 -0.009484465 0.023128899
0.0049794563 0.022413572 -0.07292864 0.0037638312 -0.013432829 -0.033984777 0.017797261 -0.09615074
-0.03216315 -0.01727541 -0.006328205 -0.029594501

weight f4 [20, 20]
00000000: d22e 173e 5856 89bd 2961 02bd c772 afbd
00000010: 51e4 f8bc e107 9dbe 20f3 15be 8f51 d33e
00000020: 940f 87be 414b 8d3e 9356 c1bd b399 94be
00000030: 28ba 0f3e f946 baba 9593 1d3e 23cb 9f3d
00000040: d838 a7be b263 363e 53d8 163d 7cb3 65bc
00000050: 218c 163e c21a fe3d 1260 863e 232b 253e
00000060: 5b04 63bc 4105 753a 279b 23bb 43b0 993d
00000070: c925 5e3e 1e2c 403e 006d b8be fd5c 4a3d
00000080: 8b4a d73e e136 1fbe 7956 edbd 34a4 0bbf
00000090: e5a3 9ebd 429d da3e 94fc 88be d295 2b3d
000000a0: 0547 e83b 4f8e 963d 0b93 fe3e 204f f83d
000000b0: 7b30 5e3b 31a6 013f 64fa 8ebe 02c9 1ebe
000000c0: 5ac2 b23d 866d ccbe 5e48 81bd 8a73 c83c
000000d0: 6453 aa3d 1a41 bcbd 58f6 2d3d 1ec6 bbbe
000000e0: f57a 73be e699 73bd 903b 96be 31f9 0abe
000000f0: 478b 623d 1fef adbd 10e5 90bb 08a6 44be
00000100: 94e7 d3bc c233 73bc 01ac ef3d a9e6 1abe
00000110: 9cd2 943e d57f 7abe 45b6 203e b612 a73e
00000120: 36ca 69be 2f67 293e 77fe a2be a58e 60be
00000130: b1ee 55bd aa43 443e af3d 5f3d ebf0 a9bd
00000140: b121 3c3e 18e7 cebd 5d62 c8bc 6aa2 55bd
00000150: c610 163e 18c6 4d3e 3385 d73e d0c8 b33e
00000160: abd8 cfbd 7ac1 d1be c3a2 30bd ef03 9b3d
00000170: 9031 ae3e 65d2 263e d850 d7be fb02 b03d
00000180: 4d89 4dbe 4a30 03be f937 f83e a82c b63e
00000190: 73ca 16be 02ce 303e bc2b 043e 4a40 ee3d
000001a0: 5892 41be 31ff f6bd 0e24 33be 5117 3d3e
000001b0: a6f9 64be b9b2 20be a45b 76bb a876 1c3d
000001c0: d77c 7d3e 5873 bdbe b493 093e 0436 943d
000001d0: 0dd9 d13d 9dbf 053f 8b24 68be be22 643c
000001e0: ffca e43e 1519 7a3d 93f8 93be 0cd6 cb3d
000001f0: 1b7f 833e e4ad 913e 7401 2e3e 7e7c 563d
00000200: b00a 34be be67 94bd 55eb 603e 06d5 b13e
00000210: 1d58 1cbe 3b1d 053e 4605 00be f358 463e
00000220: 4d3a f0bc 9df9 e33d 1b83 1c3e 48d3 373e
00000230: bf88 d3be 4598 88be 381c 383d d0d7 bf3e
00000240: 1a6c 8dbe 1c4e bf3d dfc8 703e c812 093e
00000250: 3695 a5bc f8b8 883c 27a7 e73d 6aa4 27bf
00000260: 0329 ccbe b983 7b3d d75f 2d3e 8621 bebd
00000270: bd0f 2cbc 02b2 003e b2e2 aa3e 0675 bdbe
00000280: 2764 e1bd 50a1 953e 1216 863e 91fe 903e
00000290: b67f 5e3a bd24 013e 6bbd b43e 317f 48be
000002a0: 6770 f3bd 95fb 95be 6eab 60be deae 883e
000002b0: fd29 8a3e 296a 9bbe 8fdd 04be e846 893e
000002c0: 3f5d 203e b8d8 bcbd 1894 ccbd acb2 2a3d
000002d0: 7aef b7be c28d af3e 5d5c bfbd 58f8 dbbe
000002e0: 1ad2 2c3e 7795 aebe 072c 713e e857 c83d
000002f0: fe36 c83c 1d87 233e 7225 15be 9d31 de3e
00000300: 74d7 c2bc 9c8c d0bc efad 203d c884 3abe
00000310: 0add 8a3e 6709 9dbe 1d2f 85be a35e 353d
00000320: 8544 ae3d 55d1 543e 91cd dc3d d332 76be
00000330: f7a7 d6be 62b7 09bf 551e b53e 4f84 c03c
00000340: 8786 f03d cdfc b73e 6b3e 013d 1014 9dbd
00000350: 5b77 b83d 608a 9e3d 6204 8c3e c8a2 94be
00000360: 405e 493e 60a8 bcbe 16fa 8a3e f801 763e
00000370: 7016 563e 595f febc a795 c43e 6069 a13c
00000380: 8c0e ae3c 2956 f93e 029d bfbe 4326 d9be
00000390: 0c04 6a3e 07e8 4abe 597c 6c3e 8285 633e
000003a0: 0e4b 0a3f 4c16 ad3e 5d88 cb3e 91de a6bd
000003b0: 9cff f4be 257a a13e d092 93be 3f26 c9bd
000003c0: 18ea ce3e 1ee5 6f3e daee 2abe 184b 0dbe
000003d0: 0e9f 823d fe15 a63d 0af7 523e 7fa4 5bbe
000003e0: a6a6 813e c166 623e 0f37 b93d b86a d23e
000003f0: 26b9 803e 78b1 19bd acdf 79be c770 0b3f
0.14763954 -0.06705922 -0.03183094 -0.08566814 -0.030382307 -0.30670074 -0.14643526 0.41273162
-0.26379073 0.27596477 -0.09440341 -0.29023513 0.14035857 -0.0014211825 0.1538833 0.07802417
-0.32660556 0.17811468 0.036827397 -0.014019843 0.14701892 0.124074474 0.2624517 0.16129737
-0.013856019 0.0009346791 -0.0024964304 0.075043224 0.21694101 0.1876683 -0.3602066 0.049405087
0.4204906 -0.15548278 -0.11588759 -0.5454743 -0.07746104 0.42698103 -0.26755202 0.041890927
0.0070885443 0.07351362 0.4972156 0.12124467 0.0033903408 0.5064421 -0.27925408 -0.15506366
0.08728476 -0.3992731 -0.06312631 0.024469156 0.08316687 -0.09192105 0.04247126 -0.3667459
-0.23777373 -0.05947294 -0.29342318 -0.13571621 0.055308606 -0.08492874 -0.0044218376 -0.19203961
-0.025867261 -0.014843883 0.11702729 -0.15127052 0.29066932 -0.24462827 0.1569453 0.32631463
-0.22831044 0.16543268 -0.31834766 -0.21929415 -0.052229587 0.19166437 0.054502185 -0.082979046
0.18372227 -0.101026714 -0.024460966 -0.052156843 0.14654836 0.20095098 0.4209381 0.35114145
-0.10148748 -0.40967923 -0.04312397 0.0756911 0.34022188 0.16291197 -0.42053866 0.085943185
-0.20071907 -0.1281139 0.48480204 0.35580945 -0.14725666 0.17266086 0.12907308 0.11633356
-0.18903482 -0.12060393 -0.17494223 0.18465926 -0.22360858 -0.15693177 -0.0037591243 0.038199097
0.24754654 -0.37002063 0.1343525 0.07236865 0.10246477 0.52245504 -0.2267019 0.013924299
0.44686124 0.061059076 -0.28900585 0.099529356 0.2568291 0.2845298 0.16992742 0.05236482
-0.17582202 -0.0724635 0.21964772 0.34732836 -0.15267988 0.12999432 -0.12502012 0.19369869
-0.029324675 0.11131594 0.15284388 0.17951691 -0.41315266 -0.26678672 0.044948786 0.3746934
-0.27621537 0.0934107 0.23514126 0.1338607 -0.02021275 0.016689762 0.11311179 -0.6548525
-0.3987504 0.061404917 0.16931091 -0.09283738 -0.010501799 0.12567905 0.3337608 -0.37003344
-0.11005431 0.29224634 0.26188713 0.2831922 0.00084876583 0.12611671 0.35300764 -0.1957977
-0.118866734 -0.29293504 -0.21940395 0.26695913 0.2698516 -0.3035443 -0.12975143 0.2681191
0.1566057 -0.09221023 -0.09989184 0.0416743 -0.35924894 0.3428784 -0.09343789 -0.4296291
0.16877022 -0.34098408 0.23551951 0.09782392 0.024440285 0.1596951 -0.14565066 0.43397227
-0.023784377 -0.025457673 0.039228376 -0.18214715 0.27121764 -0.30671236 -0.26012507 0.044279706
0.08509163 0.20782979 0.10781396 -0.24042825 -0.41925022 -0.53795445 0.35374704 0.02350059
0.11744409 0.3593506 0.031553667 -0.07669842 0.0900714 0.07741237 0.27347094 -0.29030442
0.1966486 -0.3684721 0.27143925 0.24024189 0.20906997 -0.031051325 0.38395426 0.019703567
0.02124717 0.48698547 -0.37424475 -0.42412004 0.22853106 -0.19815074 0.2309431 0.22218898
0.54020774 0.33806074 0.39752474 -0.0814792 -0.47851264 0.315385 -0.28822947 -0.09821748
0.40412974 0.23427245 -0.16692677 -0.13798177 0.063779935 0.081096634 0.2060205 -0.21449469
0.25322455 0.2210951 0.09043705 0.41097045 0.25141257 -0.037522763 -0.2440173 0.5446896

bias f4 [20]
00000000: 1bd6 01bd e000 a63d 5f74 92bb 8f55 0c3d
00000010: 35a0 e0b9 68ff 27bc e1e7 023c 150a 37ba
00000020: d5ae 113c 95cd 503d 18af 033d 5731 56bd
00000030: 4398 a03b c7b9 963b 9ea7 cf3b 920e f6bc
00000040: 6f36 87bc 3828 1fbd 70aa f33c 7d28 5bbc
-0.031698328 0.08105636 -0.004469439 0.034261283 -0.00042843973 -0.010253765 0.007989855 -0.00069823983
0.008891781 0.05097731 0.032149404 -0.052293148 0.0049009635 0.004599783 0.00633712 -0.030036245
-0.016505448 -0.038856715 0.029744357 -0.013376352

weight f4 [1, 20]
00000000: 6cfb 4cbe 0d3d 2cbf 75ec 0fbf 0b80 913e
00000010: 6e2b 003f 23c7 afbe 298e 593f c1d6 39bf
00000020: 7ca4 d3bb 32f7 063f 9f01 4c3e f8cb 03bf
00000030: 6e41 763e 401f 7abf 13f3 05bf 1cfb 6bbe
00000040: 47a4 1f3f 8a95 543f 81d1 8e3e ae24 0bbf
-0.20017785 -0.67280656 -0.5622018 0.28418002 0.5006627 -0.34331617 0.84982544 -0.72593313
-0.006458817 0.5272094 0.19922493 -0.51483107 0.24048397 -0.97703934 -0.52324027 -0.2304501
0.6236004 0.8304068 0.27894214 -0.54352844

u_b f4 [2]
00000000: cdcc 8c3f 77be 7f40
1.1 3.996

l_b f4 [2]
00000000: cdcc cc3d 0000 0000
0.1 0.0
